trained_models/epoch=999modello-NoQuantile-N_iter6-N_features64-N_BS10000-epochs1000-lr0.001.pth (torch, 918276 bytes, 108 tensors)

_transform._transforms.1.autoregressive_net.initial_layer.weight f4 [64, 4]
000000 12 3a 91 3e 28 22 c7 3d 76 6d b7 3e 5e 9e be 3e
       0.28364617 0.09723312 0.358257 0.372302
000010 70 ac 1b bd 18 b7 ef be ac af 25 be d8 e0 89 3e
       -0.038006246 -0.46819377 -0.16180295 0.26929355
000020 6a 82 86 bd 62 b3 e4 3e 10 e1 50 3e 08 35 81 3d
       -0.06567843 0.44668108 0.20398355 0.06308943
000030 f7 cd 92 be e2 cb f3 3e 10 6b f7 3d 00 ca 52 be
       -0.28672764 0.47616488 0.120809674 -0.2058487
000040 39 0e a4 be 81 11 d1 3e 70 f1 f9 bd f2 5d 8e be
       -0.320421 0.40833667 -0.12204254 -0.2780605
000050 70 c7 93 3e 4b a5 36 be 44 07 9d 3e a0 0f 9b be
       0.28863096 -0.17836492 0.30669606 -0.30285358
000060 44 65 7b 3e 64 8e 3f be 02 86 a0 be fa 22 a8 3e
       0.24550349 -0.18706661 -0.3135224 0.32839185
000070 b3 42 e1 3e e7 59 44 be 34 91 b4 be 78 87 e1 3d
       0.439962 -0.1917492 -0.3526703 0.11012167
000080 ad 0d 4c bd db ec 0a 3f dd 8e b5 3e 3c a8 d2 be
       -0.04981773 0.5426766 0.3546056 -0.41143978
000090 99 47 f3 be 90 07 fd be f4 a5 0e be 10 84 1f be
       -0.47515562 -0.49419832 -0.13930494 -0.15577722
0000a0 25 05 86 be d4 e9 c3 3d 5c 0c 2e be 34 2d ee 3e
       -0.261758 0.095660836 -0.16996902 0.46518862
0000b0 f5 de 8d be 8e d1 87 be 7f 57 20 3d c4 ed 1f be
       -0.27709165 -0.26527065 0.039145943 -0.15618044
0000c0 d3 da 9d 3e 7e 83 c7 be 58 f8 7b 3e 54 f6 54 3e
       0.30831012 -0.38967508 0.24606454 0.20797092
0000d0 74 da b9 be 59 13 d1 3e fa d7 92 be 20 bb 19 3e
       -0.3629948 0.40835074 -0.28680402 0.15012789
0000e0 65 69 7d bd b5 e1 a8 be 12 e8 cd 3e d4 f3 b4 3e
       -0.06186809 -0.329847 0.40216118 0.35342276
0000f0 ea dd 8d 3e d4 8a 10 3e 84 54 f4 be 60 76 75 be
       0.2770837 0.14115459 -0.4772073 -0.23970938
000100 e2 bd 8a be 68 43 c9 3e 6e 0e b8 be 08 d2 da be
       -0.27097994 0.3930924 -0.3594851 -0.42738366
000110 92 99 65 bd 36 cc ee be 5c 87 ce 3d ba d6 e1 be
       -0.05605466 -0.46640176 0.100844115 -0.44109136
000120 43 a7 45 bd 1c 3e 97 3e d0 21 c6 be 1c d3 1e 3e
       -0.048255216 0.29539573 -0.38697672 0.1551022
000130 e8 d7 2f 3d 92 d4 ac be 28 e1 dc 3e 6a 72 df be
       0.042930514 -0.33755928 0.4314053 -0.43641979
000140 36 c7 86 3e 23 c2 d2 be ec b2 44 3e 1c b5 0f 3e
       0.2632386 -0.4116374 0.19208878 0.14033931
000150 15 2b 03 bf 3c 3d d2 3e fa c1 98 3e 54 dd fa be
       -0.5123761 0.41062343 0.29835492 -0.48996985
000160 f7 d2 03 bf b1 70 b3 be 80 78 ea 3e c4 58 56 3e
       -0.5149378 -0.35046914 0.4579506 0.20932299
000170 30 37 c4 be a2 f8 49 3d 72 98 6d be 14 88 ec 3e
       -0.38323355 0.04930938 -0.23202685 0.4619757
000180 b3 6b 0b 3e a2 95 ab 3e d8 c9 d3 3e 00 09 bd be
       0.13615303 0.33512598 0.41364932 -0.3692093
000190 e6 28 b5 3e 0c 9e c3 3d f0 cd 50 3d f4 f7 5f 3e
       0.35382766 0.095516294 0.050977647 0.2187193
0001a0 30 ed 50 bd c3 68 ac be ad 94 cd 3d 60 4e 93 bd
       -0.05100745 -0.33673677 0.10038123 -0.07192683
0001b0 6d 94 d9 3e c8 ae bd be 00 6c 17 3e 30 94 70 bd
       0.42496052 -0.3704741 0.14787292 -0.058735073
0001c0 8d 4e d7 3d 7a ba c1 be 24 44 bf be c8 19 f2 3e
       0.10513029 -0.37837583 -0.37356675 0.47285295
0001d0 c6 a6 a1 3d d0 9c 34 bd 4f e1 6e be 48 6e 4c 3e
       0.07893138 -0.04409486 -0.23328136 0.19963944
0001e0 7e 09 c6 3e 48 30 86 be 6c 52 b3 be d2 97 8c be
       0.38679117 -0.2620871 -0.3502382 -0.2745958
0001f0 8a b5 74 3d 49 50 d0 be 50 37 bc 3d b8 57 fc be
       0.05974344 -0.40686253 0.091902375 -0.49285674
000200 01 e0 49 be b2 a1 a2 bd 0b 47 c6 3e c0 1f ef 3e
       -0.19714357 -0.07940997 0.38726076 0.4670391
000210 70 95 74 3e 3c 10 d5 be 00 35 d9 bb 78 d5 c0 be
       0.23885131 -0.41613948 -0.0066286325 -0.37662864
000220 ad 50 a1 3e 45 25 a7 bd b4 52 c2 3e fe f6 b6 be
       0.31506863 -0.081614055 0.37953722 -0.35735315
000230 7c 94 bc 3d c2 07 3a 3e 6d 65 af be f0 97 66 3e
       0.09208009 0.18167022 -0.3425707 0.22518897
000240 75 8b 73 bd 44 8b 70 3e b0 c3 b9 bd 40 db 06 3c
       -0.05945917 0.23490626 -0.090705276 0.008230984
000250 2c 17 48 be 9b b3 9b be 80 99 a9 3c 7a 04 db 3e
       -0.1954009 -0.30410466 0.020703077 0.42776853
000260 60 6c a6 be c0 66 7c be a2 1f e5 3e 00 e2 08 bd
       -0.3250456 -0.24648571 0.44750696 -0.033418655
000270 53 2c 39 3e 3e fd cb 3e 80 1b 46 be 0e f3 f4 3e
       0.18083315 0.39841646 -0.19346428 0.47841686
000280 30 7b 2f 3d b5 e8 f1 be 34 4f fa 3e 66 26 91 3e
       0.04284209 -0.47247854 0.48888552 0.28349608
000290 93 41 8a be 6d 5d c3 be 1a 7d e9 3b 98 05 2b 3e
       -0.27003154 -0.38157216 0.007125509 0.16701353
0002a0 a8 95 c7 3e 4c b0 c4 3e e6 38 ff be 80 81 04 3e
       0.38981366 0.38415754 -0.49848098 0.12940025
0002b0 5c 6c 4b 3e bf 94 ce 3e 6c 1e 44 3e 74 dd 5a be
       0.19865555 0.4034786 0.1915223 -0.2137354
0002c0 ba 77 87 3d 16 0f 09 3e 84 38 eb 3e c4 fd a9 3e
       0.06614633 0.13384661 0.45941556 0.3320142
0002d0 e7 aa eb be 28 d1 c8 3d 60 89 aa 3c 70 1b 56 3e
       -0.46028826 0.098055184 0.020817459 0.20908904
0002e0 46 dd 23 3e 79 93 08 bf a0 34 10 3d 12 62 9c 3e
       0.16002378 -0.53350025 0.035206437 0.30543572
0002f0 fa 3a f0 3e 8b f8 98 be 5c 1f 88 3e b8 ce b4 3d
       0.46919996 -0.29877123 0.26586425 0.08828491
000300 83 94 51 3e d8 8e bc 3e 5a ea ae be 1c 17 22 be
       0.20466809 0.3682773 -0.3416317 -0.15829128
000310 3f 5a 84 be a3 b3 ac be 4c 7e 64 be e8 18 7a 3e
       -0.25850102 -0.33730802 -0.22313803 0.24423563
000320 5e 13 3e be 1c f3 bb 3e d9 1a 31 be 00 6a 1a 3d
       -0.18562075 0.36708915 -0.17295398 0.037698746
000330 9b eb 95 be ea c5 e0 3e b0 46 10 3d 78 c1 7a 3e
       -0.29281315 0.43900996 0.035223663 0.24487865
000340 2e 17 09 3e ad 49 9f 3e 98 88 de be ba 90 ae 3e
       0.13387749 0.31110898 -0.43463588 0.34094793
000350 c3 98 f8 be 71 e3 00 be 32 f9 16 be c0 ec de bd
       -0.48554048 -0.12586762 -0.14743498 -0.10885
000360 62 c9 ee 3e 78 b8 7d 3e 90 ad 6e bd 44 0e ce 3e
       0.46638018 0.247774 -0.05827099 0.4024526
000370 66 e3 fc 3e 43 6e 33 be 5e de ad be 7c 12 e0 be
       0.4939224 -0.1752253 -0.33958715 -0.43764102
000380 ab ce 01 3f a8 ad 49 3e 8b 3e 0b bf d6 b9 ba 3e
       0.50705975 0.19695151 -0.5439231 0.36469907
000390 bf 1e e0 3e 42 57 e2 be 48 f2 c0 3e ae 9e 9b be
       0.43773457 -0.44207197 0.37684846 -0.303945
0003a0 5f d2 12 ba ee c1 f1 be 3a 55 ac be 54 31 dc 3e
       -0.0005600806 -0.4721827 -0.33658773 0.43006384
0003b0 56 71 b3 3e 25 79 8a be 66 51 7b 3e fc cc 7c 3e
       0.35047406 -0.2704555 0.2454277 0.2468757
0003c0 4a b7 de be 30 6e b4 3e 6e 28 d2 3e b0 70 17 3e
       -0.43499213 0.35240316 0.4104647 0.1478908
0003d0 9c 28 bb be c9 0e d9 3d b0 0d 99 bd a0 23 07 bd
       -0.3655442 0.10598523 -0.07473314 -0.03299296
0003e0 a0 1f f0 be 15 bd bf 3e 0a bc d0 be 98 a3 aa be
       -0.46899128 0.37448946 -0.40768462 -0.33327937
0003f0 fe 53 db 3e 58 26 c1 bd 5c 34 fa 3e 34 cf e6 3e
       0.42837518 -0.094311416 0.48868072 0.45079958

_transform._transforms.1.autoregressive_net.initial_layer.bias f4 [64]
000000 a4 73 9a 3e 94 1e b9 3e 07 67 4f be d1 ca 48 3e
       0.30166352 0.36156142 -0.20254146 0.19608618
000010 0f c4 89 bc 49 af d0 be b2 97 84 3e 6f 2f 85 3e
       -0.01681712 -0.40758732 0.25896984 0.2601275
000020 41 fa 9d 3e 6f 03 b7 be 2d 94 4e 3e 74 3d 8e bb
       0.3085499 -0.35744807 0.20173712 -0.004340822
000030 bd 97 f6 3e 40 ba aa 3c 85 33 cd 3e 67 22 a1 3e
       0.48162642 0.020840764 0.4007837 0.3147156
000040 73 a2 bc be 4c 8e 38 3e a6 79 01 3f 09 b1 49 3e
       -0.3684269 0.18023032 0.50576246 0.1969644
000050 12 ab 80 3e 9e 66 9f 3b d8 f0 8e be 71 2c b9 bd
       0.25130516 0.004864528 -0.27918124 -0.0904168
000060 e8 23 c0 3e 53 65 9d be 4c eb ab 3e 4c c9 fd bd
       0.37527394 -0.30741367 0.33577955 -0.1239191
000070 68 23 c8 bd 27 c9 04 bf 50 fb b9 3e 85 5b 91 3d
       -0.09772378 -0.51869434 0.3632455 0.07097534
000080 c9 09 b6 be cf 46 79 be 8c 2c 0c bd 3c 06 70 3d
       -0.3555434 -0.24343418 -0.03422217 0.058599696
000090 3e 8b d1 3d fc 66 fc 3e 7b 1a 74 3e 94 c1 bf be
       0.102316365 0.4929732 0.23838226 -0.37452376
0000a0 dd 86 87 3e 23 fc 1e be 2e 4a a3 bd 5c 90 36 be
       0.2647008 -0.1552587 -0.07973133 -0.17828506
0000b0 e8 d9 ae bd e9 b5 9f be a4 6a 65 bd 9f 4c a3 3e
       -0.08537656 -0.31193474 -0.056009904 0.31894395
0000c0 10 60 ae bd 0d 1e 04 bf cb 50 78 3e df 94 62 3e
       -0.08514416 -0.51608354 0.2424957 0.22127102
0000d0 2b c1 2e be 28 ec 62 3d 7b 13 b5 be 61 63 cc be
       -0.17065875 0.055400997 -0.35366425 -0.3991957
0000e0 1c 7a a4 bc c2 59 60 be 94 70 d5 be 52 51 c9 be
       -0.020077758 -0.2190924 -0.41687453 -0.39319855
0000f0 9d d4 de 3e ad 11 89 3e c1 6c ad be 72 2e 9b be
       0.43521586 0.26771298 -0.33872035 -0.30308872

_transform._transforms.1.autoregressive_net.initial_layer.mask f4 [64, 4]
000000 00 00 80 3f 00 00 00 00 00 00 00 00 00 00 00 00
       1.0 0.0 0.0 0.0
000010 00 00 80 3f 00 00 80 3f 00 00 00 00 00 00 00 00
       1.0 1.0 0.0 0.0
000020 00 00 80 3f 00 00 80 3f 00 00 80 3f 00 00 00 00
       1.0 1.0 1.0 0.0
000030 00 00 80 3f 00 00 00 00 00 00 00 00 00 00 00 00
       1.0 0.0 0.0 0.0
000040 00 00 80 3f 00 00 80 3f 00 00 00 00 00 00 00 00
       1.0 1.0 0.0 0.0
000050 00 00 80 3f 00 00 80 3f 00 00 80 3f 00 00 00 00
       1.0 1.0 1.0 0.0
000060 00 00 80 3f 00 00 00 00 00 00 00 00 00 00 00 00
       1.0 0.0 0.0 0.0
000070 00 00 80 3f 00 00 80 3f 00 00 00 00 00 00 00 00
       1.0 1.0 0.0 0.0
000080 00 00 80 3f 00 00 80 3f 00 00 80 3f 00 00 00 00
       1.0 1.0 1.0 0.0
000090 00 00 80 3f 00 00 00 00 00 00 00 00 00 00 00 00
       1.0 0.0 0.0 0.0
0000a0 00 00 80 3f 00 00 80 3f 00 00 00 00 00 00 00 00
       1.0 1.0 0.0 0.0
0000b0 00 00 80 3f 00 00 80 3f 00 00 80 3f 00 00 00 00
       1.0 1.0 1.0 0.0
0000c0 00 00 80 3f 00 00 00 00 00 00 00 00 00 00 00 00
       1.0 0.0 0.0 0.0
0000d0 00 00 80 3f 00 00 80 3f 00 00 00 00 00 00 00 00
       1.0 1.0 0.0 0.0
0000e0 00 00 80 3f 00 00 80 3f 00 00 80 3f 00 00 00 00
       1.0 1.0 1.0 0.0
0000f0 00 00 80 3f 00 00 00 00 00 00 00 00 00 00 00 00
       1.0 0.0 0.0 0.0
000100 00 00 80 3f 00 00 80 3f 00 00 00 00 00 00 00 00
       1.0 1.0 0.0 0.0
000110 00 00 80 3f 00 00 80 3f 00 00 80 3f 00 00 00 00
       1.0 1.0 1.0 0.0
000120 00 00 80 3f 00 00 00 00 00 00 00 00 00 00 00 00
       1.0 0.0 0.0 0.0
000130 00 00 80 3f 00 00 80 3f 00 00 00 00 00 00 00 00
       1.0 1.0 0.0 0.0
000140 00 00 80 3f 00 00 80 3f 00 00 80 3f 00 00 00 00
       1.0 1.0 1.0 0.0
000150 00 00 80 3f 00 00 00 00 00 00 00 00 00 00 00 00
       1.0 0.0 0.0 0.0
000160 00 00 80 3f 00 00 80 3f 00 00 00 00 00 00 00 00
       1.0 1.0 0.0 0.0
000170 00 00 80 3f 00 00 80 3f 00 00 80 3f 00 00 00 00
       1.0 1.0 1.0 0.0
000180 00 00 80 3f 00 00 00 00 00 00 00 00 00 00 00 00
       1.0 0.0 0.0 0.0
000190 00 00 80 3f 00 00 80 3f 00 00 00 00 00 00 00 00
       1.0 1.0 0.0 0.0
0001a0 00 00 80 3f 00 00 80 3f 00 00 80 3f 00 00 00 00
       1.0 1.0 1.0 0.0
0001b0 00 00 80 3f 00 00 00 00 00 00 00 00 00 00 00 00
       1.0 0.0 0.0 0.0
0001c0 00 00 80 3f 00 00 80 3f 00 00 00 00 00 00 00 00
       1.0 1.0 0.0 0.0
0001d0 00 00 80 3f 00 00 80 3f 00 00 80 3f 00 00 00 00
       1.0 1.0 1.0 0.0
0001e0 00 00 80 3f 00 00 00 00 00 00 00 00 00 00 00 00
       1.0 0.0 0.0 0.0
0001f0 00 00 80 3f 00 00 80 3f 00 00 00 00 00 00 00 00
       1.0 1.0 0.0 0.0
000200 00 00 80 3f 00 00 80 3f 00 00 80 3f 00 00 00 00
       1.0 1.0 1.0 0.0
000210 00 00 80 3f 00 00 00 00 00 00 00 00 00 00 00 00
       1.0 0.0 0.0 0.0
000220 00 00 80 3f 00 00 80 3f 00 00 00 00 00 00 00 00
       1.0 1.0 0.0 0.0
000230 00 00 80 3f 00 00 80 3f 00 00 80 3f 00 00 00 00
       1.0 1.0 1.0 0.0
000240 00 00 80 3f 00 00 00 00 00 00 00 00 00 00 00 00
       1.0 0.0 0.0 0.0
000250 00 00 80 3f 00 00 80 3f 00 00 00 00 00 00 00 00
       1.0 1.0 0.0 0.0
000260 00 00 80 3f 00 00 80 3f 00 00 80 3f 00 00 00 00
       1.0 1.0 1.0 0.0
000270 00 00 80 3f 00 00 00 00 00 00 00 00 00 00 00 00
       1.0 0.0 0.0 0.0
000280 00 00 80 3f 00 00 80 3f 00 00 00 00 00 00 00 00
       1.0 1.0 0.0 0.0
000290 00 00 80 3f 00 00 80 3f 00 00 80 3f 00 00 00 00
       1.0 1.0 1.0 0.0
0002a0 00 00 80 3f 00 00 00 00 00 00 00 00 00 00 00 00
       1.0 0.0 0.0 0.0
0002b0 00 00 80 3f 00 00 80 3f 00 00 00 00 00 00 00 00
       1.0 1.0 0.0 0.0
0002c0 00 00 80 3f 00 00 80 3f 00 00 80 3f 00 00 00 00
       1.0 1.0 1.0 0.0
0002d0 00 00 80 3f 00 00 00 00 00 00 00 00 00 00 00 00
       1.0 0.0 0.0 0.0
0002e0 00 00 80 3f 00 00 80 3f 00 00 00 00 00 00 00 00
       1.0 1.0 0.0 0.0
0002f0 00 00 80 3f 00 00 80 3f 00 00 80 3f 00 00 00 00
       1.0 1.0 1.0 0.0
000300 00 00 80 3f 00 00 00 00 00 00 00 00 00 00 00 00
       1.0 0.0 0.0 0.0
000310 00 00 80 3f 00 00 80 3f 00 00 00 00 00 00 00 00
       1.0 1.0 0.0 0.0
000320 00 00 80 3f 00 00 80 3f 00 00 80 3f 00 00 00 00
       1.0 1.0 1.0 0.0
000330 00 00 80 3f 00 00 00 00 00 00 00 00 00 00 00 00
       1.0 0.0 0.0 0.0
000340 00 00 80 3f 00 00 80 3f 00 00 00 00 00 00 00 00
       1.0 1.0 0.0 0.0
000350 00 00 80 3f 00 00 80 3f 00 00 80 3f 00 00 00 00
       1.0 1.0 1.0 0.0
000360 00 00 80 3f 00 00 00 00 00 00 00 00 00 00 00 00
       1.0 0.0 0.0 0.0
000370 00 00 80 3f 00 00 80 3f 00 00 00 00 00 00 00 00
       1.0 1.0 0.0 0.0
000380 00 00 80 3f 00 00 80 3f 00 00 80 3f 00 00 00 00
       1.0 1.0 1.0 0.0
000390 00 00 80 3f 00 00 00 00 00 00 00 00 00 00 00 00
       1.0 0.0 0.0 0.0
0003a0 00 00 80 3f 00 00 80 3f 00 00 00 00 00 00 00 00
       1.0 1.0 0.0 0.0
0003b0 00 00 80 3f 00 00 80 3f 00 00 80 3f 00 00 00 00
       1.0 1.0 1.0 0.0
0003c0 00 00 80 3f 00 00 00 00 00 00 00 00 00 00 00 00
       1.0 0.0 0.0 0.0
0003d0 00 00 80 3f 00 00 80 3f 00 00 00 00 00 00 00 00
       1.0 1.0 0.0 0.0
0003e0 00 00 80 3f 00 00 80 3f 00 00 80 3f 00 00 00 00
       1.0 1.0 1.0 0.0
0003f0 00 00 80 3f 00 00 00 00 00 00 00 00 00 00 00 00
       1.0 0.0 0.0 0.0

_transform._transforms.1.autoregressive_net.blocks.0.linear_layers.0.weight f4 [64, 64]
000000 62 97 81 3d ba 05 c0 3d 4c 7c d1 3d f3 fc e6 bd
       0.06327702 0.09376092 0.10228786 -0.11278715
000010 60 3a 75 3c b0 ef 4e bd 2e b8 eb 3d 5a d4 8f 3d
       0.014967531 -0.050521553 0.11509739 0.07022925
000020 d6 11 e5 bd ee 78 0d bf d0 45 7d bc 32 ec c0 bd
       -0.111850426 -0.5526265 -0.015458539 -0.09420051
000030 ab 13 8b bc 40 8e bc bb 1a 1d f4 3d 69 c7 7a bd
       -0.016977152 -0.005754262 0.11919613 -0.06122533
000040 04 f2 e6 3d cc a0 32 bd e8 71 9a bd 40 06 de bd
       0.112766296 -0.04361038 -0.07541257 -0.10841036
000050 76 56 8e bd e1 55 f0 3d 2c 2e ea 3d a4 ba 7d bd
       -0.06950085 0.1173513 0.11434588 -0.061945572
000060 95 6f b2 bc f0 08 f2 3c 9c 5d bc bd 8f 62 89 3d
       -0.021781722 0.029545277 -0.09197542 0.06708252
000070 c8 bf 83 bc 8c b1 e1 3d 31 28 17 3d f8 95 b2 bc
       -0.01608266 0.110201925 0.036903564 -0.021800026
000080 32 b8 93 3d 86 6f 2c 3e 10 d9 44 bc aa 30 b5 bd
       0.07212867 0.16839418 -0.012014642 -0.088471726
000090 73 c5 ec 3d 80 83 52 bc 06 0f a7 bd b0 b4 8c bc
       0.11561098 -0.012848735 -0.08157162 -0.017176002
0000a0 10 34 92 3d a0 30 88 3d 7d b9 82 bc d0 3b c9 3d
       0.071388364 0.066498995 -0.015957588 0.098258615
0000b0 68 d8 ea 3c 69 a5 e4 be 84 ec 52 bd 90 03 f4 3c
       0.028667644 -0.44657448 -0.05149509 0.029786855
0000c0 cc 57 0c 3e ba 86 fd bd 2c 5b 4a 3d 34 94 53 bd
       0.13705367 -0.12379213 0.049403355 -0.05165501
0000d0 48 ea 3c 3d 88 12 bd 3d 66 9c 5e be 10 9f 33 3c
       0.046121866 0.0923205 -0.21739349 0.010963216
0000e0 20 e0 59 3c 63 75 16 bd e0 33 b6 3c 46 26 b9 bd
       0.0132980645 -0.036733042 0.022241533 -0.09040503
0000f0 c3 49 be 3d 04 0c 87 3d e8 e1 92 bc 33 5f 94 be
       0.09291413 0.06594089 -0.017929986 -0.2897888
000100 df 56 28 bc ab 46 4b bd 18 6e 52 bd c9 17 03 3c
       -0.010274618 -0.04962794 -0.051374525 0.008001276
000110 e7 d3 21 bd a0 6d 60 3c 55 75 08 bd f9 f3 49 3c
       -0.039508726 0.013698012 -0.03331502 0.012326234
000120 76 20 83 3d 03 12 71 b9 bf 4f 5a 3d dc 76 95 bd
       0.06402676 -0.00022990261 0.053298708 -0.07298061
000130 de a6 dd 3c 82 94 e5 3d 64 c2 b6 bd 4d bc b7 bb
       0.027057108 0.11209966 -0.08923796 -0.005607164
000140 e6 6b 2d bd d4 94 c2 bd 18 01 96 3c 24 37 f6 bb
       -0.042339228 -0.09501043 0.018311068 -0.0075138975
000150 30 df 6e 3d 4a 84 c5 3c c8 b6 b9 3d e8 8a dc bc
       0.058318317 0.024110932 0.09068066 -0.026921704
000160 8f 54 05 3e 12 bc 5c bd 24 14 98 3d c0 2b 6b bc
       0.13020538 -0.053890295 0.074257165 -0.0143536925
000170 74 a3 96 3d 06 73 ee 3d e4 41 ef bb b7 7a 46 bd
       0.07355395 0.11643033 -0.007301556 -0.048456874
000180 58 8f a6 bd 60 43 8f 3e f0 98 88 3d 0e 4e 83 bd
       -0.081328094 0.2798109 0.066697955 -0.06411372
000190 3b 06 f2 3d 66 07 96 3d 50 d2 45 3c 00 e3 e5 bc
       0.118175946 0.0732563 0.012074068 -0.028062344
0001a0 ca ee f9 3d 6c 0f ee 3d 4e 90 1d 3e e8 65 f7 bd
       0.122037485 0.11624035 0.15387079 -0.12079984
0001b0 58 a0 57 3d 40 54 92 bd 5a be b3 3d 38 fd 02 3d
       0.05264315 -0.07144976 0.08776541 0.03197977
0001c0 00 1e 26 3e 11 46 0c 3e 74 d2 3a 3d c0 31 92 3c
       0.16222382 0.13698603 0.04561086 0.017845988
0001d0 b2 3a d6 3c 34 d7 5f bd 27 cc 54 be e0 4e 23 be
       0.026151035 -0.054648593 -0.20781003 -0.15948057
0001e0 84 6f 60 3d 12 6a 05 be 54 21 8d bf d0 61 7f bc
       0.05479385 -0.13028744 -1.1025796 -0.015587285
0001f0 ec 42 cf 3c db 63 72 bc 62 59 be bd 6b 6d 23 3c
       0.025300466 -0.014794315 -0.09294392 0.009974818
000200 3b 02 75 bd 63 08 4f 3d b1 e7 ea 3e 61 81 b9 bc
       -0.05981658 0.050545108 0.45879892 -0.0226447
000210 4c 55 43 bd df 24 a4 bc ab 13 54 bd 71 61 0b be
       -0.047688767 -0.020037113 -0.05177657 -0.1361139
000220 1a 89 3c bd 4c 32 2d 3d b8 87 10 bd b9 9b cf 3d
       -0.046029188 0.042284295 -0.03528568 0.101371236
000230 7d ff 87 bd 2c af b6 bd c2 f1 76 3d ed 11 58 3d
       -0.066405274 -0.0892013 0.060289152 0.05275147
000240 0f 28 87 be 32 fb a4 bd 24 12 04 3b f8 b1 c8 ba
       -0.2639775 -0.08055724 0.0020152414 -0.0015311828
000250 61 52 ec 3c 92 d8 86 bd ad 12 fb 3d 81 d9 a7 bd
       0.028847875 -0.06584276 0.122594215 -0.081957825
000260 ae 1a 84 3a 65 a9 58 3e 5e 2b d6 bd f5 b4 ae bd
       0.0010078752 0.21158369 -0.104574904 -0.085306086
000270 f7 0a 69 3e 2a bd 64 3f 5b b5 81 3c b5 a9 22 3d
       0.22758089 0.8935114 0.015833547 0.039712626
000280 80 61 2e 3e 4c 7d cf 3d 89 f0 60 3d 1d ea 5d 3d
       0.17029381 0.1013132 0.054916892 0.054178346
000290 e2 92 1e be a0 e8 cd bd a3 3b ce 3d 10 3b f6 3c
       -0.15485719 -0.10054135 0.100699686 0.03005746
0002a0 24 b5 bd 3d 16 c1 0c 3e 73 79 2e 3d 66 fd 22 bc
       0.092630655 0.13745531 0.04259629 -0.00994811
0002b0 d9 d7 30 3e 74 f9 3b 3d 26 57 62 3e 7e 40 ea 3c
       0.1726984 0.045892194 0.22103557 0.028595205
0002c0 35 04 66 bd f3 f4 48 3e c8 3d 27 be 7c 47 08 3c
       -0.056156356 0.1962469 -0.16332161 0.008317824
0002d0 21 4e ee bd 46 5a cb 3d 84 72 c6 3c a7 7b 0b 3e
       -0.11635996 0.09929328 0.024224527 0.13621388
0002e0 16 5e 18 bd 88 c7 6e 3d 39 fd e8 be de aa 16 3e
       -0.037199102 0.058295757 -0.45505694 0.14713618
0002f0 e9 16 86 bd 0d 14 b8 3d 01 44 6b bd 48 78 fe 3b
       -0.065473385 0.089881994 -0.0574379 0.0077658035
000300 6e 89 ac bd 9a 81 c9 bd 80 f9 1b 3b 99 9b 0d be
       -0.0842465 -0.09839173 0.0023799837 -0.13828887
000310 80 65 3b bc 60 c4 e7 bc 11 df a2 3d 64 8f e7 bd
       -0.011437774 -0.028291881 0.07952703 -0.113066465
000320 94 74 a2 3d 8e 06 ce bd ac dc 39 bd b0 cf 27 bc
       0.07932392 -0.10059844 -0.045376465 -0.010242388
000330 36 ec d9 3c 10 e2 e9 bc a4 54 db bd 75 cf de bb
       0.026601892 -0.028550178 -0.10709503 -0.006799633
000340 c4 05 46 bd 48 f2 cb bd 1e 76 ae 3c 60 59 ea 3c
       -0.048345342 -0.09958321 0.021296557 0.02860707
000350 74 8b c7 bd 9a dc 0d 3d 50 de b3 3c f8 3c fa 3d
       -0.097433954 0.03463421 0.021956593 0.1221866
000360 4f 95 6c 3d 4c 53 02 3d 88 a7 f0 bc a8 55 79 3d
       0.05775958 0.03181772 -0.02937676 0.060872704
000370 10 e0 9d 3d 6c 67 74 3d 07 8b 21 bd a8 c2 5d 3d
       0.07708752 0.059668943 -0.039439227 0.054140717
000380 00 ef 0f bb 3b c9 df bd f8 75 d9 bc e4 8d 7f bd
       -0.0021962523 -0.109270535 -0.02654551 -0.062391177
000390 20 b4 36 bd 1a bb db bd c8 ed 58 bd f0 ad 82 bd
       -0.044605374 -0.10729046 -0.05296114 -0.06380832
0003a0 ca 14 a4 bd 1c 01 cc 3d 2d 97 06 3d 4c bb 0a 3d
       -0.08011778 0.09961149 0.032859016 0.033870026
0003b0 5c 59 01 3d 56 7f bb 3c 10 ab 17 3c e8 32 90 bd
       0.03157936 0.022887867 0.009257093 -0.070409596
0003c0 41 55 16 be 98 4b 87 3c 20 52 fd bb 60 19 9d 3d
       -0.1468096 0.016515538 -0.0077307373 0.076708555
0003d0 c0 ab f5 bc 54 e7 1c 3d f8 45 02 be 8c 2b 82 3d
       -0.029989123 0.03830655 -0.12722003 0.06355962
0003e0 f8 10 0e bd 02 6d 4d bd 80 cf e1 3c 80 3a ec bc
       -0.03468415 -0.050152786 0.027564764 -0.028836489
0003f0 73 d8 41 3c b4 ab 4c bd 36 fc 96 3d 63 c4 34 bc
       0.011831391 -0.049968436 0.07372324 -0.01103315

_transform._transforms.1.autoregressive_net.blocks.0.linear_layers.0.bias f4 [64]
000000 83 66 cc 3d e8 56 76 bc 27 c1 15 be 63 4a 97 3d
       0.0998049 -0.0150353685 -0.14624463 0.07387235
000010 52 a6 15 ba 70 18 79 3d 90 9d 18 bd cc 3b 21 3d
       -0.00057086826 0.06081432 -0.03725964 0.039363667
000020 11 a4 17 3d e4 a5 47 bd 2f 8f 49 3d 34 1f 48 bd
       0.0370217 -0.04874219 0.049208816 -0.048857883
000030 2c 41 92 bd 2b cf 9f 3d 62 d7 1f 3e e8 a7 e2 bc
       -0.07141337 0.07803186 0.15609506 -0.027667955
000040 7f 5d e3 bc 4b 5a e1 3c d0 30 ac 3d c8 c9 e7 3c
       -0.027754543 0.027508875 0.08407748 0.028294459
000050 dc ca 29 3d 48 48 f2 3d 5a 60 7c 3d 49 fa 5c bd
       0.041453227 0.11830193 0.061615326 -0.053949628
000060 66 12 62 bc 28 e0 aa bd c3 51 79 3c 42 ff 1f 3e
       -0.013798332 -0.08343536 0.015217247 0.15624717
000070 21 8e 1f 3e d1 65 bd 3d 34 9d b0 bd 6b 4c be 3d
       0.15581562 0.092479356 -0.08623734 0.09291919
000080 bf e6 2b 3d b8 47 38 3d e9 71 83 bc cf 1a a8 3d
       0.041968103 0.04499027 -0.016045528 0.08208238
000090 98 82 f7 bd 1d 8e d6 3d 90 02 d9 3d f0 5d 20 3d
       -0.12085456 0.10476325 0.10596192 0.039152086
0000a0 16 13 e3 bd 2e b9 1a 3e f3 18 a1 bd f2 7c 18 bb
       -0.11087625 0.15109703 -0.07866087 -0.0023267833
0000b0 c1 bd 0e 3e 2c 1b fb 3d e7 31 1a be a5 9a 05 3e
       0.13939573 0.12261042 -0.15058099 0.13047273
0000c0 cc 25 94 3b ea e5 9e 3d ad 3b 1c 3b 3a 82 90 3d
       0.0045211073 0.077586964 0.002383928 0.07056089
0000d0 dc 51 bd 3d ed 16 18 3d fe d6 a0 bd 29 4e a8 3c
       0.09244129 0.03713124 -0.078535065 0.020545082
0000e0 a0 0c cc bc a3 3d f2 bc 7e 61 c1 bc 07 b5 e3 bd
       -0.024908364 -0.029570406 -0.023606058 -0.111185126
0000f0 92 ba 24 be a0 61 f3 3c 07 4c 83 bd 21 0e e5 3d
       -0.16086796 0.029709637 -0.064109854 0.111843355

_transform._transforms.1.autoregressive_net.blocks.0.linear_layers.0.mask f4 [64, 64]
000000 00 00 80 3f 00 00 00 00 00 00 00 00 00 00 80 3f
       1.0 0.0 0.0 1.0
000010 00 00 00 00 00 00 00 00 00 00 80 3f 00 00 00 00
       0.0 0.0 1.0 0.0
000020 00 00 00 00 00 00 80 3f 00 00 00 00 00 00 00 00
       0.0 1.0 0.0 0.0
000030 00 00 80 3f 00 00 00 00 00 00 00 00 00 00 80 3f
       1.0 0.0 0.0 1.0
000040 00 00 00 00 00 00 00 00 00 00 80 3f 00 00 00 00
       0.0 0.0 1.0 0.0
000050 00 00 00 00 00 00 80 3f 00 00 00 00 00 00 00 00
       0.0 1.0 0.0 0.0
000060 00 00 80 3f 00 00 00 00 00 00 00 00 00 00 80 3f
       1.0 0.0 0.0 1.0
000070 00 00 00 00 00 00 00 00 00 00 80 3f 00 00 00 00
       0.0 0.0 1.0 0.0
000080 00 00 00 00 00 00 80 3f 00 00 00 00 00 00 00 00
       0.0 1.0 0.0 0.0
000090 00 00 80 3f 00 00 00 00 00 00 00 00 00 00 80 3f
       1.0 0.0 0.0 1.0
0000a0 00 00 00 00 00 00 00 00 00 00 80 3f 00 00 00 00
       0.0 0.0 1.0 0.0
0000b0 00 00 00 00 00 00 80 3f 00 00 00 00 00 00 00 00
       0.0 1.0 0.0 0.0
0000c0 00 00 80 3f 00 00 00 00 00 00 00 00 00 00 80 3f
       1.0 0.0 0.0 1.0
0000d0 00 00 00 00 00 00 00 00 00 00 80 3f 00 00 00 00
       0.0 0.0 1.0 0.0
0000e0 00 00 00 00 00 00 80 3f 00 00 00 00 00 00 00 00
       0.0 1.0 0.0 0.0
0000f0 00 00 80 3f 00 00 00 00 00 00 00 00 00 00 80 3f
       1.0 0.0 0.0 1.0
000100 00 00 80 3f 00 00 80 3f 00 00 00 00 00 00 80 3f
       1.0 1.0 0.0 1.0
000110 00 00 80 3f 00 00 00 00 00 00 80 3f 00 00 80 3f
       1.0 0.0 1.0 1.0
000120 00 00 00 00 00 00 80 3f 00 00 80 3f 00 00 00 00
       0.0 1.0 1.0 0.0
000130 00 00 80 3f 00 00 80 3f 00 00 00 00 00 00 80 3f
       1.0 1.0 0.0 1.0
000140 00 00 80 3f 00 00 00 00 00 00 80 3f 00 00 80 3f
       1.0 0.0 1.0 1.0
000150 00 00 00 00 00 00 80 3f 00 00 80 3f 00 00 00 00
       0.0 1.0 1.0 0.0
000160 00 00 80 3f 00 00 80 3f 00 00 00 00 00 00 80 3f
       1.0 1.0 0.0 1.0
000170 00 00 80 3f 00 00 00 00 00 00 80 3f 00 00 80 3f
       1.0 0.0 1.0 1.0
000180 00 00 00 00 00 00 80 3f 00 00 80 3f 00 00 00 00
       0.0 1.0 1.0 0.0
000190 00 00 80 3f 00 00 80 3f 00 00 00 00 00 00 80 3f
       1.0 1.0 0.0 1.0
0001a0 00 00 80 3f 00 00 00 00 00 00 80 3f 00 00 80 3f
       1.0 0.0 1.0 1.0
0001b0 00 00 00 00 00 00 80 3f 00 00 80 3f 00 00 00 00
       0.0 1.0 1.0 0.0
0001c0 00 00 80 3f 00 00 80 3f 00 00 00 00 00 00 80 3f
       1.0 1.0 0.0 1.0
0001d0 00 00 80 3f 00 00 00 00 00 00 80 3f 00 00 80 3f
       1.0 0.0 1.0 1.0
0001e0 00 00 00 00 00 00 80 3f 00 00 80 3f 00 00 00 00
       0.0 1.0 1.0 0.0
0001f0 00 00 80 3f 00 00 80 3f 00 00 00 00 00 00 80 3f
       1.0 1.0 0.0 1.0
000200 00 00 80 3f 00 00 80 3f 00 00 80 3f 00 00 80 3f
       1.0 1.0 1.0 1.0
000210 00 00 80 3f 00 00 80 3f 00 00 80 3f 00 00 80 3f
       1.0 1.0 1.0 1.0
000220 00 00 80 3f 00 00 80 3f 00 00 80 3f 00 00 80 3f
       1.0 1.0 1.0 1.0
000230 00 00 80 3f 00 00 80 3f 00 00 80 3f 00 00 80 3f
       1.0 1.0 1.0 1.0
000240 00 00 80 3f 00 00 80 3f 00 00 80 3f 00 00 80 3f
       1.0 1.0 1.0 1.0
000250 00 00 80 3f 00 00 80 3f 00 00 80 3f 00 00 80 3f
       1.0 1.0 1.0 1.0
000260 00 00 80 3f 00 00 80 3f 00 00 80 3f 00 00 80 3f
       1.0 1.0 1.0 1.0
000270 00 00 80 3f 00 00 80 3f 00 00 80 3f 00 00 80 3f
       1.0 1.0 1.0 1.0
000280 00 00 80 3f 00 00 80 3f 00 00 80 3f 00 00 80 3f
       1.0 1.0 1.0 1.0
000290 00 00 80 3f 00 00 80 3f 00 00 80 3f 00 00 80 3f
       1.0 1.0 1.0 1.0
0002a0 00 00 80 3f 00 00 80 3f 00 00 80 3f 00 00 80 3f
       1.0 1.0 1.0 1.0
0002b0 00 00 80 3f 00 00 80 3f 00 00 80 3f 00 00 80 3f
       1.0 1.0 1.0 1.0
0002c0 00 00 80 3f 00 00 80 3f 00 00 80 3f 00 00 80 3f
       1.0 1.0 1.0 1.0
0002d0 00 00 80 3f 00 00 80 3f 00 00 80 3f 00 00 80 3f
       1.0 1.0 1.0 1.0
0002e0 00 00 80 3f 00 00 80 3f 00 00 80 3f 00 00 80 3f
       1.0 1.0 1.0 1.0
0002f0 00 00 80 3f 00 00 80 3f 00 00 80 3f 00 00 80 3f
       1.0 1.0 1.0 1.0
000300 00 00 80 3f 00 00 00 00 00 00 00 00 00 00 80 3f
       1.0 0.0 0.0 1.0
000310 00 00 00 00 00 00 00 00 00 00 80 3f 00 00 00 00
       0.0 0.0 1.0 0.0
000320 00 00 00 00 00 00 80 3f 00 00 00 00 00 00 00 00
       0.0 1.0 0.0 0.0
000330 00 00 80 3f 00 00 00 00 00 00 00 00 00 00 80 3f
       1.0 0.0 0.0 1.0
000340 00 00 00 00 00 00 00 00 00 00 80 3f 00 00 00 00
       0.0 0.0 1.0 0.0
000350 00 00 00 00 00 00 80 3f 00 00 00 00 00 00 00 00
       0.0 1.0 0.0 0.0
000360 00 00 80 3f 00 00 00 00 00 00 00 00 00 00 80 3f
       1.0 0.0 0.0 1.0
000370 00 00 00 00 00 00 00 00 00 00 80 3f 00 00 00 00
       0.0 0.0 1.0 0.0
000380 00 00 00 00 00 00 80 3f 00 00 00 00 00 00 00 00
       0.0 1.0 0.0 0.0
000390 00 00 80 3f 00 00 00 00 00 00 00 00 00 00 80 3f
       1.0 0.0 0.0 1.0
0003a0 00 00 00 00 00 00 00 00 00 00 80 3f 00 00 00 00
       0.0 0.0 1.0 0.0
0003b0 00 00 00 00 00 00 80 3f 00 00 00 00 00 00 00 00
       0.0 1.0 0.0 0.0
0003c0 00 00 80 3f 00 00 00 00 00 00 00 00 00 00 80 3f
       1.0 0.0 0.0 1.0
0003d0 00 00 00 00 00 00 00 00 00 00 80 3f 00 00 00 00
       0.0 0.0 1.0 0.0
0003e0 00 00 00 00 00 00 80 3f 00 00 00 00 00 00 00 00
       0.0 1.0 0.0 0.0
0003f0 00 00 80 3f 00 00 00 00 00 00 00 00 00 00 80 3f
       1.0 0.0 0.0 1.0

_transform._transforms.1.autoregressive_net.blocks.0.linear_layers.1.weight f4 [64, 64]
000000 17 b3 bf 3d 38 65 3f 39 a2 79 34 b9 58 9d 3f 3c
       0.093603306 0.00018252886 -0.0001721145 0.0116952285
000010 52 04 35 b9 2e e1 7e ba a9 a9 46 ba c9 50 c8 39
       -0.00017263115 -0.00097228854 -0.0007578382 0.00038207162
000020 bb b9 40 3a ad 1e eb b9 a3 98 79 ba d8 46 7f ba
       0.0007351895 -0.00044845548 -0.0009521341 -0.00097380346
000030 81 b8 80 3a 2d 08 83 3a e2 70 d9 b9 b1 49 25 ba
       0.0009820611 0.0009996943 -0.0004147357 -0.00063052314
000040 7d fd 95 b9 96 f7 6f b9 71 0e cf 3d c3 75 83 38
       -0.00028608358 -0.00022885049 0.10110176 6.2685016e-05
000050 fd 61 cc b8 56 0c 06 3d a2 4b 59 3a 5f aa ac b8
       -9.74573e-05 0.03272661 0.0008289163 -8.233333e-05
000060 c9 3b 82 bd f9 53 ed 35 17 d5 c8 b9 bf 5e a5 3a
       -0.06359059 1.7682315e-06 -0.00038305737 0.0012616738
000070 59 49 66 ba f2 c2 25 39 e6 40 d2 b8 ee bc a9 39
       -0.00087847334 0.00015808249 -0.000100256686 0.00032374955
000080 5b 10 d5 b9 48 93 c8 b9 d4 20 49 ba 2a 98 43 b9
       -0.00040638712 -0.00038256706 -0.0007672433 -0.00018653335
000090 7b 44 84 38 ad 54 2f ba a0 b2 4a ba 8c ea 09 3e
       6.307006e-05 -0.0006688338 -0.00077323057 0.13468379
0000a0 cf 57 8e 37 bd 8a 9b 39 72 58 42 3e 67 f2 79 3a
       1.6968608e-05 0.00029667272 0.18979052 0.0009534717
0000b0 b1 ec a4 39 79 3a a2 bb 3e 3a 76 3a 0d fc e4 b9
       0.00031456866 -0.004950818 0.0009392834 -0.0004367534
0000c0 4a 3a f3 bc b1 22 57 ba f2 14 17 ba 6c 57 da 3d
       -0.02969088 -0.00082067685 -0.0005763314 0.10661206
0000d0 27 cd 9d 39 ee 28 51 3a 3d 02 ca be 57 8b 6e 3a
       0.00030098224 0.0007978816 -0.39454833 0.0009099743
0000e0 92 ed 05 39 b6 a0 03 3e 36 fc fc 39 5f c8 fa b9
       0.0001277237 0.12854275 0.00048253097 -0.00047833004
0000f0 80 d9 ed be 5d 4b 78 b9 56 1e 8c b9 d5 40 08 3e
       -0.46455002 -0.00023679198 -0.00026725483 0.13305981
000100 d6 c4 30 3d 8e 58 03 3d f2 40 95 39 65 ba a6 3c
       0.043156467 0.032066874 0.00028467883 0.020352552
000110 62 70 51 3d 22 64 7f ba e2 5a e6 b9 86 87 02 3a
       0.051132567 -0.0009742399 -0.00043936732 0.0004979301
000120 5b b4 c3 b9 f9 67 7e 3a 63 de fd 3c 78 af 68 ba
       -0.00037327674 0.0009704824 0.030989831 -0.00088762445
000130 80 ba 37 38 52 91 24 3d 1d 6a 77 39 3e 9a 5d 3a
       4.380429e-05 0.04017765 0.00023595286 0.0008453465
000140 28 d5 e7 bc 86 a8 7a ba 81 b5 ec 3b d9 00 13 3b
       -0.028299883 -0.0009561855 0.0072237854 0.0022430925
000150 88 56 6e b8 f9 cf f8 3c 2e 42 64 3d 65 bb c4 39
       -5.682421e-05 0.030372607 0.055727176 0.00037523653
000160 7d b2 4a 3c 23 1b 85 3c 09 58 d5 b9 e1 c2 3a 3d
       0.0123716565 0.016248291 -0.00040692117 0.045596007
000170 89 db 2c bd dc e1 c2 39 32 08 2d 36 9d a7 1d 3d
       -0.042201553 0.00037170842 2.578378e-06 0.038489927
000180 1d 70 8c b9 c3 59 31 39 66 71 3b 3d f0 dc 53 3a
       -0.00026786412 0.00016913474 0.045762442 0.00080819335
000190 b1 1c 00 ba 32 ec 15 3d 46 13 82 3a 97 3b 20 3d
       -0.0004887088 0.036602207 0.0009923957 0.03911933
0001a0 1f 25 16 b9 d0 28 61 ba 76 df 2f 3d 72 38 cc 3c
       -0.00014318943 -0.00085891504 0.04293772 0.024929259
0001b0 c5 60 bb b9 ee 6c 35 3b a0 f3 a2 3e c1 e6 a3 39
       -0.00035739518 0.0027683335 0.31826496 0.00031261708
0001c0 af 6f 1b 3d 85 99 e4 ba 2a 44 43 3a af d1 0a 3d
       0.037948307 -0.0017440772 0.0007448817 0.033891376
0001d0 b2 93 f6 bb cf 73 b5 b9 14 bf ed bd 0e 17 5c 3d
       -0.007524931 -0.00034609294 -0.11608711 0.053732924
0001e0 fc 0c 3d 3a d1 d2 b9 3c fd fa 31 bd d6 3f 55 3a
       0.00072117127 0.022683533 -0.04345225 0.00081348175
0001f0 6b 87 a2 bc 4f e1 82 3d e6 d5 4b ba 7b c5 21 3c
       -0.019839963 0.063906305 -0.0007775709 0.009873743
000200 16 a8 3d bd 87 3a 9b 3c c0 b0 35 3d df dd 87 3b
       -0.046302877 0.018948806 0.044358015 0.004146322
000210 73 a5 62 bd e0 ef 32 39 da 12 95 39 3e 72 96 b8
       -0.055333566 0.00017064763 0.0002843354 -7.173837e-05
000220 7e 30 7c bd 34 d3 f8 b7 d6 cb 3c 3a 05 1f a1 3d
       -0.061569683 -2.9662253e-05 0.0007202005 0.07867245
000230 c5 f4 77 ba 67 5e e7 bc 3e 00 1f bd 79 04 31 ba
       -0.0009458776 -0.028243257 -0.03881859 -0.00067526806
000240 57 db d4 bd a9 e1 5b 3c 38 81 2b bd b2 00 95 bc
       -0.10393398 0.013420501 -0.04187128 -0.018188808
000250 98 0e 39 bd 10 7a 3e bb 5b 04 7e 3a eb 0c 6e 3d
       -0.045179933 -0.0029064454 0.000968998 0.05811779
000260 d1 8a e1 bb b9 79 b6 bc 1f 3f ed bc 19 9f 08 3d
       -0.0068830033 -0.022274839 -0.028960763 0.033354852
000270 fe df b4 bc 1f 95 69 bd 25 eb 03 3a 9c 70 a7 3c
       -0.022079464 -0.05702698 0.00050322927 0.020439439
000280 7a 2c c4 bc 25 f6 bb 39 12 3e 90 be ae 80 1f 3d
       -0.02394699 0.0003585081 -0.28172356 0.038941078
000290 da da 08 ba 14 25 2e bc d0 fa b5 bc 96 02 a1 bc
       -0.00052205997 -0.010628957 -0.022214323 -0.019654553
0002a0 36 c5 30 3a 3f bc 90 bd 92 9f 5d bd 39 c2 ca bb
       0.0006743254 -0.07067155 -0.054107256 -0.006187704
0002b0 b5 ff 45 3d 4f de 0a 3c 6e 2e 22 bd f8 d0 ab bc
       0.048339564 0.008475854 -0.03959506 -0.020973668
0002c0 d0 8a 10 bc fc 56 ac bc dc 67 79 3d be 63 90 3b
       -0.008822158 -0.021037571 0.060890064 0.0044064214
0002d0 65 ea 23 be e1 4d 25 bc ae 38 d8 bb 61 17 32 bc
       -0.16007383 -0.010089369 -0.0065985536 -0.010869832
0002e0 d3 59 ea 3c 90 00 cc bc 29 29 c1 3b 47 4c 14 bb
       0.028607285 -0.024902612 0.0058947993 -0.0022628473
0002f0 4d 41 00 3c cc 13 be 3b ab 90 9d bc b6 ac d9 bc
       0.007828069 0.0058007 -0.019234022 -0.026571613
000300 68 4e 1c 3e 4a 64 a5 39 59 51 48 39 4a d4 73 3c
       0.15264285 0.00031545974 0.0001910379 0.014882157
000310 40 f0 1d 3a 86 8b 90 37 cf d1 1d 3a 32 40 83 b9
       0.0006024875 1.7231108e-05 0.00060203386 -0.00025034096
000320 23 3b 50 b9 0b 2f 8a 38 32 52 72 3a 92 ab d7 39
       -0.00019858456 6.589115e-05 0.00092438154 0.00041135825
000330 3c 1f d0 b9 6b 1d 62 ba d6 96 6a ba 38 99 38 38
       -0.00039696123 -0.00086255994 -0.0008948868 4.4011715e-05
000340 8e dc 27 ba 36 2e 00 ba 2e 7c d8 3c cf 30 46 3a
       -0.00064034096 -0.00048896985 0.026426401 0.00075603736
000350 5b 88 1d 3a 13 80 04 3d 17 f9 a3 b7 4a fc a4 38
       0.0006009393 0.032348704 -1.9547106e-05 7.867122e-05
000360 c7 be a8 bc 8c 5f 52 ba e6 a2 88 b9 9c 90 31 3d
       -0.020598782 -0.0008025102 -0.0002606131 0.0433508
000370 d6 e9 33 3a 48 f7 c8 b9 7a c1 58 b9 07 86 60 ba
       0.00068631524 -0.00038331212 -0.00020671441 -0.00085648935
000380 71 36 1d 3a b3 df b1 39 30 6d 3c b8 82 ce 28 3a
       0.0005997187 0.0003392674 -4.492438e-05 0.00064394635
000390 07 35 33 b9 7e 8b 6e ba 0f 67 9a 39 68 d7 9c 3d
       -0.00017090524 -0.00090997654 0.00029449954 0.07658273
0003a0 8e f7 7a b8 a7 f6 68 3a 84 c1 1d 3e a8 96 05 38
       -5.9835198e-05 0.0008886852 0.15405852 3.184998e-05
0003b0 e4 35 7b b9 1b bb 05 bd 3e a8 9c b9 fe a6 88 39
       -0.00023957301 -0.03264914 -0.0002987999 0.0002606436
0003c0 ee 84 7a 3d c3 f0 2a 3a 4a 64 33 b9 3b 54 95 3d
       0.061161928 0.00065208616 -0.00017108131 0.07291456
0003d0 9e 5e 2f ba 61 29 f0 b9 a1 d1 db bd 21 3c c4 b9
       -0.0006689819 -0.00045807197 -0.10733343 -0.00037428833
0003e0 da a7 0b ba 89 31 00 3e 90 2d 75 ba 09 a4 76 b9
       -0.0005327441 0.12518896 -0.00093527976 -0.00023521496
0003f0 cd 96 1a 3e 4c 62 10 ba 5b a8 4b b9 38 c5 91 3d
       0.15096588 -0.00055078114 -0.00019422306 0.071176946

_transform._transforms.1.autoregressive_net.blocks.0.linear_layers.1.bias f4 [64]
000000 7d 8f 20 3d d8 97 68 3c 4d a0 8b bc db 7e 97 bc
       0.03919934 0.014196359 -0.01704421 -0.018493107
000010 c3 11 0e 3d 2a 48 73 3c f9 ae 1c 3d cb 59 81 3d
       0.034684908 0.014848748 0.038252804 0.06315955
000020 7f 25 71 bb 85 3f f3 3c 84 8d 08 3d 60 da 00 39
       -0.003679603 0.029693374 0.033338085 0.00012288382
000030 17 3b 8d 3c 31 12 97 3c fb f4 d0 bc 4f 6f db 3c
       0.01724009 0.018441292 -0.02550744 0.026786475
000040 b9 9c 3f bc b3 4b f9 bc 31 30 46 3c b8 8e 8a bd
       -0.01169508 -0.030431604 0.012096451 -0.06765503
000050 c3 0d 80 3c c0 b2 11 bd 14 7d 0d 3b be 0c c6 3b
       0.015631562 -0.03557086 0.0021589445 0.0060439995
000060 f1 0a d1 bc c2 0d 66 bb d6 f7 48 3c fa fd bf 3c
       -0.025517913 -0.0035103415 0.01226612 0.023436535
000070 cb 8f ad bc e5 81 64 bc 2c 14 16 3d be 39 8d 3c
       -0.02118673 -0.013946985 0.03664033 0.017239448
000080 0e 81 a0 bc 9c 4d 3c bd db 90 2f bd f2 c0 c4 3c
       -0.019592788 -0.04597245 -0.042862754 0.024017785
000090 28 4e 46 ba 27 65 3e 3d 56 3c 00 3d e0 85 c4 bb
       -0.0007564747 0.046483185 0.03130754 -0.0059974045
0000a0 da f8 91 3c e6 ef 78 3c 84 97 3c bd a3 ef 6f bd
       0.017818857 0.015193915 -0.046042934 -0.058578145
0000b0 32 1d 9d bc 89 6e 56 bd 55 5b b5 3c 7f 81 1b 3d
       -0.01917896 -0.05235151 0.022138277 0.037965294
0000c0 cb 77 2e bd d6 c3 27 3c e7 0b 09 3d be 6b f9 3a
       -0.042594712 0.010239562 0.033458617 0.0019029302
0000d0 c3 00 19 3b fd 7c 89 bb 14 6e 17 3d 2d 24 e3 bc
       0.0023346401 -0.004195808 0.036970213 -0.02772721
0000e0 b0 31 c3 bc 95 d9 80 bd df 1b df bc 45 7c ad 3c
       -0.023827404 -0.062915005 -0.02723497 0.02117742
0000f0 59 71 d5 3b 02 d5 87 3c 06 84 c2 bc 38 3a c0 3b
       0.0065137562 0.016581062 -0.023744594 0.005866315

_transform._transforms.1.autoregressive_net.blocks.0.linear_layers.1.mask f4 [64, 64]
000000 00 00 80 3f 00 00 00 00 00 00 00 00 00 00 80 3f
       1.0 0.0 0.0 1.0
000010 00 00 00 00 00 00 00 00 00 00 80 3f 00 00 00 00
       0.0 0.0 1.0 0.0
000020 00 00 00 00 00 00 80 3f 00 00 00 00 00 00 00 00
       0.0 1.0 0.0 0.0
000030 00 00 80 3f 00 00 00 00 00 00 00 00 00 00 80 3f
       1.0 0.0 0.0 1.0
000040 00 00 00 00 00 00 00 00 00 00 80 3f 00 00 00 00
       0.0 0.0 1.0 0.0
000050 00 00 00 00 00 00 80 3f 00 00 00 00 00 00 00 00
       0.0 1.0 0.0 0.0
000060 00 00 80 3f 00 00 00 00 00 00 00 00 00 00 80 3f
       1.0 0.0 0.0 1.0
000070 00 00 00 00 00 00 00 00 00 00 80 3f 00 00 00 00
       0.0 0.0 1.0 0.0
000080 00 00 00 00 00 00 80 3f 00 00 00 00 00 00 00 00
       0.0 1.0 0.0 0.0
000090 00 00 80 3f 00 00 00 00 00 00 00 00 00 00 80 3f
       1.0 0.0 0.0 1.0
0000a0 00 00 00 00 00 00 00 00 00 00 80 3f 00 00 00 00
       0.0 0.0 1.0 0.0
0000b0 00 00 00 00 00 00 80 3f 00 00 00 00 00 00 00 00
       0.0 1.0 0.0 0.0
0000c0 00 00 80 3f 00 00 00 00 00 00 00 00 00 00 80 3f
       1.0 0.0 0.0 1.0
0000d0 00 00 00 00 00 00 00 00 00 00 80 3f 00 00 00 00
       0.0 0.0 1.0 0.0
0000e0 00 00 00 00 00 00 80 3f 00 00 00 00 00 00 00 00
       0.0 1.0 0.0 0.0
0000f0 00 00 80 3f 00 00 00 00 00 00 00 00 00 00 80 3f
       1.0 0.0 0.0 1.0
000100 00 00 80 3f 00 00 80 3f 00 00 00 00 00 00 80 3f
       1.0 1.0 0.0 1.0
000110 00 00 80 3f 00 00 00 00 00 00 80 3f 00 00 80 3f
       1.0 0.0 1.0 1.0
000120 00 00 00 00 00 00 80 3f 00 00 80 3f 00 00 00 00
       0.0 1.0 1.0 0.0
000130 00 00 80 3f 00 00 80 3f 00 00 00 00 00 00 80 3f
       1.0 1.0 0.0 1.0
000140 00 00 80 3f 00 00 00 00 00 00 80 3f 00 00 80 3f
       1.0 0.0 1.0 1.0
000150 00 00 00 00 00 00 80 3f 00 00 80 3f 00 00 00 00
       0.0 1.0 1.0 0.0
000160 00 00 80 3f 00 00 80 3f 00 00 00 00 00 00 80 3f
       1.0 1.0 0.0 1.0
000170 00 00 80 3f 00 00 00 00 00 00 80 3f 00 00 80 3f
       1.0 0.0 1.0 1.0
000180 00 00 00 00 00 00 80 3f 00 00 80 3f 00 00 00 00
       0.0 1.0 1.0 0.0
000190 00 00 80 3f 00 00 80 3f 00 00 00 00 00 00 80 3f
       1.0 1.0 0.0 1.0
0001a0 00 00 80 3f 00 00 00 00 00 00 80 3f 00 00 80 3f
       1.0 0.0 1.0 1.0
0001b0 00 00 00 00 00 00 80 3f 00 00 80 3f 00 00 00 00
       0.0 1.0 1.0 0.0
0001c0 00 00 80 3f 00 00 80 3f 00 00 00 00 00 00 80 3f
       1.0 1.0 0.0 1.0
0001d0 00 00 80 3f 00 00 00 00 00 00 80 3f 00 00 80 3f
       1.0 0.0 1.0 1.0
0001e0 00 00 00 00 00 00 80 3f 00 00 80 3f 00 00 00 00
       0.0 1.0 1.0 0.0
0001f0 00 00 80 3f 00 00 80 3f 00 00 00 00 00 00 80 3f
       1.0 1.0 0.0 1.0
000200 00 00 80 3f 00 00 80 3f 00 00 80 3f 00 00 80 3f
       1.0 1.0 1.0 1.0
000210 00 00 80 3f 00 00 80 3f 00 00 80 3f 00 00 80 3f
       1.0 1.0 1.0 1.0
000220 00 00 80 3f 00 00 80 3f 00 00 80 3f 00 00 80 3f
       1.0 1.0 1.0 1.0
000230 00 00 80 3f 00 00 80 3f 00 00 80 3f 00 00 80 3f
       1.0 1.0 1.0 1.0
000240 00 00 80 3f 00 00 80 3f 00 00 80 3f 00 00 80 3f
       1.0 1.0 1.0 1.0
000250 00 00 80 3f 00 00 80 3f 00 00 80 3f 00 00 80 3f
       1.0 1.0 1.0 1.0
000260 00 00 80 3f 00 00 80 3f 00 00 80 3f 00 00 80 3f
       1.0 1.0 1.0 1.0
000270 00 00 80 3f 00 00 80 3f 00 00 80 3f 00 00 80 3f
       1.0 1.0 1.0 1.0
000280 00 00 80 3f 00 00 80 3f 00 00 80 3f 00 00 80 3f
       1.0 1.0 1.0 1.0
000290 00 00 80 3f 00 00 80 3f 00 00 80 3f 00 00 80 3f
       1.0 1.0 1.0 1.0
0002a0 00 00 80 3f 00 00 80 3f 00 00 80 3f 00 00 80 3f
       1.0 1.0 1.0 1.0
0002b0 00 00 80 3f 00 00 80 3f 00 00 80 3f 00 00 80 3f
       1.0 1.0 1.0 1.0
0002c0 00 00 80 3f 00 00 80 3f 00 00 80 3f 00 00 80 3f
       1.0 1.0 1.0 1.0
0002d0 00 00 80 3f 00 00 80 3f 00 00 80 3f 00 00 80 3f
       1.0 1.0 1.0 1.0
0002e0 00 00 80 3f 00 00 80 3f 00 00 80 3f 00 00 80 3f
       1.0 1.0 1.0 1.0
0002f0 00 00 80 3f 00 00 80 3f 00 00 80 3f 00 00 80 3f
       1.0 1.0 1.0 1.0
000300 00 00 80 3f 00 00 00 00 00 00 00 00 00 00 80 3f
       1.0 0.0 0.0 1.0
000310 00 00 00 00 00 00 00 00 00 00 80 3f 00 00 00 00
       0.0 0.0 1.0 0.0
000320 00 00 00 00 00 00 80 3f 00 00 00 00 00 00 00 00
       0.0 1.0 0.0 0.0
000330 00 00 80 3f 00 00 00 00 00 00 00 00 00 00 80 3f
       1.0 0.0 0.0 1.0
000340 00 00 00 00 00 00 00 00 00 00 80 3f 00 00 00 00
       0.0 0.0 1.0 0.0
000350 00 00 00 00 00 00 80 3f 00 00 00 00 00 00 00 00
       0.0 1.0 0.0 0.0
000360 00 00 80 3f 00 00 00 00 00 00 00 00 00 00 80 3f
       1.0 0.0 0.0 1.0
000370 00 00 00 00 00 00 00 00 00 00 80 3f 00 00 00 00
       0.0 0.0 1.0 0.0
000380 00 00 00 00 00 00 80 3f 00 00 00 00 00 00 00 00
       0.0 1.0 0.0 0.0
000390 00 00 80 3f 00 00 00 00 00 00 00 00 00 00 80 3f
       1.0 0.0 0.0 1.0
0003a0 00 00 00 00 00 00 00 00 00 00 80 3f 00 00 00 00
       0.0 0.0 1.0 0.0
0003b0 00 00 00 00 00 00 80 3f 00 00 00 00 00 00 00 00
       0.0 1.0 0.0 0.0
0003c0 00 00 80 3f 00 00 00 00 00 00 00 00 00 00 80 3f
       1.0 0.0 0.0 1.0
0003d0 00 00 00 00 00 00 00 00 00 00 80 3f 00 00 00 00
       0.0 0.0 1.0 0.0
0003e0 00 00 00 00 00 00 80 3f 00 00 00 00 00 00 00 00
       0.0 1.0 0.0 0.0
0003f0 00 00 80 3f 00 00 00 00 00 00 00 00 00 00 80 3f
       1.0 0.0 0.0 1.0

_transform._transforms.1.autoregressive_net.blocks.1.linear_layers.0.weight f4 [64, 64]
000000 7f df c9 be 16 1d c6 bd 3a 55 bb bd 00 a1 75 bc
       -0.39428326 -0.096735165 -0.09147115 -0.014991999
000010 74 2e 79 3d 0e 6f e8 3d d2 7c 9f 3d fc bd d2 bd
       0.060835317 0.11349307 0.077874795 -0.10290143
000020 78 ea bd 3d ee c3 50 3e d8 71 b8 3d 3c d1 32 bd
       0.09273237 0.20387241 0.09006089 -0.043656573
000030 5c 26 53 bd 30 db ed 3d 80 8a 3b bd 59 e9 d7 3d
       -0.051550254 0.11614072 -0.04578638 0.105425544
000040 78 92 b7 bc 1a cb d6 bd ea 0a ff bc 4c 1a 4d 3d
       -0.022408709 -0.10487957 -0.031133134 0.050073907
000050 b8 8b ed 3d 67 02 e5 3d 4e 82 be 3d 1c fb 6e 3d
       0.11598915 0.11182099 0.093021974 0.058344945
000060 70 a2 e9 bd 94 81 24 3d 00 3a e9 bd e8 3e 89 3c
       -0.114079356 0.040162638 -0.11388016 0.016753629
000070 1c f8 4c bd 88 b7 b8 bd bc 51 e1 be a8 90 60 bd
       -0.050041303 -0.09019381 -0.4400767 -0.054825455
000080 c0 8b 89 3c 00 71 88 3c 08 01 d3 3d 04 86 f3 bd
       0.01679027 0.016655445 0.10302931 -0.11890796
000090 6f 17 77 bd 4a 6e dd 3d a8 3b 2e bd 44 85 01 bd
       -0.060325082 0.108120516 -0.04253736 -0.031621233
0000a0 2e cd bb bd 4a 7d da 3d 08 dd 24 bd 1e fc ab 3d
       -0.09169994 0.10668428 -0.040249854 0.08397697
0000b0 f4 0f 6b bd dc 13 eb bd 9c d3 54 bd c8 96 91 bc
       -0.05738826 -0.11478397 -0.05195962 -0.017772093
0000c0 40 ad 28 bd 1e 3b ab bd 60 97 3a bc 34 61 2b 3e
       -0.04118085 -0.08360885 -0.01138863 0.16736299
0000d0 bc 17 2e bd 86 b9 97 3d be 59 c6 3d d2 bd d8 3d
       -0.042503104 0.07408433 0.09685086 0.1058308
0000e0 92 e7 f8 3d a8 a0 53 bd 86 31 98 3d 8a 2c f4 bd
       0.121535435 -0.051666886 0.07431321 -0.11922558
0000f0 3f 45 2e 3e 24 d4 92 3d d4 80 02 bd 38 d1 b4 bd
       0.17018603 0.07169369 -0.03186114 -0.08828968
000100 23 ff 10 3d 34 1c 9e 3d fa 11 b3 3d d0 99 8a ba
       0.035399567 0.07720223 0.08743663 -0.0010574404
000110 96 3d b2 bc b4 95 27 3d a6 b4 d6 bd 43 25 55 bc
       -0.021757882 0.040914252 -0.10483675 -0.013009372
000120 0e 83 f0 3d 2a fd 4a bc ba 73 c1 bd 90 35 9d bc
       0.11743747 -0.012389461 -0.09445901 -0.01919058
000130 aa ab 43 3d 11 f1 e1 3d 8c 68 5a 3d 57 fa 8a bc
       0.047771133 0.11032308 0.05332236 -0.016965074
000140 1d 06 2c 3d 14 80 f9 bd 7a 0a 36 bc cf d8 46 bd
       0.041998018 -0.12182632 -0.011110896 -0.04854661
000150 4c c8 8a 3d 32 f1 cb 3d bd 1a 1e bd 50 cf 3c 3c
       0.06776485 0.09958114 -0.03859972 0.0115240365
000160 c2 c0 99 bd 39 cb 7b 3d 4e 00 9d bd 4a 48 c4 3d
       -0.07507469 0.061473105 -0.07666074 0.095841005
000170 d1 6a 9c bd 4e 24 a2 bd cc 98 77 3d 5a e7 ad 3c
       -0.07637561 -0.07917081 0.060448453 0.021228481
000180 40 a9 ae 3c 9e ad 86 be a4 78 70 be a4 46 10 bd
       0.021320939 -0.26304334 -0.23483521 -0.03522362
000190 c5 b7 5e bc aa b8 ce 3d 00 42 ed 3c 3a e9 e5 bd
       -0.013593619 0.100938156 0.028962135 -0.11226125
0001a0 bf 18 1a bd dc a8 3e 3d 57 b5 b2 bd 7b 44 17 3e
       -0.037621256 0.046547756 -0.08725994 0.14772217
0001b0 60 97 99 bb 03 48 cc 3d ab ac bd 3b 1a ad f2 3d
       -0.0046872348 0.09974673 0.005788406 0.11849423
0001c0 a0 bc 38 3c 31 da 63 bd 38 30 c2 3c c1 bc f4 bb
       0.01127544 -0.055628005 0.023704633 -0.0074687903
0001d0 a0 c0 d0 bc 20 41 86 bd da 5b a4 bd 39 3f 18 3e
       -0.025482476 -0.0655539 -0.08025332 0.14867868
0001e0 b0 cd ef 3d 10 8d d7 3d ad 72 03 3f 50 1d b1 3d
       0.11709154 0.105249524 0.51346856 0.08648169
0001f0 2a d2 43 3d e3 86 7d bd 28 e7 06 bd b5 b9 b8 bd
       0.04780785 -0.061896216 -0.03293529 -0.09019796
000200 8e 60 fd 3d ce c5 95 3d b2 84 0b 3e 66 4a 71 bb
       0.12371932 0.07313119 0.13624838 -0.0036818027
000210 fc 06 06 be e6 24 1e 3e a1 17 20 3e b5 d9 c6 3d
       -0.13088602 0.15443763 0.15634014 0.09709493
000220 a4 64 27 3e 5a c0 df bd d1 4c 4d bd 38 8d b4 bc
       0.16346985 -0.1092536 -0.050122086 -0.022039995
000230 f4 e2 d6 ba 14 ec 86 bc 91 eb 10 3d 2b 49 ba 3d
       -0.0016394542 -0.016469993 0.035380904 0.09095987
000240 bd 72 df 3c 6d b4 ae 3d 86 73 0b 3d 03 c3 13 3c
       0.027276391 0.08530507 0.03404572 0.009018662
000250 a3 68 fa bb d1 76 34 bd 60 71 9f bc c9 03 a8 bd
       -0.007641868 -0.044058625 -0.019463241 -0.08203847
000260 dc c5 4d 3d 12 8a b6 3d 0c 1d f3 b9 b7 eb af 3c
       0.05023752 0.089130536 -0.00046370213 0.021474702
000270 bf fd 8c 3d 0f 95 84 3f c4 34 8b 3d bd 08 46 3d
       0.06884336 1.0357989 0.067971736 0.048348177
000280 85 e2 98 3e e5 c9 d3 bc 28 60 c0 bd 48 33 06 3d
       0.2986032 -0.025853107 -0.0939334 0.03276375
000290 7a a6 a2 bd aa ee f9 3d 3e ce 9b bc 66 5f 88 bd
       -0.07941909 0.12203725 -0.019019242 -0.06658821
0002a0 3f 75 08 3e 0a c3 0b 3e 96 ef 1a bd 69 7a 58 bd
       0.13325976 0.1364862 -0.037826143 -0.052851114
0002b0 dc 25 96 3e 0a ac c4 3e 62 fc 09 3c f1 8f 73 3d
       0.2932576 0.38412505 0.008421989 0.059463445
0002c0 c2 50 35 bd 61 8e dd 3d 21 cb e2 bd 68 7b 2e 3e
       -0.04426647 0.10818172 -0.110739 0.17039263
0002d0 ad 06 31 bc 3e 3e 8c be 34 fd 45 3b d4 bf 55 3e
       -0.010804814 -0.27391237 0.0030210735 0.20873958
0002e0 01 1c 6c 3d 83 99 99 3d 8d 5e 5a 3f 38 61 28 3e
       0.057643894 0.07499983 0.85300523 0.16443336
0002f0 35 d3 8e bd ba 92 0c be 18 28 00 be 6f d6 7a be
       -0.06973878 -0.13727847 -0.12515295 -0.24495862
000300 10 95 ea bd 1e 38 d2 bd 96 16 8f bd b8 ff 55 3d
       -0.11454213 -0.1026461 -0.0698673 0.052245826
000310 de d6 94 3d 9e 7b a5 3d ac e1 4e 3d c0 6f 61 bc
       0.07267545 0.08080219 0.050508186 -0.013759553
000320 4c ad 6e 3d 34 24 ac bd c0 8e d0 3d b0 43 ce bd
       0.058270738 -0.08405343 0.101834774 -0.10071504
000330 20 24 e8 bb de f7 ca bd 9c 5d c4 3d b0 e4 cf bd
       -0.0070843846 -0.09910558 0.09588167 -0.101510406
000340 5e 18 de 3d a4 f7 76 bd 4c d1 b3 3d 18 3b 07 bd
       0.108444914 -0.060294762 0.087801546 -0.03301534
000350 92 79 c2 3d e0 28 ab bc 68 4e 44 3d e4 c2 a2 3d
       0.09495844 -0.020893514 0.047926337 0.07947329
000360 cc 84 19 bd 70 1f 1e 3d 98 e6 94 3c 52 af f0 bd
       -0.03748016 0.0386042 0.018176362 -0.1175219
000370 ca 92 d4 bd d0 64 65 bd 18 a5 2c 3d 34 d6 3d 3d
       -0.1037956 -0.056004345 0.042149633 0.04634686
000380 ae 7e e6 bd 90 90 15 3c 00 c1 56 bc 40 ef 1f bc
       -0.11254631 0.009128705 -0.013107538 -0.0097616315
000390 24 a7 8c bd 68 d4 bb 3d e4 c0 a1 3d 30 6a 1a bd
       -0.06867817 0.09171373 0.07898119 -0.037698925
0003a0 48 b5 7e bd cc b5 1c bd 50 15 4b 3d 90 1d c2 bd
       -0.062184602 -0.038259313 0.049580872 -0.09478295
0003b0 16 88 c4 3d b8 54 20 3d fa 13 cb bd 5c d5 f0 bd
       0.09596269 0.039143294 -0.099159196 -0.11759445
0003c0 b0 10 87 3d c0 cc 21 3d d6 a5 e0 3d 40 c1 c6 3b
       0.0659498 0.039501905 0.10969131 0.0060655177
0003d0 00 20 e8 bb f8 14 92 bc 2c 5d 05 3d 38 c2 95 3d
       -0.007083893 -0.017832264 0.03255956 0.07312435
0003e0 54 05 3c 3d fc 4a 0b bd 14 e4 a2 3d e0 28 dc 3d
       0.04590352 -0.034007058 0.07953659 0.10749984
0003f0 04 bc ad bd 0c 0a 2d 3d 78 14 74 bd 78 1a d0 bd
       -0.08483127 0.04224591 -0.059589833 -0.101612985
