trained_models/epoch=999modello-AllQuantile-N_iter6-N_features64-N_BS10000-epochs1000-lr0.001.pth (torch, 928956 bytes, 108 tensors)

_transform._transforms.1.autoregressive_net.initial_layer.weight f4 [64, 4]
00000000: 3e03 c73d 38a2 b43e 60c6 0ebe 82f1 933e
00000010: e1b5 903e d146 9f3e ee41 fe3e 0256 993e
00000020: c2e9 683e 5323 8e3e d508 a6be f06a fa3d
00000030: 7446 9aba 6009 f1bd d44a c9be 1c57 d83e
00000040: 7bc4 9fbe 1f36 503e 6ced 35be 400d 083c
00000050: e47f 8dbd 6fc9 7d3e c777 e8bd d83e ecbd
00000060: 11fe b9be 3088 88bd 60cb d13e 7c6f 2b3e
00000070: c410 bfbe bb9f 443d b42c 3bbe 383e d0be
00000080: cbe0 9fbd ff5b 8c3b 1b65 293e 4cc8 c2be
00000090: 710b 4dbe 2027 b2be 7e1f fabe ec27 1b3e
000000a0: 19b4 323e f1ea c2be 9416 79be d088 f13e
000000b0: b04b a43e fae6 8e3d 1023 e8be a401 45be
000000c0: ebc2 02be 0cf0 8b3e d4fb d3be 6073 043e
000000d0: ce26 633e 858e f4bd ec32 c73e a68f 883e
000000e0: f5cf 93be d5b8 7c3e 85cc 5abe 9651 bd3e
000000f0: 127c 943e e016 9abc 42d7 d03e 9a07 ba3e
00000100: 1e6d 22bd 572e ae3d e8e3 9abd f019 483e
00000110: 7dc3 7b3e ec11 ce3e 5800 8bbe b44b b53e
00000120: 0a2a 9fbd be4d c9be e45a 5e3e 6ec8 cdbe
00000130: 05fb 97bc 5a87 683e 6036 86bc 4c39 d03e
00000140: 3ab0 b53e 9f04 3dbd d101 febe be52 89be
00000150: 8209 90be d0f2 b83d 4ecf 9a3e 90a1 43bd
00000160: 3f30 cdbe d472 e1be b6e6 883e f0b3 49be
00000170: 981e e03e d4f1 abbe 9d8d 06be a0bf b23d
00000180: 9a29 cf3e 9418 1c3e c07d 553d 207b 99bc
00000190: fa5c cabb 7bd0 9a3e 5a0f ca3e b271 c4be
000001a0: 0e93 b2be 905b a6be 645d b23e 9e61 bfbe
000001b0: 327c 5d3e 1ac4 aa3e da88 9a3e c477 b4be
000001c0: fa4d 9bbe 85f3 3fbe 8410 a53e 901e 28be
000001d0: 26ff 8c3e 7b94 74bc 59a4 d1be 9682 933e
000001e0: ab3b e03d 6086 c2bc 882c d23d e815 303e
000001f0: 64df ebbe 199c 3fbe 4eb4 82be 40e7 1dbd
00000200: d096 d6be faf9 72be c5b4 64bc 54fe 31be
00000210: 6661 56be 04d5 5d3e 90e7 343d c011 2ebe
00000220: a954 563c 394c dabe f85d 6a3e f0ab 813d
00000230: 7362 2b3e ae5d 4c3e ea2a ce3e b0ac d9be
00000240: 5959 90be 9889 d33d 9ac2 803e a8e6 82be
00000250: 5852 303e 4071 b43c 5897 ee3e c0a8 503d
00000260: 7a30 21bd 2004 d2bd 0f27 b63e 40e7 3fbc
00000270: 7463 893e 7268 ef3e a07b 803c c04a 9a3e
00000280: 0d04 433e 72b0 f23d 9619 a7be bcfa 283e
00000290: 274b 39be 6cd3 de3e 803f 49be c0ce 09be
000002a0: 2324 e3be ec2a 843e cc05 d03e 50a7 5dbd
000002b0: 53af f9bd 3f2c 793e 5892 aa3d c0ff 38bd
000002c0: 965a 5bbe f920 bebe 1018 c23e eac3 db3e
000002d0: 9b46 b63e 06ae adbe 0010 67bc a812 003e
000002e0: 4dfd a8be 8021 5ebe 12e0 973e d86c 5e3e
000002f0: da6e d4be 8bc0 5a3d 7b9b e1be a872 193e
00000300: a62a bbbd 1c68 33be 2004 da3d 2c5c b63e
00000310: 240a d23c 62e3 9ebd f000 f8bd 70a1 39be
00000320: f158 97be 4090 703e 1155 5b3d 801c d53e
00000330: 2f6e 243e 502f 093d 74fc fd3e e863 323e
00000340: 50bd edbe 5002 f8bd 8027 f83d 2835 233e
00000350: d89a 243d 8a44 fdbd 2ea1 5bbe b062 c03d
00000360: fafd d0bd 6414 c13e f881 5cbe eadc cbbe
00000370: cd00 553e b9dd a8be 1872 833e 587c 703e
00000380: f9a9 843e ea77 a5bc abdf 0cbf 5ed8 c9be
00000390: 23d1 64be 7894 29be e039 89bc 5041 fc3e
000003a0: 5522 ccbe 5be4 c03d a035 76be 80d5 4d3c
000003b0: 930e 39be 9a17 e23b 71ce aabe 6e3f d2be
000003c0: 8ed1 a83e a0c6 5ebd b8f7 863e 3c8a a23e
000003d0: 4ff5 39be 8b4f 0b3d e0de b6be 6e08 80be
000003e0: 0db8 83be 02ee c13e 673e a7bd f009 923d
000003f0: 8795 90be 4cb2 2cbe 2a18 c8be 9c30 46be
0.09717415 0.35280013 -0.13942862 0.28895193 0.28263763 0.31108716 0.49659675 0.2994843
0.22745422 0.27761325 -0.32428613 0.12227428 -0.0011770264 -0.11769366 -0.39314902 0.4225396
-0.3120459 0.20333146 -0.1776635 0.00830394 -0.06909159 0.24783872 -0.11350971 -0.11535424
-0.3632665 -0.06666601 0.40975475 0.16741747 -0.3731748 0.048003893 -0.18278772 -0.4067247
-0.07806548 0.0042834277 0.16542475 -0.3804344 -0.20023896 -0.34795475 -0.48852152 0.15151948
0.17451514 -0.3806987 -0.24325019 0.47174692 0.32088995 0.06977649 -0.4533925 -0.19238907
-0.12769668 0.2733158 -0.41403067 0.12934637 0.22182772 -0.11941246 0.38906038 0.26672095
-0.28869596 0.24679883 -0.2136708 0.36976308 0.29000908 -0.018809736 0.4078923 0.36333925
-0.039654844 0.085049324 -0.07563001 0.19541144 0.24586292 0.40248048 -0.271487 0.3540932
-0.0777169 -0.39317125 0.2171436 -0.40191978 -0.018552313 0.22707883 -0.01638335 0.40668714
0.35486013 -0.046146985 -0.4961076 -0.2682094 -0.28132254 0.09030688 0.30236286 -0.0477615
-0.4007587 -0.4403292 0.26738518 -0.19697547 0.4377334 -0.33582938 -0.13139959 0.08727956
0.40461427 0.15243751 0.052121878 -0.018735468 -0.0061756345 0.30237183 0.39464837 -0.38367993
-0.3487782 -0.32491732 0.34836876 -0.37379164 0.21629408 0.3335274 0.30182534 -0.35247624
-0.3033293 -0.18745239 0.32239163 -0.16417909 0.27538413 -0.014927979 -0.409457 0.28810567
0.10948881 -0.023745716 0.102624 0.17195857 -0.4606887 -0.1871189 -0.25528187 -0.038550615
-0.41911936 -0.23728171 -0.013959114 -0.17382175 -0.20935592 0.2166329 0.044166148 -0.16998959
0.013081708 -0.42636278 0.22887409 0.063316226 0.16736774 0.19957611 0.40267116 -0.42514563
-0.28193167 0.10328978 0.2514847 -0.25566602 0.17218912 0.022026658 0.4659984 0.050942183
-0.03935287 -0.10254693 0.35576674 -0.011712849 0.2683369 0.46759373 0.015683949 0.30135155
0.19044514 0.118500605 -0.32636708 0.16501898 -0.18095075 0.43520677 -0.1965313 -0.13457775
-0.44363508 0.25813997 0.40629423 -0.05411464 -0.121916436 0.24333285 0.08328694 -0.045165777
-0.21421275 -0.3713453 0.37908983 0.42922908 0.35600743 -0.33921832 -0.014102936 0.12507117
-0.33005753 -0.21692467 0.2966314 0.21721208 -0.41490823 0.05340628 -0.44063935 0.14985144
-0.09138994 -0.17520183 0.10645318 0.35617197 0.025639601 -0.077582136 -0.12109554 -0.1812799
-0.29560044 0.23492527 0.053547923 0.41623306 0.16057657 0.033492386 0.4960667 0.17420924
-0.46433496 -0.12109816 0.12116909 0.15938246 0.040186733 -0.123665884 -0.21448204 0.09393823
-0.10204692 0.3771087 -0.21533954 -0.39816982 0.20801087 -0.3298166 0.25672984 0.23484933
0.2591093 -0.020198781 -0.5502879 -0.39422888 -0.22345404 -0.16560543 -0.01675123 0.4926858
-0.39869943 0.09418555 -0.24043894 0.012563109 -0.18071966 0.006899786 -0.33360627 -0.41064018
0.32972378 -0.054388642 0.2636087 0.3174609 -0.18159984 0.034011405 -0.35716915 -0.2500643
-0.25726357 0.37876898 -0.08166199 0.07130802 -0.2823908 -0.1686489 -0.39080936 -0.1935448

_transform._transforms.1.autoregressive_net.initial_layer.bias f4 [64]
00000000: 2195 cfbe 7db7 f53e 87b3 25be f33b 7dbe
00000010: 4a2f 1b3d 678f 083f 6e73 103e 1560 f4be
00000020: 43dd b2be 341a 663d ff83 2dbe 53ad 5fbd
00000030: 0b0d 773e e77c d3be 5a6f adbe 1d9b a93e
00000040: dc8c 473e d20b a23e f25c 3e3d 1b3a c3be
00000050: a121 e5be 211c d9be c75f a13d 5297 01ba
00000060: f57b 2e3d 898b e03e 6984 2dbe e02d 7d3e
00000070: ebb0 363e 187f 523d 9774 9fbe d9c9 5ebd
00000080: 1345 c33e aa15 66bd b118 ad3e a22e e13e
00000090: 569a 033f 8e83 69be 09db 373e 2394 c33e
000000a0: 715b 803e 5759 f43e 26b6 cfbe 1156 c0bc
000000b0: 3e5e 973e 2177 00bf c78d e23e 5f63 7cbe
000000c0: 892e f93e ac63 1abe ff51 c43e 0cad 73be
000000d0: b582 ef3d e5d3 463d e96b d03e 8c00 cc3e
000000e0: f61e 2ebd 59f1 b4be 3cde c3bc 4609 053e
000000f0: 2e3b 803e 3b80 24be 4ca3 33be ca4d a2bd
-0.40543464 0.47991553 -0.16181765 -0.247299 0.037886895 0.53343815 0.14106533 -0.47729555
-0.34934434 0.056177333 -0.16944884 -0.054608654 0.24126069 -0.4130623 -0.33874017 0.33126155
0.19487327 0.31649643 0.04647536 -0.38130268 -0.4475222 -0.42404273 0.07879596 -0.0004943508
0.042598683 0.43856457 -0.16945042 0.24724531 0.17840926 0.051390737 -0.31143638 -0.054391716
0.38138637 -0.056173004 0.338079 0.4398089 0.5140737 -0.2280409 0.17954649 0.38198957
0.25069764 0.4772441 -0.40568656 -0.02347854 0.2956409 -0.50181776 0.44248793 -0.24647282
0.48668316 -0.15077084 0.38343808 -0.23796481 0.11694852 0.048541922 0.4070733 0.39844167
-0.042509995 -0.35340384 -0.02390968 0.12991819 0.2504515 -0.16064541 -0.17542762 -0.07924993

_transform._transforms.1.autoregressive_net.initial_layer.mask f4 [64, 4]
00000000: 0000 803f 0000 0000 0000 0000 0000 0000
00000010: 0000 803f 0000 803f 0000 0000 0000 0000
00000020: 0000 803f 0000 803f 0000 803f 0000 0000
00000030: 0000 803f 0000 0000 0000 0000 0000 0000
00000040: 0000 803f 0000 803f 0000 0000 0000 0000
00000050: 0000 803f 0000 803f 0000 803f 0000 0000
00000060: 0000 803f 0000 0000 0000 0000 0000 0000
00000070: 0000 803f 0000 803f 0000 0000 0000 0000
00000080: 0000 803f 0000 803f 0000 803f 0000 0000
00000090: 0000 803f 0000 0000 0000 0000 0000 0000
000000a0: 0000 803f 0000 803f 0000 0000 0000 0000
000000b0: 0000 803f 0000 803f 0000 803f 0000 0000
000000c0: 0000 803f 0000 0000 0000 0000 0000 0000
000000d0: 0000 803f 0000 803f 0000 0000 0000 0000
000000e0: 0000 803f 0000 803f 0000 803f 0000 0000
000000f0: 0000 803f 0000 0000 0000 0000 0000 0000
00000100: 0000 803f 0000 803f 0000 0000 0000 0000
00000110: 0000 803f 0000 803f 0000 803f 0000 0000
00000120: 0000 803f 0000 0000 0000 0000 0000 0000
00000130: 0000 803f 0000 803f 0000 0000 0000 0000
00000140: 0000 803f 0000 803f 0000 803f 0000 0000
00000150: 0000 803f 0000 0000 0000 0000 0000 0000
00000160: 0000 803f 0000 803f 0000 0000 0000 0000
00000170: 0000 803f 0000 803f 0000 803f 0000 0000
00000180: 0000 803f 0000 0000 0000 0000 0000 0000
00000190: 0000 803f 0000 803f 0000 0000 0000 0000
000001a0: 0000 803f 0000 803f 0000 803f 0000 0000
000001b0: 0000 803f 0000 0000 0000 0000 0000 0000
000001c0: 0000 803f 0000 803f 0000 0000 0000 0000
000001d0: 0000 803f 0000 803f 0000 803f 0000 0000
000001e0: 0000 803f 0000 0000 0000 0000 0000 0000
000001f0: 0000 803f 0000 803f 0000 0000 0000 0000
00000200: 0000 803f 0000 803f 0000 803f 0000 0000
00000210: 0000 803f 0000 0000 0000 0000 0000 0000
00000220: 0000 803f 0000 803f 0000 0000 0000 0000
00000230: 0000 803f 0000 803f 0000 803f 0000 0000
00000240: 0000 803f 0000 0000 0000 0000 0000 0000
00000250: 0000 803f 0000 803f 0000 0000 0000 0000
00000260: 0000 803f 0000 803f 0000 803f 0000 0000
00000270: 0000 803f 0000 0000 0000 0000 0000 0000
00000280: 0000 803f 0000 803f 0000 0000 0000 0000
00000290: 0000 803f 0000 803f 0000 803f 0000 0000
000002a0: 0000 803f 0000 0000 0000 0000 0000 0000
000002b0: 0000 803f 0000 803f 0000 0000 0000 0000
000002c0: 0000 803f 0000 803f 0000 803f 0000 0000
000002d0: 0000 803f 0000 0000 0000 0000 0000 0000
000002e0: 0000 803f 0000 803f 0000 0000 0000 0000
000002f0: 0000 803f 0000 803f 0000 803f 0000 0000
00000300: 0000 803f 0000 0000 0000 0000 0000 0000
00000310: 0000 803f 0000 803f 0000 0000 0000 0000
00000320: 0000 803f 0000 803f 0000 803f 0000 0000
00000330: 0000 803f 0000 0000 0000 0000 0000 0000
00000340: 0000 803f 0000 803f 0000 0000 0000 0000
00000350: 0000 803f 0000 803f 0000 803f 0000 0000
00000360: 0000 803f 0000 0000 0000 0000 0000 0000
00000370: 0000 803f 0000 803f 0000 0000 0000 0000
00000380: 0000 803f 0000 803f 0000 803f 0000 0000
00000390: 0000 803f 0000 0000 0000 0000 0000 0000
000003a0: 0000 803f 0000 803f 0000 0000 0000 0000
000003b0: 0000 803f 0000 803f 0000 803f 0000 0000
000003c0: 0000 803f 0000 0000 0000 0000 0000 0000
000003d0: 0000 803f 0000 803f 0000 0000 0000 0000
000003e0: 0000 803f 0000 803f 0000 803f 0000 0000
000003f0: 0000 803f 0000 0000 0000 0000 0000 0000
1.0 0.0 0.0 0.0 1.0 1.0 0.0 0.0
1.0 1.0 1.0 0.0 1.0 0.0 0.0 0.0
1.0 1.0 0.0 0.0 1.0 1.0 1.0 0.0
1.0 0.0 0.0 0.0 1.0 1.0 0.0 0.0
1.0 1.0 1.0 0.0 1.0 0.0 0.0 0.0
1.0 1.0 0.0 0.0 1.0 1.0 1.0 0.0
1.0 0.0 0.0 0.0 1.0 1.0 0.0 0.0
1.0 1.0 1.0 0.0 1.0 0.0 0.0 0.0
1.0 1.0 0.0 0.0 1.0 1.0 1.0 0.0
1.0 0.0 0.0 0.0 1.0 1.0 0.0 0.0
1.0 1.0 1.0 0.0 1.0 0.0 0.0 0.0
1.0 1.0 0.0 0.0 1.0 1.0 1.0 0.0
1.0 0.0 0.0 0.0 1.0 1.0 0.0 0.0
1.0 1.0 1.0 0.0 1.0 0.0 0.0 0.0
1.0 1.0 0.0 0.0 1.0 1.0 1.0 0.0
1.0 0.0 0.0 0.0 1.0 1.0 0.0 0.0
1.0 1.0 1.0 0.0 1.0 0.0 0.0 0.0
1.0 1.0 0.0 0.0 1.0 1.0 1.0 0.0
1.0 0.0 0.0 0.0 1.0 1.0 0.0 0.0
1.0 1.0 1.0 0.0 1.0 0.0 0.0 0.0
1.0 1.0 0.0 0.0 1.0 1.0 1.0 0.0
1.0 0.0 0.0 0.0 1.0 1.0 0.0 0.0
1.0 1.0 1.0 0.0 1.0 0.0 0.0 0.0
1.0 1.0 0.0 0.0 1.0 1.0 1.0 0.0
1.0 0.0 0.0 0.0 1.0 1.0 0.0 0.0
1.0 1.0 1.0 0.0 1.0 0.0 0.0 0.0
1.0 1.0 0.0 0.0 1.0 1.0 1.0 0.0
1.0 0.0 0.0 0.0 1.0 1.0 0.0 0.0
1.0 1.0 1.0 0.0 1.0 0.0 0.0 0.0
1.0 1.0 0.0 0.0 1.0 1.0 1.0 0.0
1.0 0.0 0.0 0.0 1.0 1.0 0.0 0.0
1.0 1.0 1.0 0.0 1.0 0.0 0.0 0.0

_transform._transforms.1.autoregressive_net.blocks.0.linear_layers.0.weight f4 [64, 64]
00000000: 809f ee3d 2686 ed3d a872 353d 3455 ef3d
00000010: 8232 c73d 12d5 f53d 4f38 053e 684d 6d3d
00000020: 80ce 8d3b e7ae 673d 3614 ed3d 08a5 8cbc
00000030: 0b3c 2e3d 188f 483d 1001 bdbd 4a98 003e
00000040: 183f d8bd fe27 f73d 15e4 5f3d 1cfa 05bd
00000050: 7ce5 033d ec9f 963e 4078 52bb f401 98bd
00000060: e4c2 b43d 00cc f1b9 0086 923b 492e 833c
00000070: 0cc1 513d 404f e2bb 79d7 163e f854 0a3d
00000080: 70f5 8e3d 450c 9dbc f090 6dbc 0076 aeb9
00000090: 5520 f83d cebc c6bd 2009 ff3d 2df0 193e
000000a0: 540c 5cbd a001 733d 1b36 22bc f8de 4abd
000000b0: 085d a73c ae92 f53d e6aa f83d 2c13 53bd
000000c0: 3ed6 98bd 609c 49bd 80e1 5a3b 6f1f 833e
000000d0: 2407 adbd d4a3 eebd 91e6 a1bd c012 923d
000000e0: 50bd babd f42f 093e 489c cabd 0000 a13b
000000f0: c82d 233e 7462 36bd a8b6 79bd 64b9 5cba
00000100: 0df5 043d 10ed 7e3d 4c73 c53d fc75 cc3d
00000110: 9cdf b7bc 64ef 71bd 9ade ab3d 134c 9d3c
00000120: b49d 503d 6295 e03b 48a2 19be fc11 d6bd
00000130: 1e79 8d3d 1c76 88bd f624 ca3d cb9a 123d
00000140: 8133 71bd 7258 88bd 22c0 7ebd 2161 273d
00000150: 8e82 9d3d 0008 403d 3c8f 09bd 380f 523d
00000160: 1826 00be 01d2 b0bd 8064 84bb 0c28 cebd
00000170: 3234 5d3d 2033 573c 5843 9a3d cc89 353d
00000180: c864 423d 8823 3dbe c624 39bd 2c73 9b3d
00000190: aecb 863d 28e8 3c3d 822b a63d afa3 993c
000001a0: 0637 8f3d 640f 2bbd bbed a73c 1966 853d
000001b0: 40e1 483d 1cae acbc 05da 92bd 48d8 e8bd
000001c0: 3d2c 67bd 3740 7e3d 583d f4bc 031d cfbd
000001d0: dec5 1fbd 483c f03c f979 a23d 3f58 0b3e
000001e0: 20fc d33d 1191 ad3e ea21 7f3b b4f2 edbd
000001f0: 2bbc 1b3d 916f 33bd 2043 bfbb eb70 a3bc
00000200: a365 c3be 1d23 a93d 2a97 963d 28a2 dbbd
00000210: c34a ba3d 54b9 c93d 3819 83bc e09b 6ebc
00000220: ffa4 22bf 2c26 6e3c 39d5 97bd 0791 4a3e
00000230: 8ec6 2c3e b134 07bf e85c 6c3d 4530 ff3b
00000240: ca20 163e 32f9 d43c 1407 433d 57ec a83e
00000250: a96e dc3e f623 1ebe d402 3a3d d8f3 ebbd
00000260: f0b9 953c 887c 0e3c 70fd 3c3d bee2 d53c
00000270: 0b16 93bd e4bc 3bbe ec81 26bf cfed 2dbb
00000280: a783 0e3e 926f 10bd 1f92 2a3d 9028 87bd
00000290: a6e6 283e 9d87 623e 17a2 a63c 51da c53c
000002a0: 1596 7b3d 71dc 9838 8a8f 543d f388 80bd
000002b0: 5aaa b1bc 4639 7e3e 7ea5 653d a2a4 093a
000002c0: 52d5 3b3e 5205 82be 99d4 4e3e af04 3f3e
000002d0: 64e9 a7ba 7c2e 133e 21fd ddbc 4603 79bd
000002e0: 5ea8 46be e38c 3cbd 0735 e33c 0556 f33d
000002f0: 8410 95bc c4a5 713c 6c04 3e3c 867e 80bb
00000300: 3df3 3bbd d266 f33d cabd e83d 40b1 073d
00000310: 50ba febd 2cea cfbd 0182 bfbd 087a febd
00000320: 727e b83d e0e2 05be 50ab 9d3d 80c9 8cbc
00000330: 8cdd 3a3c 3cb7 bbbd bc20 3a3d 72a9 893d
00000340: 0011 3dba 00ca daba ec2e 013e e001 cdbd
00000350: 9cd4 b93d 2519 c63d 7e1b 90bd 9cac 7a3d
00000360: 574a 8bbd 8093 d13b 88dd c2bd ad9f 63bc
00000370: 7eef b23d e8fc 07bd eb32 fcbc 2ae2 963d
00000380: 0823 6c3d 3bad 76be 60ab f23b 045d 35bd
00000390: ef79 e43d e00e 2abd f046 20bc 43e8 2bbb
000003a0: c4fd febd a865 60bd 87ed ccbd b0e5 14bd
000003b0: 48ff e43c 99b5 57be 0c95 b8bd 6c3c 45bd
000003c0: 8888 e13d 904a 24bd f20c de3d b690 27bf
000003d0: 7203 af3d 48b8 d7bd c27f b23d 6af1 ff3d
000003e0: 12bc febd 893b 0c3f c844 db3d c0c9 4dbd
000003f0: 9e38 ea3c ee16 ebbd d02e 5f3c fe5d 51be
0.11651516 0.115978524 0.044298798 0.11686173 0.097264305 0.120035306 0.13009761 0.05793515
0.0043275952 0.056563284 0.115761206 -0.017168537 0.04253773 0.04896459 -0.09228718 0.12558094
-0.10558909 0.12068175 0.054660875 -0.032709226 0.032201275 0.29418886 -0.0032115132 -0.074222475
0.08826235 -0.00046119094 0.0044715405 0.016013281 0.051209494 -0.00690642 0.14730634 0.03377244
0.06980407 -0.01917089 -0.014499888 -0.00033275783 0.12115542 -0.097039804 0.12452912 0.15033026
-0.053722695 0.05932772 -0.009900595 -0.049529046 0.020430103 0.119908676 0.12141971 -0.051531956
-0.074627385 -0.049221396 0.0033398569 0.2560992 -0.084486276 -0.116523415 -0.07905305 0.071324825
-0.0911814 0.13397199 -0.098930895 0.00491333 0.15935433 -0.044527486 -0.06096521 -0.00084199593
0.03246026 0.0622378 0.09641132 0.09983441 -0.022445492 -0.05906619 0.08392067 0.019201314
0.050931647 0.0068537453 -0.15003312 -0.10452649 0.06907867 -0.066631526 0.09870331 0.035792153
-0.05888701 -0.066574946 -0.06219495 0.040864114 0.07690917 0.04688263 -0.033583865 0.051284045
-0.12514532 -0.08633805 -0.004040301 -0.10066232 0.054004855 0.013134748 0.07532376 0.044320866
0.047459394 -0.18470585 -0.045201086 0.07590327 0.065818176 0.04611984 0.08113767 0.018754808
0.06992917 -0.041762725 0.0204991 0.06513614 0.04904294 -0.021079116 -0.0717049 -0.113693774
-0.056438673 0.06207296 -0.029814407 -0.101129554 -0.03900706 0.02932562 0.07933421 0.13607882
0.103508234 0.3389974 0.0038930126 -0.116185576 0.038021248 -0.04380757 -0.0058368593 -0.019951304
-0.3816348 0.082586505 0.07353051 -0.10724288 0.09096291 0.09849802 -0.016003236 -0.014563531
-0.63533014 0.014535468 -0.07413716 0.19781886 0.16872618 -0.52814776 0.05770579 0.0077877366
0.14660946 0.025997732 0.047614172 0.32992813 0.43053177 -0.15443406 0.045412853 -0.11521119
0.018277138 0.008696683 0.046140134 0.026109096 -0.07181939 -0.18333775 -0.65041995 -0.002653945
0.13917409 -0.03526265 0.04164326 -0.065995336 0.16494235 0.22122045 0.020340962 0.024151953
0.061422426 7.288985e-05 0.051894702 -0.06276121 -0.021687675 0.24826536 0.05606603 0.00052506675
0.18343094 -0.25394684 0.20198287 0.1865413 -0.0012810645 0.14373201 -0.02709824 -0.060794137
-0.19400164 -0.046032798 0.027735246 0.11881641 -0.018196352 0.014748994 0.011597734 -0.003921333
-0.045886267 0.11884846 0.113643244 0.033128023 -0.1243788 -0.101520866 -0.09350968 -0.12425619
0.090084925 -0.13074827 0.07698691 -0.017185926 0.01140536 -0.091658086 0.045441374 0.06721772
-0.0007212311 -0.0016692281 0.12615556 -0.10010123 0.09073755 0.09672765 -0.07036494 0.06119977
-0.068012886 0.006395757 -0.0951491 -0.01389305 0.08737086 -0.033200175 -0.030785998 0.07367356
0.057650596 -0.2408952 0.0074056834 -0.04427816 0.111560695 -0.041518092 -0.009782538 -0.0026230968
-0.12450746 -0.054784447 -0.10006242 -0.03635186 0.027953759 -0.21065368 -0.090128034 -0.048153326
0.110123694 -0.04011017 0.10842313 -0.65455186 0.08545579 -0.10533196 0.08715774 0.12497218
-0.12438215 0.54778343 0.10706478 -0.050241232 0.02859145 -0.11478983 0.013622001 -0.20446011

_transform._transforms.1.autoregressive_net.blocks.0.linear_layers.0.bias f4 [64]
00000000: f95e 89bd 3640 85bc a442 253c 57b8 033d
00000010: c7c3 fcbb 3a7d 9ebd f771 2c3c 13a4 4e3d
00000020: ebe3 743d 8399 583d 1f20 1f3d 90e9 9f3d
00000030: 057f 25bc a5b2 cc3d 384e 323e 0818 eb3d
00000040: 4f2f 9c3c cab0 963d 9c06 0ebb dd99 103e
00000050: 2ffe 8cbd 13de 9b3d 186d 3cbd dbfd e13b
00000060: fe97 673d 88e5 7c3c 95b8 303e 7f34 d43c
00000070: 8537 17bb dcea b4bc b0e8 c83d 35ff cd3d
00000080: 648a e43d 4655 efbc 75fc 71bd 72d7 703d
00000090: 999e 683d 64df bdbd c829 babd 50a3 a5bd
000000a0: d665 dcbc ac86 a6bd c2cd a7bd e118 8b3c
000000b0: 7520 c5bd d5dd 25be 7661 f5bd 04c6 963c
000000c0: bd44 9cbd 10c5 8cbc 9693 203e f27b 033d
000000d0: b44c 343e 113b 8a3d d8e0 09be 466c d23d
000000e0: 06cb 033e 8d33 b13d a15b 903d f6f6 a43d
000000f0: 382b c0bd 99c1 d33d 1e8c 1a3e ba46 53bd
-0.06707568 -0.01626597 0.010086689 0.032158222 -0.007713768 -0.07738729 0.010525218 0.050449442
0.059787672 0.052880775 0.038848992 0.078082204 -0.010101085 0.09995011 0.1741265 0.11479193
0.019065527 0.073579386 -0.002167142 0.14121194 -0.06884419 0.07610717 -0.046002477 0.006896717
0.056541435 0.015435584 0.17257912 0.025903938 -0.0023073864 -0.022084646 0.098100066 0.100584425
0.111592084 -0.029215466 -0.059078652 0.058799215 0.056791876 -0.09271124 -0.090900004 -0.0808779
-0.026904028 -0.08131155 -0.08193542 0.016979637 -0.09625331 -0.16197903 -0.1198148 0.018404968
-0.07630298 -0.01718381 0.156813 0.032100625 0.17607385 0.06749547 -0.13464677 0.10274558
0.12870416 0.08652411 0.07048727 0.080549166 -0.09383243 0.1033966 0.15092513 -0.051581122

_transform._transforms.1.autoregressive_net.blocks.0.linear_layers.0.mask f4 [64, 64]
00000000: 0000 803f 0000 0000 0000 0000 0000 803f
00000010: 0000 0000 0000 0000 0000 803f 0000 0000
00000020: 0000 0000 0000 803f 0000 0000 0000 0000
00000030: 0000 803f 0000 0000 0000 0000 0000 803f
00000040: 0000 0000 0000 0000 0000 803f 0000 0000
00000050: 0000 0000 0000 803f 0000 0000 0000 0000
00000060: 0000 803f 0000 0000 0000 0000 0000 803f
00000070: 0000 0000 0000 0000 0000 803f 0000 0000
00000080: 0000 0000 0000 803f 0000 0000 0000 0000
00000090: 0000 803f 0000 0000 0000 0000 0000 803f
000000a0: 0000 0000 0000 0000 0000 803f 0000 0000
000000b0: 0000 0000 0000 803f 0000 0000 0000 0000
000000c0: 0000 803f 0000 0000 0000 0000 0000 803f
000000d0: 0000 0000 0000 0000 0000 803f 0000 0000
000000e0: 0000 0000 0000 803f 0000 0000 0000 0000
000000f0: 0000 803f 0000 0000 0000 0000 0000 803f
00000100: 0000 803f 0000 803f 0000 0000 0000 803f
00000110: 0000 803f 0000 0000 0000 803f 0000 803f
00000120: 0000 0000 0000 803f 0000 803f 0000 0000
00000130: 0000 803f 0000 803f 0000 0000 0000 803f
00000140: 0000 803f 0000 0000 0000 803f 0000 803f
00000150: 0000 0000 0000 803f 0000 803f 0000 0000
00000160: 0000 803f 0000 803f 0000 0000 0000 803f
00000170: 0000 803f 0000 0000 0000 803f 0000 803f
00000180: 0000 0000 0000 803f 0000 803f 0000 0000
00000190: 0000 803f 0000 803f 0000 0000 0000 803f
000001a0: 0000 803f 0000 0000 0000 803f 0000 803f
000001b0: 0000 0000 0000 803f 0000 803f 0000 0000
000001c0: 0000 803f 0000 803f 0000 0000 0000 803f
000001d0: 0000 803f 0000 0000 0000 803f 0000 803f
000001e0: 0000 0000 0000 803f 0000 803f 0000 0000
000001f0: 0000 803f 0000 803f 0000 0000 0000 803f
00000200: 0000 803f 0000 803f 0000 803f 0000 803f
00000210: 0000 803f 0000 803f 0000 803f 0000 803f
00000220: 0000 803f 0000 803f 0000 803f 0000 803f
00000230: 0000 803f 0000 803f 0000 803f 0000 803f
00000240: 0000 803f 0000 803f 0000 803f 0000 803f
00000250: 0000 803f 0000 803f 0000 803f 0000 803f
00000260: 0000 803f 0000 803f 0000 803f 0000 803f
00000270: 0000 803f 0000 803f 0000 803f 0000 803f
00000280: 0000 803f 0000 803f 0000 803f 0000 803f
00000290: 0000 803f 0000 803f 0000 803f 0000 803f
000002a0: 0000 803f 0000 803f 0000 803f 0000 803f
000002b0: 0000 803f 0000 803f 0000 803f 0000 803f
000002c0: 0000 803f 0000 803f 0000 803f 0000 803f
000002d0: 0000 803f 0000 803f 0000 803f 0000 803f
000002e0: 0000 803f 0000 803f 0000 803f 0000 803f
000002f0: 0000 803f 0000 803f 0000 803f 0000 803f
00000300: 0000 803f 0000 0000 0000 0000 0000 803f
00000310: 0000 0000 0000 0000 0000 803f 0000 0000
00000320: 0000 0000 0000 803f 0000 0000 0000 0000
00000330: 0000 803f 0000 0000 0000 0000 0000 803f
00000340: 0000 0000 0000 0000 0000 803f 0000 0000
00000350: 0000 0000 0000 803f 0000 0000 0000 0000
00000360: 0000 803f 0000 0000 0000 0000 0000 803f
00000370: 0000 0000 0000 0000 0000 803f 0000 0000
00000380: 0000 0000 0000 803f 0000 0000 0000 0000
00000390: 0000 803f 0000 0000 0000 0000 0000 803f
000003a0: 0000 0000 0000 0000 0000 803f 0000 0000
000003b0: 0000 0000 0000 803f 0000 0000 0000 0000
000003c0: 0000 803f 0000 0000 0000 0000 0000 803f
000003d0: 0000 0000 0000 0000 0000 803f 0000 0000
000003e0: 0000 0000 0000 803f 0000 0000 0000 0000
000003f0: 0000 803f 0000 0000 0000 0000 0000 803f
1.0 0.0 0.0 1.0 0.0 0.0 1.0 0.0
0.0 1.0 0.0 0.0 1.0 0.0 0.0 1.0
0.0 0.0 1.0 0.0 0.0 1.0 0.0 0.0
1.0 0.0 0.0 1.0 0.0 0.0 1.0 0.0
0.0 1.0 0.0 0.0 1.0 0.0 0.0 1.0
0.0 0.0 1.0 0.0 0.0 1.0 0.0 0.0
1.0 0.0 0.0 1.0 0.0 0.0 1.0 0.0
0.0 1.0 0.0 0.0 1.0 0.0 0.0 1.0
1.0 1.0 0.0 1.0 1.0 0.0 1.0 1.0
0.0 1.0 1.0 0.0 1.0 1.0 0.0 1.0
1.0 0.0 1.0 1.0 0.0 1.0 1.0 0.0
1.0 1.0 0.0 1.0 1.0 0.0 1.0 1.0
0.0 1.0 1.0 0.0 1.0 1.0 0.0 1.0
1.0 0.0 1.0 1.0 0.0 1.0 1.0 0.0
1.0 1.0 0.0 1.0 1.0 0.0 1.0 1.0
0.0 1.0 1.0 0.0 1.0 1.0 0.0 1.0
1.0 1.0 1.0 1.0 1.0 1.0 1.0 1.0
1.0 1.0 1.0 1.0 1.0 1.0 1.0 1.0
1.0 1.0 1.0 1.0 1.0 1.0 1.0 1.0
1.0 1.0 1.0 1.0 1.0 1.0 1.0 1.0
1.0 1.0 1.0 1.0 1.0 1.0 1.0 1.0
1.0 1.0 1.0 1.0 1.0 1.0 1.0 1.0
1.0 1.0 1.0 1.0 1.0 1.0 1.0 1.0
1.0 1.0 1.0 1.0 1.0 1.0 1.0 1.0
1.0 0.0 0.0 1.0 0.0 0.0 1.0 0.0
0.0 1.0 0.0 0.0 1.0 0.0 0.0 1.0
0.0 0.0 1.0 0.0 0.0 1.0 0.0 0.0
1.0 0.0 0.0 1.0 0.0 0.0 1.0 0.0
0.0 1.0 0.0 0.0 1.0 0.0 0.0 1.0
0.0 0.0 1.0 0.0 0.0 1.0 0.0 0.0
1.0 0.0 0.0 1.0 0.0 0.0 1.0 0.0
0.0 1.0 0.0 0.0 1.0 0.0 0.0 1.0

_transform._transforms.1.autoregressive_net.blocks.0.linear_layers.1.weight f4 [64, 64]
00000000: e021 42bd af47 6636 9068 50ba 8670 313b
00000010: 84a9 653a 9829 5f3a 2876 38bd 6543 53ba
00000020: 88fa 27ba 7ff4 2b3c 2d6a 07ba 1ca0 81ba
00000030: 4800 b13b e86f 4739 7cd9 4eba 7566 0abc
00000040: 90ca f139 3821 dcb8 3c3d 88bc ec6d 3ab9
00000050: 5d48 1d3a e5eb f93b a2bd a3b8 1317 71ba
00000060: 302c 4ebd 8073 323a a9f4 57ba d84e 2a3c
00000070: 5517 693a fd81 f739 8565 05bd ff27 7fba
00000080: 0958 693a 45a8 eabc 442f 7339 9680 52ba
00000090: 20e4 4fbd cb19 c539 b929 593a a391 39bd
000000a0: d8e5 d3b9 ffba 39ba 63e1 3cbe 3c37 e339
000000b0: 32c6 29ba aa94 cabd 8a89 d839 e893 bd39
000000c0: 133b 6cbd 73b2 f739 cf6b 3eb9 7f42 933b
000000d0: 0988 6fb9 9cc4 c7b8 cce0 b9bc c9f8 afb9
000000e0: 38e1 0e3a 0b7d 02bd f081 c339 0b62 3e3a
000000f0: e630 d838 cd90 0839 a221 63b9 fd09 083c
00000100: 1e43 efbb bcb9 53bc a62b 08b9 b1aa 073e
00000110: 09c4 ce3c 38e1 5eba 888f 43ba e2a8 123d
00000120: 69cf 68ba 01fe 13bc 2141 183b 27d1 9439
00000130: 6bbb b03d 52be 793c 511d d8b8 4055 3c3c
00000140: 7822 e33c f8e2 173a 5ebc b93b 6a9e 3b3e
00000150: cd9e 8db9 a1f8 6a3c f0f9 003a bf13 46b9
00000160: f93c d53c 49eb d8bc 6547 4939 3f02 55bc
00000170: 84eb ab3d 9add ddb9 acdc a43b 7f74 843a
00000180: 862b a537 ccfa 803c b170 15bb 8025 5a3a
00000190: 3345 073d e1b8 71bc 4624 e139 b168 f73c
000001a0: d5f2 11bc da00 3a3a 0322 af3c 0699 4fbc
000001b0: 36fe bbb9 4a47 a83e 8524 ee3b 30bd 71b8
000001c0: c669 773b 9695 bdb9 d825 4b3a 459d 22bc
000001d0: ce8d cb3d f648 ca38 e3d7 18bd ba0b 953b
000001e0: 9a3c 44ba e7aa 243d 833c e73c da5e f8b9
000001f0: 5d2f 8ab7 a0ca 173c 5934 783a 5789 59bc
00000200: cb1c 21bd 79ab 9d3a 3d33 b0bd 1611 23bc
00000210: 0311 acbc 7f87 613d 4993 49bc 3a46 883d
00000220: dfc6 0ebd d8d7 ebbc 8310 14bd 02e0 43bd
00000230: b022 9cbc c9e3 b4bc e36e 73bd c784 30bd
00000240: d50d e5bb 2d72 cb3c 63fa e5bc 0f5b b8bc
00000250: f86e 063b 0271 f7bc 9075 803a 036b da3d
00000260: aaea ccbc 1ad4 e93b 025b 80bd 952b 17bd
00000270: edba a4bb 9368 1ebd feb4 8fbc 9fb9 11bc
00000280: 5cbe 1dbd 43d5 29bd 0f83 62bc 5b73 853c
00000290: b8e9 e4bc 8bd2 6cbc cabd 8fbd a780 94bc
000002a0: aa29 1c3b c5f9 c73b 7e84 15bd 4684 c7bc
000002b0: 05cb 0ebc 3cb9 f73c af4d 16bc b76b 76bc
000002c0: 6bb0 cabc d49d ceb9 8f48 7abc 2e1f 43bb
000002d0: f3de 5e39 462d 36bd d49c 903c f766 09bd
000002e0: 61e9 0fbc 1714 e5bc c114 b0bc 3684 0bbd
000002f0: c57a d039 d181 11bd 6e09 b0bd 57e5 15bb
00000300: bd58 b73c 7143 2dba f872 57ba 78fc 19bd
00000310: d14e 80b9 400c 693a f84b cc3c d88c 49ba
00000320: b787 463a 1e45 b9bc bf9f 1bb6 c31f 0f3a
00000330: 88ab cdbc f599 7f3a 7909 a3b9 d514 58bc
00000340: a3f9 6cba 8e37 d738 3090 72bc c7f5 5b3a
00000350: ec2c 2c3a 4f64 a0bc 53c8 48b9 e8ed 3bba
00000360: aa14 1c3c 4c44 46ba de4e 59ba 136e 02bd
00000370: a6d1 07ba 826d eeb9 d93b 883b a490 8337
00000380: d639 3fba 2a6e df3b f21a c938 6b54 f639
00000390: 46ff e03b ec11 9037 9090 4bba 2a30 953b
000003a0: cf9f 0cb9 ee4b 1a3a ef49 c43e 3208 acb9
000003b0: adee cd39 7685 523d 9800 b3b9 ee06 b7b9
000003c0: 7711 ce3c bf53 6eba 96d3 4b38 7e45 033b
000003d0: 5dd7 51ba 150a a339 3f65 d63d a26a 60ba
000003e0: b139 2e3a cde7 3dbc a820 14ba 8c0a c4b9
000003f0: f20e 61b9 e803 c638 2710 31ba a3bc e9b7
-0.047395587 3.4314396e-06 -0.00079501513 0.0027075126 0.00087609165 0.0008512973 -0.045034558 -0.0008059054
-0.00064078765 0.010495304 -0.0005165663 -0.0009889635 0.005401645 0.00019019807 -0.0007890684 -0.008447279
0.00046118023 -0.00010496605 -0.016630761 -0.00017779291 0.00059998577 0.007626998 -7.8077675e-05 -0.0009196859
-0.05033511 0.0006807372 -0.00082380563 0.010394774 0.00088917214 0.0004720836 -0.03256752 -0.0009733438
0.0008901363 -0.02864469 0.00023191894 -0.0008030025 -0.050754666 0.00037593985 0.000828411 -0.045304906
-0.00040416303 -0.00070850545 -0.18445353 0.00043337967 -0.0006476372 -0.09891637 0.00041301205 0.00036159088
-0.057673525 0.00047244466 -0.00018159974 0.004494011 -0.00022843493 -9.525681e-05 -0.0226902 -0.0003356396
0.00054504303 -0.03185753 0.0003729011 0.00072625343 0.00010308791 0.00013023913 -0.00021660936 0.008303163
-0.007301702 -0.0129227005 -0.00012986231 0.13248707 0.025239961 -0.0008502188 -0.00074600475 0.03580559
-0.0008881004 -0.009032727 0.002323218 0.0002838459 0.08629497 0.01524313 -0.00010305143 0.011494935
0.027726397 0.0005794014 0.005668207 0.18322149 -0.00027011932 0.014341504 0.0004920056 -0.00018890107
0.02603005 -0.02647938 0.0001919545 -0.013001024 0.083945304 -0.0004231751 0.005031189 0.0010105519
1.96898e-05 0.01574459 -0.0022802765 0.0008321628 0.033024978 -0.014753551 0.0004294237 0.030201288
-0.008907993 0.0007095464 0.021378523 -0.012670761 -0.0003585682 0.3286689 0.007267537 -5.7635072e-05
0.0037752255 -0.0003616034 0.00077494746 -0.009925191 0.099391565 9.6457006e-05 -0.03731526 0.004548517
-0.0007485837 0.040202048 0.028227096 -0.00047372916 -1.6472937e-05 0.009264618 0.00094682496 -0.013277373
-0.0393341 0.0012029252 -0.08603523 -0.009952804 -0.021004206 0.05506086 -0.012303182 0.0665402
-0.034857627 -0.028789446 -0.03614856 -0.047821052 -0.019059509 -0.022081273 -0.05943192 -0.043095376
-0.0069901743 0.024834717 -0.028073495 -0.022504358 0.002051292 -0.030205254 0.0009800661 0.10664942
-0.02501424 0.00713588 -0.06267358 -0.036906797 -0.005027166 -0.03867395 -0.017542358 -0.008894353
-0.03851162 -0.041463148 -0.013825192 0.016290357 -0.027943477 -0.014454494 -0.07018621 -0.018127752
0.0023828545 0.006102773 -0.036503308 -0.024355065 -0.008715396 0.030239694 -0.009173795 -0.01504033
-0.024742326 -0.00039408973 -0.015276088 -0.0029773223 0.00021254625 -0.04447677 0.017652906 -0.03354546
-0.008783669 -0.027963681 -0.021494271 -0.034061633 0.00039764322 -0.035524193 -0.085955486 -0.0022872293
0.02238118 -0.0006609476 -0.0008218731 -0.03759429 -0.00024472785 0.000889007 0.024938568 -0.0007688529
0.00075733237 -0.022615965 -2.3189784e-06 0.000545975 -0.025106207 0.00097504194 -0.0003109684 -0.0131885605
-0.00090398843 0.00010262347 -0.014804885 0.00083908107 0.0006567973 -0.01957908 -0.00019148113 -0.00071689347
0.009526411 -0.00075632776 -0.0008289645 -0.031843256 -0.00051810814 -0.00045476487 0.004157525 1.568377e-05
-0.000729469 0.0068185525 9.589446e-05 0.00046983673 0.0068663685 1.7174483e-05 -0.0007765377 0.0045528607
-0.00013410974 0.0005885948 0.38337657 -0.00032812502 0.00039278474 0.05139681 -0.00034141983 -0.00034909643
0.025154812 -0.00090914586 4.8596026e-05 0.0020030434 -0.0008004809 0.00031097294 0.1046853 -0.00085608114
0.000664617 -0.01159091 -0.0005650618 -0.0003739189 -0.0002146324 9.442103e-05 -0.0006754421 -2.7863605e-05

_transform._transforms.1.autoregressive_net.blocks.0.linear_layers.1.bias f4 [64]
00000000: e4ff 52bb 2c38 353c eb6e 3ebd bd64 1dbd
00000010: 9586 c3bc a83c 2e3d 82ef cebc e5bd 993c
00000020: 632a 993c 4f54 e13c 0635 a43c 1152 1cbd
00000030: 1376 de3c 0b34 cbbc f5c3 c43b b4df 9b3c
00000040: 54a1 aebc 1c0c 333d 84c9 b5bb 6698 a23c
00000050: 390b 1c3d cfaa 82bc 6145 82bc 95b1 f43c
00000060: 40d9 0cbd 19cb ab3c 2c65 58bd 8af2 a43b
00000070: b834 ed3c 808e 2bbd 232b 0d3d f1df 0c3c
00000080: 4ca0 3f3d 1328 823a cc18 aabc 5ccd fa3c
00000090: 0117 3ebc ba10 23bd fea1 16bd 3619 873c
000000a0: 3450 8b3c dcb1 b93c 182a b13c 173d 833c
000000b0: 7949 40bd 7c4e 4d3d 6614 003d f551 86bd
000000c0: aa78 bbbc 5c1f 6b3c 8a59 f63c 13b6 c5bc
000000d0: 39f2 123d 9493 13bd 8c89 903c 5d50 d53b
000000e0: 1746 f1bc c192 e53b 0bf9 ddbc 2a0d 393d
000000f0: 7ab6 74ba 17fa 71bc 7ff1 5abd 8b7f f5bb
-0.003219598 0.011060756 -0.0464925 -0.03842615 -0.023867885 0.042538315 -0.02526069 0.018767307
0.01869697 0.027506022 0.020044815 -0.038164202 0.027155912 -0.02480509 0.006004805 0.019027568
-0.021317162 0.04371272 -0.005547704 0.01984806 0.03809664 -0.015950589 -0.015902223 0.029869834
-0.034386873 0.020970868 -0.05283086 0.0050337957 0.028955802 -0.041883945 0.034464967 0.008598314
0.04678373 0.0009930156 -0.020763777 0.030615501 -0.011602164 -0.039810874 -0.03677558 0.016491514
0.017006017 0.022667818 0.021626517 0.01602034 -0.04694507 0.050123677 0.031269453 -0.06558601
-0.022884686 0.014350738 0.030071992 -0.024134671 0.035875533 -0.036029413 0.017643712 0.006509824
-0.029452367 0.00700602 -0.027096292 0.04517857 -0.00093350525 -0.014769099 -0.053452965 -0.007492011

_transform._transforms.1.autoregressive_net.blocks.0.linear_layers.1.mask f4 [64, 64]
00000000: 0000 803f 0000 0000 0000 0000 0000 803f
00000010: 0000 0000 0000 0000 0000 803f 0000 0000
00000020: 0000 0000 0000 803f 0000 0000 0000 0000
00000030: 0000 803f 0000 0000 0000 0000 0000 803f
00000040: 0000 0000 0000 0000 0000 803f 0000 0000
00000050: 0000 0000 0000 803f 0000 0000 0000 0000
00000060: 0000 803f 0000 0000 0000 0000 0000 803f
00000070: 0000 0000 0000 0000 0000 803f 0000 0000
00000080: 0000 0000 0000 803f 0000 0000 0000 0000
00000090: 0000 803f 0000 0000 0000 0000 0000 803f
000000a0: 0000 0000 0000 0000 0000 803f 0000 0000
000000b0: 0000 0000 0000 803f 0000 0000 0000 0000
000000c0: 0000 803f 0000 0000 0000 0000 0000 803f
000000d0: 0000 0000 0000 0000 0000 803f 0000 0000
000000e0: 0000 0000 0000 803f 0000 0000 0000 0000
000000f0: 0000 803f 0000 0000 0000 0000 0000 803f
00000100: 0000 803f 0000 803f 0000 0000 0000 803f
00000110: 0000 803f 0000 0000 0000 803f 0000 803f
00000120: 0000 0000 0000 803f 0000 803f 0000 0000
00000130: 0000 803f 0000 803f 0000 0000 0000 803f
00000140: 0000 803f 0000 0000 0000 803f 0000 803f
00000150: 0000 0000 0000 803f 0000 803f 0000 0000
00000160: 0000 803f 0000 803f 0000 0000 0000 803f
00000170: 0000 803f 0000 0000 0000 803f 0000 803f
00000180: 0000 0000 0000 803f 0000 803f 0000 0000
00000190: 0000 803f 0000 803f 0000 0000 0000 803f
000001a0: 0000 803f 0000 0000 0000 803f 0000 803f
000001b0: 0000 0000 0000 803f 0000 803f 0000 0000
000001c0: 0000 803f 0000 803f 0000 0000 0000 803f
000001d0: 0000 803f 0000 0000 0000 803f 0000 803f
000001e0: 0000 0000 0000 803f 0000 803f 0000 0000
000001f0: 0000 803f 0000 803f 0000 0000 0000 803f
00000200: 0000 803f 0000 803f 0000 803f 0000 803f
00000210: 0000 803f 0000 803f 0000 803f 0000 803f
00000220: 0000 803f 0000 803f 0000 803f 0000 803f
00000230: 0000 803f 0000 803f 0000 803f 0000 803f
00000240: 0000 803f 0000 803f 0000 803f 0000 803f
00000250: 0000 803f 0000 803f 0000 803f 0000 803f
00000260: 0000 803f 0000 803f 0000 803f 0000 803f
00000270: 0000 803f 0000 803f 0000 803f 0000 803f
00000280: 0000 803f 0000 803f 0000 803f 0000 803f
00000290: 0000 803f 0000 803f 0000 803f 0000 803f
000002a0: 0000 803f 0000 803f 0000 803f 0000 803f
000002b0: 0000 803f 0000 803f 0000 803f 0000 803f
000002c0: 0000 803f 0000 803f 0000 803f 0000 803f
000002d0: 0000 803f 0000 803f 0000 803f 0000 803f
000002e0: 0000 803f 0000 803f 0000 803f 0000 803f
000002f0: 0000 803f 0000 803f 0000 803f 0000 803f
00000300: 0000 803f 0000 0000 0000 0000 0000 803f
00000310: 0000 0000 0000 0000 0000 803f 0000 0000
00000320: 0000 0000 0000 803f 0000 0000 0000 0000
00000330: 0000 803f 0000 0000 0000 0000 0000 803f
00000340: 0000 0000 0000 0000 0000 803f 0000 0000
00000350: 0000 0000 0000 803f 0000 0000 0000 0000
00000360: 0000 803f 0000 0000 0000 0000 0000 803f
00000370: 0000 0000 0000 0000 0000 803f 0000 0000
00000380: 0000 0000 0000 803f 0000 0000 0000 0000
00000390: 0000 803f 0000 0000 0000 0000 0000 803f
000003a0: 0000 0000 0000 0000 0000 803f 0000 0000
000003b0: 0000 0000 0000 803f 0000 0000 0000 0000
000003c0: 0000 803f 0000 0000 0000 0000 0000 803f
000003d0: 0000 0000 0000 0000 0000 803f 0000 0000
000003e0: 0000 0000 0000 803f 0000 0000 0000 0000
000003f0: 0000 803f 0000 0000 0000 0000 0000 803f
1.0 0.0 0.0 1.0 0.0 0.0 1.0 0.0
0.0 1.0 0.0 0.0 1.0 0.0 0.0 1.0
0.0 0.0 1.0 0.0 0.0 1.0 0.0 0.0
1.0 0.0 0.0 1.0 0.0 0.0 1.0 0.0
0.0 1.0 0.0 0.0 1.0 0.0 0.0 1.0
0.0 0.0 1.0 0.0 0.0 1.0 0.0 0.0
1.0 0.0 0.0 1.0 0.0 0.0 1.0 0.0
0.0 1.0 0.0 0.0 1.0 0.0 0.0 1.0
1.0 1.0 0.0 1.0 1.0 0.0 1.0 1.0
0.0 1.0 1.0 0.0 1.0 1.0 0.0 1.0
1.0 0.0 1.0 1.0 0.0 1.0 1.0 0.0
1.0 1.0 0.0 1.0 1.0 0.0 1.0 1.0
0.0 1.0 1.0 0.0 1.0 1.0 0.0 1.0
1.0 0.0 1.0 1.0 0.0 1.0 1.0 0.0
1.0 1.0 0.0 1.0 1.0 0.0 1.0 1.0
0.0 1.0 1.0 0.0 1.0 1.0 0.0 1.0
1.0 1.0 1.0 1.0 1.0 1.0 1.0 1.0
1.0 1.0 1.0 1.0 1.0 1.0 1.0 1.0
1.0 1.0 1.0 1.0 1.0 1.0 1.0 1.0
1.0 1.0 1.0 1.0 1.0 1.0 1.0 1.0
1.0 1.0 1.0 1.0 1.0 1.0 1.0 1.0
1.0 1.0 1.0 1.0 1.0 1.0 1.0 1.0
1.0 1.0 1.0 1.0 1.0 1.0 1.0 1.0
1.0 1.0 1.0 1.0 1.0 1.0 1.0 1.0
1.0 0.0 0.0 1.0 0.0 0.0 1.0 0.0
0.0 1.0 0.0 0.0 1.0 0.0 0.0 1.0
0.0 0.0 1.0 0.0 0.0 1.0 0.0 0.0
1.0 0.0 0.0 1.0 0.0 0.0 1.0 0.0
0.0 1.0 0.0 0.0 1.0 0.0 0.0 1.0
0.0 0.0 1.0 0.0 0.0 1.0 0.0 0.0
1.0 0.0 0.0 1.0 0.0 0.0 1.0 0.0
0.0 1.0 0.0 0.0 1.0 0.0 0.0 1.0

_transform._transforms.1.autoregressive_net.blocks.1.linear_layers.0.weight f4 [64, 64]
00000000: ee66 373c c443 27bd 2c40 563d fcd6 f43e
00000010: b68c e7bd 98ee 1bbd bbf2 b5bc c866 3dbd
00000020: 6028 7ebc 70a1 40bc 7832 f13c 2ea5 fc3d
00000030: 5cee 11bc a054 393c b06f b8bc 94b1 c2bc
00000040: 44a2 353d e856 35bd b0ab 853d 60bd 373d
00000050: fa5a af3d 5753 adba 146a 69bd e870 adbc
00000060: caf5 fdbd c055 8bbb e4d6 a83d 40c3 063e
00000070: 9879 c5bc 8855 84bc cb13 0a3e 8821 a63d
00000080: c021 193c 6a2e c4bd de12 b4bd 1462 913d
00000090: fc11 b0bd 904a 7d3c e841 9bbd a95c fe3d
000000a0: b62a ccbd 841b 08bd 3fe4 113d 6e10 bebd
000000b0: 84da 56bd bc60 3b3d 602f 0fbc cc64 2d3d
000000c0: 1b35 60bd f033 febc e808 293d 1466 64bd
000000d0: 3c49 1cbd 3c5c b63d 6fee fb3d a88d a23d
000000e0: 1832 b53d 5a7f 71bd e09c 95bb d428 29bd
000000f0: c62a 0cbd 808b 313d 80d5 433c 7758 39be
00000100: 4d74 c6bb a46e d03c e6e9 dcbd 8800 a13e
00000110: c2f5 723d 48f0 6d3d b8a2 9cbc 0467 e9ba
00000120: 80b3 3c3d 4771 26bc 08bd b1bc 02c7 853d
00000130: 301b 48bd cf1e 353e d849 e53c 70f0 30bd
00000140: c124 d4bd c6f4 cdbd 1058 a63c de5b a93d
00000150: a85c 40bd 26d0 063e b8ad 34bd 4028 04bd
00000160: 4f3c 0fbd 0764 42bb 001f 8bbd 5237 043e
00000170: 831e 973d 96f7 b0bd a8c3 83bc c519 083d
00000180: e082 f23d 762c 5abe bd9a e93c c0c7 cbbd
00000190: 6127 913d 1dee 11be 5206 9c3d 8de7 28bc
000001a0: c34a edbc 3e0d 9abd 2384 c1bc fc87 08be
000001b0: b884 463d 7e47 c13d 80ad 293d b2bd 823d
000001c0: c5c4 503d 0cee 50bd 10ed 4fbd cba5 243d
000001d0: 89b9 e7bc ea7d 803d 1063 0bbe 141b 0ebb
000001e0: e4c3 3cbd ce2a 3d3e 77e9 943d e8fd 723d
000001f0: 4ac6 d5bc 2204 163e d81a 893c c193 2c3d
00000200: 5c0a 893d 7fdd 9bbd a240 a4bd ba84 88bf
00000210: 1b21 afbd 5c0a 213e bc39 6dbd 76ab 173c
00000220: 5d53 89be 5766 c9bb ed76 33bd 4951 bebe
00000230: 4010 123e fc87 14bf ac07 0d3e 6e42 073e
00000240: 6ada 1abd c791 a5bd dd43 6c3d 1284 27be
00000250: 7351 c8be 6b73 2abe 5bcd 7cbd 6ac1 853d
00000260: dafc a03d 8ed2 873d b1cc 833e 7ab1 02bd
00000270: 8961 f53c c46a b0be 131b 773d 1452 b73d
00000280: e6af 863d ecf2 013e 86db 073e 3a69 723d
00000290: b85e 413e 682b 3eb9 f97d 273e cdd1 9abd
000002a0: 18cd 27bd 06d6 973d c507 243d aef5 8abd
000002b0: 4fc8 a03d 644b 093e 16d9 023e b086 1bbd
000002c0: bc4b 21bd 54ee 123e 8ed4 cd3d 520a b13d
000002d0: 46cc 1fbd be81 2ebc c251 9dbc 780b 0d3d
000002e0: b77e d23e d44e f2bb b01d 0cbc d603 b5bd
000002f0: dbae 92bd b0a1 093d 5c0b 123d fa42 ce3c
00000300: 1804 9b3d 106b 2f3c 14fb d3bd b009 e33c
00000310: f850 303d 2464 1b3d 623f 443d 9821 dc3c
00000320: 42f5 8a3d a0d9 393d a07e d3bb 2c1c 78bd
00000330: 6bf7 9c3c 0efe 833d 24d3 98bd c71b d43b
00000340: 0a18 f73d 7a30 9c3d e550 9fbe a012 853c
00000350: 9290 a2bd 0b55 6f3e c0c3 c5bc 20c0 e8bc
00000360: b4f4 f6bd f4e3 2a3d c429 0c3d fa41 08bd
00000370: a4bf ccbd 5070 ccbc f018 99be 860f bdbd
00000380: 90ba 323d 7339 d5be 5424 5c3d ee00 cd3d
00000390: fdf3 ac3d b8ba 97bc 0067 853c 028c 003e
000003a0: 2019 a03b 4ca3 443d 6fb4 5fbe fac6 b43d
000003b0: 9c15 9dbd 6b3f 4abe b8e8 a23d 3c0b ba3d
000003c0: fff2 013e e008 a63d 522e f4bd e25a c6bd
000003d0: 7074 913c f49f b33d e927 43bc ace8 08bd
000003e0: 7064 6e3c b417 3d3e 00ed b9bd 08a7 61bd
000003f0: 4388 0f3d aabe c6bd 78b4 89bd 3842 90bd
0.011193974 -0.04083611 0.052307293 0.4782027 -0.11306135 -0.038069338 -0.02221047 -0.046240598
-0.015512556 -0.01175724 0.02944301 0.12336193 -0.008906927 0.01131168 -0.022514194 -0.023766316
0.0443442 -0.044272333 0.065268874 0.044858336 0.08562274 -0.001322369 -0.05698593 -0.021172002
-0.12400396 -0.0042521656 0.08244112 0.1316042 -0.024105832 -0.016154066 0.13484113 0.08111864
0.0093464255 -0.09579165 -0.08792661 0.07098785 -0.0859718 0.015459672 -0.0758093 0.12420017
-0.09969084 -0.033229366 0.035618063 -0.092804775 -0.052454486 0.04574655 -0.008739322 0.042332456
-0.054738145 -0.031030625 0.04126826 -0.05576141 -0.03815578 0.08904311 0.12301337 0.07937175
0.08847445 -0.058959343 -0.00456582 -0.041298702 -0.03422048 0.04334593 0.011952758 -0.18100153
-0.0060563446 0.025443383 -0.107868 0.31445718 0.059316404 0.05809048 -0.01912056 -0.001780719
0.046069622 -0.010158843 -0.021696582 0.06532098 -0.048854053 0.17687534 0.027989313 -0.04319805
-0.10358573 -0.100564525 0.020305663 0.082694754 -0.046963364 0.1316534 -0.044110984 -0.032264948
-0.034969624 -0.0029661672 -0.06793022 0.12911728 0.073788665 -0.08640973 -0.016084507 0.0332277
0.11841369 -0.21306023 0.028516168 -0.09950209 0.07087589 -0.1425099 0.07618393 -0.010309112
-0.028966313 -0.07522057 -0.023622578 -0.13333124 0.048466414 0.09437464 0.041425228 0.06383838
0.050968904 -0.05100827 -0.05076319 0.040197175 -0.028286712 0.06274016 -0.13612008 -0.002168362
-0.046085253 0.1847336 0.072710924 0.059324175 -0.026095528 0.14650014 0.016736433 0.042133097
0.06691429 -0.076106064 -0.0802014 -1.0665505 -0.08551236 0.15726608 -0.057916388 0.009257188
-0.26821414 -0.006146233 -0.04381459 -0.3717139 0.14264011 -0.58019996 0.13772458 0.13208935
-0.037805952 -0.080844454 0.057681907 -0.16358975 -0.3912464 -0.16645591 -0.06171928 0.065310314
0.078607276 0.06631957 0.25742105 -0.031907536 0.029953735 -0.34456456 0.060328554 0.08951202
0.06576519 0.12690324 0.13267335 0.059182383 0.18883789 -0.00018135982 0.16356649 -0.075595476
-0.040967077 0.074138686 0.040046472 -0.06785141 0.07850706 0.13407665 0.12778124 -0.037970245
-0.039378867 0.14348727 0.10050307 0.086445466 -0.03901317 -0.01065105 -0.019204024 0.034434766
0.411123 -0.007394651 -0.008552 -0.08838622 -0.07162257 0.033601463 0.035655364 0.025178421
0.0756914 0.010706678 -0.10350624 0.02771458 0.043045968 0.0379373 0.04791201 0.026871487
0.067850605 0.04537356 -0.006454304 -0.06057374 0.019160947 0.064449415 -0.07462147 0.006473038
0.12065132 0.07626434 -0.31116405 0.016244233 -0.07937731 0.23372285 -0.024141192 -0.028411925
-0.12058392 0.0417213 0.03421952 -0.033266045 -0.0999749 -0.024955899 -0.29901838 -0.092314765
0.04363495 -0.41645393 0.053745583 0.10009943 0.084449746 -0.018521652 0.016284466 0.12553409
0.0048858076 0.048007295 -0.21846174 0.08827014 -0.07670137 -0.19750755 0.07954544 0.09084174
0.12690352 0.081071615 -0.119228974 -0.09685303 0.017755717 0.08770743 -0.011911371 -0.03342502
0.014550313 0.18466073 -0.09078407 -0.055090934 0.03504206 -0.09704335 -0.06723875 -0.0704388

_transform._transforms.1.autoregressive_net.blocks.1.linear_layers.0.bias f4 [64]
00000000: 691c d43d 9072 043b 7bd3 5f3c 3a90 053e
00000010: ac35 01be f883 eb3d 8ce1 343d b550 e63d
00000020: 59ea 7b3d 0666 82bd a412 88bd 4f8c 443d
00000030: 5181 80bd ce4f 0c3e 2a7a 87bd f098 873c
00000040: e4c4 583d 1ff5 b83d 2ad1 653d 5a9a dabd
00000050: 07d8 a03d cc7e c1bd a94f afbd 0d10 86b9
00000060: dca4 32bd c5ad 33bd 2d66 b8bd 28a9 f03d
00000070: 9e87 f2bd e870 e23d ec2f d6bc b657 a63c
00000080: 6ff6 6bbd b289 e33c 965f 05be b120 af3d
00000090: fdab c03d 4c3f d33d 0fcc af3d e3a1 6c3d
000000a0: 3fc8 ca3d 915e f2bd 36a2 133e a183 1d3e
000000b0: 47a8 a03b 3e15 fcbd 46a2 7abd 4d20 1f3e
000000c0: 3a29 e33b c2f1 9ebc 425c 1a3e 6e59 ee3d
000000d0: bedd d13d 99e1 f3bb 96de 543d c024 eeb8
000000e0: 2e31 9e3d ac0b bdbd cffc 2f3d 408e 41bc
000000f0: f638 cdbd a580 a13b 3b77 dcbd d783 953d
0.10356981 0.0020209886 0.013661261 0.130433 -0.1261813 0.114997804 0.04416041 0.112458624
0.06150279 -0.06367116 -0.066441804 0.04798537 -0.06274665 0.13702318 -0.06615098 0.016552418
0.052922145 0.09031128 0.056107678 -0.106739715 0.07853704 -0.09448013 -0.08560116 -0.0002557043
-0.043614253 -0.04386689 -0.090038635 0.11751014 -0.11842273 0.110566914 -0.026145898 0.020305496
-0.057608064 0.02777562 -0.13024744 0.08551157 0.09407804 0.10314807 0.08583843 0.057771575
0.09901475 -0.11834443 0.14417347 0.15382244 0.0049028727 -0.12308739 -0.061189912 0.15539666
0.006932405 -0.019402388 0.15074256 0.11638151 0.10247372 -0.007442665 0.051970087 -0.000113555696
0.07724224 -0.09230742 0.042965706 -0.0118137 -0.1002063 0.0049286657 -0.10764929 0.07300537

_transform._transforms.1.autoregressive_net.blocks.1.linear_layers.0.mask f4 [64, 64]
00000000: 0000 803f 0000 0000 0000 0000 0000 803f
00000010: 0000 0000 0000 0000 0000 803f 0000 0000
00000020: 0000 0000 0000 803f 0000 0000 0000 0000
00000030: 0000 803f 0000 0000 0000 0000 0000 803f
00000040: 0000 0000 0000 0000 0000 803f 0000 0000
00000050: 0000 0000 0000 803f 0000 0000 0000 0000
00000060: 0000 803f 0000 0000 0000 0000 0000 803f
00000070: 0000 0000 0000 0000 0000 803f 0000 0000
00000080: 0000 0000 0000 803f 0000 0000 0000 0000
00000090: 0000 803f 0000 0000 0000 0000 0000 803f
000000a0: 0000 0000 0000 0000 0000 803f 0000 0000
000000b0: 0000 0000 0000 803f 0000 0000 0000 0000
000000c0: 0000 803f 0000 0000 0000 0000 0000 803f
000000d0: 0000 0000 0000 0000 0000 803f 0000 0000
000000e0: 0000 0000 0000 803f 0000 0000 0000 0000
000000f0: 0000 803f 0000 0000 0000 0000 0000 803f
00000100: 0000 803f 0000 803f 0000 0000 0000 803f
00000110: 0000 803f 0000 0000 0000 803f 0000 803f
00000120: 0000 0000 0000 803f 0000 803f 0000 0000
00000130: 0000 803f 0000 803f 0000 0000 0000 803f
00000140: 0000 803f 0000 0000 0000 803f 0000 803f
00000150: 0000 0000 0000 803f 0000 803f 0000 0000
00000160: 0000 803f 0000 803f 0000 0000 0000 803f
00000170: 0000 803f 0000 0000 0000 803f 0000 803f
00000180: 0000 0000 0000 803f 0000 803f 0000 0000
00000190: 0000 803f 0000 803f 0000 0000 0000 803f
000001a0: 0000 803f 0000 0000 0000 803f 0000 803f
000001b0: 0000 0000 0000 803f 0000 803f 0000 0000
000001c0: 0000 803f 0000 803f 0000 0000 0000 803f
000001d0: 0000 803f 0000 0000 0000 803f 0000 803f
000001e0: 0000 0000 0000 803f 0000 803f 0000 0000
000001f0: 0000 803f 0000 803f 0000 0000 0000 803f
00000200: 0000 803f 0000 803f 0000 803f 0000 803f
00000210: 0000 803f 0000 803f 0000 803f 0000 803f
00000220: 0000 803f 0000 803f 0000 803f 0000 803f
00000230: 0000 803f 0000 803f 0000 803f 0000 803f
00000240: 0000 803f 0000 803f 0000 803f 0000 803f
00000250: 0000 803f 0000 803f 0000 803f 0000 803f
00000260: 0000 803f 0000 803f 0000 803f 0000 803f
00000270: 0000 803f 0000 803f 0000 803f 0000 803f
00000280: 0000 803f 0000 803f 0000 803f 0000 803f
00000290: 0000 803f 0000 803f 0000 803f 0000 803f
000002a0: 0000 803f 0000 803f 0000 803f 0000 803f
000002b0: 0000 803f 0000 803f 0000 803f 0000 803f
000002c0: 0000 803f 0000 803f 0000 803f 0000 803f
000002d0: 0000 803f 0000 803f 0000 803f 0000 803f
000002e0: 0000 803f 0000 803f 0000 803f 0000 803f
000002f0: 0000 803f 0000 803f 0000 803f 0000 803f
00000300: 0000 803f 0000 0000 0000 0000 0000 803f
00000310: 0000 0000 0000 0000 0000 803f 0000 0000
00000320: 0000 0000 0000 803f 0000 0000 0000 0000
00000330: 0000 803f 0000 0000 0000 0000 0000 803f
00000340: 0000 0000 0000 0000 0000 803f 0000 0000
00000350: 0000 0000 0000 803f 0000 0000 0000 0000
00000360: 0000 803f 0000 0000 0000 0000 0000 803f
00000370: 0000 0000 0000 0000 0000 803f 0000 0000
00000380: 0000 0000 0000 803f 0000 0000 0000 0000
00000390: 0000 803f 0000 0000 0000 0000 0000 803f
000003a0: 0000 0000 0000 0000 0000 803f 0000 0000
000003b0: 0000 0000 0000 803f 0000 0000 0000 0000
000003c0: 0000 803f 0000 0000 0000 0000 0000 803f
000003d0: 0000 0000 0000 0000 0000 803f 0000 0000
000003e0: 0000 0000 0000 803f 0000 0000 0000 0000
000003f0: 0000 803f 0000 0000 0000 0000 0000 803f
1.0 0.0 0.0 1.0 0.0 0.0 1.0 0.0
0.0 1.0 0.0 0.0 1.0 0.0 0.0 1.0
0.0 0.0 1.0 0.0 0.0 1.0 0.0 0.0
1.0 0.0 0.0 1.0 0.0 0.0 1.0 0.0
0.0 1.0 0.0 0.0 1.0 0.0 0.0 1.0
0.0 0.0 1.0 0.0 0.0 1.0 0.0 0.0
1.0 0.0 0.0 1.0 0.0 0.0 1.0 0.0
0.0 1.0 0.0 0.0 1.0 0.0 0.0 1.0
1.0 1.0 0.0 1.0 1.0 0.0 1.0 1.0
0.0 1.0 1.0 0.0 1.0 1.0 0.0 1.0
1.0 0.0 1.0 1.0 0.0 1.0 1.0 0.0
1.0 1.0 0.0 1.0 1.0 0.0 1.0 1.0
0.0 1.0 1.0 0.0 1.0 1.0 0.0 1.0
1.0 0.0 1.0 1.0 0.0 1.0 1.0 0.0
1.0 1.0 0.0 1.0 1.0 0.0 1.0 1.0
0.0 1.0 1.0 0.0 1.0 1.0 0.0 1.0
1.0 1.0 1.0 1.0 1.0 1.0 1.0 1.0
1.0 1.0 1.0 1.0 1.0 1.0 1.0 1.0
1.0 1.0 1.0 1.0 1.0 1.0 1.0 1.0
1.0 1.0 1.0 1.0 1.0 1.0 1.0 1.0
1.0 1.0 1.0 1.0 1.0 1.0 1.0 1.0
1.0 1.0 1.0 1.0 1.0 1.0 1.0 1.0
1.0 1.0 1.0 1.0 1.0 1.0 1.0 1.0
1.0 1.0 1.0 1.0 1.0 1.0 1.0 1.0
1.0 0.0 0.0 1.0 0.0 0.0 1.0 0.0
0.0 1.0 0.0 0.0 1.0 0.0 0.0 1.0
0.0 0.0 1.0 0.0 0.0 1.0 0.0 0.0
1.0 0.0 0.0 1.0 0.0 0.0 1.0 0.0
0.0 1.0 0.0 0.0 1.0 0.0 0.0 1.0
0.0 0.0 1.0 0.0 0.0 1.0 0.0 0.0
1.0 0.0 0.0 1.0 0.0 0.0 1.0 0.0
0.0 1.0 0.0 0.0 1.0 0.0 0.0 1.0
