modello-N_iter6-N_features64-N_BS10000-epochs1000-lr0.001-val_loss2.89.pth (torch, 921836 bytes, 108 tensors)

_transform._transforms.1.autoregressive_net.initial_layer.weight f4 [64, 4]
-0.25024533 0.24754936 0.07940251 0.22136724 -0.38541725 -0.06555439 -0.48191 0.44867158
-0.3569506 -0.11689477 -0.040923327 -0.49444735 -0.113932624 -0.42797232 0.36342227 -0.40371525
0.44430822 -0.26762757 0.3203504 -0.12972087 -0.00982708 -0.13049492 -0.31285462 0.4427827
-0.010109461 0.19801056 -0.1739788 -0.3161353 -0.008410936 0.3253274 -0.3189392 -0.2134735
0.04058757 -0.24751598 -4.8436104e-06 0.26421922 -0.30579722 -0.28657782 -0.28333098 0.45063555
0.07317434 0.057131473 0.4293952 0.17933804 0.35331756 -0.1582335 0.4520223 0.23065937
0.119489804 0.25533676 -0.3528542 0.40502095 -0.30606934 0.05931908 -0.19353342 0.46860015
-0.41815805 -0.1449131 -0.14637154 0.056993783 0.035086516 -0.014326155 -0.40334696 -0.2797295
-0.090696275 -0.06879578 0.07453036 -0.41455185 -0.39213613 -0.05743299 -0.13313064 -0.27213132
0.41053095 0.00689584 -0.3379048 -0.31632197 0.25848982 0.29631227 0.011596143 0.41436827
0.22080718 -0.3798181 -0.46126235 -0.14335734 -0.2773401 0.49263054 0.07775569 -0.09753245
0.46814042 0.015283571 0.3588361 -0.16407692 0.104139134 -0.37544018 0.34288257 0.22717977
-0.08861219 -0.37549692 0.03873551 0.2662211 -0.38072422 0.4038384 0.34276283 -0.48541337
0.024360146 -0.5342099 -0.1317196 0.3687932 -0.13396372 0.087819636 0.10647935 -0.19338012
0.2773802 0.42073265 0.35045695 0.019199073 -0.3643677 -0.24680005 -0.2559519 0.1694082
0.05395326 0.16078305 -0.4421991 -0.17416954 0.38338715 -0.35673237 0.20779806 -0.029803336
0.1380913 -0.28441095 -0.45677093 0.4612198 -0.34968662 0.27845448 -0.4467457 -0.4077204
0.016851263 0.23036623 0.0004222393 -0.2174545 0.34264898 -0.112549074 0.2321548 -0.28037715
-0.36187726 -0.2894938 0.14816839 0.41107953 0.46628132 0.24287105 0.108986676 -0.44610393
0.3458873 -0.22425425 0.245104 -0.049188495 0.3093984 -0.21502048 -0.37778032 0.04269147
0.35537228 -0.20129281 0.3988678 -0.27451295 0.42905653 0.31766552 -0.14600451 -0.35690337
-0.1403372 0.26924443 -0.17966014 0.3065284 -0.3466461 0.24681297 -0.032265365 0.14549494
-0.34409192 -0.32826003 0.0409228 -0.142802 0.16500835 -0.13821304 0.46726924 -0.22076488
0.33831188 -0.028090848 0.36881828 0.33310407 0.038688637 0.37936682 0.3479899 0.1029523
-0.37716445 0.35554677 0.27325314 -0.05296105 0.21282989 -0.53957415 0.22238481 0.39977646
0.15422517 -0.06467211 0.105815515 -0.35157126 -0.06610845 0.068602026 -0.117423594 -0.3789956
0.35183308 -0.040471274 -0.089862764 -0.20063013 -0.24671069 -0.43192637 0.12069084 0.22691482
0.14382748 0.3658213 0.30386585 0.45236397 -0.3381 0.34687924 0.45536315 0.43981266
-0.18344982 0.30452916 0.09841396 -0.2293148 -0.3092091 -0.36177886 0.1331271 -0.056721747
0.3509027 0.47551006 -0.20322889 0.10435605 0.024321936 -0.04771527 0.4787813 -0.00582999
-0.3276723 -0.17567468 0.4099273 -0.25390935 -0.13591771 0.27617615 0.48715472 0.34897912
0.023864996 -0.6624574 0.060756 0.32325888 -0.3526153 0.2787608 0.38559186 0.22798842
00000000: 2820 80be 947d 7d3e c89d a23d 18ae 623e
00000010: 6955 c5be 6141 86bd e8bc f6be 48b8 e53e
00000020: 3bc2 b6be 8666 efbd 389f 27bd 3428 fdbe
00000030: 8255 e9bd 301f dbbe 7c12 ba3e c4b3 cebe
00000040: 5e7c e33e 7b06 89be f804 a43e 8cd5 04be
00000050: c301 21bc 76a0 05be 7b2e a0be 6ab4 e23e
00000060: 27a2 25bc 48c3 4a3e 8027 32be 7cdc a1be
00000070: 06ce 09bc 5091 a63e 004c a3be cc98 5abe
00000080: 273f 263d d474 7dbe 4c86 a2b6 be47 873e
00000090: 7491 9cbe 54ba 92be c210 91be b4b9 e63e
000000a0: 6edc 953d b102 6a3d b0d9 db3e 64a4 373e
000000b0: 0ae6 b43e f607 22be 786f e73e f831 6c3e
000000c0: 12b7 f43d 80bb 823e 4ea9 b4be e85e cf3e
000000d0: 1fb5 9cbe 90f8 723d a02d 46be 5cec ef3e
000000e0: d018 d6be 1a64 14be 6ce2 15be 5072 693d
000000f0: e1b6 0f3d 40b8 6abc 7e83 cebe b438 8fbe
00000100: f8be b9bd cde4 8cbd 60a3 983d 2440 d4be
00000110: 11c6 c8be db3e 6bbd 6653 08be cc54 8bbe
00000120: 1d31 d23e 80f6 e13b dc01 adbe f4f4 a1be
00000130: c758 843e 3eb6 973e c0fd 3d3c 1428 d43e
00000140: 471b 623e 8577 c2be 942a ecbe 44cc 12be
00000150: 86ff 8dbe 123a fc3e 603e 9f3d 18bf c7bd
00000160: 1ab0 ef3e f167 7a3c 5eb9 b73e c803 28be
00000170: e646 d53d b239 c0be 4e8e af3e d0a1 683e
00000180: 4f7a b5bd 2241 c0be 20a9 1e3d 224e 883e
00000190: 49ee c2be e8c3 ce3e 9c7e af3e 1a88 f8be
000001a0: ee8e c73c fbc1 08bf 81e1 06be 76d2 bc3e
000001b0: c92d 09be c8da b33d d811 da3d 7005 46be
000001c0: c704 8e3e 456a d73e 186f b33e 6047 9d3c
000001d0: 678e babe 27b9 7cbe 210c 83be 5879 2d3e
000001e0: 18fe 5c3d 50a4 243e ec67 e2be 8059 32be
000001f0: 524b c43e a0a5 b6be 04c9 543e 2026 f4bc
00000200: ce67 0d3e 509e 91be e1dd e9be 0025 ec3e
00000210: 200a b3be 9691 8e3e dabb e4be bac0 d0be
00000220: a90b 8a3c 20e5 6b3e 0060 dd39 64ac 5ebe
00000230: b06f af3e 2180 e6bd fdb9 6d3e 988d 8fbe
00000240: fa47 b9be 8838 94be 74b9 173e 0479 d23e
00000250: 6dbc ee3e 30b3 783e 6834 df3d bc67 e4be
00000260: 2418 b13e e8a2 65be 8bfc 7a3e e079 49bd
00000270: 7869 9e3e 542e 5cbe 6c6c c1be 40dd 2e3d
00000280: 5bf3 b53e b41f 4ebe 6638 cc3e f68c 8cbe
00000290: 4cad db3e 0ea5 a23e 3582 15be 0abc b6be
000002a0: 8eb4 0fbe 68da 893e d4f8 37be 4af1 9c3e
000002b0: 997b b1be 8abc 7c3e b028 04bd a0fc 143e
000002c0: d12c b0be b311 a8be aa9e 273d b03a 12be
000002d0: f3f7 283e b887 0dbe ea3d ef3e 3010 62be
000002e0: 3737 ad3e c71e e6bc c0d5 bc3e 9e8c aa3e
000002f0: fa77 1e3d 5e3c c23e bb2b b23e a8d8 d23d
00000300: b31b c1be 3a0a b63e d6e7 8b3e b0ed 58bd
00000310: 14f0 593e 8821 0abf d8b8 633e 80af cc3e
00000320: 34ed 1d3e d072 84bd ceb5 d83d 2601 b4be
00000330: de63 87bd 387f 8c3d c87b f0bd b60b c2be
00000340: 7723 b43e 35c5 25bd f809 b8bd fc71 4dbe
00000350: baa1 7cbe 7425 ddbe c22c f73d 5c5c 683e
00000360: 8347 133e ee4c bb3e 4e94 9b3e 409c e73e
00000370: 711b adbe 289a b13e 5c25 e93e 202f e13e
00000380: 45da 3bbe 3feb 9b3e 428d c93d 80d1 6abe
00000390: a850 9ebe 143b b9be 7852 083e 1055 68bd
000003a0: 85a9 b33e 0e76 f33e 3c1b 50be a0b8 d53d
000003b0: cc3e c73c 1671 43bd d322 f53e 8009 bfbb
000003c0: aac4 a7be 10e4 33be fee1 d13e 6800 82be
000003d0: 032e 0bbe f666 8d3e 586c f93e 64ad b23e
000003e0: 8680 c33c cf96 29bf 49db 783d 3082 a53e
000003f0: fe89 b4be bcb9 8e3e 4c6c c53e cc75 693e

_transform._transforms.1.autoregressive_net.initial_layer.bias f4 [64]
-0.2626779 -0.00069130654 0.08898592 0.40474543 0.10736601 -0.36268657 -0.175571 0.3098609
0.5323154 -0.054042127 -0.42139512 -0.4690485 0.2057241 -0.14915273 0.4602092 0.45066229
-0.31048098 0.24723114 -0.22203042 0.27346832 0.22645772 -0.0035842129 0.29478696 -0.32361165
-0.27073777 0.4139753 -0.3564453 -0.102429286 0.08407408 -0.33998385 0.34269726 0.5138184
-0.47773468 -0.38702548 -0.26768056 0.091864444 0.34904826 -0.10574659 0.48351836 0.0708418
0.3974189 -0.029916178 -0.28788656 0.2124404 0.22874558 0.50172275 0.3770763 0.18884647
0.3936861 0.30991396 0.13328986 0.3561254 -0.249808 0.05319225 -0.20482986 -0.4777223
0.13898234 -0.26120958 -0.37387303 0.40687954 -0.012837815 0.27938634 -0.48474827 0.086460195
00000000: b87d 86be cc38 35ba 403e b63d cb3a cf3e
00000010: b6e2 db3d 0eb2 b9be e2c8 33be 16a6 9e3e
00000020: d245 083f 475b 5dbd 1ac1 d7be 2027 f0be
00000030: 57a9 523e 7ebb 18be 8aa0 eb3e 35bd e63e
00000040: 5df7 9ebe 292a 7d3e f15b 63be 0a04 8c3e
00000050: 88e4 673e 1de5 6abb 51ee 963e 6db0 a5be
00000060: 249e 8abe 92f4 d33e 0080 b6be 72c6 d1bd
00000070: 082f ac3d 5d12 aebe 0476 af3e 9a89 033f
00000080: a499 f4be 3428 c6be 6d0d 89be 6d23 bc3d
00000090: 74b6 b23e ab91 d8bd b88f f73e 8115 913d
000000a0: 7d7a cb3e c612 f5bc de65 93be fa89 593e
000000b0: 483c 6a3e e770 003f 2510 c13e f860 413e
000000c0: 3991 c93e 0bad 9e3e 237d 083e 1256 b63e
000000d0: abcd 7fbe 1ee0 593d ebbe 51be 0498 f4be
000000e0: 6351 0e3e 43bd 85be 496c bfbe 8452 d03e
000000f0: b355 52bc ba0b 8f3e ed30 f8be 0b12 b13d

_transform._transforms.1.autoregressive_net.initial_layer.mask f4 [64, 4]
1.0 0.0 0.0 0.0 1.0 1.0 0.0 0.0
1.0 1.0 1.0 0.0 1.0 0.0 0.0 0.0
1.0 1.0 0.0 0.0 1.0 1.0 1.0 0.0
1.0 0.0 0.0 0.0 1.0 1.0 0.0 0.0
1.0 1.0 1.0 0.0 1.0 0.0 0.0 0.0
1.0 1.0 0.0 0.0 1.0 1.0 1.0 0.0
1.0 0.0 0.0 0.0 1.0 1.0 0.0 0.0
1.0 1.0 1.0 0.0 1.0 0.0 0.0 0.0
1.0 1.0 0.0 0.0 1.0 1.0 1.0 0.0
1.0 0.0 0.0 0.0 1.0 1.0 0.0 0.0
1.0 1.0 1.0 0.0 1.0 0.0 0.0 0.0
1.0 1.0 0.0 0.0 1.0 1.0 1.0 0.0
1.0 0.0 0.0 0.0 1.0 1.0 0.0 0.0
1.0 1.0 1.0 0.0 1.0 0.0 0.0 0.0
1.0 1.0 0.0 0.0 1.0 1.0 1.0 0.0
1.0 0.0 0.0 0.0 1.0 1.0 0.0 0.0
1.0 1.0 1.0 0.0 1.0 0.0 0.0 0.0
1.0 1.0 0.0 0.0 1.0 1.0 1.0 0.0
1.0 0.0 0.0 0.0 1.0 1.0 0.0 0.0
1.0 1.0 1.0 0.0 1.0 0.0 0.0 0.0
1.0 1.0 0.0 0.0 1.0 1.0 1.0 0.0
1.0 0.0 0.0 0.0 1.0 1.0 0.0 0.0
1.0 1.0 1.0 0.0 1.0 0.0 0.0 0.0
1.0 1.0 0.0 0.0 1.0 1.0 1.0 0.0
1.0 0.0 0.0 0.0 1.0 1.0 0.0 0.0
1.0 1.0 1.0 0.0 1.0 0.0 0.0 0.0
1.0 1.0 0.0 0.0 1.0 1.0 1.0 0.0
1.0 0.0 0.0 0.0 1.0 1.0 0.0 0.0
1.0 1.0 1.0 0.0 1.0 0.0 0.0 0.0
1.0 1.0 0.0 0.0 1.0 1.0 1.0 0.0
1.0 0.0 0.0 0.0 1.0 1.0 0.0 0.0
1.0 1.0 1.0 0.0 1.0 0.0 0.0 0.0
00000000: 0000 803f 0000 0000 0000 0000 0000 0000
00000010: 0000 803f 0000 803f 0000 0000 0000 0000
00000020: 0000 803f 0000 803f 0000 803f 0000 0000
00000030: 0000 803f 0000 0000 0000 0000 0000 0000
00000040: 0000 803f 0000 803f 0000 0000 0000 0000
00000050: 0000 803f 0000 803f 0000 803f 0000 0000
00000060: 0000 803f 0000 0000 0000 0000 0000 0000
00000070: 0000 803f 0000 803f 0000 0000 0000 0000
00000080: 0000 803f 0000 803f 0000 803f 0000 0000
00000090: 0000 803f 0000 0000 0000 0000 0000 0000
000000a0: 0000 803f 0000 803f 0000 0000 0000 0000
000000b0: 0000 803f 0000 803f 0000 803f 0000 0000
000000c0: 0000 803f 0000 0000 0000 0000 0000 0000
000000d0: 0000 803f 0000 803f 0000 0000 0000 0000
000000e0: 0000 803f 0000 803f 0000 803f 0000 0000
000000f0: 0000 803f 0000 0000 0000 0000 0000 0000
00000100: 0000 803f 0000 803f 0000 0000 0000 0000
00000110: 0000 803f 0000 803f 0000 803f 0000 0000
00000120: 0000 803f 0000 0000 0000 0000 0000 0000
00000130: 0000 803f 0000 803f 0000 0000 0000 0000
00000140: 0000 803f 0000 803f 0000 803f 0000 0000
00000150: 0000 803f 0000 0000 0000 0000 0000 0000
00000160: 0000 803f 0000 803f 0000 0000 0000 0000
00000170: 0000 803f 0000 803f 0000 803f 0000 0000
00000180: 0000 803f 0000 0000 0000 0000 0000 0000
00000190: 0000 803f 0000 803f 0000 0000 0000 0000
000001a0: 0000 803f 0000 803f 0000 803f 0000 0000
000001b0: 0000 803f 0000 0000 0000 0000 0000 0000
000001c0: 0000 803f 0000 803f 0000 0000 0000 0000
000001d0: 0000 803f 0000 803f 0000 803f 0000 0000
000001e0: 0000 803f 0000 0000 0000 0000 0000 0000
000001f0: 0000 803f 0000 803f 0000 0000 0000 0000
00000200: 0000 803f 0000 803f 0000 803f 0000 0000
00000210: 0000 803f 0000 0000 0000 0000 0000 0000
00000220: 0000 803f 0000 803f 0000 0000 0000 0000
00000230: 0000 803f 0000 803f 0000 803f 0000 0000
00000240: 0000 803f 0000 0000 0000 0000 0000 0000
00000250: 0000 803f 0000 803f 0000 0000 0000 0000
00000260: 0000 803f 0000 803f 0000 803f 0000 0000
00000270: 0000 803f 0000 0000 0000 0000 0000 0000
00000280: 0000 803f 0000 803f 0000 0000 0000 0000
00000290: 0000 803f 0000 803f 0000 803f 0000 0000
000002a0: 0000 803f 0000 0000 0000 0000 0000 0000
000002b0: 0000 803f 0000 803f 0000 0000 0000 0000
000002c0: 0000 803f 0000 803f 0000 803f 0000 0000
000002d0: 0000 803f 0000 0000 0000 0000 0000 0000
000002e0: 0000 803f 0000 803f 0000 0000 0000 0000
000002f0: 0000 803f 0000 803f 0000 803f 0000 0000
00000300: 0000 803f 0000 0000 0000 0000 0000 0000
00000310: 0000 803f 0000 803f 0000 0000 0000 0000
00000320: 0000 803f 0000 803f 0000 803f 0000 0000
00000330: 0000 803f 0000 0000 0000 0000 0000 0000
00000340: 0000 803f 0000 803f 0000 0000 0000 0000
00000350: 0000 803f 0000 803f 0000 803f 0000 0000
00000360: 0000 803f 0000 0000 0000 0000 0000 0000
00000370: 0000 803f 0000 803f 0000 0000 0000 0000
00000380: 0000 803f 0000 803f 0000 803f 0000 0000
00000390: 0000 803f 0000 0000 0000 0000 0000 0000
000003a0: 0000 803f 0000 803f 0000 0000 0000 0000
000003b0: 0000 803f 0000 803f 0000 803f 0000 0000
000003c0: 0000 803f 0000 0000 0000 0000 0000 0000
000003d0: 0000 803f 0000 803f 0000 0000 0000 0000
000003e0: 0000 803f 0000 803f 0000 803f 0000 0000
000003f0: 0000 803f 0000 0000 0000 0000 0000 0000

_transform._transforms.1.autoregressive_net.blocks.0.linear_layers.0.weight f4 [64, 64]
-0.25945085 0.057368904 -0.07265015 0.02711742 -0.0788248 -0.09187929 -0.119152844 -0.044725984
-0.022430688 -0.098671004 -0.07836601 0.03285487 0.10992435 -0.10456799 0.06651248 0.1304611
-0.04584667 0.10542326 -0.06376666 -0.01677294 -0.11813635 -0.07072806 -0.09444316 -0.06028685
0.05289139 0.044227675 0.0559963 -0.04756251 -0.1048471 0.08589193 0.14401613 0.09964548
0.022228375 -0.1552394 -0.0804476 0.030557677 0.020350132 0.06339516 0.023514226 0.15490267
-0.09195173 0.09136273 0.03669239 0.041574 0.019258663 0.121292576 -0.044308454 -0.061685026
0.00600768 0.010655284 0.056774735 -0.026943348 -0.0020665526 0.07842648 0.16639046 -0.00623551
-0.014690042 -0.06405374 0.08283803 -0.05051501 -0.049524523 0.017194912 -0.08721031 -0.05222779
-0.27885157 -0.121495135 0.10271472 -0.012040886 -0.015074238 0.0012389272 -0.092799634 0.20195998
-0.031163901 -0.008335075 0.66316366 -0.0023054332 0.1206264 -0.0019598852 0.117647156 0.1721589
0.45708793 0.036439 -0.028904783 0.13849607 -0.10596903 0.072764166 -0.007553664 0.008796647
0.18340869 0.118424654 0.05587624 -0.019936616 0.14028728 0.08534491 -0.0207842 -0.105635375
0.0032922924 -0.2908264 -0.07213376 -0.03606482 0.06002267 -0.029952146 -0.07087876 0.12576616
-0.027955193 0.083892286 -0.038061786 -0.0406477 0.010355845 0.01583364 -0.016891774 0.050152496
-0.08588138 -0.100221656 -0.108839646 0.16819014 0.034855694 -0.07178271 -0.24634881 0.058286585
-0.014600992 -0.13151014 -0.04035772 -0.09840116 -0.07447512 0.19832005 0.012136519 -0.062413864
-0.15599822 -0.092798755 0.098666295 0.08829656 0.058644485 -0.108512945 -0.03317592 0.064063065
-0.008709968 0.048977528 -0.015318751 0.1520429 -0.06484966 -0.08360153 0.083902426 -0.02038432
-1.20517 -0.083136186 -0.03798985 -0.04618886 0.103181906 -0.050808456 -0.017821562 -0.04743642
-0.33583653 0.024617473 0.31848285 0.05981585 -0.07593615 0.064433314 0.050663486 0.011965453
-0.17110848 -0.048251532 0.16295801 0.044137236 0.1100976 -0.29716793 0.131973 -0.041963533
0.13491909 -0.20089313 -0.07390661 0.01846181 0.12953465 -0.03302973 -0.1164164 -0.12998666
-0.007719761 0.22507125 0.1449432 -0.046406746 -0.1796025 -0.035984658 0.51692045 0.03130734
-0.002870767 0.07486644 0.09329825 0.07937873 -0.10225446 0.09935011 0.4058583 0.0619521
0.10396187 -0.1052303 0.053931743 0.04695925 0.08934218 0.01577665 -0.117176265 -0.025874019
-0.060826078 -0.05851953 -0.11140534 0.05353543 0.10869846 0.11942321 -0.10793306 -0.06772679
-0.066102624 -0.007145971 0.07201343 0.021773592 0.08588871 -0.100992195 -0.10235202 0.018081173
0.94716585 0.055044234 -0.08169074 -0.047187578 0.059449196 0.058349773 -0.09699712 -0.0203588
0.06636949 0.1275001 0.022675857 0.030358538 0.08220891 0.121212095 0.06769718 0.097853474
0.04293862 -0.07784933 0.31955513 -0.013442129 0.048237324 0.062889844 0.080268085 -0.058483765
-0.02279485 0.05458349 0.11204934 0.059344333 -0.08458999 -0.02635713 0.061306786 0.09260389
-0.08269751 -0.076692104 -0.04389517 0.09307666 -0.09710423 0.12155701 -0.008749813 0.07039039
00000000: bed6 84be a8fb 6a3d 9ac9 94bd 5a25 de3c
00000010: e66e a1bd 362b bcbd 6806 f4bd 9832 37bd
00000020: 90c0 b7bc 0614 cabd 5c7e a0bd d492 063d
00000030: 0520 e13d be27 d6bd b237 883d 9897 053e
00000040: b8c9 3bbd 26e8 d73d 1898 82bd 6867 89bc
00000050: 78f1 f1bd e0d9 90bd 6a6b c1bd 58ef 76bd
00000060: a4a4 583d 1428 353d 605c 653d e8d0 42bd
00000070: 14ba d6bd 1ce8 af3d f778 133e ee12 cc3d
00000080: 4818 b63c 14f7 1ebe b6c1 a4bd 1854 fa3c
00000090: 52b5 a63c 52d5 813d e8a0 c03c ce9e 1e3e
000000a0: 3051 bcbd 621c bb3d c24a 163d 8049 2a3d
000000b0: 58c4 9d3c 3e68 f83d c87c 35bd 70a9 7cbd
000000c0: 13dc c43b 8093 2e3c a08c 683d 4cb8 dcbc
000000d0: 006f 07bb 109e a03d 4362 2a3e 4053 ccbb
000000e0: 80ae 70bc 9b2e 83bd fca6 a93d d4e8 4ebd
000000f0: 3ada 4abd 58dc 8c3c 529b b2bd cfec 55bd
00000100: a2c5 8ebe 71d2 f8bd 185c d23d 2347 45bc
00000110: f0f9 76bc 8063 a23a bc0d bebd 99ce 4e3e
00000120: 704b ffbc d78f 08bc 18c5 293f c016 17bb
00000130: f90a f73d 6b71 00bb fef0 f03d 6c4a 303e
00000140: 6e07 ea3e 1041 153d b9c9 ecbc ead1 0d3e
00000150: 4a06 d9bd 6105 953d ba84 f7bb d01f 103c
00000160: 7dcf 3b3e a088 f23d 7cde 643d 1d52 a3bc
00000170: 78a7 0f3e 50c9 ae3d a043 aabc 5c57 d8bd
00000180: 80c3 573b 33e7 94be ddba 93bd b4b8 13bd
00000190: 55da 753d 345e f5bc e228 91bd d8c8 003e
000001a0: 4a02 e5bc b8cf ab3d ade6 1bbd 347e 26bd
000001b0: 90ab 293c 8db5 813c 9e60 8abc b46c 4d3d
000001c0: 94e2 afbd 0341 cdbd 52e7 debd 093a 2c3e
000001d0: d8c4 0e3d d002 93bd dd42 7cbe eabd 6e3d
000001e0: 0039 6fbc 98aa 06be 234e 25bd 8c86 c9bd
000001f0: 6986 98bd 6914 4b3e 40d8 463c aea5 7fbd
00000200: ffbd 1fbe 460d bebd 8e11 ca3d d4d4 b43d
00000210: 3335 703d 093c debd 79e3 07bd 7f33 833d
00000220: 41b4 0ebc a99c 483d 80fb 7abc 22b1 1b3e
00000230: e6cf 84bd 4737 abbd 09d5 ab3d 04fd a6bc
00000240: 0343 9abf 4e43 aabd 3f9b 1bbd 8830 3dbd
00000250: 0951 d33d 871c 50bd 86fe 91bc b14c 42bd
00000260: c4f2 abbe 95aa c93c 2f10 a33e 7701 753d
00000270: 6a84 9bbd 9df5 833d 8484 4f3d bf0a 443c
00000280: 1037 2fbe 66a3 45bd 77de 263e 3fc9 343d
00000290: da7a e13d 6526 98be ee23 073e f4e1 2bbd
000002a0: 3b28 0a3e eeb6 4dbe 595c 97bd 393d 973c
000002b0: bba4 043e 2f4a 07bd b96b eebd 391b 05be
000002c0: 0df6 fcbb 1479 663e fd6b 143e 0015 3ebd
000002d0: b8e9 37be a664 13bd e654 043f 203c 003d
000002e0: 7a23 3cbb 9353 993d 2713 bf3d 5191 a23d
000002f0: c96a d1bd 1278 cb3d a9cc cf3e 7cc1 7d3d
00000300: f6e9 d43d fc82 d7bd 88e7 5c3d 5858 403d
00000310: 08f9 b63d 083e 813c 1cfa efbd c0f5 d3bc
00000320: c424 79bd 2db2 6fbd 7c28 e4bd f847 5b3d
00000330: 4c9d de3d 2894 f43d 020c ddbd 58b4 8abd
00000340: d060 87bd c028 eabb c77b 933d 885e b23c
00000350: 6ce6 af3d ffd4 cebd f09d d1bd f81e 943c
00000360: 7679 723f 1076 613d 7a4d a7bd c347 41bd
00000370: 0081 733d 2c00 6f3d 6da6 c6bd 80c7 a6bc
00000380: baec 873d 638f 023e b8c2 b93c 78b2 f83c
00000390: 255d a83d 0c3e f83d d2a4 8a3d 6767 c83d
000003a0: 68e0 2f3d 786f 9fbd bb9c a33e 603c 5cbc
000003b0: 8094 453d 64cc 803d 9863 a43d ac8c 6fbd
000003c0: 44bc babc f092 5f3d 207a e53d 0b13 733d
000003d0: 843d adbd e8ea d7bc d31c 7b3d 1ca7 bd3d
000003e0: 505d a9bd c010 9dbd 6ccb 33bd fa9e be3d
000003f0: 95de c6bd e2f2 f83d 605b 0fbc d628 903d

_transform._transforms.1.autoregressive_net.blocks.0.linear_layers.0.bias f4 [64]
-0.037567332 0.03643048 -0.04091983 0.05014631 -0.09427093 0.037316166 0.034781694 0.01960158
0.06592674 -0.067641705 0.085592 0.028012387 0.12548026 -0.037019867 0.0061509623 0.13576864
0.041977957 -0.024843825 0.14380847 0.05540716 0.13066609 0.087021224 0.0064775487 -0.04474641
0.09831417 0.12897517 0.09920417 -0.0010934231 0.07901879 0.074067764 0.08456597 0.11383326
0.037926037 0.08007041 -0.10561117 0.18068558 0.16808954 -0.13988099 0.09221758 0.05632216
-0.015307484 0.08465529 0.07685531 0.07437236 0.037282865 0.046367772 -0.08472748 -0.044297967
-0.08193672 0.041299008 -0.05676018 0.035577364 0.019602075 0.067408465 0.110131934 -0.037556943
0.11875223 -0.010570092 -0.04480079 0.115505114 -0.06220299 -0.0040338044 -0.09397498 -0.00850166
00000000: 34e0 19bd 2138 153d 8d9b 27bd 3866 4d3d
00000010: 1e11 c1bd d6d8 183d 4077 0e3d 7e93 a03c
00000020: 9904 873d bc87 8abd dc4a af3d 3c7a e53c
00000030: e67d 003e 25a2 17bd 038e c93b ef06 0b3e
00000040: 14f1 2b3d 4785 cbbc 8742 133e 9ef2 623d
00000050: 55cd 053e 2f38 b23d 9e41 d43b 0348 37bd
00000060: f158 c93d 1112 043e 8e2b cb3d 3151 8fba
00000070: 9ad4 a13d d7b0 973d ec30 ad3d 6a21 e93d
00000080: 5558 1b3d f5fb a33d ab4a d8bd a405 393e
00000090: aa1f 2c3e f63c 0fbe 92dc bc3d 11b2 663d
000000a0: 3ecc 7abc c15f ad3d 5166 9d3d 8950 983d
000000b0: ebb5 183d 22ec 3d3d 9a85 adbd c971 35bd
000000c0: 70ce a7bd 2629 293d 5d7d 68bd 92b9 113d
000000d0: 8894 a03c 730d 8a3d da8c e13d 4fd5 19bd
000000e0: 5f34 f33d 2e2e 2dbc 0881 37bd f28d ec3d
000000f0: 90c8 7ebd 012e 84bb f475 c0bd 8c4a 0bbc

_transform._transforms.1.autoregressive_net.blocks.0.linear_layers.0.mask f4 [64, 64]
1.0 0.0 0.0 1.0 0.0 0.0 1.0 0.0
0.0 1.0 0.0 0.0 1.0 0.0 0.0 1.0
0.0 0.0 1.0 0.0 0.0 1.0 0.0 0.0
1.0 0.0 0.0 1.0 0.0 0.0 1.0 0.0
0.0 1.0 0.0 0.0 1.0 0.0 0.0 1.0
0.0 0.0 1.0 0.0 0.0 1.0 0.0 0.0
1.0 0.0 0.0 1.0 0.0 0.0 1.0 0.0
0.0 1.0 0.0 0.0 1.0 0.0 0.0 1.0
1.0 1.0 0.0 1.0 1.0 0.0 1.0 1.0
0.0 1.0 1.0 0.0 1.0 1.0 0.0 1.0
1.0 0.0 1.0 1.0 0.0 1.0 1.0 0.0
1.0 1.0 0.0 1.0 1.0 0.0 1.0 1.0
0.0 1.0 1.0 0.0 1.0 1.0 0.0 1.0
1.0 0.0 1.0 1.0 0.0 1.0 1.0 0.0
1.0 1.0 0.0 1.0 1.0 0.0 1.0 1.0
0.0 1.0 1.0 0.0 1.0 1.0 0.0 1.0
1.0 1.0 1.0 1.0 1.0 1.0 1.0 1.0
1.0 1.0 1.0 1.0 1.0 1.0 1.0 1.0
1.0 1.0 1.0 1.0 1.0 1.0 1.0 1.0
1.0 1.0 1.0 1.0 1.0 1.0 1.0 1.0
1.0 1.0 1.0 1.0 1.0 1.0 1.0 1.0
1.0 1.0 1.0 1.0 1.0 1.0 1.0 1.0
1.0 1.0 1.0 1.0 1.0 1.0 1.0 1.0
1.0 1.0 1.0 1.0 1.0 1.0 1.0 1.0
1.0 0.0 0.0 1.0 0.0 0.0 1.0 0.0
0.0 1.0 0.0 0.0 1.0 0.0 0.0 1.0
0.0 0.0 1.0 0.0 0.0 1.0 0.0 0.0
1.0 0.0 0.0 1.0 0.0 0.0 1.0 0.0
0.0 1.0 0.0 0.0 1.0 0.0 0.0 1.0
0.0 0.0 1.0 0.0 0.0 1.0 0.0 0.0
1.0 0.0 0.0 1.0 0.0 0.0 1.0 0.0
0.0 1.0 0.0 0.0 1.0 0.0 0.0 1.0
00000000: 0000 803f 0000 0000 0000 0000 0000 803f
00000010: 0000 0000 0000 0000 0000 803f 0000 0000
00000020: 0000 0000 0000 803f 0000 0000 0000 0000
00000030: 0000 803f 0000 0000 0000 0000 0000 803f
00000040: 0000 0000 0000 0000 0000 803f 0000 0000
00000050: 0000 0000 0000 803f 0000 0000 0000 0000
00000060: 0000 803f 0000 0000 0000 0000 0000 803f
00000070: 0000 0000 0000 0000 0000 803f 0000 0000
00000080: 0000 0000 0000 803f 0000 0000 0000 0000
00000090: 0000 803f 0000 0000 0000 0000 0000 803f
000000a0: 0000 0000 0000 0000 0000 803f 0000 0000
000000b0: 0000 0000 0000 803f 0000 0000 0000 0000
000000c0: 0000 803f 0000 0000 0000 0000 0000 803f
000000d0: 0000 0000 0000 0000 0000 803f 0000 0000
000000e0: 0000 0000 0000 803f 0000 0000 0000 0000
000000f0: 0000 803f 0000 0000 0000 0000 0000 803f
00000100: 0000 803f 0000 803f 0000 0000 0000 803f
00000110: 0000 803f 0000 0000 0000 803f 0000 803f
00000120: 0000 0000 0000 803f 0000 803f 0000 0000
00000130: 0000 803f 0000 803f 0000 0000 0000 803f
00000140: 0000 803f 0000 0000 0000 803f 0000 803f
00000150: 0000 0000 0000 803f 0000 803f 0000 0000
00000160: 0000 803f 0000 803f 0000 0000 0000 803f
00000170: 0000 803f 0000 0000 0000 803f 0000 803f
00000180: 0000 0000 0000 803f 0000 803f 0000 0000
00000190: 0000 803f 0000 803f 0000 0000 0000 803f
000001a0: 0000 803f 0000 0000 0000 803f 0000 803f
000001b0: 0000 0000 0000 803f 0000 803f 0000 0000
000001c0: 0000 803f 0000 803f 0000 0000 0000 803f
000001d0: 0000 803f 0000 0000 0000 803f 0000 803f
000001e0: 0000 0000 0000 803f 0000 803f 0000 0000
000001f0: 0000 803f 0000 803f 0000 0000 0000 803f
00000200: 0000 803f 0000 803f 0000 803f 0000 803f
00000210: 0000 803f 0000 803f 0000 803f 0000 803f
00000220: 0000 803f 0000 803f 0000 803f 0000 803f
00000230: 0000 803f 0000 803f 0000 803f 0000 803f
00000240: 0000 803f 0000 803f 0000 803f 0000 803f
00000250: 0000 803f 0000 803f 0000 803f 0000 803f
00000260: 0000 803f 0000 803f 0000 803f 0000 803f
00000270: 0000 803f 0000 803f 0000 803f 0000 803f
00000280: 0000 803f 0000 803f 0000 803f 0000 803f
00000290: 0000 803f 0000 803f 0000 803f 0000 803f
000002a0: 0000 803f 0000 803f 0000 803f 0000 803f
000002b0: 0000 803f 0000 803f 0000 803f 0000 803f
000002c0: 0000 803f 0000 803f 0000 803f 0000 803f
000002d0: 0000 803f 0000 803f 0000 803f 0000 803f
000002e0: 0000 803f 0000 803f 0000 803f 0000 803f
000002f0: 0000 803f 0000 803f 0000 803f 0000 803f
00000300: 0000 803f 0000 0000 0000 0000 0000 803f
00000310: 0000 0000 0000 0000 0000 803f 0000 0000
00000320: 0000 0000 0000 803f 0000 0000 0000 0000
00000330: 0000 803f 0000 0000 0000 0000 0000 803f
00000340: 0000 0000 0000 0000 0000 803f 0000 0000
00000350: 0000 0000 0000 803f 0000 0000 0000 0000
00000360: 0000 803f 0000 0000 0000 0000 0000 803f
00000370: 0000 0000 0000 0000 0000 803f 0000 0000
00000380: 0000 0000 0000 803f 0000 0000 0000 0000
00000390: 0000 803f 0000 0000 0000 0000 0000 803f
000003a0: 0000 0000 0000 0000 0000 803f 0000 0000
000003b0: 0000 0000 0000 803f 0000 0000 0000 0000
000003c0: 0000 803f 0000 0000 0000 0000 0000 803f
000003d0: 0000 0000 0000 0000 0000 803f 0000 0000
000003e0: 0000 0000 0000 803f 0000 0000 0000 0000
000003f0: 0000 803f 0000 0000 0000 0000 0000 803f

_transform._transforms.1.autoregressive_net.blocks.0.linear_layers.1.weight f4 [64, 64]
0.049968876 0.00095975836 0.00034938505 0.038761027 -0.0008026214 6.9258815e-05 0.06263501 -0.00062993245
-0.00043667163 -0.00014517094 -0.0009926986 0.0007088385 0.04304726 0.00015967728 0.00092757837 0.045929566
0.0007403988 0.00031441977 0.039753787 -0.00016634846 5.423832e-05 0.042341024 0.0004905427 -0.00015907288
0.04330004 0.0009302276 0.00041802743 0.052471805 -0.00018371655 -0.0006270615 0.03292792 0.00047074392
-0.00026392462 0.043514952 0.00096007565 0.0005141493 0.046705328 0.0006625396 -0.00093462854 0.038824752
0.00035354903 0.0009467581 0.048817817 0.0002516153 0.00031460097 0.04994293 -5.4634933e-05 0.0007389256
0.09890876 -0.00023889102 0.00068897754 0.037823472 -0.0009599896 0.00010212195 0.042749636 0.00084379036
0.0002955346 -0.0006747445 -0.00083642214 -0.0008331007 -2.0851732e-05 0.000511804 0.0006868673 0.04821745
0.023541631 0.07691709 0.00030769373 0.0023636466 0.080433175 -0.0007143414 0.020900043 0.004185017
0.0003359895 -0.00030148233 -0.009259479 -0.0006859316 0.016120216 0.0014721974 -0.0009923016 0.011595346
-0.012430078 -9.7075106e-05 -0.013906946 0.040145032 0.0003758296 -0.0025591562 -0.021659303 0.00073471956
0.015907435 0.016744295 -0.00029941573 0.012110673 0.011651778 0.0005229603 -0.007960366 0.007643523
-0.0009362115 -0.0010653236 -0.077093735 -0.00041985788 0.015109357 0.0010466747 0.0003725624 0.0013044194
0.01087413 -0.0009641697 0.01281454 0.03325522 -0.00029552568 0.026102819 0.030229572 0.000110140565
0.009560263 0.017274648 -0.0002632345 0.00027566936 -0.015287394 -0.00056351686 0.006781449 0.023202656
0.0009273727 0.0009589681 0.038506534 -0.0009999465 -0.0007473462 -0.006265521 0.00048156062 0.02315618
0.061233263 0.075180486 0.015343863 0.0277139 -0.008885771 0.019255936 0.017720126 0.026531262
0.025204018 -0.00027575434 0.032061547 0.0049464484 0.05844294 0.008927124 0.018444143 0.05141301
0.028277813 0.04706511 0.03808711 0.030529998 0.019790657 0.03511532 -0.0056988876 0.03968877
0.05210725 0.031995926 0.038166374 0.05685662 0.022930957 0.014478954 0.009914706 0.026618248
0.057931177 0.04404509 -0.0154193295 0.049308177 0.05775214 -0.00016453295 0.036602695 0.0291318
0.028561676 0.059973042 0.04703742 0.050709497 0.03869728 0.031182325 -0.023355726 -0.14973454
0.10221194 0.017512428 0.017038608 0.037601747 0.12699129 0.023658631 0.040530406 0.10615675
0.018600907 0.00027538472 0.0039201677 0.026647018 0.00048623158 0.13752966 0.0006138051 0.050017793
-0.021513652 -0.00083852845 0.00022711886 -0.023350475 2.8700829e-06 -0.00044357002 -0.036233276 -0.00012058568
0.00034698643 -0.0006600106 0.0007515793 0.0009836032 -0.014734035 -0.0008879674 -0.00063089386 -0.021879213
0.00077430636 0.0006782997 -0.017120712 0.00046690382 -9.3430885e-05 -0.026815368 -0.00012939013 0.0006003237
-0.018416902 0.00066960923 0.0008522728 -0.015917415 0.0007872438 0.00055606547 -0.036369994 0.0008501027
-3.062785e-05 -0.023735745 -0.0003767333 -6.893015e-05 -0.019080123 0.00066417933 -0.00029772497 -0.028202778
0.00021520973 2.6906491e-05 -0.021447388 -2.9363157e-05 0.00020941104 -0.027663924 -0.00029781033 0.00091311685
-0.078948244 0.0005696719 4.6024325e-05 -0.024876699 5.4562213e-05 -0.0002834157 -0.023346271 0.00031014337
-0.00022160864 -0.00060844905 0.0002005148 9.527421e-05 0.00086521835 0.00019099403 0.0001785531 -0.018878063
00000000: 2aac 4c3d 4b98 7b3a ab2d b739 e2c3 1e3d
00000010: 0367 52ba 0b3f 9138 c946 803d 0d22 25ba
00000020: 13f1 e4b9 0739 18b9 701d 82ba 59d1 393a
00000030: 5352 303d 0b6f 2739 bb28 733a a420 3c3d
00000040: 5317 423a b5d8 a439 ded4 223d d36d 2eb9
00000050: f47d 6338 c86d 2d3d c397 003a cdcc 26b9
00000060: 625b 313d 84da 733a b12a db39 adec 563d
00000070: 09a4 40b9 6361 24ba 6ddf 063d 2ece f639
00000080: 5d5f 8ab9 bc3c 323d 96ad 7b3a fac7 063a
00000090: 164e 3f3d 48ae 2d3a dc01 75ba b406 1f3d
000000a0: 8c5c b939 dc2f 783a 31f5 473d 3ceb 8339
000000b0: 07f1 a439 f590 4c3d d027 65b8 75b4 413a
000000c0: ad90 ca3d d27e 7ab9 809c 343a c9ec 1a3d
000000d0: d0a7 7bba 4e2a d638 3e1a 2f3d d031 5d3a
000000e0: fcf1 9a39 56e1 30ba 5743 5bba 7164 5aba
000000f0: c1ea aeb7 962a 063a e20e 343a a97f 453d
00000100: 61da c03c b586 9d3d f451 a139 69e7 1a3b
00000110: 26ba a43d a442 3bba 9136 ab3c 7822 893b
00000120: bf27 b039 4610 9eb9 12b5 17bc 17d0 33ba
00000130: 8b0e 843c bff6 c03a 1e10 82ba 68fa 3d3c
00000140: 87a7 4bbc cd94 cbb8 f6d9 63bc 1e6f 243d
00000150: ff0a c539 84b7 27bb da6e b1bc 329a 403a
00000160: 4f50 823c 552b 893c e6fa 9cb9 d86b 463c
00000170: 19e7 3e3c 4617 093a 326c 02bc 8576 fa3b
00000180: 176c 75ba 54a2 8bba 52e3 9dbd 5f20 dcb9
00000190: 3d8d 773c 9330 893a 7b54 c339 0df9 aa3a
000001a0: 6829 323c 55c0 7cba 14f4 513c a036 083d
000001b0: c9f0 9ab9 94d5 d53c 02a4 f73c 44fb e638
000001c0: a6a2 1c3c 9083 8d3c bd02 8ab9 b787 9039
000001d0: fa77 7abc fab8 13ba eb36 de3b 7f13 be3c
000001e0: ee1a 733a 4363 7b3a 07b9 1d3d a310 83ba
000001f0: 8ee9 43ba 004f cdbb f979 fc39 07b2 bd3c
00000200: bbcf 7a3d 3af8 993d d364 7b3c 4308 e33c
00000210: a095 11bc a0be 9d3c cc29 913c 1758 d93c
00000220: a878 ce3c 1f93 90b9 f852 033d d115 a23b
00000230: dd61 6f3d 1243 123c 2c18 973c 7396 523d
00000240: dfa6 e73c 58c7 403d 3b01 1c3d 0c1a fa3c
00000250: 0420 a23c 15d5 0f3d bcbd babb b190 223d
00000260: 696e 553d 290e 033d 5854 1c3d 7de2 683d
00000270: b4d9 bb3c 2239 6d3c 4b71 223c 830e da3c
00000280: 3e49 6d3d a068 343d 5ba1 7cbc 5ff7 493d
00000290: 828d 6c3d 7a86 2cb9 b5ec 153d d0a5 ee3c
000002a0: 2dfa e93c 4ba6 753d 4faa 403d c3b4 4f3d
000002b0: 0a81 1e3d 1372 ff3c 8254 bfbc 0354 19be
000002c0: 7e54 d13d 3976 8f3c 8d94 8b3c 4a04 1a3d
000002d0: 010a 023e bfcf c13c 3603 263d b668 d93d
000002e0: ee60 983c 8361 9039 c074 803b d94a da3c
000002f0: e6ec fe39 93d4 0c3e c3e7 203a 75df 4c3d
00000300: 663d b0bc b1d0 5bba c126 6e39 7f49 bfbc
00000310: a69b 4036 f68e e8b9 5869 14bd f2e2 fcb8
00000320: bbeb b539 9004 2dba a205 453a 3fec 803a
00000330: 0667 71bc 7cc6 68ba 9262 25ba 093c b3bc
00000340: d2fa 4a3a eccf 313a bc40 8cbc c5ca f439
00000350: 53f0 c3b8 e7ab dbbc e6ac 07b9 0b5f 1d3a
00000360: 0bdf 96bc b788 2f3a 0f6b 5f3a 3d65 82bc
00000370: 095f 4e3a ecc4 113a b4f8 14bd 6dd9 5e3a
00000380: 6776 00b8 7771 c2bc 4a84 c5b9 988e 90b8
00000390: eb4d 9cbc 521c 2e3a f817 9cb9 8309 e7bc
000003a0: eca9 6139 40b5 e137 6fb2 afbc e650 f6b7
000003b0: 5995 5b39 749f e2bc 6d23 9cb9 3c5e 6f3a
000003c0: 9eaf a1bd 0956 153a 3e0a 4138 38ca cbbc
000003d0: bbd9 6438 6997 94b9 ae40 bfbc bd9a a239
000003e0: 9e5f 68b9 5380 1fba 4841 5239 f4cd c738
000003f0: d2cf 623a 9245 4839 fc39 3b39 2ba6 9abc

_transform._transforms.1.autoregressive_net.blocks.0.linear_layers.1.bias f4 [64]
0.039358687 0.0074732043 0.048543427 -0.023382323 0.00161604 -0.020443648 0.020840386 -0.009140059
0.048940755 -0.05829375 -0.036083817 0.04256236 0.037186917 0.011828302 0.0332919 -0.04102575
0.03598855 0.011460715 0.048779204 -0.008442135 0.030292656 0.0026341658 0.042273384 -0.042517852
0.05341098 0.019663299 -0.03233491 -0.047988404 -0.030220676 0.02516828 0.03087327 0.046231933
-0.045037106 0.04264496 -0.0032867054 0.046124633 -0.05460479 -0.05275905 0.025167111 -0.046118964
-0.03885371 0.016392497 0.014144377 -0.00794535 0.045414772 0.06237383 -0.015239075 -0.029978225
0.039143007 0.029605987 0.02429116 -0.039058227 0.028347168 -0.032559577 0.039987072 0.0035540597
0.03879288 0.0222641 0.0029483861 -0.0061697573 0.03760194 0.03967001 -0.034915082 -0.027639199
00000000: 9336 213d c8e1 f43b 79d5 463d 498c bfbc
00000010: 4ed1 d33a 7079 a7bc 75b9 aa3c 30c0 15bc
00000020: 1a76 483d 6dc5 6ebd a0cc 13bd df55 2e3d
00000030: 4f51 183d 7fcb 413c 165d 083d 9e0a 28bd
00000040: bb68 133d b9c5 3b3c b4cc 473d e150 0abc
00000050: 4e28 f83c f8a1 2c3b db26 2d3d 3327 2ebd
00000060: 79c5 5a3d ed14 a13c 9c71 04bd 7d8f 44bd
00000070: 5a91 f7bc b52d ce3c f1e9 fc3c b25d 3d3d
00000080: d478 38bd 7bac 2e3d c465 57bb 2fed 3c3d
00000090: 46a9 5fbd e019 58bd 422b ce3c 3de7 3cbd
000000a0: 1125 1fbd 8f49 863c d1bd 673c 372d 02bc
000000b0: d704 3a3d b37b 7f3d 50ad 79bc e594 f5bc
000000c0: 6b54 203d 4188 f23c 41fe c63c 85fb 1fbd
000000d0: 5238 e83c 315d 05bd 7cc9 233d 3aeb 683b
000000e0: 48e5 1e3d 3463 b63c b639 413b ad2b cabb
000000f0: 7e04 1a3d 057d 223d 1e03 0fbd 9a6b e2bc

_transform._transforms.1.autoregressive_net.blocks.0.linear_layers.1.mask f4 [64, 64]
1.0 0.0 0.0 1.0 0.0 0.0 1.0 0.0
0.0 1.0 0.0 0.0 1.0 0.0 0.0 1.0
0.0 0.0 1.0 0.0 0.0 1.0 0.0 0.0
1.0 0.0 0.0 1.0 0.0 0.0 1.0 0.0
0.0 1.0 0.0 0.0 1.0 0.0 0.0 1.0
0.0 0.0 1.0 0.0 0.0 1.0 0.0 0.0
1.0 0.0 0.0 1.0 0.0 0.0 1.0 0.0
0.0 1.0 0.0 0.0 1.0 0.0 0.0 1.0
1.0 1.0 0.0 1.0 1.0 0.0 1.0 1.0
0.0 1.0 1.0 0.0 1.0 1.0 0.0 1.0
1.0 0.0 1.0 1.0 0.0 1.0 1.0 0.0
1.0 1.0 0.0 1.0 1.0 0.0 1.0 1.0
0.0 1.0 1.0 0.0 1.0 1.0 0.0 1.0
1.0 0.0 1.0 1.0 0.0 1.0 1.0 0.0
1.0 1.0 0.0 1.0 1.0 0.0 1.0 1.0
0.0 1.0 1.0 0.0 1.0 1.0 0.0 1.0
1.0 1.0 1.0 1.0 1.0 1.0 1.0 1.0
1.0 1.0 1.0 1.0 1.0 1.0 1.0 1.0
1.0 1.0 1.0 1.0 1.0 1.0 1.0 1.0
1.0 1.0 1.0 1.0 1.0 1.0 1.0 1.0
1.0 1.0 1.0 1.0 1.0 1.0 1.0 1.0
1.0 1.0 1.0 1.0 1.0 1.0 1.0 1.0
1.0 1.0 1.0 1.0 1.0 1.0 1.0 1.0
1.0 1.0 1.0 1.0 1.0 1.0 1.0 1.0
1.0 0.0 0.0 1.0 0.0 0.0 1.0 0.0
0.0 1.0 0.0 0.0 1.0 0.0 0.0 1.0
0.0 0.0 1.0 0.0 0.0 1.0 0.0 0.0
1.0 0.0 0.0 1.0 0.0 0.0 1.0 0.0
0.0 1.0 0.0 0.0 1.0 0.0 0.0 1.0
0.0 0.0 1.0 0.0 0.0 1.0 0.0 0.0
1.0 0.0 0.0 1.0 0.0 0.0 1.0 0.0
0.0 1.0 0.0 0.0 1.0 0.0 0.0 1.0
00000000: 0000 803f 0000 0000 0000 0000 0000 803f
00000010: 0000 0000 0000 0000 0000 803f 0000 0000
00000020: 0000 0000 0000 803f 0000 0000 0000 0000
00000030: 0000 803f 0000 0000 0000 0000 0000 803f
00000040: 0000 0000 0000 0000 0000 803f 0000 0000
00000050: 0000 0000 0000 803f 0000 0000 0000 0000
00000060: 0000 803f 0000 0000 0000 0000 0000 803f
00000070: 0000 0000 0000 0000 0000 803f 0000 0000
00000080: 0000 0000 0000 803f 0000 0000 0000 0000
00000090: 0000 803f 0000 0000 0000 0000 0000 803f
000000a0: 0000 0000 0000 0000 0000 803f 0000 0000
000000b0: 0000 0000 0000 803f 0000 0000 0000 0000
000000c0: 0000 803f 0000 0000 0000 0000 0000 803f
000000d0: 0000 0000 0000 0000 0000 803f 0000 0000
000000e0: 0000 0000 0000 803f 0000 0000 0000 0000
000000f0: 0000 803f 0000 0000 0000 0000 0000 803f
00000100: 0000 803f 0000 803f 0000 0000 0000 803f
00000110: 0000 803f 0000 0000 0000 803f 0000 803f
00000120: 0000 0000 0000 803f 0000 803f 0000 0000
00000130: 0000 803f 0000 803f 0000 0000 0000 803f
00000140: 0000 803f 0000 0000 0000 803f 0000 803f
00000150: 0000 0000 0000 803f 0000 803f 0000 0000
00000160: 0000 803f 0000 803f 0000 0000 0000 803f
00000170: 0000 803f 0000 0000 0000 803f 0000 803f
00000180: 0000 0000 0000 803f 0000 803f 0000 0000
00000190: 0000 803f 0000 803f 0000 0000 0000 803f
000001a0: 0000 803f 0000 0000 0000 803f 0000 803f
000001b0: 0000 0000 0000 803f 0000 803f 0000 0000
000001c0: 0000 803f 0000 803f 0000 0000 0000 803f
000001d0: 0000 803f 0000 0000 0000 803f 0000 803f
000001e0: 0000 0000 0000 803f 0000 803f 0000 0000
000001f0: 0000 803f 0000 803f 0000 0000 0000 803f
00000200: 0000 803f 0000 803f 0000 803f 0000 803f
00000210: 0000 803f 0000 803f 0000 803f 0000 803f
00000220: 0000 803f 0000 803f 0000 803f 0000 803f
00000230: 0000 803f 0000 803f 0000 803f 0000 803f
00000240: 0000 803f 0000 803f 0000 803f 0000 803f
00000250: 0000 803f 0000 803f 0000 803f 0000 803f
00000260: 0000 803f 0000 803f 0000 803f 0000 803f
00000270: 0000 803f 0000 803f 0000 803f 0000 803f
00000280: 0000 803f 0000 803f 0000 803f 0000 803f
00000290: 0000 803f 0000 803f 0000 803f 0000 803f
000002a0: 0000 803f 0000 803f 0000 803f 0000 803f
000002b0: 0000 803f 0000 803f 0000 803f 0000 803f
000002c0: 0000 803f 0000 803f 0000 803f 0000 803f
000002d0: 0000 803f 0000 803f 0000 803f 0000 803f
000002e0: 0000 803f 0000 803f 0000 803f 0000 803f
000002f0: 0000 803f 0000 803f 0000 803f 0000 803f
00000300: 0000 803f 0000 0000 0000 0000 0000 803f
00000310: 0000 0000 0000 0000 0000 803f 0000 0000
00000320: 0000 0000 0000 803f 0000 0000 0000 0000
00000330: 0000 803f 0000 0000 0000 0000 0000 803f
00000340: 0000 0000 0000 0000 0000 803f 0000 0000
00000350: 0000 0000 0000 803f 0000 0000 0000 0000
00000360: 0000 803f 0000 0000 0000 0000 0000 803f
00000370: 0000 0000 0000 0000 0000 803f 0000 0000
00000380: 0000 0000 0000 803f 0000 0000 0000 0000
00000390: 0000 803f 0000 0000 0000 0000 0000 803f
000003a0: 0000 0000 0000 0000 0000 803f 0000 0000
000003b0: 0000 0000 0000 803f 0000 0000 0000 0000
000003c0: 0000 803f 0000 0000 0000 0000 0000 803f
000003d0: 0000 0000 0000 0000 0000 803f 0000 0000
000003e0: 0000 0000 0000 803f 0000 0000 0000 0000
000003f0: 0000 803f 0000 0000 0000 0000 0000 803f

_transform._transforms.1.autoregressive_net.blocks.1.linear_layers.0.weight f4 [64, 64]
0.112712145 0.07747103 -0.11693913 -0.030936453 0.099916235 -0.09443955 -0.33275914 -0.026734099
-0.07556087 0.078418314 -0.10012069 0.06755154 0.000556194 -0.056683406 -0.031104803 0.11803911
0.07589632 -0.10350689 -0.0246402 -0.0033106804 -0.043235376 0.0031584345 -0.096680135 -0.0069814622
-0.46397433 -0.09217854 0.08295046 -0.3898941 -0.05801098 -0.05742538 0.13529876 -0.120371416
-0.06424959 0.055509176 0.031433478 -0.035443693 0.037743896 0.032305688 -0.025574148 0.10767392
-0.07367106 -0.096779436 -0.01325202 0.104739144 0.0917881 0.06992207 -0.02235435 -0.040588558
0.0022410527 0.09830378 0.11719249 0.032098535 0.0767895 -0.018543437 -0.1643573 0.10018763
0.0918425 -0.1207958 -0.08542675 0.01506193 0.0043780925 -0.009669393 -0.09506425 -0.020208467
-0.021095073 -0.07354026 0.0114070475 -0.02471005 -0.059311453 0.063877106 -0.844051 0.063273855
0.081945494 0.0478577 0.075074 -0.03242396 0.18341126 -0.07820797 0.09849551 0.15177049
-0.44034886 -0.04462169 -0.05766424 0.06981088 -0.016443968 -0.053011622 0.10457767 0.032450885
-0.18602516 0.04143849 -0.07986413 -0.25019073 -0.18953958 -0.0041372925 0.09210217 0.10816016
-0.043316185 0.047177415 -0.3941873 -0.06856644 0.066705726 -0.22314551 -0.08183624 -0.05143178
0.03131828 0.06967907 -0.1994333 0.090156525 -0.032901317 0.007158329 0.031428173 -0.010319218
0.12426114 -0.04066235 0.043687373 0.038677663 -0.030777864 0.103588015 0.010581072 -0.09174034
-0.008899108 0.06358551 -0.06805776 0.041678086 -0.09397769 -0.010850898 0.031234965 -0.006503297
-0.06684334 -0.07688856 0.10145982 0.04122247 0.047696646 -0.50085676 -0.610275 0.16485871
0.13771729 -0.024328157 -0.039920747 0.014182199 0.11287274 0.09394427 0.09599796 0.11511214
-0.37052122 -0.046224426 0.11591567 0.017644681 0.09911913 -0.097306944 -0.012387906 -0.12240522
-0.16173482 -0.0067512565 0.08686981 -0.0026585918 -0.22419974 -0.15425931 0.17810461 -0.018015195
0.2517681 -0.15262403 -0.36272433 0.06687219 -0.0353642 -0.25128692 -0.08518121 0.082586735
-0.020974915 -0.12311044 -0.057338506 0.067042924 -0.017888444 0.16730388 0.052162915 -0.20452857
0.050343838 -0.045010727 0.12292838 0.17180935 -0.0092734825 0.015234725 -0.04744251 -0.12348693
-0.09592106 0.030261168 -0.034503087 0.20388864 -0.038443647 0.1392729 0.18385321 0.10826733
0.1110465 0.054192796 -0.06387144 0.09965856 0.022191033 -0.009463206 -0.5331221 -0.091046125
0.043173745 0.087780416 0.09517689 0.08920263 0.027782893 0.039005518 -0.08812912 0.09783092
0.106269106 -0.104369655 -0.0006469937 -0.07149325 0.013322562 0.040449817 -0.08801393 0.017254025
-0.15837938 -0.031408206 -0.07815617 -0.06857985 0.013258532 0.044024676 0.07656397 0.10973182
-0.017727569 0.026237374 0.10892056 0.039856553 -0.104459144 -0.0023178905 0.088931784 0.014440563
-0.06565428 0.061633885 -0.043842424 -0.047825947 -0.08057587 0.061491758 0.107504964 0.028131068
0.08161841 -0.1053877 0.0939153 -0.08076125 -0.11975242 0.059059322 -0.15681714 -0.046048716
-0.048600122 0.020489726 -0.044056058 0.04288587 -0.13880934 -0.12082715 -0.098317936 -0.09295989
00000000: a0d5 e63d 22a9 9e3d c87d efbd 726e fdbc
00000010: e2a0 cc3d 8669 c1bd 685f aabe 7801 dbbc
00000020: a8bf 9abd c899 a03d 140c cdbd 7658 8a3d
00000030: 8ccd 113a dc2c 68bd 80cf febc 7dbe f13d
00000040: 886f 9b3d 6cfb d3bd 3fda c9bc 00f8 58bb
00000050: 9417 31bd bdfd 4e3b 3c00 c6bd c0c4 e4bb
00000060: 0b8e edbe 1ac8 bcbd eee1 a93d 33a0 c7be
00000070: ec9c 6dbd e036 6bbd c28b 0a3e 4a85 f6bd
00000080: 4a95 83bd 975d 633d 64c0 003d 682d 11bd
00000090: 5899 1a3d f852 043d e080 d1bc 2584 dc3d
000000a0: dae0 96bd 4c34 c6bd 001f 59bc 7a81 d63d
000000b0: 66fb bb3d 4d33 8f3d 7820 b7bc 3040 26bd
000000c0: a0de 123b 7e53 c93d 9e02 f03d c179 033d
000000d0: d043 9d3d 68e8 97bc 484d 28be 2c2f cd3d
000000e0: ec17 bc3d ca63 f7bd 38f4 aebd 50c6 763c
000000f0: 1a76 8f3b 606c 1ebc 0cb1 c2bd 3a8c a5bc
00000100: 93cf acbc 479c 96bd a0e4 3a3c bb6c cabc
00000110: 91f0 72bd 00d2 823d ba13 58bf b995 813d
00000120: 0ad3 a73d 7006 443d 66c0 993d fcce 04bd
00000130: 29d0 3b3e 802b a0bd 04b8 c93d b969 1b3e
00000140: 6875 e1be 3cc5 36bd 5731 6cbd 02f9 8e3d
00000150: 80b5 86bc b722 59bd d12c d63d 38eb 043d
00000160: 617d 3ebe 68bb 293d ce8f a3bd 0019 80be
00000170: aa16 42be 2092 87bb 10a0 bc3d 1383 dd3d
00000180: 506c 31bd 1b3d 413d ebd2 c9be 906c 8cbd
00000190: 039d 883d 4280 64be c299 a7bd 21aa 52bd
000001a0: 9947 003d e6b3 8e3d 3e38 4cbe fca3 b83d
000001b0: 88c3 06bd 6a90 ea3b d4ba 003d f011 29bc
000001c0: a07c fe3d 908d 26bd 88f1 323d 786c 1e3d
000001d0: dc21 fcbc f425 d43d 3c5c 2d3c 5ce2 bbbd
000001e0: 90cd 11bc 1f39 823d de61 8bbd a4b6 2a3d
000001f0: 6077 c0bd f7c7 31bc 78e0 ff3c 9c19 d5bb
00000200: 29e5 88bd c077 9dbd 2bca cf3d e5d8 283d
00000210: 8f5d 433d 2638 00bf fb3a 1cbf b9d0 283e
00000220: c305 0d3e d84b c7bc f083 23bd 745c 683c
00000230: d329 e73d da65 c03d 949a c43d eabf eb3d
00000240: f5b4 bdbe d355 3dbd 3265 ed3d 948b 903c
00000250: f8fe ca3d dd48 c7bd a5f6 4abc 97af fabd
00000260: d09d 25be a539 ddbb cde8 b13d c53b 2ebb
00000270: 9e94 65be 27f6 1dbe 0e61 363e 9a94 93bc
00000280: c0e7 803e 7949 1cbe 01b7 b9be 49f4 883d
00000290: 0dda 10bd aea8 80be 7c73 aebd 3c23 a93d
000002a0: 96d3 abbc 5421 fcbd c8db 6abd cd4d 893d
000002b0: c98a 92bc b551 2b3e c8a8 553d f06f 51be
000002c0: 5735 4e3d 2b5d 38bd e0c1 fb3d caee 2f3e
000002d0: ceef 17bc 119b 793c 1453 42bd b7e6 fcbd
000002e0: 4372 c4bd 45e6 f73c 1c53 0dbd 2fc8 503e
000002f0: 1677 1dbd 8e9d 0e3e 0444 3c3e 43bb dd3d
00000300: 596c e33d 44f9 5d3d 08cf 82bd c919 cc3d
00000310: f8c9 b53c 900b 1bbc b17a 08bf 6476 babd
00000320: f4d6 303d 38c6 b33d 1aec c23d deaf b63d
00000330: f398 e33c 40c4 1f3d 0a7d b4bd 945b c83d
00000340: 9ea3 d93d c2bf d5bd 039b 29ba 0e6b 92bd
00000350: e046 5a3c b5ae 253d a640 b4bd 5058 8d3c
00000360: 342e 22be e4a5 00bd 5810 a0bd 9873 8cbd
00000370: 503a 593c 3853 343d 92cd 9c3d 14bb e03d
00000380: 6839 91bc c3ef d63c be11 df3d a040 233d
00000390: adee d5bd c0e7 17bb de21 b63d 1c98 6c3c
000003a0: c075 86bd d073 7c3d 1d94 33bd 24e5 43bd
000003b0: f604 a5bd c8de 7b3d 902b dc3d 2073 e63c
000003c0: 8e27 a73d 82d5 d7bd aa56 c03d 2766 a5bd
000003d0: c240 f5bd 30e8 713d ac94 20be 949d 3cbd
000003e0: ec10 47bd 12da a73c 2074 34bd 18a9 2f3d
000003f0: 0924 0ebe 3a74 f7bd ea5a c9bd c161 bebd

_transform._transforms.1.autoregressive_net.blocks.1.linear_layers.0.bias f4 [64]
-0.08220931 0.10272679 0.13290177 0.057618648 0.050090626 -0.03203511 0.0131671205 -0.09767643
-0.037921816 0.12407915 0.05922057 -0.059548564 0.057278052 0.02383534 -0.071067706 0.1012721
-0.07668068 -0.09447212 -0.08535674 0.04539209 0.04814729 0.103101335 0.10995303 0.09573474
-0.02377705 0.035686236 -0.11030769 0.023138952 0.09412391 -0.09560324 0.055914085 0.063619845
-0.02390722 0.13913558 0.057524312 -0.06415924 0.058462564 -0.05927911 -0.09500879 0.14730692
0.0841966 -0.001870977 0.06662939 0.15268536 -0.0057032444 -0.0020164107 0.101601794 0.12189701
0.114838816 -0.02303057 0.11171607 0.027744517 0.11454416 0.04180468 0.05193811 0.0066126464
-0.009759745 0.025747703 0.07053837 0.038330063 -0.036640357 0.08276865 0.013333494 -0.016302345
00000000: 5b5d a8bd 6c62 d23d 6717 083e 8801 6c3d
00000010: d42b 4d3d 3f37 03bd e8ba 573c 950a c8bd
00000020: e853 1bbd 361d fe3d 4591 723d 32e9 73bd
00000030: 649c 6a3d 5542 c33c f28b 91bd bf67 cf3d
00000040: c30a 9dbd 997a c1bd 84cf aebd 0eed 393d
00000050: 1836 453d cb26 d33d 0e2f e13d 9310 c43d
00000060: 17c8 c2bc bb2b 123d 00e9 e1bd e68d bd3c
00000070: 09c4 c03d a2cb c3bd 2b06 653d 1f4b 823d
00000080: 13d9 c3bc 8f79 0e3e 9d9e 6b3d eb65 83bd
00000090: 7176 6f3d a7ce 72bd f893 c2bd a0d7 163e
000000a0: 446f ac3d 923b f5ba fd74 883d 8d59 1c3e
000000b0: 48e2 babb c225 04bb 9a14 d03d 24a5 f93d
000000c0: 9d30 eb3d 9baa bcbc 65cb e43d 7848 e33c
000000d0: 2196 ea3d 623b 2b3d 0ebd 543d e6ae d83b
000000e0: 56e7 1fbc d9ec d23c 6c76 903d fcff 1c3d
000000f0: 3314 16bd 9c82 a93d ba74 5a3c 7f8c 85bc

_transform._transforms.1.autoregressive_net.blocks.1.linear_layers.0.mask f4 [64, 64]
1.0 0.0 0.0 1.0 0.0 0.0 1.0 0.0
0.0 1.0 0.0 0.0 1.0 0.0 0.0 1.0
0.0 0.0 1.0 0.0 0.0 1.0 0.0 0.0
1.0 0.0 0.0 1.0 0.0 0.0 1.0 0.0
0.0 1.0 0.0 0.0 1.0 0.0 0.0 1.0
0.0 0.0 1.0 0.0 0.0 1.0 0.0 0.0
1.0 0.0 0.0 1.0 0.0 0.0 1.0 0.0
0.0 1.0 0.0 0.0 1.0 0.0 0.0 1.0
1.0 1.0 0.0 1.0 1.0 0.0 1.0 1.0
0.0 1.0 1.0 0.0 1.0 1.0 0.0 1.0
1.0 0.0 1.0 1.0 0.0 1.0 1.0 0.0
1.0 1.0 0.0 1.0 1.0 0.0 1.0 1.0
0.0 1.0 1.0 0.0 1.0 1.0 0.0 1.0
1.0 0.0 1.0 1.0 0.0 1.0 1.0 0.0
1.0 1.0 0.0 1.0 1.0 0.0 1.0 1.0
0.0 1.0 1.0 0.0 1.0 1.0 0.0 1.0
1.0 1.0 1.0 1.0 1.0 1.0 1.0 1.0
1.0 1.0 1.0 1.0 1.0 1.0 1.0 1.0
1.0 1.0 1.0 1.0 1.0 1.0 1.0 1.0
1.0 1.0 1.0 1.0 1.0 1.0 1.0 1.0
1.0 1.0 1.0 1.0 1.0 1.0 1.0 1.0
1.0 1.0 1.0 1.0 1.0 1.0 1.0 1.0
1.0 1.0 1.0 1.0 1.0 1.0 1.0 1.0
1.0 1.0 1.0 1.0 1.0 1.0 1.0 1.0
1.0 0.0 0.0 1.0 0.0 0.0 1.0 0.0
0.0 1.0 0.0 0.0 1.0 0.0 0.0 1.0
0.0 0.0 1.0 0.0 0.0 1.0 0.0 0.0
1.0 0.0 0.0 1.0 0.0 0.0 1.0 0.0
0.0 1.0 0.0 0.0 1.0 0.0 0.0 1.0
0.0 0.0 1.0 0.0 0.0 1.0 0.0 0.0
1.0 0.0 0.0 1.0 0.0 0.0 1.0 0.0
0.0 1.0 0.0 0.0 1.0 0.0 0.0 1.0
00000000: 0000 803f 0000 0000 0000 0000 0000 803f
00000010: 0000 0000 0000 0000 0000 803f 0000 0000
00000020: 0000 0000 0000 803f 0000 0000 0000 0000
00000030: 0000 803f 0000 0000 0000 0000 0000 803f
00000040: 0000 0000 0000 0000 0000 803f 0000 0000
00000050: 0000 0000 0000 803f 0000 0000 0000 0000
00000060: 0000 803f 0000 0000 0000 0000 0000 803f
00000070: 0000 0000 0000 0000 0000 803f 0000 0000
00000080: 0000 0000 0000 803f 0000 0000 0000 0000
00000090: 0000 803f 0000 0000 0000 0000 0000 803f
000000a0: 0000 0000 0000 0000 0000 803f 0000 0000
000000b0: 0000 0000 0000 803f 0000 0000 0000 0000
000000c0: 0000 803f 0000 0000 0000 0000 0000 803f
000000d0: 0000 0000 0000 0000 0000 803f 0000 0000
000000e0: 0000 0000 0000 803f 0000 0000 0000 0000
000000f0: 0000 803f 0000 0000 0000 0000 0000 803f
00000100: 0000 803f 0000 803f 0000 0000 0000 803f
00000110: 0000 803f 0000 0000 0000 803f 0000 803f
00000120: 0000 0000 0000 803f 0000 803f 0000 0000
00000130: 0000 803f 0000 803f 0000 0000 0000 803f
00000140: 0000 803f 0000 0000 0000 803f 0000 803f
00000150: 0000 0000 0000 803f 0000 803f 0000 0000
00000160: 0000 803f 0000 803f 0000 0000 0000 803f
00000170: 0000 803f 0000 0000 0000 803f 0000 803f
00000180: 0000 0000 0000 803f 0000 803f 0000 0000
00000190: 0000 803f 0000 803f 0000 0000 0000 803f
000001a0: 0000 803f 0000 0000 0000 803f 0000 803f
000001b0: 0000 0000 0000 803f 0000 803f 0000 0000
000001c0: 0000 803f 0000 803f 0000 0000 0000 803f
000001d0: 0000 803f 0000 0000 0000 803f 0000 803f
000001e0: 0000 0000 0000 803f 0000 803f 0000 0000
000001f0: 0000 803f 0000 803f 0000 0000 0000 803f
00000200: 0000 803f 0000 803f 0000 803f 0000 803f
00000210: 0000 803f 0000 803f 0000 803f 0000 803f
00000220: 0000 803f 0000 803f 0000 803f 0000 803f
00000230: 0000 803f 0000 803f 0000 803f 0000 803f
00000240: 0000 803f 0000 803f 0000 803f 0000 803f
00000250: 0000 803f 0000 803f 0000 803f 0000 803f
00000260: 0000 803f 0000 803f 0000 803f 0000 803f
00000270: 0000 803f 0000 803f 0000 803f 0000 803f
00000280: 0000 803f 0000 803f 0000 803f 0000 803f
00000290: 0000 803f 0000 803f 0000 803f 0000 803f
000002a0: 0000 803f 0000 803f 0000 803f 0000 803f
000002b0: 0000 803f 0000 803f 0000 803f 0000 803f
000002c0: 0000 803f 0000 803f 0000 803f 0000 803f
000002d0: 0000 803f 0000 803f 0000 803f 0000 803f
000002e0: 0000 803f 0000 803f 0000 803f 0000 803f
000002f0: 0000 803f 0000 803f 0000 803f 0000 803f
00000300: 0000 803f 0000 0000 0000 0000 0000 803f
00000310: 0000 0000 0000 0000 0000 803f 0000 0000
00000320: 0000 0000 0000 803f 0000 0000 0000 0000
00000330: 0000 803f 0000 0000 0000 0000 0000 803f
00000340: 0000 0000 0000 0000 0000 803f 0000 0000
00000350: 0000 0000 0000 803f 0000 0000 0000 0000
00000360: 0000 803f 0000 0000 0000 0000 0000 803f
00000370: 0000 0000 0000 0000 0000 803f 0000 0000
00000380: 0000 0000 0000 803f 0000 0000 0000 0000
00000390: 0000 803f 0000 0000 0000 0000 0000 803f
000003a0: 0000 0000 0000 0000 0000 803f 0000 0000
000003b0: 0000 0000 0000 803f 0000 0000 0000 0000
000003c0: 0000 803f 0000 0000 0000 0000 0000 803f
000003d0: 0000 0000 0000 0000 0000 803f 0000 0000
000003e0: 0000 0000 0000 803f 0000 0000 0000 0000
000003f0: 0000 803f 0000 0000 0000 0000 0000 803f
