model2_v1/epoch=100modello-N_iter4-N_features32-N_BS32-epochs250-lr0.001-val_loss1000.pth (torch, 206026 bytes, 72 tensors)

_transform._transforms.1.autoregressive_net.initial_layer.weight f4 [32, 4]
00000000: 6032 a4bc 54b7 8cbe e85d 4ebe ac43 fc3e
00000010: 2283 a7bb cafc 5dbd 860a 863e 20c7 0fbe
00000020: 0c81 17bd 253b d2be 6da5 cd3f 4068 e33c
00000030: 2b14 34bc 2a21 c8be 5828 cdbd 448f 6f3e
00000040: fefe 3d3e 5f28 9abd ae87 c3be 4425 f5be
00000050: c3f1 29bc 4848 573f 71cf 0d40 6417 febe
00000060: c95e 60bc 58e4 473e 3cd9 35be 54c3 7ebe
00000070: e29d db3b b1e9 82bf 945d a63e c830 463e
00000080: 80f9 4c3d b818 08bf de14 3940 5cd2 09be
00000090: 7e74 673c e4df 6a3e 7a19 e93e 44d1 3bbe
000000a0: fdca b13b ebb9 343f 0066 aabc 4823 3fbe
000000b0: 3987 863c e9a5 70bd 4de9 d0bf 00df 593c
000000c0: fb18 e9bc b844 abbd b2a3 ddbe 08aa de3e
000000d0: b34f 3f3d bc4f 02bf 96f7 aabe 386d 91bd
000000e0: 55ab 3a3b 2987 dfbe ed51 c7bf 8095 e93d
000000f0: 688d b1bc 98d2 fdbe 4e47 a3be b4c9 713e
00000100: 9c7b 563d d159 e5bc 24db 1fbe 000c d5ba
00000110: dfbc 063d 21fa 113f 4ce4 5a3e d6f5 cf3e
00000120: eba9 433c 5e77 f63e a053 ca3e 4029 343c
00000130: cd6b ddbb d5a7 e2be a45a 05be 9c4c e23e
00000140: d428 f03d b1d0 4a3e aa8b a2bd 72e8 c4be
00000150: 3ed2 8fbc a04b d83c 7078 da3e 14fa 0cbe
00000160: 2210 c83b 2694 853f a436 5e3e 20f2 c2bd
00000170: ceca e43b 05fb 27bf b596 1f40 1668 e2be
00000180: 332f 5fbc dab6 ed3e a8a0 ca3e ac4b 063e
00000190: f84c dabb 5772 953f 6c56 e4be 1e7c da3e
000001a0: 7fcf d03c ca6b 70bf e0f1 383e 0c1f 923e
000001b0: f1e0 af3b feca a33e 8079 e93c 7658 e33e
000001c0: 7be8 6cbb 20e5 8bbf 403d e7bd e434 a23e
000001d0: bb01 9e3a 816d 973d ffb2 24c0 e8f1 da3e
000001e0: 7975 e23c 5646 84be 008a 6bbd e68c ac3e
000001f0: 6591 c8bb 741d 3abf b01d 65bd a0c3 73be
-0.020043552 -0.27483618 -0.2015301 0.4927038 -0.005112068 -0.054196157 0.26179904 -0.14040804
-0.036988303 -0.4106075 1.6066109 0.027759671 -0.010991137 -0.39087802 -0.100174606 0.23394495
0.18554303 -0.075272314 -0.38189453 -0.47879994 -0.010372582 0.8409467 2.2157862 -0.4962722
-0.013694474 0.195207 -0.1775865 -0.248792 0.0067021707 -1.0227567 0.3249327 0.19354546
0.05004263 -0.5316272 2.8918986 -0.13459152 0.014126895 0.2293697 0.4552725 -0.18341547
0.0054258094 0.7059619 -0.02080059 -0.18665802 0.016421901 -0.058751974 -1.6321198 0.013297796
-0.028454294 -0.083627164 -0.43288952 0.434891 0.046706866 -0.50902915 -0.33392018 -0.0710091
0.002848347 -0.43657807 -1.5571877 0.11405468 -0.021673873 -0.49574733 -0.3189034 0.236121
0.052363977 -0.02799693 -0.1561094 -0.0016254187 0.032894965 0.5702229 0.21376151 0.40617245
0.011942367 0.48137945 0.39516926 0.010996163 -0.0067572356 -0.4426867 -0.13022858 0.44199073
0.11726537 0.19806172 -0.07936795 -0.38458592 -0.017556306 0.026403248 0.42670012 -0.13767272
0.006105439 1.0435836 0.21700531 -0.09518838 0.006982184 -0.656174 2.4935734 -0.44220036
-0.013622093 0.46428567 0.39575696 0.13114804 -0.0066620074 1.1675519 -0.44597185 0.4267282
0.025489567 -0.93914473 0.18061018 0.28539312 0.0053673913 0.31990808 0.028500319 0.44403428
-0.0036149311 -1.0929298 -0.112909794 0.31680977 0.0012054959 0.07393933 -2.573425 0.42762685
0.027643906 -0.25834912 -0.057504654 0.33701247 -0.006120848 -0.7270119 -0.055936515 -0.23805094

_transform._transforms.1.autoregressive_net.initial_layer.bias f4 [32]
00000000: 075b 8fbe 6cea 58be 8378 7cbb 691c 42be
00000010: 21cc 32be c338 ccbe 942e 2cbe f334 60bf
00000020: a7ac 73bf 4580 8bbe 1950 e93e aa1a c5be
00000030: 2434 4abe 8d45 cfbf f052 0fbe 0f1a 91be
00000040: 707f cabe 9f97 a2bf 404e 32be bafe 85bf
00000050: 330d f2be 3cdc a3be d8a6 b8be 98f8 a43f
00000060: 94f1 35be 66b6 46bf dd12 7f3f eebe 52be
00000070: c5f9 32bf a195 b9bf 3829 46be 2492 b2bf
-0.27999136 -0.21183175 -0.003852398 -0.1895615 -0.17460681 -0.39887056 -0.16814643 -0.87580794
-0.9518532 -0.272463 0.45568922 -0.38496906 -0.19746453 -1.61931 -0.13996482 -0.28340194
-0.39550352 -1.2702521 -0.17412663 -1.0468361 -0.47275695 -0.32003963 -0.36064792 1.2888365
-0.17767936 -0.7762207 0.9963816 -0.20580646 -0.6991237 -1.4498788 -0.19351661 -1.3950849

_transform._transforms.1.autoregressive_net.initial_layer.mask f4 [32, 4]
00000000: 0000 803f 0000 0000 0000 0000 0000 0000
00000010: 0000 803f 0000 803f 0000 0000 0000 0000
00000020: 0000 803f 0000 803f 0000 803f 0000 0000
00000030: 0000 803f 0000 0000 0000 0000 0000 0000
00000040: 0000 803f 0000 803f 0000 0000 0000 0000
00000050: 0000 803f 0000 803f 0000 803f 0000 0000
00000060: 0000 803f 0000 0000 0000 0000 0000 0000
00000070: 0000 803f 0000 803f 0000 0000 0000 0000
00000080: 0000 803f 0000 803f 0000 803f 0000 0000
00000090: 0000 803f 0000 0000 0000 0000 0000 0000
000000a0: 0000 803f 0000 803f 0000 0000 0000 0000
000000b0: 0000 803f 0000 803f 0000 803f 0000 0000
000000c0: 0000 803f 0000 0000 0000 0000 0000 0000
000000d0: 0000 803f 0000 803f 0000 0000 0000 0000
000000e0: 0000 803f 0000 803f 0000 803f 0000 0000
000000f0: 0000 803f 0000 0000 0000 0000 0000 0000
00000100: 0000 803f 0000 803f 0000 0000 0000 0000
00000110: 0000 803f 0000 803f 0000 803f 0000 0000
00000120: 0000 803f 0000 0000 0000 0000 0000 0000
00000130: 0000 803f 0000 803f 0000 0000 0000 0000
00000140: 0000 803f 0000 803f 0000 803f 0000 0000
00000150: 0000 803f 0000 0000 0000 0000 0000 0000
00000160: 0000 803f 0000 803f 0000 0000 0000 0000
00000170: 0000 803f 0000 803f 0000 803f 0000 0000
00000180: 0000 803f 0000 0000 0000 0000 0000 0000
00000190: 0000 803f 0000 803f 0000 0000 0000 0000
000001a0: 0000 803f 0000 803f 0000 803f 0000 0000
000001b0: 0000 803f 0000 0000 0000 0000 0000 0000
000001c0: 0000 803f 0000 803f 0000 0000 0000 0000
000001d0: 0000 803f 0000 803f 0000 803f 0000 0000
000001e0: 0000 803f 0000 0000 0000 0000 0000 0000
000001f0: 0000 803f 0000 803f 0000 0000 0000 0000
1.0 0.0 0.0 0.0 1.0 1.0 0.0 0.0
1.0 1.0 1.0 0.0 1.0 0.0 0.0 0.0
1.0 1.0 0.0 0.0 1.0 1.0 1.0 0.0
1.0 0.0 0.0 0.0 1.0 1.0 0.0 0.0
1.0 1.0 1.0 0.0 1.0 0.0 0.0 0.0
1.0 1.0 0.0 0.0 1.0 1.0 1.0 0.0
1.0 0.0 0.0 0.0 1.0 1.0 0.0 0.0
1.0 1.0 1.0 0.0 1.0 0.0 0.0 0.0
1.0 1.0 0.0 0.0 1.0 1.0 1.0 0.0
1.0 0.0 0.0 0.0 1.0 1.0 0.0 0.0
1.0 1.0 1.0 0.0 1.0 0.0 0.0 0.0
1.0 1.0 0.0 0.0 1.0 1.0 1.0 0.0
1.0 0.0 0.0 0.0 1.0 1.0 0.0 0.0
1.0 1.0 1.0 0.0 1.0 0.0 0.0 0.0
1.0 1.0 0.0 0.0 1.0 1.0 1.0 0.0
1.0 0.0 0.0 0.0 1.0 1.0 0.0 0.0

_transform._transforms.1.autoregressive_net.blocks.0.linear_layers.0.weight f4 [32, 32]
00000000: e76d 28be 1341 0e3e b87f 0b3b d8fc 96bd
00000010: 2da0 f5bb 20fd 343d 2142 1fbe 47dc 01be
00000020: 2759 193d f8a2 fb3d fab7 19be 4adf 073b
00000030: 8175 a93b 8c34 0b3d bbfa 0b3e 93ba bfbd
00000040: 71b0 f33d 36fe f5bd 1dfa c4bd b95d 7b3c
00000050: 3c47 10bd b39a 123e 82dc 67bd afd3 883c
00000060: f8fc 5f3d a260 ef3d 9ac5 ccbd 3077 a6bd
00000070: 199b f03d c164 ed3d 3879 d7bd ba08 abbd
00000080: 11ab 7ebd 493e 1e3e d0f3 1cbe 2b86 0ebe
00000090: 3112 a13d 6b18 0d3e e472 ee3c 4b47 f7bd
000000a0: ad46 f43d ba27 57bc f4fa 753c 0bd5 2fbe
000000b0: 96ee 233e eeee 4fbd 030f cf3d 3479 00be
000000c0: d90c c6bd 2b06 e73d 1f8f 8f3d 6366 b7bd
000000d0: 0749 2abe 4f25 55bd ca0a 14be 9fd7 203e
000000e0: 8817 043e a2bd 10bc 374f 94bc ea56 e4bd
000000f0: 5396 96bd beac 59bd 92b4 9b3d 496d c7bd
00000100: 9ab8 0e3e 1068 423e 63f6 173e f4c6 c33e
00000110: 050e 613f dc9a 403d e02e 0b3f d6e5 ccc0
00000120: 153c 27be feb0 85be ed8c 0cc1 64d0 1bbe
00000130: 5876 d83e 21d6 ef3d ec3b d73d 62e8 4fbe
00000140: ad83 d63e 8ee3 a8bf a4b2 153e 481e 953d
00000150: d34a 63bf 6589 febd d50c 96bf 32c3 623e
00000160: 7482 aa3c 64ab 2bbe a905 913e a5ca a1bf
00000170: 447e 0cbf 1663 79be 63f6 a73d 85e4 93bd
00000180: 5b26 01be 543d 983d 71cd f7bd b1a3 f53c
00000190: 0f50 f03d 395e 26be 351f 403c 3c96 bebd
000001a0: ffeb ecbd ccac dc3d ceff 2f3e 3009 3ebd
000001b0: 56d3 0c3c 48dd e93d de4a 9b3d 0918 3ebe
000001c0: 959a 2bbe 27f3 10bd 5ab0 5cbe 535b 31bb
000001d0: 6940 2dbe 176b 1dbe 2112 b1bd f156 163e
000001e0: 56f5 45be 8461 11be 0bc3 05be b138 29be
000001f0: eddf 583d 3be1 0a3e 81cf 00be 84c3 e93d
00000200: bb60 85bc a121 15be d03c f4bd 1668 a93e
00000210: 13d0 b5bf 36e5 b1bb 581f 0dbf 1497 ecbd
00000220: 604e 15be 692c 9b3e 15fc 9a3e 9e86 fcbd
00000230: 7cbd babe f1c5 19bb 1fda 633c a8c8 983d
00000240: d264 073d b27b 53bd e37d a63e b27e 80bd
00000250: b2eb 2b3d 24a1 ab3d e2a2 853e c922 e03d
00000260: 3d49 2f3c 8545 32bf 78c9 443b 5a02 2b3e
00000270: 9f68 e93d 070c 34be b567 bdbe 4d97 f6be
00000280: ce9e 4bbe 1499 0fbf b440 c13d 13a7 ca39
00000290: 6c60 f3bd b83c 653a 53a7 0dbe ff06 89bd
000002a0: a84b 67be d09f 0abe dc51 c63c d7a0 40bc
000002b0: abf1 02be 0e31 d13c 35db aebc a39a 19be
000002c0: fe1b 8dbe f901 9fbd dcce 20be 141e ddbd
000002d0: 3e96 d9bd 867c 21be 1164 bebd e564 7f3d
000002e0: f1c7 79be d5ff 9b3d 8313 09bf 4722 ab3e
000002f0: 2895 24bc 479d 3abe 5fbd c4be 44e5 57bd
00000300: b789 e63d 664b 803d 2202 bfbd 30b9 61be
00000310: 62f9 e8bd 7f81 f7bc cbd3 47be 7073 bdbc
00000320: c719 0dbe c511 013e 4f4a 293e 4101 94bc
00000330: a421 3abd cf86 263e 056c 193e 32c6 e43d
00000340: ada5 1c3e 7591 293e de34 8cbd c87d de3d
00000350: fa5a c13c 45e3 09bd 1dbd 01be 5650 03be
00000360: aab3 87be d822 2cbe d0eb 163e cdc2 e93d
00000370: b53b 01be b57d 11be c902 883d c8c0 cd3d
00000380: e578 a6bd c78c 2dbe a117 ff3d b85e 923d
00000390: e924 823e f40b a43c 87b0 203e 4118 9e3e
000003a0: 48bc b23d bbe9 173e 9624 e63e 79ca 923d
000003b0: 3959 573b 638c fcbc 65a2 eb3c fa78 6f3e
000003c0: 7f55 57bf 61f6 15be 56e5 e43d 039d bebf
000003d0: 37c2 5e3c b5e4 7a3e 5a46 c23f 9d00 f33d
000003e0: cb47 8b3e f4b0 3fc0 26ea ec3d 5afa 29bf
000003f0: ff44 9ebd 3e3c 083e f156 97be e081 84c0
-0.16448174 0.13892011 0.0021285843 -0.07372445 -0.007495901 0.04418671 -0.1555257 -0.12681685
0.037438538 0.12286943 -0.15011588 0.0020732456 0.0051714783 0.03398566 0.13669865 -0.09361758
0.11898888 -0.120113775 -0.09618018 0.015342169 -0.035224184 0.14316826 -0.056606777 0.016702501
0.05468461 0.11688353 -0.09998627 -0.08128202 0.117483325 0.11591483 -0.105211675 -0.08351274
-0.06217486 0.15453447 -0.15327382 -0.13918369 0.07864798 0.13778846 0.029107518 -0.12074145
0.11927543 -0.01313203 0.015013445 -0.17171113 0.16008982 -0.05076497 0.10110285 -0.12546235
-0.09670419 0.11280473 0.0700972 -0.089550756 -0.1662942 -0.052037533 -0.1445724 0.15707253
0.12899601 -0.0088342745 -0.018104179 -0.1114939 -0.07352891 -0.053143255 0.076028004 -0.09737641
0.13937607 0.18985009 0.14840083 0.38237727 0.8791202 0.047022685 0.543684 -6.403056
-0.16331513 -0.26111597 -8.784406 -0.15216213 0.4227779 0.11710764 0.10509476 -0.20303491
0.41897336 -1.3194444 0.14618927 0.07281166 -0.8878605 -0.1242855 -1.1722666 0.22144774
0.020814158 -0.16764599 0.2832463 -1.2639967 -0.54880166 -0.24354205 0.082012914 -0.07221321
-0.12612288 0.074335724 -0.12099732 0.02998528 0.1173402 -0.1624688 0.01172619 -0.09305999
-0.1156845 0.10775146 0.17187425 -0.04639548 0.008595308 0.11419159 0.07582639 -0.18563856
-0.16758187 -0.03538814 -0.21551648 -0.002706249 -0.16919102 -0.15372883 -0.08646036 0.14681603
-0.1933187 -0.14197356 -0.13062684 -0.16525532 0.052947927 0.13562481 -0.12579156 0.11414245
-0.016281476 -0.1456361 -0.119256616 0.33087224 -1.4204124 -0.0054289354 -0.5512595 -0.11552253
-0.14580679 0.3030732 0.30270448 -0.12330364 -0.3647269 -0.002346393 0.013906985 0.07460147
0.033055134 -0.051631637 0.3251792 -0.06274165 0.041972823 0.083803445 0.26100832 0.10944135
0.010698614 -0.6963733 0.0030027311 0.16700116 0.11396908 -0.17582713 -0.36993185 -0.48162308
-0.19884798 -0.56092954 0.09436169 0.00038652922 -0.118836254 0.00087447045 -0.1383336 -0.066907875
-0.22587454 -0.13537526 0.024208955 -0.011757097 -0.12787502 0.025536086 -0.02134476 -0.15000395
-0.2756042 -0.07764048 -0.1570391 -0.107967526 -0.106243595 -0.15770158 -0.0929643 0.06235208
-0.24392678 0.076171555 -0.535454 0.3342459 -0.010045327 -0.18224059 -0.3842573 -0.05270888
0.11256736 0.06264381 -0.09326579 -0.220433 -0.11375691 -0.030213116 -0.19514386 -0.023126334
-0.13779365 0.12604435 0.16532253 -0.018067004 -0.04544224 0.16262363 0.14982612 0.11170615
0.15297575 0.16559394 -0.06846021 0.108638346 0.023602951 -0.033664007 -0.12669797 -0.12823614
-0.2650426 -0.16810167 0.14738393 0.114141084 -0.12620433 -0.1420811 0.06641156 0.10046536
-0.081285276 -0.16948234 0.12455679 0.071469724 0.25418785 0.020025231 0.1569234 0.3087788
0.08727318 0.14835255 0.44949788 0.07167525 0.0032859577 -0.03082866 0.02876396 0.23385993
-0.8411483 -0.14644767 0.11176555 -1.4891666 0.013596109 0.24501307 1.517772 0.11865351
0.2720321 -2.9951754 0.11568098 -0.6639763 -0.07728004 0.1330423 -0.2955852 -4.140854

_transform._transforms.1.autoregressive_net.blocks.0.linear_layers.0.bias f4 [32]
00000000: dbf8 90bd 89c1 2abe 755a bd3d db7c efbc
00000010: ac3e 35be 078a 8ebe f291 4abe 9a20 c6be
00000020: b017 0cbd f5ac e7bd 7e3a a0be 3717 083b
00000030: 6e6e 62bd beed b8bf ed9a 43bd 90cf b2bd
00000040: 5e12 193f 410a 8c3e 9cbc 22bd 2fd9 033f
00000050: 78e1 09bf f8b2 75bd 1f58 7ebe b2b7 433e
00000060: cff5 48bd f116 16bf 72a1 b23e f604 56bd
00000070: 8bbe 7f3a f57a f93e 2f2a adbc 3e77 2dbf
-0.070787154 -0.1667539 0.09245769 -0.02923434 -0.17699689 -0.27839682 -0.19782236 -0.38696748
-0.034202278 -0.11312286 -0.31294626 0.002076579 -0.055281095 -1.4447553 -0.04775517 -0.08730996
0.5979365 0.27351573 -0.039730653 0.5150327 -0.53859663 -0.05998513 -0.24838303 0.19113043
-0.049062546 -0.58628756 0.34888798 -0.052250825 0.0009755871 0.4872662 -0.021138279 -0.67760074

_transform._transforms.1.autoregressive_net.blocks.0.linear_layers.0.mask f4 [32, 32]
00000000: 0000 803f 0000 0000 0000 0000 0000 803f
00000010: 0000 0000 0000 0000 0000 803f 0000 0000
00000020: 0000 0000 0000 803f 0000 0000 0000 0000
00000030: 0000 803f 0000 0000 0000 0000 0000 803f
00000040: 0000 0000 0000 0000 0000 803f 0000 0000
00000050: 0000 0000 0000 803f 0000 0000 0000 0000
00000060: 0000 803f 0000 0000 0000 0000 0000 803f
00000070: 0000 0000 0000 0000 0000 803f 0000 0000
00000080: 0000 803f 0000 803f 0000 0000 0000 803f
00000090: 0000 803f 0000 0000 0000 803f 0000 803f
000000a0: 0000 0000 0000 803f 0000 803f 0000 0000
000000b0: 0000 803f 0000 803f 0000 0000 0000 803f
000000c0: 0000 803f 0000 0000 0000 803f 0000 803f
000000d0: 0000 0000 0000 803f 0000 803f 0000 0000
000000e0: 0000 803f 0000 803f 0000 0000 0000 803f
000000f0: 0000 803f 0000 0000 0000 803f 0000 803f
00000100: 0000 803f 0000 803f 0000 803f 0000 803f
00000110: 0000 803f 0000 803f 0000 803f 0000 803f
00000120: 0000 803f 0000 803f 0000 803f 0000 803f
00000130: 0000 803f 0000 803f 0000 803f 0000 803f
00000140: 0000 803f 0000 803f 0000 803f 0000 803f
00000150: 0000 803f 0000 803f 0000 803f 0000 803f
00000160: 0000 803f 0000 803f 0000 803f 0000 803f
00000170: 0000 803f 0000 803f 0000 803f 0000 803f
00000180: 0000 803f 0000 0000 0000 0000 0000 803f
00000190: 0000 0000 0000 0000 0000 803f 0000 0000
000001a0: 0000 0000 0000 803f 0000 0000 0000 0000
000001b0: 0000 803f 0000 0000 0000 0000 0000 803f
000001c0: 0000 0000 0000 0000 0000 803f 0000 0000
000001d0: 0000 0000 0000 803f 0000 0000 0000 0000
000001e0: 0000 803f 0000 0000 0000 0000 0000 803f
000001f0: 0000 0000 0000 0000 0000 803f 0000 0000
00000200: 0000 803f 0000 803f 0000 0000 0000 803f
00000210: 0000 803f 0000 0000 0000 803f 0000 803f
00000220: 0000 0000 0000 803f 0000 803f 0000 0000
00000230: 0000 803f 0000 803f 0000 0000 0000 803f
00000240: 0000 803f 0000 0000 0000 803f 0000 803f
00000250: 0000 0000 0000 803f 0000 803f 0000 0000
00000260: 0000 803f 0000 803f 0000 0000 0000 803f
00000270: 0000 803f 0000 0000 0000 803f 0000 803f
00000280: 0000 803f 0000 803f 0000 803f 0000 803f
00000290: 0000 803f 0000 803f 0000 803f 0000 803f
000002a0: 0000 803f 0000 803f 0000 803f 0000 803f
000002b0: 0000 803f 0000 803f 0000 803f 0000 803f
000002c0: 0000 803f 0000 803f 0000 803f 0000 803f
000002d0: 0000 803f 0000 803f 0000 803f 0000 803f
000002e0: 0000 803f 0000 803f 0000 803f 0000 803f
000002f0: 0000 803f 0000 803f 0000 803f 0000 803f
00000300: 0000 803f 0000 0000 0000 0000 0000 803f
00000310: 0000 0000 0000 0000 0000 803f 0000 0000
00000320: 0000 0000 0000 803f 0000 0000 0000 0000
00000330: 0000 803f 0000 0000 0000 0000 0000 803f
00000340: 0000 0000 0000 0000 0000 803f 0000 0000
00000350: 0000 0000 0000 803f 0000 0000 0000 0000
00000360: 0000 803f 0000 0000 0000 0000 0000 803f
00000370: 0000 0000 0000 0000 0000 803f 0000 0000
00000380: 0000 803f 0000 803f 0000 0000 0000 803f
00000390: 0000 803f 0000 0000 0000 803f 0000 803f
000003a0: 0000 0000 0000 803f 0000 803f 0000 0000
000003b0: 0000 803f 0000 803f 0000 0000 0000 803f
000003c0: 0000 803f 0000 0000 0000 803f 0000 803f
000003d0: 0000 0000 0000 803f 0000 803f 0000 0000
000003e0: 0000 803f 0000 803f 0000 0000 0000 803f
000003f0: 0000 803f 0000 0000 0000 803f 0000 803f
1.0 0.0 0.0 1.0 0.0 0.0 1.0 0.0
0.0 1.0 0.0 0.0 1.0 0.0 0.0 1.0
0.0 0.0 1.0 0.0 0.0 1.0 0.0 0.0
1.0 0.0 0.0 1.0 0.0 0.0 1.0 0.0
1.0 1.0 0.0 1.0 1.0 0.0 1.0 1.0
0.0 1.0 1.0 0.0 1.0 1.0 0.0 1.0
1.0 0.0 1.0 1.0 0.0 1.0 1.0 0.0
1.0 1.0 0.0 1.0 1.0 0.0 1.0 1.0
1.0 1.0 1.0 1.0 1.0 1.0 1.0 1.0
1.0 1.0 1.0 1.0 1.0 1.0 1.0 1.0
1.0 1.0 1.0 1.0 1.0 1.0 1.0 1.0
1.0 1.0 1.0 1.0 1.0 1.0 1.0 1.0
1.0 0.0 0.0 1.0 0.0 0.0 1.0 0.0
0.0 1.0 0.0 0.0 1.0 0.0 0.0 1.0
0.0 0.0 1.0 0.0 0.0 1.0 0.0 0.0
1.0 0.0 0.0 1.0 0.0 0.0 1.0 0.0
1.0 1.0 0.0 1.0 1.0 0.0 1.0 1.0
0.0 1.0 1.0 0.0 1.0 1.0 0.0 1.0
1.0 0.0 1.0 1.0 0.0 1.0 1.0 0.0
1.0 1.0 0.0 1.0 1.0 0.0 1.0 1.0
1.0 1.0 1.0 1.0 1.0 1.0 1.0 1.0
1.0 1.0 1.0 1.0 1.0 1.0 1.0 1.0
1.0 1.0 1.0 1.0 1.0 1.0 1.0 1.0
1.0 1.0 1.0 1.0 1.0 1.0 1.0 1.0
1.0 0.0 0.0 1.0 0.0 0.0 1.0 0.0
0.0 1.0 0.0 0.0 1.0 0.0 0.0 1.0
0.0 0.0 1.0 0.0 0.0 1.0 0.0 0.0
1.0 0.0 0.0 1.0 0.0 0.0 1.0 0.0
1.0 1.0 0.0 1.0 1.0 0.0 1.0 1.0
0.0 1.0 1.0 0.0 1.0 1.0 0.0 1.0
1.0 0.0 1.0 1.0 0.0 1.0 1.0 0.0
1.0 1.0 0.0 1.0 1.0 0.0 1.0 1.0

_transform._transforms.1.autoregressive_net.blocks.0.linear_layers.1.weight f4 [32, 32]
00000000: f31c d73d f60f 263a 0dfc 7b3a a427 703d
00000010: 0b47 343a 2808 53ba 2919 cdbb 7df4 353a
00000020: 8af1 4d3a 2aff 7b3a 4871 bf38 4d5f 7339
00000030: 3467 6c3d 01c8 ddb8 d3ba 2f3a bfb3 efb9
00000040: 5d33 efb9 3839 43b8 12ae 073d ffe0 5539
00000050: 6fd1 37ba 8142 673d e847 3d3a 7d05 1bba
00000060: 849d 1a3d 5968 78ba 1bf9 d839 7f34 273e
00000070: 0184 543a 0f7d 053a a080 4c3d a034 acb9
00000080: 99db 64bd 7709 143a 84f0 b938 c576 033d
00000090: d650 adbe e81f 43ba 4452 26bc b433 f2be
000000a0: 806e 33b9 6340 3f3a a705 8e3e f9ef ecb9
000000b0: ac98 0ebe 92d0 29bf eeb5 0eba 0924 d738
000000c0: 009e 5e3f cbab d939 43e6 eabc 640f cabf
000000d0: ee04 a038 a22a eb3b c053 c1bf 4031 7cb9
000000e0: e66b 25bc e234 ac3f ec06 65ba eaab 36bd
000000f0: 7468 8bbd 983a 4439 8de2 233d c896 ab3f
00000100: 17bc 06be 3608 8139 165b f9bd 4638 24be
00000110: 33d2 bdbd a766 c6bc 13b8 8cbd dc24 6cbf
00000120: 2056 9dbd 1f17 d039 d2e0 4b3c 508a 68bd
00000130: 10b9 50bd 4609 0fbe f914 1bbd 5969 0e39
00000140: cf0c 0d3f 14b0 81be bdb9 98bd 62d9 a0be
00000150: 5801 8dbf b630 94bd e483 543e cbd7 813e
00000160: 2e37 85bd 0be0 e3be 19d6 a03e 53be 2cbd
00000170: b457 81bd 88c3 8cba 7ef3 cebd 8220 93bf
00000180: 628d b53d f8af 4c39 5501 d7b9 a26c 293d
00000190: da05 79ba c727 c4b9 826e d33b 6706 0c38
000001a0: 730b 5a3a d6b9 4fba 1994 0cb9 6d87 6b38
000001b0: 8587 6d3d ad02 343a fce9 373a 619d 6fb9
000001c0: 1984 f3b6 8c0c 8238 00a4 673d 9e2b 5239
000001d0: 0fed 66b9 d8f2 0e3d f8c6 53ba aa53 1b3a
000001e0: 3b41 4d3d 241b 7d3a 9c38 e139 7d05 15bd
000001f0: b1c5 74ba cb5e 6aba a88e f33d 5951 18b9
00000200: df45 78bd 786a f3b9 d04f e039 2659 983b
00000210: 0eac 6e3f d42b f439 776f 7a3c 7fdf 69be
00000220: d942 81ba de3e e3b9 11d0 4ebe 367e deb7
00000230: d1f3 fdbd 50bd 9b3e 9006 94b9 5b6a 1eba
00000240: 385e 873d 0550 beb9 58e6 b7bd f62c d43d
00000250: f9cf 6a3a acfe 1dbd 5ee5 783e 28c8 6fba
00000260: 8c79 37bd 8c85 c93e e090 59ba 1faa 9abd
00000270: 70be 153f 1b77 d3b8 7f99 04bd 0300 5a3f
00000280: 7f60 06be 7e1f 4f3a 711d 1dbf a99c 2dbe
00000290: eb2a a5be 7b8a 453c a79f 3fbd 9f9c 1fbf
000002a0: 3750 54bd f46d efb8 ec29 12bf e549 09bd
000002b0: 11cd 05bd e431 febe 024c 21bd acc6 043a
000002c0: 1b95 f53e 3e24 083e 7dd1 a1bd cdf0 b4be
000002d0: 4ec1 19c0 ab9e a0bd 586c fbbe 68e8 f13d
000002e0: d7e5 88bd b4b3 e5be cd55 78be d8d5 1bbd
000002f0: 2ed9 62bd 67fa 5abe c8fb b6bd c5ba bbbf
00000300: 8d55 293e 7310 a438 015d 663a 64ea dc3b
00000310: ccc7 7c3a 8ce0 083a 76d8 d93d 09be 523a
00000320: ec36 443a 4e2a 05b9 bfa8 1eba 3c55 50ba
00000330: 913f 16bd 635e f439 0739 d039 9e85 a839
00000340: a0d2 d338 2104 a2b9 a744 053e a2d9 3839
00000350: 0ffb a6b9 c131 693d e4d3 4aba 73eb 77ba
00000360: e135 853d 194c f5b9 36d6 7639 57d4 cf3d
00000370: 98e2 4b39 29b9 2b3a 880c 7f3d a617 1cb9
00000380: 566e ef3d 0d14 9d39 f851 be39 65d8 e63d
00000390: c057 4540 bff9 813a 360b 823d 1821 abbe
000003a0: c756 82ba 8480 a2b7 189f 19bd 76d8 75ba
000003b0: 2c60 353e e5bb 923f 55d4 78ba 77ad 50ba
000003c0: cce9 6dbe 6126 07ba 5c7e 053e fa58 f9bd
000003d0: 34a3 67b9 e3e2 973d f382 97be 88a4 5b3a
000003e0: 2a8f d13d dcfd e93f 8480 1eb7 de8a 043e
000003f0: cb3e 883e 7c94 54b9 ecfd 503b bb5b 25bf
0.105035685 0.0006334776 0.00096124486 0.058631554 0.00068770413 -0.00080502266 -0.006259103 0.00069410336
0.00078561215 0.00096129125 9.12869e-05 0.00023209788 0.05771561 -0.00010575355 0.0006703559 -0.00045719554
-0.000456239 -4.6544912e-05 0.03312499 0.0002039708 -0.0007012104 0.056459907 0.00072204927 -0.00059135986
0.037747875 -0.0009475998 0.00041384329 0.1632862 0.00081068283 0.00050921825 0.049927354 -0.00032845605
-0.055873487 0.00056471623 8.866287e-05 0.03209569 -0.33850735 -0.0007443414 -0.01015145 -0.4730507
-0.00017111935 0.0007295666 0.27738687 -0.0004519222 -0.13925427 -0.6633388 -0.000544398 0.00010258711
0.8695984 0.0004151746 -0.02867425 -1.5785947 7.630313e-05 0.007176713 -1.5103683 -0.0002405094
-0.010096526 1.3453639 -0.0008736688 -0.044597544 -0.06807032 0.00018713844 0.040010978 1.340539
-0.13157688 0.00024610915 -0.121755764 -0.16037092 -0.09268608 -0.02421887 -0.06871047 -0.9224374
-0.07682443 0.00039690078 0.012443738 -0.05677253 -0.05095774 -0.13968381 -0.037861798 0.0001358142
0.5509767 -0.2532965 -0.07457302 -0.3141585 -1.1016035 -0.072358534 0.20753437 0.2535995
-0.06504665 -0.4450687 0.31413344 -0.042173695 -0.06315556 -0.0010739425 -0.10105036 -1.1494296
0.08864857 0.0001952051 -0.00041008988 0.041363366 -0.0009499468 -0.0003741367 0.0064523825 3.3384564e-05
0.0008317746 -0.0007924115 -0.00013406611 5.615449e-05 0.05799057 0.0006866854 0.00070157624 -0.00022851444
-7.2573425e-06 6.20122e-05 0.056552887 0.0002004341 -0.0002202282 0.034899563 -0.000807866 0.00059252477
0.050111037 0.00096552284 0.00042957522 -0.036382187 -0.00093373196 -0.0008940517 0.11892444 -0.00014526154
-0.06061351 -0.00046427897 0.00042784074 0.004649299 0.93231285 0.0004657196 0.015285364 -0.22839163
-0.0009861841 -0.00043343654 -0.20196559 -2.6523234e-05 -0.1240002 0.3041787 -0.0002823365 -0.000604307
0.06609768 -0.00036299243 -0.089794815 0.10360138 0.0008957382 -0.038572952 0.24306247 -0.0009146952
-0.04479365 0.393597 -0.0008299481 -0.07551979 0.5849371 -0.00010083449 -0.032372948 0.8515627
-0.13122748 0.0007901116 -0.6137305 -0.16954292 -0.32259306 0.012056942 -0.046783116 -0.6234836
-0.05183431 -0.000114168884 -0.5709522 -0.033517737 -0.03266627 -0.4964744 -0.039379127 0.0005065005
0.4796532 0.13295075 -0.07901285 -0.35339966 -2.4024234 -0.078427635 -0.49106097 0.11811906
-0.066844635 -0.44863665 -0.2425148 -0.038045734 -0.0553829 -0.21384583 -0.08934742 -1.4666373
0.16536541 7.823193e-05 0.00087876624 0.0067418087 0.0009642809 0.00052214484 0.1063699 0.00080391817
0.00074849906 -0.00012699628 -0.0006052367 -0.0007947271 -0.036681715 0.0004660963 0.0003971534 0.0003214301
0.00010100496 -0.00030902124 0.1301447 0.00017628682 -0.0003184904 0.056932215 -0.00077372626 -0.0009457387
0.06504417 -0.0004678674 0.00023540188 0.101479225 0.00019444001 0.00065507233 0.06226781 -0.00014886129
0.11690967 0.00029960313 0.00036300696 0.11271743 3.0834808 0.0009916349 0.063497946 -0.33423686
-0.0009944075 -1.937175e-05 -0.03750524 -0.00093782635 0.17712468 1.1463591 -0.0009492089 -0.00079604186
-0.23233718 -0.000515556 0.13036484 -0.12175174 -0.00022090675 0.07416322 -0.29592094 0.0008378704
0.102323845 1.8280597 -9.447456e-06 0.12943599 0.26610407 -0.0002027321 0.003188963 -0.64593095

_transform._transforms.1.autoregressive_net.blocks.0.linear_layers.1.bias f4 [32]
00000000: 549c 023e 5ce9 593e 4a66 aebe 8dcb 68bd
00000010: 02d1 d7be 79cc 26bf 2596 9bbc a0c5 003f
00000020: 32f7 e9be 3f78 ba3d 5e06 f5bd c1c0 1f3e
00000030: 4c5c 983c 0ff3 af3e e2e6 0d3d 285c e93d
00000040: f698 85be 98fe a6bd 2648 f9bc 5637 a23d
00000050: 687b 843e ff52 163e 9047 cabe 84b5 9a3e
00000060: 1212 3ebc 453b 61be 3207 8cbf 411c 423c
00000070: f644 85be 8923 00bf bb8c 5a3d d630 df3d
0.12754947 0.21280426 -0.34062415 -0.056834746 -0.42151648 -0.6515575 -0.018992493 0.5030155
-0.45696408 0.09104966 -0.11964105 0.15600874 0.018598698 0.34365126 0.034644015 0.113945305
-0.26093262 -0.08154029 -0.03042991 0.07920711 0.25875401 0.14680098 -0.39507723 0.3021661
-0.011600988 -0.21995266 -1.0939696 0.011847557 -0.26029176 -0.5005422 0.053356867 0.108979866

_transform._transforms.1.autoregressive_net.blocks.0.linear_layers.1.mask f4 [32, 32]
00000000: 0000 803f 0000 0000 0000 0000 0000 803f
00000010: 0000 0000 0000 0000 0000 803f 0000 0000
00000020: 0000 0000 0000 803f 0000 0000 0000 0000
00000030: 0000 803f 0000 0000 0000 0000 0000 803f
00000040: 0000 0000 0000 0000 0000 803f 0000 0000
00000050: 0000 0000 0000 803f 0000 0000 0000 0000
00000060: 0000 803f 0000 0000 0000 0000 0000 803f
00000070: 0000 0000 0000 0000 0000 803f 0000 0000
00000080: 0000 803f 0000 803f 0000 0000 0000 803f
00000090: 0000 803f 0000 0000 0000 803f 0000 803f
000000a0: 0000 0000 0000 803f 0000 803f 0000 0000
000000b0: 0000 803f 0000 803f 0000 0000 0000 803f
000000c0: 0000 803f 0000 0000 0000 803f 0000 803f
000000d0: 0000 0000 0000 803f 0000 803f 0000 0000
000000e0: 0000 803f 0000 803f 0000 0000 0000 803f
000000f0: 0000 803f 0000 0000 0000 803f 0000 803f
00000100: 0000 803f 0000 803f 0000 803f 0000 803f
00000110: 0000 803f 0000 803f 0000 803f 0000 803f
00000120: 0000 803f 0000 803f 0000 803f 0000 803f
00000130: 0000 803f 0000 803f 0000 803f 0000 803f
00000140: 0000 803f 0000 803f 0000 803f 0000 803f
00000150: 0000 803f 0000 803f 0000 803f 0000 803f
00000160: 0000 803f 0000 803f 0000 803f 0000 803f
00000170: 0000 803f 0000 803f 0000 803f 0000 803f
00000180: 0000 803f 0000 0000 0000 0000 0000 803f
00000190: 0000 0000 0000 0000 0000 803f 0000 0000
000001a0: 0000 0000 0000 803f 0000 0000 0000 0000
000001b0: 0000 803f 0000 0000 0000 0000 0000 803f
000001c0: 0000 0000 0000 0000 0000 803f 0000 0000
000001d0: 0000 0000 0000 803f 0000 0000 0000 0000
000001e0: 0000 803f 0000 0000 0000 0000 0000 803f
000001f0: 0000 0000 0000 0000 0000 803f 0000 0000
00000200: 0000 803f 0000 803f 0000 0000 0000 803f
00000210: 0000 803f 0000 0000 0000 803f 0000 803f
00000220: 0000 0000 0000 803f 0000 803f 0000 0000
00000230: 0000 803f 0000 803f 0000 0000 0000 803f
00000240: 0000 803f 0000 0000 0000 803f 0000 803f
00000250: 0000 0000 0000 803f 0000 803f 0000 0000
00000260: 0000 803f 0000 803f 0000 0000 0000 803f
00000270: 0000 803f 0000 0000 0000 803f 0000 803f
00000280: 0000 803f 0000 803f 0000 803f 0000 803f
00000290: 0000 803f 0000 803f 0000 803f 0000 803f
000002a0: 0000 803f 0000 803f 0000 803f 0000 803f
000002b0: 0000 803f 0000 803f 0000 803f 0000 803f
000002c0: 0000 803f 0000 803f 0000 803f 0000 803f
000002d0: 0000 803f 0000 803f 0000 803f 0000 803f
000002e0: 0000 803f 0000 803f 0000 803f 0000 803f
000002f0: 0000 803f 0000 803f 0000 803f 0000 803f
00000300: 0000 803f 0000 0000 0000 0000 0000 803f
00000310: 0000 0000 0000 0000 0000 803f 0000 0000
00000320: 0000 0000 0000 803f 0000 0000 0000 0000
00000330: 0000 803f 0000 0000 0000 0000 0000 803f
00000340: 0000 0000 0000 0000 0000 803f 0000 0000
00000350: 0000 0000 0000 803f 0000 0000 0000 0000
00000360: 0000 803f 0000 0000 0000 0000 0000 803f
00000370: 0000 0000 0000 0000 0000 803f 0000 0000
00000380: 0000 803f 0000 803f 0000 0000 0000 803f
00000390: 0000 803f 0000 0000 0000 803f 0000 803f
000003a0: 0000 0000 0000 803f 0000 803f 0000 0000
000003b0: 0000 803f 0000 803f 0000 0000 0000 803f
000003c0: 0000 803f 0000 0000 0000 803f 0000 803f
000003d0: 0000 0000 0000 803f 0000 803f 0000 0000
000003e0: 0000 803f 0000 803f 0000 0000 0000 803f
000003f0: 0000 803f 0000 0000 0000 803f 0000 803f
1.0 0.0 0.0 1.0 0.0 0.0 1.0 0.0
0.0 1.0 0.0 0.0 1.0 0.0 0.0 1.0
0.0 0.0 1.0 0.0 0.0 1.0 0.0 0.0
1.0 0.0 0.0 1.0 0.0 0.0 1.0 0.0
1.0 1.0 0.0 1.0 1.0 0.0 1.0 1.0
0.0 1.0 1.0 0.0 1.0 1.0 0.0 1.0
1.0 0.0 1.0 1.0 0.0 1.0 1.0 0.0
1.0 1.0 0.0 1.0 1.0 0.0 1.0 1.0
1.0 1.0 1.0 1.0 1.0 1.0 1.0 1.0
1.0 1.0 1.0 1.0 1.0 1.0 1.0 1.0
1.0 1.0 1.0 1.0 1.0 1.0 1.0 1.0
1.0 1.0 1.0 1.0 1.0 1.0 1.0 1.0
1.0 0.0 0.0 1.0 0.0 0.0 1.0 0.0
0.0 1.0 0.0 0.0 1.0 0.0 0.0 1.0
0.0 0.0 1.0 0.0 0.0 1.0 0.0 0.0
1.0 0.0 0.0 1.0 0.0 0.0 1.0 0.0
1.0 1.0 0.0 1.0 1.0 0.0 1.0 1.0
0.0 1.0 1.0 0.0 1.0 1.0 0.0 1.0
1.0 0.0 1.0 1.0 0.0 1.0 1.0 0.0
1.0 1.0 0.0 1.0 1.0 0.0 1.0 1.0
1.0 1.0 1.0 1.0 1.0 1.0 1.0 1.0
1.0 1.0 1.0 1.0 1.0 1.0 1.0 1.0
1.0 1.0 1.0 1.0 1.0 1.0 1.0 1.0
1.0 1.0 1.0 1.0 1.0 1.0 1.0 1.0
1.0 0.0 0.0 1.0 0.0 0.0 1.0 0.0
0.0 1.0 0.0 0.0 1.0 0.0 0.0 1.0
0.0 0.0 1.0 0.0 0.0 1.0 0.0 0.0
1.0 0.0 0.0 1.0 0.0 0.0 1.0 0.0
1.0 1.0 0.0 1.0 1.0 0.0 1.0 1.0
0.0 1.0 1.0 0.0 1.0 1.0 0.0 1.0
1.0 0.0 1.0 1.0 0.0 1.0 1.0 0.0
1.0 1.0 0.0 1.0 1.0 0.0 1.0 1.0

_transform._transforms.1.autoregressive_net.blocks.1.linear_layers.0.weight f4 [32, 32]
00000000: d40a c33d 78f1 e9bb 909c 2e3e 2ea9 9abd
00000010: b22b 01be 7323 8ebc 65f4 d6bd 3db2 2cbe
00000020: ef77 e7bd 9d55 2dbe 644e 8d3d 47c0 61bd
00000030: c493 a83c c2ee 18bd 1364 023e 8959 7abe
00000040: a4d6 80bc 98e1 cb3d 3f9a 853d ac54 e03d
00000050: b24d 1b3d 193d a23b 36f0 a1bc 235c dc3d
00000060: dcdc f0bd cc40 303e efb4 e7bc 1aa6 5ebe
00000070: 3391 85bd af5d d43c cd0c e53d b274 28be
00000080: 22ab b9bd 2abd 88bd ee94 02be d7d1 5d3d
00000090: 65b5 db3b 3e3e 813d 093b 3ebe f858 763d
000000a0: e339 58bd 84de 53bd 68c5 4ebe 59dd ce3a
000000b0: 2b41 8cbd 571f 153c 8bcf 15be e585 d13d
000000c0: 02c6 a0bd 65a1 98bc 9b67 e0bd e5c2 97bd
000000d0: 535c 04be ab18 bc3d 1fc2 003e 53d8 0cbd
000000e0: 41b5 34be 58e1 2c3e 3723 08be b2ec 02be
000000f0: 7e5f ca3b c77e de3c 09f2 ce3d 3256 1ebe
00000100: 4e22 cf3d 8937 c6bd 3629 7cbd bec3 453d
00000110: 8773 903c 8956 003e 4dc7 cabc 5c3e 22be
00000120: 13fd 30be ce3c a6bd 7ded a93d ecd3 c8bd
00000130: a3a5 3e3e 0b42 a3bd a77b 60be 42e8 a4bd
00000140: 1368 b1bc 6916 1c3c 870d 91be 86ce 193d
00000150: 7e07 01be a6c3 7cbc e1a5 9ebd cfdf 32be
00000160: ebad 2ebe 28ea ebbd d93a 763d d979 c6bd
00000170: 583a 90bd 092c 80be 07ce 06be f4d5 8ebc
00000180: 6b05 58bd c5c1 b13d 7a48 bebd c1f1 40be
00000190: 5039 0ebe 189d 8e3d 7e12 91bd ac1a e93d
000001a0: d2ff d23d 769b 4cbd cef0 bf3c cc4d 0a3e
000001b0: e3fc 2bbd 10e5 d83d 7fa4 3cbd aae9 2cbb
000001c0: 9bb2 0c3e 5110 14be 0819 27be c801 3b3d
000001d0: 9512 dbbb 6afc 3fbd e610 4bbd ab6c da3d
000001e0: 9716 e4bd dcd3 173e c9ab 07be a24e 0cbe
000001f0: df51 ebbc 0e51 d23b 30ae 7bbe e323 e7bd
00000200: 399a 02bf 1643 a33e 5b21 723d eb00 d1bc
00000210: a73c 70bf 1dc5 6abd 7369 20bf 4059 e13e
00000220: 9f28 21be 4a27 46bf 79c2 a1bf 201c 173e
00000230: fc83 2c3d b2e3 073f 7908 c63d a19b bc3d
00000240: d105 36bf 90bc 963d c896 81be 629b 063f
00000250: d255 10be 817c 013d 5da8 3f3f e093 29be
00000260: 8be3 3bbf 573c 4dbd 4631 ec3c eeae 46be
00000270: 6458 bc3e 14e5 f0bd 6591 16bf 028d 53bd
00000280: 4900 aa3d 1882 01c0 1b69 2abe 8816 aabd
00000290: 06fa 3a40 d5a1 17bf 24ef 833e 2c85 283f
000002a0: b57e 493f e7ff aabd 1f90 1fbe d50f e73e
000002b0: 1429 f5bd 333d abbd 727e 163e e937 0b3f
000002c0: 8a26 e63e 877a 44be 4872 37bd ae92 4f3d
000002d0: 611d a1be ce72 af3d e2b2 1d3f 3121 c3be
000002e0: 7d16 01bf bf58 a83d 0cf2 56be ad5a 883f
000002f0: cf84 08bd 31e6 84bf b43b 9b3c 25e1 2fbf
00000300: f79f a1be 14de edbd 8548 adbb 047a 80be
00000310: eed9 27be 898a 2f3d e523 a2be 0329 31bd
00000320: 4cd1 08bd 2dbe 69be 2aab d9bd f0ea 933c
00000330: 3eae c9bc 4723 0ebe 7c1b 033e d7d4 0cbe
00000340: ad49 0ebd 7eb7 343e 86e9 03be d923 013d
00000350: e775 213d 4a01 bcbe 7c69 323e edec 02be
00000360: fdb8 83bd 377d e33d 1bb0 2f3e 650f 2b3e
00000370: d886 243e aa25 ca3d c6d5 ccbe 171e dc3d
00000380: f696 483d 24cb d13d 61b4 f4bd a1de 8fbd
00000390: db2a b1bf 527c 12be 68a4 b23d 92cf b23d
000003a0: f2bc 7e3d 9bb7 693e eb4f a53f 3558 ab3d
000003b0: ad1a c33e f4aa 94bf dc15 f73d 2132 2ebd
000003c0: 5797 f2be 3ecc db3c 6e3b 133b 1c25 c1be
000003d0: 3093 313e 9609 223e 0ae8 1ec0 805a 17be
000003e0: 0809 363f 29ae 8d3e c899 d5bd 8356 513e
000003f0: 8788 6a3f 8fba edbc a030 113f 7990 7bbf
0.0952355 -0.007139381 0.17051911 -0.075518 -0.12614325 -0.017350888 -0.10495833 -0.16864868
-0.113021724 -0.1692719 0.068997175 -0.05511501 0.020578273 -0.037337072 0.12733488 -0.24448217
-0.015727349 0.09955138 0.06523561 0.1095365 0.037915893 0.004951131 -0.019767862 0.10759761
-0.117608756 0.17212218 -0.028284518 -0.2174305 -0.06521835 0.025923578 0.11184082 -0.16450766
-0.09065844 -0.06676705 -0.12752125 0.054155197 0.0067049735 0.063107 -0.18577208 0.06014344
-0.05278958 -0.05172588 -0.20192492 0.001578252 -0.06848367 0.00910171 -0.14629953 0.102306165
-0.07850267 -0.018631646 -0.10957261 -0.0741022 -0.12925844 0.091843925 0.12574051 -0.03438599
-0.17647268 0.16882837 -0.13294683 -0.12785605 0.0061759343 0.027160062 0.10104758 -0.15462568
0.10113965 -0.09678561 -0.06156274 0.048282377 0.017633213 0.1253301 -0.024753237 -0.158441
-0.1728404 -0.08117066 0.082972504 -0.09806046 0.18617873 -0.07971581 -0.2192217 -0.08052112
-0.021656072 0.009526827 -0.28330633 0.03755047 -0.12600514 -0.015427506 -0.07746483 -0.17468189
-0.17058532 -0.11519271 0.060114715 -0.09691209 -0.07042378 -0.25033596 -0.1316453 -0.017436005
-0.052739542 0.08679537 -0.092911676 -0.18842222 -0.1388905 0.06963557 -0.07083605 0.113820404
0.103027 -0.049952947 0.023430254 0.1350624 -0.04198922 0.10590565 -0.046055313 -0.0026384392
0.13740008 -0.14459349 -0.16318142 0.045655996 -0.0066855648 -0.04687158 -0.049576662 0.10665258
-0.11137121 0.14826912 -0.13249125 -0.13701871 -0.028725563 0.006418354 -0.24578166 -0.11286142
-0.51016575 0.3188712 0.05911384 -0.025513133 -0.9384255 -0.057316888 -0.626609 0.44013405
-0.15738152 -0.774037 -1.2637473 0.14756823 0.042118058 0.5308181 0.09669585 0.09209371
-0.71102625 0.07360184 -0.2531035 0.52580845 -0.14095238 0.031612877 0.74866277 -0.16560316
-0.7339408 -0.050106373 0.02883209 -0.19402668 0.36786187 -0.11762443 -0.58815604 -0.051648147
0.08300836 -2.0235653 -0.16641657 -0.08305079 2.9215102 -0.5923131 0.25768387 0.65828204
0.78708965 -0.08349591 -0.15582322 0.45129266 -0.11970726 -0.08361282 0.14696673 0.5438219
0.44951278 -0.19187365 -0.04478672 0.050676994 -0.31467727 0.08566819 0.6160108 -0.3811126
-0.5042494 0.08220052 -0.20990771 1.0652672 -0.03332978 -1.0382749 0.018949367 -0.6870292
-0.31567356 -0.11614624 -0.005288186 -0.2509309 -0.16391727 0.042856727 -0.3166801 -0.043252002
-0.033402726 -0.22826453 -0.1062835 0.018056363 -0.024619218 -0.13880645 0.12803453 -0.13753067
-0.03473823 0.17648122 -0.12882051 0.031528328 0.03941908 -0.36719733 0.17423052 -0.12785693
-0.06431768 0.11107867 0.17157023 0.16705091 0.16067064 0.09870465 -0.40006846 0.10747927
0.048972093 0.10243824 -0.11948467 -0.07024885 -1.3841203 -0.14305237 0.08722764 0.08730997
0.06219191 0.22823946 1.2915014 0.083664335 0.3810629 -1.1614671 0.12064716 -0.042528275
-0.47381088 0.026830789 0.0022465843 -0.37723625 0.17341304 0.15823969 -2.4829125 -0.14780617
0.7110753 0.27671936 -0.10429722 0.20443158 0.91614574 -0.029019622 0.5671482 -0.9826732

_transform._transforms.1.autoregressive_net.blocks.1.linear_layers.0.bias f4 [32]
00000000: 6daa b7bd f3e1 6abe cbf2 61bd 52ee f5bb
00000010: 19c4 91bf 0237 e8bd 168b 91bd ed4c 7cbd
00000020: 83af 0d3e c713 16bd 2a2d 88be beef 32be
00000030: 2c9a 06be e3c7 81bf 9ddf a2be eb4a e8bd
00000040: 4bb7 00be 03d4 70bf 6edb bebd ad19 f3bd
00000050: be9b 9e3f 8e9a 4fbd 506a 4b3d faf6 36be
00000060: 3978 17be 0652 15bf 5e70 abbd 4ab8 02be
00000070: 91a5 febe 328b 103e d163 45bd a0f0 28bf
-0.08968053 -0.22937755 -0.055163186 -0.0075052166 -1.1387969 -0.11338617 -0.07106607 -0.0615968
0.13836484 -0.036639955 -0.26596957 -0.17474267 -0.1314475 -1.0139126 -0.31811228 -0.113424145
-0.1256992 -0.94073504 -0.09319197 -0.11870132 1.2391279 -0.050684504 0.049661934 -0.17867652
-0.14791955 -0.5832828 -0.08371042 -0.12765613 -0.49735692 0.14115599 -0.048190895 -0.65992165

_transform._transforms.1.autoregressive_net.blocks.1.linear_layers.0.mask f4 [32, 32]
00000000: 0000 803f 0000 0000 0000 0000 0000 803f
00000010: 0000 0000 0000 0000 0000 803f 0000 0000
00000020: 0000 0000 0000 803f 0000 0000 0000 0000
00000030: 0000 803f 0000 0000 0000 0000 0000 803f
00000040: 0000 0000 0000 0000 0000 803f 0000 0000
00000050: 0000 0000 0000 803f 0000 0000 0000 0000
00000060: 0000 803f 0000 0000 0000 0000 0000 803f
00000070: 0000 0000 0000 0000 0000 803f 0000 0000
00000080: 0000 803f 0000 803f 0000 0000 0000 803f
00000090: 0000 803f 0000 0000 0000 803f 0000 803f
000000a0: 0000 0000 0000 803f 0000 803f 0000 0000
000000b0: 0000 803f 0000 803f 0000 0000 0000 803f
000000c0: 0000 803f 0000 0000 0000 803f 0000 803f
000000d0: 0000 0000 0000 803f 0000 803f 0000 0000
000000e0: 0000 803f 0000 803f 0000 0000 0000 803f
000000f0: 0000 803f 0000 0000 0000 803f 0000 803f
00000100: 0000 803f 0000 803f 0000 803f 0000 803f
00000110: 0000 803f 0000 803f 0000 803f 0000 803f
00000120: 0000 803f 0000 803f 0000 803f 0000 803f
00000130: 0000 803f 0000 803f 0000 803f 0000 803f
00000140: 0000 803f 0000 803f 0000 803f 0000 803f
00000150: 0000 803f 0000 803f 0000 803f 0000 803f
00000160: 0000 803f 0000 803f 0000 803f 0000 803f
00000170: 0000 803f 0000 803f 0000 803f 0000 803f
00000180: 0000 803f 0000 0000 0000 0000 0000 803f
00000190: 0000 0000 0000 0000 0000 803f 0000 0000
000001a0: 0000 0000 0000 803f 0000 0000 0000 0000
000001b0: 0000 803f 0000 0000 0000 0000 0000 803f
000001c0: 0000 0000 0000 0000 0000 803f 0000 0000
000001d0: 0000 0000 0000 803f 0000 0000 0000 0000
000001e0: 0000 803f 0000 0000 0000 0000 0000 803f
000001f0: 0000 0000 0000 0000 0000 803f 0000 0000
00000200: 0000 803f 0000 803f 0000 0000 0000 803f
00000210: 0000 803f 0000 0000 0000 803f 0000 803f
00000220: 0000 0000 0000 803f 0000 803f 0000 0000
00000230: 0000 803f 0000 803f 0000 0000 0000 803f
00000240: 0000 803f 0000 0000 0000 803f 0000 803f
00000250: 0000 0000 0000 803f 0000 803f 0000 0000
00000260: 0000 803f 0000 803f 0000 0000 0000 803f
00000270: 0000 803f 0000 0000 0000 803f 0000 803f
00000280: 0000 803f 0000 803f 0000 803f 0000 803f
00000290: 0000 803f 0000 803f 0000 803f 0000 803f
000002a0: 0000 803f 0000 803f 0000 803f 0000 803f
000002b0: 0000 803f 0000 803f 0000 803f 0000 803f
000002c0: 0000 803f 0000 803f 0000 803f 0000 803f
000002d0: 0000 803f 0000 803f 0000 803f 0000 803f
000002e0: 0000 803f 0000 803f 0000 803f 0000 803f
000002f0: 0000 803f 0000 803f 0000 803f 0000 803f
00000300: 0000 803f 0000 0000 0000 0000 0000 803f
00000310: 0000 0000 0000 0000 0000 803f 0000 0000
00000320: 0000 0000 0000 803f 0000 0000 0000 0000
00000330: 0000 803f 0000 0000 0000 0000 0000 803f
00000340: 0000 0000 0000 0000 0000 803f 0000 0000
00000350: 0000 0000 0000 803f 0000 0000 0000 0000
00000360: 0000 803f 0000 0000 0000 0000 0000 803f
00000370: 0000 0000 0000 0000 0000 803f 0000 0000
00000380: 0000 803f 0000 803f 0000 0000 0000 803f
00000390: 0000 803f 0000 0000 0000 803f 0000 803f
000003a0: 0000 0000 0000 803f 0000 803f 0000 0000
000003b0: 0000 803f 0000 803f 0000 0000 0000 803f
000003c0: 0000 803f 0000 0000 0000 803f 0000 803f
000003d0: 0000 0000 0000 803f 0000 803f 0000 0000
000003e0: 0000 803f 0000 803f 0000 0000 0000 803f
000003f0: 0000 803f 0000 0000 0000 803f 0000 803f
1.0 0.0 0.0 1.0 0.0 0.0 1.0 0.0
0.0 1.0 0.0 0.0 1.0 0.0 0.0 1.0
0.0 0.0 1.0 0.0 0.0 1.0 0.0 0.0
1.0 0.0 0.0 1.0 0.0 0.0 1.0 0.0
1.0 1.0 0.0 1.0 1.0 0.0 1.0 1.0
0.0 1.0 1.0 0.0 1.0 1.0 0.0 1.0
1.0 0.0 1.0 1.0 0.0 1.0 1.0 0.0
1.0 1.0 0.0 1.0 1.0 0.0 1.0 1.0
1.0 1.0 1.0 1.0 1.0 1.0 1.0 1.0
1.0 1.0 1.0 1.0 1.0 1.0 1.0 1.0
1.0 1.0 1.0 1.0 1.0 1.0 1.0 1.0
1.0 1.0 1.0 1.0 1.0 1.0 1.0 1.0
1.0 0.0 0.0 1.0 0.0 0.0 1.0 0.0
0.0 1.0 0.0 0.0 1.0 0.0 0.0 1.0
0.0 0.0 1.0 0.0 0.0 1.0 0.0 0.0
1.0 0.0 0.0 1.0 0.0 0.0 1.0 0.0
1.0 1.0 0.0 1.0 1.0 0.0 1.0 1.0
0.0 1.0 1.0 0.0 1.0 1.0 0.0 1.0
1.0 0.0 1.0 1.0 0.0 1.0 1.0 0.0
1.0 1.0 0.0 1.0 1.0 0.0 1.0 1.0
1.0 1.0 1.0 1.0 1.0 1.0 1.0 1.0
1.0 1.0 1.0 1.0 1.0 1.0 1.0 1.0
1.0 1.0 1.0 1.0 1.0 1.0 1.0 1.0
1.0 1.0 1.0 1.0 1.0 1.0 1.0 1.0
1.0 0.0 0.0 1.0 0.0 0.0 1.0 0.0
0.0 1.0 0.0 0.0 1.0 0.0 0.0 1.0
0.0 0.0 1.0 0.0 0.0 1.0 0.0 0.0
1.0 0.0 0.0 1.0 0.0 0.0 1.0 0.0
1.0 1.0 0.0 1.0 1.0 0.0 1.0 1.0
0.0 1.0 1.0 0.0 1.0 1.0 0.0 1.0
1.0 0.0 1.0 1.0 0.0 1.0 1.0 0.0
1.0 1.0 0.0 1.0 1.0 0.0 1.0 1.0

_transform._transforms.1.autoregressive_net.blocks.1.linear_layers.1.weight f4 [32, 32]
00000000: f813 c03c 7da7 9739 65e1 4c3a b7f8 9e3d
00000010: 32a1 043a d0e1 f539 b1f4 583d 98a6 3bba
00000020: cf5f a3b9 ec21 bb3c a495 0b3a 38d1 c5b9
00000030: 2c19 823e 691b 333a f456 813a 9871 d93d
00000040: ec89 77ba f2b6 39b9 3819 8a3d 8606 11ba
00000050: d4b7 4cba c589 853d 3493 61ba c59c 2739
00000060: 99c0 1b3e a846 3439 c323 dab9 0bec 353d
00000070: ea47 5c3a aa1b a339 a1e5 ef3c 1f4f 493a
00000080: e41c 01bd bb73 3dbd 3898 29ba d4fe 62bd
00000090: 2035 0dbf 1918 3fb9 1036 4cbe ff20 1f3f
000000a0: fcb9 0d38 ec93 31bc 8c20 063f deb6 7eba
000000b0: 082c d1be f373 52be de52 48ba b4c2 57be
000000c0: 8a5d a93f 00a0 80b7 6ad0 20bc 72b1 343f
000000d0: 900c 6cba e442 b5bd dc5d c9be 7a49 f4b7
000000e0: 50ce 0bbf 62c9 29bd c3cf a8b9 e7d8 0cbd
000000f0: fdf9 3f3f 368e 90b8 5452 eb3c 4880 4abf
00000100: eb7c 58bd 5cca e7ba 41f2 04bd a646 68bd
00000110: 9446 063d 081c bc3d ba9a aabd 103f a03e
00000120: b1ef ad3e 4171 44bc 4063 3f3e f986 17bd
00000130: 088f 7ebe 4a1b 153f 2d89 62bc 4f4f 77be
00000140: b40d 8b3e 937c fabd d939 b3bd c2cc 853e
00000150: 581e d8bd af7b e5bd 85fa a5be 5bb1 f2bc
00000160: 357f 7ebb 4275 41be 7651 9ebd ce55 6cbd
00000170: 89ca 98bd 5c3f 9cbd 3b12 c13b 4cfa e0be
00000180: 1ba2 523d 48fe 7eba 3a5d 08ba 1340 af3d
00000190: 03cf eb39 a20e 0aba 294b 5abe af4f 0cb9
000001a0: 9c4c 42ba 00de 3a3d b117 08ba 5ddf c138
000001b0: 31d0 fd3d 6790 09ba 4039 3539 bb5b fcbd
000001c0: b3e9 27b9 5b49 28ba 63c7 c53d 5469 1a3a
000001d0: 440b cf36 492b f13d b187 263a 4cc5 c139
000001e0: 7c25 8abe 1775 683a 9682 31ba d518 843d
000001f0: 4ada c2b9 b705 6cba 4d02 79bc 30bd d7b9
00000200: 2f18 afbc 8ebe 92bc 6f54 47ba 9d5e 763a
00000210: 50b4 8bbd 38ed 50ba 6b22 8a3e ac13 c0be
00000220: a07c 1cba 7f03 163d 7c72 1c3c d8f7 f239
00000230: 1ab1 bdbd cf22 dcbe c183 13ba 8d41 0d3e
00000240: 13de fb3d c5d5 2dba 09fb b4bb 48d9 1c3f
00000250: f401 6ab9 a62f 67bc 312a 8b3d 3c46 653a
00000260: 9634 433e ba45 52be 4234 b8b9 d24d 35bd
00000270: ae0a b53e 4fdf 5d3a 3b3a 27bc 3095 1abf
00000280: 1174 c4bc ae0a 4bbb 51dc c3bc 543f 36bd
00000290: d139 9ebe d450 42bf cb00 b9bd cb2d 483e
000002a0: f25f 283e dcb7 1cbc 83e5 1dbe d8d8 0ebd
000002b0: 92eb 81be 5d10 7e3f aed4 c83b 88fe 7abe
000002c0: e662 473e fb0c 65be 78a4 a5bd 3ae7 58be
000002d0: 3f12 ddbe 9513 d5bd 82a2 08bf 1ece 87bb
000002e0: 5006 7abb 19d6 23bf eb8e 4fbd f833 5ebd
000002f0: 6942 e2bd e315 55bf cf0e bb3b a478 4fbf
00000300: 11a7 2c3d a04d 6dba 61d5 5538 b716 2e3d
00000310: b793 64b8 828d 41b9 6832 a33d a97f 6b3a
00000320: 59ab e039 f482 073e 070e 47ba 7d3a 213a
00000330: 774b e43d 5bf2 c739 b74d 8db9 c47c 783b
00000340: af19 de39 a269 dcb9 48fa 6e3d 4f52 f1b8
00000350: de64 13b8 58f4 ac3d b773 d6b8 b530 f038
00000360: ce1c 8abe bd0d 1b3a 880e d2b9 0b8c 7b3d
00000370: 9052 1539 d1ae 293a 3d21 373d 0dc6 3d39
00000380: 77c2 833d 1858 793d fde4 49ba 4ae9 d43d
00000390: c896 883c 035b 4639 54d1 66be e146 af3f
000003a0: 0b48 573a a66d 953c 4708 023f 7bba 073a
000003b0: 2369 5cbe 64a4 e13e b3b1 ea39 8a47 30bd
000003c0: c7e3 07c0 8c08 5dba 8173 c53c eab4 ef3f
000003d0: accc 11ba 5d82 bc3d 9001 a33f 534c e5b9
000003e0: 7ac9 6cbe 5357 26be 6699 823a 47ca 913d
000003f0: 7651 873c 1bc3 6b3a b869 633d 0d67 25c0
0.023447022 0.00028925753 0.0007815569 0.07762282 0.00050594204 0.00046898285 0.05296773 -0.0007158308
-0.00031161166 0.022843324 0.00053247274 -0.00037730648 0.2540983 0.00068323925 0.0009867833 0.106173694
-0.0009442854 -0.00017711127 0.06743091 -0.0005532283 -0.0007809375 0.06520418 -0.0008605004 0.00015984762
0.15210189 0.00017192459 -0.00041606845 0.04441456 0.000840305 0.00031110394 0.0292843 0.00076793315
-0.031521693 -0.046252947 -0.0006469521 -0.055418804 -0.5515919 -0.00018224157 -0.19942498 0.62159723
3.379023e-05 -0.01083849 0.5239341 -0.00097165804 -0.40853906 -0.20552044 -0.00076417427 -0.21070367
1.3231671 -1.5333295e-05 -0.009815315 0.7058326 -0.00090045575 -0.08850649 -0.39329422 -2.9121282e-05
-0.5461168 -0.04145182 -0.00032198252 -0.03438654 0.74990827 -6.892944e-05 0.02872578 -0.7910199
-0.052853506 -0.0017684209 -0.032457594 -0.056708 0.032782152 0.09185034 -0.08330293 0.31298113
0.33971933 -0.011989892 0.18690205 -0.036993954 -0.2485925 0.58244765 -0.013826651 -0.24151348
0.27158892 -0.12230792 -0.08751268 0.2613278 -0.105526626 -0.112052314 -0.32417694 -0.029625585
-0.0038833146 -0.18892387 -0.07730381 -0.057699017 -0.074605055 -0.07629272 0.005892066 -0.4394096
0.051424127 -0.0009727222 -0.000520188 0.08557143 0.0004497693 -0.00052664627 -0.21317734 -0.00013381125
-0.00074119284 0.045621872 -0.00051915186 9.244562e-05 0.12393225 -0.0005247653 0.00017282832 -0.12322184
-0.00016013421 -0.0006419622 0.096571706 0.0005890329 6.170392e-06 0.11775834 0.0006352617 0.00036958826
-0.26981723 0.00088675454 -0.0006771473 0.06450049 -0.00037165202 -0.0009003537 -0.015198302 -0.0004114895
-0.021373836 -0.01791313 -0.0007603829 0.0009398254 -0.06821501 -0.00079699187 0.26979384 -0.37515008
-0.00059694983 0.036624428 0.00954878 0.00046342495 -0.09262295 -0.42995307 -0.0005627238 0.13794537
0.12298217 -0.00066312804 -0.00552309 0.61269045 -0.00022316707 -0.014110481 0.06795157 0.00087461225
0.19063029 -0.20534411 -0.0003513415 -0.04426367 0.3535971 0.00084637565 -0.010206754 -0.6038389
-0.023981126 -0.0030981707 -0.023908766 -0.04449399 -0.30903485 -0.75904584 -0.09033354 0.19548719
0.1644285 -0.00956532 -0.15419583 -0.034874767 -0.25375038 0.9924372 0.006128869 -0.24511158
0.1947132 -0.22368233 -0.080880105 -0.21181956 -0.43177983 -0.104041256 -0.5337297 -0.004144444
-0.0038150735 -0.6399856 -0.050673407 -0.05424878 -0.11047823 -0.8323652 0.0057085524 -0.8104346
0.042151514 -0.00090523995 5.0981882e-05 0.04250213 -5.4497006e-05 -0.0001845863 0.079685986 0.00089835614
0.00042852273 0.13233548 -0.0007593338 0.0006150378 0.11147206 0.00038136807 -0.00026951518 0.0037916163
0.00042362275 -0.00042040373 0.058344156 -0.00011507107 -3.514147e-05 0.08445042 -0.00010225869 0.00011453164
-0.269751 0.0005914828 -0.00040065148 0.061412852 0.00014240504 0.0006472888 0.044709433 0.00018098224
0.064335756 0.06087503 -0.00077016634 0.10396059 0.01667346 0.00018916656 -0.2254079 1.3693506
0.00082123344 0.018240761 0.5079388 0.0005177629 -0.21524481 0.44070733 0.00044764354 -0.043036975
-2.1232774 -0.00084317545 0.024102928 1.8727086 -0.00055618095 0.09204552 1.2734852 -0.0004373515
-0.23123732 -0.16244249 0.0009963929 0.071186595 0.016518336 0.00089936116 0.055520743 -2.5844147

_transform._transforms.1.autoregressive_net.blocks.1.linear_layers.1.bias f4 [32]
00000000: 773c 203e 890d 1dbd 2e79 1abe f815 803e
00000010: f3a4 143f 420d d9be 6897 433e 7df6 c63d
00000020: 5127 25be 5f62 383e 4be9 083e ae7b 1d3f
00000030: 76e5 3c3e 9051 983f 94fe 823f 8ce2 313e
00000040: f8ce 023f ac79 ca3d 5868 503e 204f 163d
00000050: abbf 9cbd ea4a 353e 102b 0d3f 8e75 403f
00000060: 8905 463e e29a 61be a22c a83e 3156 493e
00000070: 6b18 c8be 6cfe 39bf 0bcd 093e 102f 1f3e
0.15648066 -0.038342986 -0.15085289 0.2501676 0.5806419 -0.42392927 0.19100726 0.09714983
-0.1612828 0.18006276 0.13370244 0.61516845 0.18446907 1.1899891 1.0233941 0.17371577
0.5109706 0.09886488 0.20352304 0.036696553 -0.07653745 0.17704359 0.55143833 0.75179374
0.19338049 -0.2203174 0.32846552 0.19661786 -0.3908113 -0.7265384 0.13457124 0.15545297
