model2_v1/epoch=25modello-N_iter4-N_features32-N_BS32-epochs250-lr0.001-val_loss1000.pth (torch, 205922 bytes, 72 tensors)

_transform._transforms.1.autoregressive_net.initial_layer.weight f4 [32, 4]
-0.0013709216 -0.27483618 -0.2015301 0.4927038 -0.021470396 -0.098281674 0.26179904 -0.14040804
-0.12323256 -0.29091322 1.0676413 0.027759671 0.003477901 -0.39087802 -0.100174606 0.23394495
0.113759995 -0.0054383446 -0.38189453 -0.47879994 -0.009381724 0.4060821 1.3095398 -0.4962722
-0.00395897 0.195207 -0.1775865 -0.248792 0.010162541 -0.74172384 0.3249327 0.19354546
0.06669127 -0.29040065 1.5187103 -0.13459152 0.0083802175 0.2293697 0.4552725 -0.18341547
0.0094285 0.5623467 -0.02080059 -0.18665802 -0.011512047 -0.102930106 -0.9195432 0.013297796
0.103641324 -0.083627164 -0.43288952 0.434891 0.023312109 -0.20499443 -0.33392018 -0.0710091
0.0021374507 -0.2511011 -0.73899037 0.11405468 -0.0044102482 -0.49574733 -0.3189034 0.236121
-0.010775019 0.01902137 -0.1561094 -0.0016254187 -0.005432237 0.36666474 0.1331714 0.40617245
0.007807434 0.48137945 0.39516926 0.010996163 -0.011364824 -0.25549904 -0.13022858 0.44199073
-0.03290182 0.09497427 -0.07026208 -0.38458592 -0.0012331848 0.026403248 0.42670012 -0.13767272
-0.0029360303 0.7535708 0.21700531 -0.09518838 0.0008678174 -0.2519996 1.2741662 -0.44220036
-0.006043408 0.46428567 0.39575696 0.13114804 0.010589786 0.7380879 -0.44597185 0.4267282
0.0019612734 -0.61086744 0.18815899 0.28539312 -0.11809825 0.31990808 0.028500319 0.44403428
-0.0025186713 -0.8639006 -0.112909794 0.31680977 0.015349437 0.1089211 -1.2856684 0.42762685
-0.012523991 -0.25834912 -0.057504654 0.33701247 0.002863159 -0.47632518 -0.055936515 -0.23805094
00000000: 7fb0 b3ba 54b7 8cbe e85d 4ebe ac43 fc3e
00000010: afe2 afbc e747 c9bd 860a 863e 20c7 0fbe
00000020: 5a61 fcbd 94f2 94be 78a8 883f 4068 e33c
00000030: 7fed 633b 2a21 c8be 5828 cdbd 448f 6f3e
00000040: 00fb e83d 2434 b2bb ae87 c3be 4425 f5be
00000050: cdb5 19bc fee9 cf3e 009f a73f 6417 febe
00000060: 3fba 81bb 58e4 473e 3cd9 35be 54c3 7ebe
00000070: c980 263c 9de1 3dbf 945d a63e c830 463e
00000080: 6f95 883d 65af 94be 1965 c23f 5cd2 09be
00000090: 2e4d 093c e4df 6a3e 7a19 e93e 44d1 3bbe
000000a0: ff79 1a3c f4f5 0f3f 0066 aabc 4823 3fbe
000000b0: 069d 3cbc 05cd d2bd 2f67 6bbf 00df 593c
000000c0: e741 d43d b844 abbd b2a3 ddbe 08aa de3e
000000d0: 09f9 be3c 0fea 51be 96f7 aabe 386d 91bd
000000e0: 7914 0c3b 5390 80be 792e 3dbf 8095 e93d
000000f0: d883 90bb 98d2 fdbe 4e47 a3be b4c9 713e
00000100: b589 30bc b4d2 9b3c 24db 1fbe 000c d5ba
00000110: e800 b2bb 7bbb bb3e 155e 083e d6f5 cf3e
00000120: 81d5 ff3b 5e77 f63e a053 ca3e 4029 343c
00000130: 8733 3abc c5d0 82be a45a 05be 9c4c e23e
00000140: 0fc4 06bd df81 c23d 91e5 8fbd 72e8 c4be
00000150: d1a2 a1ba a04b d83c 7078 da3e 14fa 0cbe
00000160: 6a6a 40bb 04ea 403f a436 5e3e 20f2 c2bd
00000170: 3d7e 633a 1706 81be e117 a33f 1668 e2be
00000180: c807 c6bb dab6 ed3e a8a0 ca3e ac4b 063e
00000190: c880 2d3c 54f3 3c3f 6c56 e4be 1e7c da3e
000001a0: b588 003b cf61 1cbf c0ac 403e 0c1f 923e
000001b0: 7fdd f1bd feca a33e 8079 e93c 7658 e33e
000001c0: 4b10 25bb 9728 5dbf 403d e7bd e434 a23e
000001d0: 347c 7b3c 0712 df3d c890 a4bf e8f1 da3e
000001e0: 6d31 4dbc 5646 84be 008a 6bbd e68c ac3e
000001f0: d6a3 3b3b e5e0 f3be b01d 65bd a0c3 73be

_transform._transforms.1.autoregressive_net.initial_layer.bias f4 [32]
-0.27232757 0.06500704 0.14496925 -0.08172084 -0.0728954 -0.23389104 -0.15286386 -0.61983126
-0.4792789 -0.23275936 0.34481612 -0.040909164 -0.21689905 -0.6195997 0.0038373834 -0.27000326
-0.23757164 -0.766667 -0.067230545 -0.60521847 -0.2813662 -0.3115623 -0.21525975 0.73556536
-0.12747045 -0.49056372 0.75537634 -0.21685207 -0.5435351 -0.74771816 -0.07506392 -0.92120016
00000000: 856e 8bbe 6922 853d d272 143e 415d a7bd
00000010: 2f4a 95bd 2281 6fbe 5888 1cbe 43ad 1ebf
00000020: 0b64 f5be 7858 6ebe bd8b b03e 5e90 27bd
00000030: c91a 5ebe 169e 1ebf 9c7c 7b3b de3d 8abe
00000040: fb45 73be 4a44 44bf 2bb0 89bd 99ef 1abf
00000050: 3b0f 90be 1885 9fbe 0d6d 5cbe 034e 3c3f
00000060: 9d87 02be 2b2b fbbe 5860 413f 780e 5ebe
00000070: 1e25 0bbf 756a 3fbf 1dbb 99bd c6d3 6bbf

_transform._transforms.1.autoregressive_net.initial_layer.mask f4 [32, 4]
1.0 0.0 0.0 0.0 1.0 1.0 0.0 0.0
1.0 1.0 1.0 0.0 1.0 0.0 0.0 0.0
1.0 1.0 0.0 0.0 1.0 1.0 1.0 0.0
1.0 0.0 0.0 0.0 1.0 1.0 0.0 0.0
1.0 1.0 1.0 0.0 1.0 0.0 0.0 0.0
1.0 1.0 0.0 0.0 1.0 1.0 1.0 0.0
1.0 0.0 0.0 0.0 1.0 1.0 0.0 0.0
1.0 1.0 1.0 0.0 1.0 0.0 0.0 0.0
1.0 1.0 0.0 0.0 1.0 1.0 1.0 0.0
1.0 0.0 0.0 0.0 1.0 1.0 0.0 0.0
1.0 1.0 1.0 0.0 1.0 0.0 0.0 0.0
1.0 1.0 0.0 0.0 1.0 1.0 1.0 0.0
1.0 0.0 0.0 0.0 1.0 1.0 0.0 0.0
1.0 1.0 1.0 0.0 1.0 0.0 0.0 0.0
1.0 1.0 0.0 0.0 1.0 1.0 1.0 0.0
1.0 0.0 0.0 0.0 1.0 1.0 0.0 0.0
00000000: 0000 803f 0000 0000 0000 0000 0000 0000
00000010: 0000 803f 0000 803f 0000 0000 0000 0000
00000020: 0000 803f 0000 803f 0000 803f 0000 0000
00000030: 0000 803f 0000 0000 0000 0000 0000 0000
00000040: 0000 803f 0000 803f 0000 0000 0000 0000
00000050: 0000 803f 0000 803f 0000 803f 0000 0000
00000060: 0000 803f 0000 0000 0000 0000 0000 0000
00000070: 0000 803f 0000 803f 0000 0000 0000 0000
00000080: 0000 803f 0000 803f 0000 803f 0000 0000
00000090: 0000 803f 0000 0000 0000 0000 0000 0000
000000a0: 0000 803f 0000 803f 0000 0000 0000 0000
000000b0: 0000 803f 0000 803f 0000 803f 0000 0000
000000c0: 0000 803f 0000 0000 0000 0000 0000 0000
000000d0: 0000 803f 0000 803f 0000 0000 0000 0000
000000e0: 0000 803f 0000 803f 0000 803f 0000 0000
000000f0: 0000 803f 0000 0000 0000 0000 0000 0000
00000100: 0000 803f 0000 803f 0000 0000 0000 0000
00000110: 0000 803f 0000 803f 0000 803f 0000 0000
00000120: 0000 803f 0000 0000 0000 0000 0000 0000
00000130: 0000 803f 0000 803f 0000 0000 0000 0000
00000140: 0000 803f 0000 803f 0000 803f 0000 0000
00000150: 0000 803f 0000 0000 0000 0000 0000 0000
00000160: 0000 803f 0000 803f 0000 0000 0000 0000
00000170: 0000 803f 0000 803f 0000 803f 0000 0000
00000180: 0000 803f 0000 0000 0000 0000 0000 0000
00000190: 0000 803f 0000 803f 0000 0000 0000 0000
000001a0: 0000 803f 0000 803f 0000 803f 0000 0000
000001b0: 0000 803f 0000 0000 0000 0000 0000 0000
000001c0: 0000 803f 0000 803f 0000 0000 0000 0000
000001d0: 0000 803f 0000 803f 0000 803f 0000 0000
000001e0: 0000 803f 0000 0000 0000 0000 0000 0000
000001f0: 0000 803f 0000 803f 0000 0000 0000 0000

_transform._transforms.1.autoregressive_net.blocks.0.linear_layers.0.weight f4 [32, 32]
-0.16448174 0.13892011 0.0021285843 -0.07372445 -0.007495901 0.04418671 -0.1555257 -0.12681685
0.037438538 0.12286943 -0.15011588 0.0020732456 0.0051714783 0.03398566 0.13669865 -0.09361758
0.11898888 -0.120113775 -0.09618018 0.015342169 -0.035224184 0.14316826 -0.056606777 0.016702501
0.05468461 0.11688353 -0.09998627 -0.08128202 0.117483325 0.11591483 -0.105211675 -0.08351274
-0.06217486 0.15453447 -0.15327382 -0.13918369 0.07864798 0.13778846 0.029107518 -0.12074145
0.11927543 -0.01313203 0.015013445 -0.17171113 0.16008982 -0.05076497 0.10110285 -0.12546235
-0.09670419 0.11280473 0.0700972 -0.089550756 -0.1662942 -0.052037533 -0.1445724 0.15707253
0.12899601 -0.0088342745 -0.018104179 -0.1114939 -0.07352891 -0.053143255 0.076028004 -0.09737641
0.13937607 0.35888368 0.1878158 0.06801141 0.84701926 -0.07709119 0.5769238 -3.8947911
-0.01078738 -0.17415723 -4.318701 -0.052614138 0.08834739 0.11710764 0.1607343 -0.13844205
0.37714553 -0.41162127 0.17853555 0.07281166 -0.31829047 -0.1242855 -1.1722666 0.102351636
-0.15051351 -0.16764599 0.08995234 -1.1939473 -0.051315207 -0.3466233 0.37960598 -0.07221321
-0.12612288 0.074335724 -0.12099732 0.02998528 0.1173402 -0.1624688 0.01172619 -0.09305999
-0.1156845 0.075991556 0.17187425 -0.04639548 0.008595308 0.11419159 0.07582639 -0.18563856
-0.16758187 -0.03538814 -0.21551648 -0.002706249 -0.16919102 -0.15372883 -0.08646036 0.14681603
-0.1933187 -0.14197356 -0.13062684 -0.16525532 0.052947927 0.13562481 -0.12579156 0.11414245
-0.016281476 -0.38051605 -0.119256616 -0.04309066 -0.3980049 -0.0054289354 -0.46409965 -0.10427315
-0.14580679 0.25148425 0.26816425 -0.12330364 -0.004485833 -0.002346393 0.013906985 0.078399695
0.18759347 -0.051631637 -0.03396697 -0.06274165 0.041972823 0.083803445 0.29641604 0.10944135
0.13515493 -0.5966393 0.0030027311 -0.15569653 0.1269819 -0.17582713 -0.097414516 -0.45025113
-0.19884798 -0.56092954 0.09436169 0.00038652922 -0.118836254 0.00087447045 -0.1383336 -0.066907875
-0.22587454 -0.13537526 0.024208955 -0.011757097 -0.12787502 0.025536086 -0.02134476 -0.15000395
-0.2756042 -0.07764048 -0.1570391 -0.107967526 -0.106243595 -0.15770158 -0.0929643 0.06235208
-0.24392678 0.076171555 -0.535454 0.3342459 -0.010045327 -0.18224059 -0.3842573 -0.05270888
0.11256736 0.06264381 -0.09326579 -0.220433 -0.11375691 -0.030213116 -0.19514386 -0.023126334
-0.13779365 0.12604435 0.16532253 -0.018067004 -0.04544224 0.16262363 0.14982612 0.11170615
0.15297575 0.16559394 -0.06846021 0.108638346 0.023602951 -0.033664007 -0.12669797 -0.12823614
-0.2650426 -0.16810167 0.14738393 0.114141084 -0.12620433 -0.1420811 0.06641156 0.10046536
-0.081285276 -0.32505947 0.12455679 0.019866103 0.1288844 0.020025231 0.15316874 0.42588374
0.08727318 0.09379936 0.14180255 0.07167525 0.1219648 -0.03082866 0.02876396 0.25617263
-0.08593677 -0.14644767 -0.15442754 -1.4298575 0.013596109 0.24501307 1.049707 0.11865351
0.04393064 -2.1995852 0.11568098 -0.32621166 0.007473899 0.1330423 -0.12720801 -4.176597
00000000: e76d 28be 1341 0e3e b87f 0b3b d8fc 96bd
00000010: 2da0 f5bb 20fd 343d 2142 1fbe 47dc 01be
00000020: 2759 193d f8a2 fb3d fab7 19be 4adf 073b
00000030: 8175 a93b 8c34 0b3d bbfa 0b3e 93ba bfbd
00000040: 71b0 f33d 36fe f5bd 1dfa c4bd b95d 7b3c
00000050: 3c47 10bd b39a 123e 82dc 67bd afd3 883c
00000060: f8fc 5f3d a260 ef3d 9ac5 ccbd 3077 a6bd
00000070: 199b f03d c164 ed3d 3879 d7bd ba08 abbd
00000080: 11ab 7ebd 493e 1e3e d0f3 1cbe 2b86 0ebe
00000090: 3112 a13d 6b18 0d3e e472 ee3c 4b47 f7bd
000000a0: ad46 f43d ba27 57bc f4fa 753c 0bd5 2fbe
000000b0: 96ee 233e eeee 4fbd 030f cf3d 3479 00be
000000c0: d90c c6bd 2b06 e73d 1f8f 8f3d 6366 b7bd
000000d0: 0749 2abe 4f25 55bd ca0a 14be 9fd7 203e
000000e0: 8817 043e a2bd 10bc 374f 94bc ea56 e4bd
000000f0: 5396 96bd beac 59bd 92b4 9b3d 496d c7bd
00000100: 9ab8 0e3e 9abf b73e c952 403e 9149 8b3d
00000110: 41d6 583f fce1 9dbd 47b1 133f 4244 79c0
00000120: 8dbd 30bc 4656 32be cc32 8ac0 ec81 57bd
00000130: 7aef b43d 21d6 ef3d 8897 243e c1c3 0dbe
00000140: 3819 c13e 06c0 d2be 06d2 363e 481e 953d
00000150: f8f6 a2be 6589 febd d50c 96bf bc9d d13d
00000160: 3720 1abe 64ab 2bbe ef38 b83d 44d3 98bf
00000170: e52f 52bd 9c78 b1be b75b c23e 85e4 93bd
00000180: 5b26 01be 543d 983d 71cd f7bd b1a3 f53c
00000190: 0f50 f03d 395e 26be 351f 403c 3c96 bebd
000001a0: ffeb ecbd 76a1 9b3d ceff 2f3e 3009 3ebd
000001b0: 56d3 0c3c 48dd e93d de4a 9b3d 0918 3ebe
000001c0: 959a 2bbe 27f3 10bd 5ab0 5cbe 535b 31bb
000001d0: 6940 2dbe 176b 1dbe 2112 b1bd f156 163e
000001e0: 56f5 45be 8461 11be 0bc3 05be b138 29be
000001f0: eddf 583d 3be1 0a3e 81cf 00be 84c3 e93d
00000200: bb60 85bc 00d3 c2be d03c f4bd d57f 30bd
00000210: 4cc7 cbbe 36e5 b1bb 789e edbe 298d d5bd
00000220: 604e 15be 8bc2 803e d34c 893e 9e86 fcbd
00000230: e5fd 92bb f1c5 19bb 1fda 633c 0590 a03d
00000240: 8118 403e b27b 53bd f320 0bbd b27e 80bd
00000250: b2eb 2b3d 24a1 ab3d d8c3 973e c922 e03d
00000260: 0e66 0a3e 5abd 18bf 78c9 443b e96e 1fbe
00000270: 8b07 023e 070c 34be 4381 c7bd 5187 e6be
00000280: ce9e 4bbe 1499 0fbf b440 c13d 13a7 ca39
00000290: 6c60 f3bd b83c 653a 53a7 0dbe ff06 89bd
000002a0: a84b 67be d09f 0abe dc51 c63c d7a0 40bc
000002b0: abf1 02be 0e31 d13c 35db aebc a39a 19be
000002c0: fe1b 8dbe f901 9fbd dcce 20be 141e ddbd
000002d0: 3e96 d9bd 867c 21be 1164 bebd e564 7f3d
000002e0: f1c7 79be d5ff 9b3d 8313 09bf 4722 ab3e
000002f0: 2895 24bc 479d 3abe 5fbd c4be 44e5 57bd
00000300: b789 e63d 664b 803d 2202 bfbd 30b9 61be
00000310: 62f9 e8bd 7f81 f7bc cbd3 47be 7073 bdbc
00000320: c719 0dbe c511 013e 4f4a 293e 4101 94bc
00000330: a421 3abd cf86 263e 056c 193e 32c6 e43d
00000340: ada5 1c3e 7591 293e de34 8cbd c87d de3d
00000350: fa5a c13c 45e3 09bd 1dbd 01be 5650 03be
00000360: aab3 87be d822 2cbe d0eb 163e cdc2 e93d
00000370: b53b 01be b57d 11be c902 883d c8c0 cd3d
00000380: e578 a6bd 326e a6be a117 ff3d 3dbe a23c
00000390: 46fa 033e f40b a43c 44d8 1c3e 6f0d da3e
000003a0: 48bc b23d e119 c03d b034 113e 79ca 923d
000003b0: aec8 f93d 638c fcbc 65a2 eb3c 0f29 833e
000003c0: 9eff afbd 61f6 15be 4122 1ebe 9205 b7bf
000003d0: 37c2 5e3c b5e4 7a3e cd5c 863f 9d00 f33d
000003e0: 9df0 333d 01c6 0cc0 26ea ec3d 3705 a7be
000003f0: 9ce7 f43b 3e3c 083e d142 02be afa6 85c0

_transform._transforms.1.autoregressive_net.blocks.0.linear_layers.0.bias f4 [32]
-0.070787154 -0.1667539 0.09074552 -0.015354189 0.00030586048 -0.27839682 -0.19782236 -0.16332549
-0.034202278 -0.11312286 -0.21311386 0.002076579 -0.012206011 -0.81825644 -0.015994988 -0.08730996
0.41689405 0.15924801 -0.039730653 0.29939738 -0.3429816 -0.05998513 -0.20797674 0.21640709
-0.049062546 -0.34694406 -0.032240868 -0.052250825 -0.13111487 0.17522237 -0.021138279 -0.17980607
00000000: dbf8 90bd 89c1 2abe cad8 b93d 2390 7bbc
00000010: e65b a039 078a 8ebe f291 4abe cc3e 27be
00000020: b017 0cbd f5ac e7bd 853a 5abe 3717 083b
00000030: b9fb 47bc 4179 51bf ec07 83bc 90cf b2bd
00000040: 2373 d53e e911 233e 9cbc 22bd 9d4a 993e
00000050: 499b afbe f8b2 75bd dbf7 54be d299 5d3e
00000060: cff5 48bd a7a2 b1be 000f 04bd f604 56bd
00000070: fa42 06be 7e6d 333e 2f2a adbc 151f 38be

_transform._transforms.1.autoregressive_net.blocks.0.linear_layers.0.mask f4 [32, 32]
1.0 0.0 0.0 1.0 0.0 0.0 1.0 0.0
0.0 1.0 0.0 0.0 1.0 0.0 0.0 1.0
0.0 0.0 1.0 0.0 0.0 1.0 0.0 0.0
1.0 0.0 0.0 1.0 0.0 0.0 1.0 0.0
1.0 1.0 0.0 1.0 1.0 0.0 1.0 1.0
0.0 1.0 1.0 0.0 1.0 1.0 0.0 1.0
1.0 0.0 1.0 1.0 0.0 1.0 1.0 0.0
1.0 1.0 0.0 1.0 1.0 0.0 1.0 1.0
1.0 1.0 1.0 1.0 1.0 1.0 1.0 1.0
1.0 1.0 1.0 1.0 1.0 1.0 1.0 1.0
1.0 1.0 1.0 1.0 1.0 1.0 1.0 1.0
1.0 1.0 1.0 1.0 1.0 1.0 1.0 1.0
1.0 0.0 0.0 1.0 0.0 0.0 1.0 0.0
0.0 1.0 0.0 0.0 1.0 0.0 0.0 1.0
0.0 0.0 1.0 0.0 0.0 1.0 0.0 0.0
1.0 0.0 0.0 1.0 0.0 0.0 1.0 0.0
1.0 1.0 0.0 1.0 1.0 0.0 1.0 1.0
0.0 1.0 1.0 0.0 1.0 1.0 0.0 1.0
1.0 0.0 1.0 1.0 0.0 1.0 1.0 0.0
1.0 1.0 0.0 1.0 1.0 0.0 1.0 1.0
1.0 1.0 1.0 1.0 1.0 1.0 1.0 1.0
1.0 1.0 1.0 1.0 1.0 1.0 1.0 1.0
1.0 1.0 1.0 1.0 1.0 1.0 1.0 1.0
1.0 1.0 1.0 1.0 1.0 1.0 1.0 1.0
1.0 0.0 0.0 1.0 0.0 0.0 1.0 0.0
0.0 1.0 0.0 0.0 1.0 0.0 0.0 1.0
0.0 0.0 1.0 0.0 0.0 1.0 0.0 0.0
1.0 0.0 0.0 1.0 0.0 0.0 1.0 0.0
1.0 1.0 0.0 1.0 1.0 0.0 1.0 1.0
0.0 1.0 1.0 0.0 1.0 1.0 0.0 1.0
1.0 0.0 1.0 1.0 0.0 1.0 1.0 0.0
1.0 1.0 0.0 1.0 1.0 0.0 1.0 1.0
00000000: 0000 803f 0000 0000 0000 0000 0000 803f
00000010: 0000 0000 0000 0000 0000 803f 0000 0000
00000020: 0000 0000 0000 803f 0000 0000 0000 0000
00000030: 0000 803f 0000 0000 0000 0000 0000 803f
00000040: 0000 0000 0000 0000 0000 803f 0000 0000
00000050: 0000 0000 0000 803f 0000 0000 0000 0000
00000060: 0000 803f 0000 0000 0000 0000 0000 803f
00000070: 0000 0000 0000 0000 0000 803f 0000 0000
00000080: 0000 803f 0000 803f 0000 0000 0000 803f
00000090: 0000 803f 0000 0000 0000 803f 0000 803f
000000a0: 0000 0000 0000 803f 0000 803f 0000 0000
000000b0: 0000 803f 0000 803f 0000 0000 0000 803f
000000c0: 0000 803f 0000 0000 0000 803f 0000 803f
000000d0: 0000 0000 0000 803f 0000 803f 0000 0000
000000e0: 0000 803f 0000 803f 0000 0000 0000 803f
000000f0: 0000 803f 0000 0000 0000 803f 0000 803f
00000100: 0000 803f 0000 803f 0000 803f 0000 803f
00000110: 0000 803f 0000 803f 0000 803f 0000 803f
00000120: 0000 803f 0000 803f 0000 803f 0000 803f
00000130: 0000 803f 0000 803f 0000 803f 0000 803f
00000140: 0000 803f 0000 803f 0000 803f 0000 803f
00000150: 0000 803f 0000 803f 0000 803f 0000 803f
00000160: 0000 803f 0000 803f 0000 803f 0000 803f
00000170: 0000 803f 0000 803f 0000 803f 0000 803f
00000180: 0000 803f 0000 0000 0000 0000 0000 803f
00000190: 0000 0000 0000 0000 0000 803f 0000 0000
000001a0: 0000 0000 0000 803f 0000 0000 0000 0000
000001b0: 0000 803f 0000 0000 0000 0000 0000 803f
000001c0: 0000 0000 0000 0000 0000 803f 0000 0000
000001d0: 0000 0000 0000 803f 0000 0000 0000 0000
000001e0: 0000 803f 0000 0000 0000 0000 0000 803f
000001f0: 0000 0000 0000 0000 0000 803f 0000 0000
00000200: 0000 803f 0000 803f 0000 0000 0000 803f
00000210: 0000 803f 0000 0000 0000 803f 0000 803f
00000220: 0000 0000 0000 803f 0000 803f 0000 0000
00000230: 0000 803f 0000 803f 0000 0000 0000 803f
00000240: 0000 803f 0000 0000 0000 803f 0000 803f
00000250: 0000 0000 0000 803f 0000 803f 0000 0000
00000260: 0000 803f 0000 803f 0000 0000 0000 803f
00000270: 0000 803f 0000 0000 0000 803f 0000 803f
00000280: 0000 803f 0000 803f 0000 803f 0000 803f
00000290: 0000 803f 0000 803f 0000 803f 0000 803f
000002a0: 0000 803f 0000 803f 0000 803f 0000 803f
000002b0: 0000 803f 0000 803f 0000 803f 0000 803f
000002c0: 0000 803f 0000 803f 0000 803f 0000 803f
000002d0: 0000 803f 0000 803f 0000 803f 0000 803f
000002e0: 0000 803f 0000 803f 0000 803f 0000 803f
000002f0: 0000 803f 0000 803f 0000 803f 0000 803f
00000300: 0000 803f 0000 0000 0000 0000 0000 803f
00000310: 0000 0000 0000 0000 0000 803f 0000 0000
00000320: 0000 0000 0000 803f 0000 0000 0000 0000
00000330: 0000 803f 0000 0000 0000 0000 0000 803f
00000340: 0000 0000 0000 0000 0000 803f 0000 0000
00000350: 0000 0000 0000 803f 0000 0000 0000 0000
00000360: 0000 803f 0000 0000 0000 0000 0000 803f
00000370: 0000 0000 0000 0000 0000 803f 0000 0000
00000380: 0000 803f 0000 803f 0000 0000 0000 803f
00000390: 0000 803f 0000 0000 0000 803f 0000 803f
000003a0: 0000 0000 0000 803f 0000 803f 0000 0000
000003b0: 0000 803f 0000 803f 0000 0000 0000 803f
000003c0: 0000 803f 0000 0000 0000 803f 0000 803f
000003d0: 0000 0000 0000 803f 0000 803f 0000 0000
000003e0: 0000 803f 0000 803f 0000 0000 0000 803f
000003f0: 0000 803f 0000 0000 0000 803f 0000 803f

_transform._transforms.1.autoregressive_net.blocks.0.linear_layers.1.weight f4 [32, 32]
0.105035685 0.0006334776 0.00096124486 0.047303814 0.00068770413 -0.00080502266 -0.006259103 0.00069410336
0.00078561215 0.00096129125 9.12869e-05 0.00023209788 0.09314298 -0.00010575355 0.0006703559 -0.00045719554
-0.000456239 -4.6544912e-05 0.03312499 0.0002039708 -0.0007012104 0.056459907 0.00072204927 -0.00059135986
0.037747875 -0.0009475998 0.00041384329 0.1632862 0.00081068283 0.00050921825 0.049927354 -0.00032845605
-0.055873487 0.00056471623 8.866287e-05 -0.018120896 -0.3924257 -0.0007443414 -0.01015145 -1.3884388
-0.00017111935 0.0007295666 0.321741 -0.0004519222 -0.111196235 0.053998057 -0.000544398 0.00010258711
0.08997664 0.0004151746 -0.02867425 -1.8008279 7.630313e-05 0.007176713 -0.6273964 -0.0002405094
-0.010096526 0.7009084 -0.0008736688 -0.044597544 -0.426629 0.00018713844 0.040010978 0.12996858
-0.13157688 0.00024610915 -0.44986922 -0.112041466 -0.25451836 -0.02421887 -0.06871047 -0.73682296
-0.07682443 0.00039690078 -0.11953518 -0.05677253 -0.098374896 0.04968294 -0.06923911 0.0001358142
0.6063497 -0.031843632 -0.07457302 -0.30922312 -0.48187873 -0.072358534 -0.11321898 0.4544079
-0.06504665 -0.32241923 0.40563968 -0.042173695 -0.019180642 -0.19409187 -0.10105036 -0.32591584
0.08864857 0.0001952051 -0.00041008988 0.064077005 -0.0009499468 -0.0003741367 0.0064523825 3.3384564e-05
0.0008317746 -0.0007924115 -0.00013406611 5.615449e-05 0.114519484 0.0006866854 0.00070157624 -0.00022851444
-7.2573425e-06 6.20122e-05 0.056552887 0.0002004341 -0.0002202282 0.034899563 -0.000807866 0.00059252477
0.050111037 0.00096552284 0.00042957522 -0.036382187 -0.00093373196 -0.0008940517 0.11892444 -0.00014526154
-0.06061351 -0.00046427897 0.00042784074 -0.018887486 0.083376 0.0004657196 0.015285364 -0.617626
-0.0009861841 -0.00043343654 -0.23759168 -2.6523234e-05 -0.11742252 0.11088725 -0.0002823365 -0.000604307
-0.72605616 -0.00036299243 -0.089794815 -0.4412998 0.0008957382 -0.038572952 -0.30772984 -0.0009146952
-0.04479365 -0.070860095 -0.0008299481 -0.07551979 0.047218286 -0.00010083449 -0.032372948 0.17086063
-0.13122748 0.0007901116 -0.48238036 -0.12079197 -0.46460524 0.012056942 -0.046783116 -0.45308062
-0.05183431 -0.000114168884 -0.31548008 -0.033517737 -0.08108099 0.0459597 -0.070825264 0.0005065005
0.5726595 0.030532364 -0.07901285 -0.25407124 -0.6943502 -0.078427635 -0.30235076 0.209072
-0.066844635 -0.59824014 -0.0008621527 -0.038045734 0.034188848 -0.22283915 -0.08934742 -0.43918526
0.16536541 7.823193e-05 0.00087876624 0.017892856 0.0009642809 0.00052214484 0.1063699 0.00080391817
0.00074849906 -0.00012699628 -0.0006052367 -0.0007947271 0.025589075 0.0004660963 0.0003971534 0.0003214301
0.00010100496 -0.00030902124 0.1301447 0.00017628682 -0.0003184904 0.056932215 -0.00077372626 -0.0009457387
0.06504417 -0.0004678674 0.00023540188 0.101479225 0.00019444001 0.00065507233 0.06226781 -0.00014886129
0.11690967 0.00029960313 0.00036300696 0.14985782 1.8583081 0.0009916349 0.063497946 -0.5479963
-0.0009944075 -1.937175e-05 0.026533691 -0.00093782635 0.20182835 0.09350283 -0.0009492089 -0.00079604186
-0.6143038 -0.000515556 0.13036484 0.16298799 -0.00022090675 0.07416322 0.06716351 0.0008378704
0.102323845 0.13811803 -9.447456e-06 0.12943599 0.0590176 -0.0002027321 0.003188963 -0.30321568
00000000: f31c d73d f60f 263a 0dfc 7b3a a5c1 413d
00000010: 0b47 343a 2808 53ba 2919 cdbb 7df4 353a
00000020: 8af1 4d3a 2aff 7b3a 4871 bf38 4d5f 7339
00000030: bfc1 be3d 01c8 ddb8 d3ba 2f3a bfb3 efb9
00000040: 5d33 efb9 3839 43b8 12ae 073d ffe0 5539
00000050: 6fd1 37ba 8142 673d e847 3d3a 7d05 1bba
00000060: 849d 1a3d 5968 78ba 1bf9 d839 7f34 273e
00000070: 0184 543a 0f7d 053a a080 4c3d a034 acb9
00000080: 99db 64bd 7709 143a 84f0 b938 4672 94bc
00000090: 05ec c8be e81f 43ba 4452 26bc 5db8 b1bf
000000a0: 806e 33b9 6340 3f3a 3dbb a43e f9ef ecb9
000000b0: daba e3bd 112d 5d3d eeb5 0eba 0924 d738
000000c0: ac45 b83d cbab d939 43e6 eabc 8781 e6bf
000000d0: ee04 a038 a22a eb3b 0d9d 20bf 4031 7cb9
000000e0: e66b 25bc bc6e 333f ec06 65ba eaab 36bd
000000f0: 1e6f dabe 983a 4439 8de2 233d 7c16 053e
00000100: 17bc 06be 3608 8139 4255 e6be ff75 e5bd
00000110: 3b50 82be a766 c6bc 13b8 8cbd 6ea0 3cbf
00000120: 2056 9dbd 1f17 d039 dcce f4bd 508a 68bd
00000130: c778 c9bd 5780 4b3d 3ccd 8dbd 5969 0e39
00000140: bc39 1b3f 786e 02bd bdb9 98bd 7e52 9ebe
00000150: cfb8 f6be b630 94bd 5adf e7bd 27a8 e83e
00000160: 2e37 85bd 2214 a5be 01b0 cf3e 53be 2cbd
00000170: b920 9dbc 05c0 46be 7ef3 cebd 71de a6be
00000180: 628d b53d f8af 4c39 5501 d7b9 ce3a 833d
00000190: da05 79ba c727 c4b9 826e d33b 6706 0c38
000001a0: 730b 5a3a d6b9 4fba 1994 0cb9 6d87 6b38
000001b0: 3189 ea3d ad02 343a fce9 373a 619d 6fb9
000001c0: 1984 f3b6 8c0c 8238 00a4 673d 9e2b 5239
000001d0: 0fed 66b9 d8f2 0e3d f8c6 53ba aa53 1b3a
000001e0: 3b41 4d3d 241b 7d3a 9c38 e139 7d05 15bd
000001f0: b1c5 74ba cb5e 6aba a88e f33d 5951 18b9
00000200: df45 78bd 786a f3b9 d04f e039 eeb9 9abc
00000210: 09c1 aa3d d42b f439 776f 7a3c bd1c 1ebf
00000220: d942 81ba de3e e3b9 3c4b 73be 367e deb7
00000230: 387b f0bd db18 e33d 9006 94b9 5b6a 1eba
00000240: d1de 39bf 0550 beb9 58e6 b7bd 0cf2 e1be
00000250: f9cf 6a3a acfe 1dbd c48e 9dbe 28c8 6fba
00000260: 8c79 37bd 191f 91bd e090 59ba 1faa 9abd
00000270: f667 413d 1b77 d3b8 7f99 04bd 17f6 2e3e
00000280: 7f60 06be 7e1f 4f3a 8ffa f6be c861 f7bd
00000290: bde0 edbe 7b8a 453c a79f 3fbd 2ffa e7be
000002a0: 3750 54bd f46d efb8 9b86 a1be e549 09bd
000002b0: ca0d a6bd 3d40 3c3d d60c 91bd acc6 043a
000002c0: d099 123f 021f fa3c 7dd1 a1bd a015 82be
000002d0: efc0 31bf ab9e a0bd b8cd 9abe f816 563e
000002e0: d7e5 88bd 4426 19bf 1702 62ba d8d5 1bbd
000002f0: 9b09 0c3d f22f 64be c8fb b6bd e4dc e0be
00000300: 8d55 293e 7310 a438 015d 663a 0a94 923c
00000310: ccc7 7c3a 8ce0 083a 76d8 d93d 09be 523a
00000320: ec36 443a 4e2a 05b9 bfa8 1eba 3c55 50ba
00000330: 2ea0 d13c 635e f439 0739 d039 9e85 a839
00000340: a0d2 d338 2104 a2b9 a744 053e a2d9 3839
00000350: 0ffb a6b9 c131 693d e4d3 4aba 73eb 77ba
00000360: e135 853d 194c f5b9 36d6 7639 57d4 cf3d
00000370: 98e2 4b39 29b9 2b3a 880c 7f3d a617 1cb9
00000380: 566e ef3d 0d14 9d39 f851 be39 5474 193e
00000390: 0add ed3f bff9 813a 360b 823d 7c49 0cbf
000003a0: c756 82ba 8480 a2b7 2f5d d93c 76d8 75ba
000003b0: 17ac 4e3e 697e bf3d 55d4 78ba 77ad 50ba
000003c0: 0443 1dbf 6126 07ba 5c7e 053e 53e6 263e
000003d0: 34a3 67b9 e3e2 973d 068d 893d 88a4 5b3a
000003e0: 2a8f d13d d06e 0d3e 8480 1eb7 de8a 043e
000003f0: 70bc 713d 7c94 54b9 ecfd 503b 163f 9bbe

_transform._transforms.1.autoregressive_net.blocks.0.linear_layers.1.bias f4 [32]
0.13598692 0.1658797 -0.26228946 -0.07550212 0.08004427 -0.37820703 -0.018780772 0.2584736
-0.15912811 0.10912805 -0.14804365 0.08194965 0.021647315 0.23080081 0.024734272 0.12547928
-0.09532886 -0.2810457 -0.033636786 0.00403398 0.23392655 0.15526365 -0.33512744 0.1670265
0.003836696 -0.09031973 0.013366651 -0.021970432 -0.13619204 -0.13350764 -0.016515767 0.108957745
00000000: 2840 0b3e 5edc 293e ce4a 86be dba0 9abd
00000010: 40ee a33d 5aa4 c1be 22da 99bc a756 843e
00000020: 7bf2 22be 877e df3d c198 17be 38d5 a73d
00000030: b655 b13c 0c57 6c3e 879f ca3c a47d 003e
00000040: c73b c3bd 39e5 8fbe bac6 09bd 7a2f 843b
00000050: 718a 6f3e 6ffd 1e3e d395 abbe ff08 2b3e
00000060: 1471 7b3b 8df9 b8bd ccff 5a3c 56fb b3bc
00000070: ed75 0bbe 3ab6 08be 134c 87bc 3d25 df3d

_transform._transforms.1.autoregressive_net.blocks.0.linear_layers.1.mask f4 [32, 32]
1.0 0.0 0.0 1.0 0.0 0.0 1.0 0.0
0.0 1.0 0.0 0.0 1.0 0.0 0.0 1.0
0.0 0.0 1.0 0.0 0.0 1.0 0.0 0.0
1.0 0.0 0.0 1.0 0.0 0.0 1.0 0.0
1.0 1.0 0.0 1.0 1.0 0.0 1.0 1.0
0.0 1.0 1.0 0.0 1.0 1.0 0.0 1.0
1.0 0.0 1.0 1.0 0.0 1.0 1.0 0.0
1.0 1.0 0.0 1.0 1.0 0.0 1.0 1.0
1.0 1.0 1.0 1.0 1.0 1.0 1.0 1.0
1.0 1.0 1.0 1.0 1.0 1.0 1.0 1.0
1.0 1.0 1.0 1.0 1.0 1.0 1.0 1.0
1.0 1.0 1.0 1.0 1.0 1.0 1.0 1.0
1.0 0.0 0.0 1.0 0.0 0.0 1.0 0.0
0.0 1.0 0.0 0.0 1.0 0.0 0.0 1.0
0.0 0.0 1.0 0.0 0.0 1.0 0.0 0.0
1.0 0.0 0.0 1.0 0.0 0.0 1.0 0.0
1.0 1.0 0.0 1.0 1.0 0.0 1.0 1.0
0.0 1.0 1.0 0.0 1.0 1.0 0.0 1.0
1.0 0.0 1.0 1.0 0.0 1.0 1.0 0.0
1.0 1.0 0.0 1.0 1.0 0.0 1.0 1.0
1.0 1.0 1.0 1.0 1.0 1.0 1.0 1.0
1.0 1.0 1.0 1.0 1.0 1.0 1.0 1.0
1.0 1.0 1.0 1.0 1.0 1.0 1.0 1.0
1.0 1.0 1.0 1.0 1.0 1.0 1.0 1.0
1.0 0.0 0.0 1.0 0.0 0.0 1.0 0.0
0.0 1.0 0.0 0.0 1.0 0.0 0.0 1.0
0.0 0.0 1.0 0.0 0.0 1.0 0.0 0.0
1.0 0.0 0.0 1.0 0.0 0.0 1.0 0.0
1.0 1.0 0.0 1.0 1.0 0.0 1.0 1.0
0.0 1.0 1.0 0.0 1.0 1.0 0.0 1.0
1.0 0.0 1.0 1.0 0.0 1.0 1.0 0.0
1.0 1.0 0.0 1.0 1.0 0.0 1.0 1.0
00000000: 0000 803f 0000 0000 0000 0000 0000 803f
00000010: 0000 0000 0000 0000 0000 803f 0000 0000
00000020: 0000 0000 0000 803f 0000 0000 0000 0000
00000030: 0000 803f 0000 0000 0000 0000 0000 803f
00000040: 0000 0000 0000 0000 0000 803f 0000 0000
00000050: 0000 0000 0000 803f 0000 0000 0000 0000
00000060: 0000 803f 0000 0000 0000 0000 0000 803f
00000070: 0000 0000 0000 0000 0000 803f 0000 0000
00000080: 0000 803f 0000 803f 0000 0000 0000 803f
00000090: 0000 803f 0000 0000 0000 803f 0000 803f
000000a0: 0000 0000 0000 803f 0000 803f 0000 0000
000000b0: 0000 803f 0000 803f 0000 0000 0000 803f
000000c0: 0000 803f 0000 0000 0000 803f 0000 803f
000000d0: 0000 0000 0000 803f 0000 803f 0000 0000
000000e0: 0000 803f 0000 803f 0000 0000 0000 803f
000000f0: 0000 803f 0000 0000 0000 803f 0000 803f
00000100: 0000 803f 0000 803f 0000 803f 0000 803f
00000110: 0000 803f 0000 803f 0000 803f 0000 803f
00000120: 0000 803f 0000 803f 0000 803f 0000 803f
00000130: 0000 803f 0000 803f 0000 803f 0000 803f
00000140: 0000 803f 0000 803f 0000 803f 0000 803f
00000150: 0000 803f 0000 803f 0000 803f 0000 803f
00000160: 0000 803f 0000 803f 0000 803f 0000 803f
00000170: 0000 803f 0000 803f 0000 803f 0000 803f
00000180: 0000 803f 0000 0000 0000 0000 0000 803f
00000190: 0000 0000 0000 0000 0000 803f 0000 0000
000001a0: 0000 0000 0000 803f 0000 0000 0000 0000
000001b0: 0000 803f 0000 0000 0000 0000 0000 803f
000001c0: 0000 0000 0000 0000 0000 803f 0000 0000
000001d0: 0000 0000 0000 803f 0000 0000 0000 0000
000001e0: 0000 803f 0000 0000 0000 0000 0000 803f
000001f0: 0000 0000 0000 0000 0000 803f 0000 0000
00000200: 0000 803f 0000 803f 0000 0000 0000 803f
00000210: 0000 803f 0000 0000 0000 803f 0000 803f
00000220: 0000 0000 0000 803f 0000 803f 0000 0000
00000230: 0000 803f 0000 803f 0000 0000 0000 803f
00000240: 0000 803f 0000 0000 0000 803f 0000 803f
00000250: 0000 0000 0000 803f 0000 803f 0000 0000
00000260: 0000 803f 0000 803f 0000 0000 0000 803f
00000270: 0000 803f 0000 0000 0000 803f 0000 803f
00000280: 0000 803f 0000 803f 0000 803f 0000 803f
00000290: 0000 803f 0000 803f 0000 803f 0000 803f
000002a0: 0000 803f 0000 803f 0000 803f 0000 803f
000002b0: 0000 803f 0000 803f 0000 803f 0000 803f
000002c0: 0000 803f 0000 803f 0000 803f 0000 803f
000002d0: 0000 803f 0000 803f 0000 803f 0000 803f
000002e0: 0000 803f 0000 803f 0000 803f 0000 803f
000002f0: 0000 803f 0000 803f 0000 803f 0000 803f
00000300: 0000 803f 0000 0000 0000 0000 0000 803f
00000310: 0000 0000 0000 0000 0000 803f 0000 0000
00000320: 0000 0000 0000 803f 0000 0000 0000 0000
00000330: 0000 803f 0000 0000 0000 0000 0000 803f
00000340: 0000 0000 0000 0000 0000 803f 0000 0000
00000350: 0000 0000 0000 803f 0000 0000 0000 0000
00000360: 0000 803f 0000 0000 0000 0000 0000 803f
00000370: 0000 0000 0000 0000 0000 803f 0000 0000
00000380: 0000 803f 0000 803f 0000 0000 0000 803f
00000390: 0000 803f 0000 0000 0000 803f 0000 803f
000003a0: 0000 0000 0000 803f 0000 803f 0000 0000
000003b0: 0000 803f 0000 803f 0000 0000 0000 803f
000003c0: 0000 803f 0000 0000 0000 803f 0000 803f
000003d0: 0000 0000 0000 803f 0000 803f 0000 0000
000003e0: 0000 803f 0000 803f 0000 0000 0000 803f
000003f0: 0000 803f 0000 0000 0000 803f 0000 803f

_transform._transforms.1.autoregressive_net.blocks.1.linear_layers.0.weight f4 [32, 32]
0.0952355 -0.007139381 0.17051911 -0.075518 -0.12614325 -0.017350888 -0.10495833 -0.16864868
-0.113021724 -0.1692719 0.068997175 -0.05511501 0.020578273 -0.037337072 0.12733488 -0.24448217
-0.015727349 0.09955138 0.06523561 0.1095365 0.037915893 0.004951131 -0.019767862 0.10759761
-0.117608756 0.17212218 -0.028284518 -0.2174305 -0.06521835 0.025923578 0.11184082 -0.16450766
-0.09065844 -0.06676705 -0.12752125 0.054155197 0.0067049735 0.063107 -0.18577208 0.06014344
-0.05278958 -0.05172588 -0.20192492 0.001578252 -0.06848367 0.00910171 -0.14629953 0.102306165
-0.07850267 -0.018631646 -0.10957261 -0.0741022 -0.12925844 0.091843925 0.12574051 -0.03438599
-0.17647268 0.16882837 -0.13294683 -0.12785605 0.0061759343 0.027160062 0.10104758 -0.15462568
0.10113965 -0.09678561 -0.06156274 0.048282377 0.017633213 0.1253301 -0.024753237 -0.158441
-0.1728404 -0.08117066 0.082972504 -0.09806046 0.18617873 -0.08815672 -0.18599208 -0.08052112
-0.007958634 0.018580986 -0.28330633 0.053219046 -0.12600514 -0.015427506 -0.066707194 -0.17468189
-0.17058532 -0.11519271 0.060114715 -0.09691209 -0.07042378 -0.25033596 -0.1316453 -0.00024274069
-0.052739542 0.08679537 -0.092911676 -0.18842222 -0.1388905 0.06963557 -0.07083605 0.113820404
0.103027 -0.049952947 0.023430254 0.1350624 -0.04198922 0.10590565 -0.046055313 -0.0026384392
0.13740008 -0.14459349 -0.16318142 0.045655996 -0.0066855648 -0.04687158 -0.049576662 0.10665258
-0.11137121 0.14826912 -0.13249125 -0.13701871 -0.028725563 0.006418354 -0.24578166 -0.11286142
-0.46139678 -0.3783391 0.05911384 -0.096921064 -0.13311143 -0.057316888 -0.44605714 0.47252122
-0.15738152 -0.5661454 -0.0634228 0.14756823 -0.5355487 0.68703485 0.09669585 -0.0476086
-0.38194326 0.07360184 -0.23847103 0.44960105 -0.14095238 -0.008900286 0.6141021 -0.16560316
-0.74349076 -0.050106373 0.02883209 -0.71784025 0.26155904 -0.11762443 0.056851357 0.14559954
0.066516705 -1.7301332 -0.026051618 -0.21116425 1.2381094 0.37237334 0.4350863 0.2508752
0.27229956 -0.004095898 0.17853472 0.328996 0.7234105 1.2047193 0.6789958 0.41008517
0.7772399 0.09572403 0.039899413 -0.1874559 0.17642692 -0.04018111 0.5691204 -0.67338896
-0.56752044 0.08220052 0.17966926 0.60264254 -0.0553354 -1.4276425 0.1371727 0.09929723
-0.31567356 -0.11614624 -0.005288186 -0.2509309 -0.16391727 0.042856727 -0.3166801 -0.043252002
-0.033402726 -0.22826453 -0.1062835 0.018056363 -0.024619218 -0.13880645 0.12803453 -0.13753067
-0.03473823 0.17648122 -0.12882051 0.031528328 0.03941908 -0.36719733 0.17423052 -0.12785693
-0.06431768 0.11107867 0.17157023 0.16705091 0.16067064 0.09870465 -0.40006846 0.10747927
0.2760435 0.13493372 -0.11948467 0.04586578 0.3780994 -0.14305237 0.046656508 0.011025863
0.06219191 0.3084209 0.7893793 0.083664335 0.2519084 -0.55072254 0.12064716 -0.03024628
-0.070471466 0.026830789 -0.16192512 -0.3548388 0.17341304 0.26517227 -1.302846 -0.14780617
0.34357038 0.27671936 -0.10429722 0.22636059 0.581236 -0.029019622 0.31146947 -0.72128373
00000000: d40a c33d 78f1 e9bb 909c 2e3e 2ea9 9abd
00000010: b22b 01be 7323 8ebc 65f4 d6bd 3db2 2cbe
00000020: ef77 e7bd 9d55 2dbe 644e 8d3d 47c0 61bd
00000030: c493 a83c c2ee 18bd 1364 023e 8959 7abe
00000040: a4d6 80bc 98e1 cb3d 3f9a 853d ac54 e03d
00000050: b24d 1b3d 193d a23b 36f0 a1bc 235c dc3d
00000060: dcdc f0bd cc40 303e efb4 e7bc 1aa6 5ebe
00000070: 3391 85bd af5d d43c cd0c e53d b274 28be
00000080: 22ab b9bd 2abd 88bd ee94 02be d7d1 5d3d
00000090: 65b5 db3b 3e3e 813d 093b 3ebe f858 763d
000000a0: e339 58bd 84de 53bd 68c5 4ebe 59dd ce3a
000000b0: 2b41 8cbd 571f 153c 8bcf 15be e585 d13d
000000c0: 02c6 a0bd 65a1 98bc 9b67 e0bd e5c2 97bd
000000d0: 535c 04be ab18 bc3d 1fc2 003e 53d8 0cbd
000000e0: 41b5 34be 58e1 2c3e 3723 08be b2ec 02be
000000f0: 7e5f ca3b c77e de3c 09f2 ce3d 3256 1ebe
00000100: 4e22 cf3d 8937 c6bd 3629 7cbd bec3 453d
00000110: 8773 903c 8956 003e 4dc7 cabc 5c3e 22be
00000120: 13fd 30be ce3c a6bd 7ded a93d ecd3 c8bd
00000130: a3a5 3e3e 838b b4bd b574 3ebe 42e8 a4bd
00000140: ee64 02bc 2737 983c 870d 91be 37fc 593d
00000150: 7e07 01be a6c3 7cbc c89d 88bd cfdf 32be
00000160: ebad 2ebe 28ea ebbd d93a 763d d979 c6bd
00000170: 583a 90bd 092c 80be 07ce 06be 3588 7eb9
00000180: 6b05 58bd c5c1 b13d 7a48 bebd c1f1 40be
00000190: 5039 0ebe 189d 8e3d 7e12 91bd ac1a e93d
000001a0: d2ff d23d 769b 4cbd cef0 bf3c cc4d 0a3e
000001b0: e3fc 2bbd 10e5 d83d 7fa4 3cbd aae9 2cbb
000001c0: 9bb2 0c3e 5110 14be 0819 27be c801 3b3d
000001d0: 9512 dbbb 6afc 3fbd e610 4bbd ab6c da3d
000001e0: 9716 e4bd dcd3 173e c9ab 07be a24e 0cbe
000001f0: df51 ebbc 0e51 d23b 30ae 7bbe e323 e7bd
00000200: 333c ecbe aab5 c1be 5b21 723d 8d7e c6bd
00000210: 5d4e 08be 1dc5 6abd 9a61 e4be 4dee f13e
00000220: 9f28 21be e8ee 10bf d0e3 81bd 201c 173e
00000230: b819 09bf 84e1 2f3f 7908 c63d 3c01 43bd
00000240: 118e c3be 90bc 963d c031 74be 1c32 e63e
00000250: d255 10be 81d2 11bc cc35 1d3f e093 29be
00000260: 6955 3ebf 573c 4dbd 4631 ec3c 61c4 37bf
00000270: 11eb 853e 14e5 f0bd f8dc 683d 0c18 153e
00000280: e939 883d 0175 ddbf 346a d5bc 713b 58be
00000290: 5e7a 9e3f b8a7 be3e a2c3 de3e b772 803e
000002a0: d96a 8b3e e236 86bb ced1 363e 2a72 a83e
000002b0: 6e31 393f 3e34 9a3f abd2 2d3f aff6 d13e
000002c0: 32f9 463f f60a c43d 916d 233d 70f4 3fbe
000002d0: 42a9 343e f394 24bd e0b1 113f 3863 2cbf
000002e0: 0549 11bf bf58 a83d 38fb 373e c846 1a3f
000002f0: 5fa7 62bd fdbc b6bf 0077 0c3e 595c cb3d
00000300: f79f a1be 14de edbd 8548 adbb 047a 80be
00000310: eed9 27be 898a 2f3d e523 a2be 0329 31bd
00000320: 4cd1 08bd 2dbe 69be 2aab d9bd f0ea 933c
00000330: 3eae c9bc 4723 0ebe 7c1b 033e d7d4 0cbe
00000340: ad49 0ebd 7eb7 343e 86e9 03be d923 013d
00000350: e775 213d 4a01 bcbe 7c69 323e edec 02be
00000360: fdb8 83bd 377d e33d 1bb0 2f3e 650f 2b3e
00000370: d886 243e aa25 ca3d c6d5 ccbe 171e dc3d
00000380: 9355 8d3e 112c 0a3e 61b4 f4bd c2dd 3b3d
00000390: 3f96 c13e 527c 12be e51a 3f3d d2a5 343c
000003a0: f2bc 7e3d 58e9 9d3e c314 4a3f 3558 ab3d
000003b0: 23fa 803e 27fc 0cbf dc15 f73d 0cc7 f7bc
000003c0: 5853 90bd 3ecc db3c b3cf 25be 6ead b5be
000003d0: 3093 313e a9c4 873e a8c3 a6bf 805a 17be
000003e0: 75e8 af3e 29ae 8d3e c899 d5bd 12cb 673e
000003f0: e2cb 143f 8fba edbc ed78 9f3e 0da6 38bf

_transform._transforms.1.autoregressive_net.blocks.1.linear_layers.0.bias f4 [32]
-0.08968053 -0.22937755 -0.04733703 -0.0075052166 -0.812723 -0.15927273 -0.07106607 -0.047182985
0.104378216 -0.036639955 -0.17745212 -0.15298219 -0.1314475 -0.39310238 0.2538714 -0.113424145
0.0099040335 -0.26556474 -0.09319197 -0.31557983 0.53753024 -0.050684504 0.03413807 -0.17867652
-0.15618777 -0.4358802 -0.03726649 -0.12765613 -0.22536668 0.037538476 -0.01644573 -0.34592888
00000000: 6daa b7bd f3e1 6abe 79e4 41bd 52ee f5bb
00000010: 9d0e 50bf 6418 23be 168b 91bd f242 41bd
00000020: 3fc4 d53d c713 16bd 02b6 35be 5da7 1cbe
00000030: 2c9a 06be b744 c9be 6ffb 813e eb4a e8bd
00000040: 8744 223c 1af8 87be 6edb bebd ae93 a1be
00000050: 959b 093f 8e9a 4fbd 5cd4 0b3d faf6 36be
00000060: b0ef 1fbe b12b dfbe bfa4 18bd 4ab8 02be
00000070: 86c6 66be f2c1 193d 32b9 86bc 971d b1be

_transform._transforms.1.autoregressive_net.blocks.1.linear_layers.0.mask f4 [32, 32]
1.0 0.0 0.0 1.0 0.0 0.0 1.0 0.0
0.0 1.0 0.0 0.0 1.0 0.0 0.0 1.0
0.0 0.0 1.0 0.0 0.0 1.0 0.0 0.0
1.0 0.0 0.0 1.0 0.0 0.0 1.0 0.0
1.0 1.0 0.0 1.0 1.0 0.0 1.0 1.0
0.0 1.0 1.0 0.0 1.0 1.0 0.0 1.0
1.0 0.0 1.0 1.0 0.0 1.0 1.0 0.0
1.0 1.0 0.0 1.0 1.0 0.0 1.0 1.0
1.0 1.0 1.0 1.0 1.0 1.0 1.0 1.0
1.0 1.0 1.0 1.0 1.0 1.0 1.0 1.0
1.0 1.0 1.0 1.0 1.0 1.0 1.0 1.0
1.0 1.0 1.0 1.0 1.0 1.0 1.0 1.0
1.0 0.0 0.0 1.0 0.0 0.0 1.0 0.0
0.0 1.0 0.0 0.0 1.0 0.0 0.0 1.0
0.0 0.0 1.0 0.0 0.0 1.0 0.0 0.0
1.0 0.0 0.0 1.0 0.0 0.0 1.0 0.0
1.0 1.0 0.0 1.0 1.0 0.0 1.0 1.0
0.0 1.0 1.0 0.0 1.0 1.0 0.0 1.0
1.0 0.0 1.0 1.0 0.0 1.0 1.0 0.0
1.0 1.0 0.0 1.0 1.0 0.0 1.0 1.0
1.0 1.0 1.0 1.0 1.0 1.0 1.0 1.0
1.0 1.0 1.0 1.0 1.0 1.0 1.0 1.0
1.0 1.0 1.0 1.0 1.0 1.0 1.0 1.0
1.0 1.0 1.0 1.0 1.0 1.0 1.0 1.0
1.0 0.0 0.0 1.0 0.0 0.0 1.0 0.0
0.0 1.0 0.0 0.0 1.0 0.0 0.0 1.0
0.0 0.0 1.0 0.0 0.0 1.0 0.0 0.0
1.0 0.0 0.0 1.0 0.0 0.0 1.0 0.0
1.0 1.0 0.0 1.0 1.0 0.0 1.0 1.0
0.0 1.0 1.0 0.0 1.0 1.0 0.0 1.0
1.0 0.0 1.0 1.0 0.0 1.0 1.0 0.0
1.0 1.0 0.0 1.0 1.0 0.0 1.0 1.0
00000000: 0000 803f 0000 0000 0000 0000 0000 803f
00000010: 0000 0000 0000 0000 0000 803f 0000 0000
00000020: 0000 0000 0000 803f 0000 0000 0000 0000
00000030: 0000 803f 0000 0000 0000 0000 0000 803f
00000040: 0000 0000 0000 0000 0000 803f 0000 0000
00000050: 0000 0000 0000 803f 0000 0000 0000 0000
00000060: 0000 803f 0000 0000 0000 0000 0000 803f
00000070: 0000 0000 0000 0000 0000 803f 0000 0000
00000080: 0000 803f 0000 803f 0000 0000 0000 803f
00000090: 0000 803f 0000 0000 0000 803f 0000 803f
000000a0: 0000 0000 0000 803f 0000 803f 0000 0000
000000b0: 0000 803f 0000 803f 0000 0000 0000 803f
000000c0: 0000 803f 0000 0000 0000 803f 0000 803f
000000d0: 0000 0000 0000 803f 0000 803f 0000 0000
000000e0: 0000 803f 0000 803f 0000 0000 0000 803f
000000f0: 0000 803f 0000 0000 0000 803f 0000 803f
00000100: 0000 803f 0000 803f 0000 803f 0000 803f
00000110: 0000 803f 0000 803f 0000 803f 0000 803f
00000120: 0000 803f 0000 803f 0000 803f 0000 803f
00000130: 0000 803f 0000 803f 0000 803f 0000 803f
00000140: 0000 803f 0000 803f 0000 803f 0000 803f
00000150: 0000 803f 0000 803f 0000 803f 0000 803f
00000160: 0000 803f 0000 803f 0000 803f 0000 803f
00000170: 0000 803f 0000 803f 0000 803f 0000 803f
00000180: 0000 803f 0000 0000 0000 0000 0000 803f
00000190: 0000 0000 0000 0000 0000 803f 0000 0000
000001a0: 0000 0000 0000 803f 0000 0000 0000 0000
000001b0: 0000 803f 0000 0000 0000 0000 0000 803f
000001c0: 0000 0000 0000 0000 0000 803f 0000 0000
000001d0: 0000 0000 0000 803f 0000 0000 0000 0000
000001e0: 0000 803f 0000 0000 0000 0000 0000 803f
000001f0: 0000 0000 0000 0000 0000 803f 0000 0000
00000200: 0000 803f 0000 803f 0000 0000 0000 803f
00000210: 0000 803f 0000 0000 0000 803f 0000 803f
00000220: 0000 0000 0000 803f 0000 803f 0000 0000
00000230: 0000 803f 0000 803f 0000 0000 0000 803f
00000240: 0000 803f 0000 0000 0000 803f 0000 803f
00000250: 0000 0000 0000 803f 0000 803f 0000 0000
00000260: 0000 803f 0000 803f 0000 0000 0000 803f
00000270: 0000 803f 0000 0000 0000 803f 0000 803f
00000280: 0000 803f 0000 803f 0000 803f 0000 803f
00000290: 0000 803f 0000 803f 0000 803f 0000 803f
000002a0: 0000 803f 0000 803f 0000 803f 0000 803f
000002b0: 0000 803f 0000 803f 0000 803f 0000 803f
000002c0: 0000 803f 0000 803f 0000 803f 0000 803f
000002d0: 0000 803f 0000 803f 0000 803f 0000 803f
000002e0: 0000 803f 0000 803f 0000 803f 0000 803f
000002f0: 0000 803f 0000 803f 0000 803f 0000 803f
00000300: 0000 803f 0000 0000 0000 0000 0000 803f
00000310: 0000 0000 0000 0000 0000 803f 0000 0000
00000320: 0000 0000 0000 803f 0000 0000 0000 0000
00000330: 0000 803f 0000 0000 0000 0000 0000 803f
00000340: 0000 0000 0000 0000 0000 803f 0000 0000
00000350: 0000 0000 0000 803f 0000 0000 0000 0000
00000360: 0000 803f 0000 0000 0000 0000 0000 803f
00000370: 0000 0000 0000 0000 0000 803f 0000 0000
00000380: 0000 803f 0000 803f 0000 0000 0000 803f
00000390: 0000 803f 0000 0000 0000 803f 0000 803f
000003a0: 0000 0000 0000 803f 0000 803f 0000 0000
000003b0: 0000 803f 0000 803f 0000 0000 0000 803f
000003c0: 0000 803f 0000 0000 0000 803f 0000 803f
000003d0: 0000 0000 0000 803f 0000 803f 0000 0000
000003e0: 0000 803f 0000 803f 0000 0000 0000 803f
000003f0: 0000 803f 0000 0000 0000 803f 0000 803f

_transform._transforms.1.autoregressive_net.blocks.1.linear_layers.1.weight f4 [32, 32]
0.023447022 0.00028925753 0.0007815569 0.07762282 0.00050594204 0.00046898285 0.05296773 -0.0007158308
-0.00031161166 0.022843324 0.00053247274 -0.00037730648 0.2540983 0.00068323925 0.0009867833 0.106173694
-0.0009442854 -0.00017711127 0.06743091 -0.0005532283 -0.0007809375 0.06520418 -0.0008605004 0.00015984762
-0.13275221 0.00017192459 -0.00041606845 0.04441456 0.000840305 0.00031110394 0.002524644 0.00076793315
-0.031521693 -0.046252947 -0.0006469521 -0.055418804 -0.946357 -0.00018224157 -0.19942498 0.39356324
3.379023e-05 -0.01083849 0.7200042 -0.00097165804 -0.40853906 0.34841752 -0.00076417427 -0.21070367
0.43829992 -1.5333295e-05 -0.009815315 0.4407654 -0.00090045575 -0.08850649 -0.6373914 -2.9121282e-05
-0.4766958 -0.46252254 -0.00032198252 -0.03438654 0.27445593 -6.892944e-05 0.007209037 -1.4806882
-0.052853506 -0.0017684209 -0.0027638276 -0.056708 -0.42575422 -0.3170031 -0.08330293 0.286497
0.25768897 -0.011989892 -0.20404753 -0.013834842 -0.2485925 -0.008760026 0.09293733 -0.24151348
0.046983372 -0.21287197 -0.08751268 -0.010601951 -0.12399459 -0.112052314 -0.24372827 -0.029625585
-0.19446215 -0.31143373 -0.09770896 -0.057699017 -0.055579722 -0.29940036 -0.025099456 -0.37587374
0.051424127 -0.0009727222 -0.000520188 0.08557143 0.0004497693 -0.00052664627 -0.21317734 -0.00013381125
-0.00074119284 0.045621872 -0.00051915186 9.244562e-05 0.12393225 -0.0005247653 0.00017282832 -0.12322184
-0.00016013421 -0.0006419622 0.096571706 0.0005890329 6.170392e-06 0.11775834 0.0006352617 0.00036958826
0.1591413 0.00088675454 -0.0006771473 0.06450049 -0.00037165202 -0.0009003537 0.0016256835 -0.0004114895
-0.021373836 -0.01791313 -0.0007603829 0.0009398254 -0.12918861 -0.00079699187 0.26979384 0.14224195
-0.00059694983 0.036624428 0.3168695 0.00046342495 -0.09262295 0.013621413 -0.0005627238 0.13794537
0.17391871 -0.00066312804 -0.00552309 0.21507062 -0.00022316707 -0.014110481 -0.17004612 0.00087461225
0.12922956 -0.0723971 -0.0003513415 -0.04426367 0.37227565 0.00084637565 0.00784967 -0.77883273
-0.023981126 -0.0030981707 0.0046855593 -0.04449399 -0.5094087 -0.52855664 -0.09033354 0.27216005
0.24777392 -0.00956532 -0.3299663 -0.011740822 -0.25375038 -0.073319204 0.081912644 -0.24511158
0.06344652 -0.25542986 -0.080880105 -0.12624864 -0.20954846 -0.104041256 -0.28517878 -0.004144444
-0.212503 -0.4596902 -0.06705706 -0.05424878 -0.06353144 -0.46718547 -0.025434595 -0.462974
0.042151514 -0.00090523995 5.0981882e-05 0.04250213 -5.4497006e-05 -0.0001845863 0.079685986 0.00089835614
0.00042852273 0.13233548 -0.0007593338 0.0006150378 0.11147206 0.00038136807 -0.00026951518 0.0037916163
0.00042362275 -0.00042040373 0.058344156 -0.00011507107 -3.514147e-05 0.08445042 -0.00010225869 0.00011453164
-0.09661651 0.0005914828 -0.00040065148 0.061412852 0.00014240504 0.0006472888 0.05282443 0.00018098224
0.064335756 0.06087503 -0.00077016634 0.10396059 0.016847685 0.00018916656 -0.2254079 0.5075668
0.00082123344 0.018240761 0.59021735 0.0005177629 -0.21524481 0.058404572 0.00044764354 -0.043036975
-1.2173946 -0.00084317545 0.024102928 0.5333526 -0.00055618095 0.09204552 0.35438254 -0.0004373515
-0.33836788 -0.039922483 0.0009963929 0.071186595 -0.31136358 0.00089936116 0.02746022 -1.5252372
00000000: f813 c03c 7da7 9739 65e1 4c3a b7f8 9e3d
00000010: 32a1 043a d0e1 f539 b1f4 583d 98a6 3bba
00000020: cf5f a3b9 ec21 bb3c a495 0b3a 38d1 c5b9
00000030: 2c19 823e 691b 333a f456 813a 9871 d93d
00000040: ec89 77ba f2b6 39b9 3819 8a3d 8606 11ba
00000050: d4b7 4cba c589 853d 3493 61ba c59c 2739
00000060: 32f0 07be a846 3439 c323 dab9 0bec 353d
00000070: ea47 5c3a aa1b a339 7f74 253b 1f4f 493a
00000080: e41c 01bd bb73 3dbd 3898 29ba d4fe 62bd
00000090: 7444 72bf 1918 3fb9 1036 4cbe 1f81 c93e
000000a0: fcb9 0d38 ec93 31bc 3252 383f deb6 7eba
000000b0: 082c d1be c863 b23e de52 48ba b4c2 57be
000000c0: d968 e03e 00a0 80b7 6ad0 20bc 01ac e13e
000000d0: 900c 6cba e442 b5bd 152c 23bf 7a49 f4b7
000000e0: 7911 f4be c1cf ecbe c3cf a8b9 e7d8 0cbd
000000f0: 7d85 8c3e 368e 90b8 c939 ec3b 3187 bdbf
00000100: eb7c 58bd 5cca e7ba 5521 35bb a646 68bd
00000110: 75fc d9be 3b4e a2be ba9a aabd bcaf 923e
00000120: cfef 833e 4171 44bc d6f1 50be 88ab 62bc
00000130: 088f 7ebe 3686 0fbc ed55 be3d 4f4f 77be
00000140: a371 403d 1cfb 59be d939 b3bd ceb3 2dbc
00000150: e0f0 fdbd af7b e5bd e793 79be 5bb1 f2bc
00000160: 1621 47be 3e74 9fbe a31b c8bd ce55 6cbd
00000170: 90a7 63bd 014b 99be 609d cdbc 8672 c0be
00000180: 1ba2 523d 48fe 7eba 3a5d 08ba 1340 af3d
00000190: 03cf eb39 a20e 0aba 294b 5abe af4f 0cb9
000001a0: 9c4c 42ba 00de 3a3d b117 08ba 5ddf c138
000001b0: 31d0 fd3d 6790 09ba 4039 3539 bb5b fcbd
000001c0: b3e9 27b9 5b49 28ba 63c7 c53d 5469 1a3a
000001d0: 440b cf36 492b f13d b187 263a 4cc5 c139
000001e0: f0f5 223e 1775 683a 9682 31ba d518 843d
000001f0: 4ada c2b9 b705 6cba e314 d53a 30bd d7b9
00000200: 2f18 afbc 8ebe 92bc 6f54 47ba 9d5e 763a
00000210: 054a 04be 38ed 50ba 6b22 8a3e e0a7 113e
00000220: a07c 1cba 7f03 163d b83c a23e d8f7 f239
00000230: 1ab1 bdbd 592c 5f3c c183 13ba 8d41 0d3e
00000240: bf17 323e c5d5 2dba 09fb b4bb 793b 5c3e
00000250: f401 6ab9 a62f 67bc 9220 2ebe 3c46 653a
00000260: c154 043e ee44 94bd 4234 b8b9 d24d 35bd
00000270: ea9a be3e 4fdf 5d3a e79b 003c 9561 47bf
00000280: 1174 c4bc ae0a 4bbb 5289 993b 543f 36bd
00000290: 9c68 02bf 7d4f 07bf cb00 b9bd 9058 8b3e
000002a0: 72b8 7d3e dcb7 1cbc 58f1 a8be 945c 40bc
000002b0: 92eb 81be 6128 96bd d1c1 a73d 88fe 7abe
000002c0: 40f0 813d b4c7 82be 78a4 a5bd 5347 01be
000002d0: df93 56be 9513 d5bd f402 92be 1ece 87bb
000002e0: 639a 59be 845c ebbe 3655 89bd f833 5ebd
000002f0: c61c 82bd ef32 efbe 365c d0bc ee0a edbe
00000300: 11a7 2c3d a04d 6dba 61d5 5538 b716 2e3d
00000310: b793 64b8 828d 41b9 6832 a33d a97f 6b3a
00000320: 59ab e039 f482 073e 070e 47ba 7d3a 213a
00000330: 774b e43d 5bf2 c739 b74d 8db9 c47c 783b
00000340: af19 de39 a269 dcb9 48fa 6e3d 4f52 f1b8
00000350: de64 13b8 58f4 ac3d b773 d6b8 b530 f038
00000360: e0de c5bd bd0d 1b3a 880e d2b9 0b8c 7b3d
00000370: 9052 1539 d1ae 293a 6e5e 583d 0dc6 3d39
00000380: 77c2 833d 1858 793d fde4 49ba 4ae9 d43d
00000390: 2804 8a3c 035b 4639 54d1 66be e6ef 013f
000003a0: 0b48 573a a66d 953c 7c18 173f 7bba 073a
000003b0: 2369 5cbe a239 6f3d b3b1 ea39 8a47 30bd
000003c0: 96d3 9bbf 8c08 5dba 8173 c53c cc89 083f
000003d0: accc 11ba 5d82 bc3d a171 b53e 534c e5b9
000003e0: 8e3e adbe c285 23bd 6699 823a 47ca 913d
000003f0: 0c6b 9fbe 1bc3 6b3a 41f4 e03c f93a c3bf

_transform._transforms.1.autoregressive_net.blocks.1.linear_layers.1.bias f4 [32]
0.13764645 -0.05330112 -0.13914578 0.15443401 0.14930733 -0.1926876 0.1699496 0.26836467
-0.059261456 0.12829942 0.3009638 0.2977245 0.0041409116 0.3738482 0.33652338 0.14252782
0.37004125 -0.28149688 0.10385511 0.07255991 0.06265401 0.1572592 0.41917485 0.31444502
0.12331566 -0.09068419 0.35391277 0.015049264 -0.09621016 -0.31544757 0.090641305 0.2998411
00000000: 31f3 0c3e 4652 5abd 3b7c 0ebe f323 1e3e
00000010: 05e4 183e e64f 45be 4507 2e3e 1867 893e
00000020: 24bc 72bd ec60 033e ed17 9a3e 586f 983e
00000030: 7cb0 873b 0869 bf3e cb4c ac3e d0f2 113e
00000040: 0c76 bd3e 5c20 90be fdb1 d43d 4a9a 943d
00000050: bf50 803d 8e08 213e 169e d63e f0fe a03e
00000060: ec8c fc3d a2b8 b9bd 0e34 b53e 3091 763c
00000070: d509 c5bd 5882 a1be 26a2 b93d c684 993e
