model2_v1/epoch=150modello-N_iter4-N_features32-N_BS32-epochs250-lr0.001-val_loss1000.pth (torch, 206026 bytes, 72 tensors)

_transform._transforms.1.autoregressive_net.initial_layer.weight f4 [32, 4]
000000 05 9c 85 3a 54 b7 8c be e8 5d 4e be ac 43 fc 3e
       0.0010193592 -0.27483618 -0.2015301 0.4927038
000010 5c 09 55 bc 31 a5 99 bd 86 0a 86 3e 20 c7 0f be
       -0.01300272 -0.07502211 0.26179904 -0.14040804
000020 07 54 ef bc 59 8d e3 be c5 f8 b0 3f 40 68 e3 3c
       -0.029214872 -0.44443777 1.3825918 0.027759671
000030 a7 1c a6 39 2a 21 c8 be 58 28 cd bd 44 8f 6f 3e
       0.00031683335 -0.39087802 -0.100174606 0.23394495
000040 da 39 2e 3e 06 09 64 bd ae 87 c3 be 44 25 f5 be
       0.17014256 -0.055672668 -0.38189453 -0.47879994
000050 30 50 34 bc a1 ce 68 3f b7 23 25 40 64 17 fe be
       -0.011005446 0.9094029 2.5803049 -0.4962722
000060 eb b2 1e b9 58 e4 47 3e 3c d9 35 be 54 c3 7e be
       -0.00015134706 0.195207 -0.1775865 -0.248792
000070 1c 86 8a 3b c0 eb 8e bf 94 5d a6 3e c8 30 46 3e
       0.004227413 -1.1165695 0.3249327 0.19354546
000080 5c 5d ad 3c ec 8b 19 bf 3f 3d 5b 40 5c d2 09 be
       0.021162681 -0.5997913 3.4256132 -0.13459152
000090 17 b5 61 bb e4 df 6a 3e 7a 19 e9 3e 44 d1 3b be
       -0.0034440213 0.2293697 0.4552725 -0.18341547
0000a0 d2 1d 2f 3c 8a 1b 3c 3f 00 66 aa bc 48 23 3f be
       0.010688262 0.7347952 -0.02080059 -0.18665802
0000b0 a6 ef 54 3c b0 ab b0 bc c0 f4 fc bf 00 df 59 3c
       0.01299659 -0.021566242 -1.9762192 0.013297796
0000c0 45 60 85 b9 b8 44 ab bd b2 a3 dd be 08 aa de 3e
       -0.00025439463 -0.083627164 -0.43288952 0.434891
0000d0 14 f1 2d 3a 00 8f 36 bf 96 f7 aa be 38 6d 91 bd
       0.000663535 -0.7131195 -0.33392018 -0.0710091
0000e0 bd bf 63 bc 31 30 06 bf f0 77 eb bf 80 95 e9 3d
       -0.013900694 -0.52417284 -1.8395977 0.11405468
0000f0 2c a6 39 ba 98 d2 fd be 4e 47 a3 be b4 c9 71 3e
       -0.00070819515 -0.49574733 -0.3189034 0.236121
000100 e3 fe a0 3d 1f 40 81 bc 24 db 1f be 00 0c d5 ba
       0.07861116 -0.015777646 -0.1561094 -0.0016254187
000110 d5 1a 24 3c 84 6e 36 3f b3 79 b9 3e d6 f5 cf 3e
       0.010016163 0.71262383 0.36225662 0.40617245
000120 57 26 70 b9 5e 77 f6 3e a0 53 ca 3e 40 29 34 3c
       -0.00022902466 0.48137945 0.39516926 0.010996163
000130 e0 48 5f bc 9e 23 10 bf a4 5a 05 be 9c 4c e2 3e
       -0.013628215 -0.5630435 -0.13022858 0.44199073
000140 dc c3 91 3d 0d 51 4b 3e d3 b8 04 3d 72 e8 c4 be
       0.07117435 0.19855137 0.032402825 -0.38458592
000150 d6 46 87 3b a0 4b d8 3c 70 78 da 3e 14 fa 0c be
       0.0041283173 0.026403248 0.42670012 -0.13767272
000160 63 da 3f bc 40 93 92 3f a4 36 5e 3e 20 f2 c2 bd
       -0.011709782 1.1451187 0.21700531 -0.09518838
000170 af 76 91 bc eb f5 63 bf 07 22 42 40 16 68 e2 be
       -0.017756788 -0.89047116 3.0333269 -0.44220036
000180 c7 24 f7 b9 da b6 ed 3e a8 a0 ca 3e ac 4b 06 3e
       -0.00047138912 0.46428567 0.39575696 0.13114804
000190 cb 33 99 bb a6 dd aa 3f 6c 56 e4 be 1e 7c da 3e
       -0.0046753637 1.3348892 -0.44597185 0.4267282
0001a0 da 35 e5 3c 7c 80 a0 bf 34 4b 64 3e 0c 1f 92 3e
       0.02797978 -1.253921 0.22294313 0.28539312
0001b0 b9 2a 02 3a fe ca a3 3e 80 79 e9 3c 76 58 e3 3e
       0.00049654726 0.31990808 0.028500319 0.44403428
0001c0 ba db 8a 39 02 12 8c bf 40 3d e7 bd e4 34 a2 3e
       0.0002648512 -1.0942996 -0.112909794 0.31680977
0001d0 9a 48 4e bc ab 77 07 3e f8 5d 4c c0 e8 f1 da 3e
       -0.012590552 0.13229243 -3.1932354 0.42762685
0001e0 e3 60 5a ba 56 46 84 be 00 8a 6b bd e6 8c ac 3e
       -0.0008330477 -0.25834912 -0.057504654 0.33701247
0001f0 8e 41 46 3b 20 13 63 bf b0 1d 65 bd a0 c3 73 be
       0.0030251476 -0.8870106 -0.055936515 -0.23805094

_transform._transforms.1.autoregressive_net.initial_layer.bias f4 [32]
000000 1c f4 91 be 38 22 67 be 26 54 10 be 97 48 44 be
       -0.28506553 -0.22571647 -0.140946 -0.19168316
000010 29 f4 6c be a3 b7 c5 be b5 75 3b be 88 b6 76 bf
       -0.23140015 -0.38616666 -0.1830662 -0.9637227
000020 a0 e7 97 bf 9d 53 8d be 32 4b f2 3e 0c 43 02 bf
       -1.1867561 -0.27602854 0.47322994 -0.50883555
000030 b7 80 53 be 0d 02 04 c0 b2 ca 7d be d6 12 92 be
       -0.2065457 -2.0626252 -0.24784353 -0.28529996
000040 3f bd ae be e9 b2 c9 bf 17 c8 4a be 6e f2 a3 bf
       -0.34128758 -1.5757724 -0.1980289 -1.2808359
000050 e2 96 2c bf 12 fa a5 be 1c 30 d3 be 3b 32 b1 3f
       -0.6741773 -0.3241735 -0.41247642 1.3843454
000060 11 72 38 be 49 c9 63 bf 66 85 a3 3f a5 0c 5f be
       -0.18012263 -0.8897901 1.2775085 -0.21782167
000070 23 27 33 bf 5f 4f df bf e1 7b 54 be 50 c4 d9 bf
       -0.6998159 -1.7446097 -0.20750381 -1.7013035

_transform._transforms.1.autoregressive_net.initial_layer.mask f4 [32, 4]
000000 00 00 80 3f 00 00 00 00 00 00 00 00 00 00 00 00
       1.0 0.0 0.0 0.0
000010 00 00 80 3f 00 00 80 3f 00 00 00 00 00 00 00 00
       1.0 1.0 0.0 0.0
000020 00 00 80 3f 00 00 80 3f 00 00 80 3f 00 00 00 00
       1.0 1.0 1.0 0.0
000030 00 00 80 3f 00 00 00 00 00 00 00 00 00 00 00 00
       1.0 0.0 0.0 0.0
000040 00 00 80 3f 00 00 80 3f 00 00 00 00 00 00 00 00
       1.0 1.0 0.0 0.0
000050 00 00 80 3f 00 00 80 3f 00 00 80 3f 00 00 00 00
       1.0 1.0 1.0 0.0
000060 00 00 80 3f 00 00 00 00 00 00 00 00 00 00 00 00
       1.0 0.0 0.0 0.0
000070 00 00 80 3f 00 00 80 3f 00 00 00 00 00 00 00 00
       1.0 1.0 0.0 0.0
000080 00 00 80 3f 00 00 80 3f 00 00 80 3f 00 00 00 00
       1.0 1.0 1.0 0.0
000090 00 00 80 3f 00 00 00 00 00 00 00 00 00 00 00 00
       1.0 0.0 0.0 0.0
0000a0 00 00 80 3f 00 00 80 3f 00 00 00 00 00 00 00 00
       1.0 1.0 0.0 0.0
0000b0 00 00 80 3f 00 00 80 3f 00 00 80 3f 00 00 00 00
       1.0 1.0 1.0 0.0
0000c0 00 00 80 3f 00 00 00 00 00 00 00 00 00 00 00 00
       1.0 0.0 0.0 0.0
0000d0 00 00 80 3f 00 00 80 3f 00 00 00 00 00 00 00 00
       1.0 1.0 0.0 0.0
0000e0 00 00 80 3f 00 00 80 3f 00 00 80 3f 00 00 00 00
       1.0 1.0 1.0 0.0
0000f0 00 00 80 3f 00 00 00 00 00 00 00 00 00 00 00 00
       1.0 0.0 0.0 0.0
000100 00 00 80 3f 00 00 80 3f 00 00 00 00 00 00 00 00
       1.0 1.0 0.0 0.0
000110 00 00 80 3f 00 00 80 3f 00 00 80 3f 00 00 00 00
       1.0 1.0 1.0 0.0
000120 00 00 80 3f 00 00 00 00 00 00 00 00 00 00 00 00
       1.0 0.0 0.0 0.0
000130 00 00 80 3f 00 00 80 3f 00 00 00 00 00 00 00 00
       1.0 1.0 0.0 0.0
000140 00 00 80 3f 00 00 80 3f 00 00 80 3f 00 00 00 00
       1.0 1.0 1.0 0.0
000150 00 00 80 3f 00 00 00 00 00 00 00 00 00 00 00 00
       1.0 0.0 0.0 0.0
000160 00 00 80 3f 00 00 80 3f 00 00 00 00 00 00 00 00
       1.0 1.0 0.0 0.0
000170 00 00 80 3f 00 00 80 3f 00 00 80 3f 00 00 00 00
       1.0 1.0 1.0 0.0
000180 00 00 80 3f 00 00 00 00 00 00 00 00 00 00 00 00
       1.0 0.0 0.0 0.0
000190 00 00 80 3f 00 00 80 3f 00 00 00 00 00 00 00 00
       1.0 1.0 0.0 0.0
0001a0 00 00 80 3f 00 00 80 3f 00 00 80 3f 00 00 00 00
       1.0 1.0 1.0 0.0
0001b0 00 00 80 3f 00 00 00 00 00 00 00 00 00 00 00 00
       1.0 0.0 0.0 0.0
0001c0 00 00 80 3f 00 00 80 3f 00 00 00 00 00 00 00 00
       1.0 1.0 0.0 0.0
0001d0 00 00 80 3f 00 00 80 3f 00 00 80 3f 00 00 00 00
       1.0 1.0 1.0 0.0
0001e0 00 00 80 3f 00 00 00 00 00 00 00 00 00 00 00 00
       1.0 0.0 0.0 0.0
0001f0 00 00 80 3f 00 00 80 3f 00 00 00 00 00 00 00 00
       1.0 1.0 0.0 0.0

_transform._transforms.1.autoregressive_net.blocks.0.linear_layers.0.weight f4 [32, 32]
000000 e7 6d 28 be 13 41 0e 3e b8 7f 0b 3b d8 fc 96 bd
       -0.16448174 0.13892011 0.0021285843 -0.07372445
000010 2d a0 f5 bb 20 fd 34 3d 21 42 1f be 47 dc 01 be
       -0.007495901 0.04418671 -0.1555257 -0.12681685
000020 27 59 19 3d f8 a2 fb 3d fa b7 19 be 4a df 07 3b
       0.037438538 0.12286943 -0.15011588 0.0020732456
000030 81 75 a9 3b 8c 34 0b 3d bb fa 0b 3e 93 ba bf bd
       0.0051714783 0.03398566 0.13669865 -0.09361758
000040 71 b0 f3 3d 36 fe f5 bd 1d fa c4 bd b9 5d 7b 3c
       0.11898888 -0.120113775 -0.09618018 0.015342169
000050 3c 47 10 bd b3 9a 12 3e 82 dc 67 bd af d3 88 3c
       -0.035224184 0.14316826 -0.056606777 0.016702501
000060 f8 fc 5f 3d a2 60 ef 3d 9a c5 cc bd 30 77 a6 bd
       0.05468461 0.11688353 -0.09998627 -0.08128202
000070 19 9b f0 3d c1 64 ed 3d 38 79 d7 bd ba 08 ab bd
       0.117483325 0.11591483 -0.105211675 -0.08351274
000080 11 ab 7e bd 49 3e 1e 3e d0 f3 1c be 2b 86 0e be
       -0.06217486 0.15453447 -0.15327382 -0.13918369
000090 31 12 a1 3d 6b 18 0d 3e e4 72 ee 3c 4b 47 f7 bd
       0.07864798 0.13778846 0.029107518 -0.12074145
0000a0 ad 46 f4 3d ba 27 57 bc f4 fa 75 3c 0b d5 2f be
       0.11927543 -0.01313203 0.015013445 -0.17171113
0000b0 96 ee 23 3e ee ee 4f bd 03 0f cf 3d 34 79 00 be
       0.16008982 -0.05076497 0.10110285 -0.12546235
0000c0 d9 0c c6 bd 2b 06 e7 3d 1f 8f 8f 3d 63 66 b7 bd
       -0.09670419 0.11280473 0.0700972 -0.089550756
0000d0 07 49 2a be 4f 25 55 bd ca 0a 14 be 9f d7 20 3e
       -0.1662942 -0.052037533 -0.1445724 0.15707253
0000e0 88 17 04 3e a2 bd 10 bc 37 4f 94 bc ea 56 e4 bd
       0.12899601 -0.0088342745 -0.018104179 -0.1114939
0000f0 53 96 96 bd be ac 59 bd 92 b4 9b 3d 49 6d c7 bd
       -0.07352891 -0.053143255 0.076028004 -0.09737641
000100 23 f6 2d 3e ca c6 7e 3e db 67 c9 3d 5e c6 c3 3e
       0.16988425 0.2488052 0.09834262 0.3823728
000110 5a 43 3f 3f 25 d8 59 3e d7 a4 14 3f c9 de d6 c0
       0.74712145 0.21273859 0.58064026 -6.7146955
000120 bc f3 1d be a4 1f 5e be d9 77 32 c1 fd 1e 2c be
       -0.15425009 -0.21691757 -11.15426 -0.16808696
000130 d5 f4 b5 3e 21 d6 ef 3d 2e a0 94 3e b7 61 70 be
       0.35538355 0.11710764 0.29028457 -0.23474775
000140 87 60 27 3f 43 ef a2 bf cf 81 2b 3e 48 1e 95 3d
       0.65381664 -1.2729267 0.16748737 0.07281166
000150 46 85 9b bf 65 89 fe bd 0e 4d 9a bf ad 54 81 3e
       -1.2150047 -0.1242855 -1.2054765 0.25259915
000160 49 23 f2 bb 64 ab 2b be 11 ca 9a 3e 53 21 aa bf
       -0.00738946 -0.16764599 0.3023229 -1.329142
000170 85 5b 85 bf d8 8e 6f be a7 02 e9 3d 85 e4 93 bd
       -1.0418555 -0.23394334 0.11377459 -0.07221321
000180 5b 26 01 be 54 3d 98 3d 71 cd f7 bd b1 a3 f5 3c
       -0.12612288 0.074335724 -0.12099732 0.02998528
000190 0f 50 f0 3d 39 5e 26 be 35 1f 40 3c 3c 96 be bd
       0.1173402 -0.1624688 0.01172619 -0.09305999
0001a0 ff eb ec bd cc ac dc 3d ce ff 2f 3e 30 09 3e bd
       -0.1156845 0.10775146 0.17187425 -0.04639548
0001b0 56 d3 0c 3c 48 dd e9 3d de 4a 9b 3d 09 18 3e be
       0.008595308 0.11419159 0.07582639 -0.18563856
0001c0 95 9a 2b be 27 f3 10 bd 5a b0 5c be 53 5b 31 bb
       -0.16758187 -0.03538814 -0.21551648 -0.002706249
0001d0 69 40 2d be 17 6b 1d be 21 12 b1 bd f1 56 16 3e
       -0.16919102 -0.15372883 -0.08646036 0.14681603
0001e0 56 f5 45 be 84 61 11 be 0b c3 05 be b1 38 29 be
       -0.1933187 -0.14197356 -0.13062684 -0.16525532
0001f0 ed df 58 3d 3b e1 0a 3e 81 cf 00 be 84 c3 e9 3d
       0.052947927 0.13562481 -0.12579156 0.11414245
000200 70 61 0e 3d a1 21 15 be d0 3c f4 bd 16 68 a9 3e
       0.034760892 -0.1456361 -0.119256616 0.33087224
000210 33 f0 89 bf 36 e5 b1 bb 77 cf 1a bf 14 97 ec bd
       -1.0776428 -0.0054289354 -0.60472816 -0.11552253
000220 60 4e 15 be 09 14 ae 3e ad 84 fa 3e 9e 86 fc bd
       -0.14580679 0.3399966 0.4892935 -0.12330364
000230 64 8f e4 be f1 c5 19 bb 1f da 63 3c d6 a3 96 3d
       -0.44640648 -0.002346393 0.013906985 0.07355468
000240 01 bc 81 3d b2 7b 53 bd a2 d1 be 3e b2 7e 80 bd
       0.06334687 -0.051631637 0.37269312 -0.06274165
000250 b2 eb 2b 3d 24 a1 ab 3d f8 c8 3c 3e c9 22 e0 3d
       0.041972823 0.083803445 0.18436038 0.10944135
000260 a5 ee 22 3b f5 0a 47 bf 78 c9 44 3b 5a 02 2b 3e
       0.0024861482 -0.77751094 0.0030027311 0.16700116
000270 9f 68 e9 3d 07 0c 34 be b5 67 bd be 4d 97 f6 be
       0.11396908 -0.17582713 -0.36993185 -0.48162308
000280 ce 9e 4b be 14 99 0f bf b4 40 c1 3d 13 a7 ca 39
       -0.19884798 -0.56092954 0.09436169 0.00038652922
000290 6c 60 f3 bd b8 3c 65 3a 53 a7 0d be ff 06 89 bd
       -0.118836254 0.00087447045 -0.1383336 -0.066907875
0002a0 a8 4b 67 be d0 9f 0a be dc 51 c6 3c d7 a0 40 bc
       -0.22587454 -0.13537526 0.024208955 -0.011757097
0002b0 ab f1 02 be 0e 31 d1 3c 35 db ae bc a3 9a 19 be
       -0.12787502 0.025536086 -0.02134476 -0.15000395
0002c0 fe 1b 8d be f9 01 9f bd dc ce 20 be 14 1e dd bd
       -0.2756042 -0.07764048 -0.1570391 -0.107967526
0002d0 3e 96 d9 bd 86 7c 21 be 11 64 be bd e5 64 7f 3d
       -0.106243595 -0.15770158 -0.0929643 0.06235208
0002e0 f1 c7 79 be d5 ff 9b 3d 83 13 09 bf 47 22 ab 3e
       -0.24392678 0.076171555 -0.535454 0.3342459
0002f0 28 95 24 bc 47 9d 3a be 5f bd c4 be 44 e5 57 bd
       -0.010045327 -0.18224059 -0.3842573 -0.05270888
000300 b7 89 e6 3d 66 4b 80 3d 22 02 bf bd 30 b9 61 be
       0.11256736 0.06264381 -0.09326579 -0.220433
000310 62 f9 e8 bd 7f 81 f7 bc cb d3 47 be 70 73 bd bc
       -0.11375691 -0.030213116 -0.19514386 -0.023126334
000320 c7 19 0d be c5 11 01 3e 4f 4a 29 3e 41 01 94 bc
       -0.13779365 0.12604435 0.16532253 -0.018067004
000330 a4 21 3a bd cf 86 26 3e 05 6c 19 3e 32 c6 e4 3d
       -0.04544224 0.16262363 0.14982612 0.11170615
000340 ad a5 1c 3e 75 91 29 3e de 34 8c bd c8 7d de 3d
       0.15297575 0.16559394 -0.06846021 0.108638346
000350 fa 5a c1 3c 45 e3 09 bd 1d bd 01 be 56 50 03 be
       0.023602951 -0.033664007 -0.12669797 -0.12823614
000360 aa b3 87 be d8 22 2c be d0 eb 16 3e cd c2 e9 3d
       -0.2650426 -0.16810167 0.14738393 0.114141084
000370 b5 3b 01 be b5 7d 11 be c9 02 88 3d c8 c0 cd 3d
       -0.12620433 -0.1420811 0.06641156 0.10046536
000380 28 a6 aa bd b0 4b 40 be a1 17 ff 3d 3a 1b 0a 3e
       -0.08332473 -0.18778872 0.12455679 0.13486949
000390 d6 44 a7 3e f4 0b a4 3c 8d cf 15 3e 5e ab 92 3e
       0.32669705 0.020025231 0.14629956 0.28646368
0003a0 48 bc b2 3d 96 41 a7 3d ab 45 0d 3f 79 ca 92 3d
       0.08727318 0.081668064 0.5518443 0.07167525
0003b0 42 0d 9b bd 63 8c fc bc 65 a2 eb 3c e8 f3 4e 3e
       -0.07570888 -0.03082866 0.02876396 0.2021023
0003c0 1a f0 86 bf 61 f6 15 be 97 60 ba 3d 03 9d be bf
       -1.0542023 -0.14644767 0.09100454 -1.4891666
0003d0 37 c2 5e 3c b5 e4 7a 3e c5 c5 e1 3f 9d 00 f3 3d
       0.013596109 0.24501307 1.763848 0.11865351
0003e0 97 d0 95 3e d3 05 46 c0 26 ea ec 3d c6 a7 20 bf
       0.29260704 -3.0941055 0.11568098 -0.62756
0003f0 2a be ca bd 3e 3c 08 3e f1 56 97 be e0 81 84 c0
       -0.09899552 0.1330423 -0.2955852 -4.140854

_transform._transforms.1.autoregressive_net.blocks.0.linear_layers.0.bias f4 [32]
000000 db f8 90 bd 89 c1 2a be 18 8c 89 bc db 7c ef bc
       -0.070787154 -0.1667539 -0.016790435 -0.02923434
000010 69 3e a7 be 07 8a 8e be f2 91 4a be dc d0 01 bf
       -0.32664803 -0.27839682 -0.19782236 -0.5070932
000020 b0 17 0c bd f5 ac e7 bd bf 4c d1 be 37 17 08 3b
       -0.034202278 -0.11312286 -0.40878865 0.002076579
000030 6e 6e 62 bd 67 0c cc bf ed 9a 43 bd 90 cf b2 bd
       -0.055281095 -1.5941285 -0.04775517 -0.08730996
000040 83 d1 1d 3f c3 bd 9d 3e 9c bc 22 bd a6 0b 0b 3f
       0.61647815 0.3080884 -0.039730653 0.5431465
000050 97 7f 27 bf f8 b2 75 bd 40 e7 8e be 46 8a 37 3e
       -0.6542906 -0.05998513 -0.27910805 0.17923841
000060 cf f5 48 bd d4 8d 64 bf 21 74 19 3f f6 04 56 bd
       -0.049062546 -0.8927891 0.59942824 -0.052250825
000070 19 31 31 bd 51 cb 17 3f 2f 2a ad bc f8 a7 55 bf
       -0.043259714 0.5929461 -0.021138279 -0.83459425

_transform._transforms.1.autoregressive_net.blocks.0.linear_layers.0.mask f4 [32, 32]
000000 00 00 80 3f 00 00 00 00 00 00 00 00 00 00 80 3f
       1.0 0.0 0.0 1.0
000010 00 00 00 00 00 00 00 00 00 00 80 3f 00 00 00 00
       0.0 0.0 1.0 0.0
000020 00 00 00 00 00 00 80 3f 00 00 00 00 00 00 00 00
       0.0 1.0 0.0 0.0
000030 00 00 80 3f 00 00 00 00 00 00 00 00 00 00 80 3f
       1.0 0.0 0.0 1.0
000040 00 00 00 00 00 00 00 00 00 00 80 3f 00 00 00 00
       0.0 0.0 1.0 0.0
000050 00 00 00 00 00 00 80 3f 00 00 00 00 00 00 00 00
       0.0 1.0 0.0 0.0
000060 00 00 80 3f 00 00 00 00 00 00 00 00 00 00 80 3f
       1.0 0.0 0.0 1.0
000070 00 00 00 00 00 00 00 00 00 00 80 3f 00 00 00 00
       0.0 0.0 1.0 0.0
000080 00 00 80 3f 00 00 80 3f 00 00 00 00 00 00 80 3f
       1.0 1.0 0.0 1.0
000090 00 00 80 3f 00 00 00 00 00 00 80 3f 00 00 80 3f
       1.0 0.0 1.0 1.0
0000a0 00 00 00 00 00 00 80 3f 00 00 80 3f 00 00 00 00
       0.0 1.0 1.0 0.0
0000b0 00 00 80 3f 00 00 80 3f 00 00 00 00 00 00 80 3f
       1.0 1.0 0.0 1.0
0000c0 00 00 80 3f 00 00 00 00 00 00 80 3f 00 00 80 3f
       1.0 0.0 1.0 1.0
0000d0 00 00 00 00 00 00 80 3f 00 00 80 3f 00 00 00 00
       0.0 1.0 1.0 0.0
0000e0 00 00 80 3f 00 00 80 3f 00 00 00 00 00 00 80 3f
       1.0 1.0 0.0 1.0
0000f0 00 00 80 3f 00 00 00 00 00 00 80 3f 00 00 80 3f
       1.0 0.0 1.0 1.0
000100 00 00 80 3f 00 00 80 3f 00 00 80 3f 00 00 80 3f
       1.0 1.0 1.0 1.0
000110 00 00 80 3f 00 00 80 3f 00 00 80 3f 00 00 80 3f
       1.0 1.0 1.0 1.0
000120 00 00 80 3f 00 00 80 3f 00 00 80 3f 00 00 80 3f
       1.0 1.0 1.0 1.0
000130 00 00 80 3f 00 00 80 3f 00 00 80 3f 00 00 80 3f
       1.0 1.0 1.0 1.0
000140 00 00 80 3f 00 00 80 3f 00 00 80 3f 00 00 80 3f
       1.0 1.0 1.0 1.0
000150 00 00 80 3f 00 00 80 3f 00 00 80 3f 00 00 80 3f
       1.0 1.0 1.0 1.0
000160 00 00 80 3f 00 00 80 3f 00 00 80 3f 00 00 80 3f
       1.0 1.0 1.0 1.0
000170 00 00 80 3f 00 00 80 3f 00 00 80 3f 00 00 80 3f
       1.0 1.0 1.0 1.0
000180 00 00 80 3f 00 00 00 00 00 00 00 00 00 00 80 3f
       1.0 0.0 0.0 1.0
000190 00 00 00 00 00 00 00 00 00 00 80 3f 00 00 00 00
       0.0 0.0 1.0 0.0
0001a0 00 00 00 00 00 00 80 3f 00 00 00 00 00 00 00 00
       0.0 1.0 0.0 0.0
0001b0 00 00 80 3f 00 00 00 00 00 00 00 00 00 00 80 3f
       1.0 0.0 0.0 1.0
0001c0 00 00 00 00 00 00 00 00 00 00 80 3f 00 00 00 00
       0.0 0.0 1.0 0.0
0001d0 00 00 00 00 00 00 80 3f 00 00 00 00 00 00 00 00
       0.0 1.0 0.0 0.0
0001e0 00 00 80 3f 00 00 00 00 00 00 00 00 00 00 80 3f
       1.0 0.0 0.0 1.0
0001f0 00 00 00 00 00 00 00 00 00 00 80 3f 00 00 00 00
       0.0 0.0 1.0 0.0
000200 00 00 80 3f 00 00 80 3f 00 00 00 00 00 00 80 3f
       1.0 1.0 0.0 1.0
000210 00 00 80 3f 00 00 00 00 00 00 80 3f 00 00 80 3f
       1.0 0.0 1.0 1.0
000220 00 00 00 00 00 00 80 3f 00 00 80 3f 00 00 00 00
       0.0 1.0 1.0 0.0
000230 00 00 80 3f 00 00 80 3f 00 00 00 00 00 00 80 3f
       1.0 1.0 0.0 1.0
000240 00 00 80 3f 00 00 00 00 00 00 80 3f 00 00 80 3f
       1.0 0.0 1.0 1.0
000250 00 00 00 00 00 00 80 3f 00 00 80 3f 00 00 00 00
       0.0 1.0 1.0 0.0
000260 00 00 80 3f 00 00 80 3f 00 00 00 00 00 00 80 3f
       1.0 1.0 0.0 1.0
000270 00 00 80 3f 00 00 00 00 00 00 80 3f 00 00 80 3f
       1.0 0.0 1.0 1.0
000280 00 00 80 3f 00 00 80 3f 00 00 80 3f 00 00 80 3f
       1.0 1.0 1.0 1.0
000290 00 00 80 3f 00 00 80 3f 00 00 80 3f 00 00 80 3f
       1.0 1.0 1.0 1.0
0002a0 00 00 80 3f 00 00 80 3f 00 00 80 3f 00 00 80 3f
       1.0 1.0 1.0 1.0
0002b0 00 00 80 3f 00 00 80 3f 00 00 80 3f 00 00 80 3f
       1.0 1.0 1.0 1.0
0002c0 00 00 80 3f 00 00 80 3f 00 00 80 3f 00 00 80 3f
       1.0 1.0 1.0 1.0
0002d0 00 00 80 3f 00 00 80 3f 00 00 80 3f 00 00 80 3f
       1.0 1.0 1.0 1.0
0002e0 00 00 80 3f 00 00 80 3f 00 00 80 3f 00 00 80 3f
       1.0 1.0 1.0 1.0
0002f0 00 00 80 3f 00 00 80 3f 00 00 80 3f 00 00 80 3f
       1.0 1.0 1.0 1.0
000300 00 00 80 3f 00 00 00 00 00 00 00 00 00 00 80 3f
       1.0 0.0 0.0 1.0
000310 00 00 00 00 00 00 00 00 00 00 80 3f 00 00 00 00
       0.0 0.0 1.0 0.0
000320 00 00 00 00 00 00 80 3f 00 00 00 00 00 00 00 00
       0.0 1.0 0.0 0.0
000330 00 00 80 3f 00 00 00 00 00 00 00 00 00 00 80 3f
       1.0 0.0 0.0 1.0
000340 00 00 00 00 00 00 00 00 00 00 80 3f 00 00 00 00
       0.0 0.0 1.0 0.0
000350 00 00 00 00 00 00 80 3f 00 00 00 00 00 00 00 00
       0.0 1.0 0.0 0.0
000360 00 00 80 3f 00 00 00 00 00 00 00 00 00 00 80 3f
       1.0 0.0 0.0 1.0
000370 00 00 00 00 00 00 00 00 00 00 80 3f 00 00 00 00
       0.0 0.0 1.0 0.0
000380 00 00 80 3f 00 00 80 3f 00 00 00 00 00 00 80 3f
       1.0 1.0 0.0 1.0
000390 00 00 80 3f 00 00 00 00 00 00 80 3f 00 00 80 3f
       1.0 0.0 1.0 1.0
0003a0 00 00 00 00 00 00 80 3f 00 00 80 3f 00 00 00 00
       0.0 1.0 1.0 0.0
0003b0 00 00 80 3f 00 00 80 3f 00 00 00 00 00 00 80 3f
       1.0 1.0 0.0 1.0
0003c0 00 00 80 3f 00 00 00 00 00 00 80 3f 00 00 80 3f
       1.0 0.0 1.0 1.0
0003d0 00 00 00 00 00 00 80 3f 00 00 80 3f 00 00 00 00
       0.0 1.0 1.0 0.0
0003e0 00 00 80 3f 00 00 80 3f 00 00 00 00 00 00 80 3f
       1.0 1.0 0.0 1.0
0003f0 00 00 80 3f 00 00 00 00 00 00 80 3f 00 00 80 3f
       1.0 0.0 1.0 1.0

_transform._transforms.1.autoregressive_net.blocks.0.linear_layers.1.weight f4 [32, 32]
000000 f3 1c d7 3d f6 0f 26 3a 0d fc 7b 3a a4 27 70 3d
       0.105035685 0.0006334776 0.00096124486 0.058631554
000010 0b 47 34 3a 28 08 53 ba 29 19 cd bb 7d f4 35 3a
       0.00068770413 -0.00080502266 -0.006259103 0.00069410336
000020 8a f1 4d 3a 2a ff 7b 3a 48 71 bf 38 4d 5f 73 39
       0.00078561215 0.00096129125 9.12869e-05 0.00023209788
000030 34 67 6c 3d 01 c8 dd b8 d3 ba 2f 3a bf b3 ef b9
       0.05771561 -0.00010575355 0.0006703559 -0.00045719554
000040 5d 33 ef b9 38 39 43 b8 12 ae 07 3d ff e0 55 39
       -0.000456239 -4.6544912e-05 0.03312499 0.0002039708
000050 6f d1 37 ba 81 42 67 3d e8 47 3d 3a 7d 05 1b ba
       -0.0007012104 0.056459907 0.00072204927 -0.00059135986
000060 84 9d 1a 3d 59 68 78 ba 1b f9 d8 39 7f 34 27 3e
       0.037747875 -0.0009475998 0.00041384329 0.1632862
000070 01 84 54 3a 0f 7d 05 3a a0 80 4c 3d a0 34 ac b9
       0.00081068283 0.00050921825 0.049927354 -0.00032845605
000080 99 db 64 bd 77 09 14 3a 84 f0 b9 38 c5 76 03 3d
       -0.055873487 0.00056471623 8.866287e-05 0.03209569
000090 e8 fd 75 bf e8 1f 43 ba 44 52 26 bc 4f 2b 15 bf
       -0.96090555 -0.0007443414 -0.01015145 -0.5826921
0000a0 80 6e 33 b9 63 40 3f 3a 19 95 e1 3c f9 ef ec b9
       -0.00017111935 0.0007295666 0.027536916 -0.0004519222
0000b0 ac 98 0e be 01 46 e8 be ee b5 0e ba 09 24 d7 38
       -0.13925427 -0.4536591 -0.000544398 0.00010258711
0000c0 bc b4 6f 3f cb ab d9 39 43 e6 ea bc d5 a4 c6 bf
       0.93635154 0.0004151746 -0.02867425 -1.5519053
0000d0 ee 04 a0 38 a2 2a eb 3b c3 88 c8 bf 40 31 7c b9
       7.630313e-05 0.007176713 -1.5666736 -0.0002405094
0000e0 e6 6b 25 bc 7d 76 8e 3f ec 06 65 ba ea ab 36 bd
       -0.010096526 1.112991 -0.0008736688 -0.044597544
0000f0 ee e6 97 3d 98 3a 44 39 8d e2 23 3d e0 e3 45 3f
       0.07417093 0.00018713844 0.040010978 0.77300835
000100 17 bc 06 be 36 08 81 39 7f 8c d9 bd 46 38 24 be
       -0.13157688 0.00024610915 -0.10622501 -0.16037092
000110 ad 7b 78 bd a7 66 c6 bc 13 b8 8c bd ec 38 86 bf
       -0.06066482 -0.02421887 -0.06871047 -1.0486121
000120 20 56 9d bd 1f 17 d0 39 de a5 00 3e 50 8a 68 bd
       -0.07682443 0.00039690078 0.12563273 -0.05677253
000130 10 b9 50 bd 35 ed 11 3e f9 14 1b bd 59 69 0e 39
       -0.05095774 0.14250644 -0.037861798 0.0001358142
000140 17 5d d5 3e 22 55 af be bd b9 98 bd ae 84 d6 be
       0.41672584 -0.3424464 -0.07457302 -0.41898102
000150 ea 12 58 bf b6 30 94 bd ac 97 f3 3e 8e 5a 2f 3e
       -0.8440386 -0.072358534 0.47576654 0.17124388
000160 2e 37 85 bd 5b fe 3f bf e8 8c ea 3e 53 be 2c bd
       -0.06504665 -0.7499749 0.45810628 -0.042173695
000170 c5 0a 2e 3f 6a 5b 15 3e 7e f3 ce bd 30 d6 a0 bf
       0.67985183 0.14585653 -0.10105036 -1.2565365
000180 62 8d b5 3d f8 af 4c 39 55 01 d7 b9 a2 6c 29 3d
       0.08864857 0.0001952051 -0.00041008988 0.041363366
000190 da 05 79 ba c7 27 c4 b9 82 6e d3 3b 67 06 0c 38
       -0.0009499468 -0.0003741367 0.0064523825 3.3384564e-05
0001a0 73 0b 5a 3a d6 b9 4f ba 19 94 0c b9 6d 87 6b 38
       0.0008317746 -0.0007924115 -0.00013406611 5.615449e-05
0001b0 85 87 6d 3d ad 02 34 3a fc e9 37 3a 61 9d 6f b9
       0.05799057 0.0006866854 0.00070157624 -0.00022851444
0001c0 19 84 f3 b6 8c 0c 82 38 00 a4 67 3d 9e 2b 52 39
       -7.2573425e-06 6.20122e-05 0.056552887 0.0002004341
0001d0 0f ed 66 b9 d8 f2 0e 3d f8 c6 53 ba aa 53 1b 3a
       -0.0002202282 0.034899563 -0.000807866 0.00059252477
0001e0 3b 41 4d 3d 24 1b 7d 3a 9c 38 e1 39 7d 05 15 bd
       0.050111037 0.00096552284 0.00042957522 -0.036382187
0001f0 b1 c5 74 ba cb 5e 6a ba a8 8e f3 3d 59 51 18 b9
       -0.00093373196 -0.0008940517 0.11892444 -0.00014526154
000200 df 45 78 bd 78 6a f3 b9 d0 4f e0 39 26 59 98 3b
       -0.06061351 -0.00046427897 0.00042784074 0.004649299
000210 e5 61 28 3f d4 2b f4 39 77 6f 7a 3c ec 5e c0 bd
       0.65774375 0.0004657196 0.015285364 -0.09393105
000220 d9 42 81 ba de 3e e3 b9 3c 8c 3f be 36 7e de b7
       -0.0009861841 -0.00043343654 -0.18705839 -2.6523234e-05
000230 d1 f3 fd bd ce 5a f6 3e 90 06 94 b9 5b 6a 1e ba
       -0.1240002 0.48116153 -0.0002823365 -0.000604307
000240 3b bb b1 ba 05 50 be b9 58 e6 b7 bd 88 c2 fb 3e
       -0.0013559827 -0.00036299243 -0.089794815 0.49171853
000250 f9 cf 6a 3a ac fe 1d bd 9f 6b a3 3e 28 c8 6f ba
       0.0008957382 -0.038572952 0.31918046 -0.0009146952
000260 8c 79 37 bd 96 43 29 3f e0 90 59 ba 1f aa 9a bd
       -0.04479365 0.6611875 -0.0008299481 -0.07551979
000270 9d f6 46 3e 1b 77 d3 b8 7f 99 04 bd 6e 58 81 3f
       0.19430013 -0.00010083449 -0.032372948 1.0105112
000280 7f 60 06 be 7e 1f 4f 3a 6f 78 23 bf a9 9c 2d be
       -0.13122748 0.0007901116 -0.6385564 -0.16954292
000290 97 44 8f be 7b 8a 45 3c a7 9f 3f bd 75 14 39 bf
       -0.27982017 0.012056942 -0.046783116 -0.7229684
0002a0 37 50 54 bd f4 6d ef b8 ec b6 53 bf e5 49 09 bd
       -0.05183431 -0.000114168884 -0.8270099 -0.033517737
0002b0 11 cd 05 bd 9b 47 5c bf 02 4c 21 bd ac c6 04 3a
       -0.03266627 -0.8604676 -0.039379127 0.0005065005
0002c0 cc 08 c4 3e 95 7d 94 3e 7d d1 a1 bd e7 de b0 be
       0.3828796 0.2900206 -0.07901285 -0.3454506
0002d0 88 40 39 c0 ab 9e a0 bd aa 39 3f be b9 40 1f 3e
       -2.8945637 -0.078427635 -0.18674341 0.15552033
0002e0 d7 e5 88 bd 07 ae 43 bf 1f 3e 21 be d8 d5 1b bd
       -0.066844635 -0.7643742 -0.15746354 -0.038045734
0002f0 01 ca 0d 3e ef 12 b4 be c8 fb b6 bd 26 9c e3 bf
       0.1384659 -0.35170695 -0.08934742 -1.7782028
000300 8d 55 29 3e 73 10 a4 38 01 5d 66 3a 64 ea dc 3b
       0.16536541 7.823193e-05 0.00087876624 0.0067418087
000310 cc c7 7c 3a 8c e0 08 3a 76 d8 d9 3d 09 be 52 3a
       0.0009642809 0.00052214484 0.1063699 0.00080391817
000320 ec 36 44 3a 4e 2a 05 b9 bf a8 1e ba 3c 55 50 ba
       0.00074849906 -0.00012699628 -0.0006052367 -0.0007947271
000330 91 3f 16 bd 63 5e f4 39 07 39 d0 39 9e 85 a8 39
       -0.036681715 0.0004660963 0.0003971534 0.0003214301
000340 a0 d2 d3 38 21 04 a2 b9 a7 44 05 3e a2 d9 38 39
       0.00010100496 -0.00030902124 0.1301447 0.00017628682
000350 0f fb a6 b9 c1 31 69 3d e4 d3 4a ba 73 eb 77 ba
       -0.0003184904 0.056932215 -0.00077372626 -0.0009457387
000360 e1 35 85 3d 19 4c f5 b9 36 d6 76 39 57 d4 cf 3d
       0.06504417 -0.0004678674 0.00023540188 0.101479225
000370 98 e2 4b 39 29 b9 2b 3a 88 0c 7f 3d a6 17 1c b9
       0.00019444001 0.00065507233 0.06226781 -0.00014886129
000380 56 6e ef 3d 0d 14 9d 39 f8 51 be 39 65 d8 e6 3d
       0.11690967 0.00029960313 0.00036300696 0.11271743
000390 e2 4e 5f 40 bf f9 81 3a 36 0b 82 3d 8d 94 91 3e
       3.4891896 0.0009916349 0.063497946 0.28433648
0003a0 c7 56 82 ba 84 80 a2 b7 77 f3 14 be 76 d8 75 ba
       -0.0009944075 -1.937175e-05 -0.14546 -0.00093782635
0003b0 2c 60 35 3e 80 ae eb 3f 55 d4 78 ba 77 ad 50 ba
       0.17712468 1.8412628 -0.0009492089 -0.00079604186
0003c0 5f 1a 9b be 61 26 07 ba 5c 7e 05 3e 14 04 93 be
       -0.30293557 -0.000515556 0.13036484 -0.2871405
0003d0 34 a3 67 b9 e3 e2 97 3d bf c7 38 bf 88 a4 5b 3a
       -0.00022090675 0.07416322 -0.7217979 0.0008378704
0003e0 2a 8f d1 3d dc 8f c8 3f 84 80 1e b7 de 8a 04 3e
       0.102323845 1.5668902 -9.447456e-06 0.12943599
0003f0 47 1c 35 3e 7c 94 54 b9 ec fd 50 3b 6b 3d 77 bf
       0.17686568 -0.0002027321 0.003188963 -0.9657809

_transform._transforms.1.autoregressive_net.blocks.0.linear_layers.1.bias f4 [32]
000000 75 d0 fc 3d ce e9 7d 3e 92 18 06 bf fd 11 74 bd
       0.123444475 0.2479622 -0.5238124 -0.059587467
000010 f3 b5 12 bf 15 d5 53 bf 79 f3 45 bc 36 3a 1d 3f
       -0.5730888 -0.8274701 -0.012081974 0.6141695
000020 af 93 2f bf 1b 8a b7 3d 6a 14 00 be b2 e9 5d 3e
       -0.6858472 0.089618884 -0.12507787 0.21671179
000030 8f a6 04 3c cc df 07 3f 62 20 30 3c 27 73 e2 3d
       0.008096351 0.5307586 0.010749908 0.1105712
000040 4f de 1e be 7f a3 2b 3a 11 06 88 bc a9 5d 97 3e
       -0.15514491 0.0006547495 -0.016604455 0.29563645
000050 d1 f4 10 3e d3 13 12 3e ea 6d b2 be 99 5a 89 3e
       0.1415589 0.14265375 -0.34849483 0.26826933
000060 ae 0b e1 bc a7 48 13 be 14 fc c4 bf 10 c4 9f 3c
       -0.02747139 -0.14383183 -1.5389428 0.01950267
000070 6d 3a 73 be aa 8f 1d bf e8 0f 49 3d 9d 31 8b 3e
       -0.23752756 -0.6154734 0.049087435 0.2718629

_transform._transforms.1.autoregressive_net.blocks.0.linear_layers.1.mask f4 [32, 32]
000000 00 00 80 3f 00 00 00 00 00 00 00 00 00 00 80 3f
       1.0 0.0 0.0 1.0
000010 00 00 00 00 00 00 00 00 00 00 80 3f 00 00 00 00
       0.0 0.0 1.0 0.0
000020 00 00 00 00 00 00 80 3f 00 00 00 00 00 00 00 00
       0.0 1.0 0.0 0.0
000030 00 00 80 3f 00 00 00 00 00 00 00 00 00 00 80 3f
       1.0 0.0 0.0 1.0
000040 00 00 00 00 00 00 00 00 00 00 80 3f 00 00 00 00
       0.0 0.0 1.0 0.0
000050 00 00 00 00 00 00 80 3f 00 00 00 00 00 00 00 00
       0.0 1.0 0.0 0.0
000060 00 00 80 3f 00 00 00 00 00 00 00 00 00 00 80 3f
       1.0 0.0 0.0 1.0
000070 00 00 00 00 00 00 00 00 00 00 80 3f 00 00 00 00
       0.0 0.0 1.0 0.0
000080 00 00 80 3f 00 00 80 3f 00 00 00 00 00 00 80 3f
       1.0 1.0 0.0 1.0
000090 00 00 80 3f 00 00 00 00 00 00 80 3f 00 00 80 3f
       1.0 0.0 1.0 1.0
0000a0 00 00 00 00 00 00 80 3f 00 00 80 3f 00 00 00 00
       0.0 1.0 1.0 0.0
0000b0 00 00 80 3f 00 00 80 3f 00 00 00 00 00 00 80 3f
       1.0 1.0 0.0 1.0
0000c0 00 00 80 3f 00 00 00 00 00 00 80 3f 00 00 80 3f
       1.0 0.0 1.0 1.0
0000d0 00 00 00 00 00 00 80 3f 00 00 80 3f 00 00 00 00
       0.0 1.0 1.0 0.0
0000e0 00 00 80 3f 00 00 80 3f 00 00 00 00 00 00 80 3f
       1.0 1.0 0.0 1.0
0000f0 00 00 80 3f 00 00 00 00 00 00 80 3f 00 00 80 3f
       1.0 0.0 1.0 1.0
000100 00 00 80 3f 00 00 80 3f 00 00 80 3f 00 00 80 3f
       1.0 1.0 1.0 1.0
000110 00 00 80 3f 00 00 80 3f 00 00 80 3f 00 00 80 3f
       1.0 1.0 1.0 1.0
000120 00 00 80 3f 00 00 80 3f 00 00 80 3f 00 00 80 3f
       1.0 1.0 1.0 1.0
000130 00 00 80 3f 00 00 80 3f 00 00 80 3f 00 00 80 3f
       1.0 1.0 1.0 1.0
000140 00 00 80 3f 00 00 80 3f 00 00 80 3f 00 00 80 3f
       1.0 1.0 1.0 1.0
000150 00 00 80 3f 00 00 80 3f 00 00 80 3f 00 00 80 3f
       1.0 1.0 1.0 1.0
000160 00 00 80 3f 00 00 80 3f 00 00 80 3f 00 00 80 3f
       1.0 1.0 1.0 1.0
000170 00 00 80 3f 00 00 80 3f 00 00 80 3f 00 00 80 3f
       1.0 1.0 1.0 1.0
000180 00 00 80 3f 00 00 00 00 00 00 00 00 00 00 80 3f
       1.0 0.0 0.0 1.0
000190 00 00 00 00 00 00 00 00 00 00 80 3f 00 00 00 00
       0.0 0.0 1.0 0.0
0001a0 00 00 00 00 00 00 80 3f 00 00 00 00 00 00 00 00
       0.0 1.0 0.0 0.0
0001b0 00 00 80 3f 00 00 00 00 00 00 00 00 00 00 80 3f
       1.0 0.0 0.0 1.0
0001c0 00 00 00 00 00 00 00 00 00 00 80 3f 00 00 00 00
       0.0 0.0 1.0 0.0
0001d0 00 00 00 00 00 00 80 3f 00 00 00 00 00 00 00 00
       0.0 1.0 0.0 0.0
0001e0 00 00 80 3f 00 00 00 00 00 00 00 00 00 00 80 3f
       1.0 0.0 0.0 1.0
0001f0 00 00 00 00 00 00 00 00 00 00 80 3f 00 00 00 00
       0.0 0.0 1.0 0.0
000200 00 00 80 3f 00 00 80 3f 00 00 00 00 00 00 80 3f
       1.0 1.0 0.0 1.0
000210 00 00 80 3f 00 00 00 00 00 00 80 3f 00 00 80 3f
       1.0 0.0 1.0 1.0
000220 00 00 00 00 00 00 80 3f 00 00 80 3f 00 00 00 00
       0.0 1.0 1.0 0.0
000230 00 00 80 3f 00 00 80 3f 00 00 00 00 00 00 80 3f
       1.0 1.0 0.0 1.0
000240 00 00 80 3f 00 00 00 00 00 00 80 3f 00 00 80 3f
       1.0 0.0 1.0 1.0
000250 00 00 00 00 00 00 80 3f 00 00 80 3f 00 00 00 00
       0.0 1.0 1.0 0.0
000260 00 00 80 3f 00 00 80 3f 00 00 00 00 00 00 80 3f
       1.0 1.0 0.0 1.0
000270 00 00 80 3f 00 00 00 00 00 00 80 3f 00 00 80 3f
       1.0 0.0 1.0 1.0
000280 00 00 80 3f 00 00 80 3f 00 00 80 3f 00 00 80 3f
       1.0 1.0 1.0 1.0
000290 00 00 80 3f 00 00 80 3f 00 00 80 3f 00 00 80 3f
       1.0 1.0 1.0 1.0
0002a0 00 00 80 3f 00 00 80 3f 00 00 80 3f 00 00 80 3f
       1.0 1.0 1.0 1.0
0002b0 00 00 80 3f 00 00 80 3f 00 00 80 3f 00 00 80 3f
       1.0 1.0 1.0 1.0
0002c0 00 00 80 3f 00 00 80 3f 00 00 80 3f 00 00 80 3f
       1.0 1.0 1.0 1.0
0002d0 00 00 80 3f 00 00 80 3f 00 00 80 3f 00 00 80 3f
       1.0 1.0 1.0 1.0
0002e0 00 00 80 3f 00 00 80 3f 00 00 80 3f 00 00 80 3f
       1.0 1.0 1.0 1.0
0002f0 00 00 80 3f 00 00 80 3f 00 00 80 3f 00 00 80 3f
       1.0 1.0 1.0 1.0
000300 00 00 80 3f 00 00 00 00 00 00 00 00 00 00 80 3f
       1.0 0.0 0.0 1.0
000310 00 00 00 00 00 00 00 00 00 00 80 3f 00 00 00 00
       0.0 0.0 1.0 0.0
000320 00 00 00 00 00 00 80 3f 00 00 00 00 00 00 00 00
       0.0 1.0 0.0 0.0
000330 00 00 80 3f 00 00 00 00 00 00 00 00 00 00 80 3f
       1.0 0.0 0.0 1.0
000340 00 00 00 00 00 00 00 00 00 00 80 3f 00 00 00 00
       0.0 0.0 1.0 0.0
000350 00 00 00 00 00 00 80 3f 00 00 00 00 00 00 00 00
       0.0 1.0 0.0 0.0
000360 00 00 80 3f 00 00 00 00 00 00 00 00 00 00 80 3f
       1.0 0.0 0.0 1.0
000370 00 00 00 00 00 00 00 00 00 00 80 3f 00 00 00 00
       0.0 0.0 1.0 0.0
000380 00 00 80 3f 00 00 80 3f 00 00 00 00 00 00 80 3f
       1.0 1.0 0.0 1.0
000390 00 00 80 3f 00 00 00 00 00 00 80 3f 00 00 80 3f
       1.0 0.0 1.0 1.0
0003a0 00 00 00 00 00 00 80 3f 00 00 80 3f 00 00 00 00
       0.0 1.0 1.0 0.0
0003b0 00 00 80 3f 00 00 80 3f 00 00 00 00 00 00 80 3f
       1.0 1.0 0.0 1.0
0003c0 00 00 80 3f 00 00 00 00 00 00 80 3f 00 00 80 3f
       1.0 0.0 1.0 1.0
0003d0 00 00 00 00 00 00 80 3f 00 00 80 3f 00 00 00 00
       0.0 1.0 1.0 0.0
0003e0 00 00 80 3f 00 00 80 3f 00 00 00 00 00 00 80 3f
       1.0 1.0 0.0 1.0
0003f0 00 00 80 3f 00 00 00 00 00 00 80 3f 00 00 80 3f
       1.0 0.0 1.0 1.0

_transform._transforms.1.autoregressive_net.blocks.1.linear_layers.0.weight f4 [32, 32]
000000 d4 0a c3 3d 78 f1 e9 bb 90 9c 2e 3e 2e a9 9a bd
       0.0952355 -0.007139381 0.17051911 -0.075518
000010 b2 2b 01 be 73 23 8e bc 65 f4 d6 bd 3d b2 2c be
       -0.12614325 -0.017350888 -0.10495833 -0.16864868
000020 ef 77 e7 bd 9d 55 2d be 64 4e 8d 3d 47 c0 61 bd
       -0.113021724 -0.1692719 0.068997175 -0.05511501
000030 c4 93 a8 3c c2 ee 18 bd 13 64 02 3e 89 59 7a be
       0.020578273 -0.037337072 0.12733488 -0.24448217
000040 a4 d6 80 bc 98 e1 cb 3d 3f 9a 85 3d ac 54 e0 3d
       -0.015727349 0.09955138 0.06523561 0.1095365
000050 b2 4d 1b 3d 19 3d a2 3b 36 f0 a1 bc 23 5c dc 3d
       0.037915893 0.004951131 -0.019767862 0.10759761
000060 dc dc f0 bd cc 40 30 3e ef b4 e7 bc 1a a6 5e be
       -0.117608756 0.17212218 -0.028284518 -0.2174305
000070 33 91 85 bd af 5d d4 3c cd 0c e5 3d b2 74 28 be
       -0.06521835 0.025923578 0.11184082 -0.16450766
000080 22 ab b9 bd 2a bd 88 bd ee 94 02 be d7 d1 5d 3d
       -0.09065844 -0.06676705 -0.12752125 0.054155197
000090 65 b5 db 3b 3e 3e 81 3d 09 3b 3e be f8 58 76 3d
       0.0067049735 0.063107 -0.18577208 0.06014344
0000a0 e3 39 58 bd 84 de 53 bd 68 c5 4e be 59 dd ce 3a
       -0.05278958 -0.05172588 -0.20192492 0.001578252
0000b0 2b 41 8c bd 57 1f 15 3c 8b cf 15 be e5 85 d1 3d
       -0.06848367 0.00910171 -0.14629953 0.102306165
0000c0 02 c6 a0 bd 65 a1 98 bc 9b 67 e0 bd e5 c2 97 bd
       -0.07850267 -0.018631646 -0.10957261 -0.0741022
0000d0 53 5c 04 be ab 18 bc 3d 1f c2 00 3e 53 d8 0c bd
       -0.12925844 0.091843925 0.12574051 -0.03438599
0000e0 41 b5 34 be 58 e1 2c 3e 37 23 08 be b2 ec 02 be
       -0.17647268 0.16882837 -0.13294683 -0.12785605
0000f0 7e 5f ca 3b c7 7e de 3c 09 f2 ce 3d 32 56 1e be
       0.0061759343 0.027160062 0.10104758 -0.15462568
000100 4e 22 cf 3d 89 37 c6 bd 36 29 7c bd be c3 45 3d
       0.10113965 -0.09678561 -0.06156274 0.048282377
000110 87 73 90 3c 89 56 00 3e 4d c7 ca bc 5c 3e 22 be
       0.017633213 0.1253301 -0.024753237 -0.158441
000120 13 fd 30 be ce 3c a6 bd 7d ed a9 3d ec d3 c8 bd
       -0.1728404 -0.08117066 0.082972504 -0.09806046
000130 a3 a5 3e 3e 0b 42 a3 bd a7 7b 60 be 42 e8 a4 bd
       0.18617873 -0.07971581 -0.2192217 -0.08052112
000140 13 68 b1 bc 69 16 1c 3c 87 0d 91 be 86 ce 19 3d
       -0.021656072 0.009526827 -0.28330633 0.03755047
000150 7e 07 01 be a6 c3 7c bc e1 a5 9e bd cf df 32 be
       -0.12600514 -0.015427506 -0.07746483 -0.17468189
000160 eb ad 2e be 28 ea eb bd d9 3a 76 3d d9 79 c6 bd
       -0.17058532 -0.11519271 0.060114715 -0.09691209
000170 58 3a 90 bd 09 2c 80 be 07 ce 06 be f4 d5 8e bc
       -0.07042378 -0.25033596 -0.1316453 -0.017436005
000180 6b 05 58 bd c5 c1 b1 3d 7a 48 be bd c1 f1 40 be
       -0.052739542 0.08679537 -0.092911676 -0.18842222
000190 50 39 0e be 18 9d 8e 3d 7e 12 91 bd ac 1a e9 3d
       -0.1388905 0.06963557 -0.07083605 0.113820404
0001a0 d2 ff d2 3d 76 9b 4c bd ce f0 bf 3c cc 4d 0a 3e
       0.103027 -0.049952947 0.023430254 0.1350624
0001b0 e3 fc 2b bd 10 e5 d8 3d 7f a4 3c bd aa e9 2c bb
       -0.04198922 0.10590565 -0.046055313 -0.0026384392
0001c0 9b b2 0c 3e 51 10 14 be 08 19 27 be c8 01 3b 3d
       0.13740008 -0.14459349 -0.16318142 0.045655996
0001d0 95 12 db bb 6a fc 3f bd e6 10 4b bd ab 6c da 3d
       -0.0066855648 -0.04687158 -0.049576662 0.10665258
0001e0 97 16 e4 bd dc d3 17 3e c9 ab 07 be a2 4e 0c be
       -0.11137121 0.14826912 -0.13249125 -0.13701871
0001f0 df 51 eb bc 0e 51 d2 3b 30 ae 7b be e3 23 e7 bd
       -0.028725563 0.006418354 -0.24578166 -0.11286142
000200 ef b6 0d bf 8e df 36 bc 5b 21 72 3d eb 00 d1 bc
       -0.5535726 -0.011161698 0.05911384 -0.025513133
000210 2c 82 f3 be 1d c5 6a bd 78 87 21 bf 47 8c d6 3e
       -0.4756025 -0.057316888 -0.63097334 0.41903898
000220 9f 28 21 be 4f 17 40 bf 29 de 45 bf 20 1c 17 3e
       -0.15738152 -0.75035566 -0.77292114 0.14756823
000230 bb 76 9a 3d 44 27 2f 3f 79 08 c6 3d 32 bd 28 3e
       0.07542177 0.6841929 0.09669585 0.16478422
000240 f4 07 2a bf 90 bc 96 3d 00 01 65 be dd b5 01 3f
       -0.66418386 0.07360184 -0.22363663 0.50668126
000250 d2 55 10 be 88 e4 ad bb 7e ea 3c 3f e0 93 29 be
       -0.14095238 -0.005306784 0.73795307 -0.16560316
000260 f1 cf 44 bf 57 3c 4d bd 46 31 ec 3c 5f c1 32 be
       -0.76879793 -0.050106373 0.02883209 -0.17456578
000270 cc 31 f8 3e 14 e5 f0 bd cd 25 0a bf ca 46 d7 bd
       0.48475492 -0.11762443 -0.5396393 -0.10511549
000280 6f 68 31 3e 18 ee c5 bf 98 5a 45 be 88 16 aa bd
       0.17324995 -1.5463285 -0.1927284 -0.08305079
000290 58 82 12 40 65 c4 1f bf 89 f8 95 3e 7b 91 60 3f
       2.2892056 -0.6240905 0.2929118 0.87721986
0002a0 db 4e 4d 3f 2a 2d f3 bb 48 9f 89 be fa 3b 17 3f
       0.8019845 -0.0074211555 -0.26879334 0.5907589
0002b0 9b df 9d bd b1 ad f7 3e ee 50 48 3d 39 4d 24 3f
       -0.07708665 0.48374704 0.048905306 0.6418033
0002c0 c3 dd af 3e 66 cc a2 bd 30 6d 77 bd c2 1c 75 bd
       0.34348878 -0.07949142 -0.060406864 -0.05984188
0002d0 a0 1c 09 bf 67 c8 dd 3c 74 8d 17 3f bc 86 9a be
       -0.53559303 0.027073098 0.59200215 -0.3018092
0002e0 e4 4b fc be bf 58 a8 3d 59 50 a2 bf c3 f7 9b 3f
       -0.4927665 0.08220052 -1.268077 1.2184986
0002f0 a1 84 58 3e 12 b8 7d bf 32 b7 49 b7 10 cc 19 bf
       0.21144344 -0.99108994 -1.2023187e-05 -0.60077
000300 f7 9f a1 be 14 de ed bd 85 48 ad bb 04 7a 80 be
       -0.31567356 -0.11614624 -0.005288186 -0.2509309
000310 ee d9 27 be 89 8a 2f 3d e5 23 a2 be 03 29 31 bd
       -0.16391727 0.042856727 -0.3166801 -0.043252002
000320 4c d1 08 bd 2d be 69 be 2a ab d9 bd f0 ea 93 3c
       -0.033402726 -0.22826453 -0.1062835 0.018056363
000330 3e ae c9 bc 47 23 0e be 7c 1b 03 3e d7 d4 0c be
       -0.024619218 -0.13880645 0.12803453 -0.13753067
000340 ad 49 0e bd 7e b7 34 3e 86 e9 03 be d9 23 01 3d
       -0.03473823 0.17648122 -0.12882051 0.031528328
000350 e7 75 21 3d 4a 01 bc be 7c 69 32 3e ed ec 02 be
       0.03941908 -0.36719733 0.17423052 -0.12785693
000360 fd b8 83 bd 37 7d e3 3d 1b b0 2f 3e 65 0f 2b 3e
       -0.06431768 0.11107867 0.17157023 0.16705091
000370 d8 86 24 3e aa 25 ca 3d c6 d5 cc be 17 1e dc 3d
       0.16067064 0.09870465 -0.40006846 0.10747927
000380 da 88 d3 3c 0a fa 48 3e 61 b4 f4 bd 04 b4 1d bd
       0.025822092 0.19626632 -0.11948467 -0.038501754
000390 e1 d5 1d c0 52 7c 12 be 9d ec 27 bd 9b 20 23 3e
       -2.4661791 -0.14305237 -0.040997136 0.15930407
0003a0 f2 bc 7e 3d 72 c4 07 bd d1 5d b5 3f 35 58 ab 3d
       0.06219191 -0.03314633 1.4169255 0.083664335
0003b0 86 05 ce 3e 40 85 f9 bf dc 15 f7 3d ab c2 c9 bd
       0.4023859 -1.949379 0.12064716 -0.09851583
0003c0 86 04 30 bf 3e cc db 3c d4 f0 28 bd af 24 c2 be
       -0.687569 0.026830789 -0.041245297 -0.37918612
0003d0 30 93 31 3e 1e 32 69 3d 64 72 5a c0 80 5a 17 be
       0.17341304 0.05693256 -3.4132318 -0.14780617
0003e0 4c 8c 2c 3f 29 ae 8d 3e c8 99 d5 bd 44 4c 58 3e
       0.67401576 0.27671936 -0.10429722 0.21122843
0003f0 87 94 67 3f 8f ba ed bc 7c a4 9e 3e 9a 16 3b bf
       0.9046101 -0.029019622 0.30984867 -0.7308136

_transform._transforms.1.autoregressive_net.blocks.1.linear_layers.0.bias f4 [32]
000000 6d aa b7 bd f3 e1 6a be cb f2 61 bd 52 ee f5 bb
       -0.08968053 -0.22937755 -0.055163186 -0.0075052166
000010 c8 be 9d bf a7 c7 e3 bd 16 8b 91 bd 8e 94 d6 bd
       -1.2323847 -0.11122065 -0.07106607 -0.10477553
000020 70 59 29 3e c7 13 16 bd 2a 5f 0d be be ef 32 be
       0.16538024 -0.036639955 -0.13805833 -0.17474267
000030 2c 9a 06 be c6 97 90 bf 1c 2d de be eb 4a e8 bd
       -0.1314475 -1.1296318 -0.4339379 -0.113424145
000040 73 0d 05 be 5d c3 93 bf 6e db be bd e7 64 97 bd
       -0.12993412 -1.1543995 -0.09319197 -0.073922925
000050 a1 fc c9 3f 8e 9a 4f bd f8 15 6d 3d fa f6 36 be
       1.5780221 -0.050684504 0.05788228 -0.17867652
000060 39 78 17 be c6 d2 2a bf 5e 70 ab bd 4a b8 02 be
       -0.14791955 -0.66727865 -0.08371042 -0.12765613
000070 91 a5 fe be c9 d1 16 3e d1 63 45 bd 4d 03 2b bf
       -0.49735692 0.14728464 -0.048190895 -0.6680191

_transform._transforms.1.autoregressive_net.blocks.1.linear_layers.0.mask f4 [32, 32]
000000 00 00 80 3f 00 00 00 00 00 00 00 00 00 00 80 3f
       1.0 0.0 0.0 1.0
000010 00 00 00 00 00 00 00 00 00 00 80 3f 00 00 00 00
       0.0 0.0 1.0 0.0
000020 00 00 00 00 00 00 80 3f 00 00 00 00 00 00 00 00
       0.0 1.0 0.0 0.0
000030 00 00 80 3f 00 00 00 00 00 00 00 00 00 00 80 3f
       1.0 0.0 0.0 1.0
000040 00 00 00 00 00 00 00 00 00 00 80 3f 00 00 00 00
       0.0 0.0 1.0 0.0
000050 00 00 00 00 00 00 80 3f 00 00 00 00 00 00 00 00
       0.0 1.0 0.0 0.0
000060 00 00 80 3f 00 00 00 00 00 00 00 00 00 00 80 3f
       1.0 0.0 0.0 1.0
000070 00 00 00 00 00 00 00 00 00 00 80 3f 00 00 00 00
       0.0 0.0 1.0 0.0
000080 00 00 80 3f 00 00 80 3f 00 00 00 00 00 00 80 3f
       1.0 1.0 0.0 1.0
000090 00 00 80 3f 00 00 00 00 00 00 80 3f 00 00 80 3f
       1.0 0.0 1.0 1.0
0000a0 00 00 00 00 00 00 80 3f 00 00 80 3f 00 00 00 00
       0.0 1.0 1.0 0.0
0000b0 00 00 80 3f 00 00 80 3f 00 00 00 00 00 00 80 3f
       1.0 1.0 0.0 1.0
0000c0 00 00 80 3f 00 00 00 00 00 00 80 3f 00 00 80 3f
       1.0 0.0 1.0 1.0
0000d0 00 00 00 00 00 00 80 3f 00 00 80 3f 00 00 00 00
       0.0 1.0 1.0 0.0
0000e0 00 00 80 3f 00 00 80 3f 00 00 00 00 00 00 80 3f
       1.0 1.0 0.0 1.0
0000f0 00 00 80 3f 00 00 00 00 00 00 80 3f 00 00 80 3f
       1.0 0.0 1.0 1.0
000100 00 00 80 3f 00 00 80 3f 00 00 80 3f 00 00 80 3f
       1.0 1.0 1.0 1.0
000110 00 00 80 3f 00 00 80 3f 00 00 80 3f 00 00 80 3f
       1.0 1.0 1.0 1.0
000120 00 00 80 3f 00 00 80 3f 00 00 80 3f 00 00 80 3f
       1.0 1.0 1.0 1.0
000130 00 00 80 3f 00 00 80 3f 00 00 80 3f 00 00 80 3f
       1.0 1.0 1.0 1.0
000140 00 00 80 3f 00 00 80 3f 00 00 80 3f 00 00 80 3f
       1.0 1.0 1.0 1.0
000150 00 00 80 3f 00 00 80 3f 00 00 80 3f 00 00 80 3f
       1.0 1.0 1.0 1.0
000160 00 00 80 3f 00 00 80 3f 00 00 80 3f 00 00 80 3f
       1.0 1.0 1.0 1.0
000170 00 00 80 3f 00 00 80 3f 00 00 80 3f 00 00 80 3f
       1.0 1.0 1.0 1.0
000180 00 00 80 3f 00 00 00 00 00 00 00 00 00 00 80 3f
       1.0 0.0 0.0 1.0
000190 00 00 00 00 00 00 00 00 00 00 80 3f 00 00 00 00
       0.0 0.0 1.0 0.0
0001a0 00 00 00 00 00 00 80 3f 00 00 00 00 00 00 00 00
       0.0 1.0 0.0 0.0
0001b0 00 00 80 3f 00 00 00 00 00 00 00 00 00 00 80 3f
       1.0 0.0 0.0 1.0
0001c0 00 00 00 00 00 00 00 00 00 00 80 3f 00 00 00 00
       0.0 0.0 1.0 0.0
0001d0 00 00 00 00 00 00 80 3f 00 00 00 00 00 00 00 00
       0.0 1.0 0.0 0.0
0001e0 00 00 80 3f 00 00 00 00 00 00 00 00 00 00 80 3f
       1.0 0.0 0.0 1.0
0001f0 00 00 00 00 00 00 00 00 00 00 80 3f 00 00 00 00
       0.0 0.0 1.0 0.0
000200 00 00 80 3f 00 00 80 3f 00 00 00 00 00 00 80 3f
       1.0 1.0 0.0 1.0
000210 00 00 80 3f 00 00 00 00 00 00 80 3f 00 00 80 3f
       1.0 0.0 1.0 1.0
000220 00 00 00 00 00 00 80 3f 00 00 80 3f 00 00 00 00
       0.0 1.0 1.0 0.0
000230 00 00 80 3f 00 00 80 3f 00 00 00 00 00 00 80 3f
       1.0 1.0 0.0 1.0
000240 00 00 80 3f 00 00 00 00 00 00 80 3f 00 00 80 3f
       1.0 0.0 1.0 1.0
000250 00 00 00 00 00 00 80 3f 00 00 80 3f 00 00 00 00
       0.0 1.0 1.0 0.0
000260 00 00 80 3f 00 00 80 3f 00 00 00 00 00 00 80 3f
       1.0 1.0 0.0 1.0
000270 00 00 80 3f 00 00 00 00 00 00 80 3f 00 00 80 3f
       1.0 0.0 1.0 1.0
000280 00 00 80 3f 00 00 80 3f 00 00 80 3f 00 00 80 3f
       1.0 1.0 1.0 1.0
000290 00 00 80 3f 00 00 80 3f 00 00 80 3f 00 00 80 3f
       1.0 1.0 1.0 1.0
0002a0 00 00 80 3f 00 00 80 3f 00 00 80 3f 00 00 80 3f
       1.0 1.0 1.0 1.0
0002b0 00 00 80 3f 00 00 80 3f 00 00 80 3f 00 00 80 3f
       1.0 1.0 1.0 1.0
0002c0 00 00 80 3f 00 00 80 3f 00 00 80 3f 00 00 80 3f
       1.0 1.0 1.0 1.0
0002d0 00 00 80 3f 00 00 80 3f 00 00 80 3f 00 00 80 3f
       1.0 1.0 1.0 1.0
0002e0 00 00 80 3f 00 00 80 3f 00 00 80 3f 00 00 80 3f
       1.0 1.0 1.0 1.0
0002f0 00 00 80 3f 00 00 80 3f 00 00 80 3f 00 00 80 3f
       1.0 1.0 1.0 1.0
000300 00 00 80 3f 00 00 00 00 00 00 00 00 00 00 80 3f
       1.0 0.0 0.0 1.0
000310 00 00 00 00 00 00 00 00 00 00 80 3f 00 00 00 00
       0.0 0.0 1.0 0.0
000320 00 00 00 00 00 00 80 3f 00 00 00 00 00 00 00 00
       0.0 1.0 0.0 0.0
000330 00 00 80 3f 00 00 00 00 00 00 00 00 00 00 80 3f
       1.0 0.0 0.0 1.0
000340 00 00 00 00 00 00 00 00 00 00 80 3f 00 00 00 00
       0.0 0.0 1.0 0.0
000350 00 00 00 00 00 00 80 3f 00 00 00 00 00 00 00 00
       0.0 1.0 0.0 0.0
000360 00 00 80 3f 00 00 00 00 00 00 00 00 00 00 80 3f
       1.0 0.0 0.0 1.0
000370 00 00 00 00 00 00 00 00 00 00 80 3f 00 00 00 00
       0.0 0.0 1.0 0.0
000380 00 00 80 3f 00 00 80 3f 00 00 00 00 00 00 80 3f
       1.0 1.0 0.0 1.0
000390 00 00 80 3f 00 00 00 00 00 00 80 3f 00 00 80 3f
       1.0 0.0 1.0 1.0
0003a0 00 00 00 00 00 00 80 3f 00 00 80 3f 00 00 00 00
       0.0 1.0 1.0 0.0
0003b0 00 00 80 3f 00 00 80 3f 00 00 00 00 00 00 80 3f
       1.0 1.0 0.0 1.0
0003c0 00 00 80 3f 00 00 00 00 00 00 80 3f 00 00 80 3f
       1.0 0.0 1.0 1.0
0003d0 00 00 00 00 00 00 80 3f 00 00 80 3f 00 00 00 00
       0.0 1.0 1.0 0.0
0003e0 00 00 80 3f 00 00 80 3f 00 00 00 00 00 00 80 3f
       1.0 1.0 0.0 1.0
0003f0 00 00 80 3f 00 00 00 00 00 00 80 3f 00 00 80 3f
       1.0 0.0 1.0 1.0
