model2_v1/epoch=175modello-N_iter4-N_features32-N_BS32-epochs250-lr0.001-val_loss1000.pth (torch, 206026 bytes, 72 tensors)

_transform._transforms.1.autoregressive_net.initial_layer.weight f4 [32, 4]
000000 fc 00 a6 ba 54 b7 8c be e8 5d 4e be ac 43 fc 3e
       -0.0012665088 -0.27483618 -0.2015301 0.4927038
000010 84 50 6a 3c b2 45 c4 bd 86 0a 86 3e 20 c7 0f be
       0.014301423 -0.09583606 0.26179904 -0.14040804
000020 16 18 35 bd 9d b2 d4 be 4a 23 a6 3f 40 68 e3 3c
       -0.044212423 -0.4154252 1.2979519 0.027759671
000030 ad 35 8f 3a 2a 21 c8 be 58 28 cd bd 44 8f 6f 3e
       0.0010926031 -0.39087802 -0.100174606 0.23394495
000040 85 5a 3b 3e 13 d6 a4 bd ae 87 c3 be 44 25 f5 be
       0.18296249 -0.08048644 -0.38189453 -0.47879994
000050 32 78 65 3b 2d 09 6b 3f d3 64 27 40 64 17 fe be
       0.003501427 0.91810876 2.6155288 -0.4962722
000060 5a de 43 bc 58 e4 47 3e 3c d9 35 be 54 c3 7e be
       -0.011954868 0.195207 -0.1775865 -0.248792
000070 eb 0b 6b b9 ea d4 90 bf 94 5d a6 3e c8 30 46 3e
       -0.00022415786 -1.1314976 0.3249327 0.19354546
000080 94 0f d6 3c 6e a1 1e bf 16 08 5f 40 5c d2 09 be
       0.026130475 -0.6196507 3.4848685 -0.13459152
000090 f9 23 17 b9 e4 df 6a 3e 7a 19 e9 3e 44 d1 3b be
       -0.00014413883 0.2293697 0.4552725 -0.18341547
0000a0 cc dc e0 3a 89 05 38 3f 00 66 aa bc 48 23 3f be
       0.0017155646 0.71883446 -0.02080059 -0.18665802
0000b0 6d 79 64 3c c4 f3 6b bd 76 a6 00 c0 00 df 59 3c
       0.013944966 -0.05760552 -2.01016 0.013297796
0000c0 18 89 29 bb b8 44 ab bd b2 a3 dd be 08 aa de 3e
       -0.0025869068 -0.083627164 -0.43288952 0.434891
0000d0 6c be c8 bc c4 92 3f bf 96 f7 aa be 38 6d 91 bd
       -0.024504863 -0.7483332 -0.33392018 -0.0710091
0000e0 32 25 08 3c 6f 17 05 bf 48 71 ea bf 80 95 e9 3d
       0.008309649 -0.5198888 -1.8315821 0.11405468
0000f0 e5 c7 aa 3b 98 d2 fd be 4e 47 a3 be b4 c9 71 3e
       0.0052118176 -0.49574733 -0.3189034 0.236121
000100 a9 2c 57 3d 4a 57 91 bd 24 db 1f be 00 0c d5 ba
       0.052532826 -0.07096727 -0.1561094 -0.0016254187
000110 90 1c 59 3c c3 68 38 3f 24 f9 97 3e d6 f5 cf 3e
       0.013251439 0.72034854 0.29682267 0.40617245
000120 21 61 34 39 5e 77 f6 3e a0 53 ca 3e 40 29 34 3c
       0.00017202321 0.48137945 0.39516926 0.010996163
000130 32 21 10 3b 64 45 14 bf a4 5a 05 be 9c 4c e2 3e
       0.0021992442 -0.5791838 -0.13022858 0.44199073
000140 38 50 f0 3d 2d d1 7e 3e e9 01 b4 3c 72 e8 c4 be
       0.117340505 0.24884482 0.021973567 -0.38458592
000150 b1 d8 36 3a a0 4b d8 3c 70 78 da 3e 14 fa 0c be
       0.00069750386 0.026403248 0.42670012 -0.13767272
000160 56 02 e0 bb a5 71 91 3f a4 36 5e 3e 20 f2 c2 bd
       -0.006836216 1.1362807 0.21700531 -0.09518838
000170 46 5f c4 3a 9f 80 6b bf b8 96 44 40 16 68 e2 be
       0.0014982007 -0.91993135 3.0716991 -0.44220036
000180 f9 33 97 3a da b6 ed 3e a8 a0 ca 3e ac 4b 06 3e
       0.0011535875 0.46428567 0.39575696 0.13114804
000190 6b de a0 3b 07 d4 b1 3f 6c 56 e4 be 1e 7c da 3e
       0.004909327 1.3892831 -0.44597185 0.4267282
0001a0 dd 02 a6 3c bf 7a a6 bf c1 20 4f 3e 0c 1f 92 3e
       0.020265037 -1.3006209 0.20227338 0.28539312
0001b0 f6 27 38 3c fe ca a3 3e 80 79 e9 3c 76 58 e3 3e
       0.011239996 0.31990808 0.028500319 0.44403428
0001c0 05 1f 78 3b 1e 73 8c bf 40 3d e7 bd e4 34 a2 3e
       0.0037860286 -1.0972631 -0.112909794 0.31680977
0001d0 87 b9 93 bc 07 59 f5 3d 8f 5a 52 c0 e8 f1 da 3e
       -0.018032802 0.11979871 -3.2867773 0.42762685
0001e0 28 0f b9 b9 56 46 84 be 00 8a 6b bd e6 8c ac 3e
       -0.00035297242 -0.25834912 -0.057504654 0.33701247
0001f0 f3 db 0d bc 7b 2a 69 bf b0 1d 65 bd a0 c3 73 be
       -0.008658397 -0.91080445 -0.055936515 -0.23805094

_transform._transforms.1.autoregressive_net.initial_layer.bias f4 [32]
000000 8d 93 91 be 05 4e 84 be e9 0b d8 bd a0 98 45 be
       -0.28432885 -0.25840774 -0.10549147 -0.19296503
000010 7f b0 67 be 27 ca c0 be 3a db 3a be 0c 1a 79 bf
       -0.22625922 -0.3765423 -0.18247691 -0.9730537
000020 10 0f 99 bf 70 c1 8c be 4f 78 f4 3e 9f a0 fe be
       -1.1957722 -0.2749133 0.47748038 -0.4973192
000030 fb d9 52 be 34 e5 04 c0 75 58 84 be 48 fd 91 be
       -0.20590965 -2.0764894 -0.25848737 -0.2851355
000040 71 89 9b be ba b5 d6 bf 33 f3 49 be 9f 6b a7 bf
       -0.30378297 -1.6774209 -0.1972168 -1.3079718
000050 49 a7 2e bf 6a 6e a6 be 8a d7 d2 be 7b bd b5 3f
       -0.68224007 -0.32506114 -0.41180068 1.419845
000060 cb 32 39 be 27 7b 67 bf 7c f2 a8 3f 2a bc 60 be
       -0.18085782 -0.9042229 1.3199 -0.21946779
000070 e2 c6 32 bf 71 ad e7 bf 74 0c 54 be 63 a2 dd bf
       -0.6983472 -1.8099805 -0.20707875 -1.7315181

_transform._transforms.1.autoregressive_net.initial_layer.mask f4 [32, 4]
000000 00 00 80 3f 00 00 00 00 00 00 00 00 00 00 00 00
       1.0 0.0 0.0 0.0
000010 00 00 80 3f 00 00 80 3f 00 00 00 00 00 00 00 00
       1.0 1.0 0.0 0.0
000020 00 00 80 3f 00 00 80 3f 00 00 80 3f 00 00 00 00
       1.0 1.0 1.0 0.0
000030 00 00 80 3f 00 00 00 00 00 00 00 00 00 00 00 00
       1.0 0.0 0.0 0.0
000040 00 00 80 3f 00 00 80 3f 00 00 00 00 00 00 00 00
       1.0 1.0 0.0 0.0
000050 00 00 80 3f 00 00 80 3f 00 00 80 3f 00 00 00 00
       1.0 1.0 1.0 0.0
000060 00 00 80 3f 00 00 00 00 00 00 00 00 00 00 00 00
       1.0 0.0 0.0 0.0
000070 00 00 80 3f 00 00 80 3f 00 00 00 00 00 00 00 00
       1.0 1.0 0.0 0.0
000080 00 00 80 3f 00 00 80 3f 00 00 80 3f 00 00 00 00
       1.0 1.0 1.0 0.0
000090 00 00 80 3f 00 00 00 00 00 00 00 00 00 00 00 00
       1.0 0.0 0.0 0.0
0000a0 00 00 80 3f 00 00 80 3f 00 00 00 00 00 00 00 00
       1.0 1.0 0.0 0.0
0000b0 00 00 80 3f 00 00 80 3f 00 00 80 3f 00 00 00 00
       1.0 1.0 1.0 0.0
0000c0 00 00 80 3f 00 00 00 00 00 00 00 00 00 00 00 00
       1.0 0.0 0.0 0.0
0000d0 00 00 80 3f 00 00 80 3f 00 00 00 00 00 00 00 00
       1.0 1.0 0.0 0.0
0000e0 00 00 80 3f 00 00 80 3f 00 00 80 3f 00 00 00 00
       1.0 1.0 1.0 0.0
0000f0 00 00 80 3f 00 00 00 00 00 00 00 00 00 00 00 00
       1.0 0.0 0.0 0.0
000100 00 00 80 3f 00 00 80 3f 00 00 00 00 00 00 00 00
       1.0 1.0 0.0 0.0
000110 00 00 80 3f 00 00 80 3f 00 00 80 3f 00 00 00 00
       1.0 1.0 1.0 0.0
000120 00 00 80 3f 00 00 00 00 00 00 00 00 00 00 00 00
       1.0 0.0 0.0 0.0
000130 00 00 80 3f 00 00 80 3f 00 00 00 00 00 00 00 00
       1.0 1.0 0.0 0.0
000140 00 00 80 3f 00 00 80 3f 00 00 80 3f 00 00 00 00
       1.0 1.0 1.0 0.0
000150 00 00 80 3f 00 00 00 00 00 00 00 00 00 00 00 00
       1.0 0.0 0.0 0.0
000160 00 00 80 3f 00 00 80 3f 00 00 00 00 00 00 00 00
       1.0 1.0 0.0 0.0
000170 00 00 80 3f 00 00 80 3f 00 00 80 3f 00 00 00 00
       1.0 1.0 1.0 0.0
000180 00 00 80 3f 00 00 00 00 00 00 00 00 00 00 00 00
       1.0 0.0 0.0 0.0
000190 00 00 80 3f 00 00 80 3f 00 00 00 00 00 00 00 00
       1.0 1.0 0.0 0.0
0001a0 00 00 80 3f 00 00 80 3f 00 00 80 3f 00 00 00 00
       1.0 1.0 1.0 0.0
0001b0 00 00 80 3f 00 00 00 00 00 00 00 00 00 00 00 00
       1.0 0.0 0.0 0.0
0001c0 00 00 80 3f 00 00 80 3f 00 00 00 00 00 00 00 00
       1.0 1.0 0.0 0.0
0001d0 00 00 80 3f 00 00 80 3f 00 00 80 3f 00 00 00 00
       1.0 1.0 1.0 0.0
0001e0 00 00 80 3f 00 00 00 00 00 00 00 00 00 00 00 00
       1.0 0.0 0.0 0.0
0001f0 00 00 80 3f 00 00 80 3f 00 00 00 00 00 00 00 00
       1.0 1.0 0.0 0.0

_transform._transforms.1.autoregressive_net.blocks.0.linear_layers.0.weight f4 [32, 32]
000000 e7 6d 28 be 13 41 0e 3e b8 7f 0b 3b d8 fc 96 bd
       -0.16448174 0.13892011 0.0021285843 -0.07372445
000010 2d a0 f5 bb 20 fd 34 3d 21 42 1f be 47 dc 01 be
       -0.007495901 0.04418671 -0.1555257 -0.12681685
000020 27 59 19 3d f8 a2 fb 3d fa b7 19 be 4a df 07 3b
       0.037438538 0.12286943 -0.15011588 0.0020732456
000030 81 75 a9 3b 8c 34 0b 3d bb fa 0b 3e 93 ba bf bd
       0.0051714783 0.03398566 0.13669865 -0.09361758
000040 71 b0 f3 3d 36 fe f5 bd 1d fa c4 bd b9 5d 7b 3c
       0.11898888 -0.120113775 -0.09618018 0.015342169
000050 3c 47 10 bd b3 9a 12 3e 82 dc 67 bd af d3 88 3c
       -0.035224184 0.14316826 -0.056606777 0.016702501
000060 f8 fc 5f 3d a2 60 ef 3d 9a c5 cc bd 30 77 a6 bd
       0.05468461 0.11688353 -0.09998627 -0.08128202
000070 19 9b f0 3d c1 64 ed 3d 38 79 d7 bd ba 08 ab bd
       0.117483325 0.11591483 -0.105211675 -0.08351274
000080 11 ab 7e bd 49 3e 1e 3e d0 f3 1c be 2b 86 0e be
       -0.06217486 0.15453447 -0.15327382 -0.13918369
000090 31 12 a1 3d 6b 18 0d 3e e4 72 ee 3c 4b 47 f7 bd
       0.07864798 0.13778846 0.029107518 -0.12074145
0000a0 ad 46 f4 3d ba 27 57 bc f4 fa 75 3c 0b d5 2f be
       0.11927543 -0.01313203 0.015013445 -0.17171113
0000b0 96 ee 23 3e ee ee 4f bd 03 0f cf 3d 34 79 00 be
       0.16008982 -0.05076497 0.10110285 -0.12546235
0000c0 d9 0c c6 bd 2b 06 e7 3d 1f 8f 8f 3d 63 66 b7 bd
       -0.09670419 0.11280473 0.0700972 -0.089550756
0000d0 07 49 2a be 4f 25 55 bd ca 0a 14 be 9f d7 20 3e
       -0.1662942 -0.052037533 -0.1445724 0.15707253
0000e0 88 17 04 3e a2 bd 10 bc 37 4f 94 bc ea 56 e4 bd
       0.12899601 -0.0088342745 -0.018104179 -0.1114939
0000f0 53 96 96 bd be ac 59 bd 92 b4 9b 3d 49 6d c7 bd
       -0.07352891 -0.053143255 0.076028004 -0.09737641
000100 23 f6 2d 3e ca c6 7e 3e 1f 7b e8 3d 5e c6 c3 3e
       0.16988425 0.2488052 0.113516085 0.3823728
000110 c9 43 3c 3f 47 82 85 3e d7 a4 14 3f 82 d7 d3 c0
       0.7354093 0.26075956 0.58064026 -6.620057
000120 f3 d2 1f be a4 1f 5e be ce 78 37 c1 d1 c3 50 be
       -0.15607814 -0.21691757 -11.466993 -0.20387198
000130 d5 f4 b5 3e 21 d6 ef 3d 87 1d a6 3e b7 61 70 be
       0.35538355 0.11710764 0.32444403 -0.23474775
000140 97 ab 1c 3f 06 78 41 bf cf 81 2b 3e 48 1e 95 3d
       0.61199325 -0.75573766 0.16748737 0.07281166
000150 46 85 9b bf 65 89 fe bd 0e 4d 9a bf 61 ac 82 3e
       -1.2150047 -0.1242855 -1.2054765 0.2552214
000160 49 23 f2 bb 64 ab 2b be 32 a2 98 3e 53 21 aa bf
       -0.00738946 -0.16764599 0.29811245 -1.329142
000170 c5 5b 81 bf 97 2c 8d be a7 02 e9 3d 85 e4 93 bd
       -1.0106131 -0.27573082 0.11377459 -0.07221321
000180 5b 26 01 be 54 3d 98 3d 71 cd f7 bd b1 a3 f5 3c
       -0.12612288 0.074335724 -0.12099732 0.02998528
000190 0f 50 f0 3d 39 5e 26 be 35 1f 40 3c 3c 96 be bd
       0.1173402 -0.1624688 0.01172619 -0.09305999
0001a0 ff eb ec bd cc ac dc 3d ce ff 2f 3e 30 09 3e bd
       -0.1156845 0.10775146 0.17187425 -0.04639548
0001b0 56 d3 0c 3c 48 dd e9 3d de 4a 9b 3d 09 18 3e be
       0.008595308 0.11419159 0.07582639 -0.18563856
0001c0 95 9a 2b be 27 f3 10 bd 5a b0 5c be 53 5b 31 bb
       -0.16758187 -0.03538814 -0.21551648 -0.002706249
0001d0 69 40 2d be 17 6b 1d be 21 12 b1 bd f1 56 16 3e
       -0.16919102 -0.15372883 -0.08646036 0.14681603
0001e0 56 f5 45 be 84 61 11 be 0b c3 05 be b1 38 29 be
       -0.1933187 -0.14197356 -0.13062684 -0.16525532
0001f0 ed df 58 3d 3b e1 0a 3e 81 cf 00 be 84 c3 e9 3d
       0.052947927 0.13562481 -0.12579156 0.11414245
000200 70 61 0e 3d a1 21 15 be d0 3c f4 bd 16 68 a9 3e
       0.034760892 -0.1456361 -0.119256616 0.33087224
000210 bc b8 b7 bf 36 e5 b1 bb 77 cf 1a bf 14 97 ec bd
       -1.4353251 -0.0054289354 -0.60472816 -0.11552253
000220 60 4e 15 be 09 14 ae 3e 3a 29 0a 3f 9e 86 fc bd
       -0.14580679 0.3399966 0.53969157 -0.12330364
000230 64 8f e4 be f1 c5 19 bb 1f da 63 3c d6 a3 96 3d
       -0.44640648 -0.002346393 0.013906985 0.07355468
000240 01 bc 81 3d b2 7b 53 bd a2 d1 be 3e b2 7e 80 bd
       0.06334687 -0.051631637 0.37269312 -0.06274165
000250 b2 eb 2b 3d 24 a1 ab 3d 6c a1 1d 3e c9 22 e0 3d
       0.041972823 0.083803445 0.15393609 0.10944135
000260 a5 ee 22 3b 27 95 3c bf 78 c9 44 3b 5a 02 2b 3e
       0.0024861482 -0.7366509 0.0030027311 0.16700116
000270 9f 68 e9 3d 07 0c 34 be b5 67 bd be 4d 97 f6 be
       0.11396908 -0.17582713 -0.36993185 -0.48162308
000280 ce 9e 4b be 14 99 0f bf b4 40 c1 3d 13 a7 ca 39
       -0.19884798 -0.56092954 0.09436169 0.00038652922
000290 6c 60 f3 bd b8 3c 65 3a 53 a7 0d be ff 06 89 bd
       -0.118836254 0.00087447045 -0.1383336 -0.066907875
0002a0 a8 4b 67 be d0 9f 0a be dc 51 c6 3c d7 a0 40 bc
       -0.22587454 -0.13537526 0.024208955 -0.011757097
0002b0 ab f1 02 be 0e 31 d1 3c 35 db ae bc a3 9a 19 be
       -0.12787502 0.025536086 -0.02134476 -0.15000395
0002c0 fe 1b 8d be f9 01 9f bd dc ce 20 be 14 1e dd bd
       -0.2756042 -0.07764048 -0.1570391 -0.107967526
0002d0 3e 96 d9 bd 86 7c 21 be 11 64 be bd e5 64 7f 3d
       -0.106243595 -0.15770158 -0.0929643 0.06235208
0002e0 f1 c7 79 be d5 ff 9b 3d 83 13 09 bf 47 22 ab 3e
       -0.24392678 0.076171555 -0.535454 0.3342459
0002f0 28 95 24 bc 47 9d 3a be 5f bd c4 be 44 e5 57 bd
       -0.010045327 -0.18224059 -0.3842573 -0.05270888
000300 b7 89 e6 3d 66 4b 80 3d 22 02 bf bd 30 b9 61 be
       0.11256736 0.06264381 -0.09326579 -0.220433
000310 62 f9 e8 bd 7f 81 f7 bc cb d3 47 be 70 73 bd bc
       -0.11375691 -0.030213116 -0.19514386 -0.023126334
000320 c7 19 0d be c5 11 01 3e 4f 4a 29 3e 41 01 94 bc
       -0.13779365 0.12604435 0.16532253 -0.018067004
000330 a4 21 3a bd cf 86 26 3e 05 6c 19 3e 32 c6 e4 3d
       -0.04544224 0.16262363 0.14982612 0.11170615
000340 ad a5 1c 3e 75 91 29 3e de 34 8c bd c8 7d de 3d
       0.15297575 0.16559394 -0.06846021 0.108638346
000350 fa 5a c1 3c 45 e3 09 bd 1d bd 01 be 56 50 03 be
       0.023602951 -0.033664007 -0.12669797 -0.12823614
000360 aa b3 87 be d8 22 2c be d0 eb 16 3e cd c2 e9 3d
       -0.2650426 -0.16810167 0.14738393 0.114141084
000370 b5 3b 01 be b5 7d 11 be c9 02 88 3d c8 c0 cd 3d
       -0.12620433 -0.1420811 0.06641156 0.10046536
000380 28 a6 aa bd b0 4b 40 be a1 17 ff 3d 3a 1b 0a 3e
       -0.08332473 -0.18778872 0.12455679 0.13486949
000390 73 6c 1a 3e f4 0b a4 3c 8d cf 15 3e 5e ab 92 3e
       0.15080433 0.020025231 0.14629956 0.28646368
0003a0 48 bc b2 3d 96 41 a7 3d ae af 0f 3f 79 ca 92 3d
       0.08727318 0.081668064 0.5612744 0.07167525
0003b0 42 0d 9b bd 63 8c fc bc 65 a2 eb 3c e8 f3 4e 3e
       -0.07570888 -0.03082866 0.02876396 0.2021023
0003c0 7d f8 88 bf 61 f6 15 be 97 60 ba 3d 03 9d be bf
       -1.0700833 -0.14644767 0.09100454 -1.4891666
0003d0 37 c2 5e 3c b5 e4 7a 3e 4f 72 e2 3f 9d 00 f3 3d
       0.013596109 0.24501307 1.7691134 0.11865351
0003e0 97 d0 95 3e 8d 8d 45 c0 26 ea ec 3d c6 a7 20 bf
       0.29260704 -3.0867646 0.11568098 -0.62756
0003f0 2a be ca bd 3e 3c 08 3e f1 56 97 be e0 81 84 c0
       -0.09899552 0.1330423 -0.2955852 -4.140854

_transform._transforms.1.autoregressive_net.blocks.0.linear_layers.0.bias f4 [32]
000000 db f8 90 bd 89 c1 2a be 2b 3f 2d bd db 7c ef bc
       -0.070787154 -0.1667539 -0.04229657 -0.02923434
000010 8a 1c a7 be 07 8a 8e be f2 91 4a be a6 2f 05 bf
       -0.3263896 -0.27839682 -0.19782236 -0.5202583
000020 b0 17 0c bd f5 ac e7 bd 0b d1 db be 37 17 08 3b
       -0.034202278 -0.11312286 -0.42932925 0.002076579
000030 6e 6e 62 bd 91 20 ce bf ed 9a 43 bd 90 cf b2 bd
       -0.055281095 -1.6103688 -0.04775517 -0.08730996
000040 f7 be 1c 3f 63 d9 9e 3e 9c bc 22 bd d3 0c 0d 3f
       0.6122889 0.31025228 -0.039730653 0.55097693
000050 c1 bb 3d bf f8 b2 75 bd d7 2e 92 be 93 a2 cb 3d
       -0.74114615 -0.05998513 -0.2855136 0.09943118
000060 cf f5 48 bd a6 b3 69 bf 7a 99 20 3f f6 04 56 bd
       -0.049062546 -0.91289747 0.62734187 -0.052250825
000070 85 73 10 bd be 60 1a 3f 2f 2a ad bc ab ca 5b bf
       -0.035266418 0.60303867 -0.021138279 -0.8585612

_transform._transforms.1.autoregressive_net.blocks.0.linear_layers.0.mask f4 [32, 32]
000000 00 00 80 3f 00 00 00 00 00 00 00 00 00 00 80 3f
       1.0 0.0 0.0 1.0
000010 00 00 00 00 00 00 00 00 00 00 80 3f 00 00 00 00
       0.0 0.0 1.0 0.0
000020 00 00 00 00 00 00 80 3f 00 00 00 00 00 00 00 00
       0.0 1.0 0.0 0.0
000030 00 00 80 3f 00 00 00 00 00 00 00 00 00 00 80 3f
       1.0 0.0 0.0 1.0
000040 00 00 00 00 00 00 00 00 00 00 80 3f 00 00 00 00
       0.0 0.0 1.0 0.0
000050 00 00 00 00 00 00 80 3f 00 00 00 00 00 00 00 00
       0.0 1.0 0.0 0.0
000060 00 00 80 3f 00 00 00 00 00 00 00 00 00 00 80 3f
       1.0 0.0 0.0 1.0
000070 00 00 00 00 00 00 00 00 00 00 80 3f 00 00 00 00
       0.0 0.0 1.0 0.0
000080 00 00 80 3f 00 00 80 3f 00 00 00 00 00 00 80 3f
       1.0 1.0 0.0 1.0
000090 00 00 80 3f 00 00 00 00 00 00 80 3f 00 00 80 3f
       1.0 0.0 1.0 1.0
0000a0 00 00 00 00 00 00 80 3f 00 00 80 3f 00 00 00 00
       0.0 1.0 1.0 0.0
0000b0 00 00 80 3f 00 00 80 3f 00 00 00 00 00 00 80 3f
       1.0 1.0 0.0 1.0
0000c0 00 00 80 3f 00 00 00 00 00 00 80 3f 00 00 80 3f
       1.0 0.0 1.0 1.0
0000d0 00 00 00 00 00 00 80 3f 00 00 80 3f 00 00 00 00
       0.0 1.0 1.0 0.0
0000e0 00 00 80 3f 00 00 80 3f 00 00 00 00 00 00 80 3f
       1.0 1.0 0.0 1.0
0000f0 00 00 80 3f 00 00 00 00 00 00 80 3f 00 00 80 3f
       1.0 0.0 1.0 1.0
000100 00 00 80 3f 00 00 80 3f 00 00 80 3f 00 00 80 3f
       1.0 1.0 1.0 1.0
000110 00 00 80 3f 00 00 80 3f 00 00 80 3f 00 00 80 3f
       1.0 1.0 1.0 1.0
000120 00 00 80 3f 00 00 80 3f 00 00 80 3f 00 00 80 3f
       1.0 1.0 1.0 1.0
000130 00 00 80 3f 00 00 80 3f 00 00 80 3f 00 00 80 3f
       1.0 1.0 1.0 1.0
000140 00 00 80 3f 00 00 80 3f 00 00 80 3f 00 00 80 3f
       1.0 1.0 1.0 1.0
000150 00 00 80 3f 00 00 80 3f 00 00 80 3f 00 00 80 3f
       1.0 1.0 1.0 1.0
000160 00 00 80 3f 00 00 80 3f 00 00 80 3f 00 00 80 3f
       1.0 1.0 1.0 1.0
000170 00 00 80 3f 00 00 80 3f 00 00 80 3f 00 00 80 3f
       1.0 1.0 1.0 1.0
000180 00 00 80 3f 00 00 00 00 00 00 00 00 00 00 80 3f
       1.0 0.0 0.0 1.0
000190 00 00 00 00 00 00 00 00 00 00 80 3f 00 00 00 00
       0.0 0.0 1.0 0.0
0001a0 00 00 00 00 00 00 80 3f 00 00 00 00 00 00 00 00
       0.0 1.0 0.0 0.0
0001b0 00 00 80 3f 00 00 00 00 00 00 00 00 00 00 80 3f
       1.0 0.0 0.0 1.0
0001c0 00 00 00 00 00 00 00 00 00 00 80 3f 00 00 00 00
       0.0 0.0 1.0 0.0
0001d0 00 00 00 00 00 00 80 3f 00 00 00 00 00 00 00 00
       0.0 1.0 0.0 0.0
0001e0 00 00 80 3f 00 00 00 00 00 00 00 00 00 00 80 3f
       1.0 0.0 0.0 1.0
0001f0 00 00 00 00 00 00 00 00 00 00 80 3f 00 00 00 00
       0.0 0.0 1.0 0.0
000200 00 00 80 3f 00 00 80 3f 00 00 00 00 00 00 80 3f
       1.0 1.0 0.0 1.0
000210 00 00 80 3f 00 00 00 00 00 00 80 3f 00 00 80 3f
       1.0 0.0 1.0 1.0
000220 00 00 00 00 00 00 80 3f 00 00 80 3f 00 00 00 00
       0.0 1.0 1.0 0.0
000230 00 00 80 3f 00 00 80 3f 00 00 00 00 00 00 80 3f
       1.0 1.0 0.0 1.0
000240 00 00 80 3f 00 00 00 00 00 00 80 3f 00 00 80 3f
       1.0 0.0 1.0 1.0
000250 00 00 00 00 00 00 80 3f 00 00 80 3f 00 00 00 00
       0.0 1.0 1.0 0.0
000260 00 00 80 3f 00 00 80 3f 00 00 00 00 00 00 80 3f
       1.0 1.0 0.0 1.0
000270 00 00 80 3f 00 00 00 00 00 00 80 3f 00 00 80 3f
       1.0 0.0 1.0 1.0
000280 00 00 80 3f 00 00 80 3f 00 00 80 3f 00 00 80 3f
       1.0 1.0 1.0 1.0
000290 00 00 80 3f 00 00 80 3f 00 00 80 3f 00 00 80 3f
       1.0 1.0 1.0 1.0
0002a0 00 00 80 3f 00 00 80 3f 00 00 80 3f 00 00 80 3f
       1.0 1.0 1.0 1.0
0002b0 00 00 80 3f 00 00 80 3f 00 00 80 3f 00 00 80 3f
       1.0 1.0 1.0 1.0
0002c0 00 00 80 3f 00 00 80 3f 00 00 80 3f 00 00 80 3f
       1.0 1.0 1.0 1.0
0002d0 00 00 80 3f 00 00 80 3f 00 00 80 3f 00 00 80 3f
       1.0 1.0 1.0 1.0
0002e0 00 00 80 3f 00 00 80 3f 00 00 80 3f 00 00 80 3f
       1.0 1.0 1.0 1.0
0002f0 00 00 80 3f 00 00 80 3f 00 00 80 3f 00 00 80 3f
       1.0 1.0 1.0 1.0
000300 00 00 80 3f 00 00 00 00 00 00 00 00 00 00 80 3f
       1.0 0.0 0.0 1.0
000310 00 00 00 00 00 00 00 00 00 00 80 3f 00 00 00 00
       0.0 0.0 1.0 0.0
000320 00 00 00 00 00 00 80 3f 00 00 00 00 00 00 00 00
       0.0 1.0 0.0 0.0
000330 00 00 80 3f 00 00 00 00 00 00 00 00 00 00 80 3f
       1.0 0.0 0.0 1.0
000340 00 00 00 00 00 00 00 00 00 00 80 3f 00 00 00 00
       0.0 0.0 1.0 0.0
000350 00 00 00 00 00 00 80 3f 00 00 00 00 00 00 00 00
       0.0 1.0 0.0 0.0
000360 00 00 80 3f 00 00 00 00 00 00 00 00 00 00 80 3f
       1.0 0.0 0.0 1.0
000370 00 00 00 00 00 00 00 00 00 00 80 3f 00 00 00 00
       0.0 0.0 1.0 0.0
000380 00 00 80 3f 00 00 80 3f 00 00 00 00 00 00 80 3f
       1.0 1.0 0.0 1.0
000390 00 00 80 3f 00 00 00 00 00 00 80 3f 00 00 80 3f
       1.0 0.0 1.0 1.0
0003a0 00 00 00 00 00 00 80 3f 00 00 80 3f 00 00 00 00
       0.0 1.0 1.0 0.0
0003b0 00 00 80 3f 00 00 80 3f 00 00 00 00 00 00 80 3f
       1.0 1.0 0.0 1.0
0003c0 00 00 80 3f 00 00 00 00 00 00 80 3f 00 00 80 3f
       1.0 0.0 1.0 1.0
0003d0 00 00 00 00 00 00 80 3f 00 00 80 3f 00 00 00 00
       0.0 1.0 1.0 0.0
0003e0 00 00 80 3f 00 00 80 3f 00 00 00 00 00 00 80 3f
       1.0 1.0 0.0 1.0
0003f0 00 00 80 3f 00 00 00 00 00 00 80 3f 00 00 80 3f
       1.0 0.0 1.0 1.0

_transform._transforms.1.autoregressive_net.blocks.0.linear_layers.1.weight f4 [32, 32]
000000 f3 1c d7 3d f6 0f 26 3a 0d fc 7b 3a a4 27 70 3d
       0.105035685 0.0006334776 0.00096124486 0.058631554
000010 0b 47 34 3a 28 08 53 ba 29 19 cd bb 7d f4 35 3a
       0.00068770413 -0.00080502266 -0.006259103 0.00069410336
000020 8a f1 4d 3a 2a ff 7b 3a 48 71 bf 38 4d 5f 73 39
       0.00078561215 0.00096129125 9.12869e-05 0.00023209788
000030 34 67 6c 3d 01 c8 dd b8 d3 ba 2f 3a bf b3 ef b9
       0.05771561 -0.00010575355 0.0006703559 -0.00045719554
000040 5d 33 ef b9 38 39 43 b8 12 ae 07 3d ff e0 55 39
       -0.000456239 -4.6544912e-05 0.03312499 0.0002039708
000050 6f d1 37 ba 81 42 67 3d e8 47 3d 3a 7d 05 1b ba
       -0.0007012104 0.056459907 0.00072204927 -0.00059135986
000060 84 9d 1a 3d 59 68 78 ba 1b f9 d8 39 7f 34 27 3e
       0.037747875 -0.0009475998 0.00041384329 0.1632862
000070 01 84 54 3a 0f 7d 05 3a a0 80 4c 3d a0 34 ac b9
       0.00081068283 0.00050921825 0.049927354 -0.00032845605
000080 99 db 64 bd 77 09 14 3a 84 f0 b9 38 c5 76 03 3d
       -0.055873487 0.00056471623 8.866287e-05 0.03209569
000090 8c 3a 58 bf e8 1f 43 ba 44 52 26 bc c5 73 e5 be
       -0.84464335 -0.0007443414 -0.01015145 -0.44814888
0000a0 80 6e 33 b9 63 40 3f 3a df 34 7a bd f9 ef ec b9
       -0.00017111935 0.0007295666 -0.061085578 -0.0004519222
0000b0 ac 98 0e be e1 5b 23 bf ee b5 0e ba 09 24 d7 38
       -0.13925427 -0.6381207 -0.000544398 0.00010258711
0000c0 5d 50 77 3f cb ab d9 39 43 e6 ea bc c9 db c4 bf
       0.96607 0.0004151746 -0.02867425 -1.5379573
0000d0 ee 04 a0 38 a2 2a eb 3b f6 fb bf bf 40 31 7c b9
       7.630313e-05 0.007176713 -1.4998767 -0.0002405094
0000e0 e6 6b 25 bc 77 d7 a9 3f ec 06 65 ba ea ab 36 bd
       -0.010096526 1.326888 -0.0008736688 -0.044597544
0000f0 3a 04 a5 3e 98 3a 44 39 8d e2 23 3d 4c 48 36 3f
       0.32229787 0.00018713844 0.040010978 0.71204066
000100 17 bc 06 be 36 08 81 39 40 ee 9a bd 46 38 24 be
       -0.13157688 0.00024610915 -0.07564974 -0.16037092
000110 55 42 7a be a7 66 c6 bc 13 b8 8c bd 16 aa b8 bf
       -0.24439366 -0.02421887 -0.06871047 -1.4426906
000120 20 56 9d bd 1f 17 d0 39 34 d7 ea 3d 50 8a 68 bd
       -0.07682443 0.00039690078 0.11466828 -0.05677253
000130 10 b9 50 bd 1c 0c b4 3d f9 14 1b bd 59 69 0e 39
       -0.05095774 0.08791372 -0.037861798 0.0001358142
000140 8e 99 c9 3e fb e9 ae be bd b9 98 bd 33 c0 d2 be
       0.39374965 -0.34162888 -0.07457302 -0.4116226
000150 d0 da 6a bf b6 30 94 bd 4a 5d e9 3e 16 26 43 3e
       -0.9174013 -0.072358534 0.45578986 0.19057497
000160 2e 37 85 bd d1 7e 0d bf ce 70 d5 3e 53 be 2c bd
       -0.06504665 -0.5527163 0.41687626 -0.042173695
000170 cb 62 84 3f b0 55 67 3e 7e f3 ce bd 4a 95 a4 bf
       1.0342649 0.22591281 -0.10105036 -1.285806
000180 62 8d b5 3d f8 af 4c 39 55 01 d7 b9 a2 6c 29 3d
       0.08864857 0.0001952051 -0.00041008988 0.041363366
000190 da 05 79 ba c7 27 c4 b9 82 6e d3 3b 67 06 0c 38
       -0.0009499468 -0.0003741367 0.0064523825 3.3384564e-05
0001a0 73 0b 5a 3a d6 b9 4f ba 19 94 0c b9 6d 87 6b 38
       0.0008317746 -0.0007924115 -0.00013406611 5.615449e-05
0001b0 85 87 6d 3d ad 02 34 3a fc e9 37 3a 61 9d 6f b9
       0.05799057 0.0006866854 0.00070157624 -0.00022851444
0001c0 19 84 f3 b6 8c 0c 82 38 00 a4 67 3d 9e 2b 52 39
       -7.2573425e-06 6.20122e-05 0.056552887 0.0002004341
0001d0 0f ed 66 b9 d8 f2 0e 3d f8 c6 53 ba aa 53 1b 3a
       -0.0002202282 0.034899563 -0.000807866 0.00059252477
0001e0 3b 41 4d 3d 24 1b 7d 3a 9c 38 e1 39 7d 05 15 bd
       0.050111037 0.00096552284 0.00042957522 -0.036382187
0001f0 b1 c5 74 ba cb 5e 6a ba a8 8e f3 3d 59 51 18 b9
       -0.00093373196 -0.0008940517 0.11892444 -0.00014526154
000200 df 45 78 bd 78 6a f3 b9 d0 4f e0 39 26 59 98 3b
       -0.06061351 -0.00046427897 0.00042784074 0.004649299
000210 d5 4d 3e 3f d4 2b f4 39 77 6f 7a 3c 20 5a 73 be
       0.7433751 0.0004657196 0.015285364 -0.23764849
000220 d9 42 81 ba de 3e e3 b9 46 f9 52 be 36 7e de b7
       -0.0009861841 -0.00043343654 -0.20602903 -2.6523234e-05
000230 d1 f3 fd bd ab 52 b0 3e 90 06 94 b9 5b 6a 1e ba
       -0.1240002 0.3443807 -0.0002823365 -0.000604307
000240 c4 a0 fa bd 05 50 be b9 58 e6 b7 bd 16 c2 0c 3f
       -0.12237695 -0.00036299243 -0.089794815 0.5498365
000250 f9 cf 6a 3a ac fe 1d bd 89 ce 15 3f 28 c8 6f ba
       0.0008957382 -0.038572952 0.5851827 -0.0009146952
000260 8c 79 37 bd b2 a1 1b 3f e0 90 59 ba 1f aa 9a bd
       -0.04479365 0.607936 -0.0008299481 -0.07551979
000270 24 bb d1 bb 1b 77 d3 b8 7f 99 04 bd b9 c7 7f 3f
       -0.0064004827 -0.00010083449 -0.032372948 0.9991413
000280 7f 60 06 be 7e 1f 4f 3a 22 0f 22 bf a9 9c 2d be
       -0.13122748 0.0007901116 -0.6330434 -0.16954292
000290 7a bd 93 be 7b 8a 45 3c a7 9f 3f bd b0 1e 3c bf
       -0.28855497 0.012056942 -0.046783116 -0.73484325
0002a0 37 50 54 bd f4 6d ef b8 11 1c 5a bf e5 49 09 bd
       -0.05183431 -0.000114168884 -0.85199076 -0.033517737
0002b0 11 cd 05 bd 9c 6e 7a bf 02 4c 21 bd ac c6 04 3a
       -0.03266627 -0.97825027 -0.039379127 0.0005065005
0002c0 d1 c8 bc 3e 31 18 93 3e 7d d1 a1 bd 02 5e b9 be
       0.3687196 0.28729394 -0.07901285 -0.36204535
0002d0 c3 9a 3e c0 ab 9e a0 bd 59 e8 f5 bd ad fb 11 3e
       -2.978196 -0.078427635 -0.120072074 0.14256163
0002e0 d7 e5 88 bd 0e c0 4a bf 0d 76 dc bd d8 d5 1b bd
       -0.066844635 -0.791993 -0.10764704 -0.038045734
0002f0 75 0e 97 3e 0a 29 c6 be c8 fb b6 bd 1d cf ef bf
       0.29503217 -0.38703185 -0.08934742 -1.8735081
000300 8d 55 29 3e 73 10 a4 38 01 5d 66 3a 64 ea dc 3b
       0.16536541 7.823193e-05 0.00087876624 0.0067418087
000310 cc c7 7c 3a 8c e0 08 3a 76 d8 d9 3d 09 be 52 3a
       0.0009642809 0.00052214484 0.1063699 0.00080391817
000320 ec 36 44 3a 4e 2a 05 b9 bf a8 1e ba 3c 55 50 ba
       0.00074849906 -0.00012699628 -0.0006052367 -0.0007947271
000330 91 3f 16 bd 63 5e f4 39 07 39 d0 39 9e 85 a8 39
       -0.036681715 0.0004660963 0.0003971534 0.0003214301
000340 a0 d2 d3 38 21 04 a2 b9 a7 44 05 3e a2 d9 38 39
       0.00010100496 -0.00030902124 0.1301447 0.00017628682
000350 0f fb a6 b9 c1 31 69 3d e4 d3 4a ba 73 eb 77 ba
       -0.0003184904 0.056932215 -0.00077372626 -0.0009457387
000360 e1 35 85 3d 19 4c f5 b9 36 d6 76 39 57 d4 cf 3d
       0.06504417 -0.0004678674 0.00023540188 0.101479225
000370 98 e2 4b 39 29 b9 2b 3a 88 0c 7f 3d a6 17 1c b9
       0.00019444001 0.00065507233 0.06226781 -0.00014886129
000380 56 6e ef 3d 0d 14 9d 39 f8 51 be 39 65 d8 e6 3d
       0.11690967 0.00029960313 0.00036300696 0.11271743
000390 11 dc 62 40 bf f9 81 3a 36 0b 82 3d bf 29 8e 3e
       3.5446818 0.0009916349 0.063497946 0.27766225
0003a0 c7 56 82 ba 84 80 a2 b7 c2 3e 57 be 76 d8 75 ba
       -0.0009944075 -1.937175e-05 -0.21020034 -0.00093782635
0003b0 2c 60 35 3e 74 e8 01 40 55 d4 78 ba 77 ad 50 ba
       0.17712468 2.0298128 -0.0009492089 -0.00079604186
0003c0 d1 11 91 be 61 26 07 ba 5c 7e 05 3e 6b f6 a0 be
       -0.28333905 -0.000515556 0.13036484 -0.31438002
0003d0 34 a3 67 b9 e3 e2 97 3d 16 46 3e bf 88 a4 5b 3a
       -0.00022090675 0.07416322 -0.7432569 0.0008378704
0003e0 2a 8f d1 3d ba b6 c3 3f 84 80 1e b7 de 8a 04 3e
       0.102323845 1.5290139 -9.447456e-06 0.12943599
0003f0 9a a1 17 3e 7c 94 54 b9 ec fd 50 3b 28 95 74 bf
       0.1480774 -0.0002027321 0.003188963 -0.95540094

_transform._transforms.1.autoregressive_net.blocks.0.linear_layers.1.bias f4 [32]
000000 ce 53 fe 3d b4 a6 94 3e e7 83 fd be eb 12 75 bd
       0.12418328 0.29033434 -0.49514696 -0.059832495
000010 a9 ae 10 bf 78 0e 58 bf dc 52 3c bc cc a2 1c 3f
       -0.5651651 -0.8439708 -0.011494365 0.6118591
000020 76 75 37 bf 9c d3 b9 3d c6 59 09 be 6b fc 76 3e
       -0.71663606 0.090735644 -0.13413152 0.24119727
000030 1d 11 0f 3c 3e 07 02 3f 1f 65 2c 3c a9 c8 e2 3d
       0.0087321075 0.507923 0.010522156 0.11073429
000040 9f 0e 52 be 61 fa dd 3d 4b 61 81 bc c8 8b a3 3e
       -0.2051339 0.108387716 -0.015793463 0.31942582
000050 f2 7e 13 3e 19 29 11 3e 59 8e b7 be 23 f0 84 3e
       0.14403895 0.14175834 -0.3585079 0.2596446
000060 40 13 e7 bc 93 8f 05 be 77 d5 cb bf 90 44 92 3c
       -0.028207421 -0.1304305 -1.5924519 0.017854959
000070 ea 62 61 be 5a 9a 1e bf 63 c7 4a 3d fc 6f 93 3e
       -0.22010389 -0.6195427 0.049506556 0.28796375

_transform._transforms.1.autoregressive_net.blocks.0.linear_layers.1.mask f4 [32, 32]
000000 00 00 80 3f 00 00 00 00 00 00 00 00 00 00 80 3f
       1.0 0.0 0.0 1.0
000010 00 00 00 00 00 00 00 00 00 00 80 3f 00 00 00 00
       0.0 0.0 1.0 0.0
000020 00 00 00 00 00 00 80 3f 00 00 00 00 00 00 00 00
       0.0 1.0 0.0 0.0
000030 00 00 80 3f 00 00 00 00 00 00 00 00 00 00 80 3f
       1.0 0.0 0.0 1.0
000040 00 00 00 00 00 00 00 00 00 00 80 3f 00 00 00 00
       0.0 0.0 1.0 0.0
000050 00 00 00 00 00 00 80 3f 00 00 00 00 00 00 00 00
       0.0 1.0 0.0 0.0
000060 00 00 80 3f 00 00 00 00 00 00 00 00 00 00 80 3f
       1.0 0.0 0.0 1.0
000070 00 00 00 00 00 00 00 00 00 00 80 3f 00 00 00 00
       0.0 0.0 1.0 0.0
000080 00 00 80 3f 00 00 80 3f 00 00 00 00 00 00 80 3f
       1.0 1.0 0.0 1.0
000090 00 00 80 3f 00 00 00 00 00 00 80 3f 00 00 80 3f
       1.0 0.0 1.0 1.0
0000a0 00 00 00 00 00 00 80 3f 00 00 80 3f 00 00 00 00
       0.0 1.0 1.0 0.0
0000b0 00 00 80 3f 00 00 80 3f 00 00 00 00 00 00 80 3f
       1.0 1.0 0.0 1.0
0000c0 00 00 80 3f 00 00 00 00 00 00 80 3f 00 00 80 3f
       1.0 0.0 1.0 1.0
0000d0 00 00 00 00 00 00 80 3f 00 00 80 3f 00 00 00 00
       0.0 1.0 1.0 0.0
0000e0 00 00 80 3f 00 00 80 3f 00 00 00 00 00 00 80 3f
       1.0 1.0 0.0 1.0
0000f0 00 00 80 3f 00 00 00 00 00 00 80 3f 00 00 80 3f
       1.0 0.0 1.0 1.0
000100 00 00 80 3f 00 00 80 3f 00 00 80 3f 00 00 80 3f
       1.0 1.0 1.0 1.0
000110 00 00 80 3f 00 00 80 3f 00 00 80 3f 00 00 80 3f
       1.0 1.0 1.0 1.0
000120 00 00 80 3f 00 00 80 3f 00 00 80 3f 00 00 80 3f
       1.0 1.0 1.0 1.0
000130 00 00 80 3f 00 00 80 3f 00 00 80 3f 00 00 80 3f
       1.0 1.0 1.0 1.0
000140 00 00 80 3f 00 00 80 3f 00 00 80 3f 00 00 80 3f
       1.0 1.0 1.0 1.0
000150 00 00 80 3f 00 00 80 3f 00 00 80 3f 00 00 80 3f
       1.0 1.0 1.0 1.0
000160 00 00 80 3f 00 00 80 3f 00 00 80 3f 00 00 80 3f
       1.0 1.0 1.0 1.0
000170 00 00 80 3f 00 00 80 3f 00 00 80 3f 00 00 80 3f
       1.0 1.0 1.0 1.0
000180 00 00 80 3f 00 00 00 00 00 00 00 00 00 00 80 3f
       1.0 0.0 0.0 1.0
000190 00 00 00 00 00 00 00 00 00 00 80 3f 00 00 00 00
       0.0 0.0 1.0 0.0
0001a0 00 00 00 00 00 00 80 3f 00 00 00 00 00 00 00 00
       0.0 1.0 0.0 0.0
0001b0 00 00 80 3f 00 00 00 00 00 00 00 00 00 00 80 3f
       1.0 0.0 0.0 1.0
0001c0 00 00 00 00 00 00 00 00 00 00 80 3f 00 00 00 00
       0.0 0.0 1.0 0.0
0001d0 00 00 00 00 00 00 80 3f 00 00 00 00 00 00 00 00
       0.0 1.0 0.0 0.0
0001e0 00 00 80 3f 00 00 00 00 00 00 00 00 00 00 80 3f
       1.0 0.0 0.0 1.0
0001f0 00 00 00 00 00 00 00 00 00 00 80 3f 00 00 00 00
       0.0 0.0 1.0 0.0
000200 00 00 80 3f 00 00 80 3f 00 00 00 00 00 00 80 3f
       1.0 1.0 0.0 1.0
000210 00 00 80 3f 00 00 00 00 00 00 80 3f 00 00 80 3f
       1.0 0.0 1.0 1.0
000220 00 00 00 00 00 00 80 3f 00 00 80 3f 00 00 00 00
       0.0 1.0 1.0 0.0
000230 00 00 80 3f 00 00 80 3f 00 00 00 00 00 00 80 3f
       1.0 1.0 0.0 1.0
000240 00 00 80 3f 00 00 00 00 00 00 80 3f 00 00 80 3f
       1.0 0.0 1.0 1.0
000250 00 00 00 00 00 00 80 3f 00 00 80 3f 00 00 00 00
       0.0 1.0 1.0 0.0
000260 00 00 80 3f 00 00 80 3f 00 00 00 00 00 00 80 3f
       1.0 1.0 0.0 1.0
000270 00 00 80 3f 00 00 00 00 00 00 80 3f 00 00 80 3f
       1.0 0.0 1.0 1.0
000280 00 00 80 3f 00 00 80 3f 00 00 80 3f 00 00 80 3f
       1.0 1.0 1.0 1.0
000290 00 00 80 3f 00 00 80 3f 00 00 80 3f 00 00 80 3f
       1.0 1.0 1.0 1.0
0002a0 00 00 80 3f 00 00 80 3f 00 00 80 3f 00 00 80 3f
       1.0 1.0 1.0 1.0
0002b0 00 00 80 3f 00 00 80 3f 00 00 80 3f 00 00 80 3f
       1.0 1.0 1.0 1.0
0002c0 00 00 80 3f 00 00 80 3f 00 00 80 3f 00 00 80 3f
       1.0 1.0 1.0 1.0
0002d0 00 00 80 3f 00 00 80 3f 00 00 80 3f 00 00 80 3f
       1.0 1.0 1.0 1.0
0002e0 00 00 80 3f 00 00 80 3f 00 00 80 3f 00 00 80 3f
       1.0 1.0 1.0 1.0
0002f0 00 00 80 3f 00 00 80 3f 00 00 80 3f 00 00 80 3f
       1.0 1.0 1.0 1.0
000300 00 00 80 3f 00 00 00 00 00 00 00 00 00 00 80 3f
       1.0 0.0 0.0 1.0
000310 00 00 00 00 00 00 00 00 00 00 80 3f 00 00 00 00
       0.0 0.0 1.0 0.0
000320 00 00 00 00 00 00 80 3f 00 00 00 00 00 00 00 00
       0.0 1.0 0.0 0.0
000330 00 00 80 3f 00 00 00 00 00 00 00 00 00 00 80 3f
       1.0 0.0 0.0 1.0
000340 00 00 00 00 00 00 00 00 00 00 80 3f 00 00 00 00
       0.0 0.0 1.0 0.0
000350 00 00 00 00 00 00 80 3f 00 00 00 00 00 00 00 00
       0.0 1.0 0.0 0.0
000360 00 00 80 3f 00 00 00 00 00 00 00 00 00 00 80 3f
       1.0 0.0 0.0 1.0
000370 00 00 00 00 00 00 00 00 00 00 80 3f 00 00 00 00
       0.0 0.0 1.0 0.0
000380 00 00 80 3f 00 00 80 3f 00 00 00 00 00 00 80 3f
       1.0 1.0 0.0 1.0
000390 00 00 80 3f 00 00 00 00 00 00 80 3f 00 00 80 3f
       1.0 0.0 1.0 1.0
0003a0 00 00 00 00 00 00 80 3f 00 00 80 3f 00 00 00 00
       0.0 1.0 1.0 0.0
0003b0 00 00 80 3f 00 00 80 3f 00 00 00 00 00 00 80 3f
       1.0 1.0 0.0 1.0
0003c0 00 00 80 3f 00 00 00 00 00 00 80 3f 00 00 80 3f
       1.0 0.0 1.0 1.0
0003d0 00 00 00 00 00 00 80 3f 00 00 80 3f 00 00 00 00
       0.0 1.0 1.0 0.0
0003e0 00 00 80 3f 00 00 80 3f 00 00 00 00 00 00 80 3f
       1.0 1.0 0.0 1.0
0003f0 00 00 80 3f 00 00 00 00 00 00 80 3f 00 00 80 3f
       1.0 0.0 1.0 1.0

_transform._transforms.1.autoregressive_net.blocks.1.linear_layers.0.weight f4 [32, 32]
000000 d4 0a c3 3d 78 f1 e9 bb 90 9c 2e 3e 2e a9 9a bd
       0.0952355 -0.007139381 0.17051911 -0.075518
000010 b2 2b 01 be 73 23 8e bc 65 f4 d6 bd 3d b2 2c be
       -0.12614325 -0.017350888 -0.10495833 -0.16864868
000020 ef 77 e7 bd 9d 55 2d be 64 4e 8d 3d 47 c0 61 bd
       -0.113021724 -0.1692719 0.068997175 -0.05511501
000030 c4 93 a8 3c c2 ee 18 bd 13 64 02 3e 89 59 7a be
       0.020578273 -0.037337072 0.12733488 -0.24448217
000040 a4 d6 80 bc 98 e1 cb 3d 3f 9a 85 3d ac 54 e0 3d
       -0.015727349 0.09955138 0.06523561 0.1095365
000050 b2 4d 1b 3d 19 3d a2 3b 36 f0 a1 bc 23 5c dc 3d
       0.037915893 0.004951131 -0.019767862 0.10759761
000060 dc dc f0 bd cc 40 30 3e ef b4 e7 bc 1a a6 5e be
       -0.117608756 0.17212218 -0.028284518 -0.2174305
000070 33 91 85 bd af 5d d4 3c cd 0c e5 3d b2 74 28 be
       -0.06521835 0.025923578 0.11184082 -0.16450766
000080 22 ab b9 bd 2a bd 88 bd ee 94 02 be d7 d1 5d 3d
       -0.09065844 -0.06676705 -0.12752125 0.054155197
000090 65 b5 db 3b 3e 3e 81 3d 09 3b 3e be f8 58 76 3d
       0.0067049735 0.063107 -0.18577208 0.06014344
0000a0 e3 39 58 bd 84 de 53 bd 68 c5 4e be 59 dd ce 3a
       -0.05278958 -0.05172588 -0.20192492 0.001578252
0000b0 2b 41 8c bd 57 1f 15 3c 8b cf 15 be e5 85 d1 3d
       -0.06848367 0.00910171 -0.14629953 0.102306165
0000c0 02 c6 a0 bd 65 a1 98 bc 9b 67 e0 bd e5 c2 97 bd
       -0.07850267 -0.018631646 -0.10957261 -0.0741022
0000d0 53 5c 04 be ab 18 bc 3d 1f c2 00 3e 53 d8 0c bd
       -0.12925844 0.091843925 0.12574051 -0.03438599
0000e0 41 b5 34 be 58 e1 2c 3e 37 23 08 be b2 ec 02 be
       -0.17647268 0.16882837 -0.13294683 -0.12785605
0000f0 7e 5f ca 3b c7 7e de 3c 09 f2 ce 3d 32 56 1e be
       0.0061759343 0.027160062 0.10104758 -0.15462568
000100 4e 22 cf 3d 89 37 c6 bd 36 29 7c bd be c3 45 3d
       0.10113965 -0.09678561 -0.06156274 0.048282377
000110 87 73 90 3c 89 56 00 3e 4d c7 ca bc 5c 3e 22 be
       0.017633213 0.1253301 -0.024753237 -0.158441
000120 13 fd 30 be ce 3c a6 bd 7d ed a9 3d ec d3 c8 bd
       -0.1728404 -0.08117066 0.082972504 -0.09806046
000130 a3 a5 3e 3e 0b 42 a3 bd a7 7b 60 be 42 e8 a4 bd
       0.18617873 -0.07971581 -0.2192217 -0.08052112
000140 13 68 b1 bc 69 16 1c 3c 87 0d 91 be 86 ce 19 3d
       -0.021656072 0.009526827 -0.28330633 0.03755047
000150 7e 07 01 be a6 c3 7c bc e1 a5 9e bd cf df 32 be
       -0.12600514 -0.015427506 -0.07746483 -0.17468189
000160 eb ad 2e be 28 ea eb bd d9 3a 76 3d d9 79 c6 bd
       -0.17058532 -0.11519271 0.060114715 -0.09691209
000170 58 3a 90 bd 09 2c 80 be 07 ce 06 be f4 d5 8e bc
       -0.07042378 -0.25033596 -0.1316453 -0.017436005
000180 6b 05 58 bd c5 c1 b1 3d 7a 48 be bd c1 f1 40 be
       -0.052739542 0.08679537 -0.092911676 -0.18842222
000190 50 39 0e be 18 9d 8e 3d 7e 12 91 bd ac 1a e9 3d
       -0.1388905 0.06963557 -0.07083605 0.113820404
0001a0 d2 ff d2 3d 76 9b 4c bd ce f0 bf 3c cc 4d 0a 3e
       0.103027 -0.049952947 0.023430254 0.1350624
0001b0 e3 fc 2b bd 10 e5 d8 3d 7f a4 3c bd aa e9 2c bb
       -0.04198922 0.10590565 -0.046055313 -0.0026384392
0001c0 9b b2 0c 3e 51 10 14 be 08 19 27 be c8 01 3b 3d
       0.13740008 -0.14459349 -0.16318142 0.045655996
0001d0 95 12 db bb 6a fc 3f bd e6 10 4b bd ab 6c da 3d
       -0.0066855648 -0.04687158 -0.049576662 0.10665258
0001e0 97 16 e4 bd dc d3 17 3e c9 ab 07 be a2 4e 0c be
       -0.11137121 0.14826912 -0.13249125 -0.13701871
0001f0 df 51 eb bc 0e 51 d2 3b 30 ae 7b be e3 23 e7 bd
       -0.028725563 0.006418354 -0.24578166 -0.11286142
000200 ef b6 0d bf da 5c 52 3e 5b 21 72 3d eb 00 d1 bc
       -0.5535726 0.20543233 0.05911384 -0.025513133
000210 4c ab 0b bf 1d c5 6a bd 78 87 21 bf e1 42 e7 3e
       -0.54558253 -0.057316888 -0.63097334 0.45168212
000220 9f 28 21 be 4f 17 40 bf ca 61 07 bf 20 1c 17 3e
       -0.15738152 -0.75035566 -0.5288359 0.14756823
000230 bb 76 9a 3d ad 28 57 3f 79 08 c6 3d 32 bd 28 3e
       0.07542177 0.8404644 0.09669585 0.16478422
000240 3a 23 28 bf 90 bc 96 3d 00 01 65 be 76 38 f0 3e
       -0.6567875 0.07360184 -0.22363663 0.46918076
000250 d2 55 10 be 88 e4 ad bb fb 9f 3c 3f e0 93 29 be
       -0.14095238 -0.005306784 0.7368161 -0.16560316
000260 f1 cf 44 bf 57 3c 4d bd 46 31 ec 3c 5f c1 32 be
       -0.76879793 -0.050106373 0.02883209 -0.17456578
000270 88 8a 02 3f 14 e5 f0 bd cf 1a 06 bf fa 12 00 be
       0.5099263 -0.11762443 -0.52384657 -0.12507239
000280 6f 68 31 3e 90 8e ed bf ec 69 90 be 88 16 aa bd
       0.17324995 -1.8559132 -0.28205812 -0.08305079
000290 56 02 1e 40 8d 75 0b bf 89 f8 95 3e e6 fe 55 3f
       2.4688926 -0.54476243 0.2929118 0.8359207
0002a0 06 30 51 3f 2a 2d f3 bb 7f 40 a5 be 66 d2 1b 3f
       0.817139 -0.0074211555 -0.3227577 0.6086792
0002b0 9b df 9d bd b9 0e 30 3f 13 ca 98 3d 39 4d 24 3f
       -0.07708665 0.68772465 0.074604176 0.6418033
0002c0 9e 11 b8 3e 07 d9 93 be 30 6d 77 bd 97 5c 24 bd
       0.3595094 -0.28876516 -0.060406864 -0.040127363
0002d0 f4 40 0a bf 67 c8 dd 3c 58 55 1a 3f eb 84 8d be
       -0.5400536 0.027073098 0.60286474 -0.2764047
0002e0 e4 4b fc be bf 58 a8 3d 5b 0a ba bf c3 f7 9b 3f
       -0.4927665 0.08220052 -1.453441 1.2184986
0002f0 fd 73 61 3e 3f 60 85 bf 32 b7 49 b7 e3 27 16 bf
       0.22016902 -1.0419997 -1.2023187e-05 -0.5865461
000300 f7 9f a1 be 14 de ed bd 85 48 ad bb 04 7a 80 be
       -0.31567356 -0.11614624 -0.005288186 -0.2509309
000310 ee d9 27 be 89 8a 2f 3d e5 23 a2 be 03 29 31 bd
       -0.16391727 0.042856727 -0.3166801 -0.043252002
000320 4c d1 08 bd 2d be 69 be 2a ab d9 bd f0 ea 93 3c
       -0.033402726 -0.22826453 -0.1062835 0.018056363
000330 3e ae c9 bc 47 23 0e be 7c 1b 03 3e d7 d4 0c be
       -0.024619218 -0.13880645 0.12803453 -0.13753067
000340 ad 49 0e bd 7e b7 34 3e 86 e9 03 be d9 23 01 3d
       -0.03473823 0.17648122 -0.12882051 0.031528328
000350 e7 75 21 3d 4a 01 bc be 7c 69 32 3e ed ec 02 be
       0.03941908 -0.36719733 0.17423052 -0.12785693
000360 fd b8 83 bd 37 7d e3 3d 1b b0 2f 3e 65 0f 2b 3e
       -0.06431768 0.11107867 0.17157023 0.16705091
000370 d8 86 24 3e aa 25 ca 3d c6 d5 cc be 17 1e dc 3d
       0.16067064 0.09870465 -0.40006846 0.10747927
000380 da 88 d3 3c 66 f2 1e 3e 61 b4 f4 bd 04 b4 1d bd
       0.025822092 0.15522155 -0.11948467 -0.038501754
000390 b7 b8 33 c0 52 7c 12 be 9d ec 27 bd bc da 25 3e
       -2.808149 -0.14305237 -0.040997136 0.16196722
0003a0 f2 bc 7e 3d 72 c4 07 bd 85 21 b7 3f 35 58 ab 3d
       0.06219191 -0.03314633 1.4307104 0.083664335
0003b0 86 05 ce 3e 94 1a df bf dc 15 f7 3d ab c2 c9 bd
       0.4023859 -1.7429986 0.12064716 -0.09851583
0003c0 62 7b 30 bf 3e cc db 3c d4 f0 28 bd 45 29 bf be
       -0.6893827 0.026830789 -0.041245297 -0.37336174
0003d0 30 93 31 3e 1e 32 69 3d 66 cf 61 c0 80 5a 17 be
       0.17341304 0.05693256 -3.5282836 -0.14780617
0003e0 4c 8c 2c 3f 29 ae 8d 3e c8 99 d5 bd 44 4c 58 3e
       0.67401576 0.27671936 -0.10429722 0.21122843
0003f0 cc 45 65 3f 8f ba ed bc 7c a4 9e 3e f4 c3 2c bf
       0.89559627 -0.029019622 0.30984867 -0.674865

_transform._transforms.1.autoregressive_net.blocks.1.linear_layers.0.bias f4 [32]
000000 6d aa b7 bd f3 e1 6a be cb f2 61 bd 52 ee f5 bb
       -0.08968053 -0.22937755 -0.055163186 -0.0075052166
000010 e7 7d a0 bf c8 ef fc bd 16 8b 91 bd f6 52 04 be
       -1.2538422 -0.12350422 -0.07106607 -0.12922272
000020 ae 7d e1 3d c7 13 16 bd a4 0d 05 be be ef 32 be
       0.110102996 -0.036639955 -0.12993485 -0.17474267
000030 2c 9a 06 be 6c 36 90 bf 5e 46 b5 be eb 4a e8 bd
       -0.1314475 -1.1266608 -0.35405248 -0.113424145
000040 a5 b3 d2 bd a0 e8 97 bf 6e db be bd 00 e4 0e be
       -0.10288171 -1.1867867 -0.09319197 -0.13954163
000050 bc f5 cf 3f 8e 9a 4f bd 33 8e 69 3d fa f6 36 be
       1.6246867 -0.050684504 0.057020377 -0.17867652
000060 39 78 17 be 62 06 36 bf 5e 70 ab bd 4a b8 02 be
       -0.14791955 -0.7110349 -0.08371042 -0.12765613
000070 91 a5 fe be fd b6 b8 3d d1 63 45 bd 88 6a 2f bf
       -0.49735692 0.09019277 -0.048190895 -0.6852193

_transform._transforms.1.autoregressive_net.blocks.1.linear_layers.0.mask f4 [32, 32]
000000 00 00 80 3f 00 00 00 00 00 00 00 00 00 00 80 3f
       1.0 0.0 0.0 1.0
000010 00 00 00 00 00 00 00 00 00 00 80 3f 00 00 00 00
       0.0 0.0 1.0 0.0
000020 00 00 00 00 00 00 80 3f 00 00 00 00 00 00 00 00
       0.0 1.0 0.0 0.0
000030 00 00 80 3f 00 00 00 00 00 00 00 00 00 00 80 3f
       1.0 0.0 0.0 1.0
000040 00 00 00 00 00 00 00 00 00 00 80 3f 00 00 00 00
       0.0 0.0 1.0 0.0
000050 00 00 00 00 00 00 80 3f 00 00 00 00 00 00 00 00
       0.0 1.0 0.0 0.0
000060 00 00 80 3f 00 00 00 00 00 00 00 00 00 00 80 3f
       1.0 0.0 0.0 1.0
000070 00 00 00 00 00 00 00 00 00 00 80 3f 00 00 00 00
       0.0 0.0 1.0 0.0
000080 00 00 80 3f 00 00 80 3f 00 00 00 00 00 00 80 3f
       1.0 1.0 0.0 1.0
000090 00 00 80 3f 00 00 00 00 00 00 80 3f 00 00 80 3f
       1.0 0.0 1.0 1.0
0000a0 00 00 00 00 00 00 80 3f 00 00 80 3f 00 00 00 00
       0.0 1.0 1.0 0.0
0000b0 00 00 80 3f 00 00 80 3f 00 00 00 00 00 00 80 3f
       1.0 1.0 0.0 1.0
0000c0 00 00 80 3f 00 00 00 00 00 00 80 3f 00 00 80 3f
       1.0 0.0 1.0 1.0
0000d0 00 00 00 00 00 00 80 3f 00 00 80 3f 00 00 00 00
       0.0 1.0 1.0 0.0
0000e0 00 00 80 3f 00 00 80 3f 00 00 00 00 00 00 80 3f
       1.0 1.0 0.0 1.0
0000f0 00 00 80 3f 00 00 00 00 00 00 80 3f 00 00 80 3f
       1.0 0.0 1.0 1.0
000100 00 00 80 3f 00 00 80 3f 00 00 80 3f 00 00 80 3f
       1.0 1.0 1.0 1.0
000110 00 00 80 3f 00 00 80 3f 00 00 80 3f 00 00 80 3f
       1.0 1.0 1.0 1.0
000120 00 00 80 3f 00 00 80 3f 00 00 80 3f 00 00 80 3f
       1.0 1.0 1.0 1.0
000130 00 00 80 3f 00 00 80 3f 00 00 80 3f 00 00 80 3f
       1.0 1.0 1.0 1.0
000140 00 00 80 3f 00 00 80 3f 00 00 80 3f 00 00 80 3f
       1.0 1.0 1.0 1.0
000150 00 00 80 3f 00 00 80 3f 00 00 80 3f 00 00 80 3f
       1.0 1.0 1.0 1.0
000160 00 00 80 3f 00 00 80 3f 00 00 80 3f 00 00 80 3f
       1.0 1.0 1.0 1.0
000170 00 00 80 3f 00 00 80 3f 00 00 80 3f 00 00 80 3f
       1.0 1.0 1.0 1.0
000180 00 00 80 3f 00 00 00 00 00 00 00 00 00 00 80 3f
       1.0 0.0 0.0 1.0
000190 00 00 00 00 00 00 00 00 00 00 80 3f 00 00 00 00
       0.0 0.0 1.0 0.0
0001a0 00 00 00 00 00 00 80 3f 00 00 00 00 00 00 00 00
       0.0 1.0 0.0 0.0
0001b0 00 00 80 3f 00 00 00 00 00 00 00 00 00 00 80 3f
       1.0 0.0 0.0 1.0
0001c0 00 00 00 00 00 00 00 00 00 00 80 3f 00 00 00 00
       0.0 0.0 1.0 0.0
0001d0 00 00 00 00 00 00 80 3f 00 00 00 00 00 00 00 00
       0.0 1.0 0.0 0.0
0001e0 00 00 80 3f 00 00 00 00 00 00 00 00 00 00 80 3f
       1.0 0.0 0.0 1.0
0001f0 00 00 00 00 00 00 00 00 00 00 80 3f 00 00 00 00
       0.0 0.0 1.0 0.0
000200 00 00 80 3f 00 00 80 3f 00 00 00 00 00 00 80 3f
       1.0 1.0 0.0 1.0
000210 00 00 80 3f 00 00 00 00 00 00 80 3f 00 00 80 3f
       1.0 0.0 1.0 1.0
000220 00 00 00 00 00 00 80 3f 00 00 80 3f 00 00 00 00
       0.0 1.0 1.0 0.0
000230 00 00 80 3f 00 00 80 3f 00 00 00 00 00 00 80 3f
       1.0 1.0 0.0 1.0
000240 00 00 80 3f 00 00 00 00 00 00 80 3f 00 00 80 3f
       1.0 0.0 1.0 1.0
000250 00 00 00 00 00 00 80 3f 00 00 80 3f 00 00 00 00
       0.0 1.0 1.0 0.0
000260 00 00 80 3f 00 00 80 3f 00 00 00 00 00 00 80 3f
       1.0 1.0 0.0 1.0
000270 00 00 80 3f 00 00 00 00 00 00 80 3f 00 00 80 3f
       1.0 0.0 1.0 1.0
000280 00 00 80 3f 00 00 80 3f 00 00 80 3f 00 00 80 3f
       1.0 1.0 1.0 1.0
000290 00 00 80 3f 00 00 80 3f 00 00 80 3f 00 00 80 3f
       1.0 1.0 1.0 1.0
0002a0 00 00 80 3f 00 00 80 3f 00 00 80 3f 00 00 80 3f
       1.0 1.0 1.0 1.0
0002b0 00 00 80 3f 00 00 80 3f 00 00 80 3f 00 00 80 3f
       1.0 1.0 1.0 1.0
0002c0 00 00 80 3f 00 00 80 3f 00 00 80 3f 00 00 80 3f
       1.0 1.0 1.0 1.0
0002d0 00 00 80 3f 00 00 80 3f 00 00 80 3f 00 00 80 3f
       1.0 1.0 1.0 1.0
0002e0 00 00 80 3f 00 00 80 3f 00 00 80 3f 00 00 80 3f
       1.0 1.0 1.0 1.0
0002f0 00 00 80 3f 00 00 80 3f 00 00 80 3f 00 00 80 3f
       1.0 1.0 1.0 1.0
000300 00 00 80 3f 00 00 00 00 00 00 00 00 00 00 80 3f
       1.0 0.0 0.0 1.0
000310 00 00 00 00 00 00 00 00 00 00 80 3f 00 00 00 00
       0.0 0.0 1.0 0.0
000320 00 00 00 00 00 00 80 3f 00 00 00 00 00 00 00 00
       0.0 1.0 0.0 0.0
000330 00 00 80 3f 00 00 00 00 00 00 00 00 00 00 80 3f
       1.0 0.0 0.0 1.0
000340 00 00 00 00 00 00 00 00 00 00 80 3f 00 00 00 00
       0.0 0.0 1.0 0.0
000350 00 00 00 00 00 00 80 3f 00 00 00 00 00 00 00 00
       0.0 1.0 0.0 0.0
000360 00 00 80 3f 00 00 00 00 00 00 00 00 00 00 80 3f
       1.0 0.0 0.0 1.0
000370 00 00 00 00 00 00 00 00 00 00 80 3f 00 00 00 00
       0.0 0.0 1.0 0.0
000380 00 00 80 3f 00 00 80 3f 00 00 00 00 00 00 80 3f
       1.0 1.0 0.0 1.0
000390 00 00 80 3f 00 00 00 00 00 00 80 3f 00 00 80 3f
       1.0 0.0 1.0 1.0
0003a0 00 00 00 00 00 00 80 3f 00 00 80 3f 00 00 00 00
       0.0 1.0 1.0 0.0
0003b0 00 00 80 3f 00 00 80 3f 00 00 00 00 00 00 80 3f
       1.0 1.0 0.0 1.0
0003c0 00 00 80 3f 00 00 00 00 00 00 80 3f 00 00 80 3f
       1.0 0.0 1.0 1.0
0003d0 00 00 00 00 00 00 80 3f 00 00 80 3f 00 00 00 00
       0.0 1.0 1.0 0.0
0003e0 00 00 80 3f 00 00 80 3f 00 00 00 00 00 00 80 3f
       1.0 1.0 0.0 1.0
0003f0 00 00 80 3f 00 00 00 00 00 00 80 3f 00 00 80 3f
       1.0 0.0 1.0 1.0
