model2_v1/epoch=225modello-N_iter4-N_features32-N_BS32-epochs250-lr0.001-val_loss1000.pth (torch, 206026 bytes, 72 tensors)

_transform._transforms.1.autoregressive_net.initial_layer.weight f4 [32, 4]
00000000: d701 b63c 54b7 8cbe e85d 4ebe ac43 fc3e
00000010: 47a7 8a3c 8311 d2bd 860a 863e 20c7 0fbe
00000020: af02 3cbd 4f40 f0be 17d5 a33f 4068 e33c
00000030: 0d6d babc 2a21 c8be 5828 cdbd 448f 6f3e
00000040: ab54 223e cb10 34bd ae87 c3be 4425 f5be
00000050: 9253 e43b 1a74 723f 0c7e 2a40 6417 febe
00000060: 7f73 9b3b 58e4 473e 3cd9 35be 54c3 7ebe
00000070: 9fb5 37bb 826c 8fbf 945d a63e c830 463e
00000080: ff6b eb3c 0463 22bf 7d93 5e40 5cd2 09be
00000090: f6b4 8b3c e4df 6a3e 7a19 e93e 44d1 3bbe
000000a0: 75e9 cf3b de5f 343f 0066 aabc 4823 3fbe
000000b0: 93f8 8b3c 836b b3bd 1e3b 02c0 00df 593c
000000c0: 72fb 4abc b844 abbd b2a3 ddbe 08aa de3e
000000d0: f923 e7bc 59f9 46bf 96f7 aabe 386d 91bd
000000e0: ccae b3bb 7e1d 05bf 808e eebf 8095 e93d
000000f0: adc5 45bc 98d2 fdbe 4e47 a3be b4c9 713e
00000100: 367e 573c bb9c 92bd 24db 1fbe 000c d5ba
00000110: 28dd b8bb c301 413f db31 973e d6f5 cf3e
00000120: e43c 38bb 5e77 f63e a053 ca3e 4029 343c
00000130: a168 cb3b 6677 1abf a45a 05be 9c4c e23e
00000140: 5469 463e a9d5 893e 7a61 443d 72e8 c4be
00000150: 4914 a33b a04b d83c 7078 da3e 14fa 0cbe
00000160: d6e8 b6ba 8b1b 8f3f a436 5e3e 20f2 c2bd
00000170: 96d8 28bb a4f9 74bf ee0f 4740 1668 e2be
00000180: bf4c 86bc dab6 ed3e a8a0 ca3e ac4b 063e
00000190: f7d5 14bc 2fbc b43f 6c56 e4be 1e7c da3e
000001a0: bd95 213c b8b6 acbf 494d 653e 0c1f 923e
000001b0: e38f 1b3b feca a33e 8079 e93c 7658 e33e
000001c0: 192b 183b 0612 86bf 403d e7bd e434 a23e
000001d0: 274f f8bc f039 063e 55e3 55c0 e8f1 da3e
000001e0: 0f18 bd3c 5646 84be 008a 6bbd e68c ac3e
000001f0: 1484 b3bb cbb0 6fbf b01d 65bd a0c3 73be
0.022217674 -0.27483618 -0.2015301 0.4927038 0.016925467 -0.10257246 0.26179904 -0.14040804
-0.045900997 -0.46924064 1.2799405 0.027759671 -0.022757078 -0.39087802 -0.100174606 0.23394495
0.15852611 -0.043961328 -0.38189453 -0.47879994 0.00696797 0.94708407 2.6639433 -0.4962722
0.004743993 0.195207 -0.1775865 -0.248792 -0.0028031839 -1.1204989 0.3249327 0.19354546
0.02873802 -0.63432336 3.477752 -0.13459152 0.017054062 0.2293697 0.4552725 -0.18341547
0.006344969 0.7045878 -0.02080059 -0.18665802 0.017086303 -0.087607406 -2.0348582 0.013297796
-0.012389051 -0.083627164 -0.43288952 0.434891 -0.028215395 -0.77724224 -0.33392018 -0.0710091
-0.005483484 -0.51998127 -1.8637238 0.11405468 -0.012071055 -0.49574733 -0.3189034 0.236121
0.01315265 -0.071588 -0.1561094 -0.0016254187 -0.0056415983 0.75393313 0.29530224 0.40617245
-0.0028112466 0.48137945 0.39516926 0.010996163 0.006207541 -0.6033844 -0.13022858 0.44199073
0.19376117 0.26920822 0.047944523 -0.38458592 0.0049767834 0.026403248 0.42670012 -0.13767272
-0.0013954889 1.118028 0.21700531 -0.09518838 -0.002576386 -0.9569342 3.1103473 -0.44220036
-0.016394017 0.46428567 0.39575696 0.13114804 -0.009084216 1.4119929 -0.44597185 0.4267282
0.009862361 -1.3493261 0.22392763 0.28539312 0.0023736886 0.31990808 0.028500319 0.44403428
0.0023219048 -1.047425 -0.112909794 0.31680977 -0.03031118 0.13108039 -3.3420002 0.42762685
0.023082761 -0.25834912 -0.057504654 0.33701247 -0.0054783914 -0.9362914 -0.055936515 -0.23805094

_transform._transforms.1.autoregressive_net.initial_layer.bias f4 [32]
00000000: 65f0 90be 6c36 94be 1714 2ebe 184c 48be
00000010: dfe0 50be 0e8c c3be 73de 3bbe 6b03 76bf
00000020: 0557 9ebf acd6 8bbe 5655 ef3e 2d3b 00bf
00000030: 6a57 54be 1423 07c0 9de7 61be 99bc 92be
00000040: 4435 8ebe e320 dabf dfeb 4abe 9782 aabf
00000050: 5f2b 49bf bcde a5be de62 cebe 19cb b73f
00000060: 9748 3bbe b22d 6cbf 7bda af3f 6fd9 5ebe
00000070: 3004 2bbf b2f3 edbf 2f5d 51be 8d59 e3bf
-0.28308406 -0.2894777 -0.16999851 -0.19560277 -0.20398282 -0.3819279 -0.18346576 -0.96098965
-1.2370306 -0.2731222 0.46744794 -0.50090295 -0.20736471 -2.111516 -0.2206101 -0.28659514
-0.27775013 -1.7041286 -0.1981654 -1.3321103 -0.78581804 -0.32396495 -0.40309805 1.4358855
-0.1828941 -0.92257226 1.373855 -0.21762632 -0.66803265 -1.8589995 -0.20445703 -1.7761704

_transform._transforms.1.autoregressive_net.initial_layer.mask f4 [32, 4]
00000000: 0000 803f 0000 0000 0000 0000 0000 0000
00000010: 0000 803f 0000 803f 0000 0000 0000 0000
00000020: 0000 803f 0000 803f 0000 803f 0000 0000
00000030: 0000 803f 0000 0000 0000 0000 0000 0000
00000040: 0000 803f 0000 803f 0000 0000 0000 0000
00000050: 0000 803f 0000 803f 0000 803f 0000 0000
00000060: 0000 803f 0000 0000 0000 0000 0000 0000
00000070: 0000 803f 0000 803f 0000 0000 0000 0000
00000080: 0000 803f 0000 803f 0000 803f 0000 0000
00000090: 0000 803f 0000 0000 0000 0000 0000 0000
000000a0: 0000 803f 0000 803f 0000 0000 0000 0000
000000b0: 0000 803f 0000 803f 0000 803f 0000 0000
000000c0: 0000 803f 0000 0000 0000 0000 0000 0000
000000d0: 0000 803f 0000 803f 0000 0000 0000 0000
000000e0: 0000 803f 0000 803f 0000 803f 0000 0000
000000f0: 0000 803f 0000 0000 0000 0000 0000 0000
00000100: 0000 803f 0000 803f 0000 0000 0000 0000
00000110: 0000 803f 0000 803f 0000 803f 0000 0000
00000120: 0000 803f 0000 0000 0000 0000 0000 0000
00000130: 0000 803f 0000 803f 0000 0000 0000 0000
00000140: 0000 803f 0000 803f 0000 803f 0000 0000
00000150: 0000 803f 0000 0000 0000 0000 0000 0000
00000160: 0000 803f 0000 803f 0000 0000 0000 0000
00000170: 0000 803f 0000 803f 0000 803f 0000 0000
00000180: 0000 803f 0000 0000 0000 0000 0000 0000
00000190: 0000 803f 0000 803f 0000 0000 0000 0000
000001a0: 0000 803f 0000 803f 0000 803f 0000 0000
000001b0: 0000 803f 0000 0000 0000 0000 0000 0000
000001c0: 0000 803f 0000 803f 0000 0000 0000 0000
000001d0: 0000 803f 0000 803f 0000 803f 0000 0000
000001e0: 0000 803f 0000 0000 0000 0000 0000 0000
000001f0: 0000 803f 0000 803f 0000 0000 0000 0000
1.0 0.0 0.0 0.0 1.0 1.0 0.0 0.0
1.0 1.0 1.0 0.0 1.0 0.0 0.0 0.0
1.0 1.0 0.0 0.0 1.0 1.0 1.0 0.0
1.0 0.0 0.0 0.0 1.0 1.0 0.0 0.0
1.0 1.0 1.0 0.0 1.0 0.0 0.0 0.0
1.0 1.0 0.0 0.0 1.0 1.0 1.0 0.0
1.0 0.0 0.0 0.0 1.0 1.0 0.0 0.0
1.0 1.0 1.0 0.0 1.0 0.0 0.0 0.0
1.0 1.0 0.0 0.0 1.0 1.0 1.0 0.0
1.0 0.0 0.0 0.0 1.0 1.0 0.0 0.0
1.0 1.0 1.0 0.0 1.0 0.0 0.0 0.0
1.0 1.0 0.0 0.0 1.0 1.0 1.0 0.0
1.0 0.0 0.0 0.0 1.0 1.0 0.0 0.0
1.0 1.0 1.0 0.0 1.0 0.0 0.0 0.0
1.0 1.0 0.0 0.0 1.0 1.0 1.0 0.0
1.0 0.0 0.0 0.0 1.0 1.0 0.0 0.0

_transform._transforms.1.autoregressive_net.blocks.0.linear_layers.0.weight f4 [32, 32]
00000000: e76d 28be 1341 0e3e b87f 0b3b d8fc 96bd
00000010: 2da0 f5bb 20fd 343d 2142 1fbe 47dc 01be
00000020: 2759 193d f8a2 fb3d fab7 19be 4adf 073b
00000030: 8175 a93b 8c34 0b3d bbfa 0b3e 93ba bfbd
00000040: 71b0 f33d 36fe f5bd 1dfa c4bd b95d 7b3c
00000050: 3c47 10bd b39a 123e 82dc 67bd afd3 883c
00000060: f8fc 5f3d a260 ef3d 9ac5 ccbd 3077 a6bd
00000070: 199b f03d c164 ed3d 3879 d7bd ba08 abbd
00000080: 11ab 7ebd 493e 1e3e d0f3 1cbe 2b86 0ebe
00000090: 3112 a13d 6b18 0d3e e472 ee3c 4b47 f7bd
000000a0: ad46 f43d ba27 57bc f4fa 753c 0bd5 2fbe
000000b0: 96ee 233e eeee 4fbd 030f cf3d 3479 00be
000000c0: d90c c6bd 2b06 e73d 1f8f 8f3d 6366 b7bd
000000d0: 0749 2abe 4f25 55bd ca0a 14be 9fd7 203e
000000e0: 8817 043e a2bd 10bc 374f 94bc ea56 e4bd
000000f0: 5396 96bd beac 59bd 92b4 9b3d 496d c7bd
00000100: 23f6 2d3e cac6 7e3e 73bc d53d 5ec6 c33e
00000110: 9c95 3d3f 0bbb a93e d7a4 143f 636d d6c0
00000120: a9f1 39be a41f 5ebe e148 3dc1 7620 8abe
00000130: d5f4 b53e 21d6 ef3d 2578 c33e b761 70be
00000140: db1b 163f db92 8d3f cf81 2b3e 481e 953d
00000150: 0e65 dbbf 6589 febd 8460 99bf 92b6 763e
00000160: 4923 f2bb 64ab 2bbe 223f 913e 5321 aabf
00000170: 8ee5 78bf 8cf3 8fbe a702 e93d 85e4 93bd
00000180: 5b26 01be 543d 983d 71cd f7bd b1a3 f53c
00000190: 0f50 f03d 395e 26be 351f 403c 3c96 bebd
000001a0: ffeb ecbd ccac dc3d ceff 2f3e 3009 3ebd
000001b0: 56d3 0c3c 48dd e93d de4a 9b3d 0918 3ebe
000001c0: 959a 2bbe 27f3 10bd 5ab0 5cbe 535b 31bb
000001d0: 6940 2dbe 176b 1dbe 2112 b1bd f156 163e
000001e0: 56f5 45be 8461 11be 0bc3 05be b138 29be
000001f0: eddf 583d 3be1 0a3e 81cf 00be 84c3 e93d
00000200: 7061 0e3d a121 15be d03c f4bd 1668 a93e
00000210: 88dc a9bf 36e5 b1bb 77cf 1abf 1497 ecbd
00000220: 604e 15be 0914 ae3e b859 143f 9e86 fcbd
00000230: 648f e4be f1c5 19bb 1fda 633c d6a3 963d
00000240: 01bc 813d b27b 53bd a2d1 be3e b27e 80bd
00000250: b2eb 2b3d 24a1 ab3d 063a df3d c922 e03d
00000260: a5ee 223b ab43 44bf 78c9 443b 5a02 2b3e
00000270: 9f68 e93d 070c 34be b567 bdbe 4d97 f6be
00000280: ce9e 4bbe 1499 0fbf b440 c13d 13a7 ca39
00000290: 6c60 f3bd b83c 653a 53a7 0dbe ff06 89bd
000002a0: a84b 67be d09f 0abe dc51 c63c d7a0 40bc
000002b0: abf1 02be 0e31 d13c 35db aebc a39a 19be
000002c0: fe1b 8dbe f901 9fbd dcce 20be 141e ddbd
000002d0: 3e96 d9bd 867c 21be 1164 bebd e564 7f3d
000002e0: f1c7 79be d5ff 9b3d 8313 09bf 4722 ab3e
000002f0: 2895 24bc 479d 3abe 5fbd c4be 44e5 57bd
00000300: b789 e63d 664b 803d 2202 bfbd 30b9 61be
00000310: 62f9 e8bd 7f81 f7bc cbd3 47be 7073 bdbc
00000320: c719 0dbe c511 013e 4f4a 293e 4101 94bc
00000330: a421 3abd cf86 263e 056c 193e 32c6 e43d
00000340: ada5 1c3e 7591 293e de34 8cbd c87d de3d
00000350: fa5a c13c 45e3 09bd 1dbd 01be 5650 03be
00000360: aab3 87be d822 2cbe d0eb 163e cdc2 e93d
00000370: b53b 01be b57d 11be c902 883d c8c0 cd3d
00000380: 28a6 aabd b04b 40be a117 ff3d 3a1b 0a3e
00000390: 691f a23e f40b a43c 8dcf 153e 5eab 923e
000003a0: 48bc b23d 9641 a73d d592 0e3f 79ca 923d
000003b0: 420d 9bbd 638c fcbc 65a2 eb3c e8f3 4e3e
000003c0: 7df8 88bf 61f6 15be 9760 ba3d 039d bebf
000003d0: 37c2 5e3c b5e4 7a3e 5944 e93f 9d00 f33d
000003e0: 97d0 953e c738 3bc0 26ea ec3d c6a7 20bf
000003f0: 2abe cabd 3e3c 083e f156 97be e081 84c0
-0.16448174 0.13892011 0.0021285843 -0.07372445 -0.007495901 0.04418671 -0.1555257 -0.12681685
0.037438538 0.12286943 -0.15011588 0.0020732456 0.0051714783 0.03398566 0.13669865 -0.09361758
0.11898888 -0.120113775 -0.09618018 0.015342169 -0.035224184 0.14316826 -0.056606777 0.016702501
0.05468461 0.11688353 -0.09998627 -0.08128202 0.117483325 0.11591483 -0.105211675 -0.08351274
-0.06217486 0.15453447 -0.15327382 -0.13918369 0.07864798 0.13778846 0.029107518 -0.12074145
0.11927543 -0.01313203 0.015013445 -0.17171113 0.16008982 -0.05076497 0.10110285 -0.12546235
-0.09670419 0.11280473 0.0700972 -0.089550756 -0.1662942 -0.052037533 -0.1445724 0.15707253
0.12899601 -0.0088342745 -0.018104179 -0.1114939 -0.07352891 -0.053143255 0.076028004 -0.09737641
0.16988425 0.2488052 0.104363345 0.3823728 0.7405641 0.33150515 0.58064026 -6.700853
-0.18158592 -0.21691757 -11.830293 -0.2697789 0.35538355 0.11710764 0.381776 -0.23474775
0.58636254 1.1060442 0.16748737 0.07281166 -1.7140214 -0.1242855 -1.1982579 0.24093083
-0.00738946 -0.16764599 0.2836848 -1.329142 -0.9722527 -0.281155 0.11377459 -0.07221321
-0.12612288 0.074335724 -0.12099732 0.02998528 0.1173402 -0.1624688 0.01172619 -0.09305999
-0.1156845 0.10775146 0.17187425 -0.04639548 0.008595308 0.11419159 0.07582639 -0.18563856
-0.16758187 -0.03538814 -0.21551648 -0.002706249 -0.16919102 -0.15372883 -0.08646036 0.14681603
-0.1933187 -0.14197356 -0.13062684 -0.16525532 0.052947927 0.13562481 -0.12579156 0.11414245
0.034760892 -0.1456361 -0.119256616 0.33087224 -1.3270426 -0.0054289354 -0.60472816 -0.11552253
-0.14580679 0.3399966 0.579494 -0.12330364 -0.44640648 -0.002346393 0.013906985 0.07355468
0.06334687 -0.051631637 0.37269312 -0.06274165 0.041972823 0.083803445 0.10899739 0.10944135
0.0024861482 -0.76665753 0.0030027311 0.16700116 0.11396908 -0.17582713 -0.36993185 -0.48162308
-0.19884798 -0.56092954 0.09436169 0.00038652922 -0.118836254 0.00087447045 -0.1383336 -0.066907875
-0.22587454 -0.13537526 0.024208955 -0.011757097 -0.12787502 0.025536086 -0.02134476 -0.15000395
-0.2756042 -0.07764048 -0.1570391 -0.107967526 -0.106243595 -0.15770158 -0.0929643 0.06235208
-0.24392678 0.076171555 -0.535454 0.3342459 -0.010045327 -0.18224059 -0.3842573 -0.05270888
0.11256736 0.06264381 -0.09326579 -0.220433 -0.11375691 -0.030213116 -0.19514386 -0.023126334
-0.13779365 0.12604435 0.16532253 -0.018067004 -0.04544224 0.16262363 0.14982612 0.11170615
0.15297575 0.16559394 -0.06846021 0.108638346 0.023602951 -0.033664007 -0.12669797 -0.12823614
-0.2650426 -0.16810167 0.14738393 0.114141084 -0.12620433 -0.1420811 0.06641156 0.10046536
-0.08332473 -0.18778872 0.12455679 0.13486949 0.3166459 0.020025231 0.14629956 0.28646368
0.08727318 0.081668064 0.556928 0.07167525 -0.07570888 -0.03082866 0.02876396 0.2021023
-1.0700833 -0.14644767 0.09100454 -1.4891666 0.013596109 0.24501307 1.8223983 0.11865351
0.29260704 -2.9253404 0.11568098 -0.62756 -0.09899552 0.1330423 -0.2955852 -4.140854

_transform._transforms.1.autoregressive_net.blocks.0.linear_layers.0.bias f4 [32]
00000000: dbf8 90bd 89c1 2abe f1f7 a3bd db7c efbc
00000010: 4de1 acbe 078a 8ebe f291 4abe a998 10bf
00000020: b017 0cbd f5ac e7bd 847b e3be 3717 083b
00000030: 6e6e 62bd fa90 ccbf ed9a 43bd 90cf b2bd
00000040: 28b5 1a3f a891 9b3e 9cbc 22bd 1a33 0a3f
00000050: 6938 53bf f8b2 75bd 8a86 97be e273 493d
00000060: cff5 48bd 2f12 6bbf d681 2b3f f604 56bd
00000070: 7fa0 09bd f011 143f 2f2a adbc eabc 5abf
-0.070787154 -0.1667539 -0.080062754 -0.02923434 -0.3376564 -0.27839682 -0.19782236 -0.5648294
-0.034202278 -0.11312286 -0.44430172 0.002076579 -0.055281095 -1.5981743 -0.04775517 -0.08730996
0.6043267 0.30384564 -0.039730653 0.53984225 -0.8250795 -0.05998513 -0.29594833 0.04918278
-0.049062546 -0.9182462 0.6699499 -0.052250825 -0.033600327 0.5783987 -0.021138279 -0.8544451

_transform._transforms.1.autoregressive_net.blocks.0.linear_layers.0.mask f4 [32, 32]
00000000: 0000 803f 0000 0000 0000 0000 0000 803f
00000010: 0000 0000 0000 0000 0000 803f 0000 0000
00000020: 0000 0000 0000 803f 0000 0000 0000 0000
00000030: 0000 803f 0000 0000 0000 0000 0000 803f
00000040: 0000 0000 0000 0000 0000 803f 0000 0000
00000050: 0000 0000 0000 803f 0000 0000 0000 0000
00000060: 0000 803f 0000 0000 0000 0000 0000 803f
00000070: 0000 0000 0000 0000 0000 803f 0000 0000
00000080: 0000 803f 0000 803f 0000 0000 0000 803f
00000090: 0000 803f 0000 0000 0000 803f 0000 803f
000000a0: 0000 0000 0000 803f 0000 803f 0000 0000
000000b0: 0000 803f 0000 803f 0000 0000 0000 803f
000000c0: 0000 803f 0000 0000 0000 803f 0000 803f
000000d0: 0000 0000 0000 803f 0000 803f 0000 0000
000000e0: 0000 803f 0000 803f 0000 0000 0000 803f
000000f0: 0000 803f 0000 0000 0000 803f 0000 803f
00000100: 0000 803f 0000 803f 0000 803f 0000 803f
00000110: 0000 803f 0000 803f 0000 803f 0000 803f
00000120: 0000 803f 0000 803f 0000 803f 0000 803f
00000130: 0000 803f 0000 803f 0000 803f 0000 803f
00000140: 0000 803f 0000 803f 0000 803f 0000 803f
00000150: 0000 803f 0000 803f 0000 803f 0000 803f
00000160: 0000 803f 0000 803f 0000 803f 0000 803f
00000170: 0000 803f 0000 803f 0000 803f 0000 803f
00000180: 0000 803f 0000 0000 0000 0000 0000 803f
00000190: 0000 0000 0000 0000 0000 803f 0000 0000
000001a0: 0000 0000 0000 803f 0000 0000 0000 0000
000001b0: 0000 803f 0000 0000 0000 0000 0000 803f
000001c0: 0000 0000 0000 0000 0000 803f 0000 0000
000001d0: 0000 0000 0000 803f 0000 0000 0000 0000
000001e0: 0000 803f 0000 0000 0000 0000 0000 803f
000001f0: 0000 0000 0000 0000 0000 803f 0000 0000
00000200: 0000 803f 0000 803f 0000 0000 0000 803f
00000210: 0000 803f 0000 0000 0000 803f 0000 803f
00000220: 0000 0000 0000 803f 0000 803f 0000 0000
00000230: 0000 803f 0000 803f 0000 0000 0000 803f
00000240: 0000 803f 0000 0000 0000 803f 0000 803f
00000250: 0000 0000 0000 803f 0000 803f 0000 0000
00000260: 0000 803f 0000 803f 0000 0000 0000 803f
00000270: 0000 803f 0000 0000 0000 803f 0000 803f
00000280: 0000 803f 0000 803f 0000 803f 0000 803f
00000290: 0000 803f 0000 803f 0000 803f 0000 803f
000002a0: 0000 803f 0000 803f 0000 803f 0000 803f
000002b0: 0000 803f 0000 803f 0000 803f 0000 803f
000002c0: 0000 803f 0000 803f 0000 803f 0000 803f
000002d0: 0000 803f 0000 803f 0000 803f 0000 803f
000002e0: 0000 803f 0000 803f 0000 803f 0000 803f
000002f0: 0000 803f 0000 803f 0000 803f 0000 803f
00000300: 0000 803f 0000 0000 0000 0000 0000 803f
00000310: 0000 0000 0000 0000 0000 803f 0000 0000
00000320: 0000 0000 0000 803f 0000 0000 0000 0000
00000330: 0000 803f 0000 0000 0000 0000 0000 803f
00000340: 0000 0000 0000 0000 0000 803f 0000 0000
00000350: 0000 0000 0000 803f 0000 0000 0000 0000
00000360: 0000 803f 0000 0000 0000 0000 0000 803f
00000370: 0000 0000 0000 0000 0000 803f 0000 0000
00000380: 0000 803f 0000 803f 0000 0000 0000 803f
00000390: 0000 803f 0000 0000 0000 803f 0000 803f
000003a0: 0000 0000 0000 803f 0000 803f 0000 0000
000003b0: 0000 803f 0000 803f 0000 0000 0000 803f
000003c0: 0000 803f 0000 0000 0000 803f 0000 803f
000003d0: 0000 0000 0000 803f 0000 803f 0000 0000
000003e0: 0000 803f 0000 803f 0000 0000 0000 803f
000003f0: 0000 803f 0000 0000 0000 803f 0000 803f
1.0 0.0 0.0 1.0 0.0 0.0 1.0 0.0
0.0 1.0 0.0 0.0 1.0 0.0 0.0 1.0
0.0 0.0 1.0 0.0 0.0 1.0 0.0 0.0
1.0 0.0 0.0 1.0 0.0 0.0 1.0 0.0
1.0 1.0 0.0 1.0 1.0 0.0 1.0 1.0
0.0 1.0 1.0 0.0 1.0 1.0 0.0 1.0
1.0 0.0 1.0 1.0 0.0 1.0 1.0 0.0
1.0 1.0 0.0 1.0 1.0 0.0 1.0 1.0
1.0 1.0 1.0 1.0 1.0 1.0 1.0 1.0
1.0 1.0 1.0 1.0 1.0 1.0 1.0 1.0
1.0 1.0 1.0 1.0 1.0 1.0 1.0 1.0
1.0 1.0 1.0 1.0 1.0 1.0 1.0 1.0
1.0 0.0 0.0 1.0 0.0 0.0 1.0 0.0
0.0 1.0 0.0 0.0 1.0 0.0 0.0 1.0
0.0 0.0 1.0 0.0 0.0 1.0 0.0 0.0
1.0 0.0 0.0 1.0 0.0 0.0 1.0 0.0
1.0 1.0 0.0 1.0 1.0 0.0 1.0 1.0
0.0 1.0 1.0 0.0 1.0 1.0 0.0 1.0
1.0 0.0 1.0 1.0 0.0 1.0 1.0 0.0
1.0 1.0 0.0 1.0 1.0 0.0 1.0 1.0
1.0 1.0 1.0 1.0 1.0 1.0 1.0 1.0
1.0 1.0 1.0 1.0 1.0 1.0 1.0 1.0
1.0 1.0 1.0 1.0 1.0 1.0 1.0 1.0
1.0 1.0 1.0 1.0 1.0 1.0 1.0 1.0
1.0 0.0 0.0 1.0 0.0 0.0 1.0 0.0
0.0 1.0 0.0 0.0 1.0 0.0 0.0 1.0
0.0 0.0 1.0 0.0 0.0 1.0 0.0 0.0
1.0 0.0 0.0 1.0 0.0 0.0 1.0 0.0
1.0 1.0 0.0 1.0 1.0 0.0 1.0 1.0
0.0 1.0 1.0 0.0 1.0 1.0 0.0 1.0
1.0 0.0 1.0 1.0 0.0 1.0 1.0 0.0
1.0 1.0 0.0 1.0 1.0 0.0 1.0 1.0

_transform._transforms.1.autoregressive_net.blocks.0.linear_layers.1.weight f4 [32, 32]
00000000: f31c d73d f60f 263a 0dfc 7b3a a427 703d
00000010: 0b47 343a 2808 53ba 2919 cdbb 7df4 353a
00000020: 8af1 4d3a 2aff 7b3a 4871 bf38 4d5f 7339
00000030: 3467 6c3d 01c8 ddb8 d3ba 2f3a bfb3 efb9
00000040: 5d33 efb9 3839 43b8 12ae 073d ffe0 5539
00000050: 6fd1 37ba 8142 673d e847 3d3a 7d05 1bba
00000060: 849d 1a3d 5968 78ba 1bf9 d839 7f34 273e
00000070: 0184 543a 0f7d 053a a080 4c3d a034 acb9
00000080: 99db 64bd 7709 143a 84f0 b938 c576 033d
00000090: 8f58 debe e81f 43ba 4452 26bc 162b 22bf
000000a0: 806e 33b9 6340 3f3a 511b d0bd f9ef ecb9
000000b0: ac98 0ebe 23a5 e5be eeb5 0eba 0924 d738
000000c0: b174 833f cbab d939 43e6 eabc f40f d7bf
000000d0: ee04 a038 a22a eb3b 18e1 bebf 4031 7cb9
000000e0: e66b 25bc f88c c63f ec06 65ba eaab 36bd
000000f0: 20eb 863e 983a 4439 8de2 233d 382c 403f
00000100: 17bc 06be 3608 8139 fb0c e9bd 4638 24be
00000110: 9d21 97be a766 c6bc 13b8 8cbd e3de debf
00000120: 2056 9dbd 1f17 d039 1066 7e3d 508a 68bd
00000130: 10b9 50bd 32aa 5d3e f914 1bbd 5969 0e39
00000140: 4884 fd3e 24ad c0be bdb9 98bd d830 5dbe
00000150: 4744 49bf b630 94bd 0c74 1b3f 33e1 a33e
00000160: 2e37 85bd 62a1 30be 0d62 d03e 53be 2cbd
00000170: 5f91 693f ea7c a63e 7ef3 cebd d128 acbf
00000180: 628d b53d f8af 4c39 5501 d7b9 a26c 293d
00000190: da05 79ba c727 c4b9 826e d33b 6706 0c38
000001a0: 730b 5a3a d6b9 4fba 1994 0cb9 6d87 6b38
000001b0: 8587 6d3d ad02 343a fce9 373a 619d 6fb9
000001c0: 1984 f3b6 8c0c 8238 00a4 673d 9e2b 5239
000001d0: 0fed 66b9 d8f2 0e3d f8c6 53ba aa53 1b3a
000001e0: 3b41 4d3d 241b 7d3a 9c38 e139 7d05 15bd
000001f0: b1c5 74ba cb5e 6aba a88e f33d 5951 18b9
00000200: df45 78bd 786a f3b9 d04f e039 2659 983b
00000210: 7a24 383f d42b f439 776f 7a3c 10d8 ccbe
00000220: d942 81ba de3e e3b9 27b2 31be 367e deb7
00000230: d1f3 fdbd 5581 d13e 9006 94b9 5b6a 1eba
00000240: ab01 c4bd 0550 beb9 58e6 b7bd 9120 4f3f
00000250: f9cf 6a3a acfe 1dbd e8aa 383f 28c8 6fba
00000260: 8c79 37bd 66f3 263f e090 59ba 1faa 9abd
00000270: a996 91bd 1b77 d3b8 7f99 04bd 6bb4 853f
00000280: 7f60 06be 7e1f 4f3a bd50 33bf a99c 2dbe
00000290: 6ef3 e8be 7b8a 453c a79f 3fbd d0d9 30bf
000002a0: 3750 54bd f46d efb8 0a78 5fbf e549 09bd
000002b0: 11cd 05bd ca6c 90bf 024c 21bd acc6 043a
000002c0: 8b86 bf3e 0c87 623e 7dd1 a1bd 5ad7 8fbe
000002d0: 0f86 44c0 ab9e a0bd 0189 293c ec98 273e
000002e0: d7e5 88bd c79c 15bf e7d2 13bc d8d5 1bbd
000002f0: f8f0 1a3f 0784 d4be c8fb b6bd 46f4 f7bf
00000300: 8d55 293e 7310 a438 015d 663a 64ea dc3b
00000310: ccc7 7c3a 8ce0 083a 76d8 d93d 09be 523a
00000320: ec36 443a 4e2a 05b9 bfa8 1eba 3c55 50ba
00000330: 913f 16bd 635e f439 0739 d039 9e85 a839
00000340: a0d2 d338 2104 a2b9 a744 053e a2d9 3839
00000350: 0ffb a6b9 c131 693d e4d3 4aba 73eb 77ba
00000360: e135 853d 194c f5b9 36d6 7639 57d4 cf3d
00000370: 98e2 4b39 29b9 2b3a 880c 7f3d a617 1cb9
00000380: 566e ef3d 0d14 9d39 f851 be39 65d8 e63d
00000390: c1f6 5c40 bff9 813a 360b 823d 99cd 7a3e
000003a0: c756 82ba 8480 a2b7 5892 82be 76d8 75ba
000003b0: 2c60 353e 69e7 0c40 55d4 78ba 77ad 50ba
000003c0: 8238 92be 6126 07ba 5c7e 053e 51ee cabe
000003d0: 34a3 67b9 e3e2 973d 9947 59bf 88a4 5b3a
000003e0: 2a8f d13d 21b0 ff3f 8480 1eb7 de8a 043e
000003f0: ed38 df3d 7c94 54b9 ecfd 503b 23da 70bf
0.105035685 0.0006334776 0.00096124486 0.058631554 0.00068770413 -0.00080502266 -0.006259103 0.00069410336
0.00078561215 0.00096129125 9.12869e-05 0.00023209788 0.05771561 -0.00010575355 0.0006703559 -0.00045719554
-0.000456239 -4.6544912e-05 0.03312499 0.0002039708 -0.0007012104 0.056459907 0.00072204927 -0.00059135986
0.037747875 -0.0009475998 0.00041384329 0.1632862 0.00081068283 0.00050921825 0.049927354 -0.00032845605
-0.055873487 0.00056471623 8.866287e-05 0.03209569 -0.4342694 -0.0007443414 -0.01015145 -0.63346994
-0.00017111935 0.0007295666 -0.1016146 -0.0004519222 -0.13925427 -0.44852552 -0.000544398 0.00010258711
1.0269986 0.0004151746 -0.02867425 -1.6801744 7.630313e-05 0.007176713 -1.4912443 -0.0002405094
-0.010096526 1.551177 -0.0008736688 -0.044597544 0.2635126 0.00018713844 0.040010978 0.7506747
-0.13157688 0.00024610915 -0.11379429 -0.16037092 -0.29517832 -0.02421887 -0.06871047 -1.741177
-0.07682443 0.00039690078 0.062109053 -0.05677253 -0.05095774 0.21646956 -0.037861798 0.0001358142
0.49514985 -0.37632096 -0.07457302 -0.21600664 -0.7861981 -0.072358534 0.6072395 0.3200775
-0.06504665 -0.17249063 0.40699807 -0.042173695 0.91237444 0.32517177 -0.10105036 -1.3449956
0.08864857 0.0001952051 -0.00041008988 0.041363366 -0.0009499468 -0.0003741367 0.0064523825 3.3384564e-05
0.0008317746 -0.0007924115 -0.00013406611 5.615449e-05 0.05799057 0.0006866854 0.00070157624 -0.00022851444
-7.2573425e-06 6.20122e-05 0.056552887 0.0002004341 -0.0002202282 0.034899563 -0.000807866 0.00059252477
0.050111037 0.00096552284 0.00042957522 -0.036382187 -0.00093373196 -0.0008940517 0.11892444 -0.00014526154
-0.06061351 -0.00046427897 0.00042784074 0.004649299 0.7193066 0.0004657196 0.015285364 -0.40008593
-0.0009861841 -0.00043343654 -0.17353116 -2.6523234e-05 -0.1240002 0.40918985 -0.0002823365 -0.000604307
-0.09570631 -0.00036299243 -0.089794815 0.8090907 0.0008957382 -0.038572952 0.7213578 -0.0009146952
-0.04479365 0.65215147 -0.0008299481 -0.07551979 -0.07108814 -0.00010083449 -0.032372948 1.0445684
-0.13122748 0.0007901116 -0.7004507 -0.16954292 -0.45498222 0.012056942 -0.046783116 -0.69082355
-0.05183431 -0.000114168884 -0.8729254 -0.033517737 -0.03266627 -1.12832 -0.039379127 0.0005065005
0.37407336 0.22121829 -0.07901285 -0.28093988 -3.0706823 -0.078427635 0.010347606 0.16366929
-0.066844635 -0.5844235 -0.009022451 -0.038045734 0.6052394 -0.4150698 -0.08934742 -1.9371421
0.16536541 7.823193e-05 0.00087876624 0.0067418087 0.0009642809 0.00052214484 0.1063699 0.00080391817
0.00074849906 -0.00012699628 -0.0006052367 -0.0007947271 -0.036681715 0.0004660963 0.0003971534 0.0003214301
0.00010100496 -0.00030902124 0.1301447 0.00017628682 -0.0003184904 0.056932215 -0.00077372626 -0.0009457387
0.06504417 -0.0004678674 0.00023540188 0.101479225 0.00019444001 0.00065507233 0.06226781 -0.00014886129
0.11690967 0.00029960313 0.00036300696 0.11271743 3.4525607 0.0009916349 0.063497946 0.24492492
-0.0009944075 -1.937175e-05 -0.25502276 -0.00093782635 0.17712468 2.2016242 -0.0009492089 -0.00079604186
-0.28558737 -0.000515556 0.13036484 -0.39634946 -0.00022090675 0.07416322 -0.84874874 0.0008378704
0.102323845 1.9975625 -9.447456e-06 0.12943599 0.108995296 -0.0002027321 0.003188963 -0.9408285

_transform._transforms.1.autoregressive_net.blocks.0.linear_layers.1.bias f4 [32]
00000000: 8071 003e 779f 983e a2f0 08bf 8bdf 7fbd
00000010: 551b 1bbf ff3d 5ebf 667a 4cbc 6ced 263f
00000020: 5a3b 48bf a686 bd3d 0578 0ebe 73d3 873e
00000030: 4e77 ee3b 2d40 ea3e eac7 cebb f4c8 df3d
00000040: e7e1 6dbe 8778 ad3d cd24 89bc 8811 b33e
00000050: feba 0c3e 3f48 123e e416 c4be d24a 743e
00000060: b0bc f7bc c0a6 e1bd f33b d2bf 4852 a13c
00000070: 0916 3dbe 7b07 1cbf 6582 553d 515d a93e
0.12543297 0.29809162 -0.53492177 -0.062469047 -0.6058858 -0.8681335 -0.012480354 0.6520603
-0.78215563 0.09254198 -0.13912971 0.2652851 0.007277406 0.45752087 -0.0063104527 0.10927001
-0.23230706 0.084702544 -0.01674118 0.34974313 0.13743207 0.14285372 -0.38298714 0.23856667
-0.03024134 -0.11018133 -1.6424545 0.019692555 -0.18465437 -0.60948914 0.052126307 0.33079007

_transform._transforms.1.autoregressive_net.blocks.0.linear_layers.1.mask f4 [32, 32]
00000000: 0000 803f 0000 0000 0000 0000 0000 803f
00000010: 0000 0000 0000 0000 0000 803f 0000 0000
00000020: 0000 0000 0000 803f 0000 0000 0000 0000
00000030: 0000 803f 0000 0000 0000 0000 0000 803f
00000040: 0000 0000 0000 0000 0000 803f 0000 0000
00000050: 0000 0000 0000 803f 0000 0000 0000 0000
00000060: 0000 803f 0000 0000 0000 0000 0000 803f
00000070: 0000 0000 0000 0000 0000 803f 0000 0000
00000080: 0000 803f 0000 803f 0000 0000 0000 803f
00000090: 0000 803f 0000 0000 0000 803f 0000 803f
000000a0: 0000 0000 0000 803f 0000 803f 0000 0000
000000b0: 0000 803f 0000 803f 0000 0000 0000 803f
000000c0: 0000 803f 0000 0000 0000 803f 0000 803f
000000d0: 0000 0000 0000 803f 0000 803f 0000 0000
000000e0: 0000 803f 0000 803f 0000 0000 0000 803f
000000f0: 0000 803f 0000 0000 0000 803f 0000 803f
00000100: 0000 803f 0000 803f 0000 803f 0000 803f
00000110: 0000 803f 0000 803f 0000 803f 0000 803f
00000120: 0000 803f 0000 803f 0000 803f 0000 803f
00000130: 0000 803f 0000 803f 0000 803f 0000 803f
00000140: 0000 803f 0000 803f 0000 803f 0000 803f
00000150: 0000 803f 0000 803f 0000 803f 0000 803f
00000160: 0000 803f 0000 803f 0000 803f 0000 803f
00000170: 0000 803f 0000 803f 0000 803f 0000 803f
00000180: 0000 803f 0000 0000 0000 0000 0000 803f
00000190: 0000 0000 0000 0000 0000 803f 0000 0000
000001a0: 0000 0000 0000 803f 0000 0000 0000 0000
000001b0: 0000 803f 0000 0000 0000 0000 0000 803f
000001c0: 0000 0000 0000 0000 0000 803f 0000 0000
000001d0: 0000 0000 0000 803f 0000 0000 0000 0000
000001e0: 0000 803f 0000 0000 0000 0000 0000 803f
000001f0: 0000 0000 0000 0000 0000 803f 0000 0000
00000200: 0000 803f 0000 803f 0000 0000 0000 803f
00000210: 0000 803f 0000 0000 0000 803f 0000 803f
00000220: 0000 0000 0000 803f 0000 803f 0000 0000
00000230: 0000 803f 0000 803f 0000 0000 0000 803f
00000240: 0000 803f 0000 0000 0000 803f 0000 803f
00000250: 0000 0000 0000 803f 0000 803f 0000 0000
00000260: 0000 803f 0000 803f 0000 0000 0000 803f
00000270: 0000 803f 0000 0000 0000 803f 0000 803f
00000280: 0000 803f 0000 803f 0000 803f 0000 803f
00000290: 0000 803f 0000 803f 0000 803f 0000 803f
000002a0: 0000 803f 0000 803f 0000 803f 0000 803f
000002b0: 0000 803f 0000 803f 0000 803f 0000 803f
000002c0: 0000 803f 0000 803f 0000 803f 0000 803f
000002d0: 0000 803f 0000 803f 0000 803f 0000 803f
000002e0: 0000 803f 0000 803f 0000 803f 0000 803f
000002f0: 0000 803f 0000 803f 0000 803f 0000 803f
00000300: 0000 803f 0000 0000 0000 0000 0000 803f
00000310: 0000 0000 0000 0000 0000 803f 0000 0000
00000320: 0000 0000 0000 803f 0000 0000 0000 0000
00000330: 0000 803f 0000 0000 0000 0000 0000 803f
00000340: 0000 0000 0000 0000 0000 803f 0000 0000
00000350: 0000 0000 0000 803f 0000 0000 0000 0000
00000360: 0000 803f 0000 0000 0000 0000 0000 803f
00000370: 0000 0000 0000 0000 0000 803f 0000 0000
00000380: 0000 803f 0000 803f 0000 0000 0000 803f
00000390: 0000 803f 0000 0000 0000 803f 0000 803f
000003a0: 0000 0000 0000 803f 0000 803f 0000 0000
000003b0: 0000 803f 0000 803f 0000 0000 0000 803f
000003c0: 0000 803f 0000 0000 0000 803f 0000 803f
000003d0: 0000 0000 0000 803f 0000 803f 0000 0000
000003e0: 0000 803f 0000 803f 0000 0000 0000 803f
000003f0: 0000 803f 0000 0000 0000 803f 0000 803f
1.0 0.0 0.0 1.0 0.0 0.0 1.0 0.0
0.0 1.0 0.0 0.0 1.0 0.0 0.0 1.0
0.0 0.0 1.0 0.0 0.0 1.0 0.0 0.0
1.0 0.0 0.0 1.0 0.0 0.0 1.0 0.0
1.0 1.0 0.0 1.0 1.0 0.0 1.0 1.0
0.0 1.0 1.0 0.0 1.0 1.0 0.0 1.0
1.0 0.0 1.0 1.0 0.0 1.0 1.0 0.0
1.0 1.0 0.0 1.0 1.0 0.0 1.0 1.0
1.0 1.0 1.0 1.0 1.0 1.0 1.0 1.0
1.0 1.0 1.0 1.0 1.0 1.0 1.0 1.0
1.0 1.0 1.0 1.0 1.0 1.0 1.0 1.0
1.0 1.0 1.0 1.0 1.0 1.0 1.0 1.0
1.0 0.0 0.0 1.0 0.0 0.0 1.0 0.0
0.0 1.0 0.0 0.0 1.0 0.0 0.0 1.0
0.0 0.0 1.0 0.0 0.0 1.0 0.0 0.0
1.0 0.0 0.0 1.0 0.0 0.0 1.0 0.0
1.0 1.0 0.0 1.0 1.0 0.0 1.0 1.0
0.0 1.0 1.0 0.0 1.0 1.0 0.0 1.0
1.0 0.0 1.0 1.0 0.0 1.0 1.0 0.0
1.0 1.0 0.0 1.0 1.0 0.0 1.0 1.0
1.0 1.0 1.0 1.0 1.0 1.0 1.0 1.0
1.0 1.0 1.0 1.0 1.0 1.0 1.0 1.0
1.0 1.0 1.0 1.0 1.0 1.0 1.0 1.0
1.0 1.0 1.0 1.0 1.0 1.0 1.0 1.0
1.0 0.0 0.0 1.0 0.0 0.0 1.0 0.0
0.0 1.0 0.0 0.0 1.0 0.0 0.0 1.0
0.0 0.0 1.0 0.0 0.0 1.0 0.0 0.0
1.0 0.0 0.0 1.0 0.0 0.0 1.0 0.0
1.0 1.0 0.0 1.0 1.0 0.0 1.0 1.0
0.0 1.0 1.0 0.0 1.0 1.0 0.0 1.0
1.0 0.0 1.0 1.0 0.0 1.0 1.0 0.0
1.0 1.0 0.0 1.0 1.0 0.0 1.0 1.0

_transform._transforms.1.autoregressive_net.blocks.1.linear_layers.0.weight f4 [32, 32]
00000000: d40a c33d 78f1 e9bb 909c 2e3e 2ea9 9abd
00000010: b22b 01be 7323 8ebc 65f4 d6bd 3db2 2cbe
00000020: ef77 e7bd 9d55 2dbe 644e 8d3d 47c0 61bd
00000030: c493 a83c c2ee 18bd 1364 023e 8959 7abe
00000040: a4d6 80bc 98e1 cb3d 3f9a 853d ac54 e03d
00000050: b24d 1b3d 193d a23b 36f0 a1bc 235c dc3d
00000060: dcdc f0bd cc40 303e efb4 e7bc 1aa6 5ebe
00000070: 3391 85bd af5d d43c cd0c e53d b274 28be
00000080: 22ab b9bd 2abd 88bd ee94 02be d7d1 5d3d
00000090: 65b5 db3b 3e3e 813d 093b 3ebe f858 763d
000000a0: e339 58bd 84de 53bd 68c5 4ebe 59dd ce3a
000000b0: 2b41 8cbd 571f 153c 8bcf 15be e585 d13d
000000c0: 02c6 a0bd 65a1 98bc 9b67 e0bd e5c2 97bd
000000d0: 535c 04be ab18 bc3d 1fc2 003e 53d8 0cbd
000000e0: 41b5 34be 58e1 2c3e 3723 08be b2ec 02be
000000f0: 7e5f ca3b c77e de3c 09f2 ce3d 3256 1ebe
00000100: 4e22 cf3d 8937 c6bd 3629 7cbd bec3 453d
00000110: 8773 903c 8956 003e 4dc7 cabc 5c3e 22be
00000120: 13fd 30be ce3c a6bd 7ded a93d ecd3 c8bd
00000130: a3a5 3e3e 0b42 a3bd a77b 60be 42e8 a4bd
00000140: 1368 b1bc 6916 1c3c 870d 91be 86ce 193d
00000150: 7e07 01be a6c3 7cbc e1a5 9ebd cfdf 32be
00000160: ebad 2ebe 28ea ebbd d93a 763d d979 c6bd
00000170: 583a 90bd 092c 80be 07ce 06be f4d5 8ebc
00000180: 6b05 58bd c5c1 b13d 7a48 bebd c1f1 40be
00000190: 5039 0ebe 189d 8e3d 7e12 91bd ac1a e93d
000001a0: d2ff d23d 769b 4cbd cef0 bf3c cc4d 0a3e
000001b0: e3fc 2bbd 10e5 d83d 7fa4 3cbd aae9 2cbb
000001c0: 9bb2 0c3e 5110 14be 0819 27be c801 3b3d
000001d0: 9512 dbbb 6afc 3fbd e610 4bbd ab6c da3d
000001e0: 9716 e4bd dcd3 173e c9ab 07be a24e 0cbe
000001f0: df51 ebbc 0e51 d23b 30ae 7bbe e323 e7bd
00000200: e1c3 08bf 7a39 b33e 5b21 723d eb00 d1bc
00000210: fe4f 58bf 1dc5 6abd 7887 21bf f9cb 003f
00000220: 9f28 21be 4f17 40bf 031a 18be 201c 173e
00000230: bb76 9a3d 0e2c 583f 7908 c63d 0299 4f3e
00000240: edb3 24bf 90bc 963d 0001 65be 32f1 e23e
00000250: d255 10be b0cc 063d 1066 363f e093 29be
00000260: f1cf 44bf 573c 4dbd 4631 ec3c 5fc1 32be
00000270: e21d 063f 14e5 f0bd cf1a 06bf e6ac 53be
00000280: a860 313e 610a 25c0 70a6 c9be 8816 aabd
00000290: 8168 2740 6581 ebbe 89f8 953e 8ef2 563f
000002a0: 80e6 5a3f 2a2d f3bb 5388 bfbe d92c 103f
000002b0: 9bdf 9dbd f703 663f f1a4 423e b3e9 213f
000002c0: 49fc c13e cfa9 ddbe 306d 77bd 2da7 9abd
000002d0: 1381 05bf 0246 cc3c 78ac 263f 76d2 97be
000002e0: e44b fcbe bf58 a83d 5c8c c7bf c3f7 9b3f
000002f0: 29a3 303e a3cd 89bf 32b7 49b7 c810 1abf
00000300: f79f a1be 14de edbd 8548 adbb 047a 80be
00000310: eed9 27be 898a 2f3d e523 a2be 0329 31bd
00000320: 4cd1 08bd 2dbe 69be 2aab d9bd f0ea 933c
00000330: 3eae c9bc 4723 0ebe 7c1b 033e d7d4 0cbe
00000340: ad49 0ebd 7eb7 343e 86e9 03be d923 013d
00000350: e775 213d 4a01 bcbe 7c69 323e edec 02be
00000360: fdb8 83bd 377d e33d 1bb0 2f3e 650f 2b3e
00000370: d886 243e aa25 ca3d c6d5 ccbe 171e dc3d
00000380: e51a 19bd 9e41 643d 61b4 f4bd 04b4 1dbd
00000390: b605 55c0 527c 12be 9dec 27bd 7eb3 243e
000003a0: f2bc 7e3d 72c4 07bd dc05 b83f 3558 ab3d
000003b0: 8605 ce3e ba14 cebf dc15 f73d d13c 00be
000003c0: 0a84 4fbf 3ecc db3c d4f0 28bd 7486 d8be
000003d0: 3093 313e 733f b13c e512 62c0 805a 17be
000003e0: 4c8c 2c3f 29ae 8d3e c899 d5bd 444c 583e
000003f0: fdbb 6a3f 8fba edbc 7ca4 9e3e ed38 12bf
0.0952355 -0.007139381 0.17051911 -0.075518 -0.12614325 -0.017350888 -0.10495833 -0.16864868
-0.113021724 -0.1692719 0.068997175 -0.05511501 0.020578273 -0.037337072 0.12733488 -0.24448217
-0.015727349 0.09955138 0.06523561 0.1095365 0.037915893 0.004951131 -0.019767862 0.10759761
-0.117608756 0.17212218 -0.028284518 -0.2174305 -0.06521835 0.025923578 0.11184082 -0.16450766
-0.09065844 -0.06676705 -0.12752125 0.054155197 0.0067049735 0.063107 -0.18577208 0.06014344
-0.05278958 -0.05172588 -0.20192492 0.001578252 -0.06848367 0.00910171 -0.14629953 0.102306165
-0.07850267 -0.018631646 -0.10957261 -0.0741022 -0.12925844 0.091843925 0.12574051 -0.03438599
-0.17647268 0.16882837 -0.13294683 -0.12785605 0.0061759343 0.027160062 0.10104758 -0.15462568
0.10113965 -0.09678561 -0.06156274 0.048282377 0.017633213 0.1253301 -0.024753237 -0.158441
-0.1728404 -0.08117066 0.082972504 -0.09806046 0.18617873 -0.07971581 -0.2192217 -0.08052112
-0.021656072 0.009526827 -0.28330633 0.03755047 -0.12600514 -0.015427506 -0.07746483 -0.17468189
-0.17058532 -0.11519271 0.060114715 -0.09691209 -0.07042378 -0.25033596 -0.1316453 -0.017436005
-0.052739542 0.08679537 -0.092911676 -0.18842222 -0.1388905 0.06963557 -0.07083605 0.113820404
0.103027 -0.049952947 0.023430254 0.1350624 -0.04198922 0.10590565 -0.046055313 -0.0026384392
0.13740008 -0.14459349 -0.16318142 0.045655996 -0.0066855648 -0.04687158 -0.049576662 0.10665258
-0.11137121 0.14826912 -0.13249125 -0.13701871 -0.028725563 0.006418354 -0.24578166 -0.11286142
-0.5342389 0.3500479 0.05911384 -0.025513133 -0.8449706 -0.057316888 -0.63097334 0.5031124
-0.15738152 -0.75035566 -0.14853673 0.14756823 0.07542177 0.8444222 0.09669585 0.20273212
-0.64337045 0.07360184 -0.22363663 0.44324642 -0.14095238 0.03291005 0.71249485 -0.16560316
-0.76879793 -0.050106373 0.02883209 -0.17456578 0.5238935 -0.11762443 -0.52384657 -0.20671424
0.17322028 -2.5787585 -0.39384794 -0.08305079 2.6157534 -0.45997158 0.2929118 0.8396386
0.85507965 -0.0074211555 -0.37408695 0.5631843 -0.07708665 0.898498 0.19008233 0.6324722
0.3788779 -0.43293616 -0.060406864 -0.075514175 -0.52150077 0.024935726 0.65106916 -0.29652756
-0.4927665 0.08220052 -1.5589709 1.2184986 0.1724974 -1.076588 -1.2023187e-05 -0.60181856
-0.31567356 -0.11614624 -0.005288186 -0.2509309 -0.16391727 0.042856727 -0.3166801 -0.043252002
-0.033402726 -0.22826453 -0.1062835 0.018056363 -0.024619218 -0.13880645 0.12803453 -0.13753067
-0.03473823 0.17648122 -0.12882051 0.031528328 0.03941908 -0.36719733 0.17423052 -0.12785693
-0.06431768 0.11107867 0.17157023 0.16705091 0.16067064 0.09870465 -0.40006846 0.10747927
-0.037379164 0.05572664 -0.11948467 -0.038501754 -3.3284736 -0.14305237 -0.040997136 0.16084096
0.06219191 -0.03314633 1.4376788 0.083664335 0.4023859 -1.6100075 0.12064716 -0.125232
-0.8106085 0.026830789 -0.041245297 -0.4229008 0.17341304 0.0216367 -3.5324032 -0.14780617
0.67401576 0.27671936 -0.10429722 0.21122843 0.916931 -0.029019622 0.30984867 -0.5711811

_transform._transforms.1.autoregressive_net.blocks.1.linear_layers.0.bias f4 [32]
00000000: 6daa b7bd f3e1 6abe cbf2 61bd 52ee f5bb
00000010: 517a a3bf 2c7c 11be 168b 91bd 3404 14be
00000020: 993f d93d c713 16bd 18c0 eabd beef 32be
00000030: 2c9a 06be 3ea8 8bbf d032 98be eb4a e8bd
00000040: 8897 06be 933e 9bbf 6edb bebd 3a3c e0bd
00000050: fda1 d63f 8e9a 4fbd 7f78 27bc faf6 36be
00000060: 3978 17be 2836 43bf 5e70 abbd 4ab8 02be
00000070: 91a5 febe fb3a 463d d163 45bd cbf5 32bf
-0.08968053 -0.22937755 -0.055163186 -0.0075052166 -1.2771703 -0.14207524 -0.07106607 -0.14454728
0.106078334 -0.036639955 -0.1146242 -0.17474267 -0.1314475 -1.0910718 -0.29726267 -0.113424145
-0.13143742 -1.2128471 -0.09319197 -0.10948987 1.6768185 -0.050684504 -0.0102216 -0.17867652
-0.14791955 -0.7625451 -0.08371042 -0.12765613 -0.49735692 0.048396092 -0.048190895 -0.699063

_transform._transforms.1.autoregressive_net.blocks.1.linear_layers.0.mask f4 [32, 32]
00000000: 0000 803f 0000 0000 0000 0000 0000 803f
00000010: 0000 0000 0000 0000 0000 803f 0000 0000
00000020: 0000 0000 0000 803f 0000 0000 0000 0000
00000030: 0000 803f 0000 0000 0000 0000 0000 803f
00000040: 0000 0000 0000 0000 0000 803f 0000 0000
00000050: 0000 0000 0000 803f 0000 0000 0000 0000
00000060: 0000 803f 0000 0000 0000 0000 0000 803f
00000070: 0000 0000 0000 0000 0000 803f 0000 0000
00000080: 0000 803f 0000 803f 0000 0000 0000 803f
00000090: 0000 803f 0000 0000 0000 803f 0000 803f
000000a0: 0000 0000 0000 803f 0000 803f 0000 0000
000000b0: 0000 803f 0000 803f 0000 0000 0000 803f
000000c0: 0000 803f 0000 0000 0000 803f 0000 803f
000000d0: 0000 0000 0000 803f 0000 803f 0000 0000
000000e0: 0000 803f 0000 803f 0000 0000 0000 803f
000000f0: 0000 803f 0000 0000 0000 803f 0000 803f
00000100: 0000 803f 0000 803f 0000 803f 0000 803f
00000110: 0000 803f 0000 803f 0000 803f 0000 803f
00000120: 0000 803f 0000 803f 0000 803f 0000 803f
00000130: 0000 803f 0000 803f 0000 803f 0000 803f
00000140: 0000 803f 0000 803f 0000 803f 0000 803f
00000150: 0000 803f 0000 803f 0000 803f 0000 803f
00000160: 0000 803f 0000 803f 0000 803f 0000 803f
00000170: 0000 803f 0000 803f 0000 803f 0000 803f
00000180: 0000 803f 0000 0000 0000 0000 0000 803f
00000190: 0000 0000 0000 0000 0000 803f 0000 0000
000001a0: 0000 0000 0000 803f 0000 0000 0000 0000
000001b0: 0000 803f 0000 0000 0000 0000 0000 803f
000001c0: 0000 0000 0000 0000 0000 803f 0000 0000
000001d0: 0000 0000 0000 803f 0000 0000 0000 0000
000001e0: 0000 803f 0000 0000 0000 0000 0000 803f
000001f0: 0000 0000 0000 0000 0000 803f 0000 0000
00000200: 0000 803f 0000 803f 0000 0000 0000 803f
00000210: 0000 803f 0000 0000 0000 803f 0000 803f
00000220: 0000 0000 0000 803f 0000 803f 0000 0000
00000230: 0000 803f 0000 803f 0000 0000 0000 803f
00000240: 0000 803f 0000 0000 0000 803f 0000 803f
00000250: 0000 0000 0000 803f 0000 803f 0000 0000
00000260: 0000 803f 0000 803f 0000 0000 0000 803f
00000270: 0000 803f 0000 0000 0000 803f 0000 803f
00000280: 0000 803f 0000 803f 0000 803f 0000 803f
00000290: 0000 803f 0000 803f 0000 803f 0000 803f
000002a0: 0000 803f 0000 803f 0000 803f 0000 803f
000002b0: 0000 803f 0000 803f 0000 803f 0000 803f
000002c0: 0000 803f 0000 803f 0000 803f 0000 803f
000002d0: 0000 803f 0000 803f 0000 803f 0000 803f
000002e0: 0000 803f 0000 803f 0000 803f 0000 803f
000002f0: 0000 803f 0000 803f 0000 803f 0000 803f
00000300: 0000 803f 0000 0000 0000 0000 0000 803f
00000310: 0000 0000 0000 0000 0000 803f 0000 0000
00000320: 0000 0000 0000 803f 0000 0000 0000 0000
00000330: 0000 803f 0000 0000 0000 0000 0000 803f
00000340: 0000 0000 0000 0000 0000 803f 0000 0000
00000350: 0000 0000 0000 803f 0000 0000 0000 0000
00000360: 0000 803f 0000 0000 0000 0000 0000 803f
00000370: 0000 0000 0000 0000 0000 803f 0000 0000
00000380: 0000 803f 0000 803f 0000 0000 0000 803f
00000390: 0000 803f 0000 0000 0000 803f 0000 803f
000003a0: 0000 0000 0000 803f 0000 803f 0000 0000
000003b0: 0000 803f 0000 803f 0000 0000 0000 803f
000003c0: 0000 803f 0000 0000 0000 803f 0000 803f
000003d0: 0000 0000 0000 803f 0000 803f 0000 0000
000003e0: 0000 803f 0000 803f 0000 0000 0000 803f
000003f0: 0000 803f 0000 0000 0000 803f 0000 803f
1.0 0.0 0.0 1.0 0.0 0.0 1.0 0.0
0.0 1.0 0.0 0.0 1.0 0.0 0.0 1.0
0.0 0.0 1.0 0.0 0.0 1.0 0.0 0.0
1.0 0.0 0.0 1.0 0.0 0.0 1.0 0.0
1.0 1.0 0.0 1.0 1.0 0.0 1.0 1.0
0.0 1.0 1.0 0.0 1.0 1.0 0.0 1.0
1.0 0.0 1.0 1.0 0.0 1.0 1.0 0.0
1.0 1.0 0.0 1.0 1.0 0.0 1.0 1.0
1.0 1.0 1.0 1.0 1.0 1.0 1.0 1.0
1.0 1.0 1.0 1.0 1.0 1.0 1.0 1.0
1.0 1.0 1.0 1.0 1.0 1.0 1.0 1.0
1.0 1.0 1.0 1.0 1.0 1.0 1.0 1.0
1.0 0.0 0.0 1.0 0.0 0.0 1.0 0.0
0.0 1.0 0.0 0.0 1.0 0.0 0.0 1.0
0.0 0.0 1.0 0.0 0.0 1.0 0.0 0.0
1.0 0.0 0.0 1.0 0.0 0.0 1.0 0.0
1.0 1.0 0.0 1.0 1.0 0.0 1.0 1.0
0.0 1.0 1.0 0.0 1.0 1.0 0.0 1.0
1.0 0.0 1.0 1.0 0.0 1.0 1.0 0.0
1.0 1.0 0.0 1.0 1.0 0.0 1.0 1.0
1.0 1.0 1.0 1.0 1.0 1.0 1.0 1.0
1.0 1.0 1.0 1.0 1.0 1.0 1.0 1.0
1.0 1.0 1.0 1.0 1.0 1.0 1.0 1.0
1.0 1.0 1.0 1.0 1.0 1.0 1.0 1.0
1.0 0.0 0.0 1.0 0.0 0.0 1.0 0.0
0.0 1.0 0.0 0.0 1.0 0.0 0.0 1.0
0.0 0.0 1.0 0.0 0.0 1.0 0.0 0.0
1.0 0.0 0.0 1.0 0.0 0.0 1.0 0.0
1.0 1.0 0.0 1.0 1.0 0.0 1.0 1.0
0.0 1.0 1.0 0.0 1.0 1.0 0.0 1.0
1.0 0.0 1.0 1.0 0.0 1.0 1.0 0.0
1.0 1.0 0.0 1.0 1.0 0.0 1.0 1.0

_transform._transforms.1.autoregressive_net.blocks.1.linear_layers.1.weight f4 [32, 32]
00000000: f813 c03c 7da7 9739 65e1 4c3a b7f8 9e3d
00000010: 32a1 043a d0e1 f539 b1f4 583d 98a6 3bba
00000020: cf5f a3b9 ec21 bb3c a495 0b3a 38d1 c5b9
00000030: 2c19 823e 691b 333a f456 813a 9871 d93d
00000040: ec89 77ba f2b6 39b9 3819 8a3d 8606 11ba
00000050: d4b7 4cba c589 853d 3493 61ba c59c 2739
00000060: 99c0 1b3e a846 3439 c323 dab9 0bec 353d
00000070: ea47 5c3a aa1b a339 a1e5 ef3c 1f4f 493a
00000080: e41c 01bd bb73 3dbd 3898 29ba d4fe 62bd
00000090: cb90 58be 1918 3fb9 1036 4cbe 5138 903e
000000a0: fcb9 0d38 ec93 31bc e3a8 b43f deb6 7eba
000000b0: 082c d1be b4cf bcbf de52 48ba b4c2 57be
000000c0: e113 863f 00a0 80b7 6ad0 20bc 6b60 3e3f
000000d0: 900c 6cba e442 b5bd 2254 30be 7a49 f4b7
000000e0: 50ce 0bbf 3a0b 6dbd c3cf a8b9 e7d8 0cbd
000000f0: fdf9 3f3f 368e 90b8 5452 eb3c 9af0 96be
00000100: eb7c 58bd 5cca e7ba 41f2 04bd a646 68bd
00000110: 4d44 3abe 4711 8a3f ba9a aabd b431 913e
00000120: 0b55 0e3f 4171 44bc 8ddf 133f f986 17bd
00000130: 088f 7ebe 5651 733f bdc2 66be 4f4f 77be
00000140: aa2f f13e ba44 3fbe d939 b3bd 3217 e33e
00000150: f29b 603e af7b e5bd a8f3 82be 5bb1 f2bc
00000160: 357f 7ebb 1f4a c5be 7651 9ebd ce55 6cbd
00000170: 89ca 98bd c850 9e3e 3b12 c13b 2233 27bf
00000180: 1ba2 523d 48fe 7eba 3a5d 08ba 1340 af3d
00000190: 03cf eb39 a20e 0aba 294b 5abe af4f 0cb9
000001a0: 9c4c 42ba 00de 3a3d b117 08ba 5ddf c138
000001b0: 31d0 fd3d 6790 09ba 4039 3539 bb5b fcbd
000001c0: b3e9 27b9 5b49 28ba 63c7 c53d 5469 1a3a
000001d0: 440b cf36 492b f13d b187 263a 4cc5 c139
000001e0: 7c25 8abe 1775 683a 9682 31ba d518 843d
000001f0: 4ada c2b9 b705 6cba 4d02 79bc 30bd d7b9
00000200: 2f18 afbc 8ebe 92bc 6f54 47ba 9d5e 763a
00000210: c1f3 00be 38ed 50ba 6b22 8a3e ca3d b7be
00000220: a07c 1cba 7f03 163d cf3a 93be d8f7 f239
00000230: 1ab1 bdbd ee25 8fbf c183 13ba 8d41 0d3e
00000240: 24a0 603e c5d5 2dba 09fb b4bb 5f17 313f
00000250: f401 6ab9 a62f 67bc c2d3 203f 3c46 653a
00000260: 9634 433e 79f5 d3be 4234 b8b9 d24d 35bd
00000270: ae0a b53e 4fdf 5d3a 3b3a 27bc 4ee5 51bf
00000280: 1174 c4bc ae0a 4bbb 51dc c3bc 543f 36bd
00000290: e08e 73be fae7 2cbf cb00 b9bd b102 873d
000002a0: f3d9 3f3e dcb7 1cbc f6c9 4bbe d8d8 0ebd
000002b0: 92eb 81be ec1a 0e40 a69b 70bd 88fe 7abe
000002c0: fb76 033f 3296 8ebe 78a4 a5bd 0d11 6fbe
000002d0: 9efc e1be 9513 d5bd b731 2bbf 1ece 87bb
000002e0: 5006 7abb f064 30bf eb8e 4fbd f833 5ebd
000002f0: 6942 e2bd 988e 64bf cf0e bb3b aec1 91bf
00000300: 11a7 2c3d a04d 6dba 61d5 5538 b716 2e3d
00000310: b793 64b8 828d 41b9 6832 a33d a97f 6b3a
00000320: 59ab e039 f482 073e 070e 47ba 7d3a 213a
00000330: 774b e43d 5bf2 c739 b74d 8db9 c47c 783b
00000340: af19 de39 a269 dcb9 48fa 6e3d 4f52 f1b8
00000350: de64 13b8 58f4 ac3d b773 d6b8 b530 f038
00000360: ce1c 8abe bd0d 1b3a 880e d2b9 0b8c 7b3d
00000370: 9052 1539 d1ae 293a 3d21 373d 0dc6 3d39
00000380: 77c2 833d 1858 793d fde4 49ba 4ae9 d43d
00000390: f39e 63be 035b 4639 54d1 66be 6e13 953f
000003a0: 0b48 573a a66d 953c 972a e1bd 7bba 073a
000003b0: 2369 5cbe afc9 283f b3b1 ea39 8a47 30bd
000003c0: 96ba 17c0 8c08 5dba 8173 c53c 5a0f 1840
000003d0: accc 11ba 5d82 bc3d 5a6e 6c3f 534c e5b9
000003e0: 7ac9 6cbe fbe4 abbe 6699 823a 47ca 913d
000003f0: 7651 873c 1bc3 6b3a b869 633d 38aa fabf
0.023447022 0.00028925753 0.0007815569 0.07762282 0.00050594204 0.00046898285 0.05296773 -0.0007158308
-0.00031161166 0.022843324 0.00053247274 -0.00037730648 0.2540983 0.00068323925 0.0009867833 0.106173694
-0.0009442854 -0.00017711127 0.06743091 -0.0005532283 -0.0007809375 0.06520418 -0.0008605004 0.00015984762
0.15210189 0.00017192459 -0.00041606845 0.04441456 0.000840305 0.00031110394 0.0292843 0.00076793315
-0.031521693 -0.046252947 -0.0006469521 -0.055418804 -0.21148984 -0.00018224157 -0.19942498 0.28167966
3.379023e-05 -0.01083849 1.411404 -0.00097165804 -0.40853906 -1.4750886 -0.00076417427 -0.21070367
1.0474817 -1.5333295e-05 -0.009815315 0.7436587 -0.00090045575 -0.08850649 -0.17219594 -2.9121282e-05
-0.5461168 -0.057872035 -0.00032198252 -0.03438654 0.74990827 -6.892944e-05 0.02872578 -0.2948044
-0.052853506 -0.0017684209 -0.032457594 -0.056708 -0.18190117 1.0786523 -0.08330293 0.28358233
0.55598515 -0.011989892 0.57762986 -0.036993954 -0.2485925 0.95045984 -0.22535224 -0.24151348
0.47106677 -0.18678561 -0.08751268 0.44353634 0.21934488 -0.112052314 -0.2557652 -0.029625585
-0.0038833146 -0.38533112 -0.07730381 -0.057699017 -0.074605055 0.30921006 0.005892066 -0.653124
0.051424127 -0.0009727222 -0.000520188 0.08557143 0.0004497693 -0.00052664627 -0.21317734 -0.00013381125
-0.00074119284 0.045621872 -0.00051915186 9.244562e-05 0.12393225 -0.0005247653 0.00017282832 -0.12322184
-0.00016013421 -0.0006419622 0.096571706 0.0005890329 6.170392e-06 0.11775834 0.0006352617 0.00036958826
-0.26981723 0.00088675454 -0.0006771473 0.06450049 -0.00037165202 -0.0009003537 -0.015198302 -0.0004114895
-0.021373836 -0.01791313 -0.0007603829 0.0009398254 -0.12592985 -0.00079699187 0.26979384 -0.3578933
-0.00059694983 0.036624428 -0.28755805 0.00046342495 -0.09262295 -1.118345 -0.0005627238 0.13794537
0.21936089 -0.00066312804 -0.00552309 0.69176286 -0.00022316707 -0.014110481 0.62823117 0.00087461225
0.19063029 -0.41398218 -0.0003513415 -0.04426367 0.3535971 0.00084637565 -0.010206754 -0.81990516
-0.023981126 -0.0030981707 -0.023908766 -0.04449399 -0.23784971 -0.6754147 -0.09033354 0.0659231
0.18735485 -0.00956532 -0.1990126 -0.034874767 -0.25375038 2.2203932 -0.058742188 -0.24511158
0.51353425 -0.27848965 -0.080880105 -0.23346348 -0.44138044 -0.104041256 -0.66872734 -0.004144444
-0.0038150735 -0.6890402 -0.050673407 -0.05424878 -0.11047823 -0.8928008 0.0057085524 -1.1387231
0.042151514 -0.00090523995 5.0981882e-05 0.04250213 -5.4497006e-05 -0.0001845863 0.079685986 0.00089835614
0.00042852273 0.13233548 -0.0007593338 0.0006150378 0.11147206 0.00038136807 -0.00026951518 0.0037916163
0.00042362275 -0.00042040373 0.058344156 -0.00011507107 -3.514147e-05 0.08445042 -0.00010225869 0.00011453164
-0.269751 0.0005914828 -0.00040065148 0.061412852 0.00014240504 0.0006472888 0.044709433 0.00018098224
0.064335756 0.06087503 -0.00077016634 0.10396059 -0.22228603 0.00018916656 -0.2254079 1.1646554
0.00082123344 0.018240761 -0.109944515 0.0005177629 -0.21524481 0.65932745 0.00044764354 -0.043036975
-2.3707633 -0.00084317545 0.024102928 2.375937 -0.00055618095 0.09204552 0.92355883 -0.0004373515
-0.23123732 -0.33573136 0.0009963929 0.071186595 0.016518336 0.00089936116 0.055520743 -1.9583197

_transform._transforms.1.autoregressive_net.blocks.1.linear_layers.1.bias f4 [32]
00000000: bd37 2a3e d670 27be 3220 0abe 243e 7e3e
00000010: 773e 1c3f e859 0cbf a187 493e 1244 ba3d
00000020: c750 56be 5eda 403e 491b e83d b522 463f
00000030: c25d 4a3e 3d0f e53f b264 b33f b528 333e
00000040: e4f1 a43e d8c6 a83f 8f7c 5b3e e663 24be
00000050: 84e5 c3be 6d1b 3b3e 0119 093f a42b 7c3f
00000060: d678 513e 0266 e2bd 0d5b 383e 389c 4b3e
00000070: 2b1b c6be d071 77bf 213d 263e 56b3 2a3e
0.16622825 -0.16351637 -0.13488844 0.24828392 0.61032814 -0.54824686 0.19680645 0.09095015
-0.20929252 0.188333 0.11333329 0.7739671 0.19762328 1.7895275 1.4015105 0.17495997
0.32215798 1.3185682 0.21434234 -0.16053733 -0.38261044 0.18272181 0.5355378 0.9850409
0.20456252 -0.11054613 0.18003483 0.19883811 -0.38692603 -0.9665804 0.16234256 0.16669974
