model2_v1/epoch=125modello-N_iter4-N_features32-N_BS32-epochs250-lr0.001-val_loss1000.pth (torch, 206026 bytes, 72 tensors)

_transform._transforms.1.autoregressive_net.initial_layer.weight f4 [32, 4]
0	0xbc86dd78	-0.016463026
1	0xbe8cb754	-0.27483618
2	0xbe4e5de8	-0.2015301
3	0x3efc43ac	0.4927038
4	0xbc6776f4	-0.014127482
5	0xbdad16d0	-0.08451617
6	0x3e860a86	0.26179904
7	0xbe0fc720	-0.14040804
8	0xbc8f764d	-0.017512465
9	0xbeee49c5	-0.46540657
10	0x3fc72339	1.5557624
11	0x3ce36840	0.027759671
12	0x3c645baa	0.01393787
13	0xbec8212a	-0.39087802
14	0xbdcd2858	-0.100174606
15	0x3e6f8f44	0.23394495
16	0x3e27927c	0.16364473
17	0xbce7162d	-0.028208816
18	0xbec387ae	-0.38189453
19	0xbef52544	-0.47879994
20	0xbc8620f1	-0.01637313
21	0x3f5f9a5c	0.8734491
22	0x4017cd6b	2.3719127
23	0xbefe1764	-0.4962722
24	0x3c4787b9	0.012178355
25	0x3e47e458	0.195207
26	0xbe35d93c	-0.1775865
27	0xbe7ec354	-0.248792
28	0x3c1489fa	0.009066099
29	0xbf8940a4	-1.0722852
30	0x3ea65d94	0.3249327
31	0x3e4630c8	0.19354546
32	0x3d2399d0	0.03994161
33	0xbf107022	-0.564211
34	0x404e1e1a	3.2205873
35	0xbe09d25c	-0.13459152
36	0xbc511f42	-0.0127638
37	0x3e6adfe4	0.2293697
38	0x3ee9197a	0.4552725
39	0xbe3bd144	-0.18341547
40	0x3bbe6626	0.005810517
41	0x3f3b8226	0.73245466
42	0xbcaa6600	-0.02080059
43	0xbe3f2348	-0.18665802
44	0x3c1e61d8	0.009666882
45	0xbd138326	-0.036013745
46	0xbfe84079	-1.8144675
47	0x3c59df00	0.013297796
48	0x3c676696	0.0141235795
49	0xbdab44b8	-0.083627164
50	0xbedda3b2	-0.43288952
51	0x3edeaa08	0.434891
52	0x3d857fd2	0.065185204
53	0xbf2b592e	-0.6693295
54	0xbeaaf796	-0.33392018
55	0xbd916d38	-0.0710091
56	0xbc54ebe7	-0.012995697
57	0xbee0ce02	-0.4390717
58	0xbfdb67f1	-1.7141095
59	0x3de99580	0.11405468
60	0x3b09bc95	0.0021016945
61	0xbefdd298	-0.49574733
62	0xbea3474e	-0.3189034
63	0x3e71c9b4	0.236121
64	0x3c93e089	0.018051403
65	0xbc919254	-0.01776997
66	0xbe1fdb24	-0.1561094
67	0xbad50c00	-0.0016254187
68	0x3c845d2e	0.016157713
69	0x3f23bd20	0.63960457
70	0x3e8b16b3	0.27165756
71	0x3ecff5d6	0.40617245
72	0x3c66166d	0.014043433
73	0x3ef6775e	0.48137945
74	0x3eca53a0	0.39516926
75	0x3c342940	0.010996163
76	0xbc31ce83	-0.010852459
77	0xbf044065	-0.5166076
78	0xbe055aa4	-0.13022858
79	0x3ee24c9c	0.44199073
80	0x3dd39bf1	0.10332478
81	0x3e3df9d5	0.18552335
82	0xbd1ca1af	-0.03824013
83	0xbec4e872	-0.38458592
84	0x3c401da5	0.011725818
85	0x3cd84ba0	0.026403248
86	0x3eda7870	0.42670012
87	0xbe0cfa14	-0.13767272
88	0x3ba7d38f	0.0051216553
89	0x3f8f9b5d	1.1219288
90	0x3e5e36a4	0.21700531
91	0xbdc2f220	-0.09518838
92	0xbca12040	-0.019668698
93	0xbf45e359	-0.7730003
94	0x403267c1	2.7875826
95	0xbee26816	-0.44220036
96	0xbabedf34	-0.0014562369
97	0x3eedb6da	0.46428567
98	0x3ecaa0a8	0.39575696
99	0x3e064bac	0.13114804
100	0xbb9664f7	-0.0045896727
101	0x3fa225d9	1.26678
102	0xbee4566c	-0.44597185
103	0x3eda7c1e	0.4267282
104	0x3cd42466	0.025896262
105	0xbf8dccf2	-1.1078169
106	0x3e40c259	0.18824138
107	0x3e921f0c	0.28539312
108	0x3bde24c9	0.0067792875
109	0x3ea3cafe	0.31990808
110	0x3ce97980	0.028500319
111	0x3ee35876	0.44403428
112	0xbad82843	-0.0016491491
113	0xbf8d16db	-1.10226
114	0xbde73d40	-0.112909794
115	0x3ea234e4	0.31680977
116	0xbc033da1	-0.008010299
117	0x3def09ab	0.11671766
118	0xc03aa3aa	-2.9162393
119	0x3edaf1e8	0.42762685
120	0xbb9f6943	-0.004864843
121	0xbe844656	-0.25834912
122	0xbd6b8a00	-0.057504654
123	0x3eac8ce6	0.33701247
124	0x394321c9	0.00018609235
125	0xbf5152fa	-0.8176724
126	0xbd651db0	-0.055936515
127	0xbe73c3a0	-0.23805094

_transform._transforms.1.autoregressive_net.initial_layer.bias f4 [32]
0	0xbe927d28	-0.28611112
1	0xbe6bb233	-0.23017196
2	0xbda693e0	-0.08133674
3	0xbe45e42e	-0.19325325
4	0xbe516313	-0.2044795
5	0xbed1cc71	-0.4097629
6	0xbe38fca1	-0.1806512
7	0xbf6b09d2	-0.9181186
8	0xbf8b5b4a	-1.0887234
9	0xbe8d653d	-0.276163
10	0x3ef20d8e	0.47275966
11	0xbeeb55ac	-0.459638
12	0xbe532eb6	-0.20623288
13	0xbff1193c	-1.8835826
14	0xbe715399	-0.23567046
15	0xbe912943	-0.28351793
16	0xbeaa3947	-0.33246824
17	0xbfb9c791	-1.4514028
18	0xbe49ea23	-0.19718222
19	0xbf957b2e	-1.1678216
20	0xbf1333e9	-0.57501084
21	0xbea62b0c	-0.32454717
22	0xbec5a779	-0.38604334
23	0x3fac3caf	1.3456019
24	0xbe3a508d	-0.1819479
25	0xbf54d53c	-0.8313787
26	0x3f929e25	1.1454512
27	0xbe5b1065	-0.21392973
28	0xbf33ee26	-0.7028526
29	0xbfcecf2a	-1.6156971
30	0xbe507f32	-0.20361021
31	0xbfc79083	-1.5590976

_transform._transforms.1.autoregressive_net.initial_layer.mask f4 [32, 4]
0	0x3f800000	1.0
1	0x00000000	0.0
2	0x00000000	0.0
3	0x00000000	0.0
4	0x3f800000	1.0
5	0x3f800000	1.0
6	0x00000000	0.0
7	0x00000000	0.0
8	0x3f800000	1.0
9	0x3f800000	1.0
10	0x3f800000	1.0
11	0x00000000	0.0
12	0x3f800000	1.0
13	0x00000000	0.0
14	0x00000000	0.0
15	0x00000000	0.0
16	0x3f800000	1.0
17	0x3f800000	1.0
18	0x00000000	0.0
19	0x00000000	0.0
20	0x3f800000	1.0
21	0x3f800000	1.0
22	0x3f800000	1.0
23	0x00000000	0.0
24	0x3f800000	1.0
25	0x00000000	0.0
26	0x00000000	0.0
27	0x00000000	0.0
28	0x3f800000	1.0
29	0x3f800000	1.0
30	0x00000000	0.0
31	0x00000000	0.0
32	0x3f800000	1.0
33	0x3f800000	1.0
34	0x3f800000	1.0
35	0x00000000	0.0
36	0x3f800000	1.0
37	0x00000000	0.0
38	0x00000000	0.0
39	0x00000000	0.0
40	0x3f800000	1.0
41	0x3f800000	1.0
42	0x00000000	0.0
43	0x00000000	0.0
44	0x3f800000	1.0
45	0x3f800000	1.0
46	0x3f800000	1.0
47	0x00000000	0.0
48	0x3f800000	1.0
49	0x00000000	0.0
50	0x00000000	0.0
51	0x00000000	0.0
52	0x3f800000	1.0
53	0x3f800000	1.0
54	0x00000000	0.0
55	0x00000000	0.0
56	0x3f800000	1.0
57	0x3f800000	1.0
58	0x3f800000	1.0
59	0x00000000	0.0
60	0x3f800000	1.0
61	0x00000000	0.0
62	0x00000000	0.0
63	0x00000000	0.0
64	0x3f800000	1.0
65	0x3f800000	1.0
66	0x00000000	0.0
67	0x00000000	0.0
68	0x3f800000	1.0
69	0x3f800000	1.0
70	0x3f800000	1.0
71	0x00000000	0.0
72	0x3f800000	1.0
73	0x00000000	0.0
74	0x00000000	0.0
75	0x00000000	0.0
76	0x3f800000	1.0
77	0x3f800000	1.0
78	0x00000000	0.0
79	0x00000000	0.0
80	0x3f800000	1.0
81	0x3f800000	1.0
82	0x3f800000	1.0
83	0x00000000	0.0
84	0x3f800000	1.0
85	0x00000000	0.0
86	0x00000000	0.0
87	0x00000000	0.0
88	0x3f800000	1.0
89	0x3f800000	1.0
90	0x00000000	0.0
91	0x00000000	0.0
92	0x3f800000	1.0
93	0x3f800000	1.0
94	0x3f800000	1.0
95	0x00000000	0.0
96	0x3f800000	1.0
97	0x00000000	0.0
98	0x00000000	0.0
99	0x00000000	0.0
100	0x3f800000	1.0
101	0x3f800000	1.0
102	0x00000000	0.0
103	0x00000000	0.0
104	0x3f800000	1.0
105	0x3f800000	1.0
106	0x3f800000	1.0
107	0x00000000	0.0
108	0x3f800000	1.0
109	0x00000000	0.0
110	0x00000000	0.0
111	0x00000000	0.0
112	0x3f800000	1.0
113	0x3f800000	1.0
114	0x00000000	0.0
115	0x00000000	0.0
116	0x3f800000	1.0
117	0x3f800000	1.0
118	0x3f800000	1.0
119	0x00000000	0.0
120	0x3f800000	1.0
121	0x00000000	0.0
122	0x00000000	0.0
123	0x00000000	0.0
124	0x3f800000	1.0
125	0x3f800000	1.0
126	0x00000000	0.0
127	0x00000000	0.0

_transform._transforms.1.autoregressive_net.blocks.0.linear_layers.0.weight f4 [32, 32]
0	0xbe286de7	-0.16448174
1	0x3e0e4113	0.13892011
2	0x3b0b7fb8	0.0021285843
3	0xbd96fcd8	-0.07372445
4	0xbbf5a02d	-0.007495901
5	0x3d34fd20	0.04418671
6	0xbe1f4221	-0.1555257
7	0xbe01dc47	-0.12681685
8	0x3d195927	0.037438538
9	0x3dfba2f8	0.12286943
10	0xbe19b7fa	-0.15011588
11	0x3b07df4a	0.0020732456
12	0x3ba97581	0.0051714783
13	0x3d0b348c	0.03398566
14	0x3e0bfabb	0.13669865
15	0xbdbfba93	-0.09361758
16	0x3df3b071	0.11898888
17	0xbdf5fe36	-0.120113775
18	0xbdc4fa1d	-0.09618018
19	0x3c7b5db9	0.015342169
20	0xbd10473c	-0.035224184
21	0x3e129ab3	0.14316826
22	0xbd67dc82	-0.056606777
23	0x3c88d3af	0.016702501
24	0x3d5ffcf8	0.05468461
25	0x3def60a2	0.11688353
26	0xbdccc59a	-0.09998627
27	0xbda67730	-0.08128202
28	0x3df09b19	0.117483325
29	0x3ded64c1	0.11591483
30	0xbdd77938	-0.105211675
31	0xbdab08ba	-0.08351274
32	0xbd7eab11	-0.06217486
33	0x3e1e3e49	0.15453447
34	0xbe1cf3d0	-0.15327382
35	0xbe0e862b	-0.13918369
36	0x3da11231	0.07864798
37	0x3e0d186b	0.13778846
38	0x3cee72e4	0.029107518
39	0xbdf7474b	-0.12074145
40	0x3df446ad	0.11927543
41	0xbc5727ba	-0.01313203
42	0x3c75faf4	0.015013445
43	0xbe2fd50b	-0.17171113
44	0x3e23ee96	0.16008982
45	0xbd4feeee	-0.05076497
46	0x3dcf0f03	0.10110285
47	0xbe007934	-0.12546235
48	0xbdc60cd9	-0.09670419
49	0x3de7062b	0.11280473
50	0x3d8f8f1f	0.0700972
51	0xbdb76663	-0.089550756
52	0xbe2a4907	-0.1662942
53	0xbd55254f	-0.052037533
54	0xbe140aca	-0.1445724
55	0x3e20d79f	0.15707253
56	0x3e041788	0.12899601
57	0xbc10bda2	-0.0088342745
58	0xbc944f37	-0.018104179
59	0xbde456ea	-0.1114939
60	0xbd969653	-0.07352891
61	0xbd59acbe	-0.053143255
62	0x3d9bb492	0.076028004
63	0xbdc76d49	-0.09737641
64	0x3e2df623	0.16988425
65	0x3e85a537	0.2610261
66	0x3d8902dc	0.066899985
67	0x3ed40931	0.41413262
68	0x3f2f69c3	0.68520755
69	0x3df287b1	0.11842287
70	0x3f10ec88	0.5661092
71	0xc0d0a98c	-6.5206966
72	0xbe198286	-0.14991197
73	0xbe5e1fa4	-0.21691757
74	0xc11f7489	-9.965951
75	0xbe365473	-0.17805652
76	0x3eb5f4d5	0.35538355
77	0x3defd621	0.11710764
78	0x3e5ae23d	0.21375366
79	0xbe7061b7	-0.23474775
80	0x3f197895	0.5994962
81	0xbfa6e61c	-1.3038974
82	0x3e2b81cf	0.16748737
83	0x3d951e48	0.07281166
84	0xbf614842	-0.8800088
85	0xbdfe8965	-0.1242855
86	0xbf9a4d0e	-1.2054765
87	0x3e76d42f	0.24104379
88	0xbc2b0408	-0.010437973
89	0xbe2bab64	-0.16764599
90	0x3e9f1335	0.3106934
91	0xbfaa2153	-1.329142
92	0xbf4caeb6	-0.7995409
93	0xbe4b3f41	-0.19848348
94	0x3de902a7	0.11377459
95	0xbd93e485	-0.07221321
96	0xbe01265b	-0.12612288
97	0x3d983d54	0.074335724
98	0xbdf7cd71	-0.12099732
99	0x3cf5a3b1	0.02998528
100	0x3df0500f	0.1173402
101	0xbe265e39	-0.1624688
102	0x3c401f35	0.01172619
103	0xbdbe963c	-0.09305999
104	0xbdecebff	-0.1156845
105	0x3ddcaccc	0.10775146
106	0x3e2fffce	0.17187425
107	0xbd3e0930	-0.04639548
108	0x3c0cd356	0.008595308
109	0x3de9dd48	0.11419159
110	0x3d9b4ade	0.07582639
111	0xbe3e1809	-0.18563856
112	0xbe2b9a95	-0.16758187
113	0xbd10f327	-0.03538814
114	0xbe5cb05a	-0.21551648
115	0xbb315b53	-0.002706249
116	0xbe2d4069	-0.16919102
117	0xbe1d6b17	-0.15372883
118	0xbdb11221	-0.08646036
119	0x3e1656f1	0.14681603
120	0xbe45f556	-0.1933187
121	0xbe116184	-0.14197356
122	0xbe05c30b	-0.13062684
123	0xbe2938b1	-0.16525532
124	0x3d58dfed	0.052947927
125	0x3e0ae13b	0.13562481
126	0xbe00cf81	-0.12579156
127	0x3de9c384	0.11414245
128	0x3d0e6170	0.034760892
129	0xbe1521a1	-0.1456361
130	0xbdf43cd0	-0.119256616
131	0x3ea96816	0.33087224
132	0xbf9595a2	-1.1686289
133	0xbbb1e536	-0.0054289354
134	0xbf1acf77	-0.60472816
135	0xbdec9714	-0.11552253
136	0xbe154e60	-0.14580679
137	0x3eae1409	0.3399966
138	0x3ecf3b6c	0.40475023
139	0xbdfc869e	-0.12330364
140	0xbee48f64	-0.44640648
141	0xbb19c5f1	-0.002346393
142	0x3c63da1f	0.013906985
143	0x3d96a3d6	0.07355468
144	0x3db7dce5	0.08977679
145	0xbd537bb2	-0.051631637
146	0x3ebed1a2	0.37269312
147	0xbd807eb2	-0.06274165
148	0x3d2bebb2	0.041972823
149	0x3daba124	0.083803445
150	0x3e6f1a5d	0.233499
151	0x3de022c9	0.10944135
152	0x3c2f493d	0.010698614
153	0xbf417445	-0.7556804
154	0x3b44c978	0.0030027311
155	0x3e2b025a	0.16700116
156	0x3de9689f	0.11396908
157	0xbe340c07	-0.17582713
158	0xbebd67b5	-0.36993185
159	0xbef6974d	-0.48162308
160	0xbe4b9ece	-0.19884798
161	0xbf0f9914	-0.56092954
162	0x3dc140b4	0.09436169
163	0x39caa713	0.00038652922
164	0xbdf3606c	-0.118836254
165	0x3a653cb8	0.00087447045
166	0xbe0da753	-0.1383336
167	0xbd8906ff	-0.066907875
168	0xbe674ba8	-0.22587454
169	0xbe0a9fd0	-0.13537526
170	0x3cc651dc	0.024208955
171	0xbc40a0d7	-0.011757097
172	0xbe02f1ab	-0.12787502
173	0x3cd1310e	0.025536086
174	0xbcaedb35	-0.02134476
175	0xbe199aa3	-0.15000395
176	0xbe8d1bfe	-0.2756042
177	0xbd9f01f9	-0.07764048
178	0xbe20cedc	-0.1570391
179	0xbddd1e14	-0.107967526
180	0xbdd9963e	-0.106243595
181	0xbe217c86	-0.15770158
182	0xbdbe6411	-0.0929643
183	0x3d7f64e5	0.06235208
184	0xbe79c7f1	-0.24392678
185	0x3d9bffd5	0.076171555
186	0xbf091383	-0.535454
187	0x3eab2247	0.3342459
188	0xbc249528	-0.010045327
189	0xbe3a9d47	-0.18224059
190	0xbec4bd5f	-0.3842573
191	0xbd57e544	-0.05270888
192	0x3de689b7	0.11256736
193	0x3d804b66	0.06264381
194	0xbdbf0222	-0.09326579
195	0xbe61b930	-0.220433
196	0xbde8f962	-0.11375691
197	0xbcf7817f	-0.030213116
198	0xbe47d3cb	-0.19514386
199	0xbcbd7370	-0.023126334
200	0xbe0d19c7	-0.13779365
201	0x3e0111c5	0.12604435
202	0x3e294a4f	0.16532253
203	0xbc940141	-0.018067004
204	0xbd3a21a4	-0.04544224
205	0x3e2686cf	0.16262363
206	0x3e196c05	0.14982612
207	0x3de4c632	0.11170615
208	0x3e1ca5ad	0.15297575
209	0x3e299175	0.16559394
210	0xbd8c34de	-0.06846021
211	0x3dde7dc8	0.108638346
212	0x3cc15afa	0.023602951
213	0xbd09e345	-0.033664007
214	0xbe01bd1d	-0.12669797
215	0xbe035056	-0.12823614
216	0xbe87b3aa	-0.2650426
217	0xbe2c22d8	-0.16810167
218	0x3e16ebd0	0.14738393
219	0x3de9c2cd	0.114141084
220	0xbe013bb5	-0.12620433
221	0xbe117db5	-0.1420811
222	0x3d8802c9	0.06641156
223	0x3dcdc0c8	0.10046536
224	0xbdaaa628	-0.08332473
225	0xbe2d8cc7	-0.16948234
226	0x3dff17a1	0.12455679
227	0x3e0a1b3a	0.13486949
228	0x3e27aaae	0.16373703
229	0x3ca40bf4	0.020025231
230	0x3e0fede6	0.14055595
231	0x3e9e1841	0.3087788
232	0x3db2bc48	0.08727318
233	0x3da74196	0.081668064
234	0x3ef44e20	0.47715855
235	0x3d92ca79	0.07167525
236	0xbd9b0d42	-0.07570888
237	0xbcfc8c63	-0.03082866
238	0x3ceba265	0.02876396
239	0x3e4ef3e8	0.2021023
240	0xbf8ac1a3	-1.0840343
241	0xbe15f661	-0.14644767
242	0x3dfb6e38	0.12276882
243	0xbfbe9d03	-1.4891666
244	0x3c5ec237	0.013596109
245	0x3e7ae4b5	0.24501307
246	0x3fd0ee4c	1.6322722
247	0x3df3009d	0.11865351
248	0x3e8b47cb	0.2720321
249	0xc0456750	-3.0844307
250	0x3decea26	0.11568098
251	0xbf20a7c6	-0.62756
252	0xbd9e44ff	-0.07728004
253	0x3e083c3e	0.1330423
254	0xbe9756f1	-0.2955852
255	0xc08481e0	-4.140854

_transform._transforms.1.autoregressive_net.blocks.0.linear_layers.0.bias f4 [32]
0	0xbd90f8db	-0.070787154
1	0xbe2ac189	-0.1667539
2	0x3d6dfacf	0.058100518
3	0xbcef7cdb	-0.02923434
4	0xbe7b2d64	-0.24529034
5	0xbe8e8a07	-0.27839682
6	0xbe4a91f2	-0.19782236
7	0xbef6c50c	-0.4819721
8	0xbd0c17b0	-0.034202278
9	0xbde7acf5	-0.11312286
10	0xbebc29bb	-0.36750588
11	0x3b081737	0.002076579
12	0xbd626e6e	-0.055281095
13	0xbfc6b0ed	-1.5522743
14	0xbd439aed	-0.04775517
15	0xbdb2cf90	-0.08730996
16	0x3f1c5f15	0.61082584
17	0x3e6c643e	0.23085114
18	0xbd22bc9c	-0.039730653
19	0x3f0b3826	0.5438255
20	0xbf12d176	-0.5735086
21	0xbd75b2f8	-0.05998513
22	0xbe7c9196	-0.24664912
23	0x3e4d605f	0.20056294
24	0xbd48f5cf	-0.049062546
25	0xbf48f6eb	-0.78501767
26	0x3f0856a9	0.5325723
27	0xbd5604f6	-0.052250825
28	0xbdb39d50	-0.08770239
29	0x3f0ae612	0.5425731
30	0xbcad2a2f	-0.021138279
31	0xbf4950db	-0.78639

_transform._transforms.1.autoregressive_net.blocks.0.linear_layers.0.mask f4 [32, 32]
0	0x3f800000	1.0
1	0x00000000	0.0
2	0x00000000	0.0
3	0x3f800000	1.0
4	0x00000000	0.0
5	0x00000000	0.0
6	0x3f800000	1.0
7	0x00000000	0.0
8	0x00000000	0.0
9	0x3f800000	1.0
10	0x00000000	0.0
11	0x00000000	0.0
12	0x3f800000	1.0
13	0x00000000	0.0
14	0x00000000	0.0
15	0x3f800000	1.0
16	0x00000000	0.0
17	0x00000000	0.0
18	0x3f800000	1.0
19	0x00000000	0.0
20	0x00000000	0.0
21	0x3f800000	1.0
22	0x00000000	0.0
23	0x00000000	0.0
24	0x3f800000	1.0
25	0x00000000	0.0
26	0x00000000	0.0
27	0x3f800000	1.0
28	0x00000000	0.0
29	0x00000000	0.0
30	0x3f800000	1.0
31	0x00000000	0.0
32	0x3f800000	1.0
33	0x3f800000	1.0
34	0x00000000	0.0
35	0x3f800000	1.0
36	0x3f800000	1.0
37	0x00000000	0.0
38	0x3f800000	1.0
39	0x3f800000	1.0
40	0x00000000	0.0
41	0x3f800000	1.0
42	0x3f800000	1.0
43	0x00000000	0.0
44	0x3f800000	1.0
45	0x3f800000	1.0
46	0x00000000	0.0
47	0x3f800000	1.0
48	0x3f800000	1.0
49	0x00000000	0.0
50	0x3f800000	1.0
51	0x3f800000	1.0
52	0x00000000	0.0
53	0x3f800000	1.0
54	0x3f800000	1.0
55	0x00000000	0.0
56	0x3f800000	1.0
57	0x3f800000	1.0
58	0x00000000	0.0
59	0x3f800000	1.0
60	0x3f800000	1.0
61	0x00000000	0.0
62	0x3f800000	1.0
63	0x3f800000	1.0
64	0x3f800000	1.0
65	0x3f800000	1.0
66	0x3f800000	1.0
67	0x3f800000	1.0
68	0x3f800000	1.0
69	0x3f800000	1.0
70	0x3f800000	1.0
71	0x3f800000	1.0
72	0x3f800000	1.0
73	0x3f800000	1.0
74	0x3f800000	1.0
75	0x3f800000	1.0
76	0x3f800000	1.0
77	0x3f800000	1.0
78	0x3f800000	1.0
79	0x3f800000	1.0
80	0x3f800000	1.0
81	0x3f800000	1.0
82	0x3f800000	1.0
83	0x3f800000	1.0
84	0x3f800000	1.0
85	0x3f800000	1.0
86	0x3f800000	1.0
87	0x3f800000	1.0
88	0x3f800000	1.0
89	0x3f800000	1.0
90	0x3f800000	1.0
91	0x3f800000	1.0
92	0x3f800000	1.0
93	0x3f800000	1.0
94	0x3f800000	1.0
95	0x3f800000	1.0
96	0x3f800000	1.0
97	0x00000000	0.0
98	0x00000000	0.0
99	0x3f800000	1.0
100	0x00000000	0.0
101	0x00000000	0.0
102	0x3f800000	1.0
103	0x00000000	0.0
104	0x00000000	0.0
105	0x3f800000	1.0
106	0x00000000	0.0
107	0x00000000	0.0
108	0x3f800000	1.0
109	0x00000000	0.0
110	0x00000000	0.0
111	0x3f800000	1.0
112	0x00000000	0.0
113	0x00000000	0.0
114	0x3f800000	1.0
115	0x00000000	0.0
116	0x00000000	0.0
117	0x3f800000	1.0
118	0x00000000	0.0
119	0x00000000	0.0
120	0x3f800000	1.0
121	0x00000000	0.0
122	0x00000000	0.0
123	0x3f800000	1.0
124	0x00000000	0.0
125	0x00000000	0.0
126	0x3f800000	1.0
127	0x00000000	0.0
128	0x3f800000	1.0
129	0x3f800000	1.0
130	0x00000000	0.0
131	0x3f800000	1.0
132	0x3f800000	1.0
133	0x00000000	0.0
134	0x3f800000	1.0
135	0x3f800000	1.0
136	0x00000000	0.0
137	0x3f800000	1.0
138	0x3f800000	1.0
139	0x00000000	0.0
140	0x3f800000	1.0
141	0x3f800000	1.0
142	0x00000000	0.0
143	0x3f800000	1.0
144	0x3f800000	1.0
145	0x00000000	0.0
146	0x3f800000	1.0
147	0x3f800000	1.0
148	0x00000000	0.0
149	0x3f800000	1.0
150	0x3f800000	1.0
151	0x00000000	0.0
152	0x3f800000	1.0
153	0x3f800000	1.0
154	0x00000000	0.0
155	0x3f800000	1.0
156	0x3f800000	1.0
157	0x00000000	0.0
158	0x3f800000	1.0
159	0x3f800000	1.0
160	0x3f800000	1.0
161	0x3f800000	1.0
162	0x3f800000	1.0
163	0x3f800000	1.0
164	0x3f800000	1.0
165	0x3f800000	1.0
166	0x3f800000	1.0
167	0x3f800000	1.0
168	0x3f800000	1.0
169	0x3f800000	1.0
170	0x3f800000	1.0
171	0x3f800000	1.0
172	0x3f800000	1.0
173	0x3f800000	1.0
174	0x3f800000	1.0
175	0x3f800000	1.0
176	0x3f800000	1.0
177	0x3f800000	1.0
178	0x3f800000	1.0
179	0x3f800000	1.0
180	0x3f800000	1.0
181	0x3f800000	1.0
182	0x3f800000	1.0
183	0x3f800000	1.0
184	0x3f800000	1.0
185	0x3f800000	1.0
186	0x3f800000	1.0
187	0x3f800000	1.0
188	0x3f800000	1.0
189	0x3f800000	1.0
190	0x3f800000	1.0
191	0x3f800000	1.0
192	0x3f800000	1.0
193	0x00000000	0.0
194	0x00000000	0.0
195	0x3f800000	1.0
196	0x00000000	0.0
197	0x00000000	0.0
198	0x3f800000	1.0
199	0x00000000	0.0
200	0x00000000	0.0
201	0x3f800000	1.0
202	0x00000000	0.0
203	0x00000000	0.0
204	0x3f800000	1.0
205	0x00000000	0.0
206	0x00000000	0.0
207	0x3f800000	1.0
208	0x00000000	0.0
209	0x00000000	0.0
210	0x3f800000	1.0
211	0x00000000	0.0
212	0x00000000	0.0
213	0x3f800000	1.0
214	0x00000000	0.0
215	0x00000000	0.0
216	0x3f800000	1.0
217	0x00000000	0.0
218	0x00000000	0.0
219	0x3f800000	1.0
220	0x00000000	0.0
221	0x00000000	0.0
222	0x3f800000	1.0
223	0x00000000	0.0
224	0x3f800000	1.0
225	0x3f800000	1.0
226	0x00000000	0.0
227	0x3f800000	1.0
228	0x3f800000	1.0
229	0x00000000	0.0
230	0x3f800000	1.0
231	0x3f800000	1.0
232	0x00000000	0.0
233	0x3f800000	1.0
234	0x3f800000	1.0
235	0x00000000	0.0
236	0x3f800000	1.0
237	0x3f800000	1.0
238	0x00000000	0.0
239	0x3f800000	1.0
240	0x3f800000	1.0
241	0x00000000	0.0
242	0x3f800000	1.0
243	0x3f800000	1.0
244	0x00000000	0.0
245	0x3f800000	1.0
246	0x3f800000	1.0
247	0x00000000	0.0
248	0x3f800000	1.0
249	0x3f800000	1.0
250	0x00000000	0.0
251	0x3f800000	1.0
252	0x3f800000	1.0
253	0x00000000	0.0
254	0x3f800000	1.0
255	0x3f800000	1.0

_transform._transforms.1.autoregressive_net.blocks.0.linear_layers.1.weight f4 [32, 32]
0	0x3dd71cf3	0.105035685
1	0x3a260ff6	0.0006334776
2	0x3a7bfc0d	0.00096124486
3	0x3d7027a4	0.058631554
4	0x3a34470b	0.00068770413
5	0xba530828	-0.00080502266
6	0xbbcd1929	-0.006259103
7	0x3a35f47d	0.00069410336
8	0x3a4df18a	0.00078561215
9	0x3a7bff2a	0.00096129125
10	0x38bf7148	9.12869e-05
11	0x39735f4d	0.00023209788
12	0x3d6c6734	0.05771561
13	0xb8ddc801	-0.00010575355
14	0x3a2fbad3	0.0006703559
15	0xb9efb3bf	-0.00045719554
16	0xb9ef335d	-0.000456239
17	0xb8433938	-4.6544912e-05
18	0x3d07ae12	0.03312499
19	0x3955e0ff	0.0002039708
20	0xba37d16f	-0.0007012104
21	0x3d674281	0.056459907
22	0x3a3d47e8	0.00072204927
23	0xba1b057d	-0.00059135986
24	0x3d1a9d84	0.037747875
25	0xba786859	-0.0009475998
26	0x39d8f91b	0.00041384329
27	0x3e27347f	0.1632862
28	0x3a548401	0.00081068283
29	0x3a057d0f	0.00050921825
30	0x3d4c80a0	0.049927354
31	0xb9ac34a0	-0.00032845605
32	0xbd64db99	-0.055873487
33	0x3a140977	0.00056471623
34	0x38b9f084	8.866287e-05
35	0x3d0376c5	0.03209569
36	0xbf0d845d	-0.55280095
37	0xba431fe8	-0.0007443414
38	0xbc265244	-0.01015145
39	0xbf1ee839	-0.62073094
40	0xb9336e80	-0.00017111935
41	0x3a3f4063	0.0007295666
42	0x3d120eda	0.035658695
43	0xb9eceff9	-0.0004519222
44	0xbe0e98ac	-0.13925427
45	0xbf38eb58	-0.72234106
46	0xba0eb5ee	-0.000544398
47	0x38d72409	0.00010258711
48	0x3f6d0c31	0.9259673
49	0x39d9abcb	0.0004151746
50	0xbceae643	-0.02867425
51	0xbfaf63cd	-1.3702332
52	0x38a004ee	7.630313e-05
53	0x3beb2aa2	0.007176713
54	0xbfc7efde	-1.5620077
55	0xb97c3140	-0.0002405094
56	0xbc256be6	-0.010096526
57	0x3f7c182f	0.984744
58	0xba6506ec	-0.0008736688
59	0xbd36abea	-0.044597544
60	0x3e80c15b	0.2514752
61	0x39443a98	0.00018713844
62	0x3d23e28d	0.040010978
63	0x3fa3ea40	1.2805862
64	0xbe06bc17	-0.13157688
65	0x39810836	0.00024610915
66	0xbd677789	-0.056510482
67	0xbe243846	-0.16037092
68	0x3dbbd6be	0.09171818
69	0xbcc666a7	-0.02421887
70	0xbd8cb813	-0.06871047
71	0xbf5fab3a	-0.87370646
72	0xbd9d5620	-0.07682443
73	0x39d0171f	0.00039690078
74	0x3d267300	0.040637016
75	0xbd688a50	-0.05677253
76	0xbd50b910	-0.05095774
77	0xbe17d471	-0.14827134
78	0xbd1b14f9	-0.037861798
79	0x390e6959	0.0001358142
80	0x3f009d40	0.50239944
81	0xbe45c6df	-0.19314145
82	0xbd98b9bd	-0.07457302
83	0xbebc067a	-0.3672369
84	0xbf6c42b8	-0.92289305
85	0xbd9430b6	-0.072358534
86	0x3ee56578	0.44803977
87	0x3e630ed8	0.22173631
88	0xbd85372e	-0.06504665
89	0xbf4c84ed	-0.7989033
90	0x3ed48cbe	0.41513628
91	0xbd2cbe53	-0.042173695
92	0x3ee38861	0.44439986
93	0x3d9cf3ff	0.07663726
94	0xbdcef37e	-0.10105036
95	0xbfa395c9	-1.2780086
96	0x3db58d62	0.08864857
97	0x394caff8	0.0001952051
98	0xb9d70155	-0.00041008988
99	0x3d296ca2	0.041363366
100	0xba7905da	-0.0009499468
101	0xb9c427c7	-0.0003741367
102	0x3bd36e82	0.0064523825
103	0x380c0667	3.3384564e-05
104	0x3a5a0b73	0.0008317746
105	0xba4fb9d6	-0.0007924115
106	0xb90c9419	-0.00013406611
107	0x386b876d	5.615449e-05
108	0x3d6d8785	0.05799057
109	0x3a3402ad	0.0006866854
110	0x3a37e9fc	0.00070157624
111	0xb96f9d61	-0.00022851444
112	0xb6f38419	-7.2573425e-06
113	0x38820c8c	6.20122e-05
114	0x3d67a400	0.056552887
115	0x39522b9e	0.0002004341
116	0xb966ed0f	-0.0002202282
117	0x3d0ef2d8	0.034899563
118	0xba53c6f8	-0.000807866
119	0x3a1b53aa	0.00059252477
120	0x3d4d413b	0.050111037
121	0x3a7d1b24	0.00096552284
122	0x39e1389c	0.00042957522
123	0xbd15057d	-0.036382187
124	0xba74c5b1	-0.00093373196
125	0xba6a5ecb	-0.0008940517
126	0x3df38ea8	0.11892444
127	0xb9185159	-0.00014526154
128	0xbd7845df	-0.06061351
129	0xb9f36a78	-0.00046427897
130	0x39e04fd0	0.00042784074
131	0x3b985926	0.004649299
132	0x3f5ee937	0.8707461
133	0x39f42bd4	0.0004657196
134	0x3c7a6f77	0.015285364
135	0xbe11258b	-0.14174478
136	0xba8142d9	-0.0009861841
137	0xb9e33ede	-0.00043343654
138	0xbe2518a9	-0.16122688
139	0xb7de7e36	-2.6523234e-05
140	0xbdfdf3d1	-0.1240002
141	0x3ec2dc38	0.3805864
142	0xb9940690	-0.0002823365
143	0xba1e6a5b	-0.000604307
144	0xb84e195b	-4.913784e-05
145	0xb9be5005	-0.00036299243
146	0xbdb7e658	-0.089794815
147	0x3ea0061d	0.31254664
148	0x3a6acff9	0.0008957382
149	0xbd1dfeac	-0.038572952
150	0x3dc30c7a	0.09523864
151	0xba6fc828	-0.0009146952
152	0xbd37798c	-0.04479365
153	0x3eb7459d	0.35795298
154	0xba5990e0	-0.0008299481
155	0xbd9aaa1f	-0.07551979
156	0x3f16abbf	0.58855814
157	0xb8d3771b	-0.00010083449
158	0xbd04997f	-0.032372948
159	0x3f7b46c1	0.98154837
160	0xbe06607f	-0.13122748
161	0x3a4f1f7e	0.0007901116
162	0xbf218772	-0.630973
163	0xbe2d9ca9	-0.16954292
164	0xbe8e36c7	-0.27776167
165	0x3c458a7b	0.012056942
166	0xbd3f9fa7	-0.046783116
167	0xbf4e0e55	-0.8049062
168	0xbd545037	-0.05183431
169	0xb8ef6df4	-0.000114168884
170	0xbf329bac	-0.69768786
171	0xbd0949e5	-0.033517737
172	0xbd05cd11	-0.03266627
173	0xbf3e8b5d	-0.744314
174	0xbd214c02	-0.039379127
175	0x3a04c6ac	0.0005065005
176	0x3eda8da5	0.4268619
177	0x3e96e3aa	0.2947057
178	0xbda1d17d	-0.07901285
179	0xbec0559e	-0.3756532
180	0xc0261106	-2.594789
181	0xbda09eab	-0.078427635
182	0xbea493c2	-0.3214398
183	0x3d925b96	0.07146375
184	0xbd88e5d7	-0.066844635
185	0xbf2eced1	-0.68284327
186	0xbe0fa3e9	-0.1402737
187	0xbd1bd5d8	-0.038045734
188	0x3d02b958	0.03191504
189	0xbe88dbd9	-0.2673023
190	0xbdb6fbc8	-0.08934742
191	0xbfd6fa51	-1.679514
192	0x3e29558d	0.16536541
193	0x38a41073	7.823193e-05
194	0x3a665d01	0.00087876624
195	0x3bdcea64	0.0067418087
196	0x3a7cc7cc	0.0009642809
197	0x3a08e08c	0.00052214484
198	0x3dd9d876	0.1063699
199	0x3a52be09	0.00080391817
200	0x3a4436ec	0.00074849906
201	0xb9052a4e	-0.00012699628
202	0xba1ea8bf	-0.0006052367
203	0xba50553c	-0.0007947271
204	0xbd163f91	-0.036681715
205	0x39f45e63	0.0004660963
206	0x39d03907	0.0003971534
207	0x39a8859e	0.0003214301
208	0x38d3d2a0	0.00010100496
209	0xb9a20421	-0.00030902124
210	0x3e0544a7	0.1301447
211	0x3938d9a2	0.00017628682
212	0xb9a6fb0f	-0.0003184904
213	0x3d6931c1	0.056932215
214	0xba4ad3e4	-0.00077372626
215	0xba77eb73	-0.0009457387
216	0x3d8535e1	0.06504417
217	0xb9f54c19	-0.0004678674
218	0x3976d636	0.00023540188
219	0x3dcfd457	0.101479225
220	0x394be298	0.00019444001
221	0x3a2bb929	0.00065507233
222	0x3d7f0c88	0.06226781
223	0xb91c17a6	-0.00014886129
224	0x3def6e56	0.11690967
225	0x399d140d	0.00029960313
226	0x39be51f8	0.00036300696
227	0x3de6d865	0.11271743
228	0x405099b0	3.2593803
229	0x3a81f9bf	0.0009916349
230	0x3d820b36	0.063497946
231	0x3da547d7	0.08070343
232	0xba8256c7	-0.0009944075
233	0xb7a28084	-1.937175e-05
234	0xbd941783	-0.07231047
235	0xba75d876	-0.00093782635
236	0x3e35602c	0.17712468
237	0x3fdf14f8	1.7428274
238	0xba78d455	-0.0009492089
239	0xba50ad77	-0.00079604186
240	0xbe9075d0	-0.28214884
241	0xba072661	-0.000515556
242	0x3e057e5c	0.13036484
243	0xbe3c6f4d	-0.18401833
244	0xb967a334	-0.00022090675
245	0x3d97e2e3	0.07416322
246	0xbed9d6d7	-0.42546722
247	0x3a5ba488	0.0008378704
248	0x3dd18f2a	0.102323845
249	0x3fe60c91	1.7972585
250	0xb71e8084	-9.447456e-06
251	0x3e048ade	0.12943599
252	0x3eba5cda	0.36398965
253	0xb954947c	-0.0002027321
254	0x3b50fdec	0.003188963
255	0xbf694b97	-0.91130966

_transform._transforms.1.autoregressive_net.blocks.0.linear_layers.1.bias f4 [32]
0	0x3dfaae24	0.12240246
1	0x3e68af5c	0.22723144
2	0xbed11789	-0.40838268
3	0xbd65ba4e	-0.056085877
4	0xbf024024	-0.5087912
5	0xbf396e2d	-0.7243374
6	0xbc691d4f	-0.014228179
7	0x3f085df6	0.53268373
8	0xbf14b0bb	-0.5808217
9	0x3db74245	0.08948187
10	0xbe009480	-0.12556648
11	0x3e2b3879	0.16720761
12	0x3c09bfcf	0.008407547
13	0x3edccca6	0.43124884
14	0x3c5509ae	0.013002796
15	0x3de61a6c	0.11235508
16	0xbe2ad27f	-0.1668186
17	0xbd1d2d97	-0.038373556
18	0xbc899dfa	-0.016798962
19	0x3e4998c9	0.19687189
20	0x3e50c9e3	0.20389514
21	0x3e11b430	0.14228892
22	0xbebe6b05	-0.37191024
23	0x3e9b0e7b	0.30284485
24	0xbcb9bf84	-0.02267433
25	0xbe43faa3	-0.19138579
26	0xbfac0e0b	-1.3441786
27	0x3c8ce875	0.017200688
28	0xbe8341f9	-0.2563627
29	0xbf12d09c	-0.5734956
30	0x3d590242	0.05298067
31	0x3e4f0d18	0.20219839

_transform._transforms.1.autoregressive_net.blocks.0.linear_layers.1.mask f4 [32, 32]
0	0x3f800000	1.0
1	0x00000000	0.0
2	0x00000000	0.0
3	0x3f800000	1.0
4	0x00000000	0.0
5	0x00000000	0.0
6	0x3f800000	1.0
7	0x00000000	0.0
8	0x00000000	0.0
9	0x3f800000	1.0
10	0x00000000	0.0
11	0x00000000	0.0
12	0x3f800000	1.0
13	0x00000000	0.0
14	0x00000000	0.0
15	0x3f800000	1.0
16	0x00000000	0.0
17	0x00000000	0.0
18	0x3f800000	1.0
19	0x00000000	0.0
20	0x00000000	0.0
21	0x3f800000	1.0
22	0x00000000	0.0
23	0x00000000	0.0
24	0x3f800000	1.0
25	0x00000000	0.0
26	0x00000000	0.0
27	0x3f800000	1.0
28	0x00000000	0.0
29	0x00000000	0.0
30	0x3f800000	1.0
31	0x00000000	0.0
32	0x3f800000	1.0
33	0x3f800000	1.0
34	0x00000000	0.0
35	0x3f800000	1.0
36	0x3f800000	1.0
37	0x00000000	0.0
38	0x3f800000	1.0
39	0x3f800000	1.0
40	0x00000000	0.0
41	0x3f800000	1.0
42	0x3f800000	1.0
43	0x00000000	0.0
44	0x3f800000	1.0
45	0x3f800000	1.0
46	0x00000000	0.0
47	0x3f800000	1.0
48	0x3f800000	1.0
49	0x00000000	0.0
50	0x3f800000	1.0
51	0x3f800000	1.0
52	0x00000000	0.0
53	0x3f800000	1.0
54	0x3f800000	1.0
55	0x00000000	0.0
56	0x3f800000	1.0
57	0x3f800000	1.0
58	0x00000000	0.0
59	0x3f800000	1.0
60	0x3f800000	1.0
61	0x00000000	0.0
62	0x3f800000	1.0
63	0x3f800000	1.0
64	0x3f800000	1.0
65	0x3f800000	1.0
66	0x3f800000	1.0
67	0x3f800000	1.0
68	0x3f800000	1.0
69	0x3f800000	1.0
70	0x3f800000	1.0
71	0x3f800000	1.0
72	0x3f800000	1.0
73	0x3f800000	1.0
74	0x3f800000	1.0
75	0x3f800000	1.0
76	0x3f800000	1.0
77	0x3f800000	1.0
78	0x3f800000	1.0
79	0x3f800000	1.0
80	0x3f800000	1.0
81	0x3f800000	1.0
82	0x3f800000	1.0
83	0x3f800000	1.0
84	0x3f800000	1.0
85	0x3f800000	1.0
86	0x3f800000	1.0
87	0x3f800000	1.0
88	0x3f800000	1.0
89	0x3f800000	1.0
90	0x3f800000	1.0
91	0x3f800000	1.0
92	0x3f800000	1.0
93	0x3f800000	1.0
94	0x3f800000	1.0
95	0x3f800000	1.0
96	0x3f800000	1.0
97	0x00000000	0.0
98	0x00000000	0.0
99	0x3f800000	1.0
100	0x00000000	0.0
101	0x00000000	0.0
102	0x3f800000	1.0
103	0x00000000	0.0
104	0x00000000	0.0
105	0x3f800000	1.0
106	0x00000000	0.0
107	0x00000000	0.0
108	0x3f800000	1.0
109	0x00000000	0.0
110	0x00000000	0.0
111	0x3f800000	1.0
112	0x00000000	0.0
113	0x00000000	0.0
114	0x3f800000	1.0
115	0x00000000	0.0
116	0x00000000	0.0
117	0x3f800000	1.0
118	0x00000000	0.0
119	0x00000000	0.0
120	0x3f800000	1.0
121	0x00000000	0.0
122	0x00000000	0.0
123	0x3f800000	1.0
124	0x00000000	0.0
125	0x00000000	0.0
126	0x3f800000	1.0
127	0x00000000	0.0
128	0x3f800000	1.0
129	0x3f800000	1.0
130	0x00000000	0.0
131	0x3f800000	1.0
132	0x3f800000	1.0
133	0x00000000	0.0
134	0x3f800000	1.0
135	0x3f800000	1.0
136	0x00000000	0.0
137	0x3f800000	1.0
138	0x3f800000	1.0
139	0x00000000	0.0
140	0x3f800000	1.0
141	0x3f800000	1.0
142	0x00000000	0.0
143	0x3f800000	1.0
144	0x3f800000	1.0
145	0x00000000	0.0
146	0x3f800000	1.0
147	0x3f800000	1.0
148	0x00000000	0.0
149	0x3f800000	1.0
150	0x3f800000	1.0
151	0x00000000	0.0
152	0x3f800000	1.0
153	0x3f800000	1.0
154	0x00000000	0.0
155	0x3f800000	1.0
156	0x3f800000	1.0
157	0x00000000	0.0
158	0x3f800000	1.0
159	0x3f800000	1.0
160	0x3f800000	1.0
161	0x3f800000	1.0
162	0x3f800000	1.0
163	0x3f800000	1.0
164	0x3f800000	1.0
165	0x3f800000	1.0
166	0x3f800000	1.0
167	0x3f800000	1.0
168	0x3f800000	1.0
169	0x3f800000	1.0
170	0x3f800000	1.0
171	0x3f800000	1.0
172	0x3f800000	1.0
173	0x3f800000	1.0
174	0x3f800000	1.0
175	0x3f800000	1.0
176	0x3f800000	1.0
177	0x3f800000	1.0
178	0x3f800000	1.0
179	0x3f800000	1.0
180	0x3f800000	1.0
181	0x3f800000	1.0
182	0x3f800000	1.0
183	0x3f800000	1.0
184	0x3f800000	1.0
185	0x3f800000	1.0
186	0x3f800000	1.0
187	0x3f800000	1.0
188	0x3f800000	1.0
189	0x3f800000	1.0
190	0x3f800000	1.0
191	0x3f800000	1.0
192	0x3f800000	1.0
193	0x00000000	0.0
194	0x00000000	0.0
195	0x3f800000	1.0
196	0x00000000	0.0
197	0x00000000	0.0
198	0x3f800000	1.0
199	0x00000000	0.0
200	0x00000000	0.0
201	0x3f800000	1.0
202	0x00000000	0.0
203	0x00000000	0.0
204	0x3f800000	1.0
205	0x00000000	0.0
206	0x00000000	0.0
207	0x3f800000	1.0
208	0x00000000	0.0
209	0x00000000	0.0
210	0x3f800000	1.0
211	0x00000000	0.0
212	0x00000000	0.0
213	0x3f800000	1.0
214	0x00000000	0.0
215	0x00000000	0.0
216	0x3f800000	1.0
217	0x00000000	0.0
218	0x00000000	0.0
219	0x3f800000	1.0
220	0x00000000	0.0
221	0x00000000	0.0
222	0x3f800000	1.0
223	0x00000000	0.0
224	0x3f800000	1.0
225	0x3f800000	1.0
226	0x00000000	0.0
227	0x3f800000	1.0
228	0x3f800000	1.0
229	0x00000000	0.0
230	0x3f800000	1.0
231	0x3f800000	1.0
232	0x00000000	0.0
233	0x3f800000	1.0
234	0x3f800000	1.0
235	0x00000000	0.0
236	0x3f800000	1.0
237	0x3f800000	1.0
238	0x00000000	0.0
239	0x3f800000	1.0
240	0x3f800000	1.0
241	0x00000000	0.0
242	0x3f800000	1.0
243	0x3f800000	1.0
244	0x00000000	0.0
245	0x3f800000	1.0
246	0x3f800000	1.0
247	0x00000000	0.0
248	0x3f800000	1.0
249	0x3f800000	1.0
250	0x00000000	0.0
251	0x3f800000	1.0
252	0x3f800000	1.0
253	0x00000000	0.0
254	0x3f800000	1.0
255	0x3f800000	1.0

_transform._transforms.1.autoregressive_net.blocks.1.linear_layers.0.weight f4 [32, 32]
0	0x3dc30ad4	0.0952355
1	0xbbe9f178	-0.007139381
2	0x3e2e9c90	0.17051911
3	0xbd9aa92e	-0.075518
4	0xbe012bb2	-0.12614325
5	0xbc8e2373	-0.017350888
6	0xbdd6f465	-0.10495833
7	0xbe2cb23d	-0.16864868
8	0xbde777ef	-0.113021724
9	0xbe2d559d	-0.1692719
10	0x3d8d4e64	0.068997175
11	0xbd61c047	-0.05511501
12	0x3ca893c4	0.020578273
13	0xbd18eec2	-0.037337072
14	0x3e026413	0.12733488
15	0xbe7a5989	-0.24448217
16	0xbc80d6a4	-0.015727349
17	0x3dcbe198	0.09955138
18	0x3d859a3f	0.06523561
19	0x3de054ac	0.1095365
20	0x3d1b4db2	0.037915893
21	0x3ba23d19	0.004951131
22	0xbca1f036	-0.019767862
23	0x3ddc5c23	0.10759761
24	0xbdf0dcdc	-0.117608756
25	0x3e3040cc	0.17212218
26	0xbce7b4ef	-0.028284518
27	0xbe5ea61a	-0.2174305
28	0xbd859133	-0.06521835
29	0x3cd45daf	0.025923578
30	0x3de50ccd	0.11184082
31	0xbe2874b2	-0.16450766
32	0xbdb9ab22	-0.09065844
33	0xbd88bd2a	-0.06676705
34	0xbe0294ee	-0.12752125
35	0x3d5dd1d7	0.054155197
36	0x3bdbb565	0.0067049735
37	0x3d813e3e	0.063107
38	0xbe3e3b09	-0.18577208
39	0x3d7658f8	0.06014344
40	0xbd5839e3	-0.05278958
41	0xbd53de84	-0.05172588
42	0xbe4ec568	-0.20192492
43	0x3acedd59	0.001578252
44	0xbd8c412b	-0.06848367
45	0x3c151f57	0.00910171
46	0xbe15cf8b	-0.14629953
47	0x3dd185e5	0.102306165
48	0xbda0c602	-0.07850267
49	0xbc98a165	-0.018631646
50	0xbde0679b	-0.10957261
51	0xbd97c2e5	-0.0741022
52	0xbe045c53	-0.12925844
53	0x3dbc18ab	0.091843925
54	0x3e00c21f	0.12574051
55	0xbd0cd853	-0.03438599
56	0xbe34b541	-0.17647268
57	0x3e2ce158	0.16882837
58	0xbe082337	-0.13294683
59	0xbe02ecb2	-0.12785605
60	0x3bca5f7e	0.0061759343
61	0x3cde7ec7	0.027160062
62	0x3dcef209	0.10104758
63	0xbe1e5632	-0.15462568
64	0x3dcf224e	0.10113965
65	0xbdc63789	-0.09678561
66	0xbd7c2936	-0.06156274
67	0x3d45c3be	0.048282377
68	0x3c907387	0.017633213
69	0x3e005689	0.1253301
70	0xbccac74d	-0.024753237
71	0xbe223e5c	-0.158441
72	0xbe30fd13	-0.1728404
73	0xbda63cce	-0.08117066
74	0x3da9ed7d	0.082972504
75	0xbdc8d3ec	-0.09806046
76	0x3e3ea5a3	0.18617873
77	0xbda3420b	-0.07971581
78	0xbe607ba7	-0.2192217
79	0xbda4e842	-0.08052112
80	0xbcb16813	-0.021656072
81	0x3c1c1669	0.009526827
82	0xbe910d87	-0.28330633
83	0x3d19ce86	0.03755047
84	0xbe01077e	-0.12600514
85	0xbc7cc3a6	-0.015427506
86	0xbd9ea5e1	-0.07746483
87	0xbe32dfcf	-0.17468189
88	0xbe2eadeb	-0.17058532
89	0xbdebea28	-0.11519271
90	0x3d763ad9	0.060114715
91	0xbdc679d9	-0.09691209
92	0xbd903a58	-0.07042378
93	0xbe802c09	-0.25033596
94	0xbe06ce07	-0.1316453
95	0xbc8ed5f4	-0.017436005
96	0xbd58056b	-0.052739542
97	0x3db1c1c5	0.08679537
98	0xbdbe487a	-0.092911676
99	0xbe40f1c1	-0.18842222
100	0xbe0e3950	-0.1388905
101	0x3d8e9d18	0.06963557
102	0xbd91127e	-0.07083605
103	0x3de91aac	0.113820404
104	0x3dd2ffd2	0.103027
105	0xbd4c9b76	-0.049952947
106	0x3cbff0ce	0.023430254
107	0x3e0a4dcc	0.1350624
108	0xbd2bfce3	-0.04198922
109	0x3dd8e510	0.10590565
110	0xbd3ca47f	-0.046055313
111	0xbb2ce9aa	-0.0026384392
112	0x3e0cb29b	0.13740008
113	0xbe141051	-0.14459349
114	0xbe271908	-0.16318142
115	0x3d3b01c8	0.045655996
116	0xbbdb1295	-0.0066855648
117	0xbd3ffc6a	-0.04687158
118	0xbd4b10e6	-0.049576662
119	0x3dda6cab	0.10665258
120	0xbde41697	-0.11137121
121	0x3e17d3dc	0.14826912
122	0xbe07abc9	-0.13249125
123	0xbe0c4ea2	-0.13701871
124	0xbceb51df	-0.028725563
125	0x3bd2510e	0.006418354
126	0xbe7bae30	-0.24578166
127	0xbde723e3	-0.11286142
128	0xbf0db6ef	-0.5535726
129	0x3df90fb4	0.12161198
130	0x3d72215b	0.05911384
131	0xbcd100eb	-0.025513133
132	0xbeacbbed	-0.33737126
133	0xbd6ac51d	-0.057316888
134	0xbf206973	-0.626609
135	0x3ee7a880	0.45245743
136	0xbe21289f	-0.15738152
137	0xbf490dee	-0.7853688
138	0xbf976a62	-1.182934
139	0x3e171c20	0.14756823
140	0x3d33056a	0.043706335
141	0x3f29c946	0.66322744
142	0x3dc60879	0.09669585
143	0x3e0b592a	0.13608232
144	0xbf4c1b0b	-0.79728764
145	0x3d96bc90	0.07360184
146	0xbe650100	-0.22363663
147	0x3f02ab21	0.5104237
148	0xbe1055d2	-0.14095238
149	0x39f2cd34	0.00046310725
150	0x3f46e57b	0.7769391
151	0xbe2993e0	-0.16560316
152	0xbf43da41	-0.76504904
153	0xbd4d3c57	-0.050106373
154	0x3cec3146	0.02883209
155	0xbe46b5b1	-0.19405247
156	0x3ede9bc1	0.43478206
157	0xbdf0e514	-0.11762443
158	0xbf0a25cd	-0.5396393
159	0xbd89cca8	-0.06728488
160	0x3e31686f	0.17324995
161	0xc00be7fe	-2.1860347
162	0xbe040e13	-0.12895994
163	0xbdaa1688	-0.08305079
164	0x40158b6d	2.3366349
165	0xbf5c8e02	-0.86154187
166	0x3e83ef24	0.25768387
167	0x3f4cf673	0.8006355
168	0x3f36ecb8	0.71454954
169	0xbd93ece7	-0.0722292
170	0xbe543e4e	-0.20726892
171	0x3f0c4a8a	0.5480124
172	0xbdde2956	-0.10847728
173	0xbc9d4b78	-0.019201025
174	0x3d268282	0.040651806
175	0x3f1b2622	0.6060506
176	0x3dee7f77	0.11645406
177	0xbe0109a4	-0.12601334
178	0xbd776d30	-0.060406864
179	0x3c7d6e6e	0.015468223
180	0xbf1ba0cc	-0.6079223
181	0x3d5cd0a9	0.05390993
182	0x3f1bb69e	0.60825527
183	0xbe9efdd7	-0.3105304
184	0xbef1f6c7	-0.4725859
185	0x3da858bf	0.08220052
186	0xbf22b1ea	-0.63552725
187	0x3f924bc2	1.142937
188	0x3d652f8a	0.05595354
189	0xbf774eaf	-0.96604437
190	0xbd00762d	-0.0313627
191	0xbef20ca4	-0.4727527
192	0xbea19ff7	-0.31567356
193	0xbdedde14	-0.11614624
194	0xbbad4885	-0.005288186
195	0xbe807a04	-0.2509309
196	0xbe27d9ee	-0.16391727
197	0x3d2f8a89	0.042856727
198	0xbea223e5	-0.3166801
199	0xbd312903	-0.043252002
200	0xbd08d14c	-0.033402726
201	0xbe69be2d	-0.22826453
202	0xbdd9ab2a	-0.1062835
203	0x3c93eaf0	0.018056363
204	0xbcc9ae3e	-0.024619218
205	0xbe0e2347	-0.13880645
206	0x3e031b7c	0.12803453
207	0xbe0cd4d7	-0.13753067
208	0xbd0e49ad	-0.03473823
209	0x3e34b77e	0.17648122
210	0xbe03e986	-0.12882051
211	0x3d0123d9	0.031528328
212	0x3d2175e7	0.03941908
213	0xbebc014a	-0.36719733
214	0x3e32697c	0.17423052
215	0xbe02eced	-0.12785693
216	0xbd83b8fd	-0.06431768
217	0x3de37d37	0.11107867
218	0x3e2fb01b	0.17157023
219	0x3e2b0f65	0.16705091
220	0x3e2486d8	0.16067064
221	0x3dca25aa	0.09870465
222	0xbeccd5c6	-0.40006846
223	0x3ddc1e17	0.10747927
224	0x3cd388da	0.025822092
225	0x3e0f2dbe	0.13982293
226	0xbdf4b461	-0.11948467
227	0xbd8fdea1	-0.07024885
228	0xc014304d	-2.315448
229	0xbe127c52	-0.14305237
230	0x3d822102	0.06353952
231	0x3e08191c	0.13290828
232	0x3d7ebcf2	0.06219191
233	0xbacb00ee	-0.0015487948
234	0x3fad8903	1.3557438
235	0x3dab5835	0.083664335
236	0x3ece0586	0.4023859
237	0xbfd7cdac	-1.6859641
238	0x3df715dc	0.12064716
239	0xbdabd0b2	-0.08389415
240	0xbf0a0b67	-0.5392365
241	0x3cdbcc3e	0.026830789
242	0xbd28f0d4	-0.041245297
243	0xbeb4fa8b	-0.353474
244	0x3e319330	0.17341304
245	0x3e628f26	0.2212492
246	0xc035f831	-2.8432734
247	0xbe175a80	-0.14780617
248	0x3f360908	0.7110753
249	0x3e8dae29	0.27671936
250	0xbdd599c8	-0.10429722
251	0x3e560d9b	0.20903628
252	0x3f6c1402	0.9221803
253	0xbcedba8f	-0.029019622
254	0x3eb14339	0.346216
255	0xbf6d9e23	-0.9281942

_transform._transforms.1.autoregressive_net.blocks.1.linear_layers.0.bias f4 [32]
0	0xbdb7aa6d	-0.08968053
1	0xbe6ae1f3	-0.22937755
2	0xbd61f2cb	-0.055163186
3	0xbbf5ee52	-0.0075052166
4	0xbf96521b	-1.1743807
5	0xbdd79127	-0.105257325
6	0xbd918b16	-0.07106607
7	0xbdd700af	-0.10498177
8	0x3e1f4573	0.15553837
9	0xbd1613c7	-0.036639955
10	0xbe56d238	-0.2097863
11	0xbe32efbe	-0.17474267
12	0xbe069a2c	-0.1314475
13	0xbf8f919c	-1.1216311
14	0xbebffa26	-0.37495536
15	0xbde84aeb	-0.113424145
16	0xbdfdacee	-0.12386499
17	0xbf83e7ed	-1.0305153
18	0xbdbedb6e	-0.09319197
19	0xbdb2b555	-0.087259926
20	0x3fb2ac87	1.3958901
21	0xbd4f9a8e	-0.050684504
22	0x3dae9dd8	0.085262
23	0xbe36f6fa	-0.17867652
24	0xbe177839	-0.14791955
25	0xbf213a79	-0.6297985
26	0xbdab705e	-0.08371042
27	0xbe02b84a	-0.12765613
28	0xbefea591	-0.49735692
29	0x3e118c2b	0.14213626
30	0xbd4563d1	-0.048190895
31	0xbf2cd415	-0.6751111

_transform._transforms.1.autoregressive_net.blocks.1.linear_layers.0.mask f4 [32, 32]
0	0x3f800000	1.0
1	0x00000000	0.0
2	0x00000000	0.0
3	0x3f800000	1.0
4	0x00000000	0.0
5	0x00000000	0.0
6	0x3f800000	1.0
7	0x00000000	0.0
8	0x00000000	0.0
9	0x3f800000	1.0
10	0x00000000	0.0
11	0x00000000	0.0
12	0x3f800000	1.0
13	0x00000000	0.0
14	0x00000000	0.0
15	0x3f800000	1.0
16	0x00000000	0.0
17	0x00000000	0.0
18	0x3f800000	1.0
19	0x00000000	0.0
20	0x00000000	0.0
21	0x3f800000	1.0
22	0x00000000	0.0
23	0x00000000	0.0
24	0x3f800000	1.0
25	0x00000000	0.0
26	0x00000000	0.0
27	0x3f800000	1.0
28	0x00000000	0.0
29	0x00000000	0.0
30	0x3f800000	1.0
31	0x00000000	0.0
32	0x3f800000	1.0
33	0x3f800000	1.0
34	0x00000000	0.0
35	0x3f800000	1.0
36	0x3f800000	1.0
37	0x00000000	0.0
38	0x3f800000	1.0
39	0x3f800000	1.0
40	0x00000000	0.0
41	0x3f800000	1.0
42	0x3f800000	1.0
43	0x00000000	0.0
44	0x3f800000	1.0
45	0x3f800000	1.0
46	0x00000000	0.0
47	0x3f800000	1.0
48	0x3f800000	1.0
49	0x00000000	0.0
50	0x3f800000	1.0
51	0x3f800000	1.0
52	0x00000000	0.0
53	0x3f800000	1.0
54	0x3f800000	1.0
55	0x00000000	0.0
56	0x3f800000	1.0
57	0x3f800000	1.0
58	0x00000000	0.0
59	0x3f800000	1.0
60	0x3f800000	1.0
61	0x00000000	0.0
62	0x3f800000	1.0
63	0x3f800000	1.0
64	0x3f800000	1.0
65	0x3f800000	1.0
66	0x3f800000	1.0
67	0x3f800000	1.0
68	0x3f800000	1.0
69	0x3f800000	1.0
70	0x3f800000	1.0
71	0x3f800000	1.0
72	0x3f800000	1.0
73	0x3f800000	1.0
74	0x3f800000	1.0
75	0x3f800000	1.0
76	0x3f800000	1.0
77	0x3f800000	1.0
78	0x3f800000	1.0
79	0x3f800000	1.0
80	0x3f800000	1.0
81	0x3f800000	1.0
82	0x3f800000	1.0
83	0x3f800000	1.0
84	0x3f800000	1.0
85	0x3f800000	1.0
86	0x3f800000	1.0
87	0x3f800000	1.0
88	0x3f800000	1.0
89	0x3f800000	1.0
90	0x3f800000	1.0
91	0x3f800000	1.0
92	0x3f800000	1.0
93	0x3f800000	1.0
94	0x3f800000	1.0
95	0x3f800000	1.0
96	0x3f800000	1.0
97	0x00000000	0.0
98	0x00000000	0.0
99	0x3f800000	1.0
100	0x00000000	0.0
101	0x00000000	0.0
102	0x3f800000	1.0
103	0x00000000	0.0
104	0x00000000	0.0
105	0x3f800000	1.0
106	0x00000000	0.0
107	0x00000000	0.0
108	0x3f800000	1.0
109	0x00000000	0.0
110	0x00000000	0.0
111	0x3f800000	1.0
112	0x00000000	0.0
113	0x00000000	0.0
114	0x3f800000	1.0
115	0x00000000	0.0
116	0x00000000	0.0
117	0x3f800000	1.0
118	0x00000000	0.0
119	0x00000000	0.0
120	0x3f800000	1.0
121	0x00000000	0.0
122	0x00000000	0.0
123	0x3f800000	1.0
124	0x00000000	0.0
125	0x00000000	0.0
126	0x3f800000	1.0
127	0x00000000	0.0
128	0x3f800000	1.0
129	0x3f800000	1.0
130	0x00000000	0.0
131	0x3f800000	1.0
132	0x3f800000	1.0
133	0x00000000	0.0
134	0x3f800000	1.0
135	0x3f800000	1.0
136	0x00000000	0.0
137	0x3f800000	1.0
138	0x3f800000	1.0
139	0x00000000	0.0
140	0x3f800000	1.0
141	0x3f800000	1.0
142	0x00000000	0.0
143	0x3f800000	1.0
144	0x3f800000	1.0
145	0x00000000	0.0
146	0x3f800000	1.0
147	0x3f800000	1.0
148	0x00000000	0.0
149	0x3f800000	1.0
150	0x3f800000	1.0
151	0x00000000	0.0
152	0x3f800000	1.0
153	0x3f800000	1.0
154	0x00000000	0.0
155	0x3f800000	1.0
156	0x3f800000	1.0
157	0x00000000	0.0
158	0x3f800000	1.0
159	0x3f800000	1.0
160	0x3f800000	1.0
161	0x3f800000	1.0
162	0x3f800000	1.0
163	0x3f800000	1.0
164	0x3f800000	1.0
165	0x3f800000	1.0
166	0x3f800000	1.0
167	0x3f800000	1.0
168	0x3f800000	1.0
169	0x3f800000	1.0
170	0x3f800000	1.0
171	0x3f800000	1.0
172	0x3f800000	1.0
173	0x3f800000	1.0
174	0x3f800000	1.0
175	0x3f800000	1.0
176	0x3f800000	1.0
177	0x3f800000	1.0
178	0x3f800000	1.0
179	0x3f800000	1.0
180	0x3f800000	1.0
181	0x3f800000	1.0
182	0x3f800000	1.0
183	0x3f800000	1.0
184	0x3f800000	1.0
185	0x3f800000	1.0
186	0x3f800000	1.0
187	0x3f800000	1.0
188	0x3f800000	1.0
189	0x3f800000	1.0
190	0x3f800000	1.0
191	0x3f800000	1.0
192	0x3f800000	1.0
193	0x00000000	0.0
194	0x00000000	0.0
195	0x3f800000	1.0
196	0x00000000	0.0
197	0x00000000	0.0
198	0x3f800000	1.0
199	0x00000000	0.0
200	0x00000000	0.0
201	0x3f800000	1.0
202	0x00000000	0.0
203	0x00000000	0.0
204	0x3f800000	1.0
205	0x00000000	0.0
206	0x00000000	0.0
207	0x3f800000	1.0
208	0x00000000	0.0
209	0x00000000	0.0
210	0x3f800000	1.0
211	0x00000000	0.0
212	0x00000000	0.0
213	0x3f800000	1.0
214	0x00000000	0.0
215	0x00000000	0.0
216	0x3f800000	1.0
217	0x00000000	0.0
218	0x00000000	0.0
219	0x3f800000	1.0
220	0x00000000	0.0
221	0x00000000	0.0
222	0x3f800000	1.0
223	0x00000000	0.0
224	0x3f800000	1.0
225	0x3f800000	1.0
226	0x00000000	0.0
227	0x3f800000	1.0
228	0x3f800000	1.0
229	0x00000000	0.0
230	0x3f800000	1.0
231	0x3f800000	1.0
232	0x00000000	0.0
233	0x3f800000	1.0
234	0x3f800000	1.0
235	0x00000000	0.0
236	0x3f800000	1.0
237	0x3f800000	1.0
238	0x00000000	0.0
239	0x3f800000	1.0
240	0x3f800000	1.0
241	0x00000000	0.0
242	0x3f800000	1.0
243	0x3f800000	1.0
244	0x00000000	0.0
245	0x3f800000	1.0
246	0x3f800000	1.0
247	0x00000000	0.0
248	0x3f800000	1.0
249	0x3f800000	1.0
250	0x00000000	0.0
251	0x3f800000	1.0
252	0x3f800000	1.0
253	0x00000000	0.0
254	0x3f800000	1.0
255	0x3f800000	1.0
