model2_v1/epoch=0modello-N_iter4-N_features32-N_BS32-epochs250-lr0.001-val_loss1000.pth (torch, 205818 bytes, 72 tensors)

_transform._transforms.1.autoregressive_net.initial_layer.weight f4 [32, 4]
000000 84 43 ba 3e 54 b7 8c be e8 5d 4e be ac 43 fc 3e
       0.36379635 -0.27483618 -0.2015301 0.4927038
000010 d3 fb 84 bb 99 43 e3 be 86 0a 86 3e 20 c7 0f be
       -0.00405834 -0.4438751 0.26179904 -0.14040804
000020 63 57 ab be af f3 79 3d 5b c9 96 3e 40 68 e3 3c
       -0.33465108 0.06102341 0.29450497 0.027759671
000030 c2 53 af bd 2a 21 c8 be 58 28 cd bd 44 8f 6f 3e
       -0.085608974 -0.39087802 -0.100174606 0.23394495
000040 d2 c2 37 3e 84 5f 79 3d ae 87 c3 be 44 25 f5 be
       0.17945412 0.060882106 -0.38189453 -0.47879994
000050 de cc 5d be 14 08 47 3e 2b c7 f4 3e 64 17 fe be
       -0.21660182 0.19436675 0.47808203 -0.4962722
000060 b2 c6 14 3e 58 e4 47 3e 3c d9 35 be 54 c3 7e be
       0.14528921 0.195207 -0.1775865 -0.248792
000070 d7 81 92 3b 99 fc 15 bf 94 5d a6 3e c8 30 46 3e
       0.0044710445 -0.5858856 0.3249327 0.19354546
000080 a2 b2 8d 3e 8f 6a 09 be df 23 b5 3e 5c d2 09 be
       0.2767535 -0.13419555 0.3537893 -0.13459152
000090 5a d9 56 3e e4 df 6a 3e 7a 19 e9 3e 44 d1 3b be
       0.2098135 0.2293697 0.4552725 -0.18341547
0000a0 29 83 2f bd 82 2c 05 3f 00 66 aa bc 48 23 3f be
       -0.042849693 0.5202104 -0.02080059 -0.18665802
0000b0 d5 92 53 be 78 22 97 be 2f 62 a0 be 00 df 59 3c
       -0.2066148 -0.29518485 -0.31324908 0.013297796
0000c0 a3 63 25 3e b8 44 ab bd b2 a3 dd be 08 aa de 3e
       0.1615129 -0.083627164 -0.43288952 0.434891
0000d0 57 77 8e be e8 3f d1 be 96 f7 aa be 38 6d 91 bd
       -0.27825424 -0.4086907 -0.33392018 -0.0710091
0000e0 a7 cd 95 be 6e 65 c8 bd 4b f7 31 be 80 95 e9 3d
       -0.29258463 -0.09784971 -0.17379491 0.11405468
0000f0 74 7c a9 3d 98 d2 fd be 4e 47 a3 be b4 c9 71 3e
       0.08275691 -0.49574733 -0.3189034 0.236121
000100 6e 17 b1 3e b0 f7 76 3d 24 db 1f be 00 0c d5 ba
       0.34588188 0.060294807 -0.1561094 -0.0016254187
000110 76 fe 2e 3e 49 99 31 3e 57 52 ca bd d6 f5 cf 3e
       0.17089257 0.1734363 -0.09878986 0.40617245
000120 4d 49 75 be 5e 77 f6 3e a0 53 ca 3e 40 29 34 3c
       -0.23953743 0.48137945 0.39516926 0.010996163
000130 fd a2 8e 3e 8c b0 c3 bd a4 5a 05 be 9c 4c e2 3e
       0.27858725 -0.09555158 -0.13022858 0.44199073
000140 20 3f d7 3e 4f 1c cb 3e c9 9f 85 be 72 e8 c4 be
       0.42040348 0.39670035 -0.2609847 -0.38458592
000150 de 5f 1e 3d a0 4b d8 3c 70 78 da 3e 14 fa 0c be
       0.038665645 0.026403248 0.42670012 -0.13767272
000160 60 bc b9 3d 65 48 21 3f a4 36 5e 3e 20 f2 c2 bd
       0.09069133 0.6300109 0.21700531 -0.09518838
000170 a2 f4 d7 bd f6 ee 21 3d e9 e7 ca 3e 16 68 e2 be
       -0.10544707 0.03953453 0.39630058 -0.44220036
000180 49 8b 92 bd da b6 ed 3e a8 a0 ca 3e ac 4b 06 3e
       -0.07155473 0.46428567 0.39575696 0.13114804
000190 0d 44 8b be bf 1c e1 3e 6c 56 e4 be 1e 7c da 3e
       -0.27200356 0.43967244 -0.44597185 0.4267282
0001a0 25 7f ed bd 55 e1 8e be 02 ce 58 be 0c 1f 92 3e
       -0.115965165 -0.2790629 -0.21172336 0.28539312
0001b0 d7 2d 9e be fe ca a3 3e 80 79 e9 3c 76 58 e3 3e
       -0.30894348 0.31990808 0.028500319 0.44403428
0001c0 66 07 4a bc c4 27 2c bf 40 3d e7 bd e4 34 a2 3e
       -0.0123308655 -0.6724818 -0.112909794 0.31680977
0001d0 9d 55 de 3d 41 0c 93 3e 23 96 f6 be e8 f1 da 3e
       0.10856173 0.28720286 -0.4816142 0.42762685
0001e0 db ef 2f 3d 56 46 84 be 00 8a 6b bd e6 8c ac 3e
       0.042953353 -0.25834912 -0.057504654 0.33701247
0001f0 c2 48 64 bc 47 ef d4 be b0 1d 65 bd a0 c3 73 be
       -0.013933362 -0.41588804 -0.055936515 -0.23805094

_transform._transforms.1.autoregressive_net.initial_layer.bias f4 [32]
000000 95 c0 ac be 5f 7b 69 3e eb 07 c4 3e 44 6a 8f 3e
       -0.33740678 0.22800969 0.3828729 0.28010762
000010 37 91 27 be 0b 85 58 bd e2 d1 b1 bd 96 98 ec be
       -0.16363989 -0.052861255 -0.0868261 -0.46210164
000020 58 5a 84 be 87 e0 97 be 7e 77 74 3e 0a 23 44 3e
       -0.25850177 -0.29663488 0.23873708 0.19153991
000030 2c da a5 be f6 dc b2 be 21 6e b0 3e e6 19 9b be
       -0.32393014 -0.34934205 0.34459022 -0.30293196
000040 a6 1e fe 3d 8a 37 a5 be 19 9e db 3e bb 9c 9e be
       0.124081895 -0.32268935 0.42894056 -0.3097895
000050 61 29 ae bc 84 51 af be 10 81 8b 3c dd a6 ec 3e
       -0.021259965 -0.3424188 0.017029315 0.46221057
000060 01 c8 8c 3e 12 99 90 be c0 4d fb 3e 7e c4 96 be
       0.2749634 -0.28241783 0.49082756 -0.29446787
000070 d3 6d cb be 1e a9 08 bf d3 58 e7 3e e4 2b 0b bf
       -0.39732227 -0.5338305 0.45184955 -0.54363847

_transform._transforms.1.autoregressive_net.initial_layer.mask f4 [32, 4]
000000 00 00 80 3f 00 00 00 00 00 00 00 00 00 00 00 00
       1.0 0.0 0.0 0.0
000010 00 00 80 3f 00 00 80 3f 00 00 00 00 00 00 00 00
       1.0 1.0 0.0 0.0
000020 00 00 80 3f 00 00 80 3f 00 00 80 3f 00 00 00 00
       1.0 1.0 1.0 0.0
000030 00 00 80 3f 00 00 00 00 00 00 00 00 00 00 00 00
       1.0 0.0 0.0 0.0
000040 00 00 80 3f 00 00 80 3f 00 00 00 00 00 00 00 00
       1.0 1.0 0.0 0.0
000050 00 00 80 3f 00 00 80 3f 00 00 80 3f 00 00 00 00
       1.0 1.0 1.0 0.0
000060 00 00 80 3f 00 00 00 00 00 00 00 00 00 00 00 00
       1.0 0.0 0.0 0.0
000070 00 00 80 3f 00 00 80 3f 00 00 00 00 00 00 00 00
       1.0 1.0 0.0 0.0
000080 00 00 80 3f 00 00 80 3f 00 00 80 3f 00 00 00 00
       1.0 1.0 1.0 0.0
000090 00 00 80 3f 00 00 00 00 00 00 00 00 00 00 00 00
       1.0 0.0 0.0 0.0
0000a0 00 00 80 3f 00 00 80 3f 00 00 00 00 00 00 00 00
       1.0 1.0 0.0 0.0
0000b0 00 00 80 3f 00 00 80 3f 00 00 80 3f 00 00 00 00
       1.0 1.0 1.0 0.0
0000c0 00 00 80 3f 00 00 00 00 00 00 00 00 00 00 00 00
       1.0 0.0 0.0 0.0
0000d0 00 00 80 3f 00 00 80 3f 00 00 00 00 00 00 00 00
       1.0 1.0 0.0 0.0
0000e0 00 00 80 3f 00 00 80 3f 00 00 80 3f 00 00 00 00
       1.0 1.0 1.0 0.0
0000f0 00 00 80 3f 00 00 00 00 00 00 00 00 00 00 00 00
       1.0 0.0 0.0 0.0
000100 00 00 80 3f 00 00 80 3f 00 00 00 00 00 00 00 00
       1.0 1.0 0.0 0.0
000110 00 00 80 3f 00 00 80 3f 00 00 80 3f 00 00 00 00
       1.0 1.0 1.0 0.0
000120 00 00 80 3f 00 00 00 00 00 00 00 00 00 00 00 00
       1.0 0.0 0.0 0.0
000130 00 00 80 3f 00 00 80 3f 00 00 00 00 00 00 00 00
       1.0 1.0 0.0 0.0
000140 00 00 80 3f 00 00 80 3f 00 00 80 3f 00 00 00 00
       1.0 1.0 1.0 0.0
000150 00 00 80 3f 00 00 00 00 00 00 00 00 00 00 00 00
       1.0 0.0 0.0 0.0
000160 00 00 80 3f 00 00 80 3f 00 00 00 00 00 00 00 00
       1.0 1.0 0.0 0.0
000170 00 00 80 3f 00 00 80 3f 00 00 80 3f 00 00 00 00
       1.0 1.0 1.0 0.0
000180 00 00 80 3f 00 00 00 00 00 00 00 00 00 00 00 00
       1.0 0.0 0.0 0.0
000190 00 00 80 3f 00 00 80 3f 00 00 00 00 00 00 00 00
       1.0 1.0 0.0 0.0
0001a0 00 00 80 3f 00 00 80 3f 00 00 80 3f 00 00 00 00
       1.0 1.0 1.0 0.0
0001b0 00 00 80 3f 00 00 00 00 00 00 00 00 00 00 00 00
       1.0 0.0 0.0 0.0
0001c0 00 00 80 3f 00 00 80 3f 00 00 00 00 00 00 00 00
       1.0 1.0 0.0 0.0
0001d0 00 00 80 3f 00 00 80 3f 00 00 80 3f 00 00 00 00
       1.0 1.0 1.0 0.0
0001e0 00 00 80 3f 00 00 00 00 00 00 00 00 00 00 00 00
       1.0 0.0 0.0 0.0
0001f0 00 00 80 3f 00 00 80 3f 00 00 00 00 00 00 00 00
       1.0 1.0 0.0 0.0

_transform._transforms.1.autoregressive_net.blocks.0.linear_layers.0.weight f4 [32, 32]
000000 96 68 16 be 13 41 0e 3e b8 7f 0b 3b d4 48 a1 3c
       -0.14688334 0.13892011 0.0021285843 0.019688047
000010 2d a0 f5 bb 20 fd 34 3d bd d0 29 be 47 dc 01 be
       -0.007495901 0.04418671 -0.16583534 -0.12681685
000020 27 59 19 3d c2 60 f4 3d fa b7 19 be 4a df 07 3b
       0.037438538 0.119325176 -0.15011588 0.0020732456
000030 87 7f 17 bd 8c 34 0b 3d bb fa 0b 3e 93 ba bf bd
       -0.036986854 0.03398566 0.13669865 -0.09361758
000040 71 b0 f3 3d 36 fe f5 bd 58 14 0e bb b9 5d 7b 3c
       0.11898888 -0.120113775 -0.0021679606 0.015342169
000050 3c 47 10 bd b3 9a 12 3e 82 dc 67 bd af d3 88 3c
       -0.035224184 0.14316826 -0.056606777 0.016702501
000060 75 a0 0d 3e a2 60 ef 3d 9a c5 cc bd 9c 39 c1 bd
       0.13830741 0.11688353 -0.09998627 -0.09434816
000070 19 9b f0 3d c1 64 ed 3d 61 a6 13 bc ba 08 ab bd
       0.117483325 0.11591483 -0.009011836 -0.08351274
000080 11 ab 7e bd 49 3e 1e 3e d0 f3 1c be 2b 86 0e be
       -0.06217486 0.15453447 -0.15327382 -0.13918369
000090 31 12 a1 3d 6b 18 0d 3e e4 72 ee 3c 4b 47 f7 bd
       0.07864798 0.13778846 0.029107518 -0.12074145
0000a0 ad 46 f4 3d ba 27 57 bc f4 fa 75 3c 0b d5 2f be
       0.11927543 -0.01313203 0.015013445 -0.17171113
0000b0 96 ee 23 3e ee ee 4f bd 03 0f cf 3d 34 79 00 be
       0.16008982 -0.05076497 0.10110285 -0.12546235
0000c0 d9 0c c6 bd 2b 06 e7 3d 1f 8f 8f 3d 63 66 b7 bd
       -0.09670419 0.11280473 0.0700972 -0.089550756
0000d0 07 49 2a be 4f 25 55 bd ca 0a 14 be 9f d7 20 3e
       -0.1662942 -0.052037533 -0.1445724 0.15707253
0000e0 88 17 04 3e a2 bd 10 bc 37 4f 94 bc ea 56 e4 bd
       0.12899601 -0.0088342745 -0.018104179 -0.1114939
0000f0 53 96 96 bd be ac 59 bd 92 b4 9b 3d 49 6d c7 bd
       -0.07352891 -0.053143255 0.076028004 -0.09737641
000100 2c af d9 3d f5 b9 4b 3e 44 0f 2e 3e 20 db c0 bd
       0.106291145 0.19895156 0.16998011 -0.09416795
000110 44 65 df 3d 70 22 2f 3e 00 2c 09 3e 03 d9 d6 be
       0.10907987 0.1710298 0.13395691 -0.41962442
000120 88 ab 14 3e 7f bb 2f be 7e 94 0c 3e cb ff 03 bd
       0.14518559 -0.17161368 0.1372852 -0.032226365
000130 00 86 27 3d c5 4f 73 3c 47 f5 20 3e 70 e5 4f be
       0.040899277 0.0148505615 0.15718566 -0.20302367
000140 6a 0e 2f bc 6b 43 9e bd 5d 51 32 3c b7 07 8b 3d
       -0.010684589 -0.07727703 0.010883656 0.06788581
000150 2e 6c c4 bc 65 89 fe bd c7 f9 29 be 2f 0b 02 bd
       -0.023977365 -0.1242855 -0.16599189 -0.031748947
000160 66 76 00 be 5d 88 6a 3d da fa 14 be 0b 2a 4d be
       -0.12545165 0.057258952 -0.14548817 -0.2003557
000170 cd 93 88 3e 12 8f b7 bc f9 63 0c 3e e1 a0 a2 bd
       0.26675263 -0.022407088 0.13710012 -0.079408415
000180 fc 61 0f be 54 3d 98 3d 71 cd f7 bd 81 aa 11 3e
       -0.14002222 0.074335724 -0.12099732 0.14225198
000190 0f 50 f0 3d 39 5e 26 be 91 9d 79 3d 3c 96 be bd
       0.1173402 -0.1624688 0.060941283 -0.09305999
0001a0 ff eb ec bd c6 65 c9 3d ce ff 2f 3e 30 09 3e bd
       -0.1156845 0.09833865 0.17187425 -0.04639548
0001b0 42 5c 90 3c 48 dd e9 3d de 4a 9b 3d 8f 75 4e be
       0.017622117 0.11419159 0.07582639 -0.20162033
0001c0 95 9a 2b be 27 f3 10 bd 37 5b f6 bd 53 5b 31 bb
       -0.16758187 -0.03538814 -0.120291166 -0.002706249
0001d0 69 40 2d be 17 6b 1d be 21 12 b1 bd f1 56 16 3e
       -0.16919102 -0.15372883 -0.08646036 0.14681603
0001e0 62 91 00 be 84 61 11 be 0b c3 05 be ba 66 9e bd
       -0.12555459 -0.14197356 -0.13062684 -0.07734437
0001f0 ed df 58 3d 3b e1 0a 3e 9d 5b ed bc 84 c3 e9 3d
       0.052947927 0.13562481 -0.028974349 0.11414245
000200 00 52 51 bd e9 3c ee 3d d0 3c f4 bd 64 c5 49 be
       -0.051103592 0.116327114 -0.119256616 -0.19704205
000210 67 a9 3b be 36 e5 b1 bb c2 6e 7a bd f2 af c6 bc
       -0.1832634 -0.0054289354 -0.061140783 -0.02425382
000220 60 4e 15 be 2d 15 74 3d af 0d 57 3e 9e 86 fc bd
       -0.14580679 0.059590507 0.21001314 -0.12330364
000230 6d ea c2 3d b1 47 92 3d 1f da 63 3c 9a 89 1d 3d
       0.095173694 0.0714258 0.013906985 0.038461305
000240 bf 17 44 3b b2 7b 53 bd dd f9 d6 3d 01 d2 3c bb
       0.002992138 -0.051631637 0.104968764 -0.0028811696
000250 b2 eb 2b 3d 24 a1 ab 3d 12 04 49 3e c9 22 e0 3d
       0.041972823 0.083803445 0.19630459 0.10944135
000260 9b eb b3 3b 0e 84 db bd 78 c9 44 3b ce 88 cf bb
       0.005490733 -0.10718547 0.0030027311 -0.006333447
000270 ed 01 2f 3e 07 0c 34 be ba 3d 62 3d dc 56 6c be
       0.17090578 -0.17582713 0.05523465 -0.23080009
000280 e0 a9 da bd 55 13 54 be c2 6b 0d 3e da e8 c7 3d
       -0.10676932 -0.207105 0.13810638 0.0976121
000290 7e c0 e0 3c b7 fa a3 3c dc 04 4a be c7 48 64 bb
       0.027435537 0.020017011 -0.19728416 -0.0034833418
0002a0 02 54 71 be d0 9f 0a be 38 fd 3c 3d f2 7c 3a be
       -0.23567203 -0.13537526 0.046139926 -0.18211725
0002b0 06 44 20 be f6 10 50 3d b7 c7 96 bd a3 9a 19 be
       -0.15650949 0.050797425 -0.07362311 -0.15000395
0002c0 57 69 c0 bc ce f8 04 bd 1f bb 87 bd 22 ba 9c bd
       -0.02348773 -0.03246384 -0.066274874 -0.076526895
0002d0 0b d0 f1 3c 86 7c 21 be 59 a7 ce bd 33 cb 07 3e
       0.029518148 -0.15770158 -0.10090513 0.13261108
0002e0 dd 19 0c be cc 68 1f 3e c3 6f 93 be 37 e2 b8 3d
       -0.13681741 0.1556732 -0.28796205 0.09027522
0002f0 ce ee a0 bd 35 b7 2f be b3 7a 67 be 44 e5 57 bd
       -0.078580484 -0.17159732 -0.226054 -0.05270888
000300 9d 3e f8 3d 66 4b 80 3d 22 02 bf bd 30 b9 61 be
       0.121213175 0.06264381 -0.09326579 -0.220433
000310 62 f9 e8 bd 7f 81 f7 bc ef 58 42 be 70 73 bd bc
       -0.11375691 -0.030213116 -0.18979238 -0.023126334
000320 c7 19 0d be a5 63 09 3e 4f 4a 29 3e 41 01 94 bc
       -0.13779365 0.13416918 0.16532253 -0.018067004
000330 7b b9 19 bd cf 86 26 3e 05 6c 19 3e 1e 5f d5 3d
       -0.037530404 0.16262363 0.14982612 0.10418533
000340 ad a5 1c 3e 75 91 29 3e de 34 8c bd c8 7d de 3d
       0.15297575 0.16559394 -0.06846021 0.108638346
000350 fa 5a c1 3c 45 e3 09 bd 1d bd 01 be 56 50 03 be
       0.023602951 -0.033664007 -0.12669797 -0.12823614
000360 c0 4b 74 be d8 22 2c be d0 eb 16 3e cd c2 e9 3d
       -0.23857021 -0.16810167 0.14738393 0.114141084
000370 b5 3b 01 be b5 7d 11 be 05 6b 9b 3d c8 c0 cd 3d
       -0.12620433 -0.1420811 0.07588772 0.10046536
000380 87 11 bb bd a7 52 92 bd a1 17 ff 3d 9b 56 39 be
       -0.091342025 -0.07144671 0.12455679 -0.18099444
000390 ac ac 41 3e f4 0b a4 3c 80 94 f5 bd 6b 98 fa 3e
       0.18913525 0.020025231 -0.11991215 0.4894441
0003a0 48 bc b2 3d ed 79 21 3d 31 e8 ab bc 79 ca 92 3d
       0.08727318 0.039422918 -0.02098474 0.07167525
0003b0 9b 45 cd 3c fe 7e 1c 3e 65 a2 eb 3c c7 b2 81 3e
       0.025057605 0.15282819 0.02876396 0.2533171
0003c0 c1 ff 2a 3d 61 f6 15 be 59 a9 de bc e1 ad 3e be
       0.041747812 -0.14644767 -0.02718036 -0.18621017
0003d0 37 c2 5e 3c b5 e4 7a 3e cb 6f fd 3c 9d 00 f3 3d
       0.013596109 0.24501307 0.030937096 0.11865351
0003e0 5d 4f f6 3d 92 70 6d 3d 26 ea ec 3d de 08 86 bb
       0.12026856 0.057968684 0.11568098 -0.0040904125
0003f0 f7 ac d4 bb 3e 3c 08 3e fb 88 b9 bd dd bf d5 be
       -0.0064903456 0.1330423 -0.0905933 -0.41747943

_transform._transforms.1.autoregressive_net.blocks.0.linear_layers.0.bias f4 [32]
000000 3c f6 68 3d 89 c1 2a be de 18 ce 3c a4 37 c2 3d
       0.056875452 -0.1667539 0.025158342 0.09483269
000010 c1 b4 f3 3d cb 2c 13 be 6a c9 41 be d9 88 12 3e
       0.118997104 -0.14372556 -0.1892449 0.14310016
000020 88 88 e3 3d f5 ac e7 bd bc b9 b4 3c 5f 8b 0d 3e
       0.11110026 -0.11312286 0.022061221 0.13822697
000030 9d da 57 3d 2a 43 7e 3d cf fd 11 3e 90 cf b2 bd
       0.05269872 0.06207577 0.14256977 -0.08730996
000040 c9 ab d2 3c 00 c4 34 3e 02 17 53 3d 48 bd 29 3d
       0.02571668 0.17652893 0.051535614 0.04144028
000050 4b 98 bd bc ed 1f 9e 3b ac b5 24 be a4 d5 2b 3e
       -0.023143908 0.004825583 -0.16084927 0.16780716
000060 79 9c 71 3c 71 9d 38 be 83 c2 06 be 25 4b 7a 3d
       0.014746779 -0.18028809 -0.13160138 0.06110682
000070 b7 c2 cb 3d 3c fe 48 3d ed fa 0e 3e 16 d8 8f bd
       0.09949248 0.04907058 0.13962908 -0.07023637

_transform._transforms.1.autoregressive_net.blocks.0.linear_layers.0.mask f4 [32, 32]
000000 00 00 80 3f 00 00 00 00 00 00 00 00 00 00 80 3f
       1.0 0.0 0.0 1.0
000010 00 00 00 00 00 00 00 00 00 00 80 3f 00 00 00 00
       0.0 0.0 1.0 0.0
000020 00 00 00 00 00 00 80 3f 00 00 00 00 00 00 00 00
       0.0 1.0 0.0 0.0
000030 00 00 80 3f 00 00 00 00 00 00 00 00 00 00 80 3f
       1.0 0.0 0.0 1.0
000040 00 00 00 00 00 00 00 00 00 00 80 3f 00 00 00 00
       0.0 0.0 1.0 0.0
000050 00 00 00 00 00 00 80 3f 00 00 00 00 00 00 00 00
       0.0 1.0 0.0 0.0
000060 00 00 80 3f 00 00 00 00 00 00 00 00 00 00 80 3f
       1.0 0.0 0.0 1.0
000070 00 00 00 00 00 00 00 00 00 00 80 3f 00 00 00 00
       0.0 0.0 1.0 0.0
000080 00 00 80 3f 00 00 80 3f 00 00 00 00 00 00 80 3f
       1.0 1.0 0.0 1.0
000090 00 00 80 3f 00 00 00 00 00 00 80 3f 00 00 80 3f
       1.0 0.0 1.0 1.0
0000a0 00 00 00 00 00 00 80 3f 00 00 80 3f 00 00 00 00
       0.0 1.0 1.0 0.0
0000b0 00 00 80 3f 00 00 80 3f 00 00 00 00 00 00 80 3f
       1.0 1.0 0.0 1.0
0000c0 00 00 80 3f 00 00 00 00 00 00 80 3f 00 00 80 3f
       1.0 0.0 1.0 1.0
0000d0 00 00 00 00 00 00 80 3f 00 00 80 3f 00 00 00 00
       0.0 1.0 1.0 0.0
0000e0 00 00 80 3f 00 00 80 3f 00 00 00 00 00 00 80 3f
       1.0 1.0 0.0 1.0
0000f0 00 00 80 3f 00 00 00 00 00 00 80 3f 00 00 80 3f
       1.0 0.0 1.0 1.0
000100 00 00 80 3f 00 00 80 3f 00 00 80 3f 00 00 80 3f
       1.0 1.0 1.0 1.0
000110 00 00 80 3f 00 00 80 3f 00 00 80 3f 00 00 80 3f
       1.0 1.0 1.0 1.0
000120 00 00 80 3f 00 00 80 3f 00 00 80 3f 00 00 80 3f
       1.0 1.0 1.0 1.0
000130 00 00 80 3f 00 00 80 3f 00 00 80 3f 00 00 80 3f
       1.0 1.0 1.0 1.0
000140 00 00 80 3f 00 00 80 3f 00 00 80 3f 00 00 80 3f
       1.0 1.0 1.0 1.0
000150 00 00 80 3f 00 00 80 3f 00 00 80 3f 00 00 80 3f
       1.0 1.0 1.0 1.0
000160 00 00 80 3f 00 00 80 3f 00 00 80 3f 00 00 80 3f
       1.0 1.0 1.0 1.0
000170 00 00 80 3f 00 00 80 3f 00 00 80 3f 00 00 80 3f
       1.0 1.0 1.0 1.0
000180 00 00 80 3f 00 00 00 00 00 00 00 00 00 00 80 3f
       1.0 0.0 0.0 1.0
000190 00 00 00 00 00 00 00 00 00 00 80 3f 00 00 00 00
       0.0 0.0 1.0 0.0
0001a0 00 00 00 00 00 00 80 3f 00 00 00 00 00 00 00 00
       0.0 1.0 0.0 0.0
0001b0 00 00 80 3f 00 00 00 00 00 00 00 00 00 00 80 3f
       1.0 0.0 0.0 1.0
0001c0 00 00 00 00 00 00 00 00 00 00 80 3f 00 00 00 00
       0.0 0.0 1.0 0.0
0001d0 00 00 00 00 00 00 80 3f 00 00 00 00 00 00 00 00
       0.0 1.0 0.0 0.0
0001e0 00 00 80 3f 00 00 00 00 00 00 00 00 00 00 80 3f
       1.0 0.0 0.0 1.0
0001f0 00 00 00 00 00 00 00 00 00 00 80 3f 00 00 00 00
       0.0 0.0 1.0 0.0
000200 00 00 80 3f 00 00 80 3f 00 00 00 00 00 00 80 3f
       1.0 1.0 0.0 1.0
000210 00 00 80 3f 00 00 00 00 00 00 80 3f 00 00 80 3f
       1.0 0.0 1.0 1.0
000220 00 00 00 00 00 00 80 3f 00 00 80 3f 00 00 00 00
       0.0 1.0 1.0 0.0
000230 00 00 80 3f 00 00 80 3f 00 00 00 00 00 00 80 3f
       1.0 1.0 0.0 1.0
000240 00 00 80 3f 00 00 00 00 00 00 80 3f 00 00 80 3f
       1.0 0.0 1.0 1.0
000250 00 00 00 00 00 00 80 3f 00 00 80 3f 00 00 00 00
       0.0 1.0 1.0 0.0
000260 00 00 80 3f 00 00 80 3f 00 00 00 00 00 00 80 3f
       1.0 1.0 0.0 1.0
000270 00 00 80 3f 00 00 00 00 00 00 80 3f 00 00 80 3f
       1.0 0.0 1.0 1.0
000280 00 00 80 3f 00 00 80 3f 00 00 80 3f 00 00 80 3f
       1.0 1.0 1.0 1.0
000290 00 00 80 3f 00 00 80 3f 00 00 80 3f 00 00 80 3f
       1.0 1.0 1.0 1.0
0002a0 00 00 80 3f 00 00 80 3f 00 00 80 3f 00 00 80 3f
       1.0 1.0 1.0 1.0
0002b0 00 00 80 3f 00 00 80 3f 00 00 80 3f 00 00 80 3f
       1.0 1.0 1.0 1.0
0002c0 00 00 80 3f 00 00 80 3f 00 00 80 3f 00 00 80 3f
       1.0 1.0 1.0 1.0
0002d0 00 00 80 3f 00 00 80 3f 00 00 80 3f 00 00 80 3f
       1.0 1.0 1.0 1.0
0002e0 00 00 80 3f 00 00 80 3f 00 00 80 3f 00 00 80 3f
       1.0 1.0 1.0 1.0
0002f0 00 00 80 3f 00 00 80 3f 00 00 80 3f 00 00 80 3f
       1.0 1.0 1.0 1.0
000300 00 00 80 3f 00 00 00 00 00 00 00 00 00 00 80 3f
       1.0 0.0 0.0 1.0
000310 00 00 00 00 00 00 00 00 00 00 80 3f 00 00 00 00
       0.0 0.0 1.0 0.0
000320 00 00 00 00 00 00 80 3f 00 00 00 00 00 00 00 00
       0.0 1.0 0.0 0.0
000330 00 00 80 3f 00 00 00 00 00 00 00 00 00 00 80 3f
       1.0 0.0 0.0 1.0
000340 00 00 00 00 00 00 00 00 00 00 80 3f 00 00 00 00
       0.0 0.0 1.0 0.0
000350 00 00 00 00 00 00 80 3f 00 00 00 00 00 00 00 00
       0.0 1.0 0.0 0.0
000360 00 00 80 3f 00 00 00 00 00 00 00 00 00 00 80 3f
       1.0 0.0 0.0 1.0
000370 00 00 00 00 00 00 00 00 00 00 80 3f 00 00 00 00
       0.0 0.0 1.0 0.0
000380 00 00 80 3f 00 00 80 3f 00 00 00 00 00 00 80 3f
       1.0 1.0 0.0 1.0
000390 00 00 80 3f 00 00 00 00 00 00 80 3f 00 00 80 3f
       1.0 0.0 1.0 1.0
0003a0 00 00 00 00 00 00 80 3f 00 00 80 3f 00 00 00 00
       0.0 1.0 1.0 0.0
0003b0 00 00 80 3f 00 00 80 3f 00 00 00 00 00 00 80 3f
       1.0 1.0 0.0 1.0
0003c0 00 00 80 3f 00 00 00 00 00 00 80 3f 00 00 80 3f
       1.0 0.0 1.0 1.0
0003d0 00 00 00 00 00 00 80 3f 00 00 80 3f 00 00 00 00
       0.0 1.0 1.0 0.0
0003e0 00 00 80 3f 00 00 80 3f 00 00 00 00 00 00 80 3f
       1.0 1.0 0.0 1.0
0003f0 00 00 80 3f 00 00 00 00 00 00 80 3f 00 00 80 3f
       1.0 0.0 1.0 1.0

_transform._transforms.1.autoregressive_net.blocks.0.linear_layers.1.weight f4 [32, 32]
000000 75 d5 93 3d f6 0f 26 3a 0d fc 7b 3a e1 24 56 3d
       0.07218448 0.0006334776 0.00096124486 0.052281264
000010 0b 47 34 3a 28 08 53 ba 1e 82 6a 39 7d f4 35 3a
       0.00068770413 -0.00080502266 0.00022364451 0.00069410336
000020 8a f1 4d 3a 2a ff 7b 3a 48 71 bf 38 4d 5f 73 39
       0.00078561215 0.00096129125 9.12869e-05 0.00023209788
000030 61 cf 87 3c 01 c8 dd b8 d3 ba 2f 3a bf b3 ef b9
       0.016578378 -0.00010575355 0.0006703559 -0.00045719554
000040 5d 33 ef b9 38 39 43 b8 2e 3b 35 3d ff e0 55 39
       -0.000456239 -4.6544912e-05 0.04424589 0.0002039708
000050 6f d1 37 ba 9e 44 84 3d e8 47 3d 3a 7d 05 1b ba
       -0.0007012104 0.064584 0.00072204927 -0.00059135986
000060 02 89 6a 3d 59 68 78 ba 1b f9 d8 39 1e 03 9b 3d
       0.057259567 -0.0009475998 0.00041384329 0.07568954
000070 01 84 54 3a 0f 7d 05 3a 13 91 8a 3d a0 34 ac b9
       0.00081068283 0.00050921825 0.06765952 -0.00032845605
000080 e4 2b 91 3c 77 09 14 3a 84 f0 b9 38 68 c5 57 bb
       0.017721124 0.00056471623 8.866287e-05 -0.003292406
000090 12 46 90 bc e8 1f 43 ba 1e 62 ba bc ff 93 48 bd
       -0.017611537 -0.0007443414 -0.022751864 -0.048969265
0000a0 80 6e 33 b9 63 40 3f 3a 92 8e 39 be f9 ef ec b9
       -0.00017111935 0.0007295666 -0.18120793 -0.0004519222
0000b0 cf 48 b4 bc f5 7e fb bb ee b5 0e ba 09 24 d7 38
       -0.022007374 -0.0076750466 -0.000544398 0.00010258711
0000c0 44 eb 83 be cb ab d9 39 58 9b e7 bc a8 94 1b bd
       -0.2576543 0.0004151746 -0.028272316 -0.037983567
0000d0 ee 04 a0 38 fb 15 3a 3c 09 32 34 be 40 31 7c b9
       7.630313e-05 0.01135778 -0.17597212 -0.0002405094
0000e0 45 89 27 3c 05 29 62 bd ec 06 65 ba 56 e3 06 3d
       0.010225599 -0.0552149 -0.0008736688 0.03293165
0000f0 85 94 ec bc 98 3a 44 39 c4 bb 5e 3c 95 14 cc bd
       -0.028879413 0.00018713844 0.0135945715 -0.09964863
000100 45 fa 91 bd 36 08 81 39 ca dc eb bd 55 45 7d bd
       -0.07127813 0.00024610915 -0.115167215 -0.0618337
000110 68 e6 9b bd 27 18 30 bd c9 8e 69 bd 30 45 a1 bc
       -0.07612306 -0.042991783 -0.057020936 -0.019686311
000120 13 4c 9a bd 1f 17 d0 39 ad 34 bb bd eb 11 95 bd
       -0.07534041 0.00039690078 -0.091409065 -0.07278808
000130 c1 18 91 bd 90 4a aa bd f1 66 85 bd 59 69 0e 39
       -0.070847996 -0.08315003 -0.06513775 0.0001358142
000140 6e 31 fa 3e 64 6f c6 bd 5d b6 5f bd 06 93 a1 bd
       0.48865837 -0.09689215 -0.054617275 -0.078893706
000150 b8 b4 79 be 4c a6 8a bd d2 ba d7 bd d7 78 5f bd
       -0.24385345 -0.0677 -0.1053368 -0.0545586
000160 f2 1f 8e bd b1 be 26 be a4 1f 76 3e 1b 72 99 bd
       -0.06939687 -0.1628368 0.24035507 -0.07492467
000170 6d a9 0e be 46 60 4b be 39 0b 89 bd c5 ae 78 bd
       -0.13931818 -0.19860944 -0.06691594 -0.06071355
000180 ad 43 3d 3d f8 af 4c 39 55 01 d7 b9 01 99 4e 3d
       0.04620712 0.0001952051 -0.00041008988 0.050438885
000190 da 05 79 ba c7 27 c4 b9 1e 01 30 3c 67 06 0c 38
       -0.0009499468 -0.0003741367 0.010742454 3.3384564e-05
0001a0 73 0b 5a 3a d6 b9 4f ba 19 94 0c b9 6d 87 6b 38
       0.0008317746 -0.0007924115 -0.00013406611 5.615449e-05
0001b0 96 4d 3e 3d ad 02 34 3a fc e9 37 3a 61 9d 6f b9
       0.04646071 0.0006866854 0.00070157624 -0.00022851444
0001c0 19 84 f3 b6 8c 0c 82 38 d9 d8 32 3d 9e 2b 52 39
       -7.2573425e-06 6.20122e-05 0.043663833 0.0002004341
0001d0 0f ed 66 b9 f1 8e 3f 3d f8 c6 53 ba aa 53 1b 3a
       -0.0002202282 0.04676718 -0.000807866 0.00059252477
0001e0 ca 19 36 3d 24 1b 7d 3a 9c 38 e1 39 a0 1d 2a 3d
       0.044458188 0.00096552284 0.00042957522 0.04153216
0001f0 b1 c5 74 ba cb 5e 6a ba e4 1d 3d 3d 59 51 18 b9
       -0.00093373196 -0.0008940517 0.046171084 -0.00014526154
000200 41 68 71 bd 78 6a f3 b9 d0 4f e0 39 03 c8 58 bd
       -0.058937315 -0.00046427897 0.00042784074 -0.05292512
000210 74 a9 96 bd d4 2b f4 39 0f 64 f0 3b 11 55 f5 bd
       -0.07356539 0.0004657196 0.0073361467 -0.11979116
000220 d9 42 81 ba de 3e e3 b9 44 4c 0a be 36 7e de b7
       -0.0009861841 -0.00043343654 -0.13505656 -2.6523234e-05
000230 d1 86 23 bd 59 2b 81 bd 90 06 94 b9 5b 6a 1e ba
       -0.039923493 -0.06307096 -0.0002823365 -0.000604307
000240 48 e1 02 bf 05 50 be b9 9f 25 39 bd ca 07 49 bd
       -0.51125 -0.00036299243 -0.045201894 -0.049079694
000250 f9 cf 6a 3a ae 41 64 bd 39 d4 04 be 28 c8 6f ba
       0.0008957382 -0.0557267 -0.12971582 -0.0009146952
000260 b1 96 5f bd 5c d7 6f bd e0 90 59 ba e7 89 78 bd
       -0.05458707 -0.058554992 -0.0008299481 -0.06067839
000270 19 34 32 bd 1b 77 d3 b8 95 7d 64 bd fb e7 a7 bd
       -0.043506715 -0.00010083449 -0.055783827 -0.08198544
000280 ea 1f 9e bd 7e 1f 4f 3a 84 6c c3 bd c7 5e 8b bd
       -0.07720931 0.0007901116 -0.09542182 -0.06805187
000290 38 73 ae bd ba 80 69 bc 1d dc 0e bd b1 6d 5a bc
       -0.0851807 -0.014251882 -0.034877885 -0.0133318165
0002a0 4b c4 85 bd f4 6d ef b8 43 4d 98 bd 42 66 8a bd
       -0.065315805 -0.000114168884 -0.074366115 -0.067577854
0002b0 d0 ee 55 bd 97 64 ba bd d6 5c 89 bd ac c6 04 3a
       -0.052229702 -0.09101217 -0.0670716 0.0005065005
0002c0 0e 86 00 3f 91 54 c3 bd b4 a2 72 bd dd 4d 98 bd
       0.5020455 -0.09537614 -0.059237197 -0.07436726
0002d0 40 4e 6a be 0c d8 98 bd 7d d2 c3 bd f2 4a 1f bd
       -0.22881413 -0.07463083 -0.09561632 -0.038889833
0002e0 5a dd 9a bd fd fb 34 be a6 48 29 3e c2 1e a9 bd
       -0.07561751 -0.17674251 0.1653162 -0.0825782
0002f0 ac 38 e2 bd 84 c0 56 be bc 14 94 bd c4 b2 70 bd
       -0.110459656 -0.20971876 -0.07230517 -0.058764234
000300 45 7c 9d 3d 73 10 a4 38 01 5d 66 3a 95 5a 65 3d
       0.07689718 7.823193e-05 0.00087876624 0.05599459
000310 cc c7 7c 3a 8c e0 08 3a 2a 0a e2 3d 09 be 52 3a
       0.0009642809 0.00052214484 0.11037095 0.00080391817
000320 ec 36 44 3a 4e 2a 05 b9 bf a8 1e ba 3c 55 50 ba
       0.00074849906 -0.00012699628 -0.0006052367 -0.0007947271
000330 39 b9 3b 3d 63 5e f4 39 07 39 d0 39 9e 85 a8 39
       0.04583094 0.0004660963 0.0003971534 0.0003214301
000340 a0 d2 d3 38 21 04 a2 b9 f3 82 86 3d a2 d9 38 39
       0.00010100496 -0.00030902124 0.06567945 0.00017628682
000350 0f fb a6 b9 54 d3 86 3d e4 d3 4a ba 73 eb 77 ba
       -0.0003184904 0.065832764 -0.00077372626 -0.0009457387
000360 28 e4 7f 3d 19 4c f5 b9 36 d6 76 39 60 6d 86 3d
       0.062473446 -0.0004678674 0.00023540188 0.065638304
000370 98 e2 4b 39 29 b9 2b 3a 07 18 91 3d a6 17 1c b9
       0.00019444001 0.00065507233 0.07084661 -0.00014886129
000380 e9 e5 4c 3d 0d 14 9d 39 f8 51 be 39 0a 17 5a 3d
       0.050023947 0.00029960313 0.00036300696 0.053244628
000390 46 39 e7 3d bf f9 81 3a 2f 3a 28 3d 7c fd 7f 3d
       0.11290221 0.0009916349 0.041071113 0.0624976
0003a0 c7 56 82 ba 84 80 a2 b7 98 d0 4c 3e 76 d8 75 ba
       -0.0009944075 -1.937175e-05 0.20001447 -0.00093782635
0003b0 a7 69 c1 3d 80 e5 d0 3d 55 d4 78 ba 77 ad 50 ba
       0.0944398 0.10200024 -0.0009492089 -0.00079604186
0003c0 b8 ed 19 bf 61 26 07 ba 40 e6 6e 3d f0 ea 32 3e
       -0.60128355 -0.000515556 0.058325052 0.17472434
0003d0 34 a3 67 b9 a1 fb 47 3d fe 30 ea 3d 88 a4 5b 3a
       -0.00022090675 0.048823956 0.11435126 0.0008378704
0003e0 d9 83 8c 3d 04 44 4a 3e 84 80 1e b7 fa 00 6d 3d
       0.068610854 0.19752508 -9.447456e-06 0.05786226
0003f0 82 67 28 3e 7c 94 54 b9 71 4e 5e 3d e8 7e d0 3d
       0.16445735 -0.0002027321 0.054274026 0.101804554

_transform._transforms.1.autoregressive_net.blocks.0.linear_layers.1.bias f4 [32]
000000 ef 2a 8e 3d a8 55 78 3d 80 31 a4 bd e6 4e 2a 3d
       0.06941783 0.060628563 -0.08017254 0.04157915
000010 a5 34 84 bd 6b 87 be bd f4 9c 23 3d ab 70 9f 3d
       -0.06455354 -0.09303173 0.039944604 0.077851616
000020 92 31 b2 bb 10 72 0b 3d 97 bd eb 3c f2 9e 9c 3d
       -0.005438038 0.034044325 0.028776927 0.07647504
000030 af d1 78 bd d6 d5 e5 3c 2f 88 9b bd 0d 47 bd 3d
       -0.060746845 0.028056066 -0.07594334 0.092420675
000040 e3 f8 15 3d e0 98 d9 bd 09 75 8d 3d bd 19 b2 3d
       0.03661431 -0.10624862 0.06907088 0.086963154
000050 79 06 8b 3d fa c3 fe 3d c5 54 83 be 10 dc 8f 3d
       0.06788344 0.12439723 -0.25650612 0.070243955
000060 98 d4 a3 bc fd c6 97 bd f0 7c 94 3d 23 03 87 bd
       -0.019998834 -0.07411001 0.072503924 -0.06592395
000070 b2 26 35 bd 23 de 98 bd 6d d0 ea 3c 33 d8 62 bd
       -0.044226356 -0.07464244 0.028663838 -0.055381965

_transform._transforms.1.autoregressive_net.blocks.0.linear_layers.1.mask f4 [32, 32]
000000 00 00 80 3f 00 00 00 00 00 00 00 00 00 00 80 3f
       1.0 0.0 0.0 1.0
000010 00 00 00 00 00 00 00 00 00 00 80 3f 00 00 00 00
       0.0 0.0 1.0 0.0
000020 00 00 00 00 00 00 80 3f 00 00 00 00 00 00 00 00
       0.0 1.0 0.0 0.0
000030 00 00 80 3f 00 00 00 00 00 00 00 00 00 00 80 3f
       1.0 0.0 0.0 1.0
000040 00 00 00 00 00 00 00 00 00 00 80 3f 00 00 00 00
       0.0 0.0 1.0 0.0
000050 00 00 00 00 00 00 80 3f 00 00 00 00 00 00 00 00
       0.0 1.0 0.0 0.0
000060 00 00 80 3f 00 00 00 00 00 00 00 00 00 00 80 3f
       1.0 0.0 0.0 1.0
000070 00 00 00 00 00 00 00 00 00 00 80 3f 00 00 00 00
       0.0 0.0 1.0 0.0
000080 00 00 80 3f 00 00 80 3f 00 00 00 00 00 00 80 3f
       1.0 1.0 0.0 1.0
000090 00 00 80 3f 00 00 00 00 00 00 80 3f 00 00 80 3f
       1.0 0.0 1.0 1.0
0000a0 00 00 00 00 00 00 80 3f 00 00 80 3f 00 00 00 00
       0.0 1.0 1.0 0.0
0000b0 00 00 80 3f 00 00 80 3f 00 00 00 00 00 00 80 3f
       1.0 1.0 0.0 1.0
0000c0 00 00 80 3f 00 00 00 00 00 00 80 3f 00 00 80 3f
       1.0 0.0 1.0 1.0
0000d0 00 00 00 00 00 00 80 3f 00 00 80 3f 00 00 00 00
       0.0 1.0 1.0 0.0
0000e0 00 00 80 3f 00 00 80 3f 00 00 00 00 00 00 80 3f
       1.0 1.0 0.0 1.0
0000f0 00 00 80 3f 00 00 00 00 00 00 80 3f 00 00 80 3f
       1.0 0.0 1.0 1.0
000100 00 00 80 3f 00 00 80 3f 00 00 80 3f 00 00 80 3f
       1.0 1.0 1.0 1.0
000110 00 00 80 3f 00 00 80 3f 00 00 80 3f 00 00 80 3f
       1.0 1.0 1.0 1.0
000120 00 00 80 3f 00 00 80 3f 00 00 80 3f 00 00 80 3f
       1.0 1.0 1.0 1.0
000130 00 00 80 3f 00 00 80 3f 00 00 80 3f 00 00 80 3f
       1.0 1.0 1.0 1.0
000140 00 00 80 3f 00 00 80 3f 00 00 80 3f 00 00 80 3f
       1.0 1.0 1.0 1.0
000150 00 00 80 3f 00 00 80 3f 00 00 80 3f 00 00 80 3f
       1.0 1.0 1.0 1.0
000160 00 00 80 3f 00 00 80 3f 00 00 80 3f 00 00 80 3f
       1.0 1.0 1.0 1.0
000170 00 00 80 3f 00 00 80 3f 00 00 80 3f 00 00 80 3f
       1.0 1.0 1.0 1.0
000180 00 00 80 3f 00 00 00 00 00 00 00 00 00 00 80 3f
       1.0 0.0 0.0 1.0
000190 00 00 00 00 00 00 00 00 00 00 80 3f 00 00 00 00
       0.0 0.0 1.0 0.0
0001a0 00 00 00 00 00 00 80 3f 00 00 00 00 00 00 00 00
       0.0 1.0 0.0 0.0
0001b0 00 00 80 3f 00 00 00 00 00 00 00 00 00 00 80 3f
       1.0 0.0 0.0 1.0
0001c0 00 00 00 00 00 00 00 00 00 00 80 3f 00 00 00 00
       0.0 0.0 1.0 0.0
0001d0 00 00 00 00 00 00 80 3f 00 00 00 00 00 00 00 00
       0.0 1.0 0.0 0.0
0001e0 00 00 80 3f 00 00 00 00 00 00 00 00 00 00 80 3f
       1.0 0.0 0.0 1.0
0001f0 00 00 00 00 00 00 00 00 00 00 80 3f 00 00 00 00
       0.0 0.0 1.0 0.0
000200 00 00 80 3f 00 00 80 3f 00 00 00 00 00 00 80 3f
       1.0 1.0 0.0 1.0
000210 00 00 80 3f 00 00 00 00 00 00 80 3f 00 00 80 3f
       1.0 0.0 1.0 1.0
000220 00 00 00 00 00 00 80 3f 00 00 80 3f 00 00 00 00
       0.0 1.0 1.0 0.0
000230 00 00 80 3f 00 00 80 3f 00 00 00 00 00 00 80 3f
       1.0 1.0 0.0 1.0
000240 00 00 80 3f 00 00 00 00 00 00 80 3f 00 00 80 3f
       1.0 0.0 1.0 1.0
000250 00 00 00 00 00 00 80 3f 00 00 80 3f 00 00 00 00
       0.0 1.0 1.0 0.0
000260 00 00 80 3f 00 00 80 3f 00 00 00 00 00 00 80 3f
       1.0 1.0 0.0 1.0
000270 00 00 80 3f 00 00 00 00 00 00 80 3f 00 00 80 3f
       1.0 0.0 1.0 1.0
000280 00 00 80 3f 00 00 80 3f 00 00 80 3f 00 00 80 3f
       1.0 1.0 1.0 1.0
000290 00 00 80 3f 00 00 80 3f 00 00 80 3f 00 00 80 3f
       1.0 1.0 1.0 1.0
0002a0 00 00 80 3f 00 00 80 3f 00 00 80 3f 00 00 80 3f
       1.0 1.0 1.0 1.0
0002b0 00 00 80 3f 00 00 80 3f 00 00 80 3f 00 00 80 3f
       1.0 1.0 1.0 1.0
0002c0 00 00 80 3f 00 00 80 3f 00 00 80 3f 00 00 80 3f
       1.0 1.0 1.0 1.0
0002d0 00 00 80 3f 00 00 80 3f 00 00 80 3f 00 00 80 3f
       1.0 1.0 1.0 1.0
0002e0 00 00 80 3f 00 00 80 3f 00 00 80 3f 00 00 80 3f
       1.0 1.0 1.0 1.0
0002f0 00 00 80 3f 00 00 80 3f 00 00 80 3f 00 00 80 3f
       1.0 1.0 1.0 1.0
000300 00 00 80 3f 00 00 00 00 00 00 00 00 00 00 80 3f
       1.0 0.0 0.0 1.0
000310 00 00 00 00 00 00 00 00 00 00 80 3f 00 00 00 00
       0.0 0.0 1.0 0.0
000320 00 00 00 00 00 00 80 3f 00 00 00 00 00 00 00 00
       0.0 1.0 0.0 0.0
000330 00 00 80 3f 00 00 00 00 00 00 00 00 00 00 80 3f
       1.0 0.0 0.0 1.0
000340 00 00 00 00 00 00 00 00 00 00 80 3f 00 00 00 00
       0.0 0.0 1.0 0.0
000350 00 00 00 00 00 00 80 3f 00 00 00 00 00 00 00 00
       0.0 1.0 0.0 0.0
000360 00 00 80 3f 00 00 00 00 00 00 00 00 00 00 80 3f
       1.0 0.0 0.0 1.0
000370 00 00 00 00 00 00 00 00 00 00 80 3f 00 00 00 00
       0.0 0.0 1.0 0.0
000380 00 00 80 3f 00 00 80 3f 00 00 00 00 00 00 80 3f
       1.0 1.0 0.0 1.0
000390 00 00 80 3f 00 00 00 00 00 00 80 3f 00 00 80 3f
       1.0 0.0 1.0 1.0
0003a0 00 00 00 00 00 00 80 3f 00 00 80 3f 00 00 00 00
       0.0 1.0 1.0 0.0
0003b0 00 00 80 3f 00 00 80 3f 00 00 00 00 00 00 80 3f
       1.0 1.0 0.0 1.0
0003c0 00 00 80 3f 00 00 00 00 00 00 80 3f 00 00 80 3f
       1.0 0.0 1.0 1.0
0003d0 00 00 00 00 00 00 80 3f 00 00 80 3f 00 00 00 00
       0.0 1.0 1.0 0.0
0003e0 00 00 80 3f 00 00 80 3f 00 00 00 00 00 00 80 3f
       1.0 1.0 0.0 1.0
0003f0 00 00 80 3f 00 00 00 00 00 00 80 3f 00 00 80 3f
       1.0 0.0 1.0 1.0

_transform._transforms.1.autoregressive_net.blocks.1.linear_layers.0.weight f4 [32, 32]
000000 9e 19 f9 3d 78 f1 e9 bb 90 9c 2e 3e 42 54 97 bd
       0.12163089 -0.007139381 0.17051911 -0.07389118
000010 b2 2b 01 be 73 23 8e bc 5a 16 b4 bd 3d b2 2c be
       -0.12614325 -0.017350888 -0.08793326 -0.16864868
000020 ef 77 e7 bd 9d d7 10 be 64 4e 8d 3d 47 c0 61 bd
       -0.113021724 -0.1414475 0.068997175 -0.05511501
000030 15 1a c2 3c c2 ee 18 bd 13 64 02 3e d1 f4 67 be
       0.023694078 -0.037337072 0.12733488 -0.22651984
000040 a4 d6 80 bc 98 e1 cb 3d a2 ba 85 3d ac 54 e0 3d
       -0.015727349 0.09955138 0.06529738 0.1095365
000050 b2 4d 1b 3d 19 3d a2 3b 36 f0 a1 bc 23 5c dc 3d
       0.037915893 0.004951131 -0.019767862 0.10759761
000060 26 ab e4 bd cc 40 30 3e ef b4 e7 bc 1a a6 5e be
       -0.111654565 0.17212218 -0.028284518 -0.2174305
000070 33 91 85 bd af 5d d4 3c e2 c4 fc 3d b2 74 28 be
       -0.06521835 0.025923578 0.1234224 -0.16450766
000080 4f 42 71 bd 2a bd 88 bd ee 94 02 be cb f4 af 3d
       -0.058901127 -0.06676705 -0.12752125 0.085916124
000090 65 b5 db 3b 3e 3e 81 3d 1d b9 1d be f8 58 76 3d
       0.0067049735 0.063107 -0.15402646 0.06014344
0000a0 e3 39 58 bd 84 de 53 bd 4b 3e 2e be 59 dd ce 3a
       -0.05278958 -0.05172588 -0.1701595 0.001578252
0000b0 2b 41 8c bd 57 1f 15 3c 8b cf 15 be e5 85 d1 3d
       -0.06848367 0.00910171 -0.14629953 0.102306165
0000c0 62 71 3f bd 65 a1 98 bc 4b 5b 9f bd 03 6a 2d bd
       -0.04673899 -0.018631646 -0.077810846 -0.04233743
0000d0 53 5c 04 be ab 18 bc 3d 46 49 21 3e 53 d8 0c bd
       -0.12925844 0.091843925 0.15750608 -0.03438599
0000e0 8b 2f 14 be 58 e1 2c 3e 37 23 08 be b2 ec 02 be
       -0.14471261 0.16882837 -0.13294683 -0.12785605
0000f0 7e 5f ca 3b c7 7e de 3c a7 ff 07 3e 32 56 1e be
       0.0061759343 0.027160062 0.13281117 -0.15462568
000100 4e 22 cf 3d 55 a6 ed bc ed c8 b1 bb ef 67 91 ba
       0.10113965 -0.029009977 -0.0054255635 -0.0011093597
000110 bc f8 9d bd e7 ac bf 3d 4d c7 ca bc 39 8d b8 bd
       -0.07713458 0.093591504 -0.024753237 -0.09011311
000120 62 11 3e be ce 3c a6 bd 22 6c df 3d af 9e 7f bd
       -0.18561319 -0.08117066 0.109092966 -0.06240719
000130 7f ac d0 3d da 3f 9d bd ff 8d 25 be 42 e8 a4 bd
       0.10189151 -0.07678194 -0.16167448 -0.08052112
000140 ee 64 02 bc 27 37 98 3c 4b ac 6d be 58 b9 ac 3d
       -0.007958634 0.018580986 -0.23210256 0.08433789
000150 fd 52 19 be a6 c3 7c bc 33 35 97 bd 63 b2 06 be
       -0.14973064 -0.015427506 -0.07383194 -0.13153987
000160 5e 34 4d be 28 ea eb bd 09 ab de 3d eb 17 aa bd
       -0.20039508 -0.11519271 0.10872466 -0.08305343
000170 93 c6 b5 bc ca e6 3e be d5 26 09 be d4 0b 5f 3d
       -0.022189414 -0.18642727 -0.1339372 0.05445464
000180 ef 8d b3 bc c5 c1 b1 3d 7a 48 be bd 6c cb d2 bd
       -0.021918265 0.08679537 -0.092911676 -0.10292706
000190 50 39 0e be 18 9d 8e 3d 4e e8 e3 bc ac 1a e9 3d
       -0.1388905 0.06963557 -0.027820732 0.113820404
0001a0 d2 ff d2 3d 10 b6 97 bc ce f0 bf 3c cc 4d 0a 3e
       0.103027 -0.018519431 0.023430254 0.1350624
0001b0 d4 98 ae 3c 10 e5 d8 3d 7f a4 3c bd aa e9 2c bb
       0.021313109 0.10590565 -0.046055313 -0.0026384392
0001c0 9b b2 0c 3e 51 10 14 be 5d 1d 88 bd c8 01 3b 3d
       0.13740008 -0.14459349 -0.066462256 0.045655996
0001d0 95 12 db bb 6a fc 3f bd e6 10 4b bd ab 6c da 3d
       -0.0066855648 -0.04687158 -0.049576662 0.10665258
0001e0 8b b0 f4 bc dc d3 17 3e c9 ab 07 be 55 8f 0f be
       -0.029869338 0.14826912 -0.13249125 -0.1401952
0001f0 df 51 eb bc 0e 51 d2 3b f5 f1 1c be e3 23 e7 bd
       -0.028725563 0.006418354 -0.15326674 -0.11286142
000200 ec d7 02 bd 3f 80 43 3d 5b 21 72 3d 91 24 46 be
       -0.0319442 0.047729727 0.05911384 -0.19349886
000210 62 93 10 3e 1d c5 6a bd b0 ad 94 bd 64 c9 bc 3e
       0.14118722 -0.057316888 -0.07259691 0.368724
000220 9f 28 21 be 72 2a 73 bc 4b 02 d1 bd 20 1c 17 3e
       -0.15738152 -0.014841663 -0.102055155 0.14756823
000230 29 50 d4 bd 20 81 84 3e 79 08 c6 3d 2b 9f b9 3d
       -0.10366852 0.25879765 0.09669585 0.09063562
000240 0a e5 81 3d 90 bc 96 3d ae 2f fb bd 09 9c 61 3d
       0.06342514 0.07360184 -0.122649536 0.055080447
000250 d2 55 10 be d3 04 b2 3d 41 e6 02 3e e0 93 29 be
       -0.14095238 0.086923264 0.12783147 -0.16560316
000260 e9 f4 92 be 57 3c 4d bd 46 31 ec 3c b1 bf d9 bc
       -0.28702477 -0.050106373 0.02883209 -0.026580663
000270 ac 7f 5b 3e 14 e5 f0 bd f5 05 a5 3d ec 9a a2 3e
       0.21435422 -0.11762443 0.08057777 0.3175882
000280 2a c2 22 bc f5 71 d0 3d 5b fd f9 bd ea 44 18 3e
       -0.009933988 0.101779856 -0.12206527 0.14870039
000290 d9 1e cd 3d 7e 43 4d 3d 04 b1 d4 bd f9 64 db 3d
       0.10015649 0.050113194 -0.103853256 0.107126184
0002a0 c5 9d 07 be e3 f3 9c bd bf 02 d3 3d 2a 0f 53 3d
       -0.13243778 -0.07663705 0.10303258 0.051528133
0002b0 70 12 7b 3d 06 75 13 3e ec e6 f2 3d 23 ce 95 3d
       0.06129688 0.1440011 0.11860451 0.07314708
0002c0 fd ee c2 3d 0b 65 b8 3d ed a7 bf 3d 2a f7 12 be
       0.0951824 0.090036474 0.09358201 -0.14352098
0002d0 30 22 fe 3d c3 27 19 be b3 99 a5 3e 5f 6e 72 be
       0.124088645 -0.14956574 0.32343826 -0.23674916
0002e0 ce 0a e5 bd 1a 50 20 3e be a6 0c 3e cd ae 67 3d
       -0.111837015 0.15655556 0.13735482 0.056563187
0002f0 72 56 be 3d 35 da 62 3e 1a 08 bb bc 47 fb 30 3f
       0.09293832 0.22153552 -0.022831012 0.6913342
000300 d8 ad 00 be 14 de ed bd 85 48 ad bb a4 4c 47 be
       -0.12566316 -0.11614624 -0.005288186 -0.1946283
000310 ee d9 27 be 89 8a 2f 3d 36 5b 1c be 03 29 31 bd
       -0.16391727 0.042856727 -0.15269169 -0.043252002
000320 4c d1 08 bd 73 56 8f 3d 2a ab d9 bd f0 ea 93 3c
       -0.033402726 0.06998911 -0.1062835 0.018056363
000330 7a 5e fd ba 47 23 0e be 7c 1b 03 3e de ec 28 bc
       -0.0019330524 -0.13880645 0.12803453 -0.01031038
000340 ad 49 0e bd 7e b7 34 3e 6d 37 f9 3d d9 23 01 3d
       -0.03473823 0.17648122 0.12168775 0.031528328
000350 e7 75 21 3d 59 5f 53 be 7c 69 32 3e ed ec 02 be
       0.03941908 -0.20641841 0.17423052 -0.12785693
000360 e6 4e c5 3d 37 7d e3 3d 1b b0 2f 3e 77 a5 49 bd
       0.09634189 0.11107867 0.17157023 -0.049230065
000370 d8 86 24 3e aa 25 ca 3d 4a 9d de bd 17 1e dc 3d
       0.16067064 0.09870465 -0.10869844 0.10747927
000380 bb a4 1f 3d 62 62 a1 bc 61 b4 f4 bd 92 d8 a5 bc
       0.03897546 -0.019700233 -0.11948467 -0.02024487
000390 bc 2c 99 be 52 7c 12 be 29 85 4c bd 95 57 0d 3e
       -0.29916942 -0.14305237 -0.04993168 0.13802941
0003a0 f2 bc 7e 3d 73 f2 4a be bf 57 a3 3d 35 58 ab 3d
       0.06219191 -0.1981905 0.079757206 0.083664335
0003b0 1c a2 7f 3d 96 60 c9 3d dc 15 f7 3d 02 64 1b be
       0.06241046 0.098328754 0.12064716 -0.15174869
0003c0 25 a0 0e bd 3e cc db 3c 1f 72 1c 3e a0 18 9f 3d
       -0.034820694 0.026830789 0.15277909 0.07768369
0003d0 30 93 31 3e 6c b2 1c be dc 02 48 3d 80 5a 17 be
       0.17341304 -0.15302438 0.048830852 -0.14780617
0003e0 35 c6 21 3d 3f ae 46 3e c8 99 d5 bd 51 32 25 3e
       0.039495666 0.19402407 -0.10429722 0.16132475
0003f0 9f 96 f1 3e 8f ba ed bc b0 b9 1c 3d 14 5e e5 be
       0.47185227 -0.029019622 0.038263023 -0.44798338

_transform._transforms.1.autoregressive_net.blocks.1.linear_layers.0.bias f4 [32]
000000 53 3b a4 bd 0b 5b 4a be 11 28 6a ba 7e 4f f9 3d
       -0.08019128 -0.19761293 -0.0008932362 0.12173365
000010 5e 14 55 be 43 d7 a1 bd e1 e0 c1 3d 4d d8 e2 3d
       -0.2080855 -0.07902386 0.0946672 0.11076412
000020 0d 60 dd bd b9 e7 9a 3d 4e 01 46 be fe 38 6f bd
       -0.10809336 0.07563729 -0.19336435 -0.05840396
000030 73 b2 a2 bc dd 70 88 bd 2a d4 4e 3e e5 90 ed 3d
       -0.019860482 -0.06662152 0.20198122 0.11599902
000040 72 be 11 3e 33 11 a7 3d c2 54 33 bd bb 49 9a bd
       0.14232805 0.08157577 -0.043782003 -0.07533594
000050 a3 29 38 3e b6 e7 44 3d 13 10 d0 3d bb 7f e2 bc
       0.17984633 0.04807254 0.10159316 -0.027648797
000060 42 72 28 bb 26 81 65 be 54 dd 0b 3d 4a b8 02 be
       -0.0025702869 -0.22412547 0.03414662 -0.12765613
000070 d7 32 ee 3d 0d 8b 01 be cb f6 65 3c c7 29 24 be
       0.11630791 -0.126507 0.014035891 -0.16031562

_transform._transforms.1.autoregressive_net.blocks.1.linear_layers.0.mask f4 [32, 32]
000000 00 00 80 3f 00 00 00 00 00 00 00 00 00 00 80 3f
       1.0 0.0 0.0 1.0
000010 00 00 00 00 00 00 00 00 00 00 80 3f 00 00 00 00
       0.0 0.0 1.0 0.0
000020 00 00 00 00 00 00 80 3f 00 00 00 00 00 00 00 00
       0.0 1.0 0.0 0.0
000030 00 00 80 3f 00 00 00 00 00 00 00 00 00 00 80 3f
       1.0 0.0 0.0 1.0
000040 00 00 00 00 00 00 00 00 00 00 80 3f 00 00 00 00
       0.0 0.0 1.0 0.0
000050 00 00 00 00 00 00 80 3f 00 00 00 00 00 00 00 00
       0.0 1.0 0.0 0.0
000060 00 00 80 3f 00 00 00 00 00 00 00 00 00 00 80 3f
       1.0 0.0 0.0 1.0
000070 00 00 00 00 00 00 00 00 00 00 80 3f 00 00 00 00
       0.0 0.0 1.0 0.0
000080 00 00 80 3f 00 00 80 3f 00 00 00 00 00 00 80 3f
       1.0 1.0 0.0 1.0
000090 00 00 80 3f 00 00 00 00 00 00 80 3f 00 00 80 3f
       1.0 0.0 1.0 1.0
0000a0 00 00 00 00 00 00 80 3f 00 00 80 3f 00 00 00 00
       0.0 1.0 1.0 0.0
0000b0 00 00 80 3f 00 00 80 3f 00 00 00 00 00 00 80 3f
       1.0 1.0 0.0 1.0
0000c0 00 00 80 3f 00 00 00 00 00 00 80 3f 00 00 80 3f
       1.0 0.0 1.0 1.0
0000d0 00 00 00 00 00 00 80 3f 00 00 80 3f 00 00 00 00
       0.0 1.0 1.0 0.0
0000e0 00 00 80 3f 00 00 80 3f 00 00 00 00 00 00 80 3f
       1.0 1.0 0.0 1.0
0000f0 00 00 80 3f 00 00 00 00 00 00 80 3f 00 00 80 3f
       1.0 0.0 1.0 1.0
000100 00 00 80 3f 00 00 80 3f 00 00 80 3f 00 00 80 3f
       1.0 1.0 1.0 1.0
000110 00 00 80 3f 00 00 80 3f 00 00 80 3f 00 00 80 3f
       1.0 1.0 1.0 1.0
000120 00 00 80 3f 00 00 80 3f 00 00 80 3f 00 00 80 3f
       1.0 1.0 1.0 1.0
000130 00 00 80 3f 00 00 80 3f 00 00 80 3f 00 00 80 3f
       1.0 1.0 1.0 1.0
000140 00 00 80 3f 00 00 80 3f 00 00 80 3f 00 00 80 3f
       1.0 1.0 1.0 1.0
000150 00 00 80 3f 00 00 80 3f 00 00 80 3f 00 00 80 3f
       1.0 1.0 1.0 1.0
000160 00 00 80 3f 00 00 80 3f 00 00 80 3f 00 00 80 3f
       1.0 1.0 1.0 1.0
000170 00 00 80 3f 00 00 80 3f 00 00 80 3f 00 00 80 3f
       1.0 1.0 1.0 1.0
000180 00 00 80 3f 00 00 00 00 00 00 00 00 00 00 80 3f
       1.0 0.0 0.0 1.0
000190 00 00 00 00 00 00 00 00 00 00 80 3f 00 00 00 00
       0.0 0.0 1.0 0.0
0001a0 00 00 00 00 00 00 80 3f 00 00 00 00 00 00 00 00
       0.0 1.0 0.0 0.0
0001b0 00 00 80 3f 00 00 00 00 00 00 00 00 00 00 80 3f
       1.0 0.0 0.0 1.0
0001c0 00 00 00 00 00 00 00 00 00 00 80 3f 00 00 00 00
       0.0 0.0 1.0 0.0
0001d0 00 00 00 00 00 00 80 3f 00 00 00 00 00 00 00 00
       0.0 1.0 0.0 0.0
0001e0 00 00 80 3f 00 00 00 00 00 00 00 00 00 00 80 3f
       1.0 0.0 0.0 1.0
0001f0 00 00 00 00 00 00 00 00 00 00 80 3f 00 00 00 00
       0.0 0.0 1.0 0.0
000200 00 00 80 3f 00 00 80 3f 00 00 00 00 00 00 80 3f
       1.0 1.0 0.0 1.0
000210 00 00 80 3f 00 00 00 00 00 00 80 3f 00 00 80 3f
       1.0 0.0 1.0 1.0
000220 00 00 00 00 00 00 80 3f 00 00 80 3f 00 00 00 00
       0.0 1.0 1.0 0.0
000230 00 00 80 3f 00 00 80 3f 00 00 00 00 00 00 80 3f
       1.0 1.0 0.0 1.0
000240 00 00 80 3f 00 00 00 00 00 00 80 3f 00 00 80 3f
       1.0 0.0 1.0 1.0
000250 00 00 00 00 00 00 80 3f 00 00 80 3f 00 00 00 00
       0.0 1.0 1.0 0.0
000260 00 00 80 3f 00 00 80 3f 00 00 00 00 00 00 80 3f
       1.0 1.0 0.0 1.0
000270 00 00 80 3f 00 00 00 00 00 00 80 3f 00 00 80 3f
       1.0 0.0 1.0 1.0
000280 00 00 80 3f 00 00 80 3f 00 00 80 3f 00 00 80 3f
       1.0 1.0 1.0 1.0
000290 00 00 80 3f 00 00 80 3f 00 00 80 3f 00 00 80 3f
       1.0 1.0 1.0 1.0
0002a0 00 00 80 3f 00 00 80 3f 00 00 80 3f 00 00 80 3f
       1.0 1.0 1.0 1.0
0002b0 00 00 80 3f 00 00 80 3f 00 00 80 3f 00 00 80 3f
       1.0 1.0 1.0 1.0
0002c0 00 00 80 3f 00 00 80 3f 00 00 80 3f 00 00 80 3f
       1.0 1.0 1.0 1.0
0002d0 00 00 80 3f 00 00 80 3f 00 00 80 3f 00 00 80 3f
       1.0 1.0 1.0 1.0
0002e0 00 00 80 3f 00 00 80 3f 00 00 80 3f 00 00 80 3f
       1.0 1.0 1.0 1.0
0002f0 00 00 80 3f 00 00 80 3f 00 00 80 3f 00 00 80 3f
       1.0 1.0 1.0 1.0
000300 00 00 80 3f 00 00 00 00 00 00 00 00 00 00 80 3f
       1.0 0.0 0.0 1.0
000310 00 00 00 00 00 00 00 00 00 00 80 3f 00 00 00 00
       0.0 0.0 1.0 0.0
000320 00 00 00 00 00 00 80 3f 00 00 00 00 00 00 00 00
       0.0 1.0 0.0 0.0
000330 00 00 80 3f 00 00 00 00 00 00 00 00 00 00 80 3f
       1.0 0.0 0.0 1.0
000340 00 00 00 00 00 00 00 00 00 00 80 3f 00 00 00 00
       0.0 0.0 1.0 0.0
000350 00 00 00 00 00 00 80 3f 00 00 00 00 00 00 00 00
       0.0 1.0 0.0 0.0
000360 00 00 80 3f 00 00 00 00 00 00 00 00 00 00 80 3f
       1.0 0.0 0.0 1.0
000370 00 00 00 00 00 00 00 00 00 00 80 3f 00 00 00 00
       0.0 0.0 1.0 0.0
000380 00 00 80 3f 00 00 80 3f 00 00 00 00 00 00 80 3f
       1.0 1.0 0.0 1.0
000390 00 00 80 3f 00 00 00 00 00 00 80 3f 00 00 80 3f
       1.0 0.0 1.0 1.0
0003a0 00 00 00 00 00 00 80 3f 00 00 80 3f 00 00 00 00
       0.0 1.0 1.0 0.0
0003b0 00 00 80 3f 00 00 80 3f 00 00 00 00 00 00 80 3f
       1.0 1.0 0.0 1.0
0003c0 00 00 80 3f 00 00 00 00 00 00 80 3f 00 00 80 3f
       1.0 0.0 1.0 1.0
0003d0 00 00 00 00 00 00 80 3f 00 00 80 3f 00 00 00 00
       0.0 1.0 1.0 0.0
0003e0 00 00 80 3f 00 00 80 3f 00 00 00 00 00 00 80 3f
       1.0 1.0 0.0 1.0
0003f0 00 00 80 3f 00 00 00 00 00 00 80 3f 00 00 80 3f
       1.0 0.0 1.0 1.0
