model2_v1/epoch=75modello-N_iter4-N_features32-N_BS32-epochs250-lr0.001-val_loss1000.pth (torch, 205922 bytes, 72 tensors)

_transform._transforms.1.autoregressive_net.initial_layer.weight f4 [32, 4]
000000 34 8c d5 bb 54 b7 8c be e8 5d 4e be ac 43 fc 3e
       -0.0065169577 -0.27483618 -0.2015301 0.4927038
000010 71 11 c6 3b 86 c9 47 bd 86 0a 86 3e 20 c7 0f be
       0.0060445596 -0.048776172 0.26179904 -0.14040804
000020 8f 26 4d bd f7 0c c3 be af a0 c3 3f 40 68 e3 3c
       -0.0500856 -0.3809583 1.5283412 0.027759671
000030 ee 75 25 3c 2a 21 c8 be 58 28 cd bd 44 8f 6f 3e
       0.010098917 -0.39087802 -0.100174606 0.23394495
000040 7b 86 35 3e 9d 3c 69 bd ae 87 c3 be 44 25 f5 be
       0.17727081 -0.05694257 -0.38189453 -0.47879994
000050 77 d1 8e ba bc ad 45 3f d3 07 fd 3f 64 17 fe be
       -0.0010896166 0.7721822 1.9768013 -0.4962722
000060 c8 bd f1 bb 58 e4 47 3e 3c d9 35 be 54 c3 7e be
       -0.00737736 0.195207 -0.1775865 -0.248792
000070 21 ec d3 3b dd d6 71 bf 94 5d a6 3e c8 30 46 3e
       0.0064673577 -0.9446848 0.3249327 0.19354546
000080 f4 17 61 3d 4e 6b e1 be 27 9d 21 40 5c d2 09 be
       0.054954484 -0.4402718 2.5252168 -0.13459152
000090 34 52 84 3b e4 df 6a 3e 7a 19 e9 3e 44 d1 3b be
       0.0040381197 0.2293697 0.4552725 -0.18341547
0000a0 ee d9 01 ba 32 19 27 3f 00 66 aa bc 48 23 3f be
       -0.00049534335 0.6527282 -0.02080059 -0.18665802
0000b0 3d ca 93 ba 6b f9 5d bd a0 43 bb bf 00 df 59 3c
       -0.0011275482 -0.05419294 -1.4630013 0.013297796
0000c0 7c db bd bb b8 44 ab bd b2 a3 dd be 08 aa de 3e
       -0.005793987 -0.083627164 -0.43288952 0.434891
0000d0 e2 d0 a8 3c 23 89 c6 be 96 f7 aa be 38 6d 91 bd
       0.020607416 -0.38776502 -0.33392018 -0.0710091
0000e0 7a 3d 70 3c 70 c9 c3 be af 90 ad bf 80 95 e9 3d
       0.014663095 -0.38239622 -1.3559779 0.11405468
0000f0 50 27 47 3b 98 d2 fd be 4e 47 a3 be b4 c9 71 3e
       0.0030388422 -0.49574733 -0.3189034 0.236121
000100 35 37 62 3d b3 0f d4 bc 24 db 1f be 00 0c d5 ba
       0.05522843 -0.025886392 -0.1561094 -0.0016254187
000110 38 9b 04 bd d0 57 05 3f d9 2c 44 3e d6 f5 cf 3e
       -0.03237459 0.52087116 0.19157733 0.40617245
000120 a9 0d e2 bb 5e 77 f6 3e a0 53 ca 3e 40 29 34 3c
       -0.006898601 0.48137945 0.39516926 0.010996163
000130 47 f6 b7 bc 0c 9d d3 be a4 5a 05 be 9c 4c e2 3e
       -0.022456301 -0.41330755 -0.13022858 0.44199073
000140 46 69 86 3d 72 da 05 3e ba 45 80 bd 72 e8 c4 be
       0.06563048 0.13071612 -0.06263299 -0.38458592
000150 44 11 da ba a0 4b d8 3c 70 78 da 3e 14 fa 0c be
       -0.0016637226 0.026403248 0.42670012 -0.13767272
000160 98 5a fe 3b 04 36 71 3f a4 36 5e 3e 20 f2 c2 bd
       0.0077622645 0.94223046 0.21700531 -0.09518838
000170 48 b2 86 3c a9 44 06 bf 51 cd 0b 40 16 68 e2 be
       0.016442433 -0.5244852 2.1844065 -0.44220036
000180 78 08 d3 bb da b6 ed 3e a8 a0 ca 3e ac 4b 06 3e
       -0.0064402185 0.46428567 0.39575696 0.13114804
000190 8c 40 0d bc db a5 88 3f 6c 56 e4 be 1e 7c da 3e
       -0.008621346 1.0675615 -0.44597185 0.4267282
0001a0 54 a6 be 3c d0 38 40 bf 20 bc 56 3e 0c 1f 92 3e
       0.02327267 -0.7508669 0.20970201 0.28539312
0001b0 b3 04 00 bc fe ca a3 3e 80 79 e9 3c 76 58 e3 3e
       -0.00781362 0.31990808 0.028500319 0.44403428
0001c0 2a da 06 bb aa 8c 83 bf 40 3d e7 bd e4 34 a2 3e
       -0.0020576813 -1.0277302 -0.112909794 0.31680977
0001d0 ee de b2 3b 16 3a b2 3d 42 02 0b c0 e8 f1 da 3e
       0.005458704 0.08702485 -2.1720128 0.42762685
0001e0 c5 76 9a 3a 56 46 84 be 00 8a 6b bd e6 8c ac 3e
       0.0011784664 -0.25834912 -0.057504654 0.33701247
0001f0 a5 0a 30 bd f6 3e 2f bf b0 1d 65 bd a0 c3 73 be
       -0.0429789 -0.68455446 -0.055936515 -0.23805094

_transform._transforms.1.autoregressive_net.initial_layer.bias f4 [32]
000000 a8 8a 93 be cf fd 25 be cc 74 85 3c 5f 76 29 be
       -0.28816724 -0.16210102 0.016291045 -0.16549061
000010 7f bc 1a be 09 2b c1 be e9 70 2c be d7 8a 4f bf
       -0.15110968 -0.37728146 -0.16839947 -0.8107123
000020 2e 2a 4e bf 56 09 86 be 75 22 d5 3e da ac a7 be
       -0.8053311 -0.26178998 0.4162785 -0.32749063
000030 f6 3b 44 be 25 39 a9 bf a7 99 ee bd fc b9 91 be
       -0.19163498 -1.3220564 -0.116504006 -0.28462207
000040 cd cc a2 be 20 37 92 bf 6d 04 31 be c2 b8 71 bf
       -0.31796876 -1.1423073 -0.17286845 -0.94422543
000050 ed 59 f0 be c5 19 a4 be 2c 93 ab be 5a 39 95 3f
       -0.46943608 -0.3205091 -0.3351072 1.1658127
000060 28 4e 33 be b8 bf 35 bf 8a a1 60 3f 1a 0c 31 be
       -0.17510283 -0.70995665 0.8774649 -0.17289773
000070 fd 3f 27 bf 3a 74 a4 bf b4 d7 2d be d1 95 9f bf
       -0.65332013 -1.284797 -0.16976815 -1.2467595

_transform._transforms.1.autoregressive_net.initial_layer.mask f4 [32, 4]
000000 00 00 80 3f 00 00 00 00 00 00 00 00 00 00 00 00
       1.0 0.0 0.0 0.0
000010 00 00 80 3f 00 00 80 3f 00 00 00 00 00 00 00 00
       1.0 1.0 0.0 0.0
000020 00 00 80 3f 00 00 80 3f 00 00 80 3f 00 00 00 00
       1.0 1.0 1.0 0.0
000030 00 00 80 3f 00 00 00 00 00 00 00 00 00 00 00 00
       1.0 0.0 0.0 0.0
000040 00 00 80 3f 00 00 80 3f 00 00 00 00 00 00 00 00
       1.0 1.0 0.0 0.0
000050 00 00 80 3f 00 00 80 3f 00 00 80 3f 00 00 00 00
       1.0 1.0 1.0 0.0
000060 00 00 80 3f 00 00 00 00 00 00 00 00 00 00 00 00
       1.0 0.0 0.0 0.0
000070 00 00 80 3f 00 00 80 3f 00 00 00 00 00 00 00 00
       1.0 1.0 0.0 0.0
000080 00 00 80 3f 00 00 80 3f 00 00 80 3f 00 00 00 00
       1.0 1.0 1.0 0.0
000090 00 00 80 3f 00 00 00 00 00 00 00 00 00 00 00 00
       1.0 0.0 0.0 0.0
0000a0 00 00 80 3f 00 00 80 3f 00 00 00 00 00 00 00 00
       1.0 1.0 0.0 0.0
0000b0 00 00 80 3f 00 00 80 3f 00 00 80 3f 00 00 00 00
       1.0 1.0 1.0 0.0
0000c0 00 00 80 3f 00 00 00 00 00 00 00 00 00 00 00 00
       1.0 0.0 0.0 0.0
0000d0 00 00 80 3f 00 00 80 3f 00 00 00 00 00 00 00 00
       1.0 1.0 0.0 0.0
0000e0 00 00 80 3f 00 00 80 3f 00 00 80 3f 00 00 00 00
       1.0 1.0 1.0 0.0
0000f0 00 00 80 3f 00 00 00 00 00 00 00 00 00 00 00 00
       1.0 0.0 0.0 0.0
000100 00 00 80 3f 00 00 80 3f 00 00 00 00 00 00 00 00
       1.0 1.0 0.0 0.0
000110 00 00 80 3f 00 00 80 3f 00 00 80 3f 00 00 00 00
       1.0 1.0 1.0 0.0
000120 00 00 80 3f 00 00 00 00 00 00 00 00 00 00 00 00
       1.0 0.0 0.0 0.0
000130 00 00 80 3f 00 00 80 3f 00 00 00 00 00 00 00 00
       1.0 1.0 0.0 0.0
000140 00 00 80 3f 00 00 80 3f 00 00 80 3f 00 00 00 00
       1.0 1.0 1.0 0.0
000150 00 00 80 3f 00 00 00 00 00 00 00 00 00 00 00 00
       1.0 0.0 0.0 0.0
000160 00 00 80 3f 00 00 80 3f 00 00 00 00 00 00 00 00
       1.0 1.0 0.0 0.0
000170 00 00 80 3f 00 00 80 3f 00 00 80 3f 00 00 00 00
       1.0 1.0 1.0 0.0
000180 00 00 80 3f 00 00 00 00 00 00 00 00 00 00 00 00
       1.0 0.0 0.0 0.0
000190 00 00 80 3f 00 00 80 3f 00 00 00 00 00 00 00 00
       1.0 1.0 0.0 0.0
0001a0 00 00 80 3f 00 00 80 3f 00 00 80 3f 00 00 00 00
       1.0 1.0 1.0 0.0
0001b0 00 00 80 3f 00 00 00 00 00 00 00 00 00 00 00 00
       1.0 0.0 0.0 0.0
0001c0 00 00 80 3f 00 00 80 3f 00 00 00 00 00 00 00 00
       1.0 1.0 0.0 0.0
0001d0 00 00 80 3f 00 00 80 3f 00 00 80 3f 00 00 00 00
       1.0 1.0 1.0 0.0
0001e0 00 00 80 3f 00 00 00 00 00 00 00 00 00 00 00 00
       1.0 0.0 0.0 0.0
0001f0 00 00 80 3f 00 00 80 3f 00 00 00 00 00 00 00 00
       1.0 1.0 0.0 0.0

_transform._transforms.1.autoregressive_net.blocks.0.linear_layers.0.weight f4 [32, 32]
000000 e7 6d 28 be 13 41 0e 3e b8 7f 0b 3b d8 fc 96 bd
       -0.16448174 0.13892011 0.0021285843 -0.07372445
000010 2d a0 f5 bb 20 fd 34 3d 21 42 1f be 47 dc 01 be
       -0.007495901 0.04418671 -0.1555257 -0.12681685
000020 27 59 19 3d f8 a2 fb 3d fa b7 19 be 4a df 07 3b
       0.037438538 0.12286943 -0.15011588 0.0020732456
000030 81 75 a9 3b 8c 34 0b 3d bb fa 0b 3e 93 ba bf bd
       0.0051714783 0.03398566 0.13669865 -0.09361758
000040 71 b0 f3 3d 36 fe f5 bd 1d fa c4 bd b9 5d 7b 3c
       0.11898888 -0.120113775 -0.09618018 0.015342169
000050 3c 47 10 bd b3 9a 12 3e 82 dc 67 bd af d3 88 3c
       -0.035224184 0.14316826 -0.056606777 0.016702501
000060 f8 fc 5f 3d a2 60 ef 3d 9a c5 cc bd 30 77 a6 bd
       0.05468461 0.11688353 -0.09998627 -0.08128202
000070 19 9b f0 3d c1 64 ed 3d 38 79 d7 bd ba 08 ab bd
       0.117483325 0.11591483 -0.105211675 -0.08351274
000080 11 ab 7e bd 49 3e 1e 3e d0 f3 1c be 2b 86 0e be
       -0.06217486 0.15453447 -0.15327382 -0.13918369
000090 31 12 a1 3d 6b 18 0d 3e e4 72 ee 3c 4b 47 f7 bd
       0.07864798 0.13778846 0.029107518 -0.12074145
0000a0 ad 46 f4 3d ba 27 57 bc f4 fa 75 3c 0b d5 2f be
       0.11927543 -0.01313203 0.015013445 -0.17171113
0000b0 96 ee 23 3e ee ee 4f bd 03 0f cf 3d 34 79 00 be
       0.16008982 -0.05076497 0.10110285 -0.12546235
0000c0 d9 0c c6 bd 2b 06 e7 3d 1f 8f 8f 3d 63 66 b7 bd
       -0.09670419 0.11280473 0.0700972 -0.089550756
0000d0 07 49 2a be 4f 25 55 bd ca 0a 14 be 9f d7 20 3e
       -0.1662942 -0.052037533 -0.1445724 0.15707253
0000e0 88 17 04 3e a2 bd 10 bc 37 4f 94 bc ea 56 e4 bd
       0.12899601 -0.0088342745 -0.018104179 -0.1114939
0000f0 53 96 96 bd be ac 59 bd 92 b4 9b 3d 49 6d c7 bd
       -0.07352891 -0.053143255 0.076028004 -0.09737641
000100 9a b8 0e 3e 5b d0 07 3e d8 08 35 3e f1 67 a0 3e
       0.13937607 0.13263075 0.17679155 0.313293
000110 45 2b 62 3f fc 4c 07 3d b9 e6 18 3f d7 35 bc c0
       0.88347274 0.033032402 0.59727055 -5.8815722
000120 59 05 0d be b3 51 7b be dd 96 ef c0 23 e4 0b be
       -0.13771571 -0.24542885 -7.487166 -0.13661246
000130 8e 3b fe 3e 21 d6 ef 3d 43 9d 76 3d 2c 31 2e be
       0.49654812 0.11710764 0.06020857 -0.17010945
000140 81 33 0e 3e a5 1d e8 bf a4 b2 15 3e 48 1e 95 3d
       0.13886835 -1.8134047 0.14618927 0.07281166
000150 9d 68 5e bf 65 89 fe bd d5 0c 96 bf 20 70 4f 3e
       -0.8687838 -0.1242855 -1.1722666 0.20257616
000160 74 82 aa 3c 64 ab 2b be 6d bf 72 3e 23 ff 8b bf
       0.020814158 -0.16764599 0.23705836 -1.0937237
000170 03 74 d4 be 94 78 95 be ed b4 1e 3e 85 e4 93 bd
       -0.4149476 -0.29193556 0.15498705 -0.07221321
000180 5b 26 01 be 54 3d 98 3d 71 cd f7 bd b1 a3 f5 3c
       -0.12612288 0.074335724 -0.12099732 0.02998528
000190 0f 50 f0 3d 39 5e 26 be 35 1f 40 3c 3c 96 be bd
       0.1173402 -0.1624688 0.01172619 -0.09305999
0001a0 ff eb ec bd 76 a1 9b 3d ce ff 2f 3e 30 09 3e bd
       -0.1156845 0.075991556 0.17187425 -0.04639548
0001b0 56 d3 0c 3c 48 dd e9 3d de 4a 9b 3d 09 18 3e be
       0.008595308 0.11419159 0.07582639 -0.18563856
0001c0 95 9a 2b be 27 f3 10 bd 5a b0 5c be 53 5b 31 bb
       -0.16758187 -0.03538814 -0.21551648 -0.002706249
0001d0 69 40 2d be 17 6b 1d be 21 12 b1 bd f1 56 16 3e
       -0.16919102 -0.15372883 -0.08646036 0.14681603
0001e0 56 f5 45 be 84 61 11 be 0b c3 05 be b1 38 29 be
       -0.1933187 -0.14197356 -0.13062684 -0.16525532
0001f0 ed df 58 3d 3b e1 0a 3e 81 cf 00 be 84 c3 e9 3d
       0.052947927 0.13562481 -0.12579156 0.11414245
000200 bb 60 85 bc a1 21 15 be d0 3c f4 bd 69 ca d3 3e
       -0.016281476 -0.1456361 -0.119256616 0.41365364
000210 cd eb 4a bf 36 e5 b1 bb fc ba 0a bf 14 97 ec bd
       -0.79266053 -0.0054289354 -0.54191566 -0.11552253
000220 60 4e 15 be 99 cd a3 3e cc 64 a6 3e 9e 86 fc bd
       -0.14580679 0.31992796 0.32498777 -0.12330364
000230 18 4a a0 be f1 c5 19 bb 1f da 63 3c a8 c8 98 3d
       -0.3130653 -0.002346393 0.013906985 0.07460147
000240 6f 6f 84 3d b2 7b 53 bd 8f f7 d0 3e b2 7e 80 bd
       0.06466567 -0.051631637 0.40813872 -0.06274165
000250 b2 eb 2b 3d 24 a1 ab 3d 4b 85 aa 3e c9 22 e0 3d
       0.041972823 0.083803445 0.3330482 0.10944135
000260 3d 49 2f 3c 68 cb 4f bf 78 c9 44 3b 2f df 13 3e
       0.010698614 -0.8116975 0.0030027311 0.14440607
000270 9f 68 e9 3d 07 0c 34 be b2 d2 c3 be 4d 97 f6 be
       0.11396908 -0.17582713 -0.38246685 -0.48162308
000280 ce 9e 4b be 14 99 0f bf b4 40 c1 3d 13 a7 ca 39
       -0.19884798 -0.56092954 0.09436169 0.00038652922
000290 6c 60 f3 bd b8 3c 65 3a 53 a7 0d be ff 06 89 bd
       -0.118836254 0.00087447045 -0.1383336 -0.066907875
0002a0 a8 4b 67 be d0 9f 0a be dc 51 c6 3c d7 a0 40 bc
       -0.22587454 -0.13537526 0.024208955 -0.011757097
0002b0 ab f1 02 be 0e 31 d1 3c 35 db ae bc a3 9a 19 be
       -0.12787502 0.025536086 -0.02134476 -0.15000395
0002c0 fe 1b 8d be f9 01 9f bd dc ce 20 be 14 1e dd bd
       -0.2756042 -0.07764048 -0.1570391 -0.107967526
0002d0 3e 96 d9 bd 86 7c 21 be 11 64 be bd e5 64 7f 3d
       -0.106243595 -0.15770158 -0.0929643 0.06235208
0002e0 f1 c7 79 be d5 ff 9b 3d 83 13 09 bf 47 22 ab 3e
       -0.24392678 0.076171555 -0.535454 0.3342459
0002f0 28 95 24 bc 47 9d 3a be 5f bd c4 be 44 e5 57 bd
       -0.010045327 -0.18224059 -0.3842573 -0.05270888
000300 b7 89 e6 3d 66 4b 80 3d 22 02 bf bd 30 b9 61 be
       0.11256736 0.06264381 -0.09326579 -0.220433
000310 62 f9 e8 bd 7f 81 f7 bc cb d3 47 be 70 73 bd bc
       -0.11375691 -0.030213116 -0.19514386 -0.023126334
000320 c7 19 0d be c5 11 01 3e 4f 4a 29 3e 41 01 94 bc
       -0.13779365 0.12604435 0.16532253 -0.018067004
000330 a4 21 3a bd cf 86 26 3e 05 6c 19 3e 32 c6 e4 3d
       -0.04544224 0.16262363 0.14982612 0.11170615
000340 ad a5 1c 3e 75 91 29 3e de 34 8c bd c8 7d de 3d
       0.15297575 0.16559394 -0.06846021 0.108638346
000350 fa 5a c1 3c 45 e3 09 bd 1d bd 01 be 56 50 03 be
       0.023602951 -0.033664007 -0.12669797 -0.12823614
000360 aa b3 87 be d8 22 2c be d0 eb 16 3e cd c2 e9 3d
       -0.2650426 -0.16810167 0.14738393 0.114141084
000370 b5 3b 01 be b5 7d 11 be c9 02 88 3d c8 c0 cd 3d
       -0.12620433 -0.1420811 0.06641156 0.10046536
000380 e5 78 a6 bd c7 8c 2d be a1 17 ff 3d aa 92 d3 3d
       -0.081285276 -0.16948234 0.12455679 0.10330708
000390 93 c7 8b 3e f4 0b a4 3c 8f c4 c5 3d bd 4b 95 3e
       0.273007 0.020025231 0.09656631 0.29159346
0003a0 48 bc b2 3d 4c 38 bb 3d e3 ff cf 3e 79 ca 92 3d
       0.08727318 0.09141597 0.40624914 0.07167525
0003b0 30 dc 97 3c 63 8c fc bc 65 a2 eb 3c 04 f7 4e 3e
       0.01853761 -0.03082866 0.02876396 0.20211416
0003c0 a9 22 cc be 61 f6 15 be 50 b1 2d 3e 03 9d be bf
       -0.39870194 -0.14644767 0.1696217 -1.4891666
0003d0 37 c2 5e 3c b5 e4 7a 3e f5 42 ba 3f 9d 00 f3 3d
       0.013596109 0.24501307 1.4551684 0.11865351
0003e0 cb 47 8b 3e 72 32 34 c0 26 ea ec 3d bf ab 1e bf
       0.2720321 -2.815579 0.11568098 -0.61980814
0003f0 73 bd c1 bd 3e 3c 08 3e 82 7a 3f be e0 81 84 c0
       -0.09459963 0.1330423 -0.18699077 -4.140854

_transform._transforms.1.autoregressive_net.blocks.0.linear_layers.0.bias f4 [32]
000000 db f8 90 bd 89 c1 2a be 29 17 e3 3d 23 90 7b bc
       -0.070787154 -0.1667539 0.11088402 -0.015354189
000010 e5 14 51 be 07 8a 8e be f2 91 4a be 27 7f a9 be
       -0.20418127 -0.27839682 -0.19782236 -0.33104822
000020 b0 17 0c bd f5 ac e7 bd 3d 81 87 be 37 17 08 3b
       -0.034202278 -0.11312286 -0.26465788 0.002076579
000030 6e 6e 62 bd 15 b0 a3 bf ed 9a 43 bd 90 cf b2 bd
       -0.055281095 -1.2788111 -0.04775517 -0.08730996
000040 ee 13 0e 3f ba 6c 33 3e 9c bc 22 bd c1 58 f3 3e
       0.5549916 0.17521945 -0.039730653 0.4752865
000050 16 e8 01 bf f8 b2 75 bd 5a f0 74 be 83 a0 83 3e
       -0.5074476 -0.05998513 -0.23919812 0.25708398
000060 cf f5 48 bd d9 fb ff be 89 e5 46 3e f6 04 56 bd
       -0.049062546 -0.49996832 0.19423498 -0.052250825
000070 23 cd ab bd fc b4 c1 3e 2f 2a ad bc c8 df 0c bf
       -0.08388736 0.37833393 -0.021138279 -0.55028963

_transform._transforms.1.autoregressive_net.blocks.0.linear_layers.0.mask f4 [32, 32]
000000 00 00 80 3f 00 00 00 00 00 00 00 00 00 00 80 3f
       1.0 0.0 0.0 1.0
000010 00 00 00 00 00 00 00 00 00 00 80 3f 00 00 00 00
       0.0 0.0 1.0 0.0
000020 00 00 00 00 00 00 80 3f 00 00 00 00 00 00 00 00
       0.0 1.0 0.0 0.0
000030 00 00 80 3f 00 00 00 00 00 00 00 00 00 00 80 3f
       1.0 0.0 0.0 1.0
000040 00 00 00 00 00 00 00 00 00 00 80 3f 00 00 00 00
       0.0 0.0 1.0 0.0
000050 00 00 00 00 00 00 80 3f 00 00 00 00 00 00 00 00
       0.0 1.0 0.0 0.0
000060 00 00 80 3f 00 00 00 00 00 00 00 00 00 00 80 3f
       1.0 0.0 0.0 1.0
000070 00 00 00 00 00 00 00 00 00 00 80 3f 00 00 00 00
       0.0 0.0 1.0 0.0
000080 00 00 80 3f 00 00 80 3f 00 00 00 00 00 00 80 3f
       1.0 1.0 0.0 1.0
000090 00 00 80 3f 00 00 00 00 00 00 80 3f 00 00 80 3f
       1.0 0.0 1.0 1.0
0000a0 00 00 00 00 00 00 80 3f 00 00 80 3f 00 00 00 00
       0.0 1.0 1.0 0.0
0000b0 00 00 80 3f 00 00 80 3f 00 00 00 00 00 00 80 3f
       1.0 1.0 0.0 1.0
0000c0 00 00 80 3f 00 00 00 00 00 00 80 3f 00 00 80 3f
       1.0 0.0 1.0 1.0
0000d0 00 00 00 00 00 00 80 3f 00 00 80 3f 00 00 00 00
       0.0 1.0 1.0 0.0
0000e0 00 00 80 3f 00 00 80 3f 00 00 00 00 00 00 80 3f
       1.0 1.0 0.0 1.0
0000f0 00 00 80 3f 00 00 00 00 00 00 80 3f 00 00 80 3f
       1.0 0.0 1.0 1.0
000100 00 00 80 3f 00 00 80 3f 00 00 80 3f 00 00 80 3f
       1.0 1.0 1.0 1.0
000110 00 00 80 3f 00 00 80 3f 00 00 80 3f 00 00 80 3f
       1.0 1.0 1.0 1.0
000120 00 00 80 3f 00 00 80 3f 00 00 80 3f 00 00 80 3f
       1.0 1.0 1.0 1.0
000130 00 00 80 3f 00 00 80 3f 00 00 80 3f 00 00 80 3f
       1.0 1.0 1.0 1.0
000140 00 00 80 3f 00 00 80 3f 00 00 80 3f 00 00 80 3f
       1.0 1.0 1.0 1.0
000150 00 00 80 3f 00 00 80 3f 00 00 80 3f 00 00 80 3f
       1.0 1.0 1.0 1.0
000160 00 00 80 3f 00 00 80 3f 00 00 80 3f 00 00 80 3f
       1.0 1.0 1.0 1.0
000170 00 00 80 3f 00 00 80 3f 00 00 80 3f 00 00 80 3f
       1.0 1.0 1.0 1.0
000180 00 00 80 3f 00 00 00 00 00 00 00 00 00 00 80 3f
       1.0 0.0 0.0 1.0
000190 00 00 00 00 00 00 00 00 00 00 80 3f 00 00 00 00
       0.0 0.0 1.0 0.0
0001a0 00 00 00 00 00 00 80 3f 00 00 00 00 00 00 00 00
       0.0 1.0 0.0 0.0
0001b0 00 00 80 3f 00 00 00 00 00 00 00 00 00 00 80 3f
       1.0 0.0 0.0 1.0
0001c0 00 00 00 00 00 00 00 00 00 00 80 3f 00 00 00 00
       0.0 0.0 1.0 0.0
0001d0 00 00 00 00 00 00 80 3f 00 00 00 00 00 00 00 00
       0.0 1.0 0.0 0.0
0001e0 00 00 80 3f 00 00 00 00 00 00 00 00 00 00 80 3f
       1.0 0.0 0.0 1.0
0001f0 00 00 00 00 00 00 00 00 00 00 80 3f 00 00 00 00
       0.0 0.0 1.0 0.0
000200 00 00 80 3f 00 00 80 3f 00 00 00 00 00 00 80 3f
       1.0 1.0 0.0 1.0
000210 00 00 80 3f 00 00 00 00 00 00 80 3f 00 00 80 3f
       1.0 0.0 1.0 1.0
000220 00 00 00 00 00 00 80 3f 00 00 80 3f 00 00 00 00
       0.0 1.0 1.0 0.0
000230 00 00 80 3f 00 00 80 3f 00 00 00 00 00 00 80 3f
       1.0 1.0 0.0 1.0
000240 00 00 80 3f 00 00 00 00 00 00 80 3f 00 00 80 3f
       1.0 0.0 1.0 1.0
000250 00 00 00 00 00 00 80 3f 00 00 80 3f 00 00 00 00
       0.0 1.0 1.0 0.0
000260 00 00 80 3f 00 00 80 3f 00 00 00 00 00 00 80 3f
       1.0 1.0 0.0 1.0
000270 00 00 80 3f 00 00 00 00 00 00 80 3f 00 00 80 3f
       1.0 0.0 1.0 1.0
000280 00 00 80 3f 00 00 80 3f 00 00 80 3f 00 00 80 3f
       1.0 1.0 1.0 1.0
000290 00 00 80 3f 00 00 80 3f 00 00 80 3f 00 00 80 3f
       1.0 1.0 1.0 1.0
0002a0 00 00 80 3f 00 00 80 3f 00 00 80 3f 00 00 80 3f
       1.0 1.0 1.0 1.0
0002b0 00 00 80 3f 00 00 80 3f 00 00 80 3f 00 00 80 3f
       1.0 1.0 1.0 1.0
0002c0 00 00 80 3f 00 00 80 3f 00 00 80 3f 00 00 80 3f
       1.0 1.0 1.0 1.0
0002d0 00 00 80 3f 00 00 80 3f 00 00 80 3f 00 00 80 3f
       1.0 1.0 1.0 1.0
0002e0 00 00 80 3f 00 00 80 3f 00 00 80 3f 00 00 80 3f
       1.0 1.0 1.0 1.0
0002f0 00 00 80 3f 00 00 80 3f 00 00 80 3f 00 00 80 3f
       1.0 1.0 1.0 1.0
000300 00 00 80 3f 00 00 00 00 00 00 00 00 00 00 80 3f
       1.0 0.0 0.0 1.0
000310 00 00 00 00 00 00 00 00 00 00 80 3f 00 00 00 00
       0.0 0.0 1.0 0.0
000320 00 00 00 00 00 00 80 3f 00 00 00 00 00 00 00 00
       0.0 1.0 0.0 0.0
000330 00 00 80 3f 00 00 00 00 00 00 00 00 00 00 80 3f
       1.0 0.0 0.0 1.0
000340 00 00 00 00 00 00 00 00 00 00 80 3f 00 00 00 00
       0.0 0.0 1.0 0.0
000350 00 00 00 00 00 00 80 3f 00 00 00 00 00 00 00 00
       0.0 1.0 0.0 0.0
000360 00 00 80 3f 00 00 00 00 00 00 00 00 00 00 80 3f
       1.0 0.0 0.0 1.0
000370 00 00 00 00 00 00 00 00 00 00 80 3f 00 00 00 00
       0.0 0.0 1.0 0.0
000380 00 00 80 3f 00 00 80 3f 00 00 00 00 00 00 80 3f
       1.0 1.0 0.0 1.0
000390 00 00 80 3f 00 00 00 00 00 00 80 3f 00 00 80 3f
       1.0 0.0 1.0 1.0
0003a0 00 00 00 00 00 00 80 3f 00 00 80 3f 00 00 00 00
       0.0 1.0 1.0 0.0
0003b0 00 00 80 3f 00 00 80 3f 00 00 00 00 00 00 80 3f
       1.0 1.0 0.0 1.0
0003c0 00 00 80 3f 00 00 00 00 00 00 80 3f 00 00 80 3f
       1.0 0.0 1.0 1.0
0003d0 00 00 00 00 00 00 80 3f 00 00 80 3f 00 00 00 00
       0.0 1.0 1.0 0.0
0003e0 00 00 80 3f 00 00 80 3f 00 00 00 00 00 00 80 3f
       1.0 1.0 0.0 1.0
0003f0 00 00 80 3f 00 00 00 00 00 00 80 3f 00 00 80 3f
       1.0 0.0 1.0 1.0

_transform._transforms.1.autoregressive_net.blocks.0.linear_layers.1.weight f4 [32, 32]
000000 f3 1c d7 3d f6 0f 26 3a 0d fc 7b 3a a5 c1 41 3d
       0.105035685 0.0006334776 0.00096124486 0.047303814
000010 0b 47 34 3a 28 08 53 ba 29 19 cd bb 7d f4 35 3a
       0.00068770413 -0.00080502266 -0.006259103 0.00069410336
000020 8a f1 4d 3a 2a ff 7b 3a 48 71 bf 38 4d 5f 73 39
       0.00078561215 0.00096129125 9.12869e-05 0.00023209788
000030 34 67 6c 3d 01 c8 dd b8 d3 ba 2f 3a bf b3 ef b9
       0.05771561 -0.00010575355 0.0006703559 -0.00045719554
000040 5d 33 ef b9 38 39 43 b8 12 ae 07 3d ff e0 55 39
       -0.000456239 -4.6544912e-05 0.03312499 0.0002039708
000050 6f d1 37 ba 81 42 67 3d e8 47 3d 3a 7d 05 1b ba
       -0.0007012104 0.056459907 0.00072204927 -0.00059135986
000060 84 9d 1a 3d 59 68 78 ba 1b f9 d8 39 7f 34 27 3e
       0.037747875 -0.0009475998 0.00041384329 0.1632862
000070 01 84 54 3a 0f 7d 05 3a a0 80 4c 3d a0 34 ac b9
       0.00081068283 0.00050921825 0.049927354 -0.00032845605
000080 99 db 64 bd 77 09 14 3a 84 f0 b9 38 46 72 94 bc
       -0.055873487 0.00056471623 8.866287e-05 -0.018120896
000090 c4 c7 15 bf e8 1f 43 ba 44 52 26 bc be 55 3a bf
       -0.58507943 -0.0007443414 -0.01015145 -0.7278708
0000a0 80 6e 33 b9 63 40 3f 3a fe 0d f2 3e f9 ef ec b9
       -0.00017111935 0.0007295666 0.472763 -0.0004519222
0000b0 ac 98 0e be 56 96 bd be ee b5 0e ba 09 24 d7 38
       -0.13925427 -0.3702876 -0.000544398 0.00010258711
0000c0 a4 35 35 3f cb ab d9 39 43 e6 ea bc 80 86 c9 bf
       0.70784974 0.0004151746 -0.02867425 -1.5744171
0000d0 ee 04 a0 38 a2 2a eb 3b 67 e4 a4 bf 40 31 7c b9
       7.630313e-05 0.007176713 -1.2882203 -0.0002405094
0000e0 e6 6b 25 bc 0f 53 88 3f ec 06 65 ba ea ab 36 bd
       -0.010096526 1.0650347 -0.0008736688 -0.044597544
0000f0 96 70 b9 be 98 3a 44 39 8d e2 23 3d 46 4a 87 3f
       -0.3621871 0.00018713844 0.040010978 1.0569541
000100 17 bc 06 be 36 08 81 39 4a d8 30 be ff 75 e5 bd
       -0.13157688 0.00024610915 -0.17270008 -0.112041466
000110 49 d0 42 be a7 66 c6 bc 13 b8 8c bd 9f 12 64 bf
       -0.19024767 -0.02421887 -0.06871047 -0.89090914
000120 20 56 9d bd 1f 17 d0 39 cc c5 96 bb 50 8a 68 bd
       -0.07682443 0.00039690078 -0.004601216 -0.05677253
000130 10 b9 50 bd b6 e8 6c bd f9 14 1b bd 59 69 0e 39
       -0.05095774 -0.057839118 -0.037861798 0.0001358142
000140 05 91 16 3f 00 4f 15 bd bd b9 98 bd 70 46 70 be
       0.5881503 -0.036452293 -0.07457302 -0.2346437
000150 e2 fc 83 bf b6 30 94 bd 3d e8 c4 3c d4 d4 68 3e
       -1.0311549 -0.072358534 0.024036521 0.22737437
000160 2e 37 85 bd b2 8c 99 be 12 e8 a3 3e 53 be 2c bd
       -0.06504665 -0.29990155 0.32012993 -0.042173695
000170 7e cb 8b 3d fe 89 28 bd 7e f3 ce bd 3c f7 7c bf
       0.068259224 -0.041147225 -0.10105036 -0.9881475
000180 62 8d b5 3d f8 af 4c 39 55 01 d7 b9 ce 3a 83 3d
       0.08864857 0.0001952051 -0.00041008988 0.064077005
000190 da 05 79 ba c7 27 c4 b9 82 6e d3 3b 67 06 0c 38
       -0.0009499468 -0.0003741367 0.0064523825 3.3384564e-05
0001a0 73 0b 5a 3a d6 b9 4f ba 19 94 0c b9 6d 87 6b 38
       0.0008317746 -0.0007924115 -0.00013406611 5.615449e-05
0001b0 85 87 6d 3d ad 02 34 3a fc e9 37 3a 61 9d 6f b9
       0.05799057 0.0006866854 0.00070157624 -0.00022851444
0001c0 19 84 f3 b6 8c 0c 82 38 00 a4 67 3d 9e 2b 52 39
       -7.2573425e-06 6.20122e-05 0.056552887 0.0002004341
0001d0 0f ed 66 b9 d8 f2 0e 3d f8 c6 53 ba aa 53 1b 3a
       -0.0002202282 0.034899563 -0.000807866 0.00059252477
0001e0 3b 41 4d 3d 24 1b 7d 3a 9c 38 e1 39 7d 05 15 bd
       0.050111037 0.00096552284 0.00042957522 -0.036382187
0001f0 b1 c5 74 ba cb 5e 6a ba a8 8e f3 3d 59 51 18 b9
       -0.00093373196 -0.0008940517 0.11892444 -0.00014526154
000200 df 45 78 bd 78 6a f3 b9 d0 4f e0 39 ee b9 9a bc
       -0.06061351 -0.00046427897 0.00042784074 -0.018887486
000210 87 dc 5d 3f d4 2b f4 39 77 6f 7a 3c d0 49 eb bd
       0.86664623 0.0004657196 0.015285364 -0.11488688
000220 d9 42 81 ba de 3e e3 b9 02 f5 3a be 36 7e de b7
       -0.0009861841 -0.00043343654 -0.18257526 -2.6523234e-05
000230 d1 f3 fd bd 26 aa 62 3e 90 06 94 b9 5b 6a 1e ba
       -0.1240002 0.22135219 -0.0002823365 -0.000604307
000240 b5 ed 1d bc 05 50 be b9 58 e6 b7 bd 9c be 47 3d
       -0.009639193 -0.00036299243 -0.089794815 0.048765764
000250 f9 cf 6a 3a ac fe 1d bd c7 9d bd 3d 28 c8 6f ba
       0.0008957382 -0.038572952 0.09258609 -0.0009146952
000260 8c 79 37 bd 0e 00 5e 3e e0 90 59 ba 1f aa 9a bd
       -0.04479365 0.21679708 -0.0008299481 -0.07551979
000270 37 12 a5 3d 1b 77 d3 b8 7f 99 04 bd 57 a8 32 3f
       0.08060115 -0.00010083449 -0.032372948 0.69788116
000280 7f 60 06 be 7e 1f 4f 3a 0e 25 19 bf c8 61 f7 bd
       -0.13122748 0.0007901116 -0.59822166 -0.12079197
000290 16 65 f6 be 7b 8a 45 3c a7 9f 3f bd cd a3 14 bf
       -0.48123997 0.012056942 -0.046783116 -0.5806244
0002a0 37 50 54 bd f4 6d ef b8 27 32 de be e5 49 09 bd
       -0.05183431 -0.000114168884 -0.43397638 -0.033517737
0002b0 11 cd 05 bd 7e b0 54 be 02 4c 21 bd ac c6 04 3a
       -0.03266627 -0.20770451 -0.039379127 0.0005065005
0002c0 21 7f 03 3f 17 29 69 3d 7d d1 a1 bd 36 a7 ab be
       0.5136586 0.056923952 -0.07901285 -0.3352601
0002d0 7b 0f fa bf ab 9e a0 bd 91 cc f3 be 96 df af 3d
       -1.9535974 -0.078427635 -0.4761701 0.085875675
0002e0 d7 e5 88 bd c4 10 00 bf 21 c3 58 be d8 d5 1b bd
       -0.066844635 -0.5002558 -0.21168186 -0.038045734
0002f0 66 05 f6 3d 4a 6d 46 be c8 fb b6 bd 6f 28 9a bf
       0.120127484 -0.19377628 -0.08934742 -1.2043589
000300 8d 55 29 3e 73 10 a4 38 01 5d 66 3a 0a 94 92 3c
       0.16536541 7.823193e-05 0.00087876624 0.017892856
000310 cc c7 7c 3a 8c e0 08 3a 76 d8 d9 3d 09 be 52 3a
       0.0009642809 0.00052214484 0.1063699 0.00080391817
000320 ec 36 44 3a 4e 2a 05 b9 bf a8 1e ba 3c 55 50 ba
       0.00074849906 -0.00012699628 -0.0006052367 -0.0007947271
000330 91 3f 16 bd 63 5e f4 39 07 39 d0 39 9e 85 a8 39
       -0.036681715 0.0004660963 0.0003971534 0.0003214301
000340 a0 d2 d3 38 21 04 a2 b9 a7 44 05 3e a2 d9 38 39
       0.00010100496 -0.00030902124 0.1301447 0.00017628682
000350 0f fb a6 b9 c1 31 69 3d e4 d3 4a ba 73 eb 77 ba
       -0.0003184904 0.056932215 -0.00077372626 -0.0009457387
000360 e1 35 85 3d 19 4c f5 b9 36 d6 76 39 57 d4 cf 3d
       0.06504417 -0.0004678674 0.00023540188 0.101479225
000370 98 e2 4b 39 29 b9 2b 3a 88 0c 7f 3d a6 17 1c b9
       0.00019444001 0.00065507233 0.06226781 -0.00014886129
000380 56 6e ef 3d 0d 14 9d 39 f8 51 be 39 54 74 19 3e
       0.11690967 0.00029960313 0.00036300696 0.14985782
000390 19 0c 43 40 bf f9 81 3a 36 0b 82 3d 58 97 5b bf
       3.0476134 0.0009916349 0.063497946 -0.8577781
0003a0 c7 56 82 ba 84 80 a2 b7 77 cf ff bd 76 d8 75 ba
       -0.0009944075 -1.937175e-05 -0.12490743 -0.00093782635
0003b0 2c 60 35 3e b4 8d 34 3f 55 d4 78 ba 77 ad 50 ba
       0.17712468 0.7052872 -0.0009492089 -0.00079604186
0003c0 31 6c c6 be 61 26 07 ba 5c 7e 05 3e a2 d3 42 bd
       -0.38754418 -0.000515556 0.13036484 -0.04756511
0003d0 34 a3 67 b9 e3 e2 97 3d 5f 06 3b be 88 a4 5b 3a
       -0.00022090675 0.07416322 -0.18264149 0.0008378704
0003e0 2a 8f d1 3d a1 0e a6 3f 84 80 1e b7 de 8a 04 3e
       0.102323845 1.2973214 -9.447456e-06 0.12943599
0003f0 cc b9 a8 3d 7c 94 54 b9 ec fd 50 3b e3 e1 ee be
       0.08238563 -0.0002027321 0.003188963 -0.46656713

_transform._transforms.1.autoregressive_net.blocks.0.linear_layers.1.bias f4 [32]
000000 b6 06 f6 3d 82 3e 7c 3e 54 41 8c be 26 cb 92 bd
       0.12012999 0.2463322 -0.2739359 -0.07167654
000010 ef 01 7a be a9 43 0d bf fd 95 d7 bc 07 55 ce 3e
       -0.244148 -0.55181366 -0.026316637 0.40299246
000020 ef 4a b4 be 81 61 d1 3d 5a 9e e8 bd 19 5e f5 3d
       -0.3521342 0.102236755 -0.11358328 0.11980838
000030 34 18 ab 3b 04 fe a1 3e 6d b8 07 3d 07 5a ea 3d
       0.005221391 0.3163911 0.033134867 0.114429526
000040 62 12 61 be c2 3b 52 be f5 2b 1c bd e8 2d 1f 3d
       -0.21979669 -0.20530608 -0.03812786 0.03886214
000050 60 d9 b8 3e 78 d6 15 3e cb 04 c2 be 5c 25 9a 3e
       0.36103344 0.14632595 -0.37894282 0.30106628
000060 ab 0f b9 bc 56 02 59 be 12 17 15 bf ba 87 1c 3b
       -0.022590479 -0.21192297 -0.5823833 0.002388461
000070 6d b1 73 be 86 56 d2 be ba 42 c1 3c 56 9a e5 3d
       -0.23798151 -0.41081637 0.023591388 0.11211078

_transform._transforms.1.autoregressive_net.blocks.0.linear_layers.1.mask f4 [32, 32]
000000 00 00 80 3f 00 00 00 00 00 00 00 00 00 00 80 3f
       1.0 0.0 0.0 1.0
000010 00 00 00 00 00 00 00 00 00 00 80 3f 00 00 00 00
       0.0 0.0 1.0 0.0
000020 00 00 00 00 00 00 80 3f 00 00 00 00 00 00 00 00
       0.0 1.0 0.0 0.0
000030 00 00 80 3f 00 00 00 00 00 00 00 00 00 00 80 3f
       1.0 0.0 0.0 1.0
000040 00 00 00 00 00 00 00 00 00 00 80 3f 00 00 00 00
       0.0 0.0 1.0 0.0
000050 00 00 00 00 00 00 80 3f 00 00 00 00 00 00 00 00
       0.0 1.0 0.0 0.0
000060 00 00 80 3f 00 00 00 00 00 00 00 00 00 00 80 3f
       1.0 0.0 0.0 1.0
000070 00 00 00 00 00 00 00 00 00 00 80 3f 00 00 00 00
       0.0 0.0 1.0 0.0
000080 00 00 80 3f 00 00 80 3f 00 00 00 00 00 00 80 3f
       1.0 1.0 0.0 1.0
000090 00 00 80 3f 00 00 00 00 00 00 80 3f 00 00 80 3f
       1.0 0.0 1.0 1.0
0000a0 00 00 00 00 00 00 80 3f 00 00 80 3f 00 00 00 00
       0.0 1.0 1.0 0.0
0000b0 00 00 80 3f 00 00 80 3f 00 00 00 00 00 00 80 3f
       1.0 1.0 0.0 1.0
0000c0 00 00 80 3f 00 00 00 00 00 00 80 3f 00 00 80 3f
       1.0 0.0 1.0 1.0
0000d0 00 00 00 00 00 00 80 3f 00 00 80 3f 00 00 00 00
       0.0 1.0 1.0 0.0
0000e0 00 00 80 3f 00 00 80 3f 00 00 00 00 00 00 80 3f
       1.0 1.0 0.0 1.0
0000f0 00 00 80 3f 00 00 00 00 00 00 80 3f 00 00 80 3f
       1.0 0.0 1.0 1.0
000100 00 00 80 3f 00 00 80 3f 00 00 80 3f 00 00 80 3f
       1.0 1.0 1.0 1.0
000110 00 00 80 3f 00 00 80 3f 00 00 80 3f 00 00 80 3f
       1.0 1.0 1.0 1.0
000120 00 00 80 3f 00 00 80 3f 00 00 80 3f 00 00 80 3f
       1.0 1.0 1.0 1.0
000130 00 00 80 3f 00 00 80 3f 00 00 80 3f 00 00 80 3f
       1.0 1.0 1.0 1.0
000140 00 00 80 3f 00 00 80 3f 00 00 80 3f 00 00 80 3f
       1.0 1.0 1.0 1.0
000150 00 00 80 3f 00 00 80 3f 00 00 80 3f 00 00 80 3f
       1.0 1.0 1.0 1.0
000160 00 00 80 3f 00 00 80 3f 00 00 80 3f 00 00 80 3f
       1.0 1.0 1.0 1.0
000170 00 00 80 3f 00 00 80 3f 00 00 80 3f 00 00 80 3f
       1.0 1.0 1.0 1.0
000180 00 00 80 3f 00 00 00 00 00 00 00 00 00 00 80 3f
       1.0 0.0 0.0 1.0
000190 00 00 00 00 00 00 00 00 00 00 80 3f 00 00 00 00
       0.0 0.0 1.0 0.0
0001a0 00 00 00 00 00 00 80 3f 00 00 00 00 00 00 00 00
       0.0 1.0 0.0 0.0
0001b0 00 00 80 3f 00 00 00 00 00 00 00 00 00 00 80 3f
       1.0 0.0 0.0 1.0
0001c0 00 00 00 00 00 00 00 00 00 00 80 3f 00 00 00 00
       0.0 0.0 1.0 0.0
0001d0 00 00 00 00 00 00 80 3f 00 00 00 00 00 00 00 00
       0.0 1.0 0.0 0.0
0001e0 00 00 80 3f 00 00 00 00 00 00 00 00 00 00 80 3f
       1.0 0.0 0.0 1.0
0001f0 00 00 00 00 00 00 00 00 00 00 80 3f 00 00 00 00
       0.0 0.0 1.0 0.0
000200 00 00 80 3f 00 00 80 3f 00 00 00 00 00 00 80 3f
       1.0 1.0 0.0 1.0
000210 00 00 80 3f 00 00 00 00 00 00 80 3f 00 00 80 3f
       1.0 0.0 1.0 1.0
000220 00 00 00 00 00 00 80 3f 00 00 80 3f 00 00 00 00
       0.0 1.0 1.0 0.0
000230 00 00 80 3f 00 00 80 3f 00 00 00 00 00 00 80 3f
       1.0 1.0 0.0 1.0
000240 00 00 80 3f 00 00 00 00 00 00 80 3f 00 00 80 3f
       1.0 0.0 1.0 1.0
000250 00 00 00 00 00 00 80 3f 00 00 80 3f 00 00 00 00
       0.0 1.0 1.0 0.0
000260 00 00 80 3f 00 00 80 3f 00 00 00 00 00 00 80 3f
       1.0 1.0 0.0 1.0
000270 00 00 80 3f 00 00 00 00 00 00 80 3f 00 00 80 3f
       1.0 0.0 1.0 1.0
000280 00 00 80 3f 00 00 80 3f 00 00 80 3f 00 00 80 3f
       1.0 1.0 1.0 1.0
000290 00 00 80 3f 00 00 80 3f 00 00 80 3f 00 00 80 3f
       1.0 1.0 1.0 1.0
0002a0 00 00 80 3f 00 00 80 3f 00 00 80 3f 00 00 80 3f
       1.0 1.0 1.0 1.0
0002b0 00 00 80 3f 00 00 80 3f 00 00 80 3f 00 00 80 3f
       1.0 1.0 1.0 1.0
0002c0 00 00 80 3f 00 00 80 3f 00 00 80 3f 00 00 80 3f
       1.0 1.0 1.0 1.0
0002d0 00 00 80 3f 00 00 80 3f 00 00 80 3f 00 00 80 3f
       1.0 1.0 1.0 1.0
0002e0 00 00 80 3f 00 00 80 3f 00 00 80 3f 00 00 80 3f
       1.0 1.0 1.0 1.0
0002f0 00 00 80 3f 00 00 80 3f 00 00 80 3f 00 00 80 3f
       1.0 1.0 1.0 1.0
000300 00 00 80 3f 00 00 00 00 00 00 00 00 00 00 80 3f
       1.0 0.0 0.0 1.0
000310 00 00 00 00 00 00 00 00 00 00 80 3f 00 00 00 00
       0.0 0.0 1.0 0.0
000320 00 00 00 00 00 00 80 3f 00 00 00 00 00 00 00 00
       0.0 1.0 0.0 0.0
000330 00 00 80 3f 00 00 00 00 00 00 00 00 00 00 80 3f
       1.0 0.0 0.0 1.0
000340 00 00 00 00 00 00 00 00 00 00 80 3f 00 00 00 00
       0.0 0.0 1.0 0.0
000350 00 00 00 00 00 00 80 3f 00 00 00 00 00 00 00 00
       0.0 1.0 0.0 0.0
000360 00 00 80 3f 00 00 00 00 00 00 00 00 00 00 80 3f
       1.0 0.0 0.0 1.0
000370 00 00 00 00 00 00 00 00 00 00 80 3f 00 00 00 00
       0.0 0.0 1.0 0.0
000380 00 00 80 3f 00 00 80 3f 00 00 00 00 00 00 80 3f
       1.0 1.0 0.0 1.0
000390 00 00 80 3f 00 00 00 00 00 00 80 3f 00 00 80 3f
       1.0 0.0 1.0 1.0
0003a0 00 00 00 00 00 00 80 3f 00 00 80 3f 00 00 00 00
       0.0 1.0 1.0 0.0
0003b0 00 00 80 3f 00 00 80 3f 00 00 00 00 00 00 80 3f
       1.0 1.0 0.0 1.0
0003c0 00 00 80 3f 00 00 00 00 00 00 80 3f 00 00 80 3f
       1.0 0.0 1.0 1.0
0003d0 00 00 00 00 00 00 80 3f 00 00 80 3f 00 00 00 00
       0.0 1.0 1.0 0.0
0003e0 00 00 80 3f 00 00 80 3f 00 00 00 00 00 00 80 3f
       1.0 1.0 0.0 1.0
0003f0 00 00 80 3f 00 00 00 00 00 00 80 3f 00 00 80 3f
       1.0 0.0 1.0 1.0

_transform._transforms.1.autoregressive_net.blocks.1.linear_layers.0.weight f4 [32, 32]
000000 d4 0a c3 3d 78 f1 e9 bb 90 9c 2e 3e 2e a9 9a bd
       0.0952355 -0.007139381 0.17051911 -0.075518
000010 b2 2b 01 be 73 23 8e bc 65 f4 d6 bd 3d b2 2c be
       -0.12614325 -0.017350888 -0.10495833 -0.16864868
000020 ef 77 e7 bd 9d 55 2d be 64 4e 8d 3d 47 c0 61 bd
       -0.113021724 -0.1692719 0.068997175 -0.05511501
000030 c4 93 a8 3c c2 ee 18 bd 13 64 02 3e 89 59 7a be
       0.020578273 -0.037337072 0.12733488 -0.24448217
000040 a4 d6 80 bc 98 e1 cb 3d 3f 9a 85 3d ac 54 e0 3d
       -0.015727349 0.09955138 0.06523561 0.1095365
000050 b2 4d 1b 3d 19 3d a2 3b 36 f0 a1 bc 23 5c dc 3d
       0.037915893 0.004951131 -0.019767862 0.10759761
000060 dc dc f0 bd cc 40 30 3e ef b4 e7 bc 1a a6 5e be
       -0.117608756 0.17212218 -0.028284518 -0.2174305
000070 33 91 85 bd af 5d d4 3c cd 0c e5 3d b2 74 28 be
       -0.06521835 0.025923578 0.11184082 -0.16450766
000080 22 ab b9 bd 2a bd 88 bd ee 94 02 be d7 d1 5d 3d
       -0.09065844 -0.06676705 -0.12752125 0.054155197
000090 65 b5 db 3b 3e 3e 81 3d 09 3b 3e be f8 58 76 3d
       0.0067049735 0.063107 -0.18577208 0.06014344
0000a0 e3 39 58 bd 84 de 53 bd 68 c5 4e be 59 dd ce 3a
       -0.05278958 -0.05172588 -0.20192492 0.001578252
0000b0 2b 41 8c bd 57 1f 15 3c 8b cf 15 be e5 85 d1 3d
       -0.06848367 0.00910171 -0.14629953 0.102306165
0000c0 02 c6 a0 bd 65 a1 98 bc 9b 67 e0 bd e5 c2 97 bd
       -0.07850267 -0.018631646 -0.10957261 -0.0741022
0000d0 53 5c 04 be ab 18 bc 3d 1f c2 00 3e 53 d8 0c bd
       -0.12925844 0.091843925 0.12574051 -0.03438599
0000e0 41 b5 34 be 58 e1 2c 3e 37 23 08 be b2 ec 02 be
       -0.17647268 0.16882837 -0.13294683 -0.12785605
0000f0 7e 5f ca 3b c7 7e de 3c 09 f2 ce 3d 32 56 1e be
       0.0061759343 0.027160062 0.10104758 -0.15462568
000100 4e 22 cf 3d 89 37 c6 bd 36 29 7c bd be c3 45 3d
       0.10113965 -0.09678561 -0.06156274 0.048282377
000110 87 73 90 3c 89 56 00 3e 4d c7 ca bc 5c 3e 22 be
       0.017633213 0.1253301 -0.024753237 -0.158441
000120 13 fd 30 be ce 3c a6 bd 7d ed a9 3d ec d3 c8 bd
       -0.1728404 -0.08117066 0.082972504 -0.09806046
000130 a3 a5 3e 3e 83 8b b4 bd b5 74 3e be 42 e8 a4 bd
       0.18617873 -0.08815672 -0.18599208 -0.08052112
000140 ee 64 02 bc 27 37 98 3c 87 0d 91 be 37 fc 59 3d
       -0.007958634 0.018580986 -0.28330633 0.053219046
000150 7e 07 01 be a6 c3 7c bc c8 9d 88 bd cf df 32 be
       -0.12600514 -0.015427506 -0.066707194 -0.17468189
000160 eb ad 2e be 28 ea eb bd d9 3a 76 3d d9 79 c6 bd
       -0.17058532 -0.11519271 0.060114715 -0.09691209
000170 58 3a 90 bd 09 2c 80 be 07 ce 06 be 35 88 7e b9
       -0.07042378 -0.25033596 -0.1316453 -0.00024274069
000180 6b 05 58 bd c5 c1 b1 3d 7a 48 be bd c1 f1 40 be
       -0.052739542 0.08679537 -0.092911676 -0.18842222
000190 50 39 0e be 18 9d 8e 3d 7e 12 91 bd ac 1a e9 3d
       -0.1388905 0.06963557 -0.07083605 0.113820404
0001a0 d2 ff d2 3d 76 9b 4c bd ce f0 bf 3c cc 4d 0a 3e
       0.103027 -0.049952947 0.023430254 0.1350624
0001b0 e3 fc 2b bd 10 e5 d8 3d 7f a4 3c bd aa e9 2c bb
       -0.04198922 0.10590565 -0.046055313 -0.0026384392
0001c0 9b b2 0c 3e 51 10 14 be 08 19 27 be c8 01 3b 3d
       0.13740008 -0.14459349 -0.16318142 0.045655996
0001d0 95 12 db bb 6a fc 3f bd e6 10 4b bd ab 6c da 3d
       -0.0066855648 -0.04687158 -0.049576662 0.10665258
0001e0 97 16 e4 bd dc d3 17 3e c9 ab 07 be a2 4e 0c be
       -0.11137121 0.14826912 -0.13249125 -0.13701871
0001f0 df 51 eb bc 0e 51 d2 3b 30 ae 7b be e3 23 e7 bd
       -0.028725563 0.006418354 -0.24578166 -0.11286142
000200 9d 7b 14 bf 43 95 22 3f 5b 21 72 3d 0b 33 14 3d
       -0.5800112 0.63509005 0.05911384 0.03618149
000210 3d d0 59 bf 1d c5 6a bd 4e cf 30 bf 98 07 0d 3f
       -0.8508337 -0.057316888 -0.6906632 0.5508971
000220 9f 28 21 be 07 a4 54 bf ec 77 85 bf 20 1c 17 3e
       -0.15738152 -0.83062786 -1.0427222 0.14756823
000230 49 b4 c6 3d bb 49 04 3f 79 08 c6 3d cd 72 62 bc
       0.097023554 0.51675004 0.09669585 -0.013821316
000240 37 5f 27 bf 90 bc 96 3d 8a c6 62 be 07 4c 01 3f
       -0.6537966 0.07360184 -0.22146049 0.50506634
000250 d2 55 10 be ed c8 81 3d 4c f8 30 3f e0 93 29 be
       -0.14095238 0.06337152 0.6912887 -0.16560316
000260 8b e3 3b bf 57 3c 4d bd 46 31 ec 3c 08 06 e7 bd
       -0.7339408 -0.050106373 0.02883209 -0.11280447
000270 53 bc b3 3e 14 e5 f0 bd 6d 5a f2 be df ac 8e bd
       0.35104617 -0.11762443 -0.47334614 -0.06966566
000280 5b 43 5a 3e 12 89 0d c0 e2 f2 8d be 07 4c 7d bc
       0.21314757 -2.211491 -0.27724367 -0.015460021
000290 de ff 29 40 09 2c 0f bf 02 17 77 3e 3f fe 1d 3f
       2.656242 -0.5592657 0.2412987 0.61716074
0002a0 ea e8 17 3f d4 19 1f be ba c1 98 bd 16 ad a7 3e
       0.59339774 -0.15537196 -0.074588254 0.32749242
0002b0 08 2a e3 bd be bb 79 3f 3a db b3 3e 84 c0 ad 3e
       -0.11092001 0.97552097 0.35128194 0.3393594
0002c0 8d ec 10 3f c3 6a 98 be 48 72 37 bd e3 f3 c4 3d
       0.5661095 -0.29768953 -0.04478672 0.0961683
0002d0 e9 02 1b 3e 34 9c e6 3d c1 23 24 3f ff 8c f2 be
       0.15137829 0.11260262 0.64117056 -0.47373196
0002e0 d0 aa f3 be bf 58 a8 3d 10 15 ba 3c c9 94 84 3f
       -0.47591257 0.08220052 0.022715122 1.0357906
0002f0 58 6d 72 bd a8 e7 85 bf 3b e2 f9 3d 92 0e 73 bf
       -0.05918631 -1.0461321 0.12201353 -0.9494411
000300 f7 9f a1 be 14 de ed bd 85 48 ad bb 04 7a 80 be
       -0.31567356 -0.11614624 -0.005288186 -0.2509309
000310 ee d9 27 be 89 8a 2f 3d e5 23 a2 be 03 29 31 bd
       -0.16391727 0.042856727 -0.3166801 -0.043252002
000320 4c d1 08 bd 2d be 69 be 2a ab d9 bd f0 ea 93 3c
       -0.033402726 -0.22826453 -0.1062835 0.018056363
000330 3e ae c9 bc 47 23 0e be 7c 1b 03 3e d7 d4 0c be
       -0.024619218 -0.13880645 0.12803453 -0.13753067
000340 ad 49 0e bd 7e b7 34 3e 86 e9 03 be d9 23 01 3d
       -0.03473823 0.17648122 -0.12882051 0.031528328
000350 e7 75 21 3d 4a 01 bc be 7c 69 32 3e ed ec 02 be
       0.03941908 -0.36719733 0.17423052 -0.12785693
000360 fd b8 83 bd 37 7d e3 3d 1b b0 2f 3e 65 0f 2b 3e
       -0.06431768 0.11107867 0.17157023 0.16705091
000370 d8 86 24 3e aa 25 ca 3d c6 d5 cc be 17 1e dc 3d
       0.16067064 0.09870465 -0.40006846 0.10747927
000380 a0 71 44 3e 05 11 a0 3d 61 b4 f4 bd ba d3 4c bd
       0.1918397 0.07815746 -0.11948467 -0.050006606
000390 1b 5b 44 bf 52 7c 12 be 22 17 f4 3d 81 01 89 3b
       -0.76701516 -0.14305237 0.11918475 0.0041810875
0003a0 f2 bc 7e 3d 70 e8 d2 3e f1 cd 9d 3f 35 58 ab 3d
       0.06219191 0.4119296 1.2328473 0.083664335
0003b0 5c 0f f7 3e 1d f3 51 bf dc 15 f7 3d 55 a8 b5 bb
       0.48253906 -0.82011586 0.12064716 -0.0055437484
0003c0 cf 35 bf bd 3e cc db 3c ca da 1e bc ef 9a be be
       -0.09336435 0.026830789 -0.009695718 -0.3722758
0003d0 30 93 31 3e c1 02 63 3e 63 c0 0c c0 80 5a 17 be
       0.17341304 0.2216902 -2.1992424 -0.14780617
0003e0 4d 1e 36 3f 29 ae 8d 3e c8 99 d5 bd 62 aa 6a 3e
       0.71139985 0.27671936 -0.10429722 0.22916558
0003f0 4b ee 4c 3f 8f ba ed bc 03 48 18 3f da 99 89 bf
       0.80051106 -0.029019622 0.5948488 -1.0750077

_transform._transforms.1.autoregressive_net.blocks.1.linear_layers.0.bias f4 [32]
000000 6d aa b7 bd f3 e1 6a be 79 e4 41 bd 52 ee f5 bb
       -0.08968053 -0.22937755 -0.04733703 -0.0075052166
000010 a9 25 87 bf fa d5 fa bd 16 8b 91 bd 9f dc c5 bc
       -1.0558368 -0.12247844 -0.07106607 -0.024153052
000020 20 13 21 3e c7 13 16 bd ee 37 6b be be ef 32 be
       0.15729952 -0.036639955 -0.22970554 -0.17474267
000030 2c 9a 06 be 99 7d 5c bf 1e 96 40 be eb 4a e8 bd
       -0.1314475 -0.86129147 -0.18807265 -0.113424145
000040 e2 a8 4f bc 00 23 3a bf 6e db be bd 39 c1 4e be
       -0.012674542 -0.72709656 -0.09319197 -0.20190896
000050 31 46 8c 3f 8e 9a 4f bd 6f f6 53 3b fa f6 36 be
       1.0958921 -0.050684504 0.003234293 -0.17867652
000060 21 03 f2 bd 1d 0a 05 bf 5e 70 ab bd 4a b8 02 be
       -0.11817003 -0.51968557 -0.08371042 -0.12765613
000070 3a 0a ef be 00 27 35 3e d1 63 45 bd 63 88 12 bf
       -0.4668749 0.17690659 -0.048190895 -0.5723936

_transform._transforms.1.autoregressive_net.blocks.1.linear_layers.0.mask f4 [32, 32]
000000 00 00 80 3f 00 00 00 00 00 00 00 00 00 00 80 3f
       1.0 0.0 0.0 1.0
000010 00 00 00 00 00 00 00 00 00 00 80 3f 00 00 00 00
       0.0 0.0 1.0 0.0
000020 00 00 00 00 00 00 80 3f 00 00 00 00 00 00 00 00
       0.0 1.0 0.0 0.0
000030 00 00 80 3f 00 00 00 00 00 00 00 00 00 00 80 3f
       1.0 0.0 0.0 1.0
000040 00 00 00 00 00 00 00 00 00 00 80 3f 00 00 00 00
       0.0 0.0 1.0 0.0
000050 00 00 00 00 00 00 80 3f 00 00 00 00 00 00 00 00
       0.0 1.0 0.0 0.0
000060 00 00 80 3f 00 00 00 00 00 00 00 00 00 00 80 3f
       1.0 0.0 0.0 1.0
000070 00 00 00 00 00 00 00 00 00 00 80 3f 00 00 00 00
       0.0 0.0 1.0 0.0
000080 00 00 80 3f 00 00 80 3f 00 00 00 00 00 00 80 3f
       1.0 1.0 0.0 1.0
000090 00 00 80 3f 00 00 00 00 00 00 80 3f 00 00 80 3f
       1.0 0.0 1.0 1.0
0000a0 00 00 00 00 00 00 80 3f 00 00 80 3f 00 00 00 00
       0.0 1.0 1.0 0.0
0000b0 00 00 80 3f 00 00 80 3f 00 00 00 00 00 00 80 3f
       1.0 1.0 0.0 1.0
0000c0 00 00 80 3f 00 00 00 00 00 00 80 3f 00 00 80 3f
       1.0 0.0 1.0 1.0
0000d0 00 00 00 00 00 00 80 3f 00 00 80 3f 00 00 00 00
       0.0 1.0 1.0 0.0
0000e0 00 00 80 3f 00 00 80 3f 00 00 00 00 00 00 80 3f
       1.0 1.0 0.0 1.0
0000f0 00 00 80 3f 00 00 00 00 00 00 80 3f 00 00 80 3f
       1.0 0.0 1.0 1.0
000100 00 00 80 3f 00 00 80 3f 00 00 80 3f 00 00 80 3f
       1.0 1.0 1.0 1.0
000110 00 00 80 3f 00 00 80 3f 00 00 80 3f 00 00 80 3f
       1.0 1.0 1.0 1.0
000120 00 00 80 3f 00 00 80 3f 00 00 80 3f 00 00 80 3f
       1.0 1.0 1.0 1.0
000130 00 00 80 3f 00 00 80 3f 00 00 80 3f 00 00 80 3f
       1.0 1.0 1.0 1.0
000140 00 00 80 3f 00 00 80 3f 00 00 80 3f 00 00 80 3f
       1.0 1.0 1.0 1.0
000150 00 00 80 3f 00 00 80 3f 00 00 80 3f 00 00 80 3f
       1.0 1.0 1.0 1.0
000160 00 00 80 3f 00 00 80 3f 00 00 80 3f 00 00 80 3f
       1.0 1.0 1.0 1.0
000170 00 00 80 3f 00 00 80 3f 00 00 80 3f 00 00 80 3f
       1.0 1.0 1.0 1.0
000180 00 00 80 3f 00 00 00 00 00 00 00 00 00 00 80 3f
       1.0 0.0 0.0 1.0
000190 00 00 00 00 00 00 00 00 00 00 80 3f 00 00 00 00
       0.0 0.0 1.0 0.0
0001a0 00 00 00 00 00 00 80 3f 00 00 00 00 00 00 00 00
       0.0 1.0 0.0 0.0
0001b0 00 00 80 3f 00 00 00 00 00 00 00 00 00 00 80 3f
       1.0 0.0 0.0 1.0
0001c0 00 00 00 00 00 00 00 00 00 00 80 3f 00 00 00 00
       0.0 0.0 1.0 0.0
0001d0 00 00 00 00 00 00 80 3f 00 00 00 00 00 00 00 00
       0.0 1.0 0.0 0.0
0001e0 00 00 80 3f 00 00 00 00 00 00 00 00 00 00 80 3f
       1.0 0.0 0.0 1.0
0001f0 00 00 00 00 00 00 00 00 00 00 80 3f 00 00 00 00
       0.0 0.0 1.0 0.0
000200 00 00 80 3f 00 00 80 3f 00 00 00 00 00 00 80 3f
       1.0 1.0 0.0 1.0
000210 00 00 80 3f 00 00 00 00 00 00 80 3f 00 00 80 3f
       1.0 0.0 1.0 1.0
000220 00 00 00 00 00 00 80 3f 00 00 80 3f 00 00 00 00
       0.0 1.0 1.0 0.0
000230 00 00 80 3f 00 00 80 3f 00 00 00 00 00 00 80 3f
       1.0 1.0 0.0 1.0
000240 00 00 80 3f 00 00 00 00 00 00 80 3f 00 00 80 3f
       1.0 0.0 1.0 1.0
000250 00 00 00 00 00 00 80 3f 00 00 80 3f 00 00 00 00
       0.0 1.0 1.0 0.0
000260 00 00 80 3f 00 00 80 3f 00 00 00 00 00 00 80 3f
       1.0 1.0 0.0 1.0
000270 00 00 80 3f 00 00 00 00 00 00 80 3f 00 00 80 3f
       1.0 0.0 1.0 1.0
000280 00 00 80 3f 00 00 80 3f 00 00 80 3f 00 00 80 3f
       1.0 1.0 1.0 1.0
000290 00 00 80 3f 00 00 80 3f 00 00 80 3f 00 00 80 3f
       1.0 1.0 1.0 1.0
0002a0 00 00 80 3f 00 00 80 3f 00 00 80 3f 00 00 80 3f
       1.0 1.0 1.0 1.0
0002b0 00 00 80 3f 00 00 80 3f 00 00 80 3f 00 00 80 3f
       1.0 1.0 1.0 1.0
0002c0 00 00 80 3f 00 00 80 3f 00 00 80 3f 00 00 80 3f
       1.0 1.0 1.0 1.0
0002d0 00 00 80 3f 00 00 80 3f 00 00 80 3f 00 00 80 3f
       1.0 1.0 1.0 1.0
0002e0 00 00 80 3f 00 00 80 3f 00 00 80 3f 00 00 80 3f
       1.0 1.0 1.0 1.0
0002f0 00 00 80 3f 00 00 80 3f 00 00 80 3f 00 00 80 3f
       1.0 1.0 1.0 1.0
000300 00 00 80 3f 00 00 00 00 00 00 00 00 00 00 80 3f
       1.0 0.0 0.0 1.0
000310 00 00 00 00 00 00 00 00 00 00 80 3f 00 00 00 00
       0.0 0.0 1.0 0.0
000320 00 00 00 00 00 00 80 3f 00 00 00 00 00 00 00 00
       0.0 1.0 0.0 0.0
000330 00 00 80 3f 00 00 00 00 00 00 00 00 00 00 80 3f
       1.0 0.0 0.0 1.0
000340 00 00 00 00 00 00 00 00 00 00 80 3f 00 00 00 00
       0.0 0.0 1.0 0.0
000350 00 00 00 00 00 00 80 3f 00 00 00 00 00 00 00 00
       0.0 1.0 0.0 0.0
000360 00 00 80 3f 00 00 00 00 00 00 00 00 00 00 80 3f
       1.0 0.0 0.0 1.0
000370 00 00 00 00 00 00 00 00 00 00 80 3f 00 00 00 00
       0.0 0.0 1.0 0.0
000380 00 00 80 3f 00 00 80 3f 00 00 00 00 00 00 80 3f
       1.0 1.0 0.0 1.0
000390 00 00 80 3f 00 00 00 00 00 00 80 3f 00 00 80 3f
       1.0 0.0 1.0 1.0
0003a0 00 00 00 00 00 00 80 3f 00 00 80 3f 00 00 00 00
       0.0 1.0 1.0 0.0
0003b0 00 00 80 3f 00 00 80 3f 00 00 00 00 00 00 80 3f
       1.0 1.0 0.0 1.0
0003c0 00 00 80 3f 00 00 00 00 00 00 80 3f 00 00 80 3f
       1.0 0.0 1.0 1.0
0003d0 00 00 00 00 00 00 80 3f 00 00 80 3f 00 00 00 00
       0.0 1.0 1.0 0.0
0003e0 00 00 80 3f 00 00 80 3f 00 00 00 00 00 00 80 3f
       1.0 1.0 0.0 1.0
0003f0 00 00 80 3f 00 00 00 00 00 00 80 3f 00 00 80 3f
       1.0 0.0 1.0 1.0
