model2_v1/epoch=50modello-N_iter4-N_features32-N_BS32-epochs250-lr0.001-val_loss1000.pth (torch, 205922 bytes, 72 tensors)

_transform._transforms.1.autoregressive_net.initial_layer.weight f4 [32, 4]
-0.0041804626 -0.27483618 -0.2015301 0.4927038 -0.012771918 -0.044069283 0.26179904 -0.14040804
-0.04027879 -0.3775941 1.366346 0.027759671 0.0010544574 -0.39087802 -0.100174606 0.23394495
0.17191267 -0.08029968 -0.38189453 -0.47879994 -0.015135472 0.6076426 1.6845635 -0.4962722
-0.008660058 0.195207 -0.1775865 -0.248792 0.014839007 -0.8533524 0.3249327 0.19354546
0.039664455 -0.3471556 2.0953863 -0.13459152 -0.0035287258 0.2293697 0.4552725 -0.18341547
0.007784394 0.6082657 -0.02080059 -0.18665802 -0.009867919 -0.07987402 -1.2460563 0.013297796
0.01420115 -0.083627164 -0.43288952 0.434891 -0.026084838 -0.29391173 -0.33392018 -0.0710091
0.0067992522 -0.32530314 -1.1065114 0.11405468 0.017201686 -0.49574733 -0.3189034 0.236121
0.0071866848 0.0050550397 -0.1561094 -0.0016254187 -0.016117664 0.4653409 0.16905276 0.40617245
-0.0056250673 0.48137945 0.39516926 0.010996163 -0.014028721 -0.341719 -0.13022858 0.44199073
0.04569377 0.20201592 -0.087066144 -0.38458592 -0.006006851 0.026403248 0.42670012 -0.13767272
0.00093473727 0.8416525 0.21700531 -0.09518838 0.004438525 -0.4074989 1.8075129 -0.44220036
0.001528759 0.46428567 0.39575696 0.13114804 -0.0025697404 0.93557876 -0.44597185 0.4267282
0.006949582 -0.638197 0.23000649 0.28539312 0.0028389902 0.31990808 0.028500319 0.44403428
-0.0033311045 -0.92969686 -0.112909794 0.31680977 0.008224217 0.11866876 -1.7658143 0.42762685
0.0015757337 -0.25834912 -0.057504654 0.33701247 -0.0053920457 -0.5872859 -0.055936515 -0.23805094
00000000: 43fc 88bb 54b7 8cbe e85d 4ebe ac43 fc3e
00000010: 4f41 51bc fe81 34bd 860a 863e 20c7 0fbe
00000020: 5ffb 24bd 0454 c1be 6de4 ae3f 4068 e33c
00000030: b835 8a3a 2a21 c8be 5828 cdbd 448f 6f3e
00000040: e009 303e 2974 a4bd ae87 c3be 4425 f5be
00000050: c5fa 77bc 778e 1b3f c79f d73f 6417 febe
00000060: eae2 0dbc 58e4 473e 3cd9 35be 54c3 7ebe
00000070: 4e1f 733c 4e75 5abf 945d a63e c830 463e
00000080: 3277 223d 61be b1be cf1a 0640 5cd2 09be
00000090: 3242 67bb e4df 6a3e 7a19 e93e 44d1 3bbe
000000a0: 3b14 ff3b 4db7 1b3f 0066 aabc 4823 3fbe
000000b0: 0dad 21bc fd94 a3bd c67e 9fbf 00df 593c
000000c0: f1ab 683c b844 abbd b2a3 ddbe 08aa de3e
000000d0: dfaf d5bc 997b 96be 96f7 aabe 386d 91bd
000000e0: 43cc de3b 228e a6be 2aa2 8dbf 8095 e93d
000000f0: 8dea 8c3c 98d2 fdbe 4e47 a3be b4c9 713e
00000100: 487e eb3b bfa4 a53b 24db 1fbe 000c d5ba
00000110: 3109 84bc 2a41 ee3e 2b1c 2d3e d6f5 cf3e
00000120: 7c52 b8bb 5e77 f63e a053 ca3e 4029 343c
00000130: b8d8 65bc cbf5 aebe a45a 05be 9c4c e23e
00000140: 6429 3b3d 43dd 4e3e bc4f b2bd 72e8 c4be
00000150: 1ed5 c4bb a04b d83c 7078 da3e 14fa 0cbe
00000160: 2809 753a 8a76 573f a436 5e3e 20f2 c2bd
00000170: 0c71 913b b2a3 d0be 955c e73f 1668 e2be
00000180: a460 c83a dab6 ed3e a8a0 ca3e ac4b 063e
00000190: 1769 28bb 1782 6f3f 6c56 e4be 1e7c da3e
000001a0: 52b9 e33b e160 23bf d286 6b3e 0c1f 923e
000001b0: 5a0e 3a3b feca a33e 8079 e93c 7658 e33e
000001c0: a94e 5abb 9d00 6ebf 403d e7bd e434 a23e
000001d0: debe 063c 9b08 f33d 3406 e2bf e8f1 da3e
000001e0: d988 ce3a 5646 84be 008a 6bbd e68c ac3e
000001f0: c2af b0bb 5e58 16bf b01d 65bd a0c3 73be

_transform._transforms.1.autoregressive_net.initial_layer.bias f4 [32]
-0.27892157 -0.126068 0.06473644 -0.12927017 -0.16779856 -0.30942512 -0.1591281 -0.70699406
-0.67353725 -0.25083703 0.3762934 -0.23163842 -0.183997 -1.0352433 -0.09793938 -0.27157688
-0.31953585 -1.0039877 -0.14550366 -0.8070435 -0.38310996 -0.31837592 -0.27638066 0.9849016
-0.13654447 -0.6273391 0.8081471 -0.16634703 -0.58900404 -1.0450366 -0.13896066 -1.1341186
00000000: cfce 8ebe f817 01be 8a94 843d 665f 04be
00000010: 63d3 2bbe f86c 9ebe 7af2 22be 90fd 34bf
00000020: f06c 2cbf b66d 80be 87a9 c03e 9f32 6dbe
00000030: b669 3cbe da82 84bf 7194 c8bd 200c 8bbe
00000040: 349a a3be ab82 80bf e9fe 14be 679a 4ebf
00000050: fd26 c4be 2b02 a3be c481 8dbe 8322 7c3f
00000060: 50d2 0bbe 4c99 20bf bae2 4e3f e056 2abe
00000070: f8c8 16bf c2c3 85bf b44b 0ebe cc2a 91bf

_transform._transforms.1.autoregressive_net.initial_layer.mask f4 [32, 4]
1.0 0.0 0.0 0.0 1.0 1.0 0.0 0.0
1.0 1.0 1.0 0.0 1.0 0.0 0.0 0.0
1.0 1.0 0.0 0.0 1.0 1.0 1.0 0.0
1.0 0.0 0.0 0.0 1.0 1.0 0.0 0.0
1.0 1.0 1.0 0.0 1.0 0.0 0.0 0.0
1.0 1.0 0.0 0.0 1.0 1.0 1.0 0.0
1.0 0.0 0.0 0.0 1.0 1.0 0.0 0.0
1.0 1.0 1.0 0.0 1.0 0.0 0.0 0.0
1.0 1.0 0.0 0.0 1.0 1.0 1.0 0.0
1.0 0.0 0.0 0.0 1.0 1.0 0.0 0.0
1.0 1.0 1.0 0.0 1.0 0.0 0.0 0.0
1.0 1.0 0.0 0.0 1.0 1.0 1.0 0.0
1.0 0.0 0.0 0.0 1.0 1.0 0.0 0.0
1.0 1.0 1.0 0.0 1.0 0.0 0.0 0.0
1.0 1.0 0.0 0.0 1.0 1.0 1.0 0.0
1.0 0.0 0.0 0.0 1.0 1.0 0.0 0.0
00000000: 0000 803f 0000 0000 0000 0000 0000 0000
00000010: 0000 803f 0000 803f 0000 0000 0000 0000
00000020: 0000 803f 0000 803f 0000 803f 0000 0000
00000030: 0000 803f 0000 0000 0000 0000 0000 0000
00000040: 0000 803f 0000 803f 0000 0000 0000 0000
00000050: 0000 803f 0000 803f 0000 803f 0000 0000
00000060: 0000 803f 0000 0000 0000 0000 0000 0000
00000070: 0000 803f 0000 803f 0000 0000 0000 0000
00000080: 0000 803f 0000 803f 0000 803f 0000 0000
00000090: 0000 803f 0000 0000 0000 0000 0000 0000
000000a0: 0000 803f 0000 803f 0000 0000 0000 0000
000000b0: 0000 803f 0000 803f 0000 803f 0000 0000
000000c0: 0000 803f 0000 0000 0000 0000 0000 0000
000000d0: 0000 803f 0000 803f 0000 0000 0000 0000
000000e0: 0000 803f 0000 803f 0000 803f 0000 0000
000000f0: 0000 803f 0000 0000 0000 0000 0000 0000
00000100: 0000 803f 0000 803f 0000 0000 0000 0000
00000110: 0000 803f 0000 803f 0000 803f 0000 0000
00000120: 0000 803f 0000 0000 0000 0000 0000 0000
00000130: 0000 803f 0000 803f 0000 0000 0000 0000
00000140: 0000 803f 0000 803f 0000 803f 0000 0000
00000150: 0000 803f 0000 0000 0000 0000 0000 0000
00000160: 0000 803f 0000 803f 0000 0000 0000 0000
00000170: 0000 803f 0000 803f 0000 803f 0000 0000
00000180: 0000 803f 0000 0000 0000 0000 0000 0000
00000190: 0000 803f 0000 803f 0000 0000 0000 0000
000001a0: 0000 803f 0000 803f 0000 803f 0000 0000
000001b0: 0000 803f 0000 0000 0000 0000 0000 0000
000001c0: 0000 803f 0000 803f 0000 0000 0000 0000
000001d0: 0000 803f 0000 803f 0000 803f 0000 0000
000001e0: 0000 803f 0000 0000 0000 0000 0000 0000
000001f0: 0000 803f 0000 803f 0000 0000 0000 0000

_transform._transforms.1.autoregressive_net.blocks.0.linear_layers.0.weight f4 [32, 32]
-0.16448174 0.13892011 0.0021285843 -0.07372445 -0.007495901 0.04418671 -0.1555257 -0.12681685
0.037438538 0.12286943 -0.15011588 0.0020732456 0.0051714783 0.03398566 0.13669865 -0.09361758
0.11898888 -0.120113775 -0.09618018 0.015342169 -0.035224184 0.14316826 -0.056606777 0.016702501
0.05468461 0.11688353 -0.09998627 -0.08128202 0.117483325 0.11591483 -0.105211675 -0.08351274
-0.06217486 0.15453447 -0.15327382 -0.13918369 0.07864798 0.13778846 0.029107518 -0.12074145
0.11927543 -0.01313203 0.015013445 -0.17171113 0.16008982 -0.05076497 0.10110285 -0.12546235
-0.09670419 0.11280473 0.0700972 -0.089550756 -0.1662942 -0.052037533 -0.1445724 0.15707253
0.12899601 -0.0088342745 -0.018104179 -0.1114939 -0.07352891 -0.053143255 0.076028004 -0.09737641
0.13937607 -0.14340357 0.17974624 0.23231362 0.70587265 -0.012510056 0.46709064 -5.037656
-0.1176833 -0.19888476 -6.1072235 -0.06403764 0.49416855 0.11710764 0.12405804 -0.13844205
0.37715444 -1.1091366 0.05109984 0.07281166 -0.8690032 -0.1242855 -1.1722666 0.1614804
0.022695605 -0.16764599 0.19793433 -1.2179506 -0.18303177 -0.34030423 0.41069 -0.07221321
-0.12612288 0.074335724 -0.12099732 0.02998528 0.1173402 -0.1624688 0.01172619 -0.09305999
-0.1156845 0.075991556 0.17187425 -0.04639548 0.008595308 0.11419159 0.07582639 -0.18563856
-0.16758187 -0.03538814 -0.21551648 -0.002706249 -0.16919102 -0.15372883 -0.08646036 0.14681603
-0.1933187 -0.14197356 -0.13062684 -0.16525532 0.052947927 0.13562481 -0.12579156 0.11414245
-0.016281476 -0.1456361 -0.119256616 0.32900313 -0.6713986 -0.0054289354 -0.41921622 -0.11552253
-0.14580679 0.31099638 0.2954096 -0.12330364 -0.1721475 -0.002346393 0.013906985 0.078399695
0.18759347 -0.051631637 0.32287255 -0.06274165 0.041972823 0.083803445 0.33175203 0.10944135
-0.13790052 -0.86613154 0.0030027311 0.1275314 0.11396908 -0.17582713 -0.23141573 -0.48162308
-0.19884798 -0.56092954 0.09436169 0.00038652922 -0.118836254 0.00087447045 -0.1383336 -0.066907875
-0.22587454 -0.13537526 0.024208955 -0.011757097 -0.12787502 0.025536086 -0.02134476 -0.15000395
-0.2756042 -0.07764048 -0.1570391 -0.107967526 -0.106243595 -0.15770158 -0.0929643 0.06235208
-0.24392678 0.076171555 -0.535454 0.3342459 -0.010045327 -0.18224059 -0.3842573 -0.05270888
0.11256736 0.06264381 -0.09326579 -0.220433 -0.11375691 -0.030213116 -0.19514386 -0.023126334
-0.13779365 0.12604435 0.16532253 -0.018067004 -0.04544224 0.16262363 0.14982612 0.11170615
0.15297575 0.16559394 -0.06846021 0.108638346 0.023602951 -0.033664007 -0.12669797 -0.12823614
-0.2650426 -0.16810167 0.14738393 0.114141084 -0.12620433 -0.1420811 0.06641156 0.10046536
-0.081285276 -0.2528262 0.12455679 0.007511723 0.16428073 0.020025231 0.12502672 0.4012945
0.08727318 0.1257315 0.3239534 0.07167525 0.011688464 -0.03082866 0.02876396 0.25617263
-0.05575421 -0.14644767 0.103585534 -1.4891666 0.013596109 0.24501307 1.3638004 0.11865351
0.1670573 -2.6657228 0.11568098 -0.7052268 0.015264532 0.1330423 -0.21822107 -4.042704
00000000: e76d 28be 1341 0e3e b87f 0b3b d8fc 96bd
00000010: 2da0 f5bb 20fd 343d 2142 1fbe 47dc 01be
00000020: 2759 193d f8a2 fb3d fab7 19be 4adf 073b
00000030: 8175 a93b 8c34 0b3d bbfa 0b3e 93ba bfbd
00000040: 71b0 f33d 36fe f5bd 1dfa c4bd b95d 7b3c
00000050: 3c47 10bd b39a 123e 82dc 67bd afd3 883c
00000060: f8fc 5f3d a260 ef3d 9ac5 ccbd 3077 a6bd
00000070: 199b f03d c164 ed3d 3879 d7bd ba08 abbd
00000080: 11ab 7ebd 493e 1e3e d0f3 1cbe 2b86 0ebe
00000090: 3112 a13d 6b18 0d3e e472 ee3c 4b47 f7bd
000000a0: ad46 f43d ba27 57bc f4fa 753c 0bd5 2fbe
000000b0: 96ee 233e eeee 4fbd 030f cf3d 3479 00be
000000c0: d90c c6bd 2b06 e73d 1f8f 8f3d 6366 b7bd
000000d0: 0749 2abe 4f25 55bd ca0a 14be 9fd7 203e
000000e0: 8817 043e a2bd 10bc 374f 94bc ea56 e4bd
000000f0: 5396 96bd beac 59bd 92b4 9b3d 496d c7bd
00000100: 9ab8 0e3e 63d8 12be 660f 383e 9fe3 6d3e
00000110: 12b4 343f faf6 4cbc 8126 ef3e 7a34 a1c0
00000120: f103 f1bd 72a8 4bbe 606e c3c0 2b26 83bd
00000130: a903 fd3e 21d6 ef3d 2412 fe3d c1c3 0dbe
00000140: 631a c13e 30f8 8dbf 114e 513d 481e 953d
00000150: fe76 5ebf 6589 febd d50c 96bf 1e5b 253e
00000160: 22ec b93c 64ab 2bbe 4caf 4a3e cee5 9bbf
00000170: ae6c 3bbe 5b3c aebe f645 d23e 85e4 93bd
00000180: 5b26 01be 543d 983d 71cd f7bd b1a3 f53c
00000190: 0f50 f03d 395e 26be 351f 403c 3c96 bebd
000001a0: ffeb ecbd 76a1 9b3d ceff 2f3e 3009 3ebd
000001b0: 56d3 0c3c 48dd e93d de4a 9b3d 0918 3ebe
000001c0: 959a 2bbe 27f3 10bd 5ab0 5cbe 535b 31bb
000001d0: 6940 2dbe 176b 1dbe 2112 b1bd f156 163e
000001e0: 56f5 45be 8461 11be 0bc3 05be b138 29be
000001f0: eddf 583d 3be1 0a3e 81cf 00be 84c3 e93d
00000200: bb60 85bc a121 15be d03c f4bd 1973 a83e
00000210: c7e0 2bbf 36e5 b1bb 82a3 d6be 1497 ecbd
00000220: 604e 15be eb3a 9f3e ed3f 973e 9e86 fcbd
00000230: 6f47 30be f1c5 19bb 1fda 633c 0590 a03d
00000240: 8118 403e b27b 53bd 8d4f a53e b27e 80bd
00000250: b2eb 2b3d 24a1 ab3d 67db a93e c922 e03d
00000260: cb35 0dbe ccba 5dbf 78c9 443b 9797 023e
00000270: 9f68 e93d 070c 34be 3ff8 6cbe 4d97 f6be
00000280: ce9e 4bbe 1499 0fbf b440 c13d 13a7 ca39
00000290: 6c60 f3bd b83c 653a 53a7 0dbe ff06 89bd
000002a0: a84b 67be d09f 0abe dc51 c63c d7a0 40bc
000002b0: abf1 02be 0e31 d13c 35db aebc a39a 19be
000002c0: fe1b 8dbe f901 9fbd dcce 20be 141e ddbd
000002d0: 3e96 d9bd 867c 21be 1164 bebd e564 7f3d
000002e0: f1c7 79be d5ff 9b3d 8313 09bf 4722 ab3e
000002f0: 2895 24bc 479d 3abe 5fbd c4be 44e5 57bd
00000300: b789 e63d 664b 803d 2202 bfbd 30b9 61be
00000310: 62f9 e8bd 7f81 f7bc cbd3 47be 7073 bdbc
00000320: c719 0dbe c511 013e 4f4a 293e 4101 94bc
00000330: a421 3abd cf86 263e 056c 193e 32c6 e43d
00000340: ada5 1c3e 7591 293e de34 8cbd c87d de3d
00000350: fa5a c13c 45e3 09bd 1dbd 01be 5650 03be
00000360: aab3 87be d822 2cbe d0eb 163e cdc2 e93d
00000370: b53b 01be b57d 11be c902 883d c8c0 cd3d
00000380: e578 a6bd 7072 81be a117 ff3d e624 f63b
00000390: 3539 283e f40b a43c 0107 003e 7976 cd3e
000003a0: 48bc b23d c2bf 003e 38dd a53e 79ca 923d
000003b0: f980 3f3c 638c fcbc 65a2 eb3c 0f29 833e
000003c0: 875e 64bd 61f6 15be a724 d43d 039d bebf
000003d0: 37c2 5e3c b5e4 7a3e 0391 ae3f 9d00 f33d
000003e0: 1211 2b3e 349b 2ac0 26ea ec3d be89 34bf
000003f0: 1618 7a3c 3e3c 083e 5875 5fbe d55d 81c0

_transform._transforms.1.autoregressive_net.blocks.0.linear_layers.0.bias f4 [32]
-0.070787154 -0.1667539 0.12667684 -0.015354189 -0.15552017 -0.27839682 -0.19782236 -0.2883546
-0.034202278 -0.11312286 -0.24371049 0.002076579 -0.055281095 -1.1284349 -0.015994988 -0.08730996
0.5015652 0.15962857 -0.039730653 0.41257262 -0.4445117 -0.05998513 -0.21996243 0.2644574
-0.049062546 -0.42809352 0.0873388 -0.052250825 -0.13111487 0.25849074 -0.021138279 -0.3720709
00000000: dbf8 90bd 89c1 2abe 93b7 013e 2390 7bbc
00000010: ae40 1fbe 078a 8ebe f291 4abe 37a3 93be
00000020: b017 0cbd f5ac e7bd 3e8f 79be 3717 083b
00000030: 6e6e 62bd 8e70 90bf ec07 83bc 90cf b2bd
00000040: 9466 003f ac75 233e 9cbc 22bd b83c d33e
00000050: 0a97 e3be f8b2 75bd d53d 61be f666 873e
00000060: cff5 48bd 132f dbbe afde b23d f604 56bd
00000070: fa42 06be e658 843e 2f2a adbc 1480 bebe

_transform._transforms.1.autoregressive_net.blocks.0.linear_layers.0.mask f4 [32, 32]
1.0 0.0 0.0 1.0 0.0 0.0 1.0 0.0
0.0 1.0 0.0 0.0 1.0 0.0 0.0 1.0
0.0 0.0 1.0 0.0 0.0 1.0 0.0 0.0
1.0 0.0 0.0 1.0 0.0 0.0 1.0 0.0
1.0 1.0 0.0 1.0 1.0 0.0 1.0 1.0
0.0 1.0 1.0 0.0 1.0 1.0 0.0 1.0
1.0 0.0 1.0 1.0 0.0 1.0 1.0 0.0
1.0 1.0 0.0 1.0 1.0 0.0 1.0 1.0
1.0 1.0 1.0 1.0 1.0 1.0 1.0 1.0
1.0 1.0 1.0 1.0 1.0 1.0 1.0 1.0
1.0 1.0 1.0 1.0 1.0 1.0 1.0 1.0
1.0 1.0 1.0 1.0 1.0 1.0 1.0 1.0
1.0 0.0 0.0 1.0 0.0 0.0 1.0 0.0
0.0 1.0 0.0 0.0 1.0 0.0 0.0 1.0
0.0 0.0 1.0 0.0 0.0 1.0 0.0 0.0
1.0 0.0 0.0 1.0 0.0 0.0 1.0 0.0
1.0 1.0 0.0 1.0 1.0 0.0 1.0 1.0
0.0 1.0 1.0 0.0 1.0 1.0 0.0 1.0
1.0 0.0 1.0 1.0 0.0 1.0 1.0 0.0
1.0 1.0 0.0 1.0 1.0 0.0 1.0 1.0
1.0 1.0 1.0 1.0 1.0 1.0 1.0 1.0
1.0 1.0 1.0 1.0 1.0 1.0 1.0 1.0
1.0 1.0 1.0 1.0 1.0 1.0 1.0 1.0
1.0 1.0 1.0 1.0 1.0 1.0 1.0 1.0
1.0 0.0 0.0 1.0 0.0 0.0 1.0 0.0
0.0 1.0 0.0 0.0 1.0 0.0 0.0 1.0
0.0 0.0 1.0 0.0 0.0 1.0 0.0 0.0
1.0 0.0 0.0 1.0 0.0 0.0 1.0 0.0
1.0 1.0 0.0 1.0 1.0 0.0 1.0 1.0
0.0 1.0 1.0 0.0 1.0 1.0 0.0 1.0
1.0 0.0 1.0 1.0 0.0 1.0 1.0 0.0
1.0 1.0 0.0 1.0 1.0 0.0 1.0 1.0
00000000: 0000 803f 0000 0000 0000 0000 0000 803f
00000010: 0000 0000 0000 0000 0000 803f 0000 0000
00000020: 0000 0000 0000 803f 0000 0000 0000 0000
00000030: 0000 803f 0000 0000 0000 0000 0000 803f
00000040: 0000 0000 0000 0000 0000 803f 0000 0000
00000050: 0000 0000 0000 803f 0000 0000 0000 0000
00000060: 0000 803f 0000 0000 0000 0000 0000 803f
00000070: 0000 0000 0000 0000 0000 803f 0000 0000
00000080: 0000 803f 0000 803f 0000 0000 0000 803f
00000090: 0000 803f 0000 0000 0000 803f 0000 803f
000000a0: 0000 0000 0000 803f 0000 803f 0000 0000
000000b0: 0000 803f 0000 803f 0000 0000 0000 803f
000000c0: 0000 803f 0000 0000 0000 803f 0000 803f
000000d0: 0000 0000 0000 803f 0000 803f 0000 0000
000000e0: 0000 803f 0000 803f 0000 0000 0000 803f
000000f0: 0000 803f 0000 0000 0000 803f 0000 803f
00000100: 0000 803f 0000 803f 0000 803f 0000 803f
00000110: 0000 803f 0000 803f 0000 803f 0000 803f
00000120: 0000 803f 0000 803f 0000 803f 0000 803f
00000130: 0000 803f 0000 803f 0000 803f 0000 803f
00000140: 0000 803f 0000 803f 0000 803f 0000 803f
00000150: 0000 803f 0000 803f 0000 803f 0000 803f
00000160: 0000 803f 0000 803f 0000 803f 0000 803f
00000170: 0000 803f 0000 803f 0000 803f 0000 803f
00000180: 0000 803f 0000 0000 0000 0000 0000 803f
00000190: 0000 0000 0000 0000 0000 803f 0000 0000
000001a0: 0000 0000 0000 803f 0000 0000 0000 0000
000001b0: 0000 803f 0000 0000 0000 0000 0000 803f
000001c0: 0000 0000 0000 0000 0000 803f 0000 0000
000001d0: 0000 0000 0000 803f 0000 0000 0000 0000
000001e0: 0000 803f 0000 0000 0000 0000 0000 803f
000001f0: 0000 0000 0000 0000 0000 803f 0000 0000
00000200: 0000 803f 0000 803f 0000 0000 0000 803f
00000210: 0000 803f 0000 0000 0000 803f 0000 803f
00000220: 0000 0000 0000 803f 0000 803f 0000 0000
00000230: 0000 803f 0000 803f 0000 0000 0000 803f
00000240: 0000 803f 0000 0000 0000 803f 0000 803f
00000250: 0000 0000 0000 803f 0000 803f 0000 0000
00000260: 0000 803f 0000 803f 0000 0000 0000 803f
00000270: 0000 803f 0000 0000 0000 803f 0000 803f
00000280: 0000 803f 0000 803f 0000 803f 0000 803f
00000290: 0000 803f 0000 803f 0000 803f 0000 803f
000002a0: 0000 803f 0000 803f 0000 803f 0000 803f
000002b0: 0000 803f 0000 803f 0000 803f 0000 803f
000002c0: 0000 803f 0000 803f 0000 803f 0000 803f
000002d0: 0000 803f 0000 803f 0000 803f 0000 803f
000002e0: 0000 803f 0000 803f 0000 803f 0000 803f
000002f0: 0000 803f 0000 803f 0000 803f 0000 803f
00000300: 0000 803f 0000 0000 0000 0000 0000 803f
00000310: 0000 0000 0000 0000 0000 803f 0000 0000
00000320: 0000 0000 0000 803f 0000 0000 0000 0000
00000330: 0000 803f 0000 0000 0000 0000 0000 803f
00000340: 0000 0000 0000 0000 0000 803f 0000 0000
00000350: 0000 0000 0000 803f 0000 0000 0000 0000
00000360: 0000 803f 0000 0000 0000 0000 0000 803f
00000370: 0000 0000 0000 0000 0000 803f 0000 0000
00000380: 0000 803f 0000 803f 0000 0000 0000 803f
00000390: 0000 803f 0000 0000 0000 803f 0000 803f
000003a0: 0000 0000 0000 803f 0000 803f 0000 0000
000003b0: 0000 803f 0000 803f 0000 0000 0000 803f
000003c0: 0000 803f 0000 0000 0000 803f 0000 803f
000003d0: 0000 0000 0000 803f 0000 803f 0000 0000
000003e0: 0000 803f 0000 803f 0000 0000 0000 803f
000003f0: 0000 803f 0000 0000 0000 803f 0000 803f

_transform._transforms.1.autoregressive_net.blocks.0.linear_layers.1.weight f4 [32, 32]
0.105035685 0.0006334776 0.00096124486 0.047303814 0.00068770413 -0.00080502266 -0.006259103 0.00069410336
0.00078561215 0.00096129125 9.12869e-05 0.00023209788 0.05771561 -0.00010575355 0.0006703559 -0.00045719554
-0.000456239 -4.6544912e-05 0.03312499 0.0002039708 -0.0007012104 0.056459907 0.00072204927 -0.00059135986
0.037747875 -0.0009475998 0.00041384329 0.1632862 0.00081068283 0.00050921825 0.049927354 -0.00032845605
-0.055873487 0.00056471623 8.866287e-05 -0.018120896 -0.8158951 -0.0007443414 -0.01015145 -1.0429686
-0.00017111935 0.0007295666 0.4837082 -0.0004519222 -0.13925427 -0.31679696 -0.000544398 0.00010258711
0.42806655 0.0004151746 -0.02867425 -1.6923707 7.630313e-05 0.007176713 -0.9492408 -0.0002405094
-0.010096526 0.8523404 -0.0008736688 -0.044597544 -0.426629 0.00018713844 0.040010978 0.9563886
-0.13157688 0.00024610915 -0.33090383 -0.112041466 -0.14549609 -0.02421887 -0.06871047 -0.8791372
-0.07682443 0.00039690078 -0.07145086 -0.05677253 -0.05095774 0.09854307 -0.06923911 0.0001358142
0.629393 0.06065988 -0.07457302 -0.21687064 -0.79854214 -0.072358534 -0.051363572 0.31411883
-0.06504665 -0.31315753 0.355483 -0.042173695 -0.019180642 -0.058209486 -0.10105036 -0.74057376
0.08864857 0.0001952051 -0.00041008988 0.064077005 -0.0009499468 -0.0003741367 0.0064523825 3.3384564e-05
0.0008317746 -0.0007924115 -0.00013406611 5.615449e-05 0.05799057 0.0006866854 0.00070157624 -0.00022851444
-7.2573425e-06 6.20122e-05 0.056552887 0.0002004341 -0.0002202282 0.034899563 -0.000807866 0.00059252477
0.050111037 0.00096552284 0.00042957522 -0.036382187 -0.00093373196 -0.0008940517 0.11892444 -0.00014526154
-0.06061351 -0.00046427897 0.00042784074 -0.018887486 0.49618843 0.0004657196 0.015285364 0.015319594
-0.0009861841 -0.00043343654 0.0030425838 -2.6523234e-05 -0.1240002 0.15897296 -0.0002823365 -0.000604307
-0.2734293 -0.00036299243 -0.089794815 -0.22945978 0.0008957382 -0.038572952 -0.17896254 -0.0009146952
-0.04479365 0.42274058 -0.0008299481 -0.07551979 0.047218286 -0.00010083449 -0.032372948 0.49606708
-0.13122748 0.0007901116 -0.58586466 -0.12079197 -0.46683756 0.012056942 -0.046783116 -0.5971768
-0.05183431 -0.000114168884 -0.40379164 -0.033517737 -0.03266627 0.029530648 -0.070825264 0.0005065005
0.54953873 -0.00044392387 -0.07901285 -0.26350984 -1.3615742 -0.078427635 -0.4232095 0.08266589
-0.066844635 -0.5604202 -0.18796925 -0.038045734 0.034188848 -0.17486772 -0.08934742 -0.92421013
0.16536541 7.823193e-05 0.00087876624 0.017892856 0.0009642809 0.00052214484 0.1063699 0.00080391817
0.00074849906 -0.00012699628 -0.0006052367 -0.0007947271 -0.036681715 0.0004660963 0.0003971534 0.0003214301
0.00010100496 -0.00030902124 0.1301447 0.00017628682 -0.0003184904 0.056932215 -0.00077372626 -0.0009457387
0.06504417 -0.0004678674 0.00023540188 0.101479225 0.00019444001 0.00065507233 0.06226781 -0.00014886129
0.11690967 0.00029960313 0.00036300696 0.14985782 2.8326685 0.0009916349 0.063497946 -1.2170967
-0.0009944075 -1.937175e-05 -0.067959234 -0.00093782635 0.17712468 0.27723157 -0.0009492089 -0.00079604186
-0.5275065 -0.000515556 0.13036484 0.00601831 -0.00022090675 0.07416322 -0.02293951 0.0008378704
0.102323845 0.73993576 -9.447456e-06 0.12943599 0.0590176 -0.0002027321 0.003188963 -0.36931837
00000000: f31c d73d f60f 263a 0dfc 7b3a a5c1 413d
00000010: 0b47 343a 2808 53ba 2919 cdbb 7df4 353a
00000020: 8af1 4d3a 2aff 7b3a 4871 bf38 4d5f 7339
00000030: 3467 6c3d 01c8 ddb8 d3ba 2f3a bfb3 efb9
00000040: 5d33 efb9 3839 43b8 12ae 073d ffe0 5539
00000050: 6fd1 37ba 8142 673d e847 3d3a 7d05 1bba
00000060: 849d 1a3d 5968 78ba 1bf9 d839 7f34 273e
00000070: 0184 543a 0f7d 053a a080 4c3d a034 acb9
00000080: 99db 64bd 7709 143a 84f0 b938 4672 94bc
00000090: 80de 50bf e81f 43ba 4452 26bc ff7f 85bf
000000a0: 806e 33b9 6340 3f3a 9aa8 f73e f9ef ecb9
000000b0: ac98 0ebe 3633 a2be eeb5 0eba 0924 d738
000000c0: 8a2b db3e cbab d939 43e6 eabc 9a9f d8bf
000000d0: ee04 a038 a22a eb3b 7201 73bf 4031 7cb9
000000e0: e66b 25bc fb32 5a3f ec06 65ba eaab 36bd
000000f0: 1e6f dabe 983a 4439 8de2 233d e2d5 743f
00000100: 17bc 06be 3608 8139 3a6c a9be ff75 e5bd
00000110: edfc 14be a766 c6bc 13b8 8cbd 230f 61bf
00000120: 2056 9dbd 1f17 d039 d454 92bd 508a 68bd
00000130: 10b9 50bd f3d0 c93d 3ccd 8dbd 5969 0e39
00000140: e61f 213f 7f76 783d bdb9 98bd 5613 5ebe
00000150: 426d 4cbf b630 94bd 9c62 52bd 2fd4 a03e
00000160: 2e37 85bd 2f56 a0be de01 b63e 53be 2cbd
00000170: b920 9dbc 126d 6ebd 7ef3 cebd 3e96 3dbf
00000180: 628d b53d f8af 4c39 5501 d7b9 ce3a 833d
00000190: da05 79ba c727 c4b9 826e d33b 6706 0c38
000001a0: 730b 5a3a d6b9 4fba 1994 0cb9 6d87 6b38
000001b0: 8587 6d3d ad02 343a fce9 373a 619d 6fb9
000001c0: 1984 f3b6 8c0c 8238 00a4 673d 9e2b 5239
000001d0: 0fed 66b9 d8f2 0e3d f8c6 53ba aa53 1b3a
000001e0: 3b41 4d3d 241b 7d3a 9c38 e139 7d05 15bd
000001f0: b1c5 74ba cb5e 6aba a88e f33d 5951 18b9
00000200: df45 78bd 786a f3b9 d04f e039 eeb9 9abc
00000210: 690c fe3e d42b f439 776f 7a3c 09ff 7a3c
00000220: d942 81ba de3e e3b9 1666 473b 367e deb7
00000230: d1f3 fdbd cfc9 223e 9006 94b9 5b6a 1eba
00000240: edfe 8bbe 0550 beb9 58e6 b7bd 81f7 6abe
00000250: f9cf 6a3a acfe 1dbd f541 37be 28c8 6fba
00000260: 8c79 37bd 7471 d83e e090 59ba 1faa 9abd
00000270: f667 413d 1b77 d3b8 7f99 04bd 81fc fd3e
00000280: 7f60 06be 7e1f 4f3a 3afb 15bf c861 f7bd
00000290: 5505 efbe 7b8a 453c a79f 3fbd 94e0 18bf
000002a0: 3750 54bd f46d efb8 c7bd cebe e549 09bd
000002b0: 11cd 05bd 42ea f13c d60c 91bd acc6 043a
000002c0: 92ae 0c3f 74be e8b9 7dd1 a1bd c3ea 86be
000002d0: 1048 aebf ab9e a0bd eaae d8be bc4c a93d
000002e0: d7e5 88bd b377 0fbf 037b 40be d8d5 1bbd
000002f0: 9b09 0c3d 8610 33be c8fb b6bd 0999 6cbf
00000300: 8d55 293e 7310 a438 015d 663a 0a94 923c
00000310: ccc7 7c3a 8ce0 083a 76d8 d93d 09be 523a
00000320: ec36 443a 4e2a 05b9 bfa8 1eba 3c55 50ba
00000330: 913f 16bd 635e f439 0739 d039 9e85 a839
00000340: a0d2 d338 2104 a2b9 a744 053e a2d9 3839
00000350: 0ffb a6b9 c131 693d e4d3 4aba 73eb 77ba
00000360: e135 853d 194c f5b9 36d6 7639 57d4 cf3d
00000370: 98e2 4b39 29b9 2b3a 880c 7f3d a617 1cb9
00000380: 566e ef3d 0d14 9d39 f851 be39 5474 193e
00000390: 714a 3540 bff9 813a 360b 823d d3c9 9bbf
000003a0: c756 82ba 8480 a2b7 362e 8bbd 76d8 75ba
000003b0: 2c60 353e 4cf1 8d3e 55d4 78ba 77ad 50ba
000003c0: aa0a 07bf 6126 07ba 5c7e 053e 3e35 c53b
000003d0: 34a3 67b9 e3e2 973d a4eb bbbc 88a4 5b3a
000003e0: 2a8f d13d 6e6c 3d3f 8480 1eb7 de8a 043e
000003f0: 70bc 713d 7c94 54b9 ecfd 503b 4c17 bdbe

_transform._transforms.1.autoregressive_net.blocks.0.linear_layers.1.bias f4 [32]
0.12939312 0.25339052 -0.25486583 -0.08806359 -0.108015776 -0.48757613 -0.026856845 0.3393684
-0.2670485 0.10231539 -0.110281184 0.06667159 0.046547342 0.25702006 0.028829234 0.12390111
-0.17741445 -0.28869963 -0.029435208 0.015651133 0.28711534 0.14845088 -0.38398725 0.25836498
-0.043707784 -0.17604391 -0.13977008 0.00088740914 -0.21985745 -0.27588728 0.016407598 0.11447686
00000000: a17f 043e 67bc 813e c67d 82be af5a b4bd
00000010: 6037 ddbd 94a3 f9be e302 dcbc b2c1 ad3e
00000020: 95ba 88be bb8a d13d 1adb e1bd 1d8b 883d
00000030: 6da8 3e3d 2298 833e 492b ec3c ddbf fd3d
00000040: 22ac 35be 70d0 93be 1b22 f1bc ce36 803c
00000050: c800 933e 8203 183e fa99 c4be 6a48 843e
00000060: ef06 33bd db44 34be e31f 0fbe 05a1 683a
00000070: 5022 61be 1941 8dbe 3a69 863c d872 ea3d

_transform._transforms.1.autoregressive_net.blocks.0.linear_layers.1.mask f4 [32, 32]
1.0 0.0 0.0 1.0 0.0 0.0 1.0 0.0
0.0 1.0 0.0 0.0 1.0 0.0 0.0 1.0
0.0 0.0 1.0 0.0 0.0 1.0 0.0 0.0
1.0 0.0 0.0 1.0 0.0 0.0 1.0 0.0
1.0 1.0 0.0 1.0 1.0 0.0 1.0 1.0
0.0 1.0 1.0 0.0 1.0 1.0 0.0 1.0
1.0 0.0 1.0 1.0 0.0 1.0 1.0 0.0
1.0 1.0 0.0 1.0 1.0 0.0 1.0 1.0
1.0 1.0 1.0 1.0 1.0 1.0 1.0 1.0
1.0 1.0 1.0 1.0 1.0 1.0 1.0 1.0
1.0 1.0 1.0 1.0 1.0 1.0 1.0 1.0
1.0 1.0 1.0 1.0 1.0 1.0 1.0 1.0
1.0 0.0 0.0 1.0 0.0 0.0 1.0 0.0
0.0 1.0 0.0 0.0 1.0 0.0 0.0 1.0
0.0 0.0 1.0 0.0 0.0 1.0 0.0 0.0
1.0 0.0 0.0 1.0 0.0 0.0 1.0 0.0
1.0 1.0 0.0 1.0 1.0 0.0 1.0 1.0
0.0 1.0 1.0 0.0 1.0 1.0 0.0 1.0
1.0 0.0 1.0 1.0 0.0 1.0 1.0 0.0
1.0 1.0 0.0 1.0 1.0 0.0 1.0 1.0
1.0 1.0 1.0 1.0 1.0 1.0 1.0 1.0
1.0 1.0 1.0 1.0 1.0 1.0 1.0 1.0
1.0 1.0 1.0 1.0 1.0 1.0 1.0 1.0
1.0 1.0 1.0 1.0 1.0 1.0 1.0 1.0
1.0 0.0 0.0 1.0 0.0 0.0 1.0 0.0
0.0 1.0 0.0 0.0 1.0 0.0 0.0 1.0
0.0 0.0 1.0 0.0 0.0 1.0 0.0 0.0
1.0 0.0 0.0 1.0 0.0 0.0 1.0 0.0
1.0 1.0 0.0 1.0 1.0 0.0 1.0 1.0
0.0 1.0 1.0 0.0 1.0 1.0 0.0 1.0
1.0 0.0 1.0 1.0 0.0 1.0 1.0 0.0
1.0 1.0 0.0 1.0 1.0 0.0 1.0 1.0
00000000: 0000 803f 0000 0000 0000 0000 0000 803f
00000010: 0000 0000 0000 0000 0000 803f 0000 0000
00000020: 0000 0000 0000 803f 0000 0000 0000 0000
00000030: 0000 803f 0000 0000 0000 0000 0000 803f
00000040: 0000 0000 0000 0000 0000 803f 0000 0000
00000050: 0000 0000 0000 803f 0000 0000 0000 0000
00000060: 0000 803f 0000 0000 0000 0000 0000 803f
00000070: 0000 0000 0000 0000 0000 803f 0000 0000
00000080: 0000 803f 0000 803f 0000 0000 0000 803f
00000090: 0000 803f 0000 0000 0000 803f 0000 803f
000000a0: 0000 0000 0000 803f 0000 803f 0000 0000
000000b0: 0000 803f 0000 803f 0000 0000 0000 803f
000000c0: 0000 803f 0000 0000 0000 803f 0000 803f
000000d0: 0000 0000 0000 803f 0000 803f 0000 0000
000000e0: 0000 803f 0000 803f 0000 0000 0000 803f
000000f0: 0000 803f 0000 0000 0000 803f 0000 803f
00000100: 0000 803f 0000 803f 0000 803f 0000 803f
00000110: 0000 803f 0000 803f 0000 803f 0000 803f
00000120: 0000 803f 0000 803f 0000 803f 0000 803f
00000130: 0000 803f 0000 803f 0000 803f 0000 803f
00000140: 0000 803f 0000 803f 0000 803f 0000 803f
00000150: 0000 803f 0000 803f 0000 803f 0000 803f
00000160: 0000 803f 0000 803f 0000 803f 0000 803f
00000170: 0000 803f 0000 803f 0000 803f 0000 803f
00000180: 0000 803f 0000 0000 0000 0000 0000 803f
00000190: 0000 0000 0000 0000 0000 803f 0000 0000
000001a0: 0000 0000 0000 803f 0000 0000 0000 0000
000001b0: 0000 803f 0000 0000 0000 0000 0000 803f
000001c0: 0000 0000 0000 0000 0000 803f 0000 0000
000001d0: 0000 0000 0000 803f 0000 0000 0000 0000
000001e0: 0000 803f 0000 0000 0000 0000 0000 803f
000001f0: 0000 0000 0000 0000 0000 803f 0000 0000
00000200: 0000 803f 0000 803f 0000 0000 0000 803f
00000210: 0000 803f 0000 0000 0000 803f 0000 803f
00000220: 0000 0000 0000 803f 0000 803f 0000 0000
00000230: 0000 803f 0000 803f 0000 0000 0000 803f
00000240: 0000 803f 0000 0000 0000 803f 0000 803f
00000250: 0000 0000 0000 803f 0000 803f 0000 0000
00000260: 0000 803f 0000 803f 0000 0000 0000 803f
00000270: 0000 803f 0000 0000 0000 803f 0000 803f
00000280: 0000 803f 0000 803f 0000 803f 0000 803f
00000290: 0000 803f 0000 803f 0000 803f 0000 803f
000002a0: 0000 803f 0000 803f 0000 803f 0000 803f
000002b0: 0000 803f 0000 803f 0000 803f 0000 803f
000002c0: 0000 803f 0000 803f 0000 803f 0000 803f
000002d0: 0000 803f 0000 803f 0000 803f 0000 803f
000002e0: 0000 803f 0000 803f 0000 803f 0000 803f
000002f0: 0000 803f 0000 803f 0000 803f 0000 803f
00000300: 0000 803f 0000 0000 0000 0000 0000 803f
00000310: 0000 0000 0000 0000 0000 803f 0000 0000
00000320: 0000 0000 0000 803f 0000 0000 0000 0000
00000330: 0000 803f 0000 0000 0000 0000 0000 803f
00000340: 0000 0000 0000 0000 0000 803f 0000 0000
00000350: 0000 0000 0000 803f 0000 0000 0000 0000
00000360: 0000 803f 0000 0000 0000 0000 0000 803f
00000370: 0000 0000 0000 0000 0000 803f 0000 0000
00000380: 0000 803f 0000 803f 0000 0000 0000 803f
00000390: 0000 803f 0000 0000 0000 803f 0000 803f
000003a0: 0000 0000 0000 803f 0000 803f 0000 0000
000003b0: 0000 803f 0000 803f 0000 0000 0000 803f
000003c0: 0000 803f 0000 0000 0000 803f 0000 803f
000003d0: 0000 0000 0000 803f 0000 803f 0000 0000
000003e0: 0000 803f 0000 803f 0000 0000 0000 803f
000003f0: 0000 803f 0000 0000 0000 803f 0000 803f

_transform._transforms.1.autoregressive_net.blocks.1.linear_layers.0.weight f4 [32, 32]
0.0952355 -0.007139381 0.17051911 -0.075518 -0.12614325 -0.017350888 -0.10495833 -0.16864868
-0.113021724 -0.1692719 0.068997175 -0.05511501 0.020578273 -0.037337072 0.12733488 -0.24448217
-0.015727349 0.09955138 0.06523561 0.1095365 0.037915893 0.004951131 -0.019767862 0.10759761
-0.117608756 0.17212218 -0.028284518 -0.2174305 -0.06521835 0.025923578 0.11184082 -0.16450766
-0.09065844 -0.06676705 -0.12752125 0.054155197 0.0067049735 0.063107 -0.18577208 0.06014344
-0.05278958 -0.05172588 -0.20192492 0.001578252 -0.06848367 0.00910171 -0.14629953 0.102306165
-0.07850267 -0.018631646 -0.10957261 -0.0741022 -0.12925844 0.091843925 0.12574051 -0.03438599
-0.17647268 0.16882837 -0.13294683 -0.12785605 0.0061759343 0.027160062 0.10104758 -0.15462568
0.10113965 -0.09678561 -0.06156274 0.048282377 0.017633213 0.1253301 -0.024753237 -0.158441
-0.1728404 -0.08117066 0.082972504 -0.09806046 0.18617873 -0.08815672 -0.18599208 -0.08052112
-0.007958634 0.018580986 -0.28330633 0.053219046 -0.12600514 -0.015427506 -0.066707194 -0.17468189
-0.17058532 -0.11519271 0.060114715 -0.09691209 -0.07042378 -0.25033596 -0.1316453 -0.00024274069
-0.052739542 0.08679537 -0.092911676 -0.18842222 -0.1388905 0.06963557 -0.07083605 0.113820404
0.103027 -0.049952947 0.023430254 0.1350624 -0.04198922 0.10590565 -0.046055313 -0.0026384392
0.13740008 -0.14459349 -0.16318142 0.045655996 -0.0066855648 -0.04687158 -0.049576662 0.10665258
-0.11137121 0.14826912 -0.13249125 -0.13701871 -0.028725563 0.006418354 -0.24578166 -0.11286142
-0.5824548 0.26771283 0.05911384 0.058217555 -0.5808259 -0.057316888 -0.52648854 0.59204465
-0.15738152 -0.73982954 -0.4153743 0.14756823 0.08248126 0.660215 0.09669585 -0.02045695
-0.48745605 0.07360184 -0.2031105 0.49945703 -0.14095238 -0.008900286 0.6669198 -0.16560316
-0.61851746 -0.050106373 0.02883209 -0.07357549 0.2660836 -0.11762443 -0.35288832 0.013076945
0.20481743 -1.9834833 0.16316833 -0.027016722 1.5842797 0.11914602 0.3068093 0.50063264
0.3380158 -0.07470484 0.17152406 0.25974128 -0.06692892 1.5616478 0.469837 0.35493886
0.8628029 0.09572403 0.03081192 -0.015044658 0.14274146 -0.031984035 0.65152407 -0.60857385
-0.5232671 0.08220052 0.17888184 0.932857 -0.1660116 -1.2199619 0.21318263 -0.568406
-0.31567356 -0.11614624 -0.005288186 -0.2509309 -0.16391727 0.042856727 -0.3166801 -0.043252002
-0.033402726 -0.22826453 -0.1062835 0.018056363 -0.024619218 -0.13880645 0.12803453 -0.13753067
-0.03473823 0.17648122 -0.12882051 0.031528328 0.03941908 -0.36719733 0.17423052 -0.12785693
-0.06431768 0.11107867 0.17157023 0.16705091 0.16067064 0.09870465 -0.40006846 0.10747927
0.15651076 0.0792126 -0.11948467 -0.044130553 -0.15569529 -0.14305237 0.101603456 0.023633359
0.06219191 0.33140746 1.1273592 0.083664335 0.41120544 -0.78288144 0.12064716 0.05193429
-0.070471466 0.026830789 -0.17186013 -0.37187552 0.17341304 0.19621293 -1.8125911 -0.14780617
0.40583885 0.27671936 -0.10429722 0.1105261 0.7100192 -0.029019622 0.66935235 -0.8914587
00000000: d40a c33d 78f1 e9bb 909c 2e3e 2ea9 9abd
00000010: b22b 01be 7323 8ebc 65f4 d6bd 3db2 2cbe
00000020: ef77 e7bd 9d55 2dbe 644e 8d3d 47c0 61bd
00000030: c493 a83c c2ee 18bd 1364 023e 8959 7abe
00000040: a4d6 80bc 98e1 cb3d 3f9a 853d ac54 e03d
00000050: b24d 1b3d 193d a23b 36f0 a1bc 235c dc3d
00000060: dcdc f0bd cc40 303e efb4 e7bc 1aa6 5ebe
00000070: 3391 85bd af5d d43c cd0c e53d b274 28be
00000080: 22ab b9bd 2abd 88bd ee94 02be d7d1 5d3d
00000090: 65b5 db3b 3e3e 813d 093b 3ebe f858 763d
000000a0: e339 58bd 84de 53bd 68c5 4ebe 59dd ce3a
000000b0: 2b41 8cbd 571f 153c 8bcf 15be e585 d13d
000000c0: 02c6 a0bd 65a1 98bc 9b67 e0bd e5c2 97bd
000000d0: 535c 04be ab18 bc3d 1fc2 003e 53d8 0cbd
000000e0: 41b5 34be 58e1 2c3e 3723 08be b2ec 02be
000000f0: 7e5f ca3b c77e de3c 09f2 ce3d 3256 1ebe
00000100: 4e22 cf3d 8937 c6bd 3629 7cbd bec3 453d
00000110: 8773 903c 8956 003e 4dc7 cabc 5c3e 22be
00000120: 13fd 30be ce3c a6bd 7ded a93d ecd3 c8bd
00000130: a3a5 3e3e 838b b4bd b574 3ebe 42e8 a4bd
00000140: ee64 02bc 2737 983c 870d 91be 37fc 593d
00000150: 7e07 01be a6c3 7cbc c89d 88bd cfdf 32be
00000160: ebad 2ebe 28ea ebbd d93a 763d d979 c6bd
00000170: 583a 90bd 092c 80be 07ce 06be 3588 7eb9
00000180: 6b05 58bd c5c1 b13d 7a48 bebd c1f1 40be
00000190: 5039 0ebe 189d 8e3d 7e12 91bd ac1a e93d
000001a0: d2ff d23d 769b 4cbd cef0 bf3c cc4d 0a3e
000001b0: e3fc 2bbd 10e5 d83d 7fa4 3cbd aae9 2cbb
000001c0: 9bb2 0c3e 5110 14be 0819 27be c801 3b3d
000001d0: 9512 dbbb 6afc 3fbd e610 4bbd ab6c da3d
000001e0: 9716 e4bd dcd3 173e c9ab 07be a24e 0cbe
000001f0: df51 ebbc 0e51 d23b 30ae 7bbe e323 e7bd
00000200: c21b 15bf a811 893e 5b21 723d 8875 6e3d
00000210: 02b1 14bf 1dc5 6abd f4c7 06bf 3d90 173f
00000220: 9f28 21be 7865 3dbf f1ab d4be 201c 173e
00000230: efeb a83d da03 293f 7908 c63d 5595 a7bc
00000240: d793 f9be 90bc 963d 33fc 4fbe d5b8 ff3e
00000250: d255 10be 81d2 11bc 42bb 2a3f e093 29be
00000260: 2957 1ebf 573c 4dbd 4631 ec3c bfae 96bd
00000270: 1c3c 883e 14e5 f0bd c7ad b4be af40 563c
00000280: a9bb 513e c8e2 fdbf 9915 273e 2c52 ddbc
00000290: adc9 ca3f d402 f43d 1c16 9d3e 7629 003f
000002a0: 6810 ad3e dafe 98bd 01a4 2f3e cffc 843e
000002b0: 0812 89bd 13e4 c73f 7a8e f03e 8cba b53e
000002c0: a7e0 5c3f f60a c43d 4869 fc3c df7d 76bc
000002d0: d12a 123e b101 03bd 48ca 263f 7fcb 1bbf
000002e0: d5f4 05bf bf58 a83d cd2c 373e b7cf 6e3f
000002f0: f2fe 29be b627 9cbf 8c4c 5a3e 0e83 11bf
00000300: f79f a1be 14de edbd 8548 adbb 047a 80be
00000310: eed9 27be 898a 2f3d e523 a2be 0329 31bd
00000320: 4cd1 08bd 2dbe 69be 2aab d9bd f0ea 933c
00000330: 3eae c9bc 4723 0ebe 7c1b 033e d7d4 0cbe
00000340: ad49 0ebd 7eb7 343e 86e9 03be d923 013d
00000350: e775 213d 4a01 bcbe 7c69 323e edec 02be
00000360: fdb8 83bd 377d e33d 1bb0 2f3e 650f 2b3e
00000370: d886 243e aa25 ca3d c6d5 ccbe 171e dc3d
00000380: 5b44 203e 373a a23d 61b4 f4bd 3dc2 34bd
00000390: 966e 1fbe 527c 12be 7915 d03d bf9a c13c
000003a0: f2bc 7e3d 3dae a93e 4e4d 903f 3558 ab3d
000003b0: 8589 d23e eb6a 48bf dc15 f73d 0db9 543d
000003c0: 5853 90bd 3ecc db3c 1afc 2fbe 7866 bebe
000003d0: 3093 313e 0bec 483e fc02 e8bf 805a 17be
000003e0: 1cca cf3e 29ae 8d3e c899 d5bd 825b e23d
000003f0: d1c3 353f 8fba edbc ad5a 2b3f a336 64bf

_transform._transforms.1.autoregressive_net.blocks.1.linear_layers.0.bias f4 [32]
-0.08968053 -0.22937755 -0.04733703 -0.0075052166 -0.9744572 -0.117060214 -0.07106607 -0.030275248
0.15922755 -0.036639955 -0.15736921 -0.17474267 -0.1314475 -0.7031393 0.057014354 -0.113424145
0.026298758 -0.4951026 -0.09319197 -0.32368195 0.8582758 -0.050684504 0.023306958 -0.17867652
-0.06566923 -0.4635104 -0.08371042 -0.12765613 -0.4668749 0.20158155 -0.048190895 -0.48879543
00000000: 6daa b7bd f3e1 6abe 79e4 41bd 52ee f5bb
00000010: 0776 79bf 44bd efbd 168b 91bd cc03 f8bc
00000020: 8c0c 233e c713 16bd 6525 21be beef 32be
00000030: 2c9a 06be f000 34bf e287 693d eb4a e8bd
00000040: 7e70 d73c 177e fdbe 6edb bebd a4b9 a5be
00000050: f6b7 5b3f 8e9a 4fbd 3cee be3c faf6 36be
00000060: 977d 86bd 3c51 edbe 5e70 abbd 4ab8 02be
00000070: 3a0a efbe 656b 4e3e d163 45bd 6543 fabe

_transform._transforms.1.autoregressive_net.blocks.1.linear_layers.0.mask f4 [32, 32]
1.0 0.0 0.0 1.0 0.0 0.0 1.0 0.0
0.0 1.0 0.0 0.0 1.0 0.0 0.0 1.0
0.0 0.0 1.0 0.0 0.0 1.0 0.0 0.0
1.0 0.0 0.0 1.0 0.0 0.0 1.0 0.0
1.0 1.0 0.0 1.0 1.0 0.0 1.0 1.0
0.0 1.0 1.0 0.0 1.0 1.0 0.0 1.0
1.0 0.0 1.0 1.0 0.0 1.0 1.0 0.0
1.0 1.0 0.0 1.0 1.0 0.0 1.0 1.0
1.0 1.0 1.0 1.0 1.0 1.0 1.0 1.0
1.0 1.0 1.0 1.0 1.0 1.0 1.0 1.0
1.0 1.0 1.0 1.0 1.0 1.0 1.0 1.0
1.0 1.0 1.0 1.0 1.0 1.0 1.0 1.0
1.0 0.0 0.0 1.0 0.0 0.0 1.0 0.0
0.0 1.0 0.0 0.0 1.0 0.0 0.0 1.0
0.0 0.0 1.0 0.0 0.0 1.0 0.0 0.0
1.0 0.0 0.0 1.0 0.0 0.0 1.0 0.0
1.0 1.0 0.0 1.0 1.0 0.0 1.0 1.0
0.0 1.0 1.0 0.0 1.0 1.0 0.0 1.0
1.0 0.0 1.0 1.0 0.0 1.0 1.0 0.0
1.0 1.0 0.0 1.0 1.0 0.0 1.0 1.0
1.0 1.0 1.0 1.0 1.0 1.0 1.0 1.0
1.0 1.0 1.0 1.0 1.0 1.0 1.0 1.0
1.0 1.0 1.0 1.0 1.0 1.0 1.0 1.0
1.0 1.0 1.0 1.0 1.0 1.0 1.0 1.0
1.0 0.0 0.0 1.0 0.0 0.0 1.0 0.0
0.0 1.0 0.0 0.0 1.0 0.0 0.0 1.0
0.0 0.0 1.0 0.0 0.0 1.0 0.0 0.0
1.0 0.0 0.0 1.0 0.0 0.0 1.0 0.0
1.0 1.0 0.0 1.0 1.0 0.0 1.0 1.0
0.0 1.0 1.0 0.0 1.0 1.0 0.0 1.0
1.0 0.0 1.0 1.0 0.0 1.0 1.0 0.0
1.0 1.0 0.0 1.0 1.0 0.0 1.0 1.0
00000000: 0000 803f 0000 0000 0000 0000 0000 803f
00000010: 0000 0000 0000 0000 0000 803f 0000 0000
00000020: 0000 0000 0000 803f 0000 0000 0000 0000
00000030: 0000 803f 0000 0000 0000 0000 0000 803f
00000040: 0000 0000 0000 0000 0000 803f 0000 0000
00000050: 0000 0000 0000 803f 0000 0000 0000 0000
00000060: 0000 803f 0000 0000 0000 0000 0000 803f
00000070: 0000 0000 0000 0000 0000 803f 0000 0000
00000080: 0000 803f 0000 803f 0000 0000 0000 803f
00000090: 0000 803f 0000 0000 0000 803f 0000 803f
000000a0: 0000 0000 0000 803f 0000 803f 0000 0000
000000b0: 0000 803f 0000 803f 0000 0000 0000 803f
000000c0: 0000 803f 0000 0000 0000 803f 0000 803f
000000d0: 0000 0000 0000 803f 0000 803f 0000 0000
000000e0: 0000 803f 0000 803f 0000 0000 0000 803f
000000f0: 0000 803f 0000 0000 0000 803f 0000 803f
00000100: 0000 803f 0000 803f 0000 803f 0000 803f
00000110: 0000 803f 0000 803f 0000 803f 0000 803f
00000120: 0000 803f 0000 803f 0000 803f 0000 803f
00000130: 0000 803f 0000 803f 0000 803f 0000 803f
00000140: 0000 803f 0000 803f 0000 803f 0000 803f
00000150: 0000 803f 0000 803f 0000 803f 0000 803f
00000160: 0000 803f 0000 803f 0000 803f 0000 803f
00000170: 0000 803f 0000 803f 0000 803f 0000 803f
00000180: 0000 803f 0000 0000 0000 0000 0000 803f
00000190: 0000 0000 0000 0000 0000 803f 0000 0000
000001a0: 0000 0000 0000 803f 0000 0000 0000 0000
000001b0: 0000 803f 0000 0000 0000 0000 0000 803f
000001c0: 0000 0000 0000 0000 0000 803f 0000 0000
000001d0: 0000 0000 0000 803f 0000 0000 0000 0000
000001e0: 0000 803f 0000 0000 0000 0000 0000 803f
000001f0: 0000 0000 0000 0000 0000 803f 0000 0000
00000200: 0000 803f 0000 803f 0000 0000 0000 803f
00000210: 0000 803f 0000 0000 0000 803f 0000 803f
00000220: 0000 0000 0000 803f 0000 803f 0000 0000
00000230: 0000 803f 0000 803f 0000 0000 0000 803f
00000240: 0000 803f 0000 0000 0000 803f 0000 803f
00000250: 0000 0000 0000 803f 0000 803f 0000 0000
00000260: 0000 803f 0000 803f 0000 0000 0000 803f
00000270: 0000 803f 0000 0000 0000 803f 0000 803f
00000280: 0000 803f 0000 803f 0000 803f 0000 803f
00000290: 0000 803f 0000 803f 0000 803f 0000 803f
000002a0: 0000 803f 0000 803f 0000 803f 0000 803f
000002b0: 0000 803f 0000 803f 0000 803f 0000 803f
000002c0: 0000 803f 0000 803f 0000 803f 0000 803f
000002d0: 0000 803f 0000 803f 0000 803f 0000 803f
000002e0: 0000 803f 0000 803f 0000 803f 0000 803f
000002f0: 0000 803f 0000 803f 0000 803f 0000 803f
00000300: 0000 803f 0000 0000 0000 0000 0000 803f
00000310: 0000 0000 0000 0000 0000 803f 0000 0000
00000320: 0000 0000 0000 803f 0000 0000 0000 0000
00000330: 0000 803f 0000 0000 0000 0000 0000 803f
00000340: 0000 0000 0000 0000 0000 803f 0000 0000
00000350: 0000 0000 0000 803f 0000 0000 0000 0000
00000360: 0000 803f 0000 0000 0000 0000 0000 803f
00000370: 0000 0000 0000 0000 0000 803f 0000 0000
00000380: 0000 803f 0000 803f 0000 0000 0000 803f
00000390: 0000 803f 0000 0000 0000 803f 0000 803f
000003a0: 0000 0000 0000 803f 0000 803f 0000 0000
000003b0: 0000 803f 0000 803f 0000 0000 0000 803f
000003c0: 0000 803f 0000 0000 0000 803f 0000 803f
000003d0: 0000 0000 0000 803f 0000 803f 0000 0000
000003e0: 0000 803f 0000 803f 0000 0000 0000 803f
000003f0: 0000 803f 0000 0000 0000 803f 0000 803f

_transform._transforms.1.autoregressive_net.blocks.1.linear_layers.1.weight f4 [32, 32]
0.023447022 0.00028925753 0.0007815569 0.07762282 0.00050594204 0.00046898285 0.05296773 -0.0007158308
-0.00031161166 0.022843324 0.00053247274 -0.00037730648 0.2540983 0.00068323925 0.0009867833 0.106173694
-0.0009442854 -0.00017711127 0.06743091 -0.0005532283 -0.0007809375 0.06520418 -0.0008605004 0.00015984762
0.18392412 0.00017192459 -0.00041606845 0.04441456 0.000840305 0.00031110394 0.0292843 0.00076793315
-0.031521693 -0.046252947 -0.0006469521 -0.055418804 -1.0441672 -0.00018224157 -0.19942498 0.6056763
3.379023e-05 -0.01083849 0.564338 -0.00097165804 -0.40853906 0.6099653 -0.00076417427 -0.21070367
0.6841703 -1.5333295e-05 -0.009815315 0.77487266 -0.00090045575 -0.08850649 -0.7077154 -2.9121282e-05
-0.6285031 0.030090386 -0.00032198252 -0.03438654 0.70689344 -6.892944e-05 0.02872578 -1.6783535
-0.052853506 -0.0017684209 -0.0027638276 -0.056708 -0.3609585 -0.21567217 -0.08330293 0.32955888
0.23270008 -0.011989892 -0.053216252 -0.036993954 -0.2485925 0.29646572 0.018120717 -0.24151348
0.08861648 -0.17042685 -0.08751268 0.11355167 -0.14025126 -0.112052314 -0.22104572 -0.029625585
-0.09732961 -0.31043658 -0.07730381 -0.057699017 -0.12112349 -0.3142035 0.005892066 -0.35995057
0.051424127 -0.0009727222 -0.000520188 0.08557143 0.0004497693 -0.00052664627 -0.21317734 -0.00013381125
-0.00074119284 0.045621872 -0.00051915186 9.244562e-05 0.12393225 -0.0005247653 0.00017282832 -0.12322184
-0.00016013421 -0.0006419622 0.096571706 0.0005890329 6.170392e-06 0.11775834 0.0006352617 0.00036958826
-0.2714252 0.00088675454 -0.0006771473 0.06450049 -0.00037165202 -0.0009003537 -0.015198302 -0.0004114895
-0.021373836 -0.01791313 -0.0007603829 0.0009398254 -0.038002424 -0.00079699187 0.26979384 -0.15840937
-0.00059694983 0.036624428 0.036466785 0.00046342495 -0.09262295 -0.23027943 -0.0005627238 0.13794537
0.020792825 -0.00066312804 -0.00552309 0.48902076 -0.00022316707 -0.014110481 -0.10935278 0.00087461225
0.072753124 -0.35043 -0.0003513415 -0.04426367 0.2754068 0.00084637565 -0.010206754 -0.42316353
-0.023981126 -0.0030981707 0.0046855593 -0.04449399 -0.5255607 -0.59563345 -0.09033354 0.28094915
0.18467866 -0.00956532 -0.22476433 -0.034874767 -0.25375038 0.3421897 0.016784493 -0.24511158
0.094900295 -0.22386114 -0.080880105 -0.10977712 -0.2933408 -0.104041256 -0.3114673 -0.004144444
-0.09665634 -0.55459446 -0.050673407 -0.05424878 -0.1587758 -0.64585954 0.0057085524 -0.53223366
0.042151514 -0.00090523995 5.0981882e-05 0.04250213 -5.4497006e-05 -0.0001845863 0.079685986 0.00089835614
0.00042852273 0.13233548 -0.0007593338 0.0006150378 0.11147206 0.00038136807 -0.00026951518 0.0037916163
0.00042362275 -0.00042040373 0.058344156 -0.00011507107 -3.514147e-05 0.08445042 -0.00010225869 0.00011453164
-0.24049321 0.0005914828 -0.00040065148 0.061412852 0.00014240504 0.0006472888 0.044709433 0.00018098224
0.064335756 0.06087503 -0.00077016634 0.10396059 0.10783293 0.00018916656 -0.2254079 1.2564427
0.00082123344 0.018240761 0.8573697 0.0005177629 -0.21524481 0.16006197 0.00044764354 -0.043036975
-1.6441565 -0.00084317545 0.024102928 1.4103581 -0.00055618095 0.09204552 0.9935749 -0.0004373515
-0.20853786 0.3725807 0.0009963929 0.071186595 0.03259517 0.00089936116 0.055520743 -2.4633276
00000000: f813 c03c 7da7 9739 65e1 4c3a b7f8 9e3d
00000010: 32a1 043a d0e1 f539 b1f4 583d 98a6 3bba
00000020: cf5f a3b9 ec21 bb3c a495 0b3a 38d1 c5b9
00000030: 2c19 823e 691b 333a f456 813a 9871 d93d
00000040: ec89 77ba f2b6 39b9 3819 8a3d 8606 11ba
00000050: d4b7 4cba c589 853d 3493 61ba c59c 2739
00000060: 9b56 3c3e a846 3439 c323 dab9 0bec 353d
00000070: ea47 5c3a aa1b a339 a1e5 ef3c 1f4f 493a
00000080: e41c 01bd bb73 3dbd 3898 29ba d4fe 62bd
00000090: 45a7 85bf 1918 3fb9 1036 4cbe 9a0d 1b3f
000000a0: fcb9 0d38 ec93 31bc 7578 103f deb6 7eba
000000b0: 082c d1be b026 1c3f de52 48ba b4c2 57be
000000c0: c925 2f3f 00a0 80b7 6ad0 20bc 0e5e 463f
000000d0: 900c 6cba e442 b5bd d62c 35bf 7a49 f4b7
000000e0: 94e5 20bf 1d80 f63c c3cf a8b9 e7d8 0cbd
000000f0: f8f6 343f 368e 90b8 5452 eb3c 4ad4 d6bf
00000100: eb7c 58bd 5cca e7ba 5521 35bb a646 68bd
00000110: 8dcf b8be 2ad9 5cbe ba9a aabd f1bb a83e
00000120: ee48 6e3e 4171 44bc 49f9 59bd f986 17bd
00000130: 088f 7ebe 5bca 973e e671 943c 4f4f 77be
00000140: 8f7c b53d 6084 2ebe d939 b3bd c78d e83d
00000150: 079e 0fbe af7b e5bd cf59 62be 5bb1 f2bc
00000160: bf54 c7bd 8bf1 9ebe 7651 9ebd ce55 6cbd
00000170: 980f f8bd 48df a0be 3b12 c13b 714b b8be
00000180: 1ba2 523d 48fe 7eba 3a5d 08ba 1340 af3d
00000190: 03cf eb39 a20e 0aba 294b 5abe af4f 0cb9
000001a0: 9c4c 42ba 00de 3a3d b117 08ba 5ddf c138
000001b0: 31d0 fd3d 6790 09ba 4039 3539 bb5b fcbd
000001c0: b3e9 27b9 5b49 28ba 63c7 c53d 5469 1a3a
000001d0: 440b cf36 492b f13d b187 263a 4cc5 c139
000001e0: 3ef8 8abe 1775 683a 9682 31ba d518 843d
000001f0: 4ada c2b9 b705 6cba 4d02 79bc 30bd d7b9
00000200: 2f18 afbc 8ebe 92bc 6f54 47ba 9d5e 763a
00000210: 6ea8 1bbd 38ed 50ba 6b22 8a3e 1136 22be
00000220: a07c 1cba 7f03 163d 325e 153d d8f7 f239
00000230: 1ab1 bdbd 5fce 6bbe c183 13ba 8d41 0d3e
00000240: b755 aa3c c5d5 2dba 09fb b4bb ee60 fa3e
00000250: f401 6ab9 a62f 67bc 5af4 dfbd 3c46 653a
00000260: 97ff 943d 906b b3be 4234 b8b9 d24d 35bd
00000270: 1f02 8d3e 4fdf 5d3a 3b3a 27bc e4a8 d8be
00000280: 1174 c4bc ae0a 4bbb 5289 993b 543f 36bd
00000290: 258b 06bf 6f7b 18bf cb00 b9bd 91d8 8f3e
000002a0: 671c 3d3e dcb7 1cbc 9f28 66be d8d8 0ebd
000002b0: 92eb 81be 7d33 af3e a27f 893c 88fe 7abe
000002c0: 165b c23d db3b 65be 78a4 a5bd d4d2 e0bd
000002d0: c430 96be 9513 d5bd a478 9fbe 1ece 87bb
000002e0: c2f3 c5bd e7f9 0dbf eb8e 4fbd f833 5ebd
000002f0: 2096 22be 0d57 25bf cf0e bb3b 7740 08bf
00000300: 11a7 2c3d a04d 6dba 61d5 5538 b716 2e3d
00000310: b793 64b8 828d 41b9 6832 a33d a97f 6b3a
00000320: 59ab e039 f482 073e 070e 47ba 7d3a 213a
00000330: 774b e43d 5bf2 c739 b74d 8db9 c47c 783b
00000340: af19 de39 a269 dcb9 48fa 6e3d 4f52 f1b8
00000350: de64 13b8 58f4 ac3d b773 d6b8 b530 f038
00000360: da43 76be bd0d 1b3a 880e d2b9 0b8c 7b3d
00000370: 9052 1539 d1ae 293a 3d21 373d 0dc6 3d39
00000380: 77c2 833d 1858 793d fde4 49ba 4ae9 d43d
00000390: 83d7 dc3d 035b 4639 54d1 66be 1dd3 a03f
000003a0: 0b48 573a a66d 953c 957c 5b3f 7bba 073a
000003b0: 2369 5cbe 49e7 233e b3b1 ea39 8a47 30bd
000003c0: b873 d2bf 8c08 5dba 8173 c53c 9d86 b43f
000003d0: accc 11ba 5d82 bc3d ed5a 7e3f 534c e5b9
000003e0: f38a 55be e6c2 be3e 6699 823a 47ca 913d
000003f0: 8382 053d 1bc3 6b3a b869 633d 29a7 1dc0

_transform._transforms.1.autoregressive_net.blocks.1.linear_layers.1.bias f4 [32]
0.13625115 -0.042467427 -0.14945446 0.20844996 0.40070176 -0.26452413 0.18438268 0.27709797
-0.08189185 0.1544053 0.36160508 0.42353135 0.13496722 0.6966998 0.7001121 0.1580562
0.43665153 -0.28894272 0.16927838 0.12877418 0.01313627 0.16778375 0.500309 0.5078501
0.18375333 -0.17640865 0.32972747 0.16241264 -0.1885741 -0.49626985 0.11162813 0.23562002
00000000: 6c85 0b3e 53f2 2dbd 970a 19be e873 553e
00000010: c828 cd3e b56f 87be d0ce 3c3e c9df 8d3e
00000020: eab6 a7bd 6c1c 1e3e 4d24 b93e 1ad9 d83e
00000030: d934 0a3e eb5a 323f 8c3a 333f 7cd9 213e
00000040: ca90 df3e 4df0 93be 5057 2d3e 61dd 033e
00000050: 8339 573c 81cf 2b3e 4014 003f 7702 023f
00000060: d529 3c3e 78a4 34be 0ad2 a83e 804f 263e
00000070: 9219 41be 1517 febe 4a9d e43d 6046 713e
