model2_v2/epoch=50modello-N_iter4-N_features32-N_BS32-epochs301-lr0.004-val_loss1000.pth (torch, 205922 bytes, 72 tensors)

_transform._transforms.1.autoregressive_net.initial_layer.weight f4 [32, 4]
00000000: 19a8 1d3f 9acd e83e 4431 c4be 0ca9 f83e
00000010: 0bcc 57bd 52d4 373a 4e16 84be c020 71bc
00000020: d51c d8ba d784 1a3d db08 2abd fed3 bf3e
00000030: dff1 c8b9 36f5 a33e 681c e33e 3e66 dfbe
00000040: c291 da3b 447c bdbc 307b 0f3d d0de 5e3e
00000050: 8db2 863d bc81 97bd dd0e 35bd c891 fa3e
00000060: 8334 093b 0e02 cabe 5c48 d1be 40a8 c63c
00000070: ebd1 2cba 6f54 63bd f0b5 823d aa11 cb3e
00000080: 0826 5d3d 85f2 50bd 089c e3ba 04f3 573e
00000090: d274 663c 3451 d43e be2d e6be 405c a63d
000000a0: b117 06bd 7b04 903c e029 a13d a0dc ab3d
000000b0: fead 4e3d 1353 48bd 55a8 3bbd 80e5 133e
000000c0: 203c c73b 24de c4be 3c5d 7cbe 8c80 403e
000000d0: 573c 07bd b7c2 e1bc 40f2 a83d 7070 243d
000000e0: 6916 e03b 4dde f2bc 7e82 2b3d 4058 36bc
000000f0: 826f 043d 3207 d4be f0e0 d0bd 0875 84be
00000100: 03d6 3540 11df 25c0 3e4e fc3e f4f8 68be
00000110: 1c71 ffbb 2657 17bc 1155 a9bc ecab 403e
00000120: 8aaa 553b 464c 873e 58e9 00be f86d 94be
00000130: d5f7 f8bc dd45 4c3d 9832 853d 6c86 a03e
00000140: 35b1 00be ba2e b53d 7dc4 43bb c8a5 973d
00000150: bbea 17bc f2ae f43e bc9d 083e 1ef7 a93e
00000160: a529 933d 0e56 373c 5482 fabe a09f 273d
00000170: be33 80bd 0a48 3e3d 4eda a43d 240b 963e
00000180: 848f 0dbb e83f ab3d a05b 10bd f6a1 e13e
00000190: 1a38 a03d 74c5 09bd 0046 5a3d 0008 953a
000001a0: fa6d 62bc c0d2 4f3d f215 4bbd f8e4 aa3e
000001b0: 55d3 ee3a 4c9c 523e f019 a33d faf2 cf3e
000001c0: d580 a2bf 4adb eb3f b84e 99bd 0e1c e1be
000001d0: ddd8 b3bc c9ff 903d 6663 f93c 5012 9cbe
000001e0: 3784 4bc0 f2f4 9b3e 5a6b b1be 001b 21be
000001f0: 5b32 f1bf c4fc 1740 a88d fa3d 6ccc e5be
0.6158462 0.45469362 -0.38318837 0.48566473 -0.052684825 0.0007012534 -0.25798267 -0.014717281
-0.0016488085 0.037724342 -0.04151235 0.37466425 -0.0003832718 0.3202302 0.4435761 -0.43632692
0.0066702077 -0.023130544 0.03502959 0.21764684 0.065770246 -0.07397792 -0.044203628 0.48939347
0.002093584 -0.39454693 -0.40875518 0.02425015 -0.00065925595 -0.055500444 0.06382358 0.39661914
0.053991348 -0.051012535 -0.0017365227 0.21088797 0.014065938 0.41468203 -0.44956774 0.08123064
-0.032737438 0.017580261 0.07869315 0.0839169 0.0504589 -0.04890735 -0.04581483 0.14443016
0.0060801655 -0.3845073 -0.24644941 0.18799037 -0.03301653 -0.027558668 0.082493305 0.04014629
0.006838609 -0.029647017 0.041872494 -0.011129439 0.032332905 -0.4141174 -0.101991534 -0.25870538
2.8411872 -2.59174 0.49278444 -0.22751218 -0.007795466 -0.009237086 -0.020670446 0.18815583
0.003260287 0.2642538 -0.12589014 -0.2899015 -0.030391613 0.049871314 0.065037906 0.31352556
-0.12567599 0.08846803 -0.0029871755 0.07404667 -0.009272273 0.47789723 0.13341421 0.33196348
0.071856774 0.011189951 -0.48927557 0.040923715 -0.06259869 0.04645542 0.08049451 0.29305375
-0.0021600435 0.083617985 -0.03524363 0.4406888 0.078232005 -0.03363557 0.053289413 0.0011370182
-0.013820166 0.050738096 -0.049581476 0.33377814 0.0018220941 0.20567435 0.079639316 0.40615064
-1.2695566 1.8426297 -0.074857175 -0.43966717 -0.021953994 0.07080037 0.030442905 -0.3048272
-3.1799448 0.30460316 -0.34652215 -0.15732956 -1.8843492 2.3748026 0.1223405 -0.44882524

_transform._transforms.1.autoregressive_net.initial_layer.bias f4 [32]
00000000: 9c9c 9fbf c7b9 efbe 30f5 603e 3fc8 a4be
00000010: f6f2 cbbe 9d91 72be 551e 9bbe db41 c8be
00000020: 0116 15be 351d b2be 7ce9 07bf 1388 6fbe
00000030: ee81 9fbe eeed d8be 3dae c4be 8b70 7cbe
00000040: 3976 16be 35fd aa3e 35da d2be 48cc 0cbf
00000050: b7e1 be3d fe2f a2be e0ea 03bf 6940 d63e
00000060: a870 c8be 5454 cdbe 0bf6 6ebe 4857 9dbe
00000070: cdf5 fabd d2ba 7d3c 94fb 0fbf e6dd 133f
-1.2469668 -0.46821424 0.21968532 -0.32184026 -0.39833802 -0.2368836 -0.3029658 -0.39112744
-0.14559175 -0.34787908 -0.53090644 -0.23391752 -0.31153816 -0.42369026 -0.38414183 -0.24652307
-0.14693536 0.33396307 -0.41182104 -0.5499921 0.093203954 -0.3167724 -0.51530266 0.41846016
-0.3914845 -0.401034 -0.23336045 -0.30730653 -0.12253914 0.015486436 -0.5624325 0.57760465

_transform._transforms.1.autoregressive_net.initial_layer.mask f4 [32, 4]
00000000: 0000 803f 0000 0000 0000 0000 0000 0000
00000010: 0000 803f 0000 803f 0000 0000 0000 0000
00000020: 0000 803f 0000 803f 0000 803f 0000 0000
00000030: 0000 803f 0000 0000 0000 0000 0000 0000
00000040: 0000 803f 0000 803f 0000 0000 0000 0000
00000050: 0000 803f 0000 803f 0000 803f 0000 0000
00000060: 0000 803f 0000 0000 0000 0000 0000 0000
00000070: 0000 803f 0000 803f 0000 0000 0000 0000
00000080: 0000 803f 0000 803f 0000 803f 0000 0000
00000090: 0000 803f 0000 0000 0000 0000 0000 0000
000000a0: 0000 803f 0000 803f 0000 0000 0000 0000
000000b0: 0000 803f 0000 803f 0000 803f 0000 0000
000000c0: 0000 803f 0000 0000 0000 0000 0000 0000
000000d0: 0000 803f 0000 803f 0000 0000 0000 0000
000000e0: 0000 803f 0000 803f 0000 803f 0000 0000
000000f0: 0000 803f 0000 0000 0000 0000 0000 0000
00000100: 0000 803f 0000 803f 0000 0000 0000 0000
00000110: 0000 803f 0000 803f 0000 803f 0000 0000
00000120: 0000 803f 0000 0000 0000 0000 0000 0000
00000130: 0000 803f 0000 803f 0000 0000 0000 0000
00000140: 0000 803f 0000 803f 0000 803f 0000 0000
00000150: 0000 803f 0000 0000 0000 0000 0000 0000
00000160: 0000 803f 0000 803f 0000 0000 0000 0000
00000170: 0000 803f 0000 803f 0000 803f 0000 0000
00000180: 0000 803f 0000 0000 0000 0000 0000 0000
00000190: 0000 803f 0000 803f 0000 0000 0000 0000
000001a0: 0000 803f 0000 803f 0000 803f 0000 0000
000001b0: 0000 803f 0000 0000 0000 0000 0000 0000
000001c0: 0000 803f 0000 803f 0000 0000 0000 0000
000001d0: 0000 803f 0000 803f 0000 803f 0000 0000
000001e0: 0000 803f 0000 0000 0000 0000 0000 0000
000001f0: 0000 803f 0000 803f 0000 0000 0000 0000
1.0 0.0 0.0 0.0 1.0 1.0 0.0 0.0
1.0 1.0 1.0 0.0 1.0 0.0 0.0 0.0
1.0 1.0 0.0 0.0 1.0 1.0 1.0 0.0
1.0 0.0 0.0 0.0 1.0 1.0 0.0 0.0
1.0 1.0 1.0 0.0 1.0 0.0 0.0 0.0
1.0 1.0 0.0 0.0 1.0 1.0 1.0 0.0
1.0 0.0 0.0 0.0 1.0 1.0 0.0 0.0
1.0 1.0 1.0 0.0 1.0 0.0 0.0 0.0
1.0 1.0 0.0 0.0 1.0 1.0 1.0 0.0
1.0 0.0 0.0 0.0 1.0 1.0 0.0 0.0
1.0 1.0 1.0 0.0 1.0 0.0 0.0 0.0
1.0 1.0 0.0 0.0 1.0 1.0 1.0 0.0
1.0 0.0 0.0 0.0 1.0 1.0 0.0 0.0
1.0 1.0 1.0 0.0 1.0 0.0 0.0 0.0
1.0 1.0 0.0 0.0 1.0 1.0 1.0 0.0
1.0 0.0 0.0 0.0 1.0 1.0 0.0 0.0

_transform._transforms.1.autoregressive_net.blocks.0.linear_layers.0.weight f4 [32, 32]
00000000: 706d ec3f d09a dbbd f50d 7e3d 7593 af3d
00000010: abba fcbd adf0 1b3e 6b2b 173f 5508 24be
00000020: efe6 d3bc 16f7 613e 3310 673d 9938 3cbd
00000030: 02b0 a5bc 4d4e 24be e44c a1bd 95a9 dc3c
00000040: ae61 f0bd 3995 e33d afc4 423e c6e6 053e
00000050: f6e6 043e 19b5 4dbe ceff 15be c88a e5bc
00000060: 5788 20be ec2e f0bd ac5a e4bd 84be fcbd
00000070: 35a6 823d 9408 243e 3cd8 55be 3427 9bbd
00000080: 071b 4cbe 62d5 323d 77b5 1b3c 1377 99bc
00000090: 0643 23bc ec84 1cbe e1ca a4be f515 89be
000000a0: 03ce c83d e9a4 f53d b36f 943c 9f12 edbd
000000b0: 80b0 95be fc35 1bbd b6a7 9b3d a9bd 2bbe
000000c0: 6d46 85be 0f50 acbd cb31 553d 10a4 85bd
000000d0: f530 f6bc 14ea 7a3e 8c27 28be 088f 07bd
000000e0: b066 39bc d1eb 5ebe 8d2e fabc 5113 603d
000000f0: d20c 78be 09bf be3d 5448 16be a1f9 fdbd
00000100: 1cdf b6bd d78a 29bd 547e cbbd 772c 2ebe
00000110: 33f6 7c3e a6f9 40be c254 39bd 9974 87be
00000120: b12f d5bd a51d 5bbd d241 80be 7c59 7b3c
00000130: d2b8 a3be d44e 84bf 449f cabc deea 3bbe
00000140: a7a5 1cbe 9c95 01be 9cad 4f3e ec2f fabd
00000150: 9ca9 78be 9a92 d53d df2f a3be 078d d1be
00000160: e040 8bbc a899 b93c 8e79 bfbe e51e 28be
00000170: 35dc a2be dd9c 8dbe 68fd c93c da1b 17be
00000180: ceb6 0bbe a5ce 093e 9465 013e fb7f 17be
00000190: 7139 6ebd 6263 7e3c 2144 c3bd bff4 18bb
000001a0: c4b4 15be 4489 3dbe 7452 b53d 80c6 e3bb
000001b0: 8844 5bbe 58d4 2abd e579 8e3c 97c5 d2bd
000001c0: 774f 453c fa95 aabd aeb2 c83d 4804 9fbd
000001d0: eaed cb3d ceac 6dbc 2ec1 233e 93f5 af3c
000001e0: 6513 75bd 435f 043e e73e 95bd 1e9e 6ebe
000001f0: ad98 e8bd 14f9 a03c 6ab3 47bd 8120 dbbc
00000200: 9f27 ecbd 12cd abbd 4ca2 753c bba6 293e
00000210: f88e 2f3d 59ab ba3d 41cb dabc a6a6 4fbd
00000220: b3d6 ebbd 551c 17be 5003 c2bc d336 043e
00000230: 793c fcbd 7327 0dbe e1f1 d8bd 8e8d 58be
00000240: 4344 56be f5af 9a3d b22a 673d 4538 dfbd
00000250: 52a6 7d3d 1551 1a3d 0143 293d 1696 ebbd
00000260: 377d 84bc 5587 72bd 87cd 6bbc 3715 963a
00000270: 8534 70be dbe5 91bd 6af6 c0bd 846b 5d3d
00000280: 88fa 2bbe e939 05bd 71be 71be 4100 13be
00000290: 71ca a5bd 2eb6 18be 2db1 adbd b263 26be
000002a0: 591b 9ebd ac6a 7ebd 441e 33bb 8735 c3bc
000002b0: 8a8c 6bbd 1fbf 8fbd 3884 d53d 95a8 523d
000002c0: 12ee a9be 3505 50be 4b86 893e c5e5 883e
000002d0: d93a c6bd 4ec1 44be cfb5 94bc 2ba7 8bbe
000002e0: e8a6 10bf cc20 c4bd 7f02 54be 7833 a1bd
000002f0: d243 58be 812e d4bc d96c 65bc f13c 33be
00000300: 491d 5b3d a3d9 183e 0a2e 6e3d 899a e8bd
00000310: 62fe 2cbd 68d0 31be be98 c9be d975 6b3c
00000320: d4b1 7e3d 083a aabe e05c fabd 0e7e f63d
00000330: e7b3 89bc 4574 4fbd 7b54 5a3d 333b 09be
00000340: 34d3 afbd d42e 45bd bbc6 28be f7b6 a2bd
00000350: 4b74 ffbd 07a1 95be 5923 8cbd 06eb b53c
00000360: e3f8 463e 31a3 6bbc 5fb5 303e d520 5bbe
00000370: 7512 0abe 9a9e 0fbe 8023 2f3d 8b46 063e
00000380: 46dd ddbd 524f 6fbe ee59 093e 963c 64be
00000390: aa4b 1abe c620 07be b8b0 47be 0719 b2bd
000003a0: 56cb c23d 8dff 12be 86e2 8c3c f480 29bd
000003b0: e9d2 53bb 1b69 85bd 26a2 313d e75a 35bd
000003c0: 8331 9f3c 2df0 aebd d332 bfbd 9395 92b9
000003d0: 3a8e ab3d d172 2abe 8179 55be c703 463c
000003e0: a25f 1e3c 8889 a1bd 7b8c 023e 631e 4ebe
000003f0: 1d6f d3bd 96ec 8cbb eb49 11be 67f5 cd3c
1.8470898 -0.107228875 0.06202503 0.08573047 -0.123402916 0.1522853 0.59050626 -0.16018803
-0.025866954 0.22066912 0.056411933 -0.045952413 -0.020225529 -0.16045494 -0.07875994 0.026936332
-0.11737381 0.11112446 0.19020341 0.13076314 0.1297873 -0.20088615 -0.14648363 -0.028020278
-0.1567701 -0.117277 -0.11150107 -0.123410255 0.06379358 0.16018897 -0.20883268 -0.07575837
-0.19932185 0.04366053 0.009503714 -0.018733537 -0.00996471 -0.1528508 -0.32186034 -0.26774564
0.098049186 0.11994345 0.018119669 -0.11575817 -0.2923622 -0.03789328 0.07600348 -0.16771568
-0.26030293 -0.084137075 0.05204944 -0.06525433 -0.030052641 0.24503356 -0.16421336 -0.03309539
-0.0113159865 -0.21769644 -0.030539775 0.05470592 -0.2422364 0.09313781 -0.14676028 -0.124011286
-0.089292735 -0.041392174 -0.099362046 -0.1700915 0.24703293 -0.18845233 -0.045246847 -0.26456144
-0.10409487 -0.053495068 -0.25050217 0.015341159 -0.31976944 -1.0336556 -0.024734147 -0.18351313
-0.15297566 -0.12654728 0.2028107 -0.122161716 -0.24283451 0.10428353 -0.3187246 -0.40927908
-0.016998708 0.022656277 -0.37397426 -0.16418035 -0.3180863 -0.2765874 0.024656966 -0.14756718
-0.13643953 0.13457735 0.12636405 -0.14794914 -0.05816025 0.015526624 -0.09534479 -0.002333924
-0.14619738 -0.18509394 0.08853617 -0.0069511533 -0.21412861 -0.041706413 0.017392108 -0.102915935
0.012042872 -0.08329387 0.097997054 -0.077644885 0.09957488 -0.014506532 0.15991661 0.021479404
-0.05983295 0.12926964 -0.07287388 -0.23302504 -0.113572456 0.01965002 -0.048755087 -0.026748898
-0.115309946 -0.083887234 0.014992308 0.16567509 0.042860955 0.09114713 -0.026708247 -0.050696038
-0.1151556 -0.14756902 -0.02368322 0.12911539 -0.12316222 -0.1378458 -0.1059301 -0.21147749
-0.20924477 0.075530924 0.0564372 -0.108994044 0.061926194 0.037674982 0.041323666 -0.11503236
-0.016172988 -0.059211094 -0.014392263 0.0011450414 -0.23457535 -0.071239196 -0.09422 0.054057613
-0.16794789 -0.03252593 -0.23607804 -0.14355566 -0.08095253 -0.14913246 -0.08481059 -0.16248968
-0.0772006 -0.06211345 -0.0027331272 -0.023829235 -0.057507075 -0.07018875 0.10425609 0.051430304
-0.33189446 -0.20314486 0.2686027 0.267378 -0.09679193 -0.19214365 -0.0181531 -0.27275977
-0.5650468 -0.09576568 -0.20704077 -0.07871145 -0.21119621 -0.025901081 -0.014003002 -0.17503716
0.053494725 0.14926772 0.058149375 -0.113576 -0.042234786 -0.17364657 -0.39374346 0.014371359
0.06218131 -0.332474 -0.12224746 0.12035762 -0.016809417 -0.050647993 0.053303223 -0.13401489
-0.08585206 -0.048140362 -0.1648206 -0.07945054 -0.12473353 -0.29224417 -0.068426795 0.022206794
0.1943088 -0.01438217 0.17256688 -0.21399243 -0.13483603 -0.14025345 0.042758465 0.13112848
-0.1083322 -0.23370102 0.13413212 -0.22288737 -0.15067926 -0.13196096 -0.19501007 -0.0869618
0.095114395 -0.14355297 0.017197859 -0.041382745 -0.0032321757 -0.06514188 0.043367527 -0.044276144
0.019432789 -0.08541904 -0.09335866 -0.00027958732 0.08376737 -0.16645361 -0.20847131 0.0120858615
0.009666355 -0.0788756 0.12748902 -0.20128779 -0.103239276 -0.004300664 -0.14188354 0.025141431

_transform._transforms.1.autoregressive_net.blocks.0.linear_layers.0.bias f4 [32]
00000000: cddc 31bf 5edb 1cbd 09a2 02be 2140 ecbd
00000010: c687 07be da8f 04be 8eae 96be 527f 7ebe
00000020: d5bc 81be a141 d7bd e758 66be e0ed bbbd
00000030: 8605 f1be e24a cdbd 898b 1fbf 010f 06bf
00000040: b62b a8bd 2c17 f6bd 6b65 ddbe cc23 b9bd
00000050: c343 54be 21bd 15be f651 dabe 9428 55bf
00000060: 899e 21be 8a93 c6be 1a42 65be 9197 53be
00000070: 0eff 84be c8a3 63bd 9052 88be 3b71 29be
-0.6947754 -0.038295142 -0.12757124 -0.11535669 -0.13235387 -0.129455 -0.2943005 -0.24853256
-0.2533938 -0.105105646 -0.22494851 -0.091762304 -0.47074527 -0.100240484 -0.6232229 -0.52366644
-0.08211462 -0.120161384 -0.43241438 -0.09040031 -0.20728974 -0.14622928 -0.42640656 -0.8326504
-0.15783133 -0.38784438 -0.22388497 -0.20663287 -0.2597584 -0.055576116 -0.2662549 -0.165471

_transform._transforms.1.autoregressive_net.blocks.0.linear_layers.0.mask f4 [32, 32]
00000000: 0000 803f 0000 0000 0000 0000 0000 803f
00000010: 0000 0000 0000 0000 0000 803f 0000 0000
00000020: 0000 0000 0000 803f 0000 0000 0000 0000
00000030: 0000 803f 0000 0000 0000 0000 0000 803f
00000040: 0000 0000 0000 0000 0000 803f 0000 0000
00000050: 0000 0000 0000 803f 0000 0000 0000 0000
00000060: 0000 803f 0000 0000 0000 0000 0000 803f
00000070: 0000 0000 0000 0000 0000 803f 0000 0000
00000080: 0000 803f 0000 803f 0000 0000 0000 803f
00000090: 0000 803f 0000 0000 0000 803f 0000 803f
000000a0: 0000 0000 0000 803f 0000 803f 0000 0000
000000b0: 0000 803f 0000 803f 0000 0000 0000 803f
000000c0: 0000 803f 0000 0000 0000 803f 0000 803f
000000d0: 0000 0000 0000 803f 0000 803f 0000 0000
000000e0: 0000 803f 0000 803f 0000 0000 0000 803f
000000f0: 0000 803f 0000 0000 0000 803f 0000 803f
00000100: 0000 803f 0000 803f 0000 803f 0000 803f
00000110: 0000 803f 0000 803f 0000 803f 0000 803f
00000120: 0000 803f 0000 803f 0000 803f 0000 803f
00000130: 0000 803f 0000 803f 0000 803f 0000 803f
00000140: 0000 803f 0000 803f 0000 803f 0000 803f
00000150: 0000 803f 0000 803f 0000 803f 0000 803f
00000160: 0000 803f 0000 803f 0000 803f 0000 803f
00000170: 0000 803f 0000 803f 0000 803f 0000 803f
00000180: 0000 803f 0000 0000 0000 0000 0000 803f
00000190: 0000 0000 0000 0000 0000 803f 0000 0000
000001a0: 0000 0000 0000 803f 0000 0000 0000 0000
000001b0: 0000 803f 0000 0000 0000 0000 0000 803f
000001c0: 0000 0000 0000 0000 0000 803f 0000 0000
000001d0: 0000 0000 0000 803f 0000 0000 0000 0000
000001e0: 0000 803f 0000 0000 0000 0000 0000 803f
000001f0: 0000 0000 0000 0000 0000 803f 0000 0000
00000200: 0000 803f 0000 803f 0000 0000 0000 803f
00000210: 0000 803f 0000 0000 0000 803f 0000 803f
00000220: 0000 0000 0000 803f 0000 803f 0000 0000
00000230: 0000 803f 0000 803f 0000 0000 0000 803f
00000240: 0000 803f 0000 0000 0000 803f 0000 803f
00000250: 0000 0000 0000 803f 0000 803f 0000 0000
00000260: 0000 803f 0000 803f 0000 0000 0000 803f
00000270: 0000 803f 0000 0000 0000 803f 0000 803f
00000280: 0000 803f 0000 803f 0000 803f 0000 803f
00000290: 0000 803f 0000 803f 0000 803f 0000 803f
000002a0: 0000 803f 0000 803f 0000 803f 0000 803f
000002b0: 0000 803f 0000 803f 0000 803f 0000 803f
000002c0: 0000 803f 0000 803f 0000 803f 0000 803f
000002d0: 0000 803f 0000 803f 0000 803f 0000 803f
000002e0: 0000 803f 0000 803f 0000 803f 0000 803f
000002f0: 0000 803f 0000 803f 0000 803f 0000 803f
00000300: 0000 803f 0000 0000 0000 0000 0000 803f
00000310: 0000 0000 0000 0000 0000 803f 0000 0000
00000320: 0000 0000 0000 803f 0000 0000 0000 0000
00000330: 0000 803f 0000 0000 0000 0000 0000 803f
00000340: 0000 0000 0000 0000 0000 803f 0000 0000
00000350: 0000 0000 0000 803f 0000 0000 0000 0000
00000360: 0000 803f 0000 0000 0000 0000 0000 803f
00000370: 0000 0000 0000 0000 0000 803f 0000 0000
00000380: 0000 803f 0000 803f 0000 0000 0000 803f
00000390: 0000 803f 0000 0000 0000 803f 0000 803f
000003a0: 0000 0000 0000 803f 0000 803f 0000 0000
000003b0: 0000 803f 0000 803f 0000 0000 0000 803f
000003c0: 0000 803f 0000 0000 0000 803f 0000 803f
000003d0: 0000 0000 0000 803f 0000 803f 0000 0000
000003e0: 0000 803f 0000 803f 0000 0000 0000 803f
000003f0: 0000 803f 0000 0000 0000 803f 0000 803f
1.0 0.0 0.0 1.0 0.0 0.0 1.0 0.0
0.0 1.0 0.0 0.0 1.0 0.0 0.0 1.0
0.0 0.0 1.0 0.0 0.0 1.0 0.0 0.0
1.0 0.0 0.0 1.0 0.0 0.0 1.0 0.0
1.0 1.0 0.0 1.0 1.0 0.0 1.0 1.0
0.0 1.0 1.0 0.0 1.0 1.0 0.0 1.0
1.0 0.0 1.0 1.0 0.0 1.0 1.0 0.0
1.0 1.0 0.0 1.0 1.0 0.0 1.0 1.0
1.0 1.0 1.0 1.0 1.0 1.0 1.0 1.0
1.0 1.0 1.0 1.0 1.0 1.0 1.0 1.0
1.0 1.0 1.0 1.0 1.0 1.0 1.0 1.0
1.0 1.0 1.0 1.0 1.0 1.0 1.0 1.0
1.0 0.0 0.0 1.0 0.0 0.0 1.0 0.0
0.0 1.0 0.0 0.0 1.0 0.0 0.0 1.0
0.0 0.0 1.0 0.0 0.0 1.0 0.0 0.0
1.0 0.0 0.0 1.0 0.0 0.0 1.0 0.0
1.0 1.0 0.0 1.0 1.0 0.0 1.0 1.0
0.0 1.0 1.0 0.0 1.0 1.0 0.0 1.0
1.0 0.0 1.0 1.0 0.0 1.0 1.0 0.0
1.0 1.0 0.0 1.0 1.0 0.0 1.0 1.0
1.0 1.0 1.0 1.0 1.0 1.0 1.0 1.0
1.0 1.0 1.0 1.0 1.0 1.0 1.0 1.0
1.0 1.0 1.0 1.0 1.0 1.0 1.0 1.0
1.0 1.0 1.0 1.0 1.0 1.0 1.0 1.0
1.0 0.0 0.0 1.0 0.0 0.0 1.0 0.0
0.0 1.0 0.0 0.0 1.0 0.0 0.0 1.0
0.0 0.0 1.0 0.0 0.0 1.0 0.0 0.0
1.0 0.0 0.0 1.0 0.0 0.0 1.0 0.0
1.0 1.0 0.0 1.0 1.0 0.0 1.0 1.0
0.0 1.0 1.0 0.0 1.0 1.0 0.0 1.0
1.0 0.0 1.0 1.0 0.0 1.0 1.0 0.0
1.0 1.0 0.0 1.0 1.0 0.0 1.0 1.0

_transform._transforms.1.autoregressive_net.blocks.0.linear_layers.1.weight f4 [32, 32]
00000000: 9b8f 62bf 7ef3 4c3a 928b 36ba 10e3 603c
00000010: fe50 2ab9 7149 8a39 b53f 07bd 2e95 3b3a
00000020: 5b92 dab9 7e1b fabc 9097 7c3a 2138 61b9
00000030: da14 ff3c f25e 16ba 3870 453a 1f00 a3bc
00000040: 751c 71ba ead9 563a ed97 0b3d 8c2c 5a38
00000050: 15b2 5fb9 7cda f4b9 7593 72ba 6fd4 ccb9
00000060: a030 ed39 4f68 703a 5005 88b8 1e79 063d
00000070: 1d4b 693a f422 413a 559d 103e b112 8439
00000080: 8c66 4a3c cd21 6f3d f8f0 463a f0b6 153c
00000090: 2a0f 86bd 0b88 7bba 9f93 813d 88dc 073b
000000a0: 6109 4d39 c5fd 883d a49a a0bc fdc5 4439
000000b0: 3d31 b33d 4950 0e3d 4884 2aba 96ec 473e
000000c0: 99d4 3abd c29a 823a 9769 7b3e c2bb bd3d
000000d0: 8ed5 d739 afb4 553a 858d a13e d4d7 6f3a
000000e0: ab11 5639 3ae7 8abc d16a bbb8 8e68 8c3c
000000f0: aafd 0d3e 88c8 ec39 d5a2 a7bd ddc7 bf3d
00000100: 36be 063c 5626 d9bc 0d5e dd3d 2d96 243d
00000110: 13d4 ebbd 71dc 133d a0e0 593d 0c1f 8f3c
00000120: a04c 093e fa0d 363d 377f c6bd 42c5 40ba
00000130: 582f 493e 1633 f4bb 6dab 263e b426 f13d
00000140: 9bec 183e ae6d a9bd 55c8 afbe d7fe 833d
00000150: 5bd5 d23d 6932 713a e38f 51be fb48 3a3e
00000160: 1f45 0e37 16f2 86bc 860b 22be db3f 183d
00000170: 0dca 51be 9515 8b3c 4e4b 083e a39b 8cbd
00000180: 29f6 67bb ea86 6e39 e04c 30ba 4aae f7bc
00000190: 1194 04ba 0be7 20b9 b3a3 97be 5de8 55ba
000001a0: a87c 24ba 22bc b3bb dcd5 cf39 6b90 4f3a
000001b0: e2e8 353b a757 6aba 1162 68ba 7e34 703e
000001c0: af5a 363a 65bd 68ba b3e1 1abe cd58 05b9
000001d0: 1709 1c3a 303d 76b9 e6b1 013a c7c9 d239
000001e0: 03f7 9e39 9a99 b936 9ebf 5038 00ab 6cbc
000001f0: 36c0 7cba bd50 4ab9 8295 98bd 7377 103a
00000200: 87b6 ca3c f8f0 b8bc 650f 6d3a f151 763d
00000210: 12ea b73d 1b93 46b9 ca49 683e 183c a03c
00000220: 773a 1cb9 2c7f 293d 09e6 cfbd 48f6 473a
00000230: 966e 86bd 111d 7e3e 5f5a 2fb9 e337 a0bd
00000240: a7ea 173e 9a69 53ba ef53 6f3d 1500 103e
00000250: f017 3c3a 0c50 813a 4608 c93e fb68 e3b9
00000260: 1f24 70ba 2f59 a63b fa65 353a 0f12 c23c
00000270: 8b6b a73d fbad 543a b140 013e 7fef ef3d
00000280: ecb9 c53c d1aa 20bc 7715 babd ee70 f9bc
00000290: 88aa b93d 0e61 99bb ecae 9ebe 5ee8 cebc
000002a0: d6be a7bd 1dc8 90bd 443e 313d 7eac 61ba
000002b0: 34b2 b13d e114 efbc 05bd 1b3d da39 f13e
000002c0: a298 ce3d b904 b53b 6d0a 12be adc3 9c3d
000002d0: 4fde 8f3c f47d 0cb7 f84f ff3c d6c1 1cbf
000002e0: 2592 3fba cb66 cebc dc00 cfbd e978 42bd
000002f0: 5ca3 bb3e 74c0 823c bc65 b03d 6a9a ad3d
00000300: 99b7 83ba fe51 11ba 9687 673a 4c48 90bb
00000310: 0f25 4eb9 98e8 5fba 9556 e3bd 59ef e8b9
00000320: aae9 8db8 be5b 623d a9ed 35ba e244 ff39
00000330: a523 a8bd 1b97 9fb9 8e2b f839 ca1e 2abd
00000340: 883e 3739 5d63 9639 7475 0dbd 48a1 b9b7
00000350: 5d8f 99b9 8ee7 6738 aa75 153a c9db 413a
00000360: 5108 743a 9cd7 06ba 6f72 a439 369a a2bc
00000370: 830a 8239 0731 0eb9 0ddd 103e 32a2 61ba
00000380: c9b4 8dbd c194 1a3d 2785 1e39 fefa 09be
00000390: aa2d da3d 922f 8839 69e5 27be ef76 cebd
000003a0: 4aec 0b3a 26c3 9cbd 9199 263e 6b88 e439
000003b0: e105 76bc ca9c 8dbd 80d2 ef38 359f aabd
000003c0: d379 38be 5380 cbb8 d512 363d 8ead c3bc
000003d0: 885c 223a 79fd 07b9 3ce7 fbbd 3078 2dba
000003e0: 6570 5aba 0ce1 06bc 8c18 1a39 5ae0 82bd
000003f0: ec16 553e 9082 04b7 565c 10be a1c5 1a3e
-0.88500375 0.00078182656 -0.00069635466 0.013726011 -0.00016242635 0.0002637613 -0.03301974 0.00071557134
-0.00041689244 -0.030530687 0.00096356217 -0.00021478582 0.031137872 -0.0005736194 0.00075316755 -0.019897519
-0.0009197661 0.0008195924 0.034080435 5.2016738e-05 -0.00021333278 -0.0004670209 -0.000925354 -0.00039068187
0.0004524039 0.00091708166 -6.485975e-05 0.03283035 0.00088994374 0.0007367574 0.14122517 0.00025190928
0.012353551 0.058381844 0.0007589008 0.009137854 -0.06545861 -0.0009595162 0.063269846 0.0020730812
0.00019553817 0.06689028 -0.019604988 0.00018765773 0.08749626 0.034744535 -0.0006504697 0.19523844
-0.045612905 0.0009964334 0.24551998 0.092643276 0.00041167106 0.0008152229 0.31553283 0.00091492874
0.00020415212 -0.01695596 -8.936751e-05 0.0171397 0.13866296 0.00045162835 -0.081853546 0.09364293
0.008224061 -0.026507538 0.108089544 0.04018228 -0.11515059 0.0360989 0.053192735 0.017470859
0.13408136 0.044446923 -0.09692233 -0.00073536125 0.19646966 -0.007452379 0.16276331 0.1177496
0.14934008 -0.08272873 -0.3433253 0.06445091 0.102946006 0.0009200932 -0.20465045 0.18191902
8.479953e-06 -0.016472857 -0.15824708 0.037170272 -0.20487233 0.016978065 0.13309976 -0.06865623
-0.0035394526 0.00022747708 -0.00067253225 -0.030234475 -0.0005057464 -0.0001534486 -0.2961708 -0.000815993
-0.0006274679 -0.0054850737 0.00039641454 0.00079179433 0.0027757217 -0.0008939453 -0.00088647107 0.23457524
0.0006956262 -0.00088783196 -0.1512516 -0.0001271695 0.0005952282 -0.00023483182 0.00049474684 0.00040204657
0.00030320146 5.531311e-06 4.9769522e-05 -0.014445066 -0.0009641679 -0.00019294299 -0.07450391 0.00055109634
0.024745239 -0.02257584 0.00090431265 0.06013674 0.08980192 -0.00018937553 0.22684398 0.019559905
-0.00014899099 0.041381046 -0.101512976 0.00076279463 -0.06564061 0.24815775 -0.00016722966 -0.078231595
0.14835607 -0.0008064747 0.058429655 0.14062531 0.0007175198 0.0009865775 0.39264125 -0.0004337503
-0.0009160656 0.0050765495 0.0006919798 0.023690252 0.08174809 0.00081130833 0.12622334 0.11715602
0.024136506 -0.009806351 -0.09086125 -0.030449357 0.090657294 -0.0046807593 -0.3099283 -0.025257286
-0.08190696 -0.070694186 0.04327227 -0.0008608772 0.08676568 -0.02918476 0.03802206 0.4711445
0.10087706 0.0055242446 -0.1426179 0.0765451 0.01756206 -8.373976e-06 0.031166062 -0.6123327
-0.0007307849 -0.0251955 -0.10107586 -0.04747859 0.3664807 0.01596091 0.08613154 0.08476718
-0.0010049223 -0.0005543529 0.00088321546 -0.0044031497 -0.00019659496 -0.0008541434 -0.111004986 -0.00044428816
-6.766927e-05 0.055263273 -0.0006940016 0.00048688712 -0.08209924 -0.00030439426 0.00047334697 -0.04153327
0.00017475535 0.0002868426 -0.03453584 -2.2128821e-05 -0.00029289248 5.5290344e-05 0.0005701432 0.0007395116
0.00093091006 -0.00051438226 0.00031365777 -0.019848924 0.00024803364 -0.0001356044 0.14146824 -0.0008607238
-0.06919248 0.03773952 0.00015117657 -0.13474652 0.10653241 0.00025975384 -0.16396107 -0.100812785
0.0005337639 -0.07654409 0.16269518 0.00043589188 -0.01501605 -0.06914671 0.00011435617 -0.083311476
-0.18015222 -9.7036966e-05 0.044451553 -0.023886468 0.0006193598 -0.00012969029 -0.12299964 -0.00066173356
-0.0008332788 -0.008232366 0.00014695729 -0.06390448 0.20809525 -7.898212e-06 -0.14097723 0.15114452

_transform._transforms.1.autoregressive_net.blocks.0.linear_layers.1.bias f4 [32]
00000000: ca05 3e3f 74d1 3cbe 0556 da3d 7174 d23c
00000010: ddd8 dabd 1a8e f2bc 129b 25bd e03b b7bd
00000020: 6213 753d d43f 023d fe89 9b3d 11d2 883d
00000030: 9bbf 4dbd 67d6 80bd b3cf 073e 364f 8bbd
00000040: 4731 8c3e 7b47 033e 68b3 d13d de53 383d
00000050: 9b91 df3d 18c5 d6bc cadd 913d e6a5 093b
00000060: f37f 303d 69ab be3c 0abb f33c eb1e 5ebc
00000070: 8383 aabe dcfd 38be c6ce 0ebd c2b1 58be
0.74227583 -0.18439275 0.10660938 0.02569029 -0.10685895 -0.029608775 -0.04043109 -0.08946967
0.059832938 0.031799152 0.07594679 0.06680692 -0.050231557 -0.06290894 0.13262825 -0.06802218
0.27381346 0.12820236 0.10239297 0.045001857 0.10916444 -0.026217028 0.07122381 0.0021003424
0.043090772 0.023275094 0.029752273 -0.013557176 -0.3330346 -0.1806559 -0.034865163 -0.21161559

_transform._transforms.1.autoregressive_net.blocks.0.linear_layers.1.mask f4 [32, 32]
00000000: 0000 803f 0000 0000 0000 0000 0000 803f
00000010: 0000 0000 0000 0000 0000 803f 0000 0000
00000020: 0000 0000 0000 803f 0000 0000 0000 0000
00000030: 0000 803f 0000 0000 0000 0000 0000 803f
00000040: 0000 0000 0000 0000 0000 803f 0000 0000
00000050: 0000 0000 0000 803f 0000 0000 0000 0000
00000060: 0000 803f 0000 0000 0000 0000 0000 803f
00000070: 0000 0000 0000 0000 0000 803f 0000 0000
00000080: 0000 803f 0000 803f 0000 0000 0000 803f
00000090: 0000 803f 0000 0000 0000 803f 0000 803f
000000a0: 0000 0000 0000 803f 0000 803f 0000 0000
000000b0: 0000 803f 0000 803f 0000 0000 0000 803f
000000c0: 0000 803f 0000 0000 0000 803f 0000 803f
000000d0: 0000 0000 0000 803f 0000 803f 0000 0000
000000e0: 0000 803f 0000 803f 0000 0000 0000 803f
000000f0: 0000 803f 0000 0000 0000 803f 0000 803f
00000100: 0000 803f 0000 803f 0000 803f 0000 803f
00000110: 0000 803f 0000 803f 0000 803f 0000 803f
00000120: 0000 803f 0000 803f 0000 803f 0000 803f
00000130: 0000 803f 0000 803f 0000 803f 0000 803f
00000140: 0000 803f 0000 803f 0000 803f 0000 803f
00000150: 0000 803f 0000 803f 0000 803f 0000 803f
00000160: 0000 803f 0000 803f 0000 803f 0000 803f
00000170: 0000 803f 0000 803f 0000 803f 0000 803f
00000180: 0000 803f 0000 0000 0000 0000 0000 803f
00000190: 0000 0000 0000 0000 0000 803f 0000 0000
000001a0: 0000 0000 0000 803f 0000 0000 0000 0000
000001b0: 0000 803f 0000 0000 0000 0000 0000 803f
000001c0: 0000 0000 0000 0000 0000 803f 0000 0000
000001d0: 0000 0000 0000 803f 0000 0000 0000 0000
000001e0: 0000 803f 0000 0000 0000 0000 0000 803f
000001f0: 0000 0000 0000 0000 0000 803f 0000 0000
00000200: 0000 803f 0000 803f 0000 0000 0000 803f
00000210: 0000 803f 0000 0000 0000 803f 0000 803f
00000220: 0000 0000 0000 803f 0000 803f 0000 0000
00000230: 0000 803f 0000 803f 0000 0000 0000 803f
00000240: 0000 803f 0000 0000 0000 803f 0000 803f
00000250: 0000 0000 0000 803f 0000 803f 0000 0000
00000260: 0000 803f 0000 803f 0000 0000 0000 803f
00000270: 0000 803f 0000 0000 0000 803f 0000 803f
00000280: 0000 803f 0000 803f 0000 803f 0000 803f
00000290: 0000 803f 0000 803f 0000 803f 0000 803f
000002a0: 0000 803f 0000 803f 0000 803f 0000 803f
000002b0: 0000 803f 0000 803f 0000 803f 0000 803f
000002c0: 0000 803f 0000 803f 0000 803f 0000 803f
000002d0: 0000 803f 0000 803f 0000 803f 0000 803f
000002e0: 0000 803f 0000 803f 0000 803f 0000 803f
000002f0: 0000 803f 0000 803f 0000 803f 0000 803f
00000300: 0000 803f 0000 0000 0000 0000 0000 803f
00000310: 0000 0000 0000 0000 0000 803f 0000 0000
00000320: 0000 0000 0000 803f 0000 0000 0000 0000
00000330: 0000 803f 0000 0000 0000 0000 0000 803f
00000340: 0000 0000 0000 0000 0000 803f 0000 0000
00000350: 0000 0000 0000 803f 0000 0000 0000 0000
00000360: 0000 803f 0000 0000 0000 0000 0000 803f
00000370: 0000 0000 0000 0000 0000 803f 0000 0000
00000380: 0000 803f 0000 803f 0000 0000 0000 803f
00000390: 0000 803f 0000 0000 0000 803f 0000 803f
000003a0: 0000 0000 0000 803f 0000 803f 0000 0000
000003b0: 0000 803f 0000 803f 0000 0000 0000 803f
000003c0: 0000 803f 0000 0000 0000 803f 0000 803f
000003d0: 0000 0000 0000 803f 0000 803f 0000 0000
000003e0: 0000 803f 0000 803f 0000 0000 0000 803f
000003f0: 0000 803f 0000 0000 0000 803f 0000 803f
1.0 0.0 0.0 1.0 0.0 0.0 1.0 0.0
0.0 1.0 0.0 0.0 1.0 0.0 0.0 1.0
0.0 0.0 1.0 0.0 0.0 1.0 0.0 0.0
1.0 0.0 0.0 1.0 0.0 0.0 1.0 0.0
1.0 1.0 0.0 1.0 1.0 0.0 1.0 1.0
0.0 1.0 1.0 0.0 1.0 1.0 0.0 1.0
1.0 0.0 1.0 1.0 0.0 1.0 1.0 0.0
1.0 1.0 0.0 1.0 1.0 0.0 1.0 1.0
1.0 1.0 1.0 1.0 1.0 1.0 1.0 1.0
1.0 1.0 1.0 1.0 1.0 1.0 1.0 1.0
1.0 1.0 1.0 1.0 1.0 1.0 1.0 1.0
1.0 1.0 1.0 1.0 1.0 1.0 1.0 1.0
1.0 0.0 0.0 1.0 0.0 0.0 1.0 0.0
0.0 1.0 0.0 0.0 1.0 0.0 0.0 1.0
0.0 0.0 1.0 0.0 0.0 1.0 0.0 0.0
1.0 0.0 0.0 1.0 0.0 0.0 1.0 0.0
1.0 1.0 0.0 1.0 1.0 0.0 1.0 1.0
0.0 1.0 1.0 0.0 1.0 1.0 0.0 1.0
1.0 0.0 1.0 1.0 0.0 1.0 1.0 0.0
1.0 1.0 0.0 1.0 1.0 0.0 1.0 1.0
1.0 1.0 1.0 1.0 1.0 1.0 1.0 1.0
1.0 1.0 1.0 1.0 1.0 1.0 1.0 1.0
1.0 1.0 1.0 1.0 1.0 1.0 1.0 1.0
1.0 1.0 1.0 1.0 1.0 1.0 1.0 1.0
1.0 0.0 0.0 1.0 0.0 0.0 1.0 0.0
0.0 1.0 0.0 0.0 1.0 0.0 0.0 1.0
0.0 0.0 1.0 0.0 0.0 1.0 0.0 0.0
1.0 0.0 0.0 1.0 0.0 0.0 1.0 0.0
1.0 1.0 0.0 1.0 1.0 0.0 1.0 1.0
0.0 1.0 1.0 0.0 1.0 1.0 0.0 1.0
1.0 0.0 1.0 1.0 0.0 1.0 1.0 0.0
1.0 1.0 0.0 1.0 1.0 0.0 1.0 1.0

_transform._transforms.1.autoregressive_net.blocks.1.linear_layers.0.weight f4 [32, 32]
00000000: c338 f23c 22ab b93d 02d2 d93d 03fa 78be
00000010: 9073 8e3d 28cb 96bd 71a8 7abe 3bfa 0abd
00000020: 719f 303e 5b76 d53c 43d1 673d 0d5a 493c
00000030: c0fa 20be 2de4 a83d 4faf acbd 9a3b 563d
00000040: 6057 3dbc 8cd8 cfbc 25b3 18be bca1 23be
00000050: 0750 303e d310 ee3c ef48 fabc 74a1 103e
00000060: deea 2d3d e081 303e 1fdf babd 5ab8 cebc
00000070: af11 0cbe b5e5 2c3e 538c 81bc 6138 af3d
00000080: e7e0 a9be 468e e2bd 2c81 08be 06ca 53be
00000090: 29dc 2dbe e54a 1cbe 3c1a d83d f390 f5bd
000000a0: 292c 123e fe86 9c3d 2632 78bd f4d0 30be
000000b0: 62f2 493e 0adc 093e 630f 283e af2e 99bc
000000c0: 0c56 e5bd d28c d53d 1298 64bd 9f54 d43d
000000d0: aa64 22be 30ff 0ebd 856d a63b 9804 073e
000000e0: d52b 3fbd 036c c0bd abdd d6bd 5b0b 4abe
000000f0: abc9 07be a963 113e 94ba d0bd 12b5 943d
00000100: f981 0cbd ee1f c4bd f844 f83e 63a3 983e
00000110: 6a2f e639 6666 aa3e 7a64 63be 1854 6ebf
00000120: 5e1a 80bf 593a 95be 9fe2 94bd b1f7 91bc
00000130: 2f88 d63e df9a 00bf 3444 b0be dc2b 6abe
00000140: b149 80bf 9986 a2bf cc73 58bf db16 0ebf
00000150: eab4 46be c3fd d4be 6b98 0b3f dba0 b1bf
00000160: 1351 0cbe e1bd 273f 10a9 9e3e 4d08 a43d
00000170: edea 2dbe e40e 26be b679 42bf 42a2 94be
00000180: 9a37 c9bd f2a2 cabd 6191 043e 1efd d63d
00000190: 8c86 313c 4fdb 79bd 9e70 8abe c987 22be
000001a0: 9a29 d83d 98fd cfbe ade8 08be 9b39 1ebe
000001b0: 5a2e 38be f6ed 68bd 7a13 2cbe 2acc 3cbe
000001c0: 64df 003d 752a e6bd 2f0b f7be ed04 463c
000001d0: 600f 0f3e 287e 8abe af04 463d 3991 9e3d
000001e0: 8f29 ae3d fc50 1b3e 3d3f 2fbe d197 73be
000001f0: 8f1c e63d 0bc6 d53d 22d5 2dbf 3c31 d63d
00000200: 6646 19be ffa8 bebd ade2 e7bb d064 06be
00000210: b5c3 9abe 142e 243e 2710 903c 5a2f 67be
00000220: 2de3 98bd 41e1 42be 28d3 133e 57fa ceba
00000230: e84e e1be 146c 4dbd 5861 22be c468 d4bd
00000240: 93f4 10be b2ca a23d 9df6 f3bd 706a febd
00000250: 8314 efbc 59e2 08bd 39e7 b6bd 97ff 2e3d
00000260: 4cda 4ebd d5f3 0abe 0ab1 6cbd 732c 83bc
00000270: 3fcf 66bd 93d6 a83d 39bb 433d 4303 b9bd
00000280: 020d 3ebe 4e72 62be 9f9a ca3d 4413 61bd
00000290: 9b99 c1bd a56c 0ebe 34e7 96be 3028 46be
000002a0: 23c5 87be 11c6 b2bc 79a9 bf3d 69a6 43be
000002b0: 7e6e 17be 85e4 76b9 4052 c6bd bde2 033e
000002c0: 051a 41be 16f8 a9be 0686 11be 807d 73be
000002d0: 49a5 67be 207c 6ebd 24ad 8f3d 4e77 79be
000002e0: f7c9 d43d 7a71 7c3c 5fa8 04bd 704c d5bd
000002f0: 66ab 80be 7842 81be bc57 09bc de3a 58bd
00000300: f0c4 09be 3827 25be b018 333e 06e4 9cbc
00000310: 25af 02be 7261 1f3e 57e3 77bd 8be9 f43d
00000320: 7216 debd 4a54 d0bd 3e4a 17be c4d5 f43c
00000330: 70ec 05be 8b90 62bd 6959 9fbd 30f9 b5bd
00000340: 8846 f93d 76ff 18be 715b 173d a10a 5b3d
00000350: bb4d 543d 469c 573d d0d1 28bd 72a3 323d
00000360: a877 b7bd 1d30 1ebd a19f 23be c9bd 1abe
00000370: b1e5 a8bd 2219 f0bd d86a debc 4c61 2fbe
00000380: 3610 60bd 325a 8c3d f388 58bd 9c19 0c3e
00000390: 7d0b 053d 3763 1cbe 5312 85be af8e dc3a
000003a0: 77df 08be 7c25 0f3e 0deb f2bd 5b9b 693d
000003b0: 88fc 06be 0ffd 21be 4b79 c53d b2e1 133d
000003c0: d04d 8cbe 2929 0d3e 6584 f7bd 455a e5be
000003d0: a5d5 f03d 1ce8 c3be cda9 03be 00b6 d3bd
000003e0: 26ad 723e f711 3cbe 87fc e1bd c025 51be
000003f0: 2b6d 39be 009c 473d 8fb0 99be af44 67be
0.029568082 0.09065844 0.10635759 -0.24314122 0.069556355 -0.07362968 -0.24478318 -0.033930045
0.17248322 0.026057413 0.056596052 0.012289536 -0.15720654 0.08246646 -0.08431875 0.052302934
-0.011556476 -0.025371812 -0.14912088 -0.15979666 0.17218028 0.029060757 -0.030552356 0.1412409
0.042460315 0.17237043 -0.09124588 -0.02523439 -0.13678621 0.16884501 -0.015813982 0.08555675
-0.331794 -0.11062293 -0.13330525 -0.20682535 -0.16978516 -0.15262945 0.10551879 -0.119905375
0.14274658 0.07642935 -0.0605947 -0.1726721 0.19721368 0.13462844 0.1641212 -0.018699018
-0.11198053 0.1042725 -0.055809088 0.10367703 -0.15858713 -0.034911335 0.0050789737 0.13185346
-0.04667266 -0.093956016 -0.104914986 -0.19730894 -0.13260524 0.14198174 -0.10191837 0.07261099
-0.03430364 -0.095764026 0.4849012 0.29812154 0.00043904345 0.3328125 -0.22206298 -0.93097067
-1.0008047 -0.29146078 -0.07269787 -0.017818304 0.41900775 -0.50236315 -0.34427035 -0.22868294
-1.0022489 -1.2697326 -0.8455169 -0.55503625 -0.1940495 -0.41599855 0.54529446 -1.3877214
-0.13702802 0.6552411 0.3098836 0.08009396 -0.16984148 -0.16216618 -0.75966966 -0.29030043
-0.09825058 -0.098943606 0.12946083 0.10497497 0.010835301 -0.061000165 -0.27039045 -0.1587211
0.1055481 -0.40623164 -0.13370009 -0.15451662 -0.17986432 -0.056867562 -0.16804305 -0.18437257
0.031463042 -0.11238567 -0.4825072 0.012086135 0.13970709 -0.27049375 0.04834431 0.07742543
0.085040204 0.15167612 -0.17113967 -0.23788382 0.11235916 0.10438164 -0.6790334 0.104586095
-0.14968261 -0.09309577 -0.0070765824 -0.13124394 -0.30227438 0.16033202 0.017585827 -0.22576657
-0.07465205 -0.1903124 0.14436018 -0.001579116 -0.44005513 -0.0501519 -0.15857446 -0.10371545
-0.14155798 0.07948817 -0.11912272 -0.12422645 -0.029184585 -0.033418987 -0.08930821 0.04272422
-0.050501153 -0.13569577 -0.057786025 -0.016012406 -0.05634999 0.08244052 0.04778597 -0.09033825
-0.1855965 -0.22113916 0.09892773 -0.054950014 -0.09453126 -0.13908632 -0.2947327 -0.19351268
-0.2651759 -0.021822961 0.09358496 -0.19106449 -0.14788243 -0.00023545518 -0.09683657 0.12879463
-0.18857582 -0.33197087 -0.14211282 -0.23778343 -0.22621645 -0.058223844 0.07015446 -0.24361917
0.10390084 0.015407914 -0.032387134 -0.1041497 -0.25130767 -0.25246024 -0.008382734 -0.052790515
-0.13454032 -0.16128242 0.17489886 -0.019151699 -0.12762125 0.15564516 -0.060519543 0.11958607
-0.10844125 -0.10172327 -0.14774415 0.029887088 -0.13078475 -0.05531363 -0.077807255 -0.08885419
0.12171656 -0.149412 0.03695244 0.053476933 0.051831942 0.05263927 -0.041215718 0.043612905
-0.089583695 -0.038620103 -0.15978862 -0.1511146 -0.08246935 -0.11723544 -0.027150556 -0.1712696
-0.05470296 0.06853141 -0.05286498 0.13681644 0.03248166 -0.15272222 -0.25990543 0.0016827191
-0.13366495 0.13979143 -0.11861239 0.057032924 -0.1318227 -0.1581919 0.096422754 0.03610391
-0.27403116 0.13785233 -0.12085799 -0.44795433 0.117594995 -0.38263023 -0.12857743 -0.10337448
0.23698863 -0.18366228 -0.11034494 -0.20424557 -0.1810805 0.048732758 -0.30017516 -0.22584794

_transform._transforms.1.autoregressive_net.blocks.1.linear_layers.0.bias f4 [32]
00000000: 3335 55be 3ce9 80be 8864 bdbe 98b5 84be
00000010: 64c0 6bbe 1725 5bbe 93fe 05be 6b4b 61be
00000020: d734 e7be de0d e3be 9ce1 4ebe ed4b cabe
00000030: 90b6 48be 89a7 1e3f 04f6 0cbf 7663 18be
00000040: 3b69 6cbf 424c 1dbf a1cd 85be b74c a5be
00000050: 6d7a c6be 4a15 13be 4e3b 30bf e2a0 97be
00000060: 61c8 7cbe 6833 7dbe e9bb 82be 843e 42be
00000070: 5670 84be a0bc d1be 9104 90be f2c9 b1be
-0.20821075 -0.25177944 -0.36990762 -0.25919795 -0.2302261 -0.21400867 -0.13085394 -0.22001426
-0.451575 -0.44346517 -0.2020325 -0.39511052 -0.19600892 0.6197439 -0.5506289 -0.14881691
-0.9234807 -0.61444485 -0.26133445 -0.3228509 -0.38765278 -0.1436359 -0.6884049 -0.2961493
-0.24685813 -0.24726641 -0.2553399 -0.1896916 -0.25866956 -0.40964222 -0.28128484 -0.34724385

_transform._transforms.1.autoregressive_net.blocks.1.linear_layers.0.mask f4 [32, 32]
00000000: 0000 803f 0000 0000 0000 0000 0000 803f
00000010: 0000 0000 0000 0000 0000 803f 0000 0000
00000020: 0000 0000 0000 803f 0000 0000 0000 0000
00000030: 0000 803f 0000 0000 0000 0000 0000 803f
00000040: 0000 0000 0000 0000 0000 803f 0000 0000
00000050: 0000 0000 0000 803f 0000 0000 0000 0000
00000060: 0000 803f 0000 0000 0000 0000 0000 803f
00000070: 0000 0000 0000 0000 0000 803f 0000 0000
00000080: 0000 803f 0000 803f 0000 0000 0000 803f
00000090: 0000 803f 0000 0000 0000 803f 0000 803f
000000a0: 0000 0000 0000 803f 0000 803f 0000 0000
000000b0: 0000 803f 0000 803f 0000 0000 0000 803f
000000c0: 0000 803f 0000 0000 0000 803f 0000 803f
000000d0: 0000 0000 0000 803f 0000 803f 0000 0000
000000e0: 0000 803f 0000 803f 0000 0000 0000 803f
000000f0: 0000 803f 0000 0000 0000 803f 0000 803f
00000100: 0000 803f 0000 803f 0000 803f 0000 803f
00000110: 0000 803f 0000 803f 0000 803f 0000 803f
00000120: 0000 803f 0000 803f 0000 803f 0000 803f
00000130: 0000 803f 0000 803f 0000 803f 0000 803f
00000140: 0000 803f 0000 803f 0000 803f 0000 803f
00000150: 0000 803f 0000 803f 0000 803f 0000 803f
00000160: 0000 803f 0000 803f 0000 803f 0000 803f
00000170: 0000 803f 0000 803f 0000 803f 0000 803f
00000180: 0000 803f 0000 0000 0000 0000 0000 803f
00000190: 0000 0000 0000 0000 0000 803f 0000 0000
000001a0: 0000 0000 0000 803f 0000 0000 0000 0000
000001b0: 0000 803f 0000 0000 0000 0000 0000 803f
000001c0: 0000 0000 0000 0000 0000 803f 0000 0000
000001d0: 0000 0000 0000 803f 0000 0000 0000 0000
000001e0: 0000 803f 0000 0000 0000 0000 0000 803f
000001f0: 0000 0000 0000 0000 0000 803f 0000 0000
00000200: 0000 803f 0000 803f 0000 0000 0000 803f
00000210: 0000 803f 0000 0000 0000 803f 0000 803f
00000220: 0000 0000 0000 803f 0000 803f 0000 0000
00000230: 0000 803f 0000 803f 0000 0000 0000 803f
00000240: 0000 803f 0000 0000 0000 803f 0000 803f
00000250: 0000 0000 0000 803f 0000 803f 0000 0000
00000260: 0000 803f 0000 803f 0000 0000 0000 803f
00000270: 0000 803f 0000 0000 0000 803f 0000 803f
00000280: 0000 803f 0000 803f 0000 803f 0000 803f
00000290: 0000 803f 0000 803f 0000 803f 0000 803f
000002a0: 0000 803f 0000 803f 0000 803f 0000 803f
000002b0: 0000 803f 0000 803f 0000 803f 0000 803f
000002c0: 0000 803f 0000 803f 0000 803f 0000 803f
000002d0: 0000 803f 0000 803f 0000 803f 0000 803f
000002e0: 0000 803f 0000 803f 0000 803f 0000 803f
000002f0: 0000 803f 0000 803f 0000 803f 0000 803f
00000300: 0000 803f 0000 0000 0000 0000 0000 803f
00000310: 0000 0000 0000 0000 0000 803f 0000 0000
00000320: 0000 0000 0000 803f 0000 0000 0000 0000
00000330: 0000 803f 0000 0000 0000 0000 0000 803f
00000340: 0000 0000 0000 0000 0000 803f 0000 0000
00000350: 0000 0000 0000 803f 0000 0000 0000 0000
00000360: 0000 803f 0000 0000 0000 0000 0000 803f
00000370: 0000 0000 0000 0000 0000 803f 0000 0000
00000380: 0000 803f 0000 803f 0000 0000 0000 803f
00000390: 0000 803f 0000 0000 0000 803f 0000 803f
000003a0: 0000 0000 0000 803f 0000 803f 0000 0000
000003b0: 0000 803f 0000 803f 0000 0000 0000 803f
000003c0: 0000 803f 0000 0000 0000 803f 0000 803f
000003d0: 0000 0000 0000 803f 0000 803f 0000 0000
000003e0: 0000 803f 0000 803f 0000 0000 0000 803f
000003f0: 0000 803f 0000 0000 0000 803f 0000 803f
1.0 0.0 0.0 1.0 0.0 0.0 1.0 0.0
0.0 1.0 0.0 0.0 1.0 0.0 0.0 1.0
0.0 0.0 1.0 0.0 0.0 1.0 0.0 0.0
1.0 0.0 0.0 1.0 0.0 0.0 1.0 0.0
1.0 1.0 0.0 1.0 1.0 0.0 1.0 1.0
0.0 1.0 1.0 0.0 1.0 1.0 0.0 1.0
1.0 0.0 1.0 1.0 0.0 1.0 1.0 0.0
1.0 1.0 0.0 1.0 1.0 0.0 1.0 1.0
1.0 1.0 1.0 1.0 1.0 1.0 1.0 1.0
1.0 1.0 1.0 1.0 1.0 1.0 1.0 1.0
1.0 1.0 1.0 1.0 1.0 1.0 1.0 1.0
1.0 1.0 1.0 1.0 1.0 1.0 1.0 1.0
1.0 0.0 0.0 1.0 0.0 0.0 1.0 0.0
0.0 1.0 0.0 0.0 1.0 0.0 0.0 1.0
0.0 0.0 1.0 0.0 0.0 1.0 0.0 0.0
1.0 0.0 0.0 1.0 0.0 0.0 1.0 0.0
1.0 1.0 0.0 1.0 1.0 0.0 1.0 1.0
0.0 1.0 1.0 0.0 1.0 1.0 0.0 1.0
1.0 0.0 1.0 1.0 0.0 1.0 1.0 0.0
1.0 1.0 0.0 1.0 1.0 0.0 1.0 1.0
1.0 1.0 1.0 1.0 1.0 1.0 1.0 1.0
1.0 1.0 1.0 1.0 1.0 1.0 1.0 1.0
1.0 1.0 1.0 1.0 1.0 1.0 1.0 1.0
1.0 1.0 1.0 1.0 1.0 1.0 1.0 1.0
1.0 0.0 0.0 1.0 0.0 0.0 1.0 0.0
0.0 1.0 0.0 0.0 1.0 0.0 0.0 1.0
0.0 0.0 1.0 0.0 0.0 1.0 0.0 0.0
1.0 0.0 0.0 1.0 0.0 0.0 1.0 0.0
1.0 1.0 0.0 1.0 1.0 0.0 1.0 1.0
0.0 1.0 1.0 0.0 1.0 1.0 0.0 1.0
1.0 0.0 1.0 1.0 0.0 1.0 1.0 0.0
1.0 1.0 0.0 1.0 1.0 0.0 1.0 1.0

_transform._transforms.1.autoregressive_net.blocks.1.linear_layers.1.weight f4 [32, 32]
00000000: 5a21 383c abeb 78ba 039f 4339 7c5e 72bd
00000010: 5754 c039 5b6a 95b9 2b23 01be 8ef3 f1b9
00000020: 9905 823a 3b60 2bc0 3602 2d3a 2c41 5b3a
00000030: 14ea 003e bfab 6eba abad 49ba dfb3 3d3e
00000040: 4280 9238 077d 15ba f770 5dbd b7bb d939
00000050: a687 0539 4445 2abd 6304 4b3a c9e9 683a
00000060: adf1 a53c 9ed8 6aba 3c2f 5db8 a19b f2bb
00000070: b761 88b9 3c87 21b9 4526 b4bd 7535 cab9
00000080: b964 593b a687 0d3e ee0a edb9 dd63 4ebe
00000090: 200c ccbd 9c50 d939 a578 573d bb0c 4cbe
000000a0: 7382 49ba 98bb fd3d 79e3 b2bd 6d25 263a
000000b0: df75 d73d eee0 743d eae4 55ba e795 163e
000000c0: 3837 4bbe a418 b5b9 c3c2 2f3e b886 28bd
000000d0: 8645 a0b9 7be6 8a3e e56b 1cbc 71b5 dbb8
000000e0: 139f 893d ed16 ebbd 50e9 21ba ea5d 9e3e
000000f0: 1a62 c5bd c58d 2fba ab80 8dbd 704c fbbc
00000100: e881 7bbc bc91 b63d f9b6 71bf e1d0 3d3e
00000110: 0e0c dc3c 8f39 b2bd c6ff fabd ae8a 2fbe
00000120: 1903 e3bd 566c 31bc 5e73 a3bc b9f1 c8bd
00000130: 3c96 e2bd f1f7 673b e993 c4be 5256 eb3d
00000140: 2290 f9bd 7a10 ca3e fcfd 073e 36fa e03d
00000150: 09cf 81bb 09de 1abd e510 11bd 63d5 4d3a
00000160: 32f1 3f3e 7271 cdbd 964c 29bd baec 313f
00000170: 5495 b6bd add0 be3c 0623 db3d 73df efbd
00000180: e037 dcbc 6d23 70ba 2a7c ec37 ef23 783e
00000190: 2e2f 1a3a 28a1 da39 1b36 963d 4405 e1b9
000001a0: 903a 5539 6b31 45bd 7c84 48ba 5f1f 4dba
000001b0: 7139 d43d b737 36b9 7aef d8b9 e75b 1fbe
000001c0: fa96 9838 a2e3 9b39 ab25 7cbe fc8b 0eba
000001d0: 3eda 22ba c245 e93d 19b1 55ba cb7f e9b9
000001e0: 47d8 bb3d 347c 2b3a cbdd 9cb9 3c05 d0bc
000001f0: cb29 d6b8 c59f 73ba 9c29 9cbd ab8a 663a
00000200: 77e6 c0bb 1f0d 32bd 3a3d 193a 5527 56be
00000210: 2ef3 dbbd e445 98b8 ba54 d6bd b6d2 55be
00000220: b7b2 53ba 2730 173d ea8c a4bd 19ac e5b9
00000230: c801 e03d 94d0 08bc 86d0 743a cdab be3d
00000240: ac4e 873e 1140 2a39 31c2 b03e 5c9d 86bc
00000250: 1b52 36ba a818 163d b130 e53d 2188 b9b9
00000260: 78b2 8abd 504a e3bd b305 37b9 6cce 6bbe
00000270: e3c0 b6bd 540a 83ba e2bc 03bd bf72 123d
00000280: e81a a23b e173 de3d fe78 89bf f112 c2bb
00000290: 09ac 8b3d 8b9f 913d fc13 af3d 3b1a 5a3d
000002a0: 36d9 d0bd 2619 8e3d 163a e33d 4a98 c93c
000002b0: 9368 1abd e861 853c 896b 55be 2d77 28be
000002c0: ff8f 60be c681 6abe 0721 82be bd6b a73b
000002d0: f17a bdbd 195b 7dbe 611c 263d bc90 f1bd
000002e0: d5af c5bd bba0 b43d f72f aa3d dc37 e13c
000002f0: 2555 c83d efdb 64bc 0c62 be3c 4143 373b
00000300: c4d3 273c c106 67b9 bd26 3f3a 01c4 263d
00000310: 2146 9e39 1190 45ba 9e12 003e 9a7a 473a
00000320: 637e 383a faea adbc bd96 b839 4c97 2138
00000330: b07f edbd c385 743a dee9 0a3a bf77 983e
00000340: 7bad 823a 8850 313a 64e7 4c3e 0f1f c339
00000350: 19f4 0ab8 6731 223d 07e1 60b9 2afa d2b9
00000360: 2eec 0f3e 941e c0b9 f252 4b3a f3ca 233e
00000370: cfd8 223a fd01 76ba 25cf b3bd d885 5d3a
00000380: a5e4 7dbc 1f32 0bbe 5919 e238 ce01 3c3d
00000390: 84d0 36be b365 8ab9 97cd e93d ebc2 563d
000003a0: de5a db39 527b 4f3e 080c dbbd 7f36 2739
000003b0: 1c5e fcbd fc2a 303d 944c fe39 2f5d 8d3c
000003c0: 52c2 0b3f 77ee b438 00f1 a5be b253 08be
000003d0: e271 67ba e6a7 63bd 882e 95be 1fb5 68ba
000003e0: 5c84 7e3b 330f 193e da0a 053a 4ab5 963e
000003f0: 2e12 c93d c3a9 58b9 f917 f7bd 5795 1cbe
0.01123842 -0.00094955665 0.00018655886 -0.05917214 0.00036683932 -0.00028498736 -0.12611072 -0.00046148564
0.0009919881 -2.6777484 0.0006599756 0.00083638984 0.12589294 -0.00091045717 -0.000769342 0.18525647
6.9857124e-05 -0.00057025295 -0.05406281 0.00041529324 0.00012734401 -0.041569963 0.0007744489 0.00088849344
0.020256842 -0.000895867 -5.2734496e-05 -0.0074038063 -0.00026012745 -0.00015404535 -0.08796362 -0.0003856827
0.0033171608 0.13821277 -0.00045212306 -0.20155282 -0.0996325 0.00041449524 0.05260529 -0.19926731
-0.000768698 0.12389296 -0.08734793 0.00063379743 0.10520529 0.059784822 -0.0008159416 0.1470562
-0.19845283 -0.0003454137 0.1716414 -0.041144103 -0.00030569377 0.27128968 -0.009547208 -0.0001047653
0.06719794 -0.11478982 -0.0006176429 0.30931026 -0.09637852 -0.00066968455 -0.06909307 -0.030676097
-0.015350796 0.089145154 -0.9441982 0.18536712 0.026861217 -0.08702385 -0.12255816 -0.17142746
-0.11084575 -0.010829052 -0.019952472 -0.0981173 -0.11063811 0.0035395587 -0.38394096 0.11491074
-0.12185694 0.39465696 0.13280481 0.10985224 -0.003961448 -0.037809405 -0.035416503 0.00078519265
0.18744352 -0.100314036 -0.041332804 0.6950184 -0.08915201 0.023292864 0.107000396 -0.117125414
-0.026882112 -0.0009160552 2.819121e-05 0.24232458 0.0005881664 0.0004170027 0.073345385 -0.00042919267
0.00020335079 -0.04814283 -0.0007649136 -0.0007824804 0.103625186 -0.00017377628 -0.00041377154 -0.15562402
7.2760464e-05 0.00029733503 -0.24623744 -0.00054377294 -0.000621233 0.11390258 -0.0008151695 -0.00044536436
0.09172111 0.000654164 -0.00029919887 -0.025393121 -0.000102121 -0.0009293522 -0.07625124 0.0008794467
-0.0058868486 -0.043469545 0.000584561 -0.20913441 -0.10739742 -7.260943e-05 -0.10465379 -0.20881161
-0.0008075642 0.036911156 -0.0803469 -0.00043806506 0.1093784 -0.00835051 0.0009338934 0.09310112
0.2642721 0.0001623633 0.34523156 -0.016432457 -0.00069549837 0.036644608 0.11190928 -0.00035387374
-0.067723215 -0.11098158 -0.00017454363 -0.23027962 -0.08923509 -0.0009997585 -0.032162555 0.03575396
0.004947055 0.10861946 -1.0740049 -0.005922668 0.068199225 0.071105085 0.085487336 0.05324767
-0.1019768 0.069383904 0.110950634 0.02460875 -0.037697386 0.016282037 -0.20841803 -0.16451712
-0.2192993 -0.22901067 -0.25415823 0.005109279 -0.09251965 -0.24741782 0.040554408 -0.11795184
-0.09652678 0.088197194 0.0830993 0.027492456 0.09781865 -0.013968452 0.023240112 0.002796367
0.01024336 -0.00022032393 0.0007291844 0.040714268 0.00030188359 -0.0007536421 0.12507102 0.00076095166
0.0007037876 -0.02123021 0.00035207524 3.8526297e-05 -0.1159662 0.00093277934 0.0005299131 0.2977886
0.0009969914 0.0006764014 0.20010144 0.0003721644 -3.3129098e-05 0.039597895 -0.00021446134 -0.00040240708
0.14054939 -0.00036643876 0.0007756195 0.15995388 0.00062121166 -0.00093844516 -0.08779744 0.0008450425
-0.015496408 -0.13593338 0.00010781241 0.04590016 -0.1785298 -0.00026397183 0.11416166 0.052431982
0.00041838636 0.20261887 -0.10695654 0.00015946662 -0.123226374 0.043009743 0.0004850371 0.017256347
0.54593384 8.6274864e-05 -0.3241043 -0.13313177 -0.00088289205 -0.055580042 -0.29137063 -0.0008877087
0.0038836217 0.14947204 0.00050751644 0.29435188 0.098179206 -0.00020662606 -0.12065119 -0.15291344

_transform._transforms.1.autoregressive_net.blocks.1.linear_layers.1.bias f4 [32]
00000000: ddee 5a3f 968f 1c3f 1085 9fbe 4c09 943e
00000010: 57bf 003f 74d1 6e3e e243 af3e 1a90 e93e
00000020: 803c 903d fb49 a83e bc75 dd3e 2e37 383e
00000030: f577 bb3e 0f71 dd3e a874 563e 3a3b a43e
00000040: 8b9e 81be 7c33 bebe 9d16 a13e eab4 fb3e
00000050: 5046 edbd dad4 a93e 6366 fa3e ee4e dcbe
00000060: af33 b33e 2aab c33e 3de5 8f3e 1c6d a73e
00000070: c008 4c3f 48b7 363e 4cdf a8bd ed94 cf3c
0.85520726 0.61156595 -0.31156206 0.28913343 0.5029196 0.23322088 0.34231478 0.45617753
0.070427895 0.32868943 0.43253887 0.179898 0.36614957 0.4325032 0.20942938 0.32076436
-0.2531627 -0.37148654 0.31462565 0.49161464 -0.11585677 0.33170205 0.4890624 -0.4302897
0.3500037 0.38216525 0.28104582 0.3270043 0.7970085 0.17843354 -0.082457155 0.025339568
