model2_v2/epoch=0modello-N_iter4-N_features32-N_BS32-epochs301-lr0.004-val_loss1000.pth (torch, 205818 bytes, 72 tensors)

_transform._transforms.1.autoregressive_net.initial_layer.weight f4 [32, 4]
000000 96 01 24 3f 9a cd e8 3e 44 31 c4 be 0c a9 f8 3e
       0.6406492 0.45469362 -0.38318837 0.48566473
000010 98 04 a1 3d 82 a1 af bd 4e 16 84 be c0 20 71 bc
       0.07862204 -0.08575727 -0.25798267 -0.014717281
000020 3e 23 bd be 97 b2 dc 3e ef 66 f2 3e fe d3 bf 3e
       -0.3694095 0.43105003 0.47344157 0.37466425
000030 92 c4 07 3c 36 f5 a3 3e 68 1c e3 3e 3e 66 df be
       0.008286612 0.3202302 0.4435761 -0.43632692
000040 f3 60 72 bc 40 76 a8 3c 30 7b 0f 3d d0 de 5e 3e
       -0.014793622 0.020564198 0.03502959 0.21764684
000050 48 27 ce bd 9e 47 18 3e ea a3 c7 3c c8 91 fa 3e
       -0.10066086 0.1487107 0.024370153 0.48939347
000060 b7 cc 59 3d 0e 02 ca be 5c 48 d1 be 40 a8 c6 3c
       0.053173747 -0.39454693 -0.40875518 0.02425015
000070 50 5d cd 3c 57 f8 0c bd f0 b5 82 3d aa 11 cb 3e
       0.025068909 -0.034416523 0.06382358 0.39661914
000080 35 31 56 3e 4f cb 75 be 98 2b cb 3c 04 f3 57 3e
       0.20917208 -0.24003337 0.02480106 0.21088797
000090 79 5c e6 3e 34 51 d4 3e be 2d e6 be 40 5c a6 3d
       0.44992426 0.41468203 -0.44956774 0.08123064
0000a0 d4 12 83 bd 37 97 97 3d e0 29 a1 3d a0 dc ab 3d
       -0.064000756 0.07401889 0.07869315 0.0839169
0000b0 c1 47 2f 3e 3b dd 48 be a9 c4 e7 3c 80 e5 13 3e
       0.17117216 -0.19615643 0.028292017 0.14443016
0000c0 52 2b 00 bf 24 de c4 be 3c 5d 7c be 8c 80 40 3e
       -0.500661 -0.3845073 -0.24644941 0.18799037
0000d0 65 c3 6a bd 1d 84 c3 3d 40 f2 a8 3d 70 70 24 3d
       -0.05731525 0.09546683 0.082493305 0.04014629
0000e0 18 52 98 3b 33 50 80 3d 58 3a d1 bc 40 58 36 bc
       0.004648458 0.06265297 -0.025540516 -0.011129439
0000f0 40 cd cc 3e 32 07 d4 be f0 e0 d0 bd 08 75 84 be
       0.40000343 -0.4141174 -0.101991534 -0.25870538
000100 65 67 98 3e a2 15 a8 be 3e 4e fc 3e f4 f8 68 be
       0.29766384 -0.32829005 0.49278444 -0.22751218
000110 bc 36 92 3e e6 d6 93 be 91 2b 95 bd ec ab 40 3e
       0.28557384 -0.28874892 -0.072837 0.18815583
000120 b9 ba 03 bd 46 4c 87 3e 58 e9 00 be f8 6d 94 be
       -0.032160494 0.2642538 -0.12589014 -0.2899015
000130 bf 39 40 be 0e c7 32 3e 98 32 85 3d 6c 86 a0 3e
       -0.18772028 0.17458746 0.065037906 0.31352556
000140 d5 5d 17 3c 41 cf 84 bb da a3 3f 3c c8 a5 97 3d
       0.00923868 -0.004053027 0.01169678 0.07404667
000150 e8 fc be bb f2 ae f4 3e bc 9d 08 3e 1e f7 a9 3e
       -0.0058284886 0.47789723 0.13341421 0.33196348
000160 66 20 4d bd fa d3 81 3d 54 82 fa be a0 9f 27 3d
       -0.050079726 0.063392594 -0.48927557 0.040923715
000170 0c c1 b7 bc 1c e1 97 bd 32 9e ad bd 24 0b 96 3e
       -0.02243092 -0.07415983 -0.08477439 0.29305375
000180 15 a5 ee ba e8 3f ab 3d a0 5b 10 bd f6 a1 e1 3e
       -0.0018207157 0.083617985 -0.03524363 0.4406888
000190 15 d7 20 bd ba 32 3e 3d 00 46 5a 3d 00 08 95 3a
       -0.03926762 0.046435095 0.053289413 0.0011370182
0001a0 23 77 57 bd 72 d2 e5 3d ed 8a 60 3d f8 e4 aa 3e
       -0.052603852 0.1122178 0.05481999 0.33377814
0001b0 6c ac 34 bc 4c 9c 52 3e f0 19 a3 3d fa f2 cf 3e
       -0.011027437 0.20567435 0.079639316 0.40615064
0001c0 fb 87 df bd 66 cc 0b 3e b8 4e 99 bd 0e 1c e1 be
       -0.10914608 0.1365219 -0.074857175 -0.43966717
0001d0 c7 20 ab bd bf 39 26 3e 9e 0b 5d bc 50 12 9c be
       -0.08355861 0.16232966 -0.013491539 -0.3048272
0001e0 1b 29 5f bf f2 f4 9b 3e 5a 6b b1 be 00 1b 21 be
       -0.87172097 0.30460316 -0.34652215 -0.15732956
0001f0 0a d9 ab bc 41 ac d4 3c a8 8d fa 3d 6c cc e5 be
       -0.020977516 0.025961043 0.1223405 -0.44882524

_transform._transforms.1.autoregressive_net.initial_layer.bias f4 [32]
000000 26 d1 08 bf 50 3b 51 3e c4 97 8c 3c 72 6d c6 3c
       -0.53444135 0.20432782 0.017162211 0.02422211
000010 d1 1c 28 3e a2 62 38 bd fe 3d 3d 3e 93 88 1f 3e
       0.16417243 -0.04501594 0.1848068 0.15579443
000020 b7 d3 f2 bd b6 74 e7 3c a0 98 81 bd dc 3d 87 bd
       -0.11856788 0.028253894 -0.06327939 -0.066035956
000030 e1 d0 af 3e 9d 73 6e 3e 05 75 b0 be fe 58 74 3e
       0.3433905 0.2328629 -0.3446428 0.23862073
000040 63 7c 27 3e ed e7 f3 3d 37 e3 7b be c4 0e 81 be
       0.16356044 0.11909471 -0.24598394 -0.25206578
000050 1a d2 e6 bd fc 4e 29 3d 04 b6 87 3d 0c 78 55 3e
       -0.112705424 0.04133509 0.066265136 0.20846575
000060 25 aa 12 be 81 7f 17 be 06 26 10 be 6f 02 59 3e
       -0.14322717 -0.14794733 -0.14077005 0.21192335
000070 f4 66 4d 3e 8d 7d 63 3e 99 45 d0 be 0c 40 36 3d
       0.20058805 0.22215863 -0.406781 0.044494674

_transform._transforms.1.autoregressive_net.initial_layer.mask f4 [32, 4]
000000 00 00 80 3f 00 00 00 00 00 00 00 00 00 00 00 00
       1.0 0.0 0.0 0.0
000010 00 00 80 3f 00 00 80 3f 00 00 00 00 00 00 00 00
       1.0 1.0 0.0 0.0
000020 00 00 80 3f 00 00 80 3f 00 00 80 3f 00 00 00 00
       1.0 1.0 1.0 0.0
000030 00 00 80 3f 00 00 00 00 00 00 00 00 00 00 00 00
       1.0 0.0 0.0 0.0
000040 00 00 80 3f 00 00 80 3f 00 00 00 00 00 00 00 00
       1.0 1.0 0.0 0.0
000050 00 00 80 3f 00 00 80 3f 00 00 80 3f 00 00 00 00
       1.0 1.0 1.0 0.0
000060 00 00 80 3f 00 00 00 00 00 00 00 00 00 00 00 00
       1.0 0.0 0.0 0.0
000070 00 00 80 3f 00 00 80 3f 00 00 00 00 00 00 00 00
       1.0 1.0 0.0 0.0
000080 00 00 80 3f 00 00 80 3f 00 00 80 3f 00 00 00 00
       1.0 1.0 1.0 0.0
000090 00 00 80 3f 00 00 00 00 00 00 00 00 00 00 00 00
       1.0 0.0 0.0 0.0
0000a0 00 00 80 3f 00 00 80 3f 00 00 00 00 00 00 00 00
       1.0 1.0 0.0 0.0
0000b0 00 00 80 3f 00 00 80 3f 00 00 80 3f 00 00 00 00
       1.0 1.0 1.0 0.0
0000c0 00 00 80 3f 00 00 00 00 00 00 00 00 00 00 00 00
       1.0 0.0 0.0 0.0
0000d0 00 00 80 3f 00 00 80 3f 00 00 00 00 00 00 00 00
       1.0 1.0 0.0 0.0
0000e0 00 00 80 3f 00 00 80 3f 00 00 80 3f 00 00 00 00
       1.0 1.0 1.0 0.0
0000f0 00 00 80 3f 00 00 00 00 00 00 00 00 00 00 00 00
       1.0 0.0 0.0 0.0
000100 00 00 80 3f 00 00 80 3f 00 00 00 00 00 00 00 00
       1.0 1.0 0.0 0.0
000110 00 00 80 3f 00 00 80 3f 00 00 80 3f 00 00 00 00
       1.0 1.0 1.0 0.0
000120 00 00 80 3f 00 00 00 00 00 00 00 00 00 00 00 00
       1.0 0.0 0.0 0.0
000130 00 00 80 3f 00 00 80 3f 00 00 00 00 00 00 00 00
       1.0 1.0 0.0 0.0
000140 00 00 80 3f 00 00 80 3f 00 00 80 3f 00 00 00 00
       1.0 1.0 1.0 0.0
000150 00 00 80 3f 00 00 00 00 00 00 00 00 00 00 00 00
       1.0 0.0 0.0 0.0
000160 00 00 80 3f 00 00 80 3f 00 00 00 00 00 00 00 00
       1.0 1.0 0.0 0.0
000170 00 00 80 3f 00 00 80 3f 00 00 80 3f 00 00 00 00
       1.0 1.0 1.0 0.0
000180 00 00 80 3f 00 00 00 00 00 00 00 00 00 00 00 00
       1.0 0.0 0.0 0.0
000190 00 00 80 3f 00 00 80 3f 00 00 00 00 00 00 00 00
       1.0 1.0 0.0 0.0
0001a0 00 00 80 3f 00 00 80 3f 00 00 80 3f 00 00 00 00
       1.0 1.0 1.0 0.0
0001b0 00 00 80 3f 00 00 00 00 00 00 00 00 00 00 00 00
       1.0 0.0 0.0 0.0
0001c0 00 00 80 3f 00 00 80 3f 00 00 00 00 00 00 00 00
       1.0 1.0 0.0 0.0
0001d0 00 00 80 3f 00 00 80 3f 00 00 80 3f 00 00 00 00
       1.0 1.0 1.0 0.0
0001e0 00 00 80 3f 00 00 00 00 00 00 00 00 00 00 00 00
       1.0 0.0 0.0 0.0
0001f0 00 00 80 3f 00 00 80 3f 00 00 00 00 00 00 00 00
       1.0 1.0 0.0 0.0

_transform._transforms.1.autoregressive_net.blocks.0.linear_layers.0.weight f4 [32, 32]
000000 c1 06 2e 3f d0 9a db bd f5 0d 7e 3d e9 6e 84 3d
       0.67979056 -0.107228875 0.06202503 0.06466467
000010 ab ba fc bd ad f0 1b 3e 5e 20 00 be 55 08 24 be
       -0.123402916 0.1522853 -0.12512347 -0.16018803
000020 ef e6 d3 bc 72 db 80 3e 33 10 67 3d 99 38 3c bd
       -0.025866954 0.25167423 0.056411933 -0.045952413
000030 36 55 12 3e 4d 4e 24 be e4 4c a1 bd 5f 54 b1 bb
       0.14290318 -0.16045494 -0.07875994 -0.005411669
000040 ae 61 f0 bd 39 95 e3 3d a1 51 4b bd c6 e6 05 3e
       -0.11737381 0.11112446 -0.049638394 0.13076314
000050 f6 e6 04 3e 80 0c af bb ce ff 15 be c8 8a e5 bc
       0.1297873 -0.0053420663 -0.14648363 -0.028020278
000060 61 ea 34 3e ec 2e f0 bd ac 5a e4 bd 79 07 61 be
       0.17667533 -0.117277 -0.11150107 -0.21975507
000070 35 a6 82 3d 94 08 24 3e 3c d8 55 be 34 27 9b bd
       0.06379358 0.16018897 -0.20883268 -0.07575837
000080 e4 a8 26 be c6 5c 03 3e 77 b5 1b 3c 13 77 99 bc
       -0.16275364 0.12828359 0.009503714 -0.018733537
000090 18 b9 b6 3d ec 84 1c be 5d 5b 4f be e8 0b 17 be
       0.089220226 -0.1528508 -0.20249696 -0.14750636
0000a0 03 ce c8 3d 91 4b c6 bd 01 be d3 3d 9f 12 ed bd
       0.098049186 -0.09682382 0.10338975 -0.11575817
0000b0 c9 85 25 be 7b 84 8f 3d b6 a7 9b 3d d1 ab c8 bd
       -0.16164316 0.070076905 0.07600348 -0.097983964
0000c0 8f 8a 26 be 0f 50 ac bd cb 31 55 3d 10 a4 85 bd
       -0.16263793 -0.084137075 0.05204944 -0.06525433
0000d0 f5 30 f6 bc 50 29 8a 3d 8f 89 d0 bc 08 8f 07 bd
       -0.030052641 0.06746161 -0.025456218 -0.03309539
0000e0 b0 66 39 bc ca 74 07 be 8d 2e fa bc 67 87 20 3e
       -0.0113159865 -0.13228145 -0.030539775 0.15676652
0000f0 30 de 10 be 09 bf be 3d d7 19 24 bd 1d 61 00 3d
       -0.14147258 0.09313781 -0.040063705 0.031342614
000100 fd 8d 15 be 14 a4 40 be 04 ea 0e be 77 d4 d1 3b
       -0.14604945 -0.18812591 -0.13956457 0.0064035016
000110 ea d9 10 be 6b 2d 34 39 53 d3 c3 3d 46 cf 6c ba
       -0.14145628 0.00017183057 0.09561791 -0.00090335717
000120 60 17 c1 bd c4 6c 2e be ea 26 0c be fe e7 99 3d
       -0.094282866 -0.17033678 -0.1368672 0.07514952
000130 ed 56 8a be 97 33 95 3d f4 06 c5 bd 16 07 08 3e
       -0.27019444 0.072852306 -0.09620467 0.13283953
000140 23 68 70 3d 73 b3 5d bd 13 a4 9d 3d 42 5b d7 bc
       0.058693063 -0.054126214 0.0769731 -0.026288632
000150 04 83 1e bd e0 40 8f bc 1d 52 6c be fd 4c 7e be
       -0.038699165 -0.01748699 -0.23078199 -0.24834056
000160 e0 40 8b bc a3 f8 16 3e ec 74 41 be 23 cb a6 bd
       -0.016998708 0.14743285 -0.18892258 -0.08144214
000170 5a ca 20 3c cb d2 39 be 24 3a c9 39 73 58 9f bc
       0.009813869 -0.18146817 0.00038381026 -0.019451356
000180 ce b6 0b be a5 ce 09 3e 94 65 01 3e 50 d1 07 bd
       -0.13643953 0.13457735 0.12636405 -0.0331586
000190 71 39 6e bd 62 63 7e 3c 3e ab 0b 3d bf f4 18 bb
       -0.05816025 0.015526624 0.034098856 -0.002333924
0001a0 c4 b4 15 be b7 1c 05 be 74 52 b5 3d 80 c6 e3 bb
       -0.14619738 -0.12999235 0.08853617 -0.0069511533
0001b0 77 4f b3 bd 58 d4 2a bd e5 79 8e 3c bd df 7b 3d
       -0.08755391 -0.041706413 0.017392108 0.06149267
0001c0 77 4f 45 3c fa 95 aa bd ae b2 c8 3d 48 04 9f bd
       0.012042872 -0.08329387 0.097997054 -0.077644885
0001d0 ea ed cb 3d a8 90 19 bc 2e c1 23 3e 93 f5 af 3c
       0.09957488 -0.009372868 0.15991661 0.021479404
0001e0 65 13 75 bd 43 5f 04 3e e7 3e 95 bd bb b7 e1 bd
       -0.05983295 0.12926964 -0.07287388 -0.11021372
0001f0 ad 98 e8 bd 14 f9 a0 3c 76 32 a0 3d 81 20 db bc
       -0.113572456 0.01965002 0.07822125 -0.026748898
000200 1b a8 e9 3b 12 cd ab bd 4c a2 75 3c bb a6 29 3e
       0.0071306354 -0.083887234 0.014992308 0.16567509
000210 99 42 09 3e 59 ab ba 3d 41 cb da bc 3d 92 39 3d
       0.13404311 0.09114713 -0.026708247 0.04530548
000220 b3 d6 eb bd 28 9a 2b bd 50 03 c2 bc d3 36 04 3e
       -0.1151556 -0.04189506 -0.02368322 0.12911539
000230 79 3c fc bd 73 27 0d be e1 f1 d8 bd 41 29 24 be
       -0.12316222 -0.1378458 -0.1059301 -0.16031362
000240 7b b5 18 be f5 af 9a 3d b2 2a 67 3d 45 38 df bd
       -0.1491298 0.075530924 0.0564372 -0.108994044
000250 52 a6 7d 3d 15 51 1a 3d b2 97 89 3d 16 96 eb bd
       0.061926194 0.037674982 0.06718387 -0.11503236
000260 37 7d 84 bc 55 87 72 bd 87 cd 6b bc da 10 2a 3d
       -0.016172988 -0.059211094 -0.014392263 0.041519977
000270 1e 73 16 be db e5 91 bd 6a f6 c0 bd f9 1d 0c 3e
       -0.14692351 -0.071239196 -0.09422 0.13683309
000280 88 fa 2b be dc cf 7e 3d 0f 4b 4f be 37 ab 0a be
       -0.16794789 0.06220995 -0.20243476 -0.13541876
000290 a7 fe d1 3c 5c d4 18 be 4c b0 b4 bc 91 36 d5 bd
       0.025634123 -0.14924759 -0.022056721 -0.10410798
0002a0 59 1b 9e bd 60 45 7c bd 44 1e 33 bb 3d 3c c3 bc
       -0.0772006 -0.0615896 -0.0027331272 -0.023832435
0002b0 79 6f 12 3e 39 3b 9a 3c 38 84 d5 3d 3a 3b d8 3d
       0.14300336 0.018827068 0.10425609 0.105581716
0002c0 ba 2c 54 be e6 7e 2b be 4b 86 89 3e c5 e5 88 3e
       -0.20720187 -0.16747627 0.2686027 0.267378
0002d0 d9 3a c6 bd e4 a5 29 be 12 ef b3 3d 88 26 74 be
       -0.09679193 -0.16567189 0.087858334 -0.23842824
0002e0 e8 a6 10 bf cc 20 c4 bd 82 50 51 be eb 8b 02 3d
       -0.5650468 -0.09576568 -0.20440868 0.031871717
0002f0 c2 01 0b be 68 5a be 3d aa ad 83 3e 2e 70 1d be
       -0.1357489 0.092945874 0.25718433 -0.15374824
000300 ae 46 71 3e a3 d9 18 3e 0a 2e 6e 3d a2 98 a0 ba
       0.23562118 0.14926772 0.058149375 -0.0012252519
000310 62 fe 2c bd 68 d0 31 be 91 fa 53 be d9 75 6b 3c
       -0.042234786 -0.17364657 -0.20701052 0.014371359
000320 d4 b1 7e 3d 3c a6 4f be e0 5c fa bd 0e 7e f6 3d
       0.06218131 -0.20278257 -0.12224746 0.12035762
000330 e7 b3 89 bc 45 74 4f bd 7b 54 5a 3d 5d 13 0d 3d
       -0.016809417 -0.050647993 0.053303223 0.034442294
000340 34 d3 af bd d4 2e 45 bd bb c6 28 be f7 b6 a2 bd
       -0.08585206 -0.048140362 -0.1648206 -0.07945054
000350 4b 74 ff bd 6f 52 42 3c 59 23 8c bd 06 eb b5 3c
       -0.12473353 0.011860474 -0.068426795 0.022206794
000360 e3 f8 46 3e 31 a3 6b bc 5f b5 30 3e 09 bf 53 bd
       0.1943088 -0.01438217 0.17256688 -0.051695857
000370 75 12 0a be 9a 9e 0f be 80 23 2f 3d 8b 46 06 3e
       -0.13483603 -0.14025345 0.042758465 0.13112848
000380 01 04 dc 3c 91 a5 57 be ee 59 09 3e 7d b3 3b be
       0.026857378 -0.21059252 0.13413212 -0.18330188
000390 70 5e c4 bc c6 20 07 be fb 05 f0 bd a3 f8 51 bd
       -0.023970813 -0.13196096 -0.11719891 -0.05126251
0003a0 56 cb c2 3d 70 33 3b bc 8e 47 0a 3e f4 80 29 bd
       0.095114395 -0.011425838 0.13503858 -0.041382745
0003b0 e9 d2 53 bb fe 9a 83 bd 26 a2 31 3d e6 3f 58 3d
       -0.0032321757 -0.06426047 0.043367527 0.052795313
0003c0 83 31 9f 3c 2d f0 ae bd d3 32 bf bd 1e c2 8a 3b
       0.019432789 -0.08541904 -0.09335866 0.0042345664
0003d0 3a 8e ab 3d 7a 02 16 be 9c 50 a2 bd c7 03 46 3c
       0.08376737 -0.14649382 -0.07925531 0.0120858615
0003e0 90 eb 06 3e a4 21 7d bd 7b 8c 02 3e d5 59 b6 bd
       0.13175797 -0.06179966 0.12748902 -0.08903853
0003f0 c3 21 65 3c 96 ec 8c bb eb 49 11 be 9b 13 00 3e
       0.0139851 -0.004300664 -0.14188354 0.12507479

_transform._transforms.1.autoregressive_net.blocks.0.linear_layers.0.bias f4 [32]
000000 78 50 6c be 95 81 4f 3d 37 5e 77 3d 8b bb e7 3c
       -0.23077571 0.05066069 0.060392585 0.02828767
000010 f7 b0 9e bc 6f cd ff 3c 77 70 2b be 8d 08 fc bd
       -0.019371493 0.031225888 -0.1674212 -0.123063184
000020 e8 31 27 be 44 41 bc bd 02 d1 82 3c e0 ed bb bd
       -0.16327631 -0.09192136 0.015968803 -0.091762304
000030 8a f7 b3 bd 6a ec db 3d 43 d9 93 bd b5 81 ef bd
       -0.08787449 0.10738452 -0.07219174 -0.116946615
000040 d0 dc 4b 3d 03 65 90 3b 4e b0 31 be 3e 85 8e 3d
       0.04977113 0.004406573 -0.17352411 0.06959008
000050 6a 4b a7 bd 21 bd 15 be 09 66 40 be 83 db 2a be
       -0.08168681 -0.14622928 -0.18788923 -0.166853
000060 89 9e 21 be 39 07 95 3d 44 20 8c bd 49 ed b0 bd
       -0.15783133 0.07276768 -0.06842092 -0.086390086
000070 44 f8 08 bc 37 f5 8a 3a fd 9b 0e be 51 05 93 bd
       -0.008359972 0.0010601644 -0.13926692 -0.071787484

_transform._transforms.1.autoregressive_net.blocks.0.linear_layers.0.mask f4 [32, 32]
000000 00 00 80 3f 00 00 00 00 00 00 00 00 00 00 80 3f
       1.0 0.0 0.0 1.0
000010 00 00 00 00 00 00 00 00 00 00 80 3f 00 00 00 00
       0.0 0.0 1.0 0.0
000020 00 00 00 00 00 00 80 3f 00 00 00 00 00 00 00 00
       0.0 1.0 0.0 0.0
000030 00 00 80 3f 00 00 00 00 00 00 00 00 00 00 80 3f
       1.0 0.0 0.0 1.0
000040 00 00 00 00 00 00 00 00 00 00 80 3f 00 00 00 00
       0.0 0.0 1.0 0.0
000050 00 00 00 00 00 00 80 3f 00 00 00 00 00 00 00 00
       0.0 1.0 0.0 0.0
000060 00 00 80 3f 00 00 00 00 00 00 00 00 00 00 80 3f
       1.0 0.0 0.0 1.0
000070 00 00 00 00 00 00 00 00 00 00 80 3f 00 00 00 00
       0.0 0.0 1.0 0.0
000080 00 00 80 3f 00 00 80 3f 00 00 00 00 00 00 80 3f
       1.0 1.0 0.0 1.0
000090 00 00 80 3f 00 00 00 00 00 00 80 3f 00 00 80 3f
       1.0 0.0 1.0 1.0
0000a0 00 00 00 00 00 00 80 3f 00 00 80 3f 00 00 00 00
       0.0 1.0 1.0 0.0
0000b0 00 00 80 3f 00 00 80 3f 00 00 00 00 00 00 80 3f
       1.0 1.0 0.0 1.0
0000c0 00 00 80 3f 00 00 00 00 00 00 80 3f 00 00 80 3f
       1.0 0.0 1.0 1.0
0000d0 00 00 00 00 00 00 80 3f 00 00 80 3f 00 00 00 00
       0.0 1.0 1.0 0.0
0000e0 00 00 80 3f 00 00 80 3f 00 00 00 00 00 00 80 3f
       1.0 1.0 0.0 1.0
0000f0 00 00 80 3f 00 00 00 00 00 00 80 3f 00 00 80 3f
       1.0 0.0 1.0 1.0
000100 00 00 80 3f 00 00 80 3f 00 00 80 3f 00 00 80 3f
       1.0 1.0 1.0 1.0
000110 00 00 80 3f 00 00 80 3f 00 00 80 3f 00 00 80 3f
       1.0 1.0 1.0 1.0
000120 00 00 80 3f 00 00 80 3f 00 00 80 3f 00 00 80 3f
       1.0 1.0 1.0 1.0
000130 00 00 80 3f 00 00 80 3f 00 00 80 3f 00 00 80 3f
       1.0 1.0 1.0 1.0
000140 00 00 80 3f 00 00 80 3f 00 00 80 3f 00 00 80 3f
       1.0 1.0 1.0 1.0
000150 00 00 80 3f 00 00 80 3f 00 00 80 3f 00 00 80 3f
       1.0 1.0 1.0 1.0
000160 00 00 80 3f 00 00 80 3f 00 00 80 3f 00 00 80 3f
       1.0 1.0 1.0 1.0
000170 00 00 80 3f 00 00 80 3f 00 00 80 3f 00 00 80 3f
       1.0 1.0 1.0 1.0
000180 00 00 80 3f 00 00 00 00 00 00 00 00 00 00 80 3f
       1.0 0.0 0.0 1.0
000190 00 00 00 00 00 00 00 00 00 00 80 3f 00 00 00 00
       0.0 0.0 1.0 0.0
0001a0 00 00 00 00 00 00 80 3f 00 00 00 00 00 00 00 00
       0.0 1.0 0.0 0.0
0001b0 00 00 80 3f 00 00 00 00 00 00 00 00 00 00 80 3f
       1.0 0.0 0.0 1.0
0001c0 00 00 00 00 00 00 00 00 00 00 80 3f 00 00 00 00
       0.0 0.0 1.0 0.0
0001d0 00 00 00 00 00 00 80 3f 00 00 00 00 00 00 00 00
       0.0 1.0 0.0 0.0
0001e0 00 00 80 3f 00 00 00 00 00 00 00 00 00 00 80 3f
       1.0 0.0 0.0 1.0
0001f0 00 00 00 00 00 00 00 00 00 00 80 3f 00 00 00 00
       0.0 0.0 1.0 0.0
000200 00 00 80 3f 00 00 80 3f 00 00 00 00 00 00 80 3f
       1.0 1.0 0.0 1.0
000210 00 00 80 3f 00 00 00 00 00 00 80 3f 00 00 80 3f
       1.0 0.0 1.0 1.0
000220 00 00 00 00 00 00 80 3f 00 00 80 3f 00 00 00 00
       0.0 1.0 1.0 0.0
000230 00 00 80 3f 00 00 80 3f 00 00 00 00 00 00 80 3f
       1.0 1.0 0.0 1.0
000240 00 00 80 3f 00 00 00 00 00 00 80 3f 00 00 80 3f
       1.0 0.0 1.0 1.0
000250 00 00 00 00 00 00 80 3f 00 00 80 3f 00 00 00 00
       0.0 1.0 1.0 0.0
000260 00 00 80 3f 00 00 80 3f 00 00 00 00 00 00 80 3f
       1.0 1.0 0.0 1.0
000270 00 00 80 3f 00 00 00 00 00 00 80 3f 00 00 80 3f
       1.0 0.0 1.0 1.0
000280 00 00 80 3f 00 00 80 3f 00 00 80 3f 00 00 80 3f
       1.0 1.0 1.0 1.0
000290 00 00 80 3f 00 00 80 3f 00 00 80 3f 00 00 80 3f
       1.0 1.0 1.0 1.0
0002a0 00 00 80 3f 00 00 80 3f 00 00 80 3f 00 00 80 3f
       1.0 1.0 1.0 1.0
0002b0 00 00 80 3f 00 00 80 3f 00 00 80 3f 00 00 80 3f
       1.0 1.0 1.0 1.0
0002c0 00 00 80 3f 00 00 80 3f 00 00 80 3f 00 00 80 3f
       1.0 1.0 1.0 1.0
0002d0 00 00 80 3f 00 00 80 3f 00 00 80 3f 00 00 80 3f
       1.0 1.0 1.0 1.0
0002e0 00 00 80 3f 00 00 80 3f 00 00 80 3f 00 00 80 3f
       1.0 1.0 1.0 1.0
0002f0 00 00 80 3f 00 00 80 3f 00 00 80 3f 00 00 80 3f
       1.0 1.0 1.0 1.0
000300 00 00 80 3f 00 00 00 00 00 00 00 00 00 00 80 3f
       1.0 0.0 0.0 1.0
000310 00 00 00 00 00 00 00 00 00 00 80 3f 00 00 00 00
       0.0 0.0 1.0 0.0
000320 00 00 00 00 00 00 80 3f 00 00 00 00 00 00 00 00
       0.0 1.0 0.0 0.0
000330 00 00 80 3f 00 00 00 00 00 00 00 00 00 00 80 3f
       1.0 0.0 0.0 1.0
000340 00 00 00 00 00 00 00 00 00 00 80 3f 00 00 00 00
       0.0 0.0 1.0 0.0
000350 00 00 00 00 00 00 80 3f 00 00 00 00 00 00 00 00
       0.0 1.0 0.0 0.0
000360 00 00 80 3f 00 00 00 00 00 00 00 00 00 00 80 3f
       1.0 0.0 0.0 1.0
000370 00 00 00 00 00 00 00 00 00 00 80 3f 00 00 00 00
       0.0 0.0 1.0 0.0
000380 00 00 80 3f 00 00 80 3f 00 00 00 00 00 00 80 3f
       1.0 1.0 0.0 1.0
000390 00 00 80 3f 00 00 00 00 00 00 80 3f 00 00 80 3f
       1.0 0.0 1.0 1.0
0003a0 00 00 00 00 00 00 80 3f 00 00 80 3f 00 00 00 00
       0.0 1.0 1.0 0.0
0003b0 00 00 80 3f 00 00 80 3f 00 00 00 00 00 00 80 3f
       1.0 1.0 0.0 1.0
0003c0 00 00 80 3f 00 00 00 00 00 00 80 3f 00 00 80 3f
       1.0 0.0 1.0 1.0
0003d0 00 00 00 00 00 00 80 3f 00 00 80 3f 00 00 00 00
       0.0 1.0 1.0 0.0
0003e0 00 00 80 3f 00 00 80 3f 00 00 00 00 00 00 80 3f
       1.0 1.0 0.0 1.0
0003f0 00 00 80 3f 00 00 00 00 00 00 80 3f 00 00 80 3f
       1.0 0.0 1.0 1.0

_transform._transforms.1.autoregressive_net.blocks.0.linear_layers.1.weight f4 [32, 32]
000000 74 7d 87 be 7e f3 4c 3a 92 8b 36 ba 92 98 c1 3c
       -0.264629 0.00078182656 -0.00069635466 0.023632322
000010 fe 50 2a b9 71 49 8a 39 0a ee 65 bc 2e 95 3b 3a
       -0.00016242635 0.0002637613 -0.014033804 0.00071557134
000020 5b 92 da b9 e9 6f f7 bc 90 97 7c 3a 21 38 61 b9
       -0.00041689244 -0.03020473 0.00096356217 -0.00021478582
000030 0c da c7 bc f2 5e 16 ba 38 70 45 3a 39 0f 76 bd
       -0.024395965 -0.0005736194 0.00075316755 -0.06007311
000040 75 1c 71 ba ea d9 56 3a b1 88 e8 b9 8c 2c 5a 38
       -0.0009197661 0.0008195924 -0.0004435233 5.2016738e-05
000050 15 b2 5f b9 7c da f4 b9 75 93 72 ba 6f d4 cc b9
       -0.00021333278 -0.0004670209 -0.000925354 -0.00039068187
000060 a0 30 ed 39 4f 68 70 3a 50 05 88 b8 97 1a 05 3d
       0.0004524039 0.00091708166 -6.485975e-05 0.03249606
000070 1d 4b 69 3a f4 22 41 3a 4a 85 c4 3c b1 12 84 39
       0.00088994374 0.0007367574 0.023989338 0.00025190928
000080 98 01 a2 3a f8 a6 01 bc f8 f0 46 3a 7f 82 17 3c
       0.0012360094 -0.007913344 0.0007589008 0.009247421
000090 34 53 55 38 0b 88 7b ba 51 48 ac 3c 5f ff 9d 3b
       5.0860646e-05 -0.0009595162 0.021030577 0.0048217024
0000a0 61 09 4d 39 c7 03 89 3d b0 02 f8 bc fd c5 44 39
       0.00019553817 0.066901736 -0.030274719 0.00018765773
0000b0 cd 29 35 bd e4 3c 9f bb 48 84 2a ba 87 b0 a2 bc
       -0.044229317 -0.0048595537 -0.0006504697 -0.019859565
0000c0 35 e6 0a 3c c2 9a 82 3a ad 6a 39 3a 15 c7 e1 bc
       0.008477737 0.0009964334 0.0007073086 -0.02756075
0000d0 8e d5 d7 39 af b4 55 3a 3e 37 97 3c d4 d7 6f 3a
       0.00041167106 0.0008152229 0.018458959 0.00091492874
0000e0 ab 11 56 39 68 2e 77 bd d1 6a bb b8 96 14 8a 3c
       0.00020415212 -0.06034699 -8.936751e-05 0.01685552
0000f0 52 14 56 3d 88 c8 ec 39 23 10 cc 3c 43 04 e1 bc
       0.052265473 0.00045162835 0.024910038 -0.027467852
000100 86 b4 56 3e 5b 0b 4b 3c f2 ad 94 b9 08 99 21 3d
       0.20967302 0.012392844 -0.0002835836 0.039452583
000110 98 ab 18 3a 7d d7 90 3b e0 5f af 3d e4 ce ac 3c
       0.00058239093 0.0044202195 0.085632086 0.021094747
000120 e9 37 06 3d a1 16 37 3d 55 58 92 3c 42 c5 40 ba
       0.032768164 0.044699315 0.017864386 -0.00073536125
000130 08 c1 e5 3d a3 67 19 3d fb 0a 3c 3d 7d 3a 29 3e
       0.112184584 0.03745235 0.04590891 0.16526218
000140 50 09 83 bc 99 06 a8 3b 94 d8 2a 38 14 0c 79 bd
       -0.015995651 0.0051277396 4.0732863e-05 -0.060802534
000150 fd 06 d1 bb 69 32 71 3a 9e d1 57 bc 84 d5 ce 3c
       -0.006379007 0.0009200932 -0.013172535 0.025248297
000160 1f 45 0e 37 1e f8 44 bc d4 83 ca ba f2 43 19 3d
       8.479953e-06 -0.012022046 -0.0015450665 0.037418313
000170 4f 84 95 bc 83 fc 58 bc 1d aa bc 3c 3f c3 17 3d
       -0.018251566 -0.013243797 0.023030335 0.037051436
000180 a0 48 b6 bc ea 86 6e 39 e0 4c 30 ba 0d 93 f4 bc
       -0.022251427 0.00022747708 -0.00067253225 -0.029855276
000190 11 94 04 ba 0b e7 20 b9 e2 7b 31 3a 5d e8 55 ba
       -0.0005057464 -0.0001534486 0.0006770474 -0.000815993
0001a0 a8 7c 24 ba 45 50 b1 bb dc d5 cf 39 6b 90 4f 3a
       -0.0006274679 -0.00541118 0.00039641454 0.00079179433
0001b0 0a b9 00 3d a7 57 6a ba 11 62 68 ba ae 47 92 3b
       0.031426467 -0.0008939453 -0.00088647107 0.0044641113
0001c0 af 5a 36 3a 65 bd 68 ba 7e ed d0 39 cd 58 05 b9
       0.0006956262 -0.00088783196 0.00039849797 -0.0001271695
0001d0 17 09 1c 3a 30 3d 76 b9 e6 b1 01 3a c7 c9 d2 39
       0.0005952282 -0.00023483182 0.00049474684 0.00040204657
0001e0 03 f7 9e 39 9a 99 b9 36 9e bf 50 38 1e 42 71 bc
       0.00030320146 5.531311e-06 4.9769522e-05 -0.014725236
0001f0 36 c0 7c ba bd 50 4a b9 d1 23 bd 3c 73 77 10 3a
       -0.0009641679 -0.00019294299 0.023088368 0.00055109634
000200 84 3d 14 bd 67 95 7f ba 65 0f 6d 3a c7 50 7d 3d
       -0.03619148 -0.0009749741 0.00090431265 0.061844613
000210 af c5 b8 b9 1b 93 46 b9 af 8a 69 bc 3a c6 32 3c
       -0.000352425 -0.00018937553 -0.014254256 0.010911519
000220 77 3a 1c b9 3d 70 29 3d ed 4a c7 bc 48 f6 47 3a
       -0.00014899099 0.041366804 -0.02432772 0.00076279463
000230 9b 39 35 3c 02 f3 da bb 5f 5a 2f b9 83 16 b8 ba
       0.0110610975 -0.006681801 -0.00016722966 -0.0014044795
000240 ae cd c2 3c 9a 69 53 ba 39 0a 83 ba d8 ba d7 3c
       0.023779716 -0.0008064747 -0.0009997553 0.026334211
000250 f0 17 3c 3a 0c 50 81 3a 1c f7 b1 3c fb 68 e3 b9
       0.0007175198 0.0009865775 0.021724276 -0.0004337503
000260 1f 24 70 ba bb 1a 28 3e fa 65 35 3a 71 4c bf 3c
       -0.0009160656 0.16416447 0.0006919798 0.02335188
000270 31 c8 d2 3c fb ad 54 3a 05 1e ca 3c 6d 6a cd 3a
       0.025730224 0.00081130833 0.024672518 0.0015671976
000280 06 2b be bc 2b 40 85 bc 86 9f b2 bc db c4 01 bd
       -0.023213875 -0.01626595 -0.021804582 -0.031681877
000290 2c 34 5c ba 8b ab 70 3a 9a 9f 8f bd 20 12 ad bc
       -0.0008400108 0.00091808353 -0.070128635 -0.021126807
0002a0 e6 10 6c 3c 7a af 90 bd 53 b7 6e bc 7e ac 61 ba
       0.014408326 -0.070647195 -0.014570075 -0.0008608772
0002b0 5a 2f ce bc 9e a4 df bc aa c4 87 bd 15 c0 86 bb
       -0.025169063 -0.027300175 -0.066293076 -0.0041122534
0002c0 49 19 17 bb cb a1 bc 3c 36 de d8 b6 98 48 45 bc
       -0.0023055843 0.023026368 -6.4631704e-06 -0.0120412335
0002d0 75 34 2f bd f4 7d 0c b7 32 f6 4c bc b9 8b dc 3b
       -0.042774636 -8.373976e-06 -0.012509869 0.0067305234
0002e0 25 92 3f ba 41 4a dd 3c 93 ad 04 3b 03 2f 42 bd
       -0.0007307849 0.027012946 0.002024506 -0.047408115
0002f0 53 f9 33 bd 13 5a 10 3d 1f c5 cb bc 36 a8 fe bc
       -0.043938946 0.03524215 -0.024874268 -0.031086069
000300 19 11 98 3e fe 51 11 ba 96 87 67 3a 57 b7 b8 bb
       0.29700544 -0.0005543529 0.00088321546 -0.00563709
000310 0f 25 4e b9 98 e8 5f ba c3 4f b4 bc 59 ef e8 b9
       -0.00019659496 -0.0008541434 -0.02201069 -0.00044428816
000320 aa e9 8d b8 2d bb 61 3d a9 ed 35 ba e2 44 ff 39
       -6.766927e-05 0.055110145 -0.0006940016 0.00048688712
000330 a1 2b 8b bd 1b 97 9f b9 8e 2b f8 39 bb 1d 8b 3c
       -0.06795431 -0.00030439426 0.00047334697 0.01698195
000340 88 3e 37 39 5d 63 96 39 48 ca 40 ba 48 a1 b9 b7
       0.00017475535 0.0002868426 -0.0007354361 -2.2128821e-05
000350 5d 8f 99 b9 8e e7 67 38 aa 75 15 3a c9 db 41 3a
       -0.00029289248 5.5290344e-05 0.0005701432 0.0007395116
000360 51 08 74 3a 9c d7 06 ba 6f 72 a4 39 ab b1 a6 bc
       0.00093091006 -0.00051438226 0.00031365777 -0.02034839
000370 83 0a 82 39 07 31 0e b9 aa 42 bf 3c 32 a2 61 ba
       0.00024803364 -0.0001356044 0.023347218 -0.0008607238
000380 de eb 46 3d 81 53 81 3a 27 85 1e 39 6d 10 0a be
       0.048564784 0.0009866805 0.00015117657 -0.13482828
000390 61 71 71 3a 92 2f 88 39 cf b5 9f 3b 0a 41 d7 bd
       0.0009210315 0.00025975384 0.004873968 -0.10510452
0003a0 4a ec 0b 3a 1d c5 9c bd d1 4a 9b 3c 6b 88 e4 39
       0.0005337639 -0.07654784 0.018956574 0.00043589188
0003b0 ea 2c 19 bd b9 25 21 3d 80 d2 ef 38 df 24 84 3c
       -0.03739635 0.039342616 0.00011435617 0.016130863
0003c0 f8 37 cc bd 53 80 cb b8 5f ca 0e 39 3f 5a d8 bd
       -0.09971613 -9.7036966e-05 0.00013617564 -0.10564088
0003d0 88 5c 22 3a 79 fd 07 b9 82 2c ff bd 30 78 2d ba
       0.0006193598 -0.00012969029 -0.12459661 -0.00066173356
0003e0 65 70 5a ba 7d 23 16 be 8c 18 1a 39 15 64 83 bd
       -0.0008332788 -0.14661975 0.00014695729 -0.064155735
0003f0 20 43 18 be 90 82 04 b7 89 59 ca bc 3e 23 e1 3c
       -0.14869356 -7.898212e-06 -0.024700897 0.027482625

_transform._transforms.1.autoregressive_net.blocks.0.linear_layers.1.bias f4 [32]
000000 4b 6e 05 bd 15 a2 e1 bd 70 01 1f bc d2 6f f9 bc
       -0.032575887 -0.11017243 -0.009704933 -0.030448828
000010 01 e0 af bd 87 fc bc 3c a0 bc 0e 3c 5b e9 a9 bd
       -0.08587647 0.023069633 0.008711964 -0.08296462
000020 6e ec 7f 3d 97 c9 8b 3d 19 8a 48 3d eb e7 1c 3d
       0.062481336 0.068255596 0.048959825 0.03830711
000030 8b 9c b2 bd ee d8 fc bd 66 84 26 3e 5c f8 a5 bd
       -0.087212645 -0.123460636 0.16261443 -0.081040114
000040 12 b7 b3 bd 98 97 58 bd 16 20 20 3e da 0e fd 3d
       -0.08775152 -0.052878946 0.1563724 0.12356348
000050 6a 98 12 3d d6 dd 2f bd 42 d5 00 bd 96 a1 99 bd
       0.035789885 -0.04293617 -0.03145338 -0.07501523
000060 a1 44 a2 3d 08 4a b7 3d 4c 92 ff 3d 8d 7f f6 bd
       0.07923246 0.08949667 0.12479076 -0.12036047
000070 0a 54 eb bd 34 0d 1c be 79 1f 91 3d 9f cc f0 bc
       -0.114906386 -0.15239412 0.07086081 -0.029394446

_transform._transforms.1.autoregressive_net.blocks.0.linear_layers.1.mask f4 [32, 32]
000000 00 00 80 3f 00 00 00 00 00 00 00 00 00 00 80 3f
       1.0 0.0 0.0 1.0
000010 00 00 00 00 00 00 00 00 00 00 80 3f 00 00 00 00
       0.0 0.0 1.0 0.0
000020 00 00 00 00 00 00 80 3f 00 00 00 00 00 00 00 00
       0.0 1.0 0.0 0.0
000030 00 00 80 3f 00 00 00 00 00 00 00 00 00 00 80 3f
       1.0 0.0 0.0 1.0
000040 00 00 00 00 00 00 00 00 00 00 80 3f 00 00 00 00
       0.0 0.0 1.0 0.0
000050 00 00 00 00 00 00 80 3f 00 00 00 00 00 00 00 00
       0.0 1.0 0.0 0.0
000060 00 00 80 3f 00 00 00 00 00 00 00 00 00 00 80 3f
       1.0 0.0 0.0 1.0
000070 00 00 00 00 00 00 00 00 00 00 80 3f 00 00 00 00
       0.0 0.0 1.0 0.0
000080 00 00 80 3f 00 00 80 3f 00 00 00 00 00 00 80 3f
       1.0 1.0 0.0 1.0
000090 00 00 80 3f 00 00 00 00 00 00 80 3f 00 00 80 3f
       1.0 0.0 1.0 1.0
0000a0 00 00 00 00 00 00 80 3f 00 00 80 3f 00 00 00 00
       0.0 1.0 1.0 0.0
0000b0 00 00 80 3f 00 00 80 3f 00 00 00 00 00 00 80 3f
       1.0 1.0 0.0 1.0
0000c0 00 00 80 3f 00 00 00 00 00 00 80 3f 00 00 80 3f
       1.0 0.0 1.0 1.0
0000d0 00 00 00 00 00 00 80 3f 00 00 80 3f 00 00 00 00
       0.0 1.0 1.0 0.0
0000e0 00 00 80 3f 00 00 80 3f 00 00 00 00 00 00 80 3f
       1.0 1.0 0.0 1.0
0000f0 00 00 80 3f 00 00 00 00 00 00 80 3f 00 00 80 3f
       1.0 0.0 1.0 1.0
000100 00 00 80 3f 00 00 80 3f 00 00 80 3f 00 00 80 3f
       1.0 1.0 1.0 1.0
000110 00 00 80 3f 00 00 80 3f 00 00 80 3f 00 00 80 3f
       1.0 1.0 1.0 1.0
000120 00 00 80 3f 00 00 80 3f 00 00 80 3f 00 00 80 3f
       1.0 1.0 1.0 1.0
000130 00 00 80 3f 00 00 80 3f 00 00 80 3f 00 00 80 3f
       1.0 1.0 1.0 1.0
000140 00 00 80 3f 00 00 80 3f 00 00 80 3f 00 00 80 3f
       1.0 1.0 1.0 1.0
000150 00 00 80 3f 00 00 80 3f 00 00 80 3f 00 00 80 3f
       1.0 1.0 1.0 1.0
000160 00 00 80 3f 00 00 80 3f 00 00 80 3f 00 00 80 3f
       1.0 1.0 1.0 1.0
000170 00 00 80 3f 00 00 80 3f 00 00 80 3f 00 00 80 3f
       1.0 1.0 1.0 1.0
000180 00 00 80 3f 00 00 00 00 00 00 00 00 00 00 80 3f
       1.0 0.0 0.0 1.0
000190 00 00 00 00 00 00 00 00 00 00 80 3f 00 00 00 00
       0.0 0.0 1.0 0.0
0001a0 00 00 00 00 00 00 80 3f 00 00 00 00 00 00 00 00
       0.0 1.0 0.0 0.0
0001b0 00 00 80 3f 00 00 00 00 00 00 00 00 00 00 80 3f
       1.0 0.0 0.0 1.0
0001c0 00 00 00 00 00 00 00 00 00 00 80 3f 00 00 00 00
       0.0 0.0 1.0 0.0
0001d0 00 00 00 00 00 00 80 3f 00 00 00 00 00 00 00 00
       0.0 1.0 0.0 0.0
0001e0 00 00 80 3f 00 00 00 00 00 00 00 00 00 00 80 3f
       1.0 0.0 0.0 1.0
0001f0 00 00 00 00 00 00 00 00 00 00 80 3f 00 00 00 00
       0.0 0.0 1.0 0.0
000200 00 00 80 3f 00 00 80 3f 00 00 00 00 00 00 80 3f
       1.0 1.0 0.0 1.0
000210 00 00 80 3f 00 00 00 00 00 00 80 3f 00 00 80 3f
       1.0 0.0 1.0 1.0
000220 00 00 00 00 00 00 80 3f 00 00 80 3f 00 00 00 00
       0.0 1.0 1.0 0.0
000230 00 00 80 3f 00 00 80 3f 00 00 00 00 00 00 80 3f
       1.0 1.0 0.0 1.0
000240 00 00 80 3f 00 00 00 00 00 00 80 3f 00 00 80 3f
       1.0 0.0 1.0 1.0
000250 00 00 00 00 00 00 80 3f 00 00 80 3f 00 00 00 00
       0.0 1.0 1.0 0.0
000260 00 00 80 3f 00 00 80 3f 00 00 00 00 00 00 80 3f
       1.0 1.0 0.0 1.0
000270 00 00 80 3f 00 00 00 00 00 00 80 3f 00 00 80 3f
       1.0 0.0 1.0 1.0
000280 00 00 80 3f 00 00 80 3f 00 00 80 3f 00 00 80 3f
       1.0 1.0 1.0 1.0
000290 00 00 80 3f 00 00 80 3f 00 00 80 3f 00 00 80 3f
       1.0 1.0 1.0 1.0
0002a0 00 00 80 3f 00 00 80 3f 00 00 80 3f 00 00 80 3f
       1.0 1.0 1.0 1.0
0002b0 00 00 80 3f 00 00 80 3f 00 00 80 3f 00 00 80 3f
       1.0 1.0 1.0 1.0
0002c0 00 00 80 3f 00 00 80 3f 00 00 80 3f 00 00 80 3f
       1.0 1.0 1.0 1.0
0002d0 00 00 80 3f 00 00 80 3f 00 00 80 3f 00 00 80 3f
       1.0 1.0 1.0 1.0
0002e0 00 00 80 3f 00 00 80 3f 00 00 80 3f 00 00 80 3f
       1.0 1.0 1.0 1.0
0002f0 00 00 80 3f 00 00 80 3f 00 00 80 3f 00 00 80 3f
       1.0 1.0 1.0 1.0
000300 00 00 80 3f 00 00 00 00 00 00 00 00 00 00 80 3f
       1.0 0.0 0.0 1.0
000310 00 00 00 00 00 00 00 00 00 00 80 3f 00 00 00 00
       0.0 0.0 1.0 0.0
000320 00 00 00 00 00 00 80 3f 00 00 00 00 00 00 00 00
       0.0 1.0 0.0 0.0
000330 00 00 80 3f 00 00 00 00 00 00 00 00 00 00 80 3f
       1.0 0.0 0.0 1.0
000340 00 00 00 00 00 00 00 00 00 00 80 3f 00 00 00 00
       0.0 0.0 1.0 0.0
000350 00 00 00 00 00 00 80 3f 00 00 00 00 00 00 00 00
       0.0 1.0 0.0 0.0
000360 00 00 80 3f 00 00 00 00 00 00 00 00 00 00 80 3f
       1.0 0.0 0.0 1.0
000370 00 00 00 00 00 00 00 00 00 00 80 3f 00 00 00 00
       0.0 0.0 1.0 0.0
000380 00 00 80 3f 00 00 80 3f 00 00 00 00 00 00 80 3f
       1.0 1.0 0.0 1.0
000390 00 00 80 3f 00 00 00 00 00 00 80 3f 00 00 80 3f
       1.0 0.0 1.0 1.0
0003a0 00 00 00 00 00 00 80 3f 00 00 80 3f 00 00 00 00
       0.0 1.0 1.0 0.0
0003b0 00 00 80 3f 00 00 80 3f 00 00 00 00 00 00 80 3f
       1.0 1.0 0.0 1.0
0003c0 00 00 80 3f 00 00 00 00 00 00 80 3f 00 00 80 3f
       1.0 0.0 1.0 1.0
0003d0 00 00 00 00 00 00 80 3f 00 00 80 3f 00 00 00 00
       0.0 1.0 1.0 0.0
0003e0 00 00 80 3f 00 00 80 3f 00 00 00 00 00 00 80 3f
       1.0 1.0 0.0 1.0
0003f0 00 00 80 3f 00 00 00 00 00 00 80 3f 00 00 80 3f
       1.0 0.0 1.0 1.0

_transform._transforms.1.autoregressive_net.blocks.1.linear_layers.0.weight f4 [32, 32]
000000 c3 38 f2 3c 22 ab b9 3d 02 d2 d9 3d 03 fa 78 be
       0.029568082 0.09065844 0.10635759 -0.24314122
000010 90 73 8e 3d 28 cb 96 bd 71 a8 7a be 3b fa 0a bd
       0.069556355 -0.07362968 -0.24478318 -0.033930045
000020 71 9f 30 3e 5b 76 d5 3c 43 d1 67 3d 0d 5a 49 3c
       0.17248322 0.026057413 0.056596052 0.012289536
000030 c0 fa 20 be 2d e4 a8 3d 4f af ac bd 9a 3b 56 3d
       -0.15720654 0.08246646 -0.08431875 0.052302934
000040 60 57 3d bc 8c d8 cf bc 25 b3 18 be bc a1 23 be
       -0.011556476 -0.025371812 -0.14912088 -0.15979666
000050 07 50 30 3e d3 10 ee 3c ef 48 fa bc 74 a1 10 3e
       0.17218028 0.029060757 -0.030552356 0.1412409
000060 de ea 2d 3d e0 81 30 3e 1f df ba bd 5a b8 ce bc
       0.042460315 0.17237043 -0.09124588 -0.02523439
000070 af 11 0c be b5 e5 2c 3e 53 8c 81 bc 61 38 af 3d
       -0.13678621 0.16884501 -0.015813982 0.08555675
000080 7c 01 52 be 46 8e e2 bd 2c 81 08 be 06 ca 53 be
       -0.20508379 -0.11062293 -0.13330525 -0.20682535
000090 29 dc 2d be e5 4a 1c be 3c 1a d8 3d a6 8f da 3b
       -0.16978516 -0.15262945 0.10551879 0.0066699563
0000a0 29 2c 12 3e fe 86 9c 3d 88 b0 87 3d f4 d0 30 be
       0.14274658 0.07642935 0.066254675 -0.1726721
0000b0 62 f2 49 3e 0a dc 09 3e 63 0f 28 3e af 2e 99 bc
       0.19721368 0.13462844 0.1641212 -0.018699018
0000c0 96 3c 76 3c d2 8c d5 3d 12 98 64 bd 9f 54 d4 3d
       0.015029093 0.1042725 -0.055809088 0.10367703
0000d0 aa 64 22 be 30 ff 0e bd ec 33 07 3e 98 04 07 3e
       -0.15858713 -0.034911335 0.132034 0.13185346
0000e0 d5 2b 3f bd 03 6c c0 bd ab dd d6 bd 5b 0b 4a be
       -0.04667266 -0.093956016 -0.104914986 -0.19730894
0000f0 ab c9 07 be a9 63 11 3e 94 ba d0 bd 12 b5 94 3d
       -0.13260524 0.14198174 -0.10191837 0.07261099
000100 d7 3b 50 3e 9d 21 32 3e fa 79 03 3f 84 4b ef 3d
       0.20335327 0.17395635 0.51357996 0.11684325
000110 cd 3b 0d 3b 24 ad 7d 3e 0f 7e 61 3d c0 95 10 3d
       0.0021550537 0.24773079 0.05505186 0.035299063
000120 2f 33 83 3d 37 40 3d 3d cd e6 77 3d c2 b0 13 3e
       0.06406247 0.04620382 0.060522843 0.14422897
000130 71 68 25 3e 18 6c cf bd 19 a1 96 be 6c 57 08 bc
       0.16153122 -0.10128039 -0.29419783 -0.008321624
000140 2e 6a 96 bd 91 cc fe be ab 23 2c bf e7 d1 a3 be
       -0.07344471 -0.49765447 -0.67241925 -0.3199608
000150 48 16 37 3d 88 87 ea bd b4 b6 d2 3d a9 eb 09 bf
       0.044698983 -0.11451632 0.10288754 -0.53875214
000160 d4 8c b7 bd 08 55 03 3e 81 0f e9 3e 30 51 61 3e
       -0.08962408 0.12825406 0.4551964 0.22003627
000170 a9 4a 93 3d b0 a3 bb 3d e5 8b 64 bf f4 13 9d 3d
       0.07191975 0.0916208 -0.8927596 0.076698214
000180 5e 98 57 b9 f2 a2 ca bd 61 91 04 3e 92 6f dc 3d
       -0.00020560759 -0.098943606 0.12946083 0.10763468
000190 8c 86 31 3c 4f db 79 bd ff a1 54 be c9 87 22 be
       0.010835301 -0.061000165 -0.20764922 -0.1587211
0001a0 9a 29 d8 3d 0c 38 b6 be ad e8 08 be 9b 39 1e be
       0.1055481 -0.35589635 -0.13370009 -0.15451662
0001b0 03 39 48 3d f6 ed 68 bd 7a 13 2c be 63 fa 4c be
       0.048882496 -0.056867562 -0.16804305 -0.2001739
0001c0 64 df 00 3d 75 2a e6 bd 2f 0b f7 be ed 04 46 3c
       0.031463042 -0.11238567 -0.4825072 0.012086135
0001d0 60 0f 0f 3e cf f2 e4 bd af 04 46 3d 39 91 9e 3d
       0.13970709 -0.111791246 0.04834431 0.07742543
0001e0 d7 8d ea 3d fc 50 1b 3e 3d 3f 2f be dc 89 d4 bd
       0.11452835 0.15167612 -0.17113967 -0.10377857
0001f0 8f 1c e6 3d 0b c6 d5 3d 3b 5d 00 bf 3c 31 d6 3d
       0.11235916 0.10438164 -0.5014226 0.104586095
000200 66 46 19 be ff a8 be bd ad e2 e7 bb d0 64 06 be
       -0.14968261 -0.09309577 -0.0070765824 -0.13124394
000210 e0 fd 55 be 14 2e 24 3e c7 e1 b8 3c 21 4d c2 bd
       -0.20897627 0.16033202 0.022568597 -0.094873674
000220 2d e3 98 bd 2a 32 a9 bd a7 a4 2f 3e 57 fa ce ba
       -0.07465205 -0.08261521 0.17152654 -0.001579116
000230 ee 83 a1 be 92 e8 04 3e 58 61 22 be c1 61 58 bd
       -0.31545967 0.12979344 -0.15857446 -0.0528276
000240 03 24 bc bc b2 ca a2 3d 9d f6 f3 bd 70 6a fe bd
       -0.02296639 0.07948817 -0.11912272 -0.12422645
000250 83 14 ef bc 59 e2 08 bd 19 a8 82 bb 97 ff 2e 3d
       -0.029184585 -0.033418987 -0.003987324 0.04272422
000260 4c da 4e bd d5 f3 0a be 0a b1 6c bd 2f e1 92 3c
       -0.050501153 -0.13569577 -0.057786025 0.017929642
000270 70 23 91 3d 93 d6 a8 3d 47 7e 32 3e 4e 49 5a 3d
       0.07086837 0.08244052 0.17430983 0.053292565
000280 4e 87 0e bc b4 b5 e7 bd 9d c9 2d 3d 2e b0 5e bd
       -0.008699251 -0.11313954 0.0424286 -0.054367237
000290 f4 ca 2a be df 4d 0d be 0e ae 53 be e6 e7 48 be
       -0.16678983 -0.13799237 -0.20671865 -0.19619712
0002a0 7a ed 89 bc da 90 d8 bc 48 8a 98 3c 0b 3d 53 3c
       -0.01683687 -0.026436258 0.018620625 0.012892972
0002b0 01 dd 18 be 07 21 96 3d 64 94 f6 3c 15 58 92 3d
       -0.14928056 0.07330518 0.030100055 0.071457066
0002c0 5b fd 1c 3e 2e 7a 7f bd 06 86 11 be 80 7d 73 be
       0.15331022 -0.06237238 -0.14211282 -0.23778343
0002d0 56 db cc bd 2b 08 58 bd c3 21 d3 3d 8b 7b 29 3b
       -0.100027725 -0.052742165 0.10309174 0.002586099
0002e0 f7 c9 d4 3d 0e 49 83 3d b8 a2 cc bc 0e 00 34 be
       0.10390084 0.064104185 -0.024979934 -0.17578146
0002f0 e0 fb f6 bd ab cc 7c be bc 57 09 bc 2d c1 57 bd
       -0.1205976 -0.2468745 -0.008382734 -0.05267446
000300 f0 c4 09 be 38 27 25 be b0 18 33 3e 06 e4 9c bc
       -0.13454032 -0.16128242 0.17489886 -0.019151699
000310 25 af 02 be 72 61 1f 3e 57 e3 77 bd 8b e9 f4 3d
       -0.12762125 0.15564516 -0.060519543 0.11958607
000320 72 16 de bd 4a 54 d0 bd 3e 4a 17 be c4 d5 f4 3c
       -0.10844125 -0.10172327 -0.14774415 0.029887088
000330 70 ec 05 be 8b 90 62 bd 69 59 9f bd 30 f9 b5 bd
       -0.13078475 -0.05531363 -0.077807255 -0.08885419
000340 88 46 f9 3d 76 ff 18 be 71 5b 17 3d a1 0a 5b 3d
       0.12171656 -0.149412 0.03695244 0.053476933
000350 bb 4d 54 3d 46 9c 57 3d d0 d1 28 bd 72 a3 32 3d
       0.051831942 0.05263927 -0.041215718 0.043612905
000360 a8 77 b7 bd 1d 30 1e bd a1 9f 23 be c9 bd 1a be
       -0.089583695 -0.038620103 -0.15978862 -0.1511146
000370 b1 e5 a8 bd 22 19 f0 bd d8 6a de bc 4c 61 2f be
       -0.08246935 -0.11723544 -0.027150556 -0.1712696
000380 ab 56 48 bd 6c f0 93 3d f3 88 58 bd 5e d8 86 3e
       -0.048910778 0.07223591 -0.05286498 0.2633695
000390 55 d8 01 3d 37 63 1c be 6e 1e 86 be ce 0f 5b 3b
       0.03170045 -0.15272222 -0.2619509 0.0033426168
0003a0 77 df 08 be 96 e0 19 3e 0d eb f2 bd 5b 9b 69 3d
       -0.13366495 0.15027079 -0.11861239 0.057032924
0003b0 88 fc 06 be fc 93 23 be 4b 79 c5 3d 57 1f 39 3d
       -0.1318227 -0.1597442 0.096422754 0.045195904
0003c0 81 9b 0b be 29 29 0d 3e 65 84 f7 bd 45 5a e5 be
       -0.13633539 0.13785233 -0.12085799 -0.44795433
0003d0 a5 d5 f0 3d 1c e8 c3 be cd a9 03 be 00 b6 d3 bd
       0.117594995 -0.38263023 -0.12857743 -0.10337448
0003e0 26 ad 72 3e f7 11 3c be 87 fc e1 bd 41 6b 50 be
       0.23698863 -0.18366228 -0.11034494 -0.20353414
0003f0 42 79 3b be 00 9c 47 3d 8f b0 99 be af 44 67 be
       -0.18307975 0.048732758 -0.30017516 -0.22584794

_transform._transforms.1.autoregressive_net.blocks.1.linear_layers.0.bias f4 [32]
000000 33 35 55 be b6 a4 ff bd 05 06 fc 3c fd cb ae 3c
       -0.20821075 -0.12482588 0.03076459 0.021337504
000010 84 24 90 3b 7e af a3 3d 93 fe 05 be 6b 85 b9 bd
       0.0043988843 0.07992457 -0.13085394 -0.090586506
000020 de e2 d4 bb ef 0e a1 bd 30 28 0c bd 21 c2 98 be
       -0.0064967712 -0.078641765 -0.034218013 -0.2983561
000030 91 81 8f bd f0 39 0a bd d5 1b 7c 3c 07 c4 b4 bd
       -0.07007135 -0.03374666 0.015387495 -0.08826452
000040 8a ab 7d be 43 89 70 be d7 80 09 be ae 5c 15 be
       -0.24772468 -0.23489861 -0.13428055 -0.14586136
000050 80 9e d7 bb 0c d2 78 bb 70 5c 1d be a8 7c 26 3d
       -0.006580174 -0.0037966995 -0.15367293 0.040646225
000060 55 c2 85 bb 1e 1c 98 bd 86 37 b9 bd bb 65 4e bc
       -0.004082004 -0.07427238 -0.090437934 -0.012597497
000070 62 d3 06 be 56 4e 3d be 16 f2 1d be 6a 92 3a be
       -0.13166574 -0.18486914 -0.1542438 -0.18219915

_transform._transforms.1.autoregressive_net.blocks.1.linear_layers.0.mask f4 [32, 32]
000000 00 00 80 3f 00 00 00 00 00 00 00 00 00 00 80 3f
       1.0 0.0 0.0 1.0
000010 00 00 00 00 00 00 00 00 00 00 80 3f 00 00 00 00
       0.0 0.0 1.0 0.0
000020 00 00 00 00 00 00 80 3f 00 00 00 00 00 00 00 00
       0.0 1.0 0.0 0.0
000030 00 00 80 3f 00 00 00 00 00 00 00 00 00 00 80 3f
       1.0 0.0 0.0 1.0
000040 00 00 00 00 00 00 00 00 00 00 80 3f 00 00 00 00
       0.0 0.0 1.0 0.0
000050 00 00 00 00 00 00 80 3f 00 00 00 00 00 00 00 00
       0.0 1.0 0.0 0.0
000060 00 00 80 3f 00 00 00 00 00 00 00 00 00 00 80 3f
       1.0 0.0 0.0 1.0
000070 00 00 00 00 00 00 00 00 00 00 80 3f 00 00 00 00
       0.0 0.0 1.0 0.0
000080 00 00 80 3f 00 00 80 3f 00 00 00 00 00 00 80 3f
       1.0 1.0 0.0 1.0
000090 00 00 80 3f 00 00 00 00 00 00 80 3f 00 00 80 3f
       1.0 0.0 1.0 1.0
0000a0 00 00 00 00 00 00 80 3f 00 00 80 3f 00 00 00 00
       0.0 1.0 1.0 0.0
0000b0 00 00 80 3f 00 00 80 3f 00 00 00 00 00 00 80 3f
       1.0 1.0 0.0 1.0
0000c0 00 00 80 3f 00 00 00 00 00 00 80 3f 00 00 80 3f
       1.0 0.0 1.0 1.0
0000d0 00 00 00 00 00 00 80 3f 00 00 80 3f 00 00 00 00
       0.0 1.0 1.0 0.0
0000e0 00 00 80 3f 00 00 80 3f 00 00 00 00 00 00 80 3f
       1.0 1.0 0.0 1.0
0000f0 00 00 80 3f 00 00 00 00 00 00 80 3f 00 00 80 3f
       1.0 0.0 1.0 1.0
000100 00 00 80 3f 00 00 80 3f 00 00 80 3f 00 00 80 3f
       1.0 1.0 1.0 1.0
000110 00 00 80 3f 00 00 80 3f 00 00 80 3f 00 00 80 3f
       1.0 1.0 1.0 1.0
000120 00 00 80 3f 00 00 80 3f 00 00 80 3f 00 00 80 3f
       1.0 1.0 1.0 1.0
000130 00 00 80 3f 00 00 80 3f 00 00 80 3f 00 00 80 3f
       1.0 1.0 1.0 1.0
000140 00 00 80 3f 00 00 80 3f 00 00 80 3f 00 00 80 3f
       1.0 1.0 1.0 1.0
000150 00 00 80 3f 00 00 80 3f 00 00 80 3f 00 00 80 3f
       1.0 1.0 1.0 1.0
000160 00 00 80 3f 00 00 80 3f 00 00 80 3f 00 00 80 3f
       1.0 1.0 1.0 1.0
000170 00 00 80 3f 00 00 80 3f 00 00 80 3f 00 00 80 3f
       1.0 1.0 1.0 1.0
000180 00 00 80 3f 00 00 00 00 00 00 00 00 00 00 80 3f
       1.0 0.0 0.0 1.0
000190 00 00 00 00 00 00 00 00 00 00 80 3f 00 00 00 00
       0.0 0.0 1.0 0.0
0001a0 00 00 00 00 00 00 80 3f 00 00 00 00 00 00 00 00
       0.0 1.0 0.0 0.0
0001b0 00 00 80 3f 00 00 00 00 00 00 00 00 00 00 80 3f
       1.0 0.0 0.0 1.0
0001c0 00 00 00 00 00 00 00 00 00 00 80 3f 00 00 00 00
       0.0 0.0 1.0 0.0
0001d0 00 00 00 00 00 00 80 3f 00 00 00 00 00 00 00 00
       0.0 1.0 0.0 0.0
0001e0 00 00 80 3f 00 00 00 00 00 00 00 00 00 00 80 3f
       1.0 0.0 0.0 1.0
0001f0 00 00 00 00 00 00 00 00 00 00 80 3f 00 00 00 00
       0.0 0.0 1.0 0.0
000200 00 00 80 3f 00 00 80 3f 00 00 00 00 00 00 80 3f
       1.0 1.0 0.0 1.0
000210 00 00 80 3f 00 00 00 00 00 00 80 3f 00 00 80 3f
       1.0 0.0 1.0 1.0
000220 00 00 00 00 00 00 80 3f 00 00 80 3f 00 00 00 00
       0.0 1.0 1.0 0.0
000230 00 00 80 3f 00 00 80 3f 00 00 00 00 00 00 80 3f
       1.0 1.0 0.0 1.0
000240 00 00 80 3f 00 00 00 00 00 00 80 3f 00 00 80 3f
       1.0 0.0 1.0 1.0
000250 00 00 00 00 00 00 80 3f 00 00 80 3f 00 00 00 00
       0.0 1.0 1.0 0.0
000260 00 00 80 3f 00 00 80 3f 00 00 00 00 00 00 80 3f
       1.0 1.0 0.0 1.0
000270 00 00 80 3f 00 00 00 00 00 00 80 3f 00 00 80 3f
       1.0 0.0 1.0 1.0
000280 00 00 80 3f 00 00 80 3f 00 00 80 3f 00 00 80 3f
       1.0 1.0 1.0 1.0
000290 00 00 80 3f 00 00 80 3f 00 00 80 3f 00 00 80 3f
       1.0 1.0 1.0 1.0
0002a0 00 00 80 3f 00 00 80 3f 00 00 80 3f 00 00 80 3f
       1.0 1.0 1.0 1.0
0002b0 00 00 80 3f 00 00 80 3f 00 00 80 3f 00 00 80 3f
       1.0 1.0 1.0 1.0
0002c0 00 00 80 3f 00 00 80 3f 00 00 80 3f 00 00 80 3f
       1.0 1.0 1.0 1.0
0002d0 00 00 80 3f 00 00 80 3f 00 00 80 3f 00 00 80 3f
       1.0 1.0 1.0 1.0
0002e0 00 00 80 3f 00 00 80 3f 00 00 80 3f 00 00 80 3f
       1.0 1.0 1.0 1.0
0002f0 00 00 80 3f 00 00 80 3f 00 00 80 3f 00 00 80 3f
       1.0 1.0 1.0 1.0
000300 00 00 80 3f 00 00 00 00 00 00 00 00 00 00 80 3f
       1.0 0.0 0.0 1.0
000310 00 00 00 00 00 00 00 00 00 00 80 3f 00 00 00 00
       0.0 0.0 1.0 0.0
000320 00 00 00 00 00 00 80 3f 00 00 00 00 00 00 00 00
       0.0 1.0 0.0 0.0
000330 00 00 80 3f 00 00 00 00 00 00 00 00 00 00 80 3f
       1.0 0.0 0.0 1.0
000340 00 00 00 00 00 00 00 00 00 00 80 3f 00 00 00 00
       0.0 0.0 1.0 0.0
000350 00 00 00 00 00 00 80 3f 00 00 00 00 00 00 00 00
       0.0 1.0 0.0 0.0
000360 00 00 80 3f 00 00 00 00 00 00 00 00 00 00 80 3f
       1.0 0.0 0.0 1.0
000370 00 00 00 00 00 00 00 00 00 00 80 3f 00 00 00 00
       0.0 0.0 1.0 0.0
000380 00 00 80 3f 00 00 80 3f 00 00 00 00 00 00 80 3f
       1.0 1.0 0.0 1.0
000390 00 00 80 3f 00 00 00 00 00 00 80 3f 00 00 80 3f
       1.0 0.0 1.0 1.0
0003a0 00 00 00 00 00 00 80 3f 00 00 80 3f 00 00 00 00
       0.0 1.0 1.0 0.0
0003b0 00 00 80 3f 00 00 80 3f 00 00 00 00 00 00 80 3f
       1.0 1.0 0.0 1.0
0003c0 00 00 80 3f 00 00 00 00 00 00 80 3f 00 00 80 3f
       1.0 0.0 1.0 1.0
0003d0 00 00 00 00 00 00 80 3f 00 00 80 3f 00 00 00 00
       0.0 1.0 1.0 0.0
0003e0 00 00 80 3f 00 00 80 3f 00 00 00 00 00 00 80 3f
       1.0 1.0 0.0 1.0
0003f0 00 00 80 3f 00 00 00 00 00 00 80 3f 00 00 80 3f
       1.0 0.0 1.0 1.0
