model2_v2/epoch=250modello-N_iter4-N_features32-N_BS32-epochs301-lr0.004-val_loss1000.pth (torch, 206026 bytes, 72 tensors)

_transform._transforms.1.autoregressive_net.initial_layer.weight f4 [32, 4]
0	0x3f70dd66	0.9408783
1	0x3ee8cd9a	0.45469362
2	0xbec43144	-0.38318837
3	0x3ef8a90c	0.48566473
4	0xbcb652f9	-0.022256361
5	0x3d0501ab	0.032472294
6	0xbe84164e	-0.25798267
7	0xbc7120c0	-0.014717281
8	0xbca1f78e	-0.019771364
9	0xbb982bdf	-0.0046439017
10	0x3eabdefc	0.3356856
11	0x3ebfd3fe	0.37466425
12	0xbad8184e	-0.0016486736
13	0x3ea3f536	0.3202302
14	0x3ee31c68	0.4435761
15	0xbedf663e	-0.43632692
16	0x3bc82d9e	0.0061089536
17	0xbc4297b6	-0.011876991
18	0x3d0f7b30	0.03502959
19	0x3e5eded0	0.21764684
20	0xbc296dae	-0.010341091
21	0x3c9a4644	0.018832333
22	0x3c4f7f72	0.012664663
23	0x3efa91c8	0.48939347
24	0x3bf476a2	0.007460431
25	0xbeca020e	-0.39454693
26	0xbed1485c	-0.40875518
27	0x3cc6a840	0.02425015
28	0xbbe0d2f5	-0.0068610855
29	0x3c9e867a	0.019351233
30	0x3d82b5f0	0.06382358
31	0x3ecb11aa	0.39661914
32	0x3c79d1f4	0.015247811
33	0x3c23550c	0.009969007
34	0xba84b8e9	-0.0010125908
35	0x3e57f304	0.21088797
36	0x3bc50f7f	0.00601381
37	0x3ed45134	0.41468203
38	0xbee62dbe	-0.44956774
39	0x3da65c40	0.08123064
40	0x3a90d830	0.0011050757
41	0xbc4595f2	-0.0120596755
42	0x3da129e0	0.07869315
43	0x3dabdca0	0.0839169
44	0xbb51018b	-0.0031891789
45	0x3cf94c0d	0.030431772
46	0xbc64635e	-0.013939707
47	0x3e13e580	0.14443016
48	0x3c14eb98	0.009089373
49	0xbec4de24	-0.3845073
50	0xbe7c5d3c	-0.24644941
51	0x3e40808c	0.18799037
52	0xbc8814c8	-0.016611472
53	0x3cd6ea66	0.026234817
54	0x3da8f240	0.082493305
55	0x3d247070	0.04014629
56	0xb780b746	-1.5344132e-05
57	0xbd01a30a	-0.031649627
58	0x3bfa90b6	0.0076466454
59	0xbc365840	-0.011129439
60	0xba94d19a	-0.001135397
61	0xbed40732	-0.4141174
62	0xbdd0e0f0	-0.101991534
63	0xbe847508	-0.25870538
64	0x40a00dec	5.0016994
65	0xc0841b1e	-4.12831
66	0x3efc4e3e	0.49278444
67	0xbe68f8f4	-0.22751218
68	0xbcf25182	-0.029579882
69	0x3d70a18c	0.058747813
70	0xbc48c0eb	-0.0122530265
71	0x3e40abec	0.18815583
72	0x3c1cf7dc	0.009580579
73	0x3e874c46	0.2642538
74	0xbe00e958	-0.12589014
75	0xbe946df8	-0.2899015
76	0x3c5b1ebf	0.01337403
77	0x3b13dd99	0.0022562502
78	0x3d853298	0.065037906
79	0x3ea0866c	0.31352556
80	0x3992533d	0.00027909307
81	0x3d01722f	0.031603035
82	0xbbf4c666	-0.00746994
83	0x3d97a5c8	0.07404667
84	0x3c02039a	0.007935429
85	0x3ef4aef2	0.47789723
86	0x3e089dbc	0.13341421
87	0x3ea9f71e	0.33196348
88	0x3a3dabfe	0.00072354067
89	0xbbdc955c	-0.006731672
90	0xbefa8254	-0.48927557
91	0x3d279fa0	0.040923715
92	0xbb98f475	-0.0046678134
93	0x3d16c47c	0.036808476
94	0xbc03a9ff	-0.008036136
95	0x3e960b24	0.29305375
96	0xbb285a9a	-0.0025688768
97	0x3dab3fe8	0.083617985
98	0xbd105ba0	-0.03524363
99	0x3ee1a1f6	0.4406888
100	0xbc998350	-0.018739372
101	0x3cc44038	0.023956403
102	0x3d5a4600	0.053289413
103	0x3a950800	0.0011370182
104	0x3ce6fa1a	0.02819543
105	0xbd6ff70d	-0.058585215
106	0x3c55d6cd	0.013051701
107	0x3eaae4f8	0.33377814
108	0xbbf46ad6	-0.007459025
109	0x3e529c4c	0.20567435
110	0x3da319f0	0.079639316
111	0x3ecff2fa	0.40615064
112	0x3b981ece	0.004642344
113	0xbcf7bf14	-0.03024248
114	0xbd994eb8	-0.074857175
115	0xbee11c0e	-0.43966717
116	0xbc8f97de	-0.01752847
117	0x3d4b9146	0.04969909
118	0xbc31e1a2	-0.010857018
119	0xbe9c1250	-0.3048272
120	0xc09217e2	-4.5654154
121	0x3e9bf4f2	0.30460316
122	0xbeb16b5a	-0.34652215
123	0xbe211b00	-0.15732956
124	0xc012d27a	-2.2940965
125	0x406f5eb0	3.7401543
126	0x3dfa8da8	0.1223405
127	0xbee5cc6c	-0.44882524

_transform._transforms.1.autoregressive_net.initial_layer.bias f4 [32]
0	0xc0138978	-2.3052654
1	0xbf5e8bee	-0.86932266
2	0x3e736099	0.23767318
3	0xbf164596	-0.5869993
4	0xbf51adbc	-0.8190572
5	0xbe822207	-0.25416586
6	0xbf22ed79	-0.63643605
7	0xbf6ec61f	-0.9327106
8	0xbe10b2d1	-0.14130713
9	0xbf17fa7f	-0.593666
10	0xbf6ed49e	-0.9329318
11	0xbe8797e4	-0.2648307
12	0xbef81cdc	-0.48459518
13	0xbf590a45	-0.84781295
14	0xbee29c2d	-0.44259778
15	0xbf0a983d	-0.5413855
16	0xbe47b9ff	-0.19504546
17	0x3e603c6a	0.21898046
18	0xbf10500e	-0.56372154
19	0xbf7dd10b	-0.991471
20	0x3db28403	0.087165855
21	0xbf147b3f	-0.5800056
22	0xbf8b2011	-1.0869161
23	0x3ee9b5ab	0.45646414
24	0xbf0fffa9	-0.5624948
25	0xbf636739	-0.8882938
26	0xbe88aae5	-0.26692882
27	0xbf21b8c6	-0.63172567
28	0xbf13ce37	-0.57736534
29	0x3ca5bf8a	0.020232935
30	0xbf4b51fa	-0.7942196
31	0x3f662c83	0.8991167

_transform._transforms.1.autoregressive_net.initial_layer.mask f4 [32, 4]
0	0x3f800000	1.0
1	0x00000000	0.0
2	0x00000000	0.0
3	0x00000000	0.0
4	0x3f800000	1.0
5	0x3f800000	1.0
6	0x00000000	0.0
7	0x00000000	0.0
8	0x3f800000	1.0
9	0x3f800000	1.0
10	0x3f800000	1.0
11	0x00000000	0.0
12	0x3f800000	1.0
13	0x00000000	0.0
14	0x00000000	0.0
15	0x00000000	0.0
16	0x3f800000	1.0
17	0x3f800000	1.0
18	0x00000000	0.0
19	0x00000000	0.0
20	0x3f800000	1.0
21	0x3f800000	1.0
22	0x3f800000	1.0
23	0x00000000	0.0
24	0x3f800000	1.0
25	0x00000000	0.0
26	0x00000000	0.0
27	0x00000000	0.0
28	0x3f800000	1.0
29	0x3f800000	1.0
30	0x00000000	0.0
31	0x00000000	0.0
32	0x3f800000	1.0
33	0x3f800000	1.0
34	0x3f800000	1.0
35	0x00000000	0.0
36	0x3f800000	1.0
37	0x00000000	0.0
38	0x00000000	0.0
39	0x00000000	0.0
40	0x3f800000	1.0
41	0x3f800000	1.0
42	0x00000000	0.0
43	0x00000000	0.0
44	0x3f800000	1.0
45	0x3f800000	1.0
46	0x3f800000	1.0
47	0x00000000	0.0
48	0x3f800000	1.0
49	0x00000000	0.0
50	0x00000000	0.0
51	0x00000000	0.0
52	0x3f800000	1.0
53	0x3f800000	1.0
54	0x00000000	0.0
55	0x00000000	0.0
56	0x3f800000	1.0
57	0x3f800000	1.0
58	0x3f800000	1.0
59	0x00000000	0.0
60	0x3f800000	1.0
61	0x00000000	0.0
62	0x00000000	0.0
63	0x00000000	0.0
64	0x3f800000	1.0
65	0x3f800000	1.0
66	0x00000000	0.0
67	0x00000000	0.0
68	0x3f800000	1.0
69	0x3f800000	1.0
70	0x3f800000	1.0
71	0x00000000	0.0
72	0x3f800000	1.0
73	0x00000000	0.0
74	0x00000000	0.0
75	0x00000000	0.0
76	0x3f800000	1.0
77	0x3f800000	1.0
78	0x00000000	0.0
79	0x00000000	0.0
80	0x3f800000	1.0
81	0x3f800000	1.0
82	0x3f800000	1.0
83	0x00000000	0.0
84	0x3f800000	1.0
85	0x00000000	0.0
86	0x00000000	0.0
87	0x00000000	0.0
88	0x3f800000	1.0
89	0x3f800000	1.0
90	0x00000000	0.0
91	0x00000000	0.0
92	0x3f800000	1.0
93	0x3f800000	1.0
94	0x3f800000	1.0
95	0x00000000	0.0
96	0x3f800000	1.0
97	0x00000000	0.0
98	0x00000000	0.0
99	0x00000000	0.0
100	0x3f800000	1.0
101	0x3f800000	1.0
102	0x00000000	0.0
103	0x00000000	0.0
104	0x3f800000	1.0
105	0x3f800000	1.0
106	0x3f800000	1.0
107	0x00000000	0.0
108	0x3f800000	1.0
109	0x00000000	0.0
110	0x00000000	0.0
111	0x00000000	0.0
112	0x3f800000	1.0
113	0x3f800000	1.0
114	0x00000000	0.0
115	0x00000000	0.0
116	0x3f800000	1.0
117	0x3f800000	1.0
118	0x3f800000	1.0
119	0x00000000	0.0
120	0x3f800000	1.0
121	0x00000000	0.0
122	0x00000000	0.0
123	0x00000000	0.0
124	0x3f800000	1.0
125	0x3f800000	1.0
126	0x00000000	0.0
127	0x00000000	0.0

_transform._transforms.1.autoregressive_net.blocks.0.linear_layers.0.weight f4 [32, 32]
0	0x3fce7dd5	1.6132151
1	0xbddb9ad0	-0.107228875
2	0x3d7e0df5	0.06202503
3	0x3ee15102	0.44007117
4	0xbdfcbaab	-0.123402916
5	0x3e1bf0ad	0.1522853
6	0x3e53d968	0.20688403
7	0xbe240855	-0.16018803
8	0xbcd3e6ef	-0.025866954
9	0x3e9a13ba	0.30093175
10	0x3d671033	0.056411933
11	0xbd3c3899	-0.045952413
12	0xbe9b868a	-0.30376083
13	0xbe244e4d	-0.16045494
14	0xbda14ce4	-0.07875994
15	0x3e952f4d	0.2913765
16	0xbdf061ae	-0.11737381
17	0x3de39539	0.11112446
18	0xbe8fb9bd	-0.28071395
19	0x3e05e6c6	0.13076314
20	0x3e04e6f6	0.1297873
21	0x3e1ae2e8	0.1512562
22	0xbe15ffce	-0.14648363
23	0xbce58ac8	-0.028020278
24	0x3dd7fcbc	0.10546252
25	0xbdf02eec	-0.117277
26	0xbde45aac	-0.11150107
27	0x3ee950c3	0.4556943
28	0x3d82a635	0.06379358
29	0x3e240894	0.16018897
30	0xbe5e2139	-0.21692361
31	0xbd9b2734	-0.07575837
32	0xbe4c1b07	-0.19932185
33	0x3d32d562	0.04366053
34	0x3c1bb577	0.009503714
35	0xbc997713	-0.018733537
36	0xbc234306	-0.00996471
37	0xbe1c84ec	-0.1528508
38	0xbea4cae1	-0.32186034
39	0xbe8915f5	-0.26774564
40	0x3dc8ce03	0.098049186
41	0x3df5a4e9	0.11994345
42	0x3c946fb3	0.018119669
43	0xbded129f	-0.11575817
44	0xbe95b080	-0.2923622
45	0xbd1b35fc	-0.03789328
46	0x3d9ba7b6	0.07600348
47	0xbe2bbda9	-0.16771568
48	0xbe85466d	-0.26030293
49	0xbdac500f	-0.084137075
50	0x3d5531cb	0.05204944
51	0xbd85a410	-0.06525433
52	0xbcf630f5	-0.030052641
53	0x3e7aea14	0.24503356
54	0xbe28278c	-0.16421336
55	0xbd078f08	-0.03309539
56	0xbc3966b0	-0.0113159865
57	0xbe5eebd1	-0.21769644
58	0xbcfa2e8d	-0.030539775
59	0x3d601351	0.05470592
60	0xbe780cd2	-0.2422364
61	0x3dbebf09	0.09313781
62	0xbe164854	-0.14676028
63	0xbdfdf9a1	-0.124011286
64	0xbdb6df1c	-0.089292735
65	0xbd298ad7	-0.041392174
66	0xbdcb7e54	-0.099362046
67	0xbe2e2c77	-0.1700915
68	0x3e7cf633	0.24703293
69	0xbe40f9a6	-0.18845233
70	0xbd3954c2	-0.045246847
71	0xbe877499	-0.26456144
72	0xbdd52fb1	-0.10409487
73	0xbd5b1da5	-0.053495068
74	0xbe8041d2	-0.25050217
75	0x3c7b597c	0.015341159
76	0xbea3b8d2	-0.31976944
77	0xbf844ed4	-1.0336556
78	0xbcca9f44	-0.024734147
79	0xbe3beade	-0.18351313
80	0xbe1ca5a7	-0.15297566
81	0xbe01959c	-0.12654728
82	0x3e4fad9c	0.2028107
83	0xbdfa2fec	-0.122161716
84	0xbe78a99c	-0.24283451
85	0x3dd5929a	0.10428353
86	0xbea32fdf	-0.3187246
87	0xbed18d07	-0.40927908
88	0xbc8b40e0	-0.016998708
89	0x3cb999a8	0.022656277
90	0xbebf798e	-0.37397426
91	0xbe281ee5	-0.16418035
92	0xbea2dc35	-0.3180863
93	0xbe8d9cdd	-0.2765874
94	0x3cc9fd68	0.024656966
95	0xbe171bda	-0.14756718
96	0xbe0bb6ce	-0.13643953
97	0x3e09cea5	0.13457735
98	0x3e016594	0.12636405
99	0xbe177ffb	-0.14794914
100	0xbd6e3971	-0.05816025
101	0x3c7e6362	0.015526624
102	0xbdc34421	-0.09534479
103	0xbb18f4bf	-0.002333924
104	0xbe15b4c4	-0.14619738
105	0xbe3d8944	-0.18509394
106	0x3db55274	0.08853617
107	0xbbe3c680	-0.0069511533
108	0xbe5b4488	-0.21412861
109	0xbd2ad458	-0.041706413
110	0x3c8e79e5	0.017392108
111	0xbdd2c597	-0.102915935
112	0x3c454f77	0.012042872
113	0xbdaa95fa	-0.08329387
114	0x3dc8b2ae	0.097997054
115	0xbd9f0448	-0.077644885
116	0x3dcbedea	0.09957488
117	0xbc6dacce	-0.014506532
118	0x3e23c12e	0.15991661
119	0x3caff593	0.021479404
120	0xbd751365	-0.05983295
121	0x3e045f43	0.12926964
122	0xbd953ee7	-0.07287388
123	0xbe6e9e1e	-0.23302504
124	0xbde898ad	-0.113572456
125	0x3ca0f914	0.01965002
126	0xbd47b36a	-0.048755087
127	0xbcdb2081	-0.026748898
128	0xbdec279f	-0.115309946
129	0xbdabcd12	-0.083887234
130	0x3c75a24c	0.014992308
131	0x3e29a6bb	0.16567509
132	0x3d2f8ef8	0.042860955
133	0x3dbaab59	0.09114713
134	0xbcdacb41	-0.026708247
135	0xbd4fa6a6	-0.050696038
136	0xbdebd6b3	-0.1151556
137	0xbe171c55	-0.14756902
138	0xbcc20350	-0.02368322
139	0x3e0436d3	0.12911539
140	0xbdfc3c79	-0.12316222
141	0xbe0d2773	-0.1378458
142	0xbdd8f1e1	-0.1059301
143	0xbe588d8e	-0.21147749
144	0xbe564443	-0.20924477
145	0x3d9aaff5	0.075530924
146	0x3d672ab2	0.0564372
147	0xbddf3845	-0.108994044
148	0x3d7da652	0.061926194
149	0x3d1a5115	0.037674982
150	0x3d294301	0.041323666
151	0xbdeb9616	-0.11503236
152	0xbc847d37	-0.016172988
153	0xbd728755	-0.059211094
154	0xbc6bcd87	-0.014392263
155	0x3a961537	0.0011450414
156	0xbeb73bce	-0.35787815
157	0xbd91e5db	-0.071239196
158	0xbdc0f66a	-0.09422
159	0xbd956e26	-0.072964
160	0xbe2bfa88	-0.16794789
161	0xbd0539e9	-0.03252593
162	0xbe71be71	-0.23607804
163	0xbe130041	-0.14355566
164	0xbda5ca71	-0.08095253
165	0xbe18b62e	-0.14913246
166	0xbdadb12d	-0.08481059
167	0xbe2663b2	-0.16248968
168	0xbd9e1b59	-0.0772006
169	0xbd7e6aac	-0.06211345
170	0xbb331e44	-0.0027331272
171	0xbcc33587	-0.023829235
172	0xbd6b8c8a	-0.057507075
173	0xbd8fbf1f	-0.07018875
174	0x3dd58438	0.10425609
175	0x3d52a895	0.051430304
176	0xbea9ee12	-0.33189446
177	0xbe500535	-0.20314486
178	0x3e89864b	0.2686027
179	0x3e88e5c5	0.267378
180	0xbdc63ad9	-0.09679193
181	0xbe44c14e	-0.19214365
182	0xbc94b5cf	-0.0181531
183	0xbe8ba72b	-0.27275977
184	0xbf10a6e8	-0.5650468
185	0xbdc420cc	-0.09576568
186	0xbe54027f	-0.20704077
187	0xbda13378	-0.07871145
188	0xbe5843d2	-0.21119621
189	0xbcd42e81	-0.025901081
190	0xbc656cd9	-0.014003002
191	0xbe333cf1	-0.17503716
192	0x3d5b1d49	0.053494725
193	0x3e18d9a3	0.14926772
194	0x3d6e2e0a	0.058149375
195	0xbde89a89	-0.113576
196	0xbd2cfe62	-0.042234786
197	0xbe31d068	-0.17364657
198	0xbec998be	-0.39374346
199	0x3c6b75d9	0.014371359
200	0x3d7eb1d4	0.06218131
201	0xbeaa3a08	-0.332474
202	0xbdfa5ce0	-0.12224746
203	0x3df67e0e	0.12035762
204	0xbc89b3e7	-0.016809417
205	0xbd4f7445	-0.050647993
206	0x3d5a547b	0.053303223
207	0xbe093b33	-0.13401489
208	0xbdafd334	-0.08585206
209	0xbd452ed4	-0.048140362
210	0xbe28c6bb	-0.1648206
211	0xbda2b6f7	-0.07945054
212	0xbdff744b	-0.12473353
213	0xbe95a107	-0.29224417
214	0xbd8c2359	-0.068426795
215	0x3cb5eb06	0.022206794
216	0x3e46f8e3	0.1943088
217	0xbc6ba331	-0.01438217
218	0x3e30b55f	0.17256688
219	0xbe5b20d5	-0.21399243
220	0xbe0a1275	-0.13483603
221	0xbe0f9e9a	-0.14025345
222	0x3d2f2380	0.042758465
223	0x3e06468b	0.13112848
224	0xbddddd46	-0.1083322
225	0xbe6f4f52	-0.23370102
226	0x3e0959ee	0.13413212
227	0xbe643c96	-0.22288737
228	0xbe1a4baa	-0.15067926
229	0xbe0720c6	-0.13196096
230	0xbe47b0b8	-0.19501007
231	0xbdb21907	-0.0869618
232	0x3dc2cb56	0.095114395
233	0xbe12ff8d	-0.14355297
234	0x3c8ce286	0.017197859
235	0xbd2980f4	-0.041382745
236	0xbb53d2e9	-0.0032321757
237	0xbd85691b	-0.06514188
238	0x3d31a226	0.043367527
239	0xbd355ae7	-0.044276144
240	0x3c9f3183	0.019432789
241	0xbdaef02d	-0.08541904
242	0xbdbf32d3	-0.09335866
243	0xb9929593	-0.00027958732
244	0x3dab8e3a	0.08376737
245	0xbe2a72d1	-0.16645361
246	0xbe557981	-0.20847131
247	0x3c4603c7	0.0120858615
248	0x3c1e5fa2	0.009666355
249	0xbda18988	-0.0788756
250	0x3e028c7b	0.12748902
251	0xbe4e1e63	-0.20128779
252	0xbdd36f1d	-0.103239276
253	0xbb8cec96	-0.004300664
254	0xbe1149eb	-0.14188354
255	0x3ccdf567	0.025141431

_transform._transforms.1.autoregressive_net.blocks.0.linear_layers.0.bias f4 [32]
0	0xbd7a211b	-0.061066728
1	0xbd1cdb5e	-0.038295142
2	0xbe02a209	-0.12757124
3	0xbdec4021	-0.11535669
4	0xbe84c3b4	-0.2593056
5	0xbe048fda	-0.129455
6	0xbe96ae8e	-0.2943005
7	0xbe7e7f52	-0.24853256
8	0xbe81bcd5	-0.2533938
9	0xbdd741a1	-0.105105646
10	0xbe6658e7	-0.22494851
11	0xbdbbede0	-0.091762304
12	0xbef10586	-0.47074527
13	0xbe68b309	-0.22724546
14	0xbf1f8b89	-0.6232229
15	0xbf060f01	-0.52366644
16	0xbda82bb6	-0.08211462
17	0xbdf6172c	-0.120161384
18	0xbedd656b	-0.43241438
19	0xbdb923cc	-0.09040031
20	0xbe5443c3	-0.20728974
21	0xbe15bd21	-0.14622928
22	0xbeda51f6	-0.42640656
23	0xbf552894	-0.8326504
24	0xbe91b2df	-0.2845678
25	0xbee602bc	-0.4492396
26	0xbe65421a	-0.22388497
27	0xbe539791	-0.20663287
28	0xbe84ff0e	-0.2597584
29	0xbd63a3c8	-0.055576116
30	0xbe885290	-0.2662549
31	0xbe29713b	-0.165471

_transform._transforms.1.autoregressive_net.blocks.0.linear_layers.0.mask f4 [32, 32]
0	0x3f800000	1.0
1	0x00000000	0.0
2	0x00000000	0.0
3	0x3f800000	1.0
4	0x00000000	0.0
5	0x00000000	0.0
6	0x3f800000	1.0
7	0x00000000	0.0
8	0x00000000	0.0
9	0x3f800000	1.0
10	0x00000000	0.0
11	0x00000000	0.0
12	0x3f800000	1.0
13	0x00000000	0.0
14	0x00000000	0.0
15	0x3f800000	1.0
16	0x00000000	0.0
17	0x00000000	0.0
18	0x3f800000	1.0
19	0x00000000	0.0
20	0x00000000	0.0
21	0x3f800000	1.0
22	0x00000000	0.0
23	0x00000000	0.0
24	0x3f800000	1.0
25	0x00000000	0.0
26	0x00000000	0.0
27	0x3f800000	1.0
28	0x00000000	0.0
29	0x00000000	0.0
30	0x3f800000	1.0
31	0x00000000	0.0
32	0x3f800000	1.0
33	0x3f800000	1.0
34	0x00000000	0.0
35	0x3f800000	1.0
36	0x3f800000	1.0
37	0x00000000	0.0
38	0x3f800000	1.0
39	0x3f800000	1.0
40	0x00000000	0.0
41	0x3f800000	1.0
42	0x3f800000	1.0
43	0x00000000	0.0
44	0x3f800000	1.0
45	0x3f800000	1.0
46	0x00000000	0.0
47	0x3f800000	1.0
48	0x3f800000	1.0
49	0x00000000	0.0
50	0x3f800000	1.0
51	0x3f800000	1.0
52	0x00000000	0.0
53	0x3f800000	1.0
54	0x3f800000	1.0
55	0x00000000	0.0
56	0x3f800000	1.0
57	0x3f800000	1.0
58	0x00000000	0.0
59	0x3f800000	1.0
60	0x3f800000	1.0
61	0x00000000	0.0
62	0x3f800000	1.0
63	0x3f800000	1.0
64	0x3f800000	1.0
65	0x3f800000	1.0
66	0x3f800000	1.0
67	0x3f800000	1.0
68	0x3f800000	1.0
69	0x3f800000	1.0
70	0x3f800000	1.0
71	0x3f800000	1.0
72	0x3f800000	1.0
73	0x3f800000	1.0
74	0x3f800000	1.0
75	0x3f800000	1.0
76	0x3f800000	1.0
77	0x3f800000	1.0
78	0x3f800000	1.0
79	0x3f800000	1.0
80	0x3f800000	1.0
81	0x3f800000	1.0
82	0x3f800000	1.0
83	0x3f800000	1.0
84	0x3f800000	1.0
85	0x3f800000	1.0
86	0x3f800000	1.0
87	0x3f800000	1.0
88	0x3f800000	1.0
89	0x3f800000	1.0
90	0x3f800000	1.0
91	0x3f800000	1.0
92	0x3f800000	1.0
93	0x3f800000	1.0
94	0x3f800000	1.0
95	0x3f800000	1.0
96	0x3f800000	1.0
97	0x00000000	0.0
98	0x00000000	0.0
99	0x3f800000	1.0
100	0x00000000	0.0
101	0x00000000	0.0
102	0x3f800000	1.0
103	0x00000000	0.0
104	0x00000000	0.0
105	0x3f800000	1.0
106	0x00000000	0.0
107	0x00000000	0.0
108	0x3f800000	1.0
109	0x00000000	0.0
110	0x00000000	0.0
111	0x3f800000	1.0
112	0x00000000	0.0
113	0x00000000	0.0
114	0x3f800000	1.0
115	0x00000000	0.0
116	0x00000000	0.0
117	0x3f800000	1.0
118	0x00000000	0.0
119	0x00000000	0.0
120	0x3f800000	1.0
121	0x00000000	0.0
122	0x00000000	0.0
123	0x3f800000	1.0
124	0x00000000	0.0
125	0x00000000	0.0
126	0x3f800000	1.0
127	0x00000000	0.0
128	0x3f800000	1.0
129	0x3f800000	1.0
130	0x00000000	0.0
131	0x3f800000	1.0
132	0x3f800000	1.0
133	0x00000000	0.0
134	0x3f800000	1.0
135	0x3f800000	1.0
136	0x00000000	0.0
137	0x3f800000	1.0
138	0x3f800000	1.0
139	0x00000000	0.0
140	0x3f800000	1.0
141	0x3f800000	1.0
142	0x00000000	0.0
143	0x3f800000	1.0
144	0x3f800000	1.0
145	0x00000000	0.0
146	0x3f800000	1.0
147	0x3f800000	1.0
148	0x00000000	0.0
149	0x3f800000	1.0
150	0x3f800000	1.0
151	0x00000000	0.0
152	0x3f800000	1.0
153	0x3f800000	1.0
154	0x00000000	0.0
155	0x3f800000	1.0
156	0x3f800000	1.0
157	0x00000000	0.0
158	0x3f800000	1.0
159	0x3f800000	1.0
160	0x3f800000	1.0
161	0x3f800000	1.0
162	0x3f800000	1.0
163	0x3f800000	1.0
164	0x3f800000	1.0
165	0x3f800000	1.0
166	0x3f800000	1.0
167	0x3f800000	1.0
168	0x3f800000	1.0
169	0x3f800000	1.0
170	0x3f800000	1.0
171	0x3f800000	1.0
172	0x3f800000	1.0
173	0x3f800000	1.0
174	0x3f800000	1.0
175	0x3f800000	1.0
176	0x3f800000	1.0
177	0x3f800000	1.0
178	0x3f800000	1.0
179	0x3f800000	1.0
180	0x3f800000	1.0
181	0x3f800000	1.0
182	0x3f800000	1.0
183	0x3f800000	1.0
184	0x3f800000	1.0
185	0x3f800000	1.0
186	0x3f800000	1.0
187	0x3f800000	1.0
188	0x3f800000	1.0
189	0x3f800000	1.0
190	0x3f800000	1.0
191	0x3f800000	1.0
192	0x3f800000	1.0
193	0x00000000	0.0
194	0x00000000	0.0
195	0x3f800000	1.0
196	0x00000000	0.0
197	0x00000000	0.0
198	0x3f800000	1.0
199	0x00000000	0.0
200	0x00000000	0.0
201	0x3f800000	1.0
202	0x00000000	0.0
203	0x00000000	0.0
204	0x3f800000	1.0
205	0x00000000	0.0
206	0x00000000	0.0
207	0x3f800000	1.0
208	0x00000000	0.0
209	0x00000000	0.0
210	0x3f800000	1.0
211	0x00000000	0.0
212	0x00000000	0.0
213	0x3f800000	1.0
214	0x00000000	0.0
215	0x00000000	0.0
216	0x3f800000	1.0
217	0x00000000	0.0
218	0x00000000	0.0
219	0x3f800000	1.0
220	0x00000000	0.0
221	0x00000000	0.0
222	0x3f800000	1.0
223	0x00000000	0.0
224	0x3f800000	1.0
225	0x3f800000	1.0
226	0x00000000	0.0
227	0x3f800000	1.0
228	0x3f800000	1.0
229	0x00000000	0.0
230	0x3f800000	1.0
231	0x3f800000	1.0
232	0x00000000	0.0
233	0x3f800000	1.0
234	0x3f800000	1.0
235	0x00000000	0.0
236	0x3f800000	1.0
237	0x3f800000	1.0
238	0x00000000	0.0
239	0x3f800000	1.0
240	0x3f800000	1.0
241	0x00000000	0.0
242	0x3f800000	1.0
243	0x3f800000	1.0
244	0x00000000	0.0
245	0x3f800000	1.0
246	0x3f800000	1.0
247	0x00000000	0.0
248	0x3f800000	1.0
249	0x3f800000	1.0
250	0x00000000	0.0
251	0x3f800000	1.0
252	0x3f800000	1.0
253	0x00000000	0.0
254	0x3f800000	1.0
255	0x3f800000	1.0

_transform._transforms.1.autoregressive_net.blocks.0.linear_layers.1.weight f4 [32, 32]
0	0xbf18547b	-0.59503907
1	0x3a4cf37e	0.00078182656
2	0xba368b92	-0.00069635466
3	0x3c60e310	0.013726011
4	0xb92a50fe	-0.00016242635
5	0x398a4971	0.0002637613
6	0xbd073fb5	-0.03301974
7	0x3a3b952e	0.00071557134
8	0xb9da925b	-0.00041689244
9	0xbcfa1b7e	-0.030530687
10	0x3a7c9790	0.00096356217
11	0xb9613821	-0.00021478582
12	0x3cff14da	0.031137872
13	0xba165ef2	-0.0005736194
14	0x3a457038	0.00075316755
15	0xbca3001f	-0.019897519
16	0xba711c75	-0.0009197661
17	0x3a56d9ea	0.0008195924
18	0x3d0b97ed	0.034080435
19	0x385a2c8c	5.2016738e-05
20	0xb95fb215	-0.00021333278
21	0xb9f4da7c	-0.0004670209
22	0xba729375	-0.000925354
23	0xb9ccd46f	-0.00039068187
24	0xbd80e26d	-0.06293187
25	0x3a70684f	0.00091708166
26	0xb8880550	-6.485975e-05
27	0x3d06791e	0.03283035
28	0x3a694b1d	0.00088994374
29	0x3a4122f4	0.0007367574
30	0x3e109d55	0.14122517
31	0x398412b1	0.00025190928
32	0xbb2f0477	-0.0026705542
33	0x3d6f21cd	0.058381844
34	0x3a46f0f8	0.0007589008
35	0x3c15b6f0	0.009137854
36	0x3ca74715	0.020419637
37	0xba7b880b	-0.0009595162
38	0x3d81939f	0.063269846
39	0x3b07dc88	0.0020730812
40	0x394d0961	0.00019553817
41	0x3d88fdc5	0.06689028
42	0xbca09aa4	-0.019604988
43	0x3944c5fd	0.00018765773
44	0x3db3313d	0.08749626
45	0x3de5fd81	0.11229993
46	0xba2a8448	-0.0006504697
47	0x3e47ec96	0.19523844
48	0xbd3ad499	-0.045612905
49	0x3a829ac2	0.0009964334
50	0x3e7b6997	0.24551998
51	0x3dbdbbc2	0.092643276
52	0x39d7d58e	0.00041167106
53	0x3a55b4af	0.0008152229
54	0x3ea18d85	0.31553283
55	0x3a6fd7d4	0.00091492874
56	0x3b473739	0.0030397906
57	0x3c28bb0b	0.010298501
58	0xb8bb6ad1	-8.936751e-05
59	0x3c8c688e	0.0171397
60	0x3e0dfdaa	0.13866296
61	0x39ecc888	0.00045162835
62	0xbda7a2d5	-0.081853546
63	0x3dbfc7dd	0.09364293
64	0x3ea8f43c	0.32998836
65	0xbcd92656	-0.026507538
66	0x3ddd5e0d	0.108089544
67	0x3d24962d	0.04018228
68	0xbd562b21	-0.052287225
69	0x3d13dc71	0.0360989
70	0x3d59e0a0	0.053192735
71	0x3c8f1f0c	0.017470859
72	0x3e094ca0	0.13408136
73	0x3d360dfa	0.044446923
74	0xbdc67f37	-0.09692233
75	0xba40c542	-0.00073536125
76	0x3e492f58	0.19646966
77	0xbe03249a	-0.12806931
78	0x3e26ab6d	0.16276331
79	0x3df126b4	0.1177496
80	0x3e18ec9b	0.14934008
81	0xbda96dae	-0.08272873
82	0xbeafc855	-0.3433253
83	0x3d83fed7	0.06445091
84	0x3dd2d55b	0.102946006
85	0x3a713269	0.0009200932
86	0xbe518fe3	-0.20465045
87	0x3e3a48fb	0.18191902
88	0x3b89ed41	0.004209191
89	0x3c6a6e1f	0.0143084815
90	0xbe220b86	-0.15824708
91	0x3d183fdb	0.037170272
92	0xbe51ca0d	-0.20487233
93	0x3c8b1595	0.016978065
94	0x3e084b4e	0.13309976
95	0xbd8c9ba3	-0.06865623
96	0xbc06c772	-0.008226262
97	0x396e86ea	0.00022747708
98	0xba304ce0	-0.00067253225
99	0xbcf7ae4a	-0.030234475
100	0xba049411	-0.0005057464
101	0xb920e70b	-0.0001534486
102	0xbe97a3b3	-0.2961708
103	0xba55e85d	-0.000815993
104	0xba247ca8	-0.0006274679
105	0xbbb3bc22	-0.0054850737
106	0x39cfd5dc	0.00039641454
107	0x3a4f906b	0.00079179433
108	0x3b35e8e2	0.0027757217
109	0xba6a57a7	-0.0008939453
110	0xba686211	-0.00088647107
111	0x3e70347e	0.23457524
112	0x3a365aaf	0.0006956262
113	0xba68bd65	-0.00088783196
114	0xbe1ae1b3	-0.1512516
115	0xb90558cd	-0.0001271695
116	0x3a1c0917	0.0005952282
117	0xb9763d30	-0.00023483182
118	0x3a01b1e6	0.00049474684
119	0x39d2c9c7	0.00040204657
120	0xb884ed2d	-6.338428e-05
121	0x36b9999a	5.531311e-06
122	0x3850bf9e	4.9769522e-05
123	0xbc6cab00	-0.014445066
124	0xba7cc036	-0.0009641679
125	0xb94a50bd	-0.00019294299
126	0xbd989582	-0.07450391
127	0x3a107773	0.00055109634
128	0x3bcdd695	0.0062816837
129	0xbcb8f0f8	-0.02257584
130	0x3a6d0f65	0.00090431265
131	0x3d7651f1	0.06013674
132	0xbc113432	-0.008862542
133	0xb946931b	-0.00018937553
134	0x3e6849ca	0.22684398
135	0x3ca03c18	0.019559905
136	0xb91c3a77	-0.00014899099
137	0x3d297f2c	0.041381046
138	0xbdcfe609	-0.101512976
139	0x3a47f648	0.00076279463
140	0xbd866e96	-0.06564061
141	0x3e01eaca	0.12687221
142	0xb92f5a5f	-0.00016722966
143	0xbda037e3	-0.078231595
144	0x3e17eaa7	0.14835607
145	0xba53699a	-0.0008064747
146	0x3d6f53ef	0.058429655
147	0x3e100015	0.14062531
148	0x3a3c17f0	0.0007175198
149	0x3a81500c	0.0009865775
150	0x3ec90846	0.39264125
151	0xb9e368fb	-0.0004337503
152	0xbc069f9c	-0.008216765
153	0xbc2d7275	-0.010586371
154	0x3a3565fa	0.0006919798
155	0x3cc2120f	0.023690252
156	0x3da76b8b	0.08174809
157	0x3a54adfb	0.00081130833
158	0x3e0140b1	0.12622334
159	0x3defef7f	0.11715602
160	0x3bec4499	0.007210326
161	0xbc20aad1	-0.009806351
162	0xbdba1577	-0.09086125
163	0xbcf970ee	-0.030449357
164	0x3c3ddf4b	0.011588882
165	0xbb99610e	-0.0046807593
166	0xbe9eaeec	-0.3099283
167	0xbccee85e	-0.025257286
168	0xbda7bed6	-0.08190696
169	0xbd90c81d	-0.070694186
170	0x3d313e44	0.04327227
171	0xba61ac7e	-0.0008608772
172	0x3db1b234	0.08676568
173	0x3d8e6c6a	0.06954272
174	0x3d1bbd05	0.03802206
175	0x3ef139da	0.4711445
176	0x3dce98a2	0.10087706
177	0x3bb504b9	0.0055242446
178	0xbe120a6d	-0.1426179
179	0x3d9cc3ad	0.0765451
180	0x3c8fde4f	0.01756206
181	0xb70c7df4	-8.373976e-06
182	0x3cff4ff8	0.031166062
183	0xbf1cc1d6	-0.6123327
184	0xbb6b143b	-0.0035870213
185	0xbbbcb86d	-0.00575929
186	0xbdcf00dc	-0.10107586
187	0xbd4278e9	-0.04747859
188	0x3ebba35c	0.3664807
189	0x3c82c074	0.01596091
190	0x3db065bc	0.08613154
191	0x3dad9a6a	0.08476718
192	0x3aa555b6	0.0012614045
193	0xba1151fe	-0.0005543529
194	0x3a678796	0.00088321546
195	0xbb90484c	-0.0044031497
196	0xb94e250f	-0.00019659496
197	0xba5fe898	-0.0008541434
198	0xbde35695	-0.111004986
199	0xb9e8ef59	-0.00044428816
200	0xb88de9aa	-6.766927e-05
201	0x3d625bbe	0.055263273
202	0xba35eda9	-0.0006940016
203	0x39ff44e2	0.00048688712
204	0xbda823a5	-0.08209924
205	0xb99f971b	-0.00030439426
206	0x39f82b8e	0.00047334697
207	0xbd2a1eca	-0.04153327
208	0x39373e88	0.00017475535
209	0x3996635d	0.0002868426
210	0xbd0d7574	-0.03453584
211	0xb7b9a148	-2.2128821e-05
212	0xb9998f5d	-0.00029289248
213	0x3867e78e	5.5290344e-05
214	0x3a1575aa	0.0005701432
215	0x3a41dbc9	0.0007395116
216	0xbb5f02f5	-0.0034028862
217	0xba06d79c	-0.00051438226
218	0x39a4726f	0.00031365777
219	0xbca29a36	-0.019848924
220	0x39820a83	0.00024803364
221	0xb90e3107	-0.0001356044
222	0x3e10dd0d	0.14146824
223	0xba61a232	-0.0008607238
224	0xb91cbaf6	-0.00014946968
225	0x3d1a94c1	0.03773952
226	0x391e8527	0.00015117657
227	0xbe09fafe	-0.13474652
228	0x3e461370	0.19343352
229	0x39882f92	0.00025975384
230	0xbe27e569	-0.16396107
231	0xbdce76ef	-0.100812785
232	0x3a0bec4a	0.0005337639
233	0xbd9cc326	-0.07654409
234	0x3e269991	0.16269518
235	0x39e4886b	0.00043589188
236	0xbc7605e1	-0.01501605
237	0x3d509887	0.05092671
238	0x38efd280	0.00011435617
239	0xbdaa9f35	-0.083311476
240	0xbe3879d3	-0.18015222
241	0xb8cb8053	-9.7036966e-05
242	0x3d3612d5	0.044451553
243	0xbcc3ad8e	-0.023886468
244	0x3a225c88	0.0006193598
245	0xb907fd79	-0.00012969029
246	0xbdfbe73c	-0.12299964
247	0xba2d7830	-0.00066173356
248	0xbc02c631	-0.007981823
249	0x3bf81cfc	0.0075718146
250	0x391a188c	0.00014695729
251	0xbd82e05a	-0.06390448
252	0x3e5516ec	0.20809525
253	0xb7048290	-7.898212e-06
254	0xbe105c56	-0.14097723
255	0x3e1ac5a1	0.15114452

_transform._transforms.1.autoregressive_net.blocks.0.linear_layers.1.bias f4 [32]
0	0x3fa1247c	1.2589259
1	0xbee57600	-0.4481659
2	0x3dff2c22	0.124595895
3	0xbe06742e	-0.13130257
4	0xbf0fb8b2	-0.561412
5	0xbd400b87	-0.046885993
6	0xbd579165	-0.052628893
7	0xbe9b4856	-0.30328625
8	0x3d834dd9	0.06411333
9	0xbdbc8de4	-0.09206751
10	0xbe8b04b7	-0.27152035
11	0x3d1305cc	0.0358942
12	0xbe693294	-0.227732
13	0xbeb5a35f	-0.35476205
14	0x3d97ec2b	0.07418092
15	0xbdef15be	-0.11674069
16	0x3ef5f810	0.4804082
17	0x3c5890f3	0.013218152
18	0xbe03308e	-0.12811491
19	0xbe94f458	-0.2909267
20	0x3dd33485	0.10312752
21	0xbe117041	-0.14202978
22	0xbe8cc148	-0.27491212
23	0x3d244577	0.04010531
24	0xbdead8d7	-0.1146714
25	0xbe846763	-0.25860128
26	0xbb7a5d98	-0.003820276
27	0xbdb2187a	-0.08696075
28	0xbf379d28	-0.71724176
29	0xbe341ff6	-0.17590317
30	0xbe20516f	-0.15656064
31	0xbedd522b	-0.43226752

_transform._transforms.1.autoregressive_net.blocks.0.linear_layers.1.mask f4 [32, 32]
0	0x3f800000	1.0
1	0x00000000	0.0
2	0x00000000	0.0
3	0x3f800000	1.0
4	0x00000000	0.0
5	0x00000000	0.0
6	0x3f800000	1.0
7	0x00000000	0.0
8	0x00000000	0.0
9	0x3f800000	1.0
10	0x00000000	0.0
11	0x00000000	0.0
12	0x3f800000	1.0
13	0x00000000	0.0
14	0x00000000	0.0
15	0x3f800000	1.0
16	0x00000000	0.0
17	0x00000000	0.0
18	0x3f800000	1.0
19	0x00000000	0.0
20	0x00000000	0.0
21	0x3f800000	1.0
22	0x00000000	0.0
23	0x00000000	0.0
24	0x3f800000	1.0
25	0x00000000	0.0
26	0x00000000	0.0
27	0x3f800000	1.0
28	0x00000000	0.0
29	0x00000000	0.0
30	0x3f800000	1.0
31	0x00000000	0.0
32	0x3f800000	1.0
33	0x3f800000	1.0
34	0x00000000	0.0
35	0x3f800000	1.0
36	0x3f800000	1.0
37	0x00000000	0.0
38	0x3f800000	1.0
39	0x3f800000	1.0
40	0x00000000	0.0
41	0x3f800000	1.0
42	0x3f800000	1.0
43	0x00000000	0.0
44	0x3f800000	1.0
45	0x3f800000	1.0
46	0x00000000	0.0
47	0x3f800000	1.0
48	0x3f800000	1.0
49	0x00000000	0.0
50	0x3f800000	1.0
51	0x3f800000	1.0
52	0x00000000	0.0
53	0x3f800000	1.0
54	0x3f800000	1.0
55	0x00000000	0.0
56	0x3f800000	1.0
57	0x3f800000	1.0
58	0x00000000	0.0
59	0x3f800000	1.0
60	0x3f800000	1.0
61	0x00000000	0.0
62	0x3f800000	1.0
63	0x3f800000	1.0
64	0x3f800000	1.0
65	0x3f800000	1.0
66	0x3f800000	1.0
67	0x3f800000	1.0
68	0x3f800000	1.0
69	0x3f800000	1.0
70	0x3f800000	1.0
71	0x3f800000	1.0
72	0x3f800000	1.0
73	0x3f800000	1.0
74	0x3f800000	1.0
75	0x3f800000	1.0
76	0x3f800000	1.0
77	0x3f800000	1.0
78	0x3f800000	1.0
79	0x3f800000	1.0
80	0x3f800000	1.0
81	0x3f800000	1.0
82	0x3f800000	1.0
83	0x3f800000	1.0
84	0x3f800000	1.0
85	0x3f800000	1.0
86	0x3f800000	1.0
87	0x3f800000	1.0
88	0x3f800000	1.0
89	0x3f800000	1.0
90	0x3f800000	1.0
91	0x3f800000	1.0
92	0x3f800000	1.0
93	0x3f800000	1.0
94	0x3f800000	1.0
95	0x3f800000	1.0
96	0x3f800000	1.0
97	0x00000000	0.0
98	0x00000000	0.0
99	0x3f800000	1.0
100	0x00000000	0.0
101	0x00000000	0.0
102	0x3f800000	1.0
103	0x00000000	0.0
104	0x00000000	0.0
105	0x3f800000	1.0
106	0x00000000	0.0
107	0x00000000	0.0
108	0x3f800000	1.0
109	0x00000000	0.0
110	0x00000000	0.0
111	0x3f800000	1.0
112	0x00000000	0.0
113	0x00000000	0.0
114	0x3f800000	1.0
115	0x00000000	0.0
116	0x00000000	0.0
117	0x3f800000	1.0
118	0x00000000	0.0
119	0x00000000	0.0
120	0x3f800000	1.0
121	0x00000000	0.0
122	0x00000000	0.0
123	0x3f800000	1.0
124	0x00000000	0.0
125	0x00000000	0.0
126	0x3f800000	1.0
127	0x00000000	0.0
128	0x3f800000	1.0
129	0x3f800000	1.0
130	0x00000000	0.0
131	0x3f800000	1.0
132	0x3f800000	1.0
133	0x00000000	0.0
134	0x3f800000	1.0
135	0x3f800000	1.0
136	0x00000000	0.0
137	0x3f800000	1.0
138	0x3f800000	1.0
139	0x00000000	0.0
140	0x3f800000	1.0
141	0x3f800000	1.0
142	0x00000000	0.0
143	0x3f800000	1.0
144	0x3f800000	1.0
145	0x00000000	0.0
146	0x3f800000	1.0
147	0x3f800000	1.0
148	0x00000000	0.0
149	0x3f800000	1.0
150	0x3f800000	1.0
151	0x00000000	0.0
152	0x3f800000	1.0
153	0x3f800000	1.0
154	0x00000000	0.0
155	0x3f800000	1.0
156	0x3f800000	1.0
157	0x00000000	0.0
158	0x3f800000	1.0
159	0x3f800000	1.0
160	0x3f800000	1.0
161	0x3f800000	1.0
162	0x3f800000	1.0
163	0x3f800000	1.0
164	0x3f800000	1.0
165	0x3f800000	1.0
166	0x3f800000	1.0
167	0x3f800000	1.0
168	0x3f800000	1.0
169	0x3f800000	1.0
170	0x3f800000	1.0
171	0x3f800000	1.0
172	0x3f800000	1.0
173	0x3f800000	1.0
174	0x3f800000	1.0
175	0x3f800000	1.0
176	0x3f800000	1.0
177	0x3f800000	1.0
178	0x3f800000	1.0
179	0x3f800000	1.0
180	0x3f800000	1.0
181	0x3f800000	1.0
182	0x3f800000	1.0
183	0x3f800000	1.0
184	0x3f800000	1.0
185	0x3f800000	1.0
186	0x3f800000	1.0
187	0x3f800000	1.0
188	0x3f800000	1.0
189	0x3f800000	1.0
190	0x3f800000	1.0
191	0x3f800000	1.0
192	0x3f800000	1.0
193	0x00000000	0.0
194	0x00000000	0.0
195	0x3f800000	1.0
196	0x00000000	0.0
197	0x00000000	0.0
198	0x3f800000	1.0
199	0x00000000	0.0
200	0x00000000	0.0
201	0x3f800000	1.0
202	0x00000000	0.0
203	0x00000000	0.0
204	0x3f800000	1.0
205	0x00000000	0.0
206	0x00000000	0.0
207	0x3f800000	1.0
208	0x00000000	0.0
209	0x00000000	0.0
210	0x3f800000	1.0
211	0x00000000	0.0
212	0x00000000	0.0
213	0x3f800000	1.0
214	0x00000000	0.0
215	0x00000000	0.0
216	0x3f800000	1.0
217	0x00000000	0.0
218	0x00000000	0.0
219	0x3f800000	1.0
220	0x00000000	0.0
221	0x00000000	0.0
222	0x3f800000	1.0
223	0x00000000	0.0
224	0x3f800000	1.0
225	0x3f800000	1.0
226	0x00000000	0.0
227	0x3f800000	1.0
228	0x3f800000	1.0
229	0x00000000	0.0
230	0x3f800000	1.0
231	0x3f800000	1.0
232	0x00000000	0.0
233	0x3f800000	1.0
234	0x3f800000	1.0
235	0x00000000	0.0
236	0x3f800000	1.0
237	0x3f800000	1.0
238	0x00000000	0.0
239	0x3f800000	1.0
240	0x3f800000	1.0
241	0x00000000	0.0
242	0x3f800000	1.0
243	0x3f800000	1.0
244	0x00000000	0.0
245	0x3f800000	1.0
246	0x3f800000	1.0
247	0x00000000	0.0
248	0x3f800000	1.0
249	0x3f800000	1.0
250	0x00000000	0.0
251	0x3f800000	1.0
252	0x3f800000	1.0
253	0x00000000	0.0
254	0x3f800000	1.0
255	0x3f800000	1.0

_transform._transforms.1.autoregressive_net.blocks.1.linear_layers.0.weight f4 [32, 32]
0	0x3cf238c3	0.029568082
1	0x3db9ab22	0.09065844
2	0x3dd9d202	0.10635759
3	0xbe78fa03	-0.24314122
4	0x3d8e7390	0.069556355
5	0xbd96cb28	-0.07362968
6	0xbe7aa871	-0.24478318
7	0xbd0afa3b	-0.033930045
8	0x3e309f71	0.17248322
9	0x3cd5765b	0.026057413
10	0x3d67d143	0.056596052
11	0x3c495a0d	0.012289536
12	0xbe20fac0	-0.15720654
13	0x3da8e42d	0.08246646
14	0xbdacaf4f	-0.08431875
15	0x3d563b9a	0.052302934
16	0xbc3d5760	-0.011556476
17	0xbccfd88c	-0.025371812
18	0xbe18b325	-0.14912088
19	0xbe23a1bc	-0.15979666
20	0x3e305007	0.17218028
21	0x3cee10d3	0.029060757
22	0xbcfa48ef	-0.030552356
23	0x3e10a174	0.1412409
24	0x3d2deade	0.042460315
25	0x3e3081e0	0.17237043
26	0xbdbadf1f	-0.09124588
27	0xbcceb85a	-0.02523439
28	0xbe0c11af	-0.13678621
29	0x3e2ce5b5	0.16884501
30	0xbc818c53	-0.015813982
31	0x3daf3861	0.08555675
32	0xbf16bc69	-0.5888124
33	0xbde2fafe	-0.11083029
34	0xbe08812c	-0.13330525
35	0xbe53ca06	-0.20682535
36	0xbe2ddc29	-0.16978516
37	0xbe1c4ae5	-0.15262945
38	0x3bac0a44	0.005250247
39	0xbdf590f3	-0.119905375
40	0x3e122c29	0.14274658
41	0x3e49aab7	0.19694029
42	0x3d6b89a9	0.05750433
43	0xbe30d0f4	-0.1726721
44	0x3e49f262	0.19721368
45	0x3e032d19	0.12810172
46	0x3e280f63	0.1641212
47	0xbc992eaf	-0.018699018
48	0xbe60e2c8	-0.2196151
49	0x3dd58cd2	0.1042725
50	0xbd649812	-0.055809088
51	0x3dd4549f	0.10367703
52	0xbe2264aa	-0.15858713
53	0xbd2b405d	-0.04180943
54	0x3df2ffc5	0.118651904
55	0x3e070498	0.13185346
56	0xbe15610c	-0.14587802
57	0xbeebe3f0	-0.4607234
58	0xbdd6ddab	-0.104914986
59	0xbe4a0b5b	-0.19730894
60	0xbeba8653	-0.36430606
61	0x3e1163a9	0.14198174
62	0xbdd0ba94	-0.10191837
63	0xbe38e337	-0.18055426
64	0xbe23deb6	-0.16002926
65	0xbdc41fee	-0.095764026
66	0x3ce17ce1	0.027525367
67	0x3e98a363	0.29812154
68	0x39e62f6a	0.00043904345
69	0x3e0cf0f1	0.13763787
70	0xbe63647a	-0.22206298
71	0xbf6e5418	-0.93097067
72	0xbf801a5e	-1.0008047
73	0xbe953a59	-0.29146078
74	0xbe4c5f4c	-0.19958228
75	0xbd820523	-0.06348636
76	0x3ed6882f	0.41900775
77	0xbf009adf	-0.50236315
78	0xbef14cde	-0.47128958
79	0xbe6a2bdc	-0.22868294
80	0xbf8049b1	-1.0022489
81	0xbfc2fb7e	-1.5232999
82	0xbf5873cc	-0.8455169
83	0xbf2e8a57	-0.6817984
84	0xbee3c26a	-0.44484264
85	0xbed4fdc3	-0.41599855
86	0x3ed6283f	0.4182758
87	0xbfc1cd9c	-1.5140872
88	0xbe0c5113	-0.13702802
89	0x3f15a46f	0.5845403
90	0xbe0da7e2	-0.13833573
91	0x3da4084d	0.08009396
92	0xbe2e90d6	-0.17047438
93	0xbeb4d70b	-0.35320315
94	0xbf4279b6	-0.75966966
95	0xbed5a97b	-0.41730866
96	0xbdc9379a	-0.09825058
97	0xbdcaa2f2	-0.098943606
98	0x3e049161	0.12946083
99	0xbcb4f05b	-0.022087267
100	0x3c31868c	0.010835301
101	0xbd79db4f	-0.061000165
102	0xbe8a709e	-0.27039045
103	0xbe2287c9	-0.1587211
104	0x3dd8299a	0.1055481
105	0xbecffd98	-0.40623164
106	0xbe08e8ad	-0.13370009
107	0xbe1e399b	-0.15451662
108	0xbe382e5a	-0.17986432
109	0xbd68edf6	-0.056867562
110	0xbe2c137a	-0.16804305
111	0xbe3ccc2a	-0.18437257
112	0x3d00df64	0.031463042
113	0xbde62a75	-0.11238567
114	0xbef70b2f	-0.4825072
115	0x3c4604ed	0.012086135
116	0x3e0f0f60	0.13970709
117	0xbe8a7e28	-0.27049375
118	0x3d4604af	0.04834431
119	0x3d9e9139	0.07742543
120	0x3dae298f	0.085040204
121	0x3e1b50fc	0.15167612
122	0xbe2f3f3d	-0.17113967
123	0xbe7397d1	-0.23788382
124	0x3de61c8f	0.11235916
125	0x3dd5c60b	0.10438164
126	0xbf2dd522	-0.6790334
127	0x3dd6313c	0.104586095
128	0xbe6507e7	-0.22366296
129	0xbdbea8ff	-0.09309577
130	0xbbe7e2ad	-0.0070765824
131	0xbe0664d0	-0.13124394
132	0xbe9ac3b5	-0.30227438
133	0x3e242e14	0.16033202
134	0x3c901027	0.017585827
135	0xbe672f5a	-0.22576657
136	0xbd98e32d	-0.07465205
137	0xbe42e141	-0.1903124
138	0x3cb924b6	0.022600513
139	0xbacefa57	-0.001579116
140	0xbee14ee8	-0.44005513
141	0xbd4d6c14	-0.0501519
142	0xbe226158	-0.15857446
143	0xbdd468c4	-0.10371545
144	0xbe521cc7	-0.2051879
145	0x3da2cab2	0.07948817
146	0xbdf3f69d	-0.11912272
147	0xbdfe6a70	-0.12422645
148	0xbcef1483	-0.029184585
149	0xbd08e259	-0.033418987
150	0xbdb6e739	-0.08930821
151	0x3d2eff97	0.04272422
152	0xbd4eda4c	-0.050501153
153	0xbe0af3d5	-0.13569577
154	0xbd6cb10a	-0.057786025
155	0xbc832c73	-0.016012406
156	0xbe7d983b	-0.24765103
157	0x3da8d693	0.08244052
158	0x3d43bb39	0.04778597
159	0xbe5e8ba9	-0.21732964
160	0xbe3e0d02	-0.1855965
161	0xbe62724e	-0.22113916
162	0x3dca9a9f	0.09892773
163	0xbd611344	-0.054950014
164	0xbdc1999b	-0.09453126
165	0xbe0e6ca5	-0.13908632
166	0xbe96e734	-0.2947327
167	0xbe462830	-0.19351268
168	0xbe87c523	-0.2651759
169	0xbcb2c611	-0.021822961
170	0x3dbfa979	0.09358496
171	0xbe43a669	-0.19106449
172	0xbe176e7e	-0.14788243
173	0xb976e485	-0.00023545518
174	0xbdc65240	-0.09683657
175	0x3e03e2bd	0.12879463
176	0xbe411a05	-0.18857582
177	0xbea9f816	-0.33197087
178	0xbe118606	-0.14211282
179	0xbe737d80	-0.23778343
180	0xbe67a549	-0.22621645
181	0xbd6e7c20	-0.058223844
182	0x3d8fad24	0.07015446
183	0xbe79774e	-0.24361917
184	0x3dd4c9f7	0.10390084
185	0x3c7c717a	0.015407914
186	0xbd04a85f	-0.032387134
187	0xbdd54c70	-0.1041497
188	0xbe80ab66	-0.25130767
189	0xbe814278	-0.25246024
190	0xbc0957bc	-0.008382734
191	0xbd583ade	-0.052790515
192	0xbe09c4f0	-0.13454032
193	0xbe252738	-0.16128242
194	0x3e3318b0	0.17489886
195	0xbc9ce406	-0.019151699
196	0xbe02af25	-0.12762125
197	0x3e1f6172	0.15564516
198	0xbd77e357	-0.060519543
199	0x3df4e98b	0.11958607
200	0xbdde1672	-0.10844125
201	0xbdd0544a	-0.10172327
202	0xbe174a3e	-0.14774415
203	0x3cf4d5c4	0.029887088
204	0xbe05ec70	-0.13078475
205	0xbd62908b	-0.05531363
206	0xbd9f5969	-0.077807255
207	0xbdb5f930	-0.08885419
208	0x3df94688	0.12171656
209	0xbe18ff76	-0.149412
210	0x3d175b71	0.03695244
211	0x3d5b0aa1	0.053476933
212	0x3d544dbb	0.051831942
213	0x3d579c46	0.05263927
214	0xbd28d1d0	-0.041215718
215	0x3d32a372	0.043612905
216	0xbdb777a8	-0.089583695
217	0xbd1e301d	-0.038620103
218	0xbe239fa1	-0.15978862
219	0xbe1abdc9	-0.1511146
220	0xbda8e5b1	-0.08246935
221	0xbdf01922	-0.11723544
222	0xbcde6ad8	-0.027150556
223	0xbe2f614c	-0.1712696
224	0xbdf09d83	-0.11748793
225	0x3d8c5a32	0.06853141
226	0xbd5888f3	-0.05286498
227	0x3e83006e	0.25586265
228	0xbdbfc8b7	-0.09364455
229	0xbe1c6337	-0.15272222
230	0xbe851253	-0.25990543
231	0x3adc8eaf	0.0016827191
232	0xbe08df77	-0.13366495
233	0x3c6a8974	0.014314998
234	0xbe7b1d9c	-0.24523014
235	0x3d699b5b	0.057032924
236	0xbe06fc88	-0.1318227
237	0xbe21fd0f	-0.1581919
238	0x3dc5794b	0.096422754
239	0x3d13e1b2	0.03610391
240	0xbdf6f1b0	-0.12057817
241	0x3e0d2929	0.13785233
242	0xbe6a8ed8	-0.22906053
243	0xbee55a45	-0.44795433
244	0x3df0d5a5	0.117594995
245	0xbec3e81c	-0.38263023
246	0xbe03a9cd	-0.12857743
247	0xbdd3b600	-0.10337448
248	0x3d386915	0.04502209
249	0xbe3c11f7	-0.18366228
250	0xbde1fc87	-0.11034494
251	0xbe5125c0	-0.20424557
252	0xbe396d2b	-0.1810805
253	0x3d479c00	0.048732758
254	0xbe99b08f	-0.30017516
255	0xbf3c9ec3	-0.7367975

_transform._transforms.1.autoregressive_net.blocks.1.linear_layers.0.bias f4 [32]
0	0xbe553533	-0.20821075
1	0xbf2d5e06	-0.67721593
2	0xbf538e7a	-0.82639277
3	0xbec5c3a4	-0.38625824
4	0xbec43539	-0.38321856
5	0xbe5b2517	-0.21400867
6	0xbe05fe93	-0.13085394
7	0xbe77e97d	-0.24210162
8	0xbf34b1c4	-0.7058375
9	0xbe458dae	-0.19292328
10	0xbea82dd7	-0.32847473
11	0xbf57843a	-0.84186137
12	0xbe48b690	-0.19600892
13	0x3f63def8	0.890121
14	0xbf21f8e2	-0.6327039
15	0xbe96514c	-0.293589
16	0xbfcf8019	-1.6210967
17	0xbf84c2a1	-1.0371896
18	0xbeb3b21d	-0.35096827
19	0xbeb78e18	-0.35850596
20	0xbec67a6d	-0.38765278
21	0xbe13154a	-0.1436359
22	0xc01fa077	-2.494169
23	0xbe97a0e2	-0.2961493
24	0xbebf708d	-0.37390557
25	0xbebf7f17	-0.3740165
26	0xbe82bbe9	-0.2553399
27	0xbea22d07	-0.31674978
28	0xbee9ef7d	-0.45690528
29	0xbed1bca0	-0.40964222
30	0xbe900491	-0.28128484
31	0xbeb1c9f2	-0.34724385

_transform._transforms.1.autoregressive_net.blocks.1.linear_layers.0.mask f4 [32, 32]
0	0x3f800000	1.0
1	0x00000000	0.0
2	0x00000000	0.0
3	0x3f800000	1.0
4	0x00000000	0.0
5	0x00000000	0.0
6	0x3f800000	1.0
7	0x00000000	0.0
8	0x00000000	0.0
9	0x3f800000	1.0
10	0x00000000	0.0
11	0x00000000	0.0
12	0x3f800000	1.0
13	0x00000000	0.0
14	0x00000000	0.0
15	0x3f800000	1.0
16	0x00000000	0.0
17	0x00000000	0.0
18	0x3f800000	1.0
19	0x00000000	0.0
20	0x00000000	0.0
21	0x3f800000	1.0
22	0x00000000	0.0
23	0x00000000	0.0
24	0x3f800000	1.0
25	0x00000000	0.0
26	0x00000000	0.0
27	0x3f800000	1.0
28	0x00000000	0.0
29	0x00000000	0.0
30	0x3f800000	1.0
31	0x00000000	0.0
32	0x3f800000	1.0
33	0x3f800000	1.0
34	0x00000000	0.0
35	0x3f800000	1.0
36	0x3f800000	1.0
37	0x00000000	0.0
38	0x3f800000	1.0
39	0x3f800000	1.0
40	0x00000000	0.0
41	0x3f800000	1.0
42	0x3f800000	1.0
43	0x00000000	0.0
44	0x3f800000	1.0
45	0x3f800000	1.0
46	0x00000000	0.0
47	0x3f800000	1.0
48	0x3f800000	1.0
49	0x00000000	0.0
50	0x3f800000	1.0
51	0x3f800000	1.0
52	0x00000000	0.0
53	0x3f800000	1.0
54	0x3f800000	1.0
55	0x00000000	0.0
56	0x3f800000	1.0
57	0x3f800000	1.0
58	0x00000000	0.0
59	0x3f800000	1.0
60	0x3f800000	1.0
61	0x00000000	0.0
62	0x3f800000	1.0
63	0x3f800000	1.0
64	0x3f800000	1.0
65	0x3f800000	1.0
66	0x3f800000	1.0
67	0x3f800000	1.0
68	0x3f800000	1.0
69	0x3f800000	1.0
70	0x3f800000	1.0
71	0x3f800000	1.0
72	0x3f800000	1.0
73	0x3f800000	1.0
74	0x3f800000	1.0
75	0x3f800000	1.0
76	0x3f800000	1.0
77	0x3f800000	1.0
78	0x3f800000	1.0
79	0x3f800000	1.0
80	0x3f800000	1.0
81	0x3f800000	1.0
82	0x3f800000	1.0
83	0x3f800000	1.0
84	0x3f800000	1.0
85	0x3f800000	1.0
86	0x3f800000	1.0
87	0x3f800000	1.0
88	0x3f800000	1.0
89	0x3f800000	1.0
90	0x3f800000	1.0
91	0x3f800000	1.0
92	0x3f800000	1.0
93	0x3f800000	1.0
94	0x3f800000	1.0
95	0x3f800000	1.0
96	0x3f800000	1.0
97	0x00000000	0.0
98	0x00000000	0.0
99	0x3f800000	1.0
100	0x00000000	0.0
101	0x00000000	0.0
102	0x3f800000	1.0
103	0x00000000	0.0
104	0x00000000	0.0
105	0x3f800000	1.0
106	0x00000000	0.0
107	0x00000000	0.0
108	0x3f800000	1.0
109	0x00000000	0.0
110	0x00000000	0.0
111	0x3f800000	1.0
112	0x00000000	0.0
113	0x00000000	0.0
114	0x3f800000	1.0
115	0x00000000	0.0
116	0x00000000	0.0
117	0x3f800000	1.0
118	0x00000000	0.0
119	0x00000000	0.0
120	0x3f800000	1.0
121	0x00000000	0.0
122	0x00000000	0.0
123	0x3f800000	1.0
124	0x00000000	0.0
125	0x00000000	0.0
126	0x3f800000	1.0
127	0x00000000	0.0
128	0x3f800000	1.0
129	0x3f800000	1.0
130	0x00000000	0.0
131	0x3f800000	1.0
132	0x3f800000	1.0
133	0x00000000	0.0
134	0x3f800000	1.0
135	0x3f800000	1.0
136	0x00000000	0.0
137	0x3f800000	1.0
138	0x3f800000	1.0
139	0x00000000	0.0
140	0x3f800000	1.0
141	0x3f800000	1.0
142	0x00000000	0.0
143	0x3f800000	1.0
144	0x3f800000	1.0
145	0x00000000	0.0
146	0x3f800000	1.0
147	0x3f800000	1.0
148	0x00000000	0.0
149	0x3f800000	1.0
150	0x3f800000	1.0
151	0x00000000	0.0
152	0x3f800000	1.0
153	0x3f800000	1.0
154	0x00000000	0.0
155	0x3f800000	1.0
156	0x3f800000	1.0
157	0x00000000	0.0
158	0x3f800000	1.0
159	0x3f800000	1.0
160	0x3f800000	1.0
161	0x3f800000	1.0
162	0x3f800000	1.0
163	0x3f800000	1.0
164	0x3f800000	1.0
165	0x3f800000	1.0
166	0x3f800000	1.0
167	0x3f800000	1.0
168	0x3f800000	1.0
169	0x3f800000	1.0
170	0x3f800000	1.0
171	0x3f800000	1.0
172	0x3f800000	1.0
173	0x3f800000	1.0
174	0x3f800000	1.0
175	0x3f800000	1.0
176	0x3f800000	1.0
177	0x3f800000	1.0
178	0x3f800000	1.0
179	0x3f800000	1.0
180	0x3f800000	1.0
181	0x3f800000	1.0
182	0x3f800000	1.0
183	0x3f800000	1.0
184	0x3f800000	1.0
185	0x3f800000	1.0
186	0x3f800000	1.0
187	0x3f800000	1.0
188	0x3f800000	1.0
189	0x3f800000	1.0
190	0x3f800000	1.0
191	0x3f800000	1.0
192	0x3f800000	1.0
193	0x00000000	0.0
194	0x00000000	0.0
195	0x3f800000	1.0
196	0x00000000	0.0
197	0x00000000	0.0
198	0x3f800000	1.0
199	0x00000000	0.0
200	0x00000000	0.0
201	0x3f800000	1.0
202	0x00000000	0.0
203	0x00000000	0.0
204	0x3f800000	1.0
205	0x00000000	0.0
206	0x00000000	0.0
207	0x3f800000	1.0
208	0x00000000	0.0
209	0x00000000	0.0
210	0x3f800000	1.0
211	0x00000000	0.0
212	0x00000000	0.0
213	0x3f800000	1.0
214	0x00000000	0.0
215	0x00000000	0.0
216	0x3f800000	1.0
217	0x00000000	0.0
218	0x00000000	0.0
219	0x3f800000	1.0
220	0x00000000	0.0
221	0x00000000	0.0
222	0x3f800000	1.0
223	0x00000000	0.0
224	0x3f800000	1.0
225	0x3f800000	1.0
226	0x00000000	0.0
227	0x3f800000	1.0
228	0x3f800000	1.0
229	0x00000000	0.0
230	0x3f800000	1.0
231	0x3f800000	1.0
232	0x00000000	0.0
233	0x3f800000	1.0
234	0x3f800000	1.0
235	0x00000000	0.0
236	0x3f800000	1.0
237	0x3f800000	1.0
238	0x00000000	0.0
239	0x3f800000	1.0
240	0x3f800000	1.0
241	0x00000000	0.0
242	0x3f800000	1.0
243	0x3f800000	1.0
244	0x00000000	0.0
245	0x3f800000	1.0
246	0x3f800000	1.0
247	0x00000000	0.0
248	0x3f800000	1.0
249	0x3f800000	1.0
250	0x00000000	0.0
251	0x3f800000	1.0
252	0x3f800000	1.0
253	0x00000000	0.0
254	0x3f800000	1.0
255	0x3f800000	1.0
