cmepda/trained_models/epoch=999modello-N_iter6-N_features64-N_BS10000-epochs1000-lr0.001.pth (torch, 918276 bytes, 108 tensors)

_transform._transforms.1.autoregressive_net.initial_layer.weight f4 [64, 4]
00000000: cc45 d33d 46de ee3e 4a42 ac3e e49a 46be
00000010: 3c82 903e 360b e23e d4f9 bb3e 286b 90be
00000020: 0917 663d 03cd 95be 5d36 cebe 70dd fcbd
00000030: b841 c03c da66 8bbe deea a0be 4ebc c4be
00000040: 8438 e3be e373 a3bd 2091 fa3c fe77 ce3e
00000050: 2cad 19be 464a cfbe 04c1 633b de32 c43e
00000060: 25cc b63e c8f7 a9bd 4032 c0bc 3c86 ffbe
00000070: dd52 053f 397f edbe b0c2 9e3e 1286 ee3e
00000080: 9f98 713e d5f7 e63b e832 c23e 70ed fd3d
00000090: 0e37 4ebe 26bc d93e 12eb b53e c08d 2dbc
000000a0: afef dd3e ffbf ecbe 80e0 3e3d bc69 bb3e
000000b0: dc3e c2be 8d2c 0c3d 69ef a7b9 a8f8 89bd
000000c0: 2d7c 003e 4af4 cbbe 185c 7e3e 00ca b23a
000000d0: 88fe 9cbd 4dd4 f8be 060e dc3e d0af 383d
000000e0: 43be db3e 6980 d83d a900 e33e 30b5 a33e
000000f0: e61e 9d3e 0046 d23b cc22 a3be 60a3 49bd
00000100: 5260 32be 8f3a a43d ce94 cebe bc63 70be
00000110: 924d c6be 1f1a 553d 13e7 6f3e 0868 1ebe
00000120: 6b98 98be c054 333c 5637 d0be d69d c0be
00000130: b385 0dbe 01a1 dcbd 58f9 2c3e 1e70 8cbe
00000140: 85f8 fe3d f08d 053e a251 153d 1cb5 3d3e
00000150: 4173 39be de71 e73e a0a8 39bd 66e3 d93e
00000160: 8778 80be dbfd a73e 20f8 b63d 7c0c ce3e
00000170: fd3e 903e 7d9d a0bb 4d0b 1fbe 66bc c63e
00000180: 2524 323d be70 873e 6c3e 0c3e 16b1 cf3e
00000190: 49c4 0c3e d093 b1be aac2 b33e 3c09 493e
000001a0: 5367 45bd e6b4 713e 07bb 43be cef3 f0be
000001b0: 7f94 63be 8874 df3d 6493 b23e 80a4 6c3c
000001c0: 7bd2 87be cb99 f03d 326e cabe 6003 60bd
000001d0: 5157 3f3e d85d c93c c9f4 8cbd d029 0c3e
000001e0: 3e63 bdbe 8048 7c3d f81d 08be 5c6a b33e
000001f0: b4c3 8e3e e647 9dbe 5283 a3be e830 febe
00000200: cfdd 9fbe eac7 9c3d 12cc 06bf b2e7 b23e
00000210: b3f9 9cbe f4d0 493e cc34 9bbe 00e4 433e
00000220: fbe0 0b3e aa28 18bd 6e5d bb3e 4040 a63e
00000230: 4c89 9bbd 2617 e63e 7b95 e53e a0f6 84bd
00000240: 988f 0e3f a095 dfbe 7edf b93e 788c d83d
00000250: 4842 1dbe 94a9 cf3d 5087 a03d e4df bf3e
00000260: ffcd c93e 8f55 b2be dc01 ea3e baca 9ebe
00000270: cd90 69be c22f e33e 88a3 403e 4060 ab3c
00000280: cd54 58be 0d3b ad3e 1839 fcbe 00ca f33d
00000290: 6d56 b93c d21b e23e e885 893e 2470 47be
000002a0: 381d 0bbe 3843 9a3d 0050 1dba c854 bc3d
000002b0: f1c8 a4be fb4a 7cbe 54c9 6a3e f0d3 b63d
000002c0: 5e09 92be 3476 533e 9c4d 223e 16e4 db3e
000002d0: 3fd5 7c3e 2857 22be 3834 dfbe 684f bc3d
000002e0: e0bb ee3e 5822 a33e 6072 753d f843 7cbe
000002f0: 84c8 873d 024b d33e b1d1 e63e 2413 48be
00000300: d591 be3e 2c1f a8be d09d 68bd bc69 64be
00000310: 32ab cbbe af8f 593e 50fa 6bbe 00c2 d53c
00000320: 5330 eebe 6709 813e b238 e93e 241c 993e
00000330: 7736 11be c2e2 c33e 94aa 9fbe 0082 ff3a
00000340: 2f5b 9c3e cea1 ca3e 3686 a43e 98b7 0bbe
00000350: 2c4a 6c3e 1486 333e 1adf b0be 1c40 7bbe
00000360: bf20 4bbe a2cb bf3e 8a1b 9f3e f8b3 d33e
00000370: eafa 82bc 4a12 03bf b06c e7be ee2b a53e
00000380: d3d0 a63e 2c3d 9a3e d077 763e 2037 083d
00000390: dca6 fc3e 7277 8cbe 38d4 f23d b021 2c3d
000003a0: a1d9 3bbe bf4a 1cbc 1cd4 a83e 0ccf 563e
000003b0: a09a 77be e317 c63e 1846 cbbe 64fd 01be
000003c0: 3162 063e ae75 ee3e 2027 e23d c83b ce3e
000003d0: 778e f73e cc75 e6be d8b5 ccbd 846f b53e
000003e0: 9b94 d1be d052 a53d fc77 c93d c072 e9be
000003f0: 6e95 de3e 2efb b9be 9658 e5be 2a15 c1be
0.10316047 0.46653956 0.33644325 -0.19395024 0.2822436 0.44149178 0.3671404 -0.28206754
0.05617431 -0.29257974 -0.4027585 -0.12346923 0.023468837 -0.27226907 -0.3142919 -0.38424915
-0.44379056 -0.07981088 0.03058678 0.40325922 -0.15007466 -0.40486354 0.0034752497 0.3832006
0.35702625 -0.08299214 -0.023461461 -0.499071 0.52079564 -0.46386126 0.3100791 0.46586663
0.23593377 0.007048587 0.37929463 0.12398803 -0.20138189 0.42526358 0.35530907 -0.010592878
0.43346927 -0.4624023 0.04660082 0.36604106 -0.37938583 0.034222174 -0.00032031097 -0.067368805
0.1254737 -0.39834815 0.24839818 0.0013640523 -0.076657355 -0.48599473 0.4297945 0.045089543
0.42918596 0.10571367 0.4433644 0.31974173 0.30687636 0.006417036 -0.31862485 -0.049228072
-0.17419556 0.08018982 -0.40347904 -0.23475546 -0.38731056 0.052026864 0.23427992 -0.15469372
-0.29803786 0.010945499 -0.40667218 -0.3762042 -0.13820533 -0.107728966 0.16891992 -0.2742929
0.12449745 0.13042426 0.036454804 0.18526119 -0.18110372 0.4520406 -0.04532683 0.42556304
-0.25091955 0.32810864 0.08934045 0.402439 0.28173056 -0.0049015866 -0.15531655 0.38815612
0.0434915 0.26453203 0.13695687 0.40564793 0.13746752 -0.34683084 0.35109454 0.19632429
-0.04819424 0.23604164 -0.19114314 -0.47061008 -0.22224616 0.109108984 0.34878075 0.014443517
-0.2652777 0.11748084 -0.39537197 -0.05469072 0.18685652 0.024580881 -0.068826266 0.13687825
-0.36989778 0.06159258 -0.13292682 0.35042083 0.27883685 -0.30718917 -0.31936127 -0.49646688
-0.31223914 0.07655318 -0.52655137 0.34942394 -0.30659255 0.19708616 -0.30313718 0.19129944
0.13660042 -0.037148155 0.3659472 0.32470894 -0.07594547 0.44939536 0.44840607 -0.064923525
0.55687857 -0.43668842 0.36303324 0.10573667 -0.15357316 0.10139766 0.07838309 0.37475502
0.39414975 -0.348309 0.45704544 -0.31014043 -0.22809143 0.44372374 0.18812382 0.020919919
-0.21126099 0.33834115 -0.4926231 0.11903763 0.022624219 0.4416185 0.26859975 -0.19476372
-0.13585365 0.07532352 -0.00060009956 0.09195858 -0.32184556 -0.24637978 0.22928363 0.089271426
-0.28522772 0.2065056 0.15849918 0.42947453 0.24690722 -0.1585356 -0.43594527 0.09194833
0.46627712 0.3186214 0.05992353 -0.24635303 0.06630042 0.41268164 0.45081857 -0.19538552
0.37220636 -0.32836282 -0.056791127 -0.2230596 -0.3977905 0.21246217 -0.23044705 0.026093483
-0.46521243 0.25202486 0.45551068 0.29904282 -0.14180933 0.3825894 -0.31184828 0.0019493699
0.30538318 0.39576572 0.32133645 -0.13644254 0.2307517 0.17531615 -0.34545213 -0.24536175
-0.1983671 0.37460047 0.31075698 0.41348243 -0.015988786 -0.5119978 -0.4520011 0.32260078
0.32581195 0.30124795 0.24069142 0.033255696 0.49346054 -0.2743488 0.11856884 0.042024314
-0.18344738 -0.009539305 0.32974327 0.2097742 -0.24180079 0.386901 -0.39701915 -0.12694317
0.13123395 0.46574157 0.11042619 0.40279984 0.4835088 -0.45011747 -0.099956214 0.35436642
-0.4093369 0.08072436 0.09837338 -0.4559536 0.4347338 -0.36324447 -0.44794148 -0.3771146

_transform._transforms.1.autoregressive_net.initial_layer.bias f4 [64]
00000000: e8f0 a43c 4f4c 1abe 89c1 be3e 4d3a b6be
00000010: 4a17 613e 40fd 813d 44df cebe 0d2a d23e
00000020: d3a5 6bbc bb97 4f3e 7c5c 33be a83f 72be
00000030: 1b2b 70be 701b ffbe b757 833e 6c82 7abe
00000040: 5a91 47be d269 5cbe 718f 74be 6a6d 37be
00000050: af8f 88be 85d5 a03d faeb d13e 0bad 873e
00000060: 93f6 f83d 4594 ba3d 0115 a93d 48a6 b23d
00000070: 2e8c d03d 998f a5be e9c8 f3bd d790 dcbe
00000080: a785 f73d d317 3c3e 7dfd 153c f1fe cf3d
00000090: 9634 37be c4f1 a33e 3cf2 c5bd df4d 96bd
000000a0: faec c93e d9d5 ad3e 35d9 453e 20ca 9d3e
000000b0: 6a86 09be 3755 8b3e 38ae a8be 3027 b6be
000000c0: a317 dc3c c10e bbbe 0044 0abd 4253 3c3e
000000d0: fc60 0bbe 461e e33e 16c0 b0bc 10a4 86bc
000000e0: 7ca5 b5be 3724 a8be c405 97bd e5a9 16be
000000f0: 1a41 6f3e 638d 0fbd da6a f03e 67e5 c8be
0.020134404 -0.15068172 0.3725703 -0.35591355 0.2198154 0.06347132 -0.40404713 0.41047707
-0.014382797 0.20272724 -0.17515749 -0.23657095 -0.23453943 -0.4982562 0.2565286 -0.24463814
-0.19489041 -0.21524742 -0.23882844 -0.17912832 -0.26672122 0.078532256 0.41000348 0.2649921
0.12156405 0.091103114 0.08255959 0.08723122 0.10182987 -0.3233612 -0.11903555 -0.43079254
0.12086039 0.18368463 0.009154675 0.10156048 -0.17891154 0.3202039 -0.09665343 -0.073390715
0.3943861 0.33952215 0.19321139 0.30818272 -0.13430181 0.2721345 -0.32945418 -0.35576773
0.02686674 -0.36534694 -0.033756256 0.18391135 -0.13611215 0.44359034 -0.021575969 -0.016435653
-0.35477817 -0.3284013 -0.073741466 -0.14713247 0.23364678 -0.035046946 0.4695652 -0.3923752

_transform._transforms.1.autoregressive_net.initial_layer.mask f4 [64, 4]
00000000: 0000 803f 0000 0000 0000 0000 0000 0000
00000010: 0000 803f 0000 803f 0000 0000 0000 0000
00000020: 0000 803f 0000 803f 0000 803f 0000 0000
00000030: 0000 803f 0000 0000 0000 0000 0000 0000
00000040: 0000 803f 0000 803f 0000 0000 0000 0000
00000050: 0000 803f 0000 803f 0000 803f 0000 0000
00000060: 0000 803f 0000 0000 0000 0000 0000 0000
00000070: 0000 803f 0000 803f 0000 0000 0000 0000
00000080: 0000 803f 0000 803f 0000 803f 0000 0000
00000090: 0000 803f 0000 0000 0000 0000 0000 0000
000000a0: 0000 803f 0000 803f 0000 0000 0000 0000
000000b0: 0000 803f 0000 803f 0000 803f 0000 0000
000000c0: 0000 803f 0000 0000 0000 0000 0000 0000
000000d0: 0000 803f 0000 803f 0000 0000 0000 0000
000000e0: 0000 803f 0000 803f 0000 803f 0000 0000
000000f0: 0000 803f 0000 0000 0000 0000 0000 0000
00000100: 0000 803f 0000 803f 0000 0000 0000 0000
00000110: 0000 803f 0000 803f 0000 803f 0000 0000
00000120: 0000 803f 0000 0000 0000 0000 0000 0000
00000130: 0000 803f 0000 803f 0000 0000 0000 0000
00000140: 0000 803f 0000 803f 0000 803f 0000 0000
00000150: 0000 803f 0000 0000 0000 0000 0000 0000
00000160: 0000 803f 0000 803f 0000 0000 0000 0000
00000170: 0000 803f 0000 803f 0000 803f 0000 0000
00000180: 0000 803f 0000 0000 0000 0000 0000 0000
00000190: 0000 803f 0000 803f 0000 0000 0000 0000
000001a0: 0000 803f 0000 803f 0000 803f 0000 0000
000001b0: 0000 803f 0000 0000 0000 0000 0000 0000
000001c0: 0000 803f 0000 803f 0000 0000 0000 0000
000001d0: 0000 803f 0000 803f 0000 803f 0000 0000
000001e0: 0000 803f 0000 0000 0000 0000 0000 0000
000001f0: 0000 803f 0000 803f 0000 0000 0000 0000
00000200: 0000 803f 0000 803f 0000 803f 0000 0000
00000210: 0000 803f 0000 0000 0000 0000 0000 0000
00000220: 0000 803f 0000 803f 0000 0000 0000 0000
00000230: 0000 803f 0000 803f 0000 803f 0000 0000
00000240: 0000 803f 0000 0000 0000 0000 0000 0000
00000250: 0000 803f 0000 803f 0000 0000 0000 0000
00000260: 0000 803f 0000 803f 0000 803f 0000 0000
00000270: 0000 803f 0000 0000 0000 0000 0000 0000
00000280: 0000 803f 0000 803f 0000 0000 0000 0000
00000290: 0000 803f 0000 803f 0000 803f 0000 0000
000002a0: 0000 803f 0000 0000 0000 0000 0000 0000
000002b0: 0000 803f 0000 803f 0000 0000 0000 0000
000002c0: 0000 803f 0000 803f 0000 803f 0000 0000
000002d0: 0000 803f 0000 0000 0000 0000 0000 0000
000002e0: 0000 803f 0000 803f 0000 0000 0000 0000
000002f0: 0000 803f 0000 803f 0000 803f 0000 0000
00000300: 0000 803f 0000 0000 0000 0000 0000 0000
00000310: 0000 803f 0000 803f 0000 0000 0000 0000
00000320: 0000 803f 0000 803f 0000 803f 0000 0000
00000330: 0000 803f 0000 0000 0000 0000 0000 0000
00000340: 0000 803f 0000 803f 0000 0000 0000 0000
00000350: 0000 803f 0000 803f 0000 803f 0000 0000
00000360: 0000 803f 0000 0000 0000 0000 0000 0000
00000370: 0000 803f 0000 803f 0000 0000 0000 0000
00000380: 0000 803f 0000 803f 0000 803f 0000 0000
00000390: 0000 803f 0000 0000 0000 0000 0000 0000
000003a0: 0000 803f 0000 803f 0000 0000 0000 0000
000003b0: 0000 803f 0000 803f 0000 803f 0000 0000
000003c0: 0000 803f 0000 0000 0000 0000 0000 0000
000003d0: 0000 803f 0000 803f 0000 0000 0000 0000
000003e0: 0000 803f 0000 803f 0000 803f 0000 0000
000003f0: 0000 803f 0000 0000 0000 0000 0000 0000
1.0 0.0 0.0 0.0 1.0 1.0 0.0 0.0
1.0 1.0 1.0 0.0 1.0 0.0 0.0 0.0
1.0 1.0 0.0 0.0 1.0 1.0 1.0 0.0
1.0 0.0 0.0 0.0 1.0 1.0 0.0 0.0
1.0 1.0 1.0 0.0 1.0 0.0 0.0 0.0
1.0 1.0 0.0 0.0 1.0 1.0 1.0 0.0
1.0 0.0 0.0 0.0 1.0 1.0 0.0 0.0
1.0 1.0 1.0 0.0 1.0 0.0 0.0 0.0
1.0 1.0 0.0 0.0 1.0 1.0 1.0 0.0
1.0 0.0 0.0 0.0 1.0 1.0 0.0 0.0
1.0 1.0 1.0 0.0 1.0 0.0 0.0 0.0
1.0 1.0 0.0 0.0 1.0 1.0 1.0 0.0
1.0 0.0 0.0 0.0 1.0 1.0 0.0 0.0
1.0 1.0 1.0 0.0 1.0 0.0 0.0 0.0
1.0 1.0 0.0 0.0 1.0 1.0 1.0 0.0
1.0 0.0 0.0 0.0 1.0 1.0 0.0 0.0
1.0 1.0 1.0 0.0 1.0 0.0 0.0 0.0
1.0 1.0 0.0 0.0 1.0 1.0 1.0 0.0
1.0 0.0 0.0 0.0 1.0 1.0 0.0 0.0
1.0 1.0 1.0 0.0 1.0 0.0 0.0 0.0
1.0 1.0 0.0 0.0 1.0 1.0 1.0 0.0
1.0 0.0 0.0 0.0 1.0 1.0 0.0 0.0
1.0 1.0 1.0 0.0 1.0 0.0 0.0 0.0
1.0 1.0 0.0 0.0 1.0 1.0 1.0 0.0
1.0 0.0 0.0 0.0 1.0 1.0 0.0 0.0
1.0 1.0 1.0 0.0 1.0 0.0 0.0 0.0
1.0 1.0 0.0 0.0 1.0 1.0 1.0 0.0
1.0 0.0 0.0 0.0 1.0 1.0 0.0 0.0
1.0 1.0 1.0 0.0 1.0 0.0 0.0 0.0
1.0 1.0 0.0 0.0 1.0 1.0 1.0 0.0
1.0 0.0 0.0 0.0 1.0 1.0 0.0 0.0
1.0 1.0 1.0 0.0 1.0 0.0 0.0 0.0

_transform._transforms.1.autoregressive_net.blocks.0.linear_layers.0.weight f4 [64, 64]
00000000: 4dea 653d 4481 103d 5c19 6b3d 04f4 ffbd
00000010: c0b0 0c3b 401c d1bb 1ecc 233c 1c9f 20bd
00000020: 0eaf c33d 4b79 f9bc 600d b2bb 48ea 833c
00000030: 80d9 85bd 4860 e6bd 7092 de3c 0ad4 87bd
00000040: 2086 933b 5edb 9c3d dc21 1b3f 9c3f cfbd
00000050: bcd6 f43d 38f1 aa3c 1826 bd3c e00e f7bb
00000060: acec ca3d 7a8e b4bd 3e64 d93d c773 ba3d
00000070: 70de 23bd c8cf ba3d 979c 27ba a048 73bd
00000080: 5420 a63d ce37 fa3d f046 913d 902a fe3c
00000090: 6139 003d 806b 793c 0e07 bb3d dea8 24bb
000000a0: 8ebf d5bd 2cce 93bd 738e 243b da67 f2bd
000000b0: fa4e b6bd fbee 09be dcbe 56bd 00c5 e2ba
000000c0: 43f2 b7bb ca6e e9bd d263 c43d af0a bd3a
000000d0: acc1 fcbd ee82 e1bd ae30 133e 84a4 9cbd
000000e0: a854 c93c 4c9e fabd 401b 79bd a020 c03c
000000f0: 3591 b53d c876 933c eaf0 843d 21c7 4b3b
00000100: c9ff 17be b6c0 c73c e473 a43d 9c2f 1dbd
00000110: 5942 5039 a0f4 7fbc 5195 313d c7f6 17bc
00000120: 46b4 db3d a0e5 fcbc 7ee9 6abd dc2e eebd
00000130: 113e 23be 06ef 81bd 0a10 a6bd 5c18 a33d
00000140: 6a12 a2bd 9a66 833d 0a5d 21bf fae2 33be
00000150: 564c a2bd e1de a6bd 3264 c23d ea1e 8dbd
00000160: e155 763d 2108 813d 242a 113d 64c2 013e
00000170: 7c24 5d3c 9446 193d cf49 2abe d152 c3be
00000180: bc1c d6bd 25e1 afbd a142 a9bd 346f 3cbd
00000190: 2629 a0bb 8bb8 3d3d 8e5e ba3d 085e cfbc
000001a0: 8dd4 33bd c839 dfbd 757e d939 4901 e2bc
000001b0: 00be 063c 0f47 133e 5947 64bd d86d 94bc
000001c0: af11 f03b 884e 61bd 84cb da3d 53cd 8fbd
000001d0: 569d 0dbe 5eea d0bd f8ea c6bb 43a5 04bd
000001e0: c07e 9e3d c8ca 38bc ac2e a13d 687d 81bc
000001f0: 9a73 8f3d 55d6 963e a8f3 6a3d 7daa cbbd
00000200: f6ae 7ebc f38c 113c 1077 ce3c b0a4 313d
00000210: 0d3a 803d b5c8 183c 33a6 c8bd 6651 fcbd
00000220: bce4 76bd fd4d a2bd 35e6 24bd 5a7f 56bd
00000230: 5cd3 5bbd 9187 f33d 8b9e cdbd 253b 12bc
00000240: 5c3a 283d a7ef 01be 84f4 80bc 2fef e53d
00000250: 0017 dc3d 37a2 c33d 297e a03c eaab 2fbd
00000260: 285b 6cbc 25d3 2a3d 2514 a6bc f73f 113d
00000270: 6ff6 e83d 3ee9 efbc 2872 123d 505e f8bd
00000280: 4ba5 b7bd dc5c 4f3d bed2 68bd 379e ef3d
00000290: 4e98 653d a1e6 85bd 01d2 1ebd 9e2a 08bd
000002a0: df29 743c 6f46 4fbd 0bef 033c acd6 90bd
000002b0: dd8a d9bd 3f27 c8bd 8c20 ccbb 73ce 903d
000002c0: 976c 37bc 0875 2dbd a151 c23c 6766 f4bd
000002d0: f5b0 b63d 20f8 ca3c a07b 2fbc 263c 29bc
000002e0: 4ba6 9e3c 6916 6ebd d1b9 00be afea 9dbd
000002f0: 0e2f 6d3d 206b cb3d 5010 aa3d c374 93bd
00000300: 818c 613d 50ff 01bd d842 63bd dc99 503d
00000310: a0a9 653c f80b d1bc d8f9 c3bd 886a 31bd
00000320: b8b7 d23c c327 d1bb e010 debb fe56 96bd
00000330: 6e4f 04bc f0cb 2dbc 200f 12bc 7fd6 db3c
00000340: ceda ab3d 72c2 bbbd 9ae9 273f 68aa fbbd
00000350: acc7 afbd 3568 f33d a45c 5bbd e0c5 efbd
00000360: 090f a8bd 8059 09bd c02b 8dbd ff99 ef3c
00000370: 10d4 8d3c 36b0 993d 7cfc b43d f211 c2bd
00000380: 70e2 9ebc 0088 a63c 18e6 113d 28d7 88bc
00000390: 918a e43c b48d 8a3d ccc0 593d 554e 133e
000003a0: fea7 e8bd 900b 173d 1ee0 013e 80c8 e5bd
000003b0: 4ed0 85bd 1d32 ebbd 44ff 5b3d c88b 273d
000003c0: 8ed3 abbd b4d0 a13d 7cd7 4ebd 54ae b43d
000003d0: 08ef d8bd 2047 083d f52f e13d f021 df3c
000003e0: 86f3 f5bd 4d7e 123d 300a e4bd fcbb 313d
000003f0: 247d c03b c073 ffbd b8a5 e0bc 23af 9e3c
0.05613165 0.035279527 0.05739723 -0.12497714 0.0021467656 -0.0063815415 0.009997396 -0.03921424
0.095548734 -0.030453345 -0.0054337233 0.016102925 -0.065356255 -0.11248833 0.027169436 -0.0663224
0.004502073 0.076590285 0.6059854 -0.101195544 0.1195502 0.020866975 0.023089454 -0.007539615
0.09908423 -0.08816238 0.10614823 0.09104114 -0.040007055 0.091216624 -0.0006393878 -0.059395432
0.08111635 0.12217675 0.070936084 0.031026155 0.03130472 0.015223384 0.09132205 -0.0025125067
-0.10436927 -0.072170585 0.002510932 -0.11836214 -0.08901782 -0.1347007 -0.05242811 -0.0017301142
-0.0056135966 -0.113980845 0.09589352 0.001442274 -0.123416275 -0.11011301 0.14374039 -0.07648566
0.0245765 -0.12237224 -0.060817003 0.023453057 0.08865587 0.018000975 0.06491263 0.0031094032
-0.14843668 0.024383884 0.08029917 -0.038375482 0.00019861142 -0.015622288 0.04335529 -0.009275145
0.10727744 -0.030871212 -0.05735158 -0.116300315 -0.15941645 -0.06344418 -0.08108528 0.079636306
-0.079136685 0.06416054 -0.6303259 -0.17567053 -0.07924716 -0.081479795 0.09491767 -0.06890662
0.060140494 0.063003786 0.03544058 0.1267181 0.013497468 0.037420824 -0.16629718 -0.3814912
-0.104546994 -0.08587865 -0.082646616 -0.04600449 -0.004887718 0.046318572 0.09100066 -0.025313392
-0.043903876 -0.10899693 0.00041483683 -0.027588503 0.0082240105 0.14382575 -0.055732105 -0.018118784
0.007326327 -0.055006534 0.10683349 -0.07021584 -0.1382955 -0.10200952 -0.006070491 -0.03238417
0.077390194 -0.011278816 0.0787023 -0.015806869 0.07004471 0.29460397 0.057361275 -0.099446274
-0.015544644 0.008883703 0.025203258 0.04336995 0.06261072 0.009325196 -0.09797325 -0.12320213
-0.06027673 -0.07925031 -0.040258605 -0.052367546 -0.053668365 0.118910916 -0.10040005 -0.008925234
0.04107128 -0.12689076 -0.015741594 0.11227261 0.107465744 0.095524244 0.019591408 -0.04288856
-0.01442603 0.04170527 -0.020273278 0.035461392 0.113751285 -0.029286023 0.0357534 -0.12127364
-0.08967074 0.050625667 -0.056841604 0.11700099 0.056053452 -0.065381296 -0.038774494 -0.033243768
0.014902561 -0.05060428 0.008052598 -0.070721954 -0.10622189 -0.097731106 -0.006229466 0.07070627
-0.011195323 -0.042347938 0.023720564 -0.11933594 0.089204706 0.024776518 -0.010710627 -0.010329282
0.019366404 -0.05812684 -0.12570883 -0.07710778 0.057906203 0.09932542 0.083038926 -0.07200005
0.055065636 -0.031737626 -0.05548367 0.05092798 0.0140174925 -0.025518402 -0.09569138 -0.043314487
0.02572237 -0.006382914 -0.006776914 -0.07340811 -0.008075578 -0.0106077045 -0.008914739 0.026835678
0.08391343 -0.09167947 0.6559082 -0.12288362 -0.08583006 0.1188511 -0.053555146 -0.117076635
-0.08205993 -0.03353262 -0.0689311 0.029248236 0.017313033 0.07504313 0.0883722 -0.09476079
-0.019395083 0.020328522 0.035619825 -0.016704157 0.027898105 0.06765309 0.05316238 0.1438535
-0.11360167 0.03687626 0.1268315 -0.11219883 -0.065338716 -0.11484168 0.053710237 0.04090479
-0.0838996 0.07901135 -0.05049847 0.08822313 -0.105924666 0.033270955 0.10995475 0.027237862
-0.12009339 0.03576498 -0.111347556 0.043392166 0.005874293 -0.124732494 -0.02742277 0.019370621

_transform._transforms.1.autoregressive_net.blocks.0.linear_layers.0.bias f4 [64]
00000000: 20e1 8d3d 5080 003e 2f48 94bd 3571 913d
00000010: 33af ed3d a35a c0bd 62a4 e6bd 4685 843d
00000020: a760 3dbd 007d b1bc 6e81 a03d 989d b43d
00000030: 767a c33d e7fe 873d 38ae e93d 18c1 703d
00000040: 4a29 ba3d 7193 bdbd a677 ecbd 70ee 043e
00000050: 0c34 293d 96bc 8abd 84ec d73d c0dd 2ebd
00000060: b3c4 4dbd 7b5c f33b 7572 1b3d 9f3d efbd
00000070: 8eae be3d e456 a83d 5a4a 5bbd 24aa dc3b
00000080: 3b80 ca3c b7fe fe3c e89b 7abd 691a d93d
00000090: e8b3 983d 376e c3bb c92a 123e 7607 ea3d
000000a0: 7351 9abc 33dd ba3d 7155 ab3d c0e7 94bd
000000b0: 43d9 593d d535 4b3d 9367 ae3d 9108 913d
000000c0: 3cca e93c d7aa e33d 6523 c73d 4530 72bc
000000d0: 00f1 0d3e 5968 903c f041 81bd 8601 a4bd
000000e0: 65a3 02be 2ff5 4b3d d888 c73a 621f 183e
000000f0: 86b5 7fbc 200c 083e 8080 5e3d d296 8fbd
0.06927705 0.12548947 -0.072403304 0.07101671 0.11605682 -0.093922876 -0.11261822 0.064707324
-0.046234753 -0.02166605 0.07837187 0.08819121 0.09544842 0.06640416 0.11410183 0.0587779
0.090899065 -0.09256638 -0.11546259 0.12981582 0.0413094 -0.06774251 0.10543159 -0.042691946
-0.050236415 0.007426796 0.03795095 -0.11681675 0.093106374 0.08219698 -0.053537704 0.0067341495
0.024719348 0.031127317 -0.06118384 0.106007405 0.074561894 -0.0059640664 0.14274134 0.11427204
-0.018837666 0.09124222 0.08365906 -0.07270765 0.053185713 0.049611885 0.08515849 0.07081712
0.028538816 0.111165695 0.09723548 -0.014782016 0.13861465 0.017627882 -0.06311405 -0.08008103
-0.12757643 0.049794372 0.0015223278 0.14855722 -0.015607243 0.13285875 0.054321766 -0.070111886

_transform._transforms.1.autoregressive_net.blocks.0.linear_layers.0.mask f4 [64, 64]
00000000: 0000 803f 0000 0000 0000 0000 0000 803f
00000010: 0000 0000 0000 0000 0000 803f 0000 0000
00000020: 0000 0000 0000 803f 0000 0000 0000 0000
00000030: 0000 803f 0000 0000 0000 0000 0000 803f
00000040: 0000 0000 0000 0000 0000 803f 0000 0000
00000050: 0000 0000 0000 803f 0000 0000 0000 0000
00000060: 0000 803f 0000 0000 0000 0000 0000 803f
00000070: 0000 0000 0000 0000 0000 803f 0000 0000
00000080: 0000 0000 0000 803f 0000 0000 0000 0000
00000090: 0000 803f 0000 0000 0000 0000 0000 803f
000000a0: 0000 0000 0000 0000 0000 803f 0000 0000
000000b0: 0000 0000 0000 803f 0000 0000 0000 0000
000000c0: 0000 803f 0000 0000 0000 0000 0000 803f
000000d0: 0000 0000 0000 0000 0000 803f 0000 0000
000000e0: 0000 0000 0000 803f 0000 0000 0000 0000
000000f0: 0000 803f 0000 0000 0000 0000 0000 803f
00000100: 0000 803f 0000 803f 0000 0000 0000 803f
00000110: 0000 803f 0000 0000 0000 803f 0000 803f
00000120: 0000 0000 0000 803f 0000 803f 0000 0000
00000130: 0000 803f 0000 803f 0000 0000 0000 803f
00000140: 0000 803f 0000 0000 0000 803f 0000 803f
00000150: 0000 0000 0000 803f 0000 803f 0000 0000
00000160: 0000 803f 0000 803f 0000 0000 0000 803f
00000170: 0000 803f 0000 0000 0000 803f 0000 803f
00000180: 0000 0000 0000 803f 0000 803f 0000 0000
00000190: 0000 803f 0000 803f 0000 0000 0000 803f
000001a0: 0000 803f 0000 0000 0000 803f 0000 803f
000001b0: 0000 0000 0000 803f 0000 803f 0000 0000
000001c0: 0000 803f 0000 803f 0000 0000 0000 803f
000001d0: 0000 803f 0000 0000 0000 803f 0000 803f
000001e0: 0000 0000 0000 803f 0000 803f 0000 0000
000001f0: 0000 803f 0000 803f 0000 0000 0000 803f
00000200: 0000 803f 0000 803f 0000 803f 0000 803f
00000210: 0000 803f 0000 803f 0000 803f 0000 803f
00000220: 0000 803f 0000 803f 0000 803f 0000 803f
00000230: 0000 803f 0000 803f 0000 803f 0000 803f
00000240: 0000 803f 0000 803f 0000 803f 0000 803f
00000250: 0000 803f 0000 803f 0000 803f 0000 803f
00000260: 0000 803f 0000 803f 0000 803f 0000 803f
00000270: 0000 803f 0000 803f 0000 803f 0000 803f
00000280: 0000 803f 0000 803f 0000 803f 0000 803f
00000290: 0000 803f 0000 803f 0000 803f 0000 803f
000002a0: 0000 803f 0000 803f 0000 803f 0000 803f
000002b0: 0000 803f 0000 803f 0000 803f 0000 803f
000002c0: 0000 803f 0000 803f 0000 803f 0000 803f
000002d0: 0000 803f 0000 803f 0000 803f 0000 803f
000002e0: 0000 803f 0000 803f 0000 803f 0000 803f
000002f0: 0000 803f 0000 803f 0000 803f 0000 803f
00000300: 0000 803f 0000 0000 0000 0000 0000 803f
00000310: 0000 0000 0000 0000 0000 803f 0000 0000
00000320: 0000 0000 0000 803f 0000 0000 0000 0000
00000330: 0000 803f 0000 0000 0000 0000 0000 803f
00000340: 0000 0000 0000 0000 0000 803f 0000 0000
00000350: 0000 0000 0000 803f 0000 0000 0000 0000
00000360: 0000 803f 0000 0000 0000 0000 0000 803f
00000370: 0000 0000 0000 0000 0000 803f 0000 0000
00000380: 0000 0000 0000 803f 0000 0000 0000 0000
00000390: 0000 803f 0000 0000 0000 0000 0000 803f
000003a0: 0000 0000 0000 0000 0000 803f 0000 0000
000003b0: 0000 0000 0000 803f 0000 0000 0000 0000
000003c0: 0000 803f 0000 0000 0000 0000 0000 803f
000003d0: 0000 0000 0000 0000 0000 803f 0000 0000
000003e0: 0000 0000 0000 803f 0000 0000 0000 0000
000003f0: 0000 803f 0000 0000 0000 0000 0000 803f
1.0 0.0 0.0 1.0 0.0 0.0 1.0 0.0
0.0 1.0 0.0 0.0 1.0 0.0 0.0 1.0
0.0 0.0 1.0 0.0 0.0 1.0 0.0 0.0
1.0 0.0 0.0 1.0 0.0 0.0 1.0 0.0
0.0 1.0 0.0 0.0 1.0 0.0 0.0 1.0
0.0 0.0 1.0 0.0 0.0 1.0 0.0 0.0
1.0 0.0 0.0 1.0 0.0 0.0 1.0 0.0
0.0 1.0 0.0 0.0 1.0 0.0 0.0 1.0
1.0 1.0 0.0 1.0 1.0 0.0 1.0 1.0
0.0 1.0 1.0 0.0 1.0 1.0 0.0 1.0
1.0 0.0 1.0 1.0 0.0 1.0 1.0 0.0
1.0 1.0 0.0 1.0 1.0 0.0 1.0 1.0
0.0 1.0 1.0 0.0 1.0 1.0 0.0 1.0
1.0 0.0 1.0 1.0 0.0 1.0 1.0 0.0
1.0 1.0 0.0 1.0 1.0 0.0 1.0 1.0
0.0 1.0 1.0 0.0 1.0 1.0 0.0 1.0
1.0 1.0 1.0 1.0 1.0 1.0 1.0 1.0
1.0 1.0 1.0 1.0 1.0 1.0 1.0 1.0
1.0 1.0 1.0 1.0 1.0 1.0 1.0 1.0
1.0 1.0 1.0 1.0 1.0 1.0 1.0 1.0
1.0 1.0 1.0 1.0 1.0 1.0 1.0 1.0
1.0 1.0 1.0 1.0 1.0 1.0 1.0 1.0
1.0 1.0 1.0 1.0 1.0 1.0 1.0 1.0
1.0 1.0 1.0 1.0 1.0 1.0 1.0 1.0
1.0 0.0 0.0 1.0 0.0 0.0 1.0 0.0
0.0 1.0 0.0 0.0 1.0 0.0 0.0 1.0
0.0 0.0 1.0 0.0 0.0 1.0 0.0 0.0
1.0 0.0 0.0 1.0 0.0 0.0 1.0 0.0
0.0 1.0 0.0 0.0 1.0 0.0 0.0 1.0
0.0 0.0 1.0 0.0 0.0 1.0 0.0 0.0
1.0 0.0 0.0 1.0 0.0 0.0 1.0 0.0
0.0 1.0 0.0 0.0 1.0 0.0 0.0 1.0

_transform._transforms.1.autoregressive_net.blocks.0.linear_layers.1.weight f4 [64, 64]
00000000: ce46 3c3d 4a16 da39 8698 1a3a 4041 353d
00000010: 01c0 4238 2717 b139 799b b7b9 1b24 593a
00000020: bd94 c737 303d b0b8 8068 fcb9 bba1 f0b9
00000030: 03e4 003d 63f9 25ba a462 20ba 5b62 75ba
00000040: fd5d ccb9 6f28 5c3a d2b2 6738 804e 48b9
00000050: 1934 02b9 3d64 82ba a83e 2bba 4e28 0cba
00000060: ef20 cabd 5248 393a 01b0 da38 7130 a93b
00000070: bd8b 353a 82df b039 7750 9e3c 81c7 11ba
00000080: b568 c937 a857 563d b39d 0a37 7f95 00ba
00000090: e68b 743d 1925 45ba 2895 4839 8241 6f3d
000000a0: 1b2f 8438 79c7 52ba 22f9 353d 2813 563a
000000b0: 9876 ebb8 3a6b 4f3d 1f5e 2f3a bb55 57ba
000000c0: 6ddc 683d 5bd7 433a dcb5 d5b9 d100 a33d
000000d0: a0b8 f0b9 17cb 34ba 57d9 68bb 925c 35ba
000000e0: 9e35 b1b9 a38a cd3c bd93 45ba 636b 493a
000000f0: d782 b03c 54b2 14ba 4e5a 8bb8 f650 e5b9
00000100: 267f 2a3d e772 8b3d 0b77 dcb9 9dd8 a43c
00000110: 0c46 463d a611 3eba 53ee e7b9 3b59 263d
00000120: 9882 c4b9 13e0 52ba 5194 6abc 6d02 4eba
00000130: 2d9a 053d 6a22 c13c e48e 60ba d14c 3f3a
00000140: 03b9 fe3c 6bc8 48b9 b554 8039 c5ff b23d
00000150: 7865 76ba 0359 a039 128a 3b3d 38f3 10ba
00000160: 0e55 02bb d510 2e3d 465e 3f39 fa39 a23b
00000170: 96a0 f03c a205 4339 53ae 8b3b 4ac9 063d
00000180: f08e 04ba 34ca 183d 09e0 5c3a 1949 15ba
00000190: 637c df3c 8c69 aa3d 5f2a e1b9 7079 083d
000001a0: 9635 8c3c 754f 6c39 46df 2f3d 96bf f0b9
000001b0: 5111 54ba b7c0 fa3c 7073 9a3d e087 b8b9
000001c0: dac1 8f3c cff3 553d dcbb 533a 7b07 62ba
000001d0: e962 873c 57fa 4839 f670 08bc 63b3 6fba
000001e0: 55e7 3239 8a69 633c 9353 0c3d c9ba 87b9
000001f0: 196c 853a ec34 173d daa7 2aba 7c14 e6b5
00000200: 36ff 89bc 859e a6b8 3d6f 76bb 4930 a8bc
00000210: d689 49bd 8dd1 e9ba 5983 42ba 143d 34bd
00000220: be70 beb9 1930 5e3a 1439 16bd 74b8 17bd
00000230: 14b5 92bc f278 adbc d732 acbc 01a0 423a
00000240: 8707 6abd d98b 403d d2f4 683a 1951 06bd
00000250: 4e0a 24bd a54a f139 cdb1 eabc 4db7 713a
00000260: 36d2 543b 88cd 33bd be1e 2a3c d37c 163b
00000270: 85fd bdbc 0e57 5dbd 4130 92bc fe2e a0bc
00000280: d83e bb3b 4393 5cbc 2aa0 33ba 7aba 3b3b
00000290: 2c9e f6bc 456a b8bc 3bd3 b2bd e9cb bcbc
000002a0: 1168 50bc d412 d5bc 314b 96bc 5959 9d37
000002b0: 8276 40bd a128 bdbc 1d7a 74bc ec08 3e3d
000002c0: a772 c1bc 22e0 d0bc a9d2 363e 077a ecbc
000002d0: 04e4 c5bc 8b23 8cbd 102b 25ba 3218 5638
000002e0: 7e5a ef3b 7773 71bc d2bf 51bd 4787 5a3e
000002f0: 99b7 94bc c84f 8fbc a5e3 6abc ee92 8939
00000300: d73b 5fbd 5f00 a2b9 63f8 0639 6cd6 81bd
00000310: 5979 fd39 bbfb beb9 2e19 62ba 194a e6b9
00000320: fccf 16ba c53a 8c39 f01b a139 ec1d 33b9
00000330: 229e 23bd b5a9 123a 2881 7eb8 ab31 4e38
00000340: 7f4c 01ba 2672 673a 6951 8c38 4efc a1b9
00000350: 501f a839 0b1f ef39 faca 2bba 65d9 ce39
00000360: df87 e43d 21a8 18ba 6b01 08ba e461 013c
00000370: 57d8 ceb9 2a82 3f3a d11c 55bd 6d9f a7b9
00000380: 426d 133a 2fd9 89bd 969d 8339 0110 c1b8
00000390: c100 9bbd 8358 06ba cd6b 34ba fb4c 8ebd
000003a0: dc27 58ba 2e0a ecb8 00d1 51bd 0968 3039
000003b0: e8dc 383a 01e2 8dbd 63e2 77ba 4c97 5539
000003c0: 15a4 95bd 132b beb8 05dc b8b9 4b39 cbbd
000003d0: 5bd4 2139 f60c 34ba 5f4a a8bb 94e4 3cba
000003e0: 67e4 17ba 21f3 42bd e633 323a 869f 463a
000003f0: cb3d 76bd b52c 2439 8804 8b39 e232 aab8
0.045965962 0.00041596807 0.00058973616 0.04425168 4.6432022e-05 0.0003377732 -0.00035020316 0.0008283273
2.379191e-05 -8.403731e-05 -0.00048143044 -0.00045896866 0.03146745 -0.0006331412 -0.0006118214 -0.00093606644
-0.0003897994 0.0008398359 5.524123e-05 -0.0001910273 -0.00012417174 -0.0009948086 -0.0006532469 -0.0005346582
-0.09869563 0.00070679665 0.00010427833 0.0051632454 0.00069254247 0.00033735862 0.019325478 -0.00055610394
2.4009825e-05 0.05232969 8.262158e-06 -0.0004905089 0.05970373 -0.00075204816 0.00019129051 0.058412082
6.3030246e-05 -0.0008040588 0.044427045 0.00081663067 -0.00011227763 0.05063937 0.00066897454 -0.0008214374
0.05685084 0.000747075 -0.00040762022 0.0795914 -0.00045913924 -0.0006896718 -0.0035529935 -0.0006918396
-0.0003380002 0.025090521 -0.00075369683 0.00076835434 0.021546764 -0.0005672325 -6.644857e-05 -0.00043738604
0.041625164 0.06809025 -0.00042050364 0.02012282 0.048406646 -0.00072505546 -0.0004423732 0.04061244
-0.00037481333 -0.0008044254 -0.014317588 -0.0007858638 0.032617737 0.02357598 -0.0008566214 0.00072975183
0.03109408 -0.00019148148 0.00024477174 0.087401904 -0.00093992753 0.00030583897 0.04578597 -0.00055294065
-0.0019887122 0.04249652 0.00018250299 0.004950759 0.029373448 0.00018598748 0.0042627244 0.032906808
-0.00050567 0.03730221 0.0008425718 -0.00056947913 0.027280992 0.08320913 -0.00042946913 0.033318937
0.017115396 0.00022536314 0.04293754 -0.0004591911 -0.00080897385 0.030609472 0.07541549 -0.0003519645
0.01754849 0.052234467 0.00080770045 -0.00086223305 0.016526656 0.00019166745 -0.008327713 -0.0009143857
0.00017061581 0.013880143 0.03425939 -0.00025888372 0.001017931 0.036915705 -0.0006509997 -1.7142297e-06
-0.016845327 -7.9450234e-05 -0.0037602924 -0.020530837 -0.049203716 -0.001783894 -0.0007420085 -0.04400356
-0.00036323623 0.0008475795 -0.036675528 -0.037041143 -0.01790861 -0.021175835 -0.021020336 0.0007424355
-0.057136085 0.04700837 0.0008886579 -0.032792185 -0.04004889 0.00046022717 -0.028649235 0.00092207344
0.0032473928 -0.04389718 0.010383306 0.0022962585 -0.023192177 -0.0540381 -0.017845275 -0.019553658
0.0057142787 -0.013462844 -0.00068521744 0.0028645084 -0.03010472 -0.02251161 -0.08731695 -0.02304645
-0.012720124 -0.026009955 -0.018346401 1.8757464e-05 -0.046988018 -0.023090662 -0.014921692 0.046395227
-0.02361424 -0.0254975 0.17853798 -0.02886678 -0.024156578 -0.06842717 -0.00063006673 5.104411e-05
0.0073044887 -0.014737002 -0.051208325 0.21340667 -0.018153952 -0.017494097 -0.014336501 0.00026240147
-0.054500427 -0.00030899324 0.00012871767 -0.06339726 0.00048346331 -0.00036427178 -0.0008624968 -0.00043924226
-0.0005753038 0.00026746668 0.00030729128 -0.00017081917 -0.03994573 0.00055947463 -6.0678605e-05 4.9160484e-05
-0.0004932358 0.000882896 6.690884e-05 -0.00030896295 0.00032066787 0.0004560876 -0.0006553378 0.00039453353
0.11158728 -0.0005823393 -0.00051881996 0.007896874 -0.00039452568 0.0007305468 -0.052029435 -0.00031971504
0.00056238857 -0.067308776 0.00025103678 -9.205938e-05 -0.07568503 -0.00051248836 -0.00068825186 -0.069482766
-0.00082456856 -0.00011255253 -0.05122471 0.00016823424 0.00070519606 -0.069278724 -0.00094560365 0.00020369625
-0.07306687 -9.067929e-05 -0.00035259142 -0.09923037 0.00015433265 -0.00068683864 -0.005135819 -0.00072056917
-0.00057942275 -0.047595147 0.00067978946 0.00075768714 -0.060117524 0.00015656913 0.00026515522 -8.115709e-05

_transform._transforms.1.autoregressive_net.blocks.0.linear_layers.1.bias f4 [64]
00000000: 2e65 df3c e96e 193d 1f19 a8bc afcd b1bc
00000010: e583 a0bc edd7 3d3c 6877 093d 2379 003d
00000020: 714b f2bb 4f01 fabc 8193 d7bc 2f88 353c
00000030: 077c 96bc a71d ddbc 5e09 f6bb bb4a ab3c
00000040: 2189 07bd 914e 2e3d 1e22 21bd 9677 023d
00000050: c12e b03c 0edd 8ebc 3adf 4d3c 3c75 343c
00000060: 6af1 843c c397 243c f95f a439 a5bf 6d3c
00000070: 05b1 57bc 4f04 83bc b42a 89bd d353 2f3d
00000080: 3bb0 803c a882 c83c 7fd4 29bd 3629 ebbb
00000090: bbe1 92bc baba 1dbd 049b 0f3c aff4 d33b
000000a0: 35bf afbc e8c8 8bbc 60c6 f2bc af13 00bd
000000b0: 5c27 0e3d 7669 023d 1d47 ffbc 5605 06bd
000000c0: 4dde d13c 9381 ad3c b74c 913c b58c 28bc
000000d0: bdfb 2cbc c16a 063c 5f78 9b3c 268b 96bc
000000e0: bd7d 98bc 254c 323c c085 c43c c4b9 b83c
000000f0: 07c5 b2bc c6af f5bc 9c20 623c 7e82 5cbc
0.027269926 0.037459288 -0.020519791 -0.021704523 -0.019594142 0.011587125 0.03356114 0.031365525
-0.007394247 -0.030518202 -0.026315453 0.011079832 -0.018369688 -0.026991678 -0.007508441 0.020909658
-0.03308976 0.042555396 -0.039339177 0.031852327 0.021506669 -0.017439391 0.012565428 0.011014279
0.016228396 0.010045948 0.00031352023 0.014511024 -0.013164763 -0.015993265 -0.06697598 0.04280455
0.015709033 0.024476364 -0.041462418 -0.0071765436 -0.017929902 -0.038508154 0.008764986 0.0064683775
-0.02145348 -0.017063573 -0.029635608 -0.03126877 0.034705505 0.031838857 -0.03116184 -0.032719932
0.025618697 0.02117995 0.017736776 -0.010287453 -0.010558066 0.008204163 0.018978296 -0.018376898
-0.018614644 0.010882412 0.023989558 0.022549517 -0.021822466 -0.029991042 0.01380172 -0.013458846

_transform._transforms.1.autoregressive_net.blocks.0.linear_layers.1.mask f4 [64, 64]
00000000: 0000 803f 0000 0000 0000 0000 0000 803f
00000010: 0000 0000 0000 0000 0000 803f 0000 0000
00000020: 0000 0000 0000 803f 0000 0000 0000 0000
00000030: 0000 803f 0000 0000 0000 0000 0000 803f
00000040: 0000 0000 0000 0000 0000 803f 0000 0000
00000050: 0000 0000 0000 803f 0000 0000 0000 0000
00000060: 0000 803f 0000 0000 0000 0000 0000 803f
00000070: 0000 0000 0000 0000 0000 803f 0000 0000
00000080: 0000 0000 0000 803f 0000 0000 0000 0000
00000090: 0000 803f 0000 0000 0000 0000 0000 803f
000000a0: 0000 0000 0000 0000 0000 803f 0000 0000
000000b0: 0000 0000 0000 803f 0000 0000 0000 0000
000000c0: 0000 803f 0000 0000 0000 0000 0000 803f
000000d0: 0000 0000 0000 0000 0000 803f 0000 0000
000000e0: 0000 0000 0000 803f 0000 0000 0000 0000
000000f0: 0000 803f 0000 0000 0000 0000 0000 803f
00000100: 0000 803f 0000 803f 0000 0000 0000 803f
00000110: 0000 803f 0000 0000 0000 803f 0000 803f
00000120: 0000 0000 0000 803f 0000 803f 0000 0000
00000130: 0000 803f 0000 803f 0000 0000 0000 803f
00000140: 0000 803f 0000 0000 0000 803f 0000 803f
00000150: 0000 0000 0000 803f 0000 803f 0000 0000
00000160: 0000 803f 0000 803f 0000 0000 0000 803f
00000170: 0000 803f 0000 0000 0000 803f 0000 803f
00000180: 0000 0000 0000 803f 0000 803f 0000 0000
00000190: 0000 803f 0000 803f 0000 0000 0000 803f
000001a0: 0000 803f 0000 0000 0000 803f 0000 803f
000001b0: 0000 0000 0000 803f 0000 803f 0000 0000
000001c0: 0000 803f 0000 803f 0000 0000 0000 803f
000001d0: 0000 803f 0000 0000 0000 803f 0000 803f
000001e0: 0000 0000 0000 803f 0000 803f 0000 0000
000001f0: 0000 803f 0000 803f 0000 0000 0000 803f
00000200: 0000 803f 0000 803f 0000 803f 0000 803f
00000210: 0000 803f 0000 803f 0000 803f 0000 803f
00000220: 0000 803f 0000 803f 0000 803f 0000 803f
00000230: 0000 803f 0000 803f 0000 803f 0000 803f
00000240: 0000 803f 0000 803f 0000 803f 0000 803f
00000250: 0000 803f 0000 803f 0000 803f 0000 803f
00000260: 0000 803f 0000 803f 0000 803f 0000 803f
00000270: 0000 803f 0000 803f 0000 803f 0000 803f
00000280: 0000 803f 0000 803f 0000 803f 0000 803f
00000290: 0000 803f 0000 803f 0000 803f 0000 803f
000002a0: 0000 803f 0000 803f 0000 803f 0000 803f
000002b0: 0000 803f 0000 803f 0000 803f 0000 803f
000002c0: 0000 803f 0000 803f 0000 803f 0000 803f
000002d0: 0000 803f 0000 803f 0000 803f 0000 803f
000002e0: 0000 803f 0000 803f 0000 803f 0000 803f
000002f0: 0000 803f 0000 803f 0000 803f 0000 803f
00000300: 0000 803f 0000 0000 0000 0000 0000 803f
00000310: 0000 0000 0000 0000 0000 803f 0000 0000
00000320: 0000 0000 0000 803f 0000 0000 0000 0000
00000330: 0000 803f 0000 0000 0000 0000 0000 803f
00000340: 0000 0000 0000 0000 0000 803f 0000 0000
00000350: 0000 0000 0000 803f 0000 0000 0000 0000
00000360: 0000 803f 0000 0000 0000 0000 0000 803f
00000370: 0000 0000 0000 0000 0000 803f 0000 0000
00000380: 0000 0000 0000 803f 0000 0000 0000 0000
00000390: 0000 803f 0000 0000 0000 0000 0000 803f
000003a0: 0000 0000 0000 0000 0000 803f 0000 0000
000003b0: 0000 0000 0000 803f 0000 0000 0000 0000
000003c0: 0000 803f 0000 0000 0000 0000 0000 803f
000003d0: 0000 0000 0000 0000 0000 803f 0000 0000
000003e0: 0000 0000 0000 803f 0000 0000 0000 0000
000003f0: 0000 803f 0000 0000 0000 0000 0000 803f
1.0 0.0 0.0 1.0 0.0 0.0 1.0 0.0
0.0 1.0 0.0 0.0 1.0 0.0 0.0 1.0
0.0 0.0 1.0 0.0 0.0 1.0 0.0 0.0
1.0 0.0 0.0 1.0 0.0 0.0 1.0 0.0
0.0 1.0 0.0 0.0 1.0 0.0 0.0 1.0
0.0 0.0 1.0 0.0 0.0 1.0 0.0 0.0
1.0 0.0 0.0 1.0 0.0 0.0 1.0 0.0
0.0 1.0 0.0 0.0 1.0 0.0 0.0 1.0
1.0 1.0 0.0 1.0 1.0 0.0 1.0 1.0
0.0 1.0 1.0 0.0 1.0 1.0 0.0 1.0
1.0 0.0 1.0 1.0 0.0 1.0 1.0 0.0
1.0 1.0 0.0 1.0 1.0 0.0 1.0 1.0
0.0 1.0 1.0 0.0 1.0 1.0 0.0 1.0
1.0 0.0 1.0 1.0 0.0 1.0 1.0 0.0
1.0 1.0 0.0 1.0 1.0 0.0 1.0 1.0
0.0 1.0 1.0 0.0 1.0 1.0 0.0 1.0
1.0 1.0 1.0 1.0 1.0 1.0 1.0 1.0
1.0 1.0 1.0 1.0 1.0 1.0 1.0 1.0
1.0 1.0 1.0 1.0 1.0 1.0 1.0 1.0
1.0 1.0 1.0 1.0 1.0 1.0 1.0 1.0
1.0 1.0 1.0 1.0 1.0 1.0 1.0 1.0
1.0 1.0 1.0 1.0 1.0 1.0 1.0 1.0
1.0 1.0 1.0 1.0 1.0 1.0 1.0 1.0
1.0 1.0 1.0 1.0 1.0 1.0 1.0 1.0
1.0 0.0 0.0 1.0 0.0 0.0 1.0 0.0
0.0 1.0 0.0 0.0 1.0 0.0 0.0 1.0
0.0 0.0 1.0 0.0 0.0 1.0 0.0 0.0
1.0 0.0 0.0 1.0 0.0 0.0 1.0 0.0
0.0 1.0 0.0 0.0 1.0 0.0 0.0 1.0
0.0 0.0 1.0 0.0 0.0 1.0 0.0 0.0
1.0 0.0 0.0 1.0 0.0 0.0 1.0 0.0
0.0 1.0 0.0 0.0 1.0 0.0 0.0 1.0

_transform._transforms.1.autoregressive_net.blocks.1.linear_layers.0.weight f4 [64, 64]
00000000: 9db7 c93d 16a2 b63d 1265 83bd d4e5 9ebd
00000010: 86f1 e23d 1236 ffbd 7d16 0b3e 866f e93d
00000020: c665 8ebd f65c 1abd 787d ee3c 8097 bbbd
00000030: 24f3 36bd 00a9 e5bc f6fd f23d 112d a1bd
00000040: e0b7 cf3d 6e2c fabd 1d3c 873e 4ce8 7a3d
00000050: 40e4 a23d ac52 18bd e042 efbc 781f e5bd
00000060: 1d9e 1f3d 1a8f 943d 008c d639 b346 083e
00000070: b089 c6bc 7aa3 cf3d e52b 833d 6c48 c1bd
00000080: 90e0 c2bc d70f b0bb a454 5e3d 2e25 e0bd
00000090: a5de 383d 9674 e0bd 4ae2 e6bd a4b3 e43d
000000a0: 6012 ec3b 1010 7b3c 7b97 863c 0002 423a
000000b0: 588b 9d3c c306 993d 20d4 cbbc 088f 933c
000000c0: d5a4 ef3d c61c ae3d 8882 d43d be25 ad3d
000000d0: 5e64 ebbd 28f7 fe3c ef50 60bd 502d 20bd
000000e0: f0fe 823d c615 bc3b a0b6 4e3c 4296 e5bd
000000f0: 2e4d 53bd e83a 19bd acab 403d d2d2 0f3e
00000100: 2abf f63d cfa8 073c b22d e13d c0cd 3f3d
00000110: 3577 4dbd 2817 a23d 227a 1c3d 35a9 fa3d
00000120: 0e3b 8b3d 3d45 0f3d d90b 4dbe 8c7a 163d
00000130: bd05 e5bd e833 d3be b418 4fbd f90f d33b
00000140: d4c8 6d3d 0cea 753d d678 97bc 8df7 5bbd
00000150: 2ebf 813d 8896 c43c 3c4c 89bd e856 fe3d
00000160: 40b7 92bd 3138 993c c8aa cc3c 9f99 fcbd
00000170: bb8a 92bd 50db cdbd ac8d 1ebe fe77 cebe
00000180: 0e7a d83d e03c 7dbd 8317 77bd 00c8 86ba
00000190: e8cd 15be aaf4 ea3c 70e7 ba3d 46b3 97bd
000001a0: c6ad e0bd aecb de3d 7611 e43d 2fbe eb3d
000001b0: 5cc5 f73d a227 033e c67c a23d 1484 b6bd
000001c0: 005b b0bd a4fa dcbb 5c75 bfbd d372 d7bd
000001d0: 80e3 883d 347a 9dbd 6939 5f3d 73f7 483c
000001e0: 6cbc ca3d 5afc a1bc 7d95 6ebd e43f 88bd
000001f0: eebc db3d 06f1 ca3e 60e9 f63d eb46 8b3d
00000200: 4439 0c3e e197 5fbb 6e23 27be a6db e6bd
00000210: c979 383d d9ee a2bd 5068 0a3e 1da9 bf3d
00000220: 902f c03d c687 8abc 3fee 43be 8421 73be
00000230: 6899 b13c 3d11 b1be 6cf8 423d 1ac7 9ebc
00000240: 9c2c a4bd b368 f2bc 1549 ecbe 5d74 40be
00000250: fabd 663d 7506 a6bd 992c ccbd 43e5 c9bd
00000260: 94b3 cdbd 3eb8 ccbc e0a6 d6bc 8ba6 1bbe
00000270: 3b7a 11be 2c96 073e 8e74 93bd 32a3 c7be
00000280: 53b4 53be 2a96 11be a8dd b83d 1f15 403e
00000290: 2826 c03d 6e13 a73d 8fca 6ebd 66af 44be
000002a0: 75b8 db3d 762c ea3d 9ab5 dabd 21e6 64bd
000002b0: 2fb2 07bc 9b6e 2d39 dd0f 743c cb35 e23d
000002c0: 9a45 0d3e 761e 53bd a1f9 2b3e 727f acbd
000002d0: 9105 fd3c 701f cfbc 3d6e 58bd 6aac a8bd
000002e0: ccf6 99bd 56c3 f6bb e578 283d 62b5 0b3e
000002f0: e8de ae3d 1c44 1ebe 70ff ecbc 8d1a ba3d
00000300: f83d d8bd 888d 1abd a299 afbd 2637 83bd
00000310: c096 11bb 1416 12bd 6c13 0ebe 8074 013d
00000320: d8c3 cfbd eef1 603a 7ceb 37bd 6215 c63d
00000330: 5fc2 973c f23d c4bd dcf5 343d 7ede 98bd
00000340: 88f4 efbc d42f 053d 294c a43e b009 753d
00000350: 1c6f 7d3d 1aa7 14bd 20f9 823d 9619 bcbd
00000360: 565b 1f3d 748a 913d e0f1 a73d ce1a 223e
00000370: 6649 a6bd 5823 88bd 3642 b83c d0a6 e43d
00000380: 0056 9739 b0af c6bc 88f9 85bd 2026 a83c
00000390: 2531 69bd e0fe cb3d c021 4ebc 4fd0 5a3e
000003a0: 207e 783c 6a01 b53d a347 ed3d 641f c6bd
000003b0: b2c0 fa3d d416 5e3d acef 5e3d 8806 71bd
000003c0: da7a b93d 0491 833d 1c26 cdbd e807 f93d
000003d0: 12bb fabd 4034 393b 9a53 163e b415 f23d
000003e0: 088d a63d 1653 8ebb 8069 85ba 00b1 62bd
000003f0: 518c 293c 5600 c5bd 70e9 453c 59d1 403d
0.098494746 0.08917634 -0.06415762 -0.0775868 0.11081223 -0.12461485 0.13582797 0.113982245
-0.069530055 -0.03768631 0.029112563 -0.09159756 -0.04466547 -0.028034687 0.118648455 -0.07869924
0.10142493 -0.122155055 0.2641305 0.06125669 0.079536915 -0.037188217 -0.029206693 -0.11187643
0.038969148 0.07253857 0.0004092157 0.1330822 -0.024235576 0.101386026 0.064048566 -0.094376415
-0.02378872 -0.005372982 0.05427994 -0.109445915 0.045134205 -0.10959737 -0.1127363 0.11167076
0.007204339 0.015323654 0.016429653 0.0007400811 0.019231483 0.07471993 -0.024881423 0.018012539
0.11701361 0.08501582 0.10376459 0.084544644 -0.11493753 0.031123713 -0.054764684 -0.039105713
0.06396282 0.0057399003 0.012616783 -0.112103 -0.051587276 -0.037409693 0.04703872 0.14045265
0.120481804 0.008279993 0.10995044 0.046827078 -0.050162513 0.07914573 0.038202412 0.12239305
0.06798373 0.03497814 -0.20024051 0.036737964 -0.11182735 -0.4125054 -0.050560668 0.006441113
0.058052853 0.060037658 -0.018490236 -0.05370288 0.06335293 0.02399756 -0.06703994 0.1241892
-0.071638584 0.018703552 0.024983779 -0.123339884 -0.07155367 -0.10051596 -0.15483731 -0.40325922
0.10570155 -0.061825633 -0.060325157 -0.0010282993 -0.14629328 0.028681118 0.091261744 -0.074072406
-0.10970645 0.108786926 0.11136143 0.11510884 0.1209819 0.12808087 0.07933955 -0.08911911
-0.08611107 -0.006743746 -0.093485564 -0.10519948 0.06684017 -0.07689324 0.05449811 0.012266028
0.0989922 -0.01977365 -0.058248032 -0.06652811 0.10729395 0.3963701 0.120562315 0.06800636
0.1369372 -0.0034117626 -0.16322109 -0.11272363 0.04503802 -0.07955713 0.13516355 0.09358428
0.09384072 -0.016910445 -0.19133852 -0.23743254 0.021679595 -0.34583464 0.047600195 -0.019382048
-0.08016321 -0.02959094 -0.46149507 -0.18794389 0.05633352 -0.081067 -0.09969444 -0.09858181
-0.100440174 -0.024990197 -0.02620262 -0.1520025 -0.14206783 0.1324088 -0.071999654 -0.38991696
-0.20674257 -0.1421744 0.090266526 0.18758057 0.09382278 0.08158003 -0.058298644 -0.19207534
0.10728542 0.114342615 -0.10679169 -0.05588353 -0.008282228 0.0001653977 0.01489636 0.110454164
0.13796082 -0.05154272 0.16794445 -0.08422746 0.030886443 -0.025283545 -0.052839506 -0.082360104
-0.07517776 -0.00753061 0.04113092 0.13643411 0.0853861 -0.15455669 -0.028930396 0.090870954
-0.105586946 -0.03773263 -0.08574225 -0.06407003 -0.0022215098 -0.035665587 -0.13874596 0.031605244
-0.10144776 0.0008580972 -0.04490231 0.09672047 0.0185253 -0.09582128 0.044179782 -0.07464312
-0.029291406 0.032516316 0.32089356 0.05982369 0.06187354 -0.036292173 0.06395173 -0.09184568
0.038905464 0.07106486 0.08200431 0.15830538 -0.081194684 -0.06647366 0.02249251 0.111646295
0.0002886504 -0.024253696 -0.06541735 0.020525992 -0.056931634 0.09960723 -0.012581289 0.21368526
0.015166789 0.0883816 0.11585929 -0.09673956 0.12243785 0.05422099 0.054427788 -0.05884412
0.09056635 0.06424144 -0.100170344 0.12159711 -0.12242712 0.0028259903 0.14680329 0.11820546
0.08132368 -0.0043434007 -0.0010178536 -0.05534458 0.010348395 -0.09619205 0.012079582 0.04707465

_transform._transforms.1.autoregressive_net.blocks.1.linear_layers.0.bias f4 [64]
00000000: 61a0 c23c 73af df3d 257e 063c e77f 9dbc
00000010: 88c9 a0bc 54d8 74bc ff32 dc3d 150a 593d
00000020: 7db9 9dbd 53e6 d53d 6618 eabc da53 cabc
00000030: a41c 333b 30a3 a4be 31a7 21bd 783a c43c
00000040: d02e bdbd f54e d3bc b050 c83c 0a76 64be
00000050: 73ce b73d 008e 8f3d 2104 0bba b356 0bbe
00000060: f871 d03c 5018 573d cea9 cd3d e719 97bc
00000070: 2946 a83d a1e2 583d dc0c 4fbd 8ff1 4f3d
00000080: aeb1 6cbd ad67 73bd d388 063e 3b99 8a3d
00000090: 290b 5cbd a4e5 aa3d 2c48 1cbd a018 d6bd
000000a0: d98c cb3c 9302 c1bd f1ee 013d 4ce6 e9bd
000000b0: 4cd0 063c 0cee 31bd 870d 1f3d 8b63 843d
000000c0: 7484 443d f78f 02bc f64f b0bd b027 3dbd
000000d0: a223 493d 75b0 68bd 50c9 03ba bd5f 013e
000000e0: 40ea 63bd 6c14 5d3d 58bc c33c 0393 f13d
000000f0: c820 833d e469 ad3c c6cc 61bd 032c 593d
0.023758115 0.10922136 0.008208786 -0.019226028 -0.019627348 -0.014944155 0.10751914 0.05298813
-0.07701395 0.104443215 -0.028576087 -0.024698187 0.0027330304 -0.32155752 -0.039466087 0.023953661
-0.092374444 -0.025794486 0.024452537 -0.22310653 0.08974924 0.07009506 -0.00053030445 -0.13607292
0.02544497 0.05251342 0.10042153 -0.018444968 0.08216507 0.052950505 -0.050549373 0.050767478
-0.057786636 -0.059425045 0.13138132 0.06767508 -0.05372158 0.08344582 -0.038154766 -0.104539156
0.024847435 -0.09424319 0.031722013 -0.11420879 0.008228373 -0.04343991 0.03883126 0.06464299
0.04797788 -0.007968894 -0.08609001 -0.046180427 0.049106248 -0.056808908 -0.00050272513 0.12634178
-0.05564332 0.053974554 0.02389352 0.117956184 0.06402737 0.021168657 -0.055126928 0.05302049

_transform._transforms.1.autoregressive_net.blocks.1.linear_layers.0.mask f4 [64, 64]
00000000: 0000 803f 0000 0000 0000 0000 0000 803f
00000010: 0000 0000 0000 0000 0000 803f 0000 0000
00000020: 0000 0000 0000 803f 0000 0000 0000 0000
00000030: 0000 803f 0000 0000 0000 0000 0000 803f
00000040: 0000 0000 0000 0000 0000 803f 0000 0000
00000050: 0000 0000 0000 803f 0000 0000 0000 0000
00000060: 0000 803f 0000 0000 0000 0000 0000 803f
00000070: 0000 0000 0000 0000 0000 803f 0000 0000
00000080: 0000 0000 0000 803f 0000 0000 0000 0000
00000090: 0000 803f 0000 0000 0000 0000 0000 803f
000000a0: 0000 0000 0000 0000 0000 803f 0000 0000
000000b0: 0000 0000 0000 803f 0000 0000 0000 0000
000000c0: 0000 803f 0000 0000 0000 0000 0000 803f
000000d0: 0000 0000 0000 0000 0000 803f 0000 0000
000000e0: 0000 0000 0000 803f 0000 0000 0000 0000
000000f0: 0000 803f 0000 0000 0000 0000 0000 803f
00000100: 0000 803f 0000 803f 0000 0000 0000 803f
00000110: 0000 803f 0000 0000 0000 803f 0000 803f
00000120: 0000 0000 0000 803f 0000 803f 0000 0000
00000130: 0000 803f 0000 803f 0000 0000 0000 803f
00000140: 0000 803f 0000 0000 0000 803f 0000 803f
00000150: 0000 0000 0000 803f 0000 803f 0000 0000
00000160: 0000 803f 0000 803f 0000 0000 0000 803f
00000170: 0000 803f 0000 0000 0000 803f 0000 803f
00000180: 0000 0000 0000 803f 0000 803f 0000 0000
00000190: 0000 803f 0000 803f 0000 0000 0000 803f
000001a0: 0000 803f 0000 0000 0000 803f 0000 803f
000001b0: 0000 0000 0000 803f 0000 803f 0000 0000
000001c0: 0000 803f 0000 803f 0000 0000 0000 803f
000001d0: 0000 803f 0000 0000 0000 803f 0000 803f
000001e0: 0000 0000 0000 803f 0000 803f 0000 0000
000001f0: 0000 803f 0000 803f 0000 0000 0000 803f
00000200: 0000 803f 0000 803f 0000 803f 0000 803f
00000210: 0000 803f 0000 803f 0000 803f 0000 803f
00000220: 0000 803f 0000 803f 0000 803f 0000 803f
00000230: 0000 803f 0000 803f 0000 803f 0000 803f
00000240: 0000 803f 0000 803f 0000 803f 0000 803f
00000250: 0000 803f 0000 803f 0000 803f 0000 803f
00000260: 0000 803f 0000 803f 0000 803f 0000 803f
00000270: 0000 803f 0000 803f 0000 803f 0000 803f
00000280: 0000 803f 0000 803f 0000 803f 0000 803f
00000290: 0000 803f 0000 803f 0000 803f 0000 803f
000002a0: 0000 803f 0000 803f 0000 803f 0000 803f
000002b0: 0000 803f 0000 803f 0000 803f 0000 803f
000002c0: 0000 803f 0000 803f 0000 803f 0000 803f
000002d0: 0000 803f 0000 803f 0000 803f 0000 803f
000002e0: 0000 803f 0000 803f 0000 803f 0000 803f
000002f0: 0000 803f 0000 803f 0000 803f 0000 803f
00000300: 0000 803f 0000 0000 0000 0000 0000 803f
00000310: 0000 0000 0000 0000 0000 803f 0000 0000
00000320: 0000 0000 0000 803f 0000 0000 0000 0000
00000330: 0000 803f 0000 0000 0000 0000 0000 803f
00000340: 0000 0000 0000 0000 0000 803f 0000 0000
00000350: 0000 0000 0000 803f 0000 0000 0000 0000
00000360: 0000 803f 0000 0000 0000 0000 0000 803f
00000370: 0000 0000 0000 0000 0000 803f 0000 0000
00000380: 0000 0000 0000 803f 0000 0000 0000 0000
00000390: 0000 803f 0000 0000 0000 0000 0000 803f
000003a0: 0000 0000 0000 0000 0000 803f 0000 0000
000003b0: 0000 0000 0000 803f 0000 0000 0000 0000
000003c0: 0000 803f 0000 0000 0000 0000 0000 803f
000003d0: 0000 0000 0000 0000 0000 803f 0000 0000
000003e0: 0000 0000 0000 803f 0000 0000 0000 0000
000003f0: 0000 803f 0000 0000 0000 0000 0000 803f
1.0 0.0 0.0 1.0 0.0 0.0 1.0 0.0
0.0 1.0 0.0 0.0 1.0 0.0 0.0 1.0
0.0 0.0 1.0 0.0 0.0 1.0 0.0 0.0
1.0 0.0 0.0 1.0 0.0 0.0 1.0 0.0
0.0 1.0 0.0 0.0 1.0 0.0 0.0 1.0
0.0 0.0 1.0 0.0 0.0 1.0 0.0 0.0
1.0 0.0 0.0 1.0 0.0 0.0 1.0 0.0
0.0 1.0 0.0 0.0 1.0 0.0 0.0 1.0
1.0 1.0 0.0 1.0 1.0 0.0 1.0 1.0
0.0 1.0 1.0 0.0 1.0 1.0 0.0 1.0
1.0 0.0 1.0 1.0 0.0 1.0 1.0 0.0
1.0 1.0 0.0 1.0 1.0 0.0 1.0 1.0
0.0 1.0 1.0 0.0 1.0 1.0 0.0 1.0
1.0 0.0 1.0 1.0 0.0 1.0 1.0 0.0
1.0 1.0 0.0 1.0 1.0 0.0 1.0 1.0
0.0 1.0 1.0 0.0 1.0 1.0 0.0 1.0
1.0 1.0 1.0 1.0 1.0 1.0 1.0 1.0
1.0 1.0 1.0 1.0 1.0 1.0 1.0 1.0
1.0 1.0 1.0 1.0 1.0 1.0 1.0 1.0
1.0 1.0 1.0 1.0 1.0 1.0 1.0 1.0
1.0 1.0 1.0 1.0 1.0 1.0 1.0 1.0
1.0 1.0 1.0 1.0 1.0 1.0 1.0 1.0
1.0 1.0 1.0 1.0 1.0 1.0 1.0 1.0
1.0 1.0 1.0 1.0 1.0 1.0 1.0 1.0
1.0 0.0 0.0 1.0 0.0 0.0 1.0 0.0
0.0 1.0 0.0 0.0 1.0 0.0 0.0 1.0
0.0 0.0 1.0 0.0 0.0 1.0 0.0 0.0
1.0 0.0 0.0 1.0 0.0 0.0 1.0 0.0
0.0 1.0 0.0 0.0 1.0 0.0 0.0 1.0
0.0 0.0 1.0 0.0 0.0 1.0 0.0 0.0
1.0 0.0 0.0 1.0 0.0 0.0 1.0 0.0
0.0 1.0 0.0 0.0 1.0 0.0 0.0 1.0
