model2/epoch=100modello-N_iter4-N_features32-N_BS32-epochs301-lr0.004-val_loss1000.pth (torch, 206026 bytes, 72 tensors)

_transform._transforms.1.autoregressive_net.initial_layer.weight f4 [32, 4]
00000000: 168e 3d3f 9acd e83e 4431 c4be 0ca9 f83e
00000010: 213f e7ba cf19 ffbc 4e16 84be c020 71bc
00000020: 670d fdbc 08dd b0bb 2939 0fbd fed3 bf3e
00000030: 7f89 baba 36f5 a33e 681c e33e 3e66 dfbe
00000040: 7cf0 f7bc 4124 babc 307b 0f3d d0de 5e3e
00000050: ed85 3bbd 9815 dc3d c825 96bd c891 fa3e
00000060: 4a40 6f3a 0e02 cabe 5c48 d1be 40a8 c63c
00000070: 5eff 93bd f0f0 f0bc f0b5 823d aa11 cb3e
00000080: fd51 273d 271a babc ab7e 363d 04f3 573e
00000090: 76c2 16ba 3451 d43e be2d e6be 405c a63d
000000a0: 6d3b 2abd 6668 823c e029 a13d a0dc ab3d
000000b0: 6ff7 86bc 0b40 4d3d 2264 82bd 80e5 133e
000000c0: 9822 113c 24de c4be 3c5d 7cbe 8c80 403e
000000d0: fad4 72bd 0c7c cebc 40f2 a83d 7070 243d
000000e0: 84c0 02bd df0d 133d 4b21 d639 4058 36bc
000000f0: b18b 4aba 3207 d4be f0e0 d0bd 0875 84be
00000100: d54e 7240 855d 5ac0 3e4e fc3e f4f8 68be
00000110: ccb8 643d 32b7 27bd 8cc0 9ebd ecab 403e
00000120: 3a6b e03a 464c 873e 58e9 00be f86d 94be
00000130: 999c e2bd 1606 923d 9832 853d 6c86 a03e
00000140: 7346 77bb 349b 04bb 8b47 283c c8a5 973d
00000150: bd52 caba f2ae f43e bc9d 083e 1ef7 a93e
00000160: ef87 0fbe b1e4 3b3d 5482 fabe a09f 273d
00000170: afb8 86bc 3acd 66bc aa00 303d 240b 963e
00000180: 76c8 ea38 e83f ab3d a05b 10bd f6a1 e13e
00000190: 2ce1 8f3a b9a7 c7bc 0046 5a3d 0008 953a
000001a0: 04ea 6e3c fa0d 163d 5b16 7e3b f8e4 aa3e
000001b0: 6653 f63c 4c9c 523e f019 a33d faf2 cf3e
000001c0: f142 8bbe e060 683e b84e 99bd 0e1c e1be
000001d0: 8d89 ccbc 91ee 8e3d 7d4c 21bd 5012 9cbe
000001e0: 0472 7fc0 f2f4 9b3e 5a6b b1be 001b 21be
000001f0: df9d 13c0 64fa 4b40 a88d fa3d 6ccc e5be
0.7404493 0.45469362 -0.38318837 0.48566473 -0.0017642715 -0.031140236 -0.25798267 -0.014717281
-0.03089018 -0.0053974427 -0.03496662 0.37466425 -0.0014231651 0.3202302 0.4435761 -0.43632692
-0.03026604 -0.022722365 0.03502959 0.21764684 -0.04578202 0.10746306 -0.07331425 0.48939347
0.0009126706 -0.39454693 -0.40875518 0.02425015 -0.07226442 -0.029411763 0.06382358 0.39661914
0.040849674 -0.022717549 0.044554394 0.21088797 -0.0005751023 0.41468203 -0.44956774 0.08123064
-0.04156058 0.015918922 0.07869315 0.0839169 -0.016475407 0.050109904 -0.06366755 0.14443016
0.008858345 -0.3845073 -0.24644941 0.18799037 -0.05928514 -0.025205635 0.082493305 0.04014629
-0.03192188 0.0359019 0.00040842066 -0.011129439 -0.0007726504 -0.4141174 -0.101991534 -0.25870538
3.7860615 -3.411958 0.49278444 -0.22751218 0.0558403 -0.040946193 -0.07751569 0.18815583
0.00171218 0.2642538 -0.12589014 -0.2899015 -0.11065025 0.07130067 0.065037906 0.31352556
-0.00377312 -0.002023411 0.010270963 0.07404667 -0.0015436035 0.47789723 0.13341421 0.33196348
-0.14016698 0.045872394 -0.48927557 0.040923715 -0.016445486 -0.014087016 0.042969383 0.29305375
0.00011195328 0.083617985 -0.03524363 0.4406888 0.0010977141 -0.024371969 0.053289413 0.0011370182
0.014582161 0.036634423 0.003877065 0.33377814 0.030069064 0.20567435 0.079639316 0.40615064
-0.2719951 0.22693205 -0.074857175 -0.43966717 -0.024967933 0.06979097 -0.039379586 -0.3048272
-3.991334 0.30460316 -0.34652215 -0.15732956 -2.3065107 3.1871576 0.1223405 -0.44882524

_transform._transforms.1.autoregressive_net.initial_layer.bias f4 [32]
00000000: c221 efbf 974c 40bf 608c 563e 843f fabe
00000010: 671b 3dbf 41d5 5dbe 8eac 07bf a86e 4dbf
00000020: de52 0ebe 5f56 06bf 9db5 3ebf 2008 60be
00000030: d33a dfbe 86d8 3cbf e5c8 c0be b4b8 dfbe
00000040: 1561 15be d462 8f3e ffee 06bf 5770 5ebf
00000050: 16ab 763d bc73 fcbe 8af5 65bf 65de cf3e
00000060: 1abb 01bf c0a7 43bf c099 80be c3bc 16bf
00000070: 326a e8be 1fc0 623c 0e30 31bf 6d2a 313f
-1.8682177 -0.75116867 0.20951986 -0.48876584 -0.7386994 -0.21663381 -0.5299767 -0.80246973
-0.13898799 -0.5247554 -0.7449587 -0.218781 -0.43599567 -0.7376789 -0.3765327 -0.43695605
-0.14587815 0.28005087 -0.5270843 -0.86890167 0.060221754 -0.49307048 -0.8982779 0.4059936
-0.5067612 -0.7642784 -0.25117302 -0.5888178 -0.4539352 0.013839751 -0.6921395 0.6920536

_transform._transforms.1.autoregressive_net.initial_layer.mask f4 [32, 4]
00000000: 0000 803f 0000 0000 0000 0000 0000 0000
00000010: 0000 803f 0000 803f 0000 0000 0000 0000
00000020: 0000 803f 0000 803f 0000 803f 0000 0000
00000030: 0000 803f 0000 0000 0000 0000 0000 0000
00000040: 0000 803f 0000 803f 0000 0000 0000 0000
00000050: 0000 803f 0000 803f 0000 803f 0000 0000
00000060: 0000 803f 0000 0000 0000 0000 0000 0000
00000070: 0000 803f 0000 803f 0000 0000 0000 0000
00000080: 0000 803f 0000 803f 0000 803f 0000 0000
00000090: 0000 803f 0000 0000 0000 0000 0000 0000
000000a0: 0000 803f 0000 803f 0000 0000 0000 0000
000000b0: 0000 803f 0000 803f 0000 803f 0000 0000
000000c0: 0000 803f 0000 0000 0000 0000 0000 0000
000000d0: 0000 803f 0000 803f 0000 0000 0000 0000
000000e0: 0000 803f 0000 803f 0000 803f 0000 0000
000000f0: 0000 803f 0000 0000 0000 0000 0000 0000
00000100: 0000 803f 0000 803f 0000 0000 0000 0000
00000110: 0000 803f 0000 803f 0000 803f 0000 0000
00000120: 0000 803f 0000 0000 0000 0000 0000 0000
00000130: 0000 803f 0000 803f 0000 0000 0000 0000
00000140: 0000 803f 0000 803f 0000 803f 0000 0000
00000150: 0000 803f 0000 0000 0000 0000 0000 0000
00000160: 0000 803f 0000 803f 0000 0000 0000 0000
00000170: 0000 803f 0000 803f 0000 803f 0000 0000
00000180: 0000 803f 0000 0000 0000 0000 0000 0000
00000190: 0000 803f 0000 803f 0000 0000 0000 0000
000001a0: 0000 803f 0000 803f 0000 803f 0000 0000
000001b0: 0000 803f 0000 0000 0000 0000 0000 0000
000001c0: 0000 803f 0000 803f 0000 0000 0000 0000
000001d0: 0000 803f 0000 803f 0000 803f 0000 0000
000001e0: 0000 803f 0000 0000 0000 0000 0000 0000
000001f0: 0000 803f 0000 803f 0000 0000 0000 0000
1.0 0.0 0.0 0.0 1.0 1.0 0.0 0.0
1.0 1.0 1.0 0.0 1.0 0.0 0.0 0.0
1.0 1.0 0.0 0.0 1.0 1.0 1.0 0.0
1.0 0.0 0.0 0.0 1.0 1.0 0.0 0.0
1.0 1.0 1.0 0.0 1.0 0.0 0.0 0.0
1.0 1.0 0.0 0.0 1.0 1.0 1.0 0.0
1.0 0.0 0.0 0.0 1.0 1.0 0.0 0.0
1.0 1.0 1.0 0.0 1.0 0.0 0.0 0.0
1.0 1.0 0.0 0.0 1.0 1.0 1.0 0.0
1.0 0.0 0.0 0.0 1.0 1.0 0.0 0.0
1.0 1.0 1.0 0.0 1.0 0.0 0.0 0.0
1.0 1.0 0.0 0.0 1.0 1.0 1.0 0.0
1.0 0.0 0.0 0.0 1.0 1.0 0.0 0.0
1.0 1.0 1.0 0.0 1.0 0.0 0.0 0.0
1.0 1.0 0.0 0.0 1.0 1.0 1.0 0.0
1.0 0.0 0.0 0.0 1.0 1.0 0.0 0.0

_transform._transforms.1.autoregressive_net.blocks.0.linear_layers.0.weight f4 [32, 32]
00000000: 873c dd3f d09a dbbd f50d 7e3d 0e29 833e
00000010: abba fcbd adf0 1b3e d0e9 103f 5508 24be
00000020: efe6 d3bc f06d 53bd 3310 673d 9938 3cbd
00000030: 38ae f4bb 4d4e 24be e44c a1bd cfd1 c43e
00000040: ae61 f0bd 3995 e33d a9ef 45bc c6e6 053e
00000050: f6e6 043e 3a46 4d3e ceff 15be c88a e5bc
00000060: 0749 923e ec2e f0bd ac5a e4bd d86a 163f
00000070: 35a6 823d 9408 243e 9383 a7bd 3427 9bbd
00000080: 071b 4cbe 62d5 323d 77b5 1b3c 1377 99bc
00000090: 0643 23bc ec84 1cbe e1ca a4be f515 89be
000000a0: 03ce c83d e9a4 f53d b36f 943c 9f12 edbd
000000b0: 80b0 95be fc35 1bbd b6a7 9b3d a9bd 2bbe
000000c0: 6d46 85be 0f50 acbd cb31 553d 10a4 85bd
000000d0: f530 f6bc 14ea 7a3e 8c27 28be 088f 07bd
000000e0: b066 39bc d1eb 5ebe 8d2e fabc 5113 603d
000000f0: d20c 78be 09bf be3d 5448 16be a1f9 fdbd
00000100: 1cdf b6bd d78a 29bd 547e cbbd 772c 2ebe
00000110: 33f6 7c3e a6f9 40be c254 39bd 9974 87be
00000120: b12f d5bd a51d 5bbd d241 80be 7c59 7b3c
00000130: d2b8 a3be d44e 84bf 449f cabc deea 3bbe
00000140: a7a5 1cbe 9c95 01be 9cad 4f3e ec2f fabd
00000150: 9ca9 78be 9a92 d53d df2f a3be 078d d1be
00000160: e040 8bbc a899 b93c 8e79 bfbe e51e 28be
00000170: 35dc a2be dd9c 8dbe 68fd c93c da1b 17be
00000180: ceb6 0bbe a5ce 093e 9465 013e fb7f 17be
00000190: 7139 6ebd 6263 7e3c 2144 c3bd bff4 18bb
000001a0: c4b4 15be 4489 3dbe 7452 b53d 80c6 e3bb
000001b0: 8844 5bbe 58d4 2abd e579 8e3c 97c5 d2bd
000001c0: 774f 453c fa95 aabd aeb2 c83d 4804 9fbd
000001d0: eaed cb3d ceac 6dbc 2ec1 233e 93f5 af3c
000001e0: 6513 75bd 435f 043e e73e 95bd 1e9e 6ebe
000001f0: ad98 e8bd 14f9 a03c 6ab3 47bd 8120 dbbc
00000200: 9f27 ecbd 12cd abbd 4ca2 753c bba6 293e
00000210: f88e 2f3d 59ab ba3d 41cb dabc a6a6 4fbd
00000220: b3d6 ebbd 551c 17be 5003 c2bc d336 043e
00000230: 793c fcbd 7327 0dbe e1f1 d8bd 8e8d 58be
00000240: 4344 56be f5af 9a3d b22a 673d 4538 dfbd
00000250: 52a6 7d3d 1551 1a3d 0143 293d 1696 ebbd
00000260: 377d 84bc 5587 72bd 87cd 6bbc 3715 963a
00000270: ce3b b7be dbe5 91bd 6af6 c0bd 266e 95bd
00000280: 88fa 2bbe e939 05bd 71be 71be 4100 13be
00000290: 71ca a5bd 2eb6 18be 2db1 adbd b263 26be
000002a0: 591b 9ebd ac6a 7ebd 441e 33bb 8735 c3bc
000002b0: 8a8c 6bbd 1fbf 8fbd 3884 d53d 95a8 523d
000002c0: 12ee a9be 3505 50be 4b86 893e c5e5 883e
000002d0: d93a c6bd 4ec1 44be cfb5 94bc 2ba7 8bbe
000002e0: e8a6 10bf cc20 c4bd 7f02 54be 7833 a1bd
000002f0: d243 58be 812e d4bc d96c 65bc f13c 33be
00000300: 491d 5b3d a3d9 183e 0a2e 6e3d 899a e8bd
00000310: 62fe 2cbd 68d0 31be be98 c9be d975 6b3c
00000320: d4b1 7e3d 083a aabe e05c fabd 0e7e f63d
00000330: e7b3 89bc 4574 4fbd 7b54 5a3d 333b 09be
00000340: 34d3 afbd d42e 45bd bbc6 28be f7b6 a2bd
00000350: 4b74 ffbd 07a1 95be 5923 8cbd 06eb b53c
00000360: e3f8 463e 31a3 6bbc 5fb5 303e d520 5bbe
00000370: 7512 0abe 9a9e 0fbe 8023 2f3d 8b46 063e
00000380: 46dd ddbd 524f 6fbe ee59 093e 963c 64be
00000390: aa4b 1abe c620 07be b8b0 47be 0719 b2bd
000003a0: 56cb c23d 8dff 12be 86e2 8c3c f480 29bd
000003b0: e9d2 53bb 1b69 85bd 26a2 313d e75a 35bd
000003c0: 8331 9f3c 2df0 aebd d332 bfbd 9395 92b9
000003d0: 3a8e ab3d d172 2abe 8179 55be c703 463c
000003e0: a25f 1e3c 8889 a1bd 7b8c 023e 631e 4ebe
000003f0: 1d6f d3bd 96ec 8cbb eb49 11be 67f5 cd3c
1.7284096 -0.107228875 0.06202503 0.2561726 -0.123402916 0.1522853 0.5660677 -0.16018803
-0.025866954 -0.051618516 0.056411933 -0.045952413 -0.0074670576 -0.16045494 -0.07875994 0.3844132
-0.11737381 0.11112446 -0.012081065 0.13076314 0.1297873 0.2004632 -0.14648363 -0.028020278
0.2857134 -0.117277 -0.11150107 0.5875678 0.06379358 0.16018897 -0.08179393 -0.07575837
-0.19932185 0.04366053 0.009503714 -0.018733537 -0.00996471 -0.1528508 -0.32186034 -0.26774564
0.098049186 0.11994345 0.018119669 -0.11575817 -0.2923622 -0.03789328 0.07600348 -0.16771568
-0.26030293 -0.084137075 0.05204944 -0.06525433 -0.030052641 0.24503356 -0.16421336 -0.03309539
-0.0113159865 -0.21769644 -0.030539775 0.05470592 -0.2422364 0.09313781 -0.14676028 -0.124011286
-0.089292735 -0.041392174 -0.099362046 -0.1700915 0.24703293 -0.18845233 -0.045246847 -0.26456144
-0.10409487 -0.053495068 -0.25050217 0.015341159 -0.31976944 -1.0336556 -0.024734147 -0.18351313
-0.15297566 -0.12654728 0.2028107 -0.122161716 -0.24283451 0.10428353 -0.3187246 -0.40927908
-0.016998708 0.022656277 -0.37397426 -0.16418035 -0.3180863 -0.2765874 0.024656966 -0.14756718
-0.13643953 0.13457735 0.12636405 -0.14794914 -0.05816025 0.015526624 -0.09534479 -0.002333924
-0.14619738 -0.18509394 0.08853617 -0.0069511533 -0.21412861 -0.041706413 0.017392108 -0.102915935
0.012042872 -0.08329387 0.097997054 -0.077644885 0.09957488 -0.014506532 0.15991661 0.021479404
-0.05983295 0.12926964 -0.07287388 -0.23302504 -0.113572456 0.01965002 -0.048755087 -0.026748898
-0.115309946 -0.083887234 0.014992308 0.16567509 0.042860955 0.09114713 -0.026708247 -0.050696038
-0.1151556 -0.14756902 -0.02368322 0.12911539 -0.12316222 -0.1378458 -0.1059301 -0.21147749
-0.20924477 0.075530924 0.0564372 -0.108994044 0.061926194 0.037674982 0.041323666 -0.11503236
-0.016172988 -0.059211094 -0.014392263 0.0011450414 -0.35787815 -0.071239196 -0.09422 -0.072964
-0.16794789 -0.03252593 -0.23607804 -0.14355566 -0.08095253 -0.14913246 -0.08481059 -0.16248968
-0.0772006 -0.06211345 -0.0027331272 -0.023829235 -0.057507075 -0.07018875 0.10425609 0.051430304
-0.33189446 -0.20314486 0.2686027 0.267378 -0.09679193 -0.19214365 -0.0181531 -0.27275977
-0.5650468 -0.09576568 -0.20704077 -0.07871145 -0.21119621 -0.025901081 -0.014003002 -0.17503716
0.053494725 0.14926772 0.058149375 -0.113576 -0.042234786 -0.17364657 -0.39374346 0.014371359
0.06218131 -0.332474 -0.12224746 0.12035762 -0.016809417 -0.050647993 0.053303223 -0.13401489
-0.08585206 -0.048140362 -0.1648206 -0.07945054 -0.12473353 -0.29224417 -0.068426795 0.022206794
0.1943088 -0.01438217 0.17256688 -0.21399243 -0.13483603 -0.14025345 0.042758465 0.13112848
-0.1083322 -0.23370102 0.13413212 -0.22288737 -0.15067926 -0.13196096 -0.19501007 -0.0869618
0.095114395 -0.14355297 0.017197859 -0.041382745 -0.0032321757 -0.06514188 0.043367527 -0.044276144
0.019432789 -0.08541904 -0.09335866 -0.00027958732 0.08376737 -0.16645361 -0.20847131 0.0120858615
0.009666355 -0.0788756 0.12748902 -0.20128779 -0.103239276 -0.004300664 -0.14188354 0.025141431

_transform._transforms.1.autoregressive_net.blocks.0.linear_layers.0.bias f4 [32]
00000000: 587b 05bd 5edb 1cbd 09a2 02be 2140 ecbd
00000010: b4c3 84be da8f 04be 8eae 96be 527f 7ebe
00000020: d5bc 81be a141 d7bd e758 66be e0ed bbbd
00000030: 8605 f1be 09b3 68be 898b 1fbf 010f 06bf
00000040: b62b a8bd 2c17 f6bd 6b65 ddbe cc23 b9bd
00000050: c343 54be 21bd 15be f651 dabe 9428 55bf
00000060: dfb2 91be 7927 55bd 1a42 65be 9197 53be
00000070: 0eff 84be c8a3 63bd 9052 88be 3b71 29be
-0.032588333 -0.038295142 -0.12757124 -0.11535669 -0.2593056 -0.129455 -0.2943005 -0.24853256
-0.2533938 -0.105105646 -0.22494851 -0.091762304 -0.47074527 -0.22724546 -0.6232229 -0.52366644
-0.08211462 -0.120161384 -0.43241438 -0.09040031 -0.20728974 -0.14622928 -0.42640656 -0.8326504
-0.2845678 -0.052039597 -0.22388497 -0.20663287 -0.2597584 -0.055576116 -0.2662549 -0.165471

_transform._transforms.1.autoregressive_net.blocks.0.linear_layers.0.mask f4 [32, 32]
00000000: 0000 803f 0000 0000 0000 0000 0000 803f
00000010: 0000 0000 0000 0000 0000 803f 0000 0000
00000020: 0000 0000 0000 803f 0000 0000 0000 0000
00000030: 0000 803f 0000 0000 0000 0000 0000 803f
00000040: 0000 0000 0000 0000 0000 803f 0000 0000
00000050: 0000 0000 0000 803f 0000 0000 0000 0000
00000060: 0000 803f 0000 0000 0000 0000 0000 803f
00000070: 0000 0000 0000 0000 0000 803f 0000 0000
00000080: 0000 803f 0000 803f 0000 0000 0000 803f
00000090: 0000 803f 0000 0000 0000 803f 0000 803f
000000a0: 0000 0000 0000 803f 0000 803f 0000 0000
000000b0: 0000 803f 0000 803f 0000 0000 0000 803f
000000c0: 0000 803f 0000 0000 0000 803f 0000 803f
000000d0: 0000 0000 0000 803f 0000 803f 0000 0000
000000e0: 0000 803f 0000 803f 0000 0000 0000 803f
000000f0: 0000 803f 0000 0000 0000 803f 0000 803f
00000100: 0000 803f 0000 803f 0000 803f 0000 803f
00000110: 0000 803f 0000 803f 0000 803f 0000 803f
00000120: 0000 803f 0000 803f 0000 803f 0000 803f
00000130: 0000 803f 0000 803f 0000 803f 0000 803f
00000140: 0000 803f 0000 803f 0000 803f 0000 803f
00000150: 0000 803f 0000 803f 0000 803f 0000 803f
00000160: 0000 803f 0000 803f 0000 803f 0000 803f
00000170: 0000 803f 0000 803f 0000 803f 0000 803f
00000180: 0000 803f 0000 0000 0000 0000 0000 803f
00000190: 0000 0000 0000 0000 0000 803f 0000 0000
000001a0: 0000 0000 0000 803f 0000 0000 0000 0000
000001b0: 0000 803f 0000 0000 0000 0000 0000 803f
000001c0: 0000 0000 0000 0000 0000 803f 0000 0000
000001d0: 0000 0000 0000 803f 0000 0000 0000 0000
000001e0: 0000 803f 0000 0000 0000 0000 0000 803f
000001f0: 0000 0000 0000 0000 0000 803f 0000 0000
00000200: 0000 803f 0000 803f 0000 0000 0000 803f
00000210: 0000 803f 0000 0000 0000 803f 0000 803f
00000220: 0000 0000 0000 803f 0000 803f 0000 0000
00000230: 0000 803f 0000 803f 0000 0000 0000 803f
00000240: 0000 803f 0000 0000 0000 803f 0000 803f
00000250: 0000 0000 0000 803f 0000 803f 0000 0000
00000260: 0000 803f 0000 803f 0000 0000 0000 803f
00000270: 0000 803f 0000 0000 0000 803f 0000 803f
00000280: 0000 803f 0000 803f 0000 803f 0000 803f
00000290: 0000 803f 0000 803f 0000 803f 0000 803f
000002a0: 0000 803f 0000 803f 0000 803f 0000 803f
000002b0: 0000 803f 0000 803f 0000 803f 0000 803f
000002c0: 0000 803f 0000 803f 0000 803f 0000 803f
000002d0: 0000 803f 0000 803f 0000 803f 0000 803f
000002e0: 0000 803f 0000 803f 0000 803f 0000 803f
000002f0: 0000 803f 0000 803f 0000 803f 0000 803f
00000300: 0000 803f 0000 0000 0000 0000 0000 803f
00000310: 0000 0000 0000 0000 0000 803f 0000 0000
00000320: 0000 0000 0000 803f 0000 0000 0000 0000
00000330: 0000 803f 0000 0000 0000 0000 0000 803f
00000340: 0000 0000 0000 0000 0000 803f 0000 0000
00000350: 0000 0000 0000 803f 0000 0000 0000 0000
00000360: 0000 803f 0000 0000 0000 0000 0000 803f
00000370: 0000 0000 0000 0000 0000 803f 0000 0000
00000380: 0000 803f 0000 803f 0000 0000 0000 803f
00000390: 0000 803f 0000 0000 0000 803f 0000 803f
000003a0: 0000 0000 0000 803f 0000 803f 0000 0000
000003b0: 0000 803f 0000 803f 0000 0000 0000 803f
000003c0: 0000 803f 0000 0000 0000 803f 0000 803f
000003d0: 0000 0000 0000 803f 0000 803f 0000 0000
000003e0: 0000 803f 0000 803f 0000 0000 0000 803f
000003f0: 0000 803f 0000 0000 0000 803f 0000 803f
1.0 0.0 0.0 1.0 0.0 0.0 1.0 0.0
0.0 1.0 0.0 0.0 1.0 0.0 0.0 1.0
0.0 0.0 1.0 0.0 0.0 1.0 0.0 0.0
1.0 0.0 0.0 1.0 0.0 0.0 1.0 0.0
1.0 1.0 0.0 1.0 1.0 0.0 1.0 1.0
0.0 1.0 1.0 0.0 1.0 1.0 0.0 1.0
1.0 0.0 1.0 1.0 0.0 1.0 1.0 0.0
1.0 1.0 0.0 1.0 1.0 0.0 1.0 1.0
1.0 1.0 1.0 1.0 1.0 1.0 1.0 1.0
1.0 1.0 1.0 1.0 1.0 1.0 1.0 1.0
1.0 1.0 1.0 1.0 1.0 1.0 1.0 1.0
1.0 1.0 1.0 1.0 1.0 1.0 1.0 1.0
1.0 0.0 0.0 1.0 0.0 0.0 1.0 0.0
0.0 1.0 0.0 0.0 1.0 0.0 0.0 1.0
0.0 0.0 1.0 0.0 0.0 1.0 0.0 0.0
1.0 0.0 0.0 1.0 0.0 0.0 1.0 0.0
1.0 1.0 0.0 1.0 1.0 0.0 1.0 1.0
0.0 1.0 1.0 0.0 1.0 1.0 0.0 1.0
1.0 0.0 1.0 1.0 0.0 1.0 1.0 0.0
1.0 1.0 0.0 1.0 1.0 0.0 1.0 1.0
1.0 1.0 1.0 1.0 1.0 1.0 1.0 1.0
1.0 1.0 1.0 1.0 1.0 1.0 1.0 1.0
1.0 1.0 1.0 1.0 1.0 1.0 1.0 1.0
1.0 1.0 1.0 1.0 1.0 1.0 1.0 1.0
1.0 0.0 0.0 1.0 0.0 0.0 1.0 0.0
0.0 1.0 0.0 0.0 1.0 0.0 0.0 1.0
0.0 0.0 1.0 0.0 0.0 1.0 0.0 0.0
1.0 0.0 0.0 1.0 0.0 0.0 1.0 0.0
1.0 1.0 0.0 1.0 1.0 0.0 1.0 1.0
0.0 1.0 1.0 0.0 1.0 1.0 0.0 1.0
1.0 0.0 1.0 1.0 0.0 1.0 1.0 0.0
1.0 1.0 0.0 1.0 1.0 0.0 1.0 1.0

_transform._transforms.1.autoregressive_net.blocks.0.linear_layers.1.weight f4 [32, 32]
00000000: 1a80 5abf 7ef3 4c3a 928b 36ba 10e3 603c
00000010: fe50 2ab9 7149 8a39 b53f 07bd 2e95 3b3a
00000020: 5b92 dab9 7e1b fabc 9097 7c3a 2138 61b9
00000030: da14 ff3c f25e 16ba 3870 453a 1f00 a3bc
00000040: 751c 71ba ead9 563a ed97 0b3d 8c2c 5a38
00000050: 15b2 5fb9 7cda f4b9 7593 72ba 6fd4 ccb9
00000060: 6de2 80bd 4f68 703a 5005 88b8 1e79 063d
00000070: 1d4b 693a f422 413a 559d 103e b112 8439
00000080: bbf8 24bb cd21 6f3d f8f0 463a f0b6 153c
00000090: 1547 a73c 0b88 7bba 9f93 813d 88dc 073b
000000a0: 6109 4d39 c5fd 883d a49a a0bc fdc5 4439
000000b0: 3d31 b33d 81fd e53d 4884 2aba 96ec 473e
000000c0: 99d4 3abd c29a 823a 9769 7b3e c2bb bd3d
000000d0: 8ed5 d739 afb4 553a 858d a13e d4d7 6f3a
000000e0: 3937 473b efbd f03c d16a bbb8 8e68 8c3c
000000f0: aafd 0d3e 88c8 ec39 d5a2 a7bd ddc7 bf3d
00000100: 8869 0d3e 5626 d9bc 0d5e dd3d 2d96 243d
00000110: 212b 56bd 71dc 133d a0e0 593d 0c1f 8f3c
00000120: a04c 093e fa0d 363d 377f c6bd 42c5 40ba
00000130: 582f 493e 9a24 03be 6dab 263e b426 f13d
00000140: 9bec 183e ae6d a9bd 55c8 afbe d7fe 833d
00000150: 5bd5 d23d 6932 713a e38f 51be fb48 3a3e
00000160: 41ed 893b d3ec 333c 860b 22be db3f 183d
00000170: 0dca 51be 9515 8b3c 4e4b 083e a39b 8cbd
00000180: e618 1b38 ea86 6e39 e04c 30ba 4aae f7bc
00000190: 1194 04ba 0be7 20b9 b3a3 97be 5de8 55ba
000001a0: a87c 24ba 22bc b3bb dcd5 cf39 6b90 4f3a
000001b0: e2e8 353b a757 6aba 1162 68ba 7e34 703e
000001c0: af5a 363a 65bd 68ba b3e1 1abe cd58 05b9
000001d0: 1709 1c3a 303d 76b9 e6b1 013a c7c9 d239
000001e0: 2ded 84b8 9a99 b936 9ebf 5038 00ab 6cbc
000001f0: 36c0 7cba bd50 4ab9 8295 98bd 7377 103a
00000200: 2bda 0e3d f8f0 b8bc 650f 6d3a f151 763d
00000210: 3234 11bc 1b93 46b9 ca49 683e 183c a03c
00000220: 773a 1cb9 2c7f 293d 09e6 cfbd 48f6 473a
00000230: 966e 86bd caea 013e 5f5a 2fb9 e337 a0bd
00000240: a7ea 173e 9a69 53ba ef53 6f3d 1500 103e
00000250: f017 3c3a 0c50 813a 4608 c93e fb68 e3b9
00000260: 9c9f 06bc 4621 4d3d fa65 353a 0f12 c23c
00000270: 8b6b a73d fbad 543a b140 013e 7fef ef3d
00000280: 949c e8bc d1aa 20bc 7715 babd ee70 f9bc
00000290: 4bdf 3d3c 0e61 99bb ecae 9ebe 5ee8 cebc
000002a0: d6be a7bd 1dc8 90bd 443e 313d 7eac 61ba
000002b0: 34b2 b13d 6a6c 8e3d 05bd 1b3d da39 f13e
000002c0: a298 ce3d b904 b53b 6d0a 12be adc3 9c3d
000002d0: 4fde 8f3c f47d 0cb7 f84f ff3c d6c1 1cbf
000002e0: 3b14 6bbb dd13 b93c dc00 cfbd e978 42bd
000002f0: 5ca3 bb3e 74c0 823c bc65 b03d 6a9a ad3d
00000300: 8663 713b fe51 11ba 9687 673a 4c48 90bb
00000310: 0f25 4eb9 98e8 5fba 9556 e3bd 59ef e8b9
00000320: aae9 8db8 be5b 623d a9ed 35ba e244 ff39
00000330: a523 a8bd 1b97 9fb9 8e2b f839 ca1e 2abd
00000340: 883e 3739 5d63 9639 7475 0dbd 48a1 b9b7
00000350: 5d8f 99b9 8ee7 6738 aa75 153a c9db 413a
00000360: f502 5fbb 9cd7 06ba 6f72 a439 369a a2bc
00000370: 830a 8239 0731 0eb9 0ddd 103e 32a2 61ba
00000380: 5253 db3d c194 1a3d 2785 1e39 fefa 09be
00000390: 7013 463e 922f 8839 69e5 27be ef76 cebd
000003a0: 4aec 0b3a 26c3 9cbd 9199 263e 6b88 e439
000003b0: e105 76bc 8798 503d 80d2 ef38 359f aabd
000003c0: d379 38be 5380 cbb8 d512 363d 8ead c3bc
000003d0: 885c 223a 79fd 07b9 3ce7 fbbd 3078 2dba
000003e0: 31c6 02bc 94e7 ae3d 8c18 1a39 5ae0 82bd
000003f0: ec16 553e 9082 04b7 565c 10be a1c5 1a3e
-0.8535172 0.00078182656 -0.00069635466 0.013726011 -0.00016242635 0.0002637613 -0.03301974 0.00071557134
-0.00041689244 -0.030530687 0.00096356217 -0.00021478582 0.031137872 -0.0005736194 0.00075316755 -0.019897519
-0.0009197661 0.0008195924 0.034080435 5.2016738e-05 -0.00021333278 -0.0004670209 -0.000925354 -0.00039068187
-0.06293187 0.00091708166 -6.485975e-05 0.03283035 0.00088994374 0.0007367574 0.14122517 0.00025190928
-0.002517267 0.058381844 0.0007589008 0.009137854 0.020419637 -0.0009595162 0.063269846 0.0020730812
0.00019553817 0.06689028 -0.019604988 0.00018765773 0.08749626 0.11229993 -0.0006504697 0.19523844
-0.045612905 0.0009964334 0.24551998 0.092643276 0.00041167106 0.0008152229 0.31553283 0.00091492874
0.0030397906 0.029387442 -8.936751e-05 0.0171397 0.13866296 0.00045162835 -0.081853546 0.09364293
0.13809788 -0.026507538 0.108089544 0.04018228 -0.052287225 0.0360989 0.053192735 0.017470859
0.13408136 0.044446923 -0.09692233 -0.00073536125 0.19646966 -0.12806931 0.16276331 0.1177496
0.14934008 -0.08272873 -0.3433253 0.06445091 0.102946006 0.0009200932 -0.20465045 0.18191902
0.004209191 0.010981756 -0.15824708 0.037170272 -0.20487233 0.016978065 0.13309976 -0.06865623
3.697807e-05 0.00022747708 -0.00067253225 -0.030234475 -0.0005057464 -0.0001534486 -0.2961708 -0.000815993
-0.0006274679 -0.0054850737 0.00039641454 0.00079179433 0.0027757217 -0.0008939453 -0.00088647107 0.23457524
0.0006956262 -0.00088783196 -0.1512516 -0.0001271695 0.0005952282 -0.00023483182 0.00049474684 0.00040204657
-6.338428e-05 5.531311e-06 4.9769522e-05 -0.014445066 -0.0009641679 -0.00019294299 -0.07450391 0.00055109634
0.03487603 -0.02257584 0.00090431265 0.06013674 -0.008862542 -0.00018937553 0.22684398 0.019559905
-0.00014899099 0.041381046 -0.101512976 0.00076279463 -0.06564061 0.12687221 -0.00016722966 -0.078231595
0.14835607 -0.0008064747 0.058429655 0.14062531 0.0007175198 0.0009865775 0.39264125 -0.0004337503
-0.008216765 0.05008056 0.0006919798 0.023690252 0.08174809 0.00081130833 0.12622334 0.11715602
-0.028394975 -0.009806351 -0.09086125 -0.030449357 0.011588882 -0.0046807593 -0.3099283 -0.025257286
-0.08190696 -0.070694186 0.04327227 -0.0008608772 0.08676568 0.06954272 0.03802206 0.4711445
0.10087706 0.0055242446 -0.1426179 0.0765451 0.01756206 -8.373976e-06 0.031166062 -0.6123327
-0.0035870213 0.02259248 -0.10107586 -0.04747859 0.3664807 0.01596091 0.08613154 0.08476718
0.0036833002 -0.0005543529 0.00088321546 -0.0044031497 -0.00019659496 -0.0008541434 -0.111004986 -0.00044428816
-6.766927e-05 0.055263273 -0.0006940016 0.00048688712 -0.08209924 -0.00030439426 0.00047334697 -0.04153327
0.00017475535 0.0002868426 -0.03453584 -2.2128821e-05 -0.00029289248 5.5290344e-05 0.0005701432 0.0007395116
-0.0034028862 -0.00051438226 0.00031365777 -0.019848924 0.00024803364 -0.0001356044 0.14146824 -0.0008607238
0.107092515 0.03773952 0.00015117657 -0.13474652 0.19343352 0.00025975384 -0.16396107 -0.100812785
0.0005337639 -0.07654409 0.16269518 0.00043589188 -0.01501605 0.05092671 0.00011435617 -0.083311476
-0.18015222 -9.7036966e-05 0.044451553 -0.023886468 0.0006193598 -0.00012969029 -0.12299964 -0.00066173356
-0.007981823 0.08540264 0.00014695729 -0.06390448 0.20809525 -7.898212e-06 -0.14097723 0.15114452

_transform._transforms.1.autoregressive_net.blocks.0.linear_layers.1.bias f4 [32]
00000000: 34de 7b3f 2e0d 97be 0286 c53d ca7e 71bd
00000010: b5ac dabe af51 19bc 7632 59bd 0da3 33be
00000020: ea10 883d ad83 0fbd d038 99bd 7dd1 a73d
00000030: 120f ccbd 21e6 65be 9d98 0f3e 9b4e 0abe
00000040: aaf7 eb3e 4724 983d a7ad c53b b0e2 37be
00000050: c405 9c3d 524f c3bd 7df8 22bd 32cf 29bc
00000060: c9ee 75bd 1137 e0bd 2bab 433c e939 f6bb
00000070: ab92 11bf 32ad 3abe a4a3 d8bd fa7a 6ebe
0.9838593 -0.29502243 0.096447006 -0.058958806 -0.4270989 -0.009357854 -0.05302664 -0.17542668
0.06643851 -0.035037685 -0.07481539 0.081942536 -0.09963812 -0.22451068 0.14023061 -0.13506548
0.4608739 0.07428794 0.006032664 -0.17957568 0.07618287 -0.095366135 -0.03978776 -0.010364341
-0.060042176 -0.10948003 0.011942665 -0.0075142276 -0.5686442 -0.18230131 -0.10578087 -0.232891

_transform._transforms.1.autoregressive_net.blocks.0.linear_layers.1.mask f4 [32, 32]
00000000: 0000 803f 0000 0000 0000 0000 0000 803f
00000010: 0000 0000 0000 0000 0000 803f 0000 0000
00000020: 0000 0000 0000 803f 0000 0000 0000 0000
00000030: 0000 803f 0000 0000 0000 0000 0000 803f
00000040: 0000 0000 0000 0000 0000 803f 0000 0000
00000050: 0000 0000 0000 803f 0000 0000 0000 0000
00000060: 0000 803f 0000 0000 0000 0000 0000 803f
00000070: 0000 0000 0000 0000 0000 803f 0000 0000
00000080: 0000 803f 0000 803f 0000 0000 0000 803f
00000090: 0000 803f 0000 0000 0000 803f 0000 803f
000000a0: 0000 0000 0000 803f 0000 803f 0000 0000
000000b0: 0000 803f 0000 803f 0000 0000 0000 803f
000000c0: 0000 803f 0000 0000 0000 803f 0000 803f
000000d0: 0000 0000 0000 803f 0000 803f 0000 0000
000000e0: 0000 803f 0000 803f 0000 0000 0000 803f
000000f0: 0000 803f 0000 0000 0000 803f 0000 803f
00000100: 0000 803f 0000 803f 0000 803f 0000 803f
00000110: 0000 803f 0000 803f 0000 803f 0000 803f
00000120: 0000 803f 0000 803f 0000 803f 0000 803f
00000130: 0000 803f 0000 803f 0000 803f 0000 803f
00000140: 0000 803f 0000 803f 0000 803f 0000 803f
00000150: 0000 803f 0000 803f 0000 803f 0000 803f
00000160: 0000 803f 0000 803f 0000 803f 0000 803f
00000170: 0000 803f 0000 803f 0000 803f 0000 803f
00000180: 0000 803f 0000 0000 0000 0000 0000 803f
00000190: 0000 0000 0000 0000 0000 803f 0000 0000
000001a0: 0000 0000 0000 803f 0000 0000 0000 0000
000001b0: 0000 803f 0000 0000 0000 0000 0000 803f
000001c0: 0000 0000 0000 0000 0000 803f 0000 0000
000001d0: 0000 0000 0000 803f 0000 0000 0000 0000
000001e0: 0000 803f 0000 0000 0000 0000 0000 803f
000001f0: 0000 0000 0000 0000 0000 803f 0000 0000
00000200: 0000 803f 0000 803f 0000 0000 0000 803f
00000210: 0000 803f 0000 0000 0000 803f 0000 803f
00000220: 0000 0000 0000 803f 0000 803f 0000 0000
00000230: 0000 803f 0000 803f 0000 0000 0000 803f
00000240: 0000 803f 0000 0000 0000 803f 0000 803f
00000250: 0000 0000 0000 803f 0000 803f 0000 0000
00000260: 0000 803f 0000 803f 0000 0000 0000 803f
00000270: 0000 803f 0000 0000 0000 803f 0000 803f
00000280: 0000 803f 0000 803f 0000 803f 0000 803f
00000290: 0000 803f 0000 803f 0000 803f 0000 803f
000002a0: 0000 803f 0000 803f 0000 803f 0000 803f
000002b0: 0000 803f 0000 803f 0000 803f 0000 803f
000002c0: 0000 803f 0000 803f 0000 803f 0000 803f
000002d0: 0000 803f 0000 803f 0000 803f 0000 803f
000002e0: 0000 803f 0000 803f 0000 803f 0000 803f
000002f0: 0000 803f 0000 803f 0000 803f 0000 803f
00000300: 0000 803f 0000 0000 0000 0000 0000 803f
00000310: 0000 0000 0000 0000 0000 803f 0000 0000
00000320: 0000 0000 0000 803f 0000 0000 0000 0000
00000330: 0000 803f 0000 0000 0000 0000 0000 803f
00000340: 0000 0000 0000 0000 0000 803f 0000 0000
00000350: 0000 0000 0000 803f 0000 0000 0000 0000
00000360: 0000 803f 0000 0000 0000 0000 0000 803f
00000370: 0000 0000 0000 0000 0000 803f 0000 0000
00000380: 0000 803f 0000 803f 0000 0000 0000 803f
00000390: 0000 803f 0000 0000 0000 803f 0000 803f
000003a0: 0000 0000 0000 803f 0000 803f 0000 0000
000003b0: 0000 803f 0000 803f 0000 0000 0000 803f
000003c0: 0000 803f 0000 0000 0000 803f 0000 803f
000003d0: 0000 0000 0000 803f 0000 803f 0000 0000
000003e0: 0000 803f 0000 803f 0000 0000 0000 803f
000003f0: 0000 803f 0000 0000 0000 803f 0000 803f
1.0 0.0 0.0 1.0 0.0 0.0 1.0 0.0
0.0 1.0 0.0 0.0 1.0 0.0 0.0 1.0
0.0 0.0 1.0 0.0 0.0 1.0 0.0 0.0
1.0 0.0 0.0 1.0 0.0 0.0 1.0 0.0
1.0 1.0 0.0 1.0 1.0 0.0 1.0 1.0
0.0 1.0 1.0 0.0 1.0 1.0 0.0 1.0
1.0 0.0 1.0 1.0 0.0 1.0 1.0 0.0
1.0 1.0 0.0 1.0 1.0 0.0 1.0 1.0
1.0 1.0 1.0 1.0 1.0 1.0 1.0 1.0
1.0 1.0 1.0 1.0 1.0 1.0 1.0 1.0
1.0 1.0 1.0 1.0 1.0 1.0 1.0 1.0
1.0 1.0 1.0 1.0 1.0 1.0 1.0 1.0
1.0 0.0 0.0 1.0 0.0 0.0 1.0 0.0
0.0 1.0 0.0 0.0 1.0 0.0 0.0 1.0
0.0 0.0 1.0 0.0 0.0 1.0 0.0 0.0
1.0 0.0 0.0 1.0 0.0 0.0 1.0 0.0
1.0 1.0 0.0 1.0 1.0 0.0 1.0 1.0
0.0 1.0 1.0 0.0 1.0 1.0 0.0 1.0
1.0 0.0 1.0 1.0 0.0 1.0 1.0 0.0
1.0 1.0 0.0 1.0 1.0 0.0 1.0 1.0
1.0 1.0 1.0 1.0 1.0 1.0 1.0 1.0
1.0 1.0 1.0 1.0 1.0 1.0 1.0 1.0
1.0 1.0 1.0 1.0 1.0 1.0 1.0 1.0
1.0 1.0 1.0 1.0 1.0 1.0 1.0 1.0
1.0 0.0 0.0 1.0 0.0 0.0 1.0 0.0
0.0 1.0 0.0 0.0 1.0 0.0 0.0 1.0
0.0 0.0 1.0 0.0 0.0 1.0 0.0 0.0
1.0 0.0 0.0 1.0 0.0 0.0 1.0 0.0
1.0 1.0 0.0 1.0 1.0 0.0 1.0 1.0
0.0 1.0 1.0 0.0 1.0 1.0 0.0 1.0
1.0 0.0 1.0 1.0 0.0 1.0 1.0 0.0
1.0 1.0 0.0 1.0 1.0 0.0 1.0 1.0

_transform._transforms.1.autoregressive_net.blocks.1.linear_layers.0.weight f4 [32, 32]
00000000: c338 f23c 22ab b93d 02d2 d93d 03fa 78be
00000010: 9073 8e3d 28cb 96bd 71a8 7abe 3bfa 0abd
00000020: 719f 303e 5b76 d53c 43d1 673d 0d5a 493c
00000030: c0fa 20be 2de4 a83d 4faf acbd 9a3b 563d
00000040: 6057 3dbc 8cd8 cfbc 25b3 18be bca1 23be
00000050: 0750 303e d310 ee3c ef48 fabc 74a1 103e
00000060: deea 2d3d e081 303e 1fdf babd 5ab8 cebc
00000070: af11 0cbe b5e5 2c3e 538c 81bc 6138 af3d
00000080: 69bc 16bf fefa e2bd 2c81 08be 06ca 53be
00000090: 29dc 2dbe e54a 1cbe 440a ac3b f390 f5bd
000000a0: 292c 123e b7aa 493e a989 6b3d f4d0 30be
000000b0: 62f2 493e 192d 033e 630f 283e af2e 99bc
000000c0: c8e2 60be d28c d53d 1298 64bd 9f54 d43d
000000d0: aa64 22be 5d40 2bbd c5ff f23d 9804 073e
000000e0: 0c61 15be f0e3 ebbe abdd d6bd 5b0b 4abe
000000f0: 5386 babe a963 113e 94ba d0bd 37e3 38be
00000100: f981 0cbd ee1f c4bd 2532 1c3e 63a3 983e
00000110: 6a2f e639 f1f0 0c3e 7a64 63be 1854 6ebf
00000120: 5e1a 80bf 593a 95be 4c5f 4cbe 2305 82bd
00000130: 2f88 d63e df9a 00bf de4c f1be dc2b 6abe
00000140: b149 80bf 20c4 b2bf cc73 58bf 578a 2ebf
00000150: 28d8 a2be c3fd d4be 6b98 0b3f dba0 b1bf
00000160: 1351 0cbe 6fa4 153f dcd9 4bbc 4d08 a43d
00000170: d690 2ebe 0bd7 b4be b679 42bf 7ba9 d5be
00000180: 9a37 c9bd f2a2 cabd 6191 043e 1efd d63d
00000190: 8c86 313c 4fdb 79bd 9e70 8abe c987 22be
000001a0: 9a29 d83d 98fd cfbe ade8 08be 9b39 1ebe
000001b0: 5a2e 38be f6ed 68bd 7a13 2cbe 2acc 3cbe
000001c0: 64df 003d 752a e6bd 2f0b f7be ed04 463c
000001d0: 600f 0f3e 287e 8abe af04 463d 3991 9e3d
000001e0: 8f29 ae3d fc50 1b3e 3d3f 2fbe d197 73be
000001f0: 8f1c e63d 0bc6 d53d 22d5 2dbf 3c31 d63d
00000200: e707 65be ffa8 bebd ade2 e7bb d064 06be
00000210: b5c3 9abe 142e 243e 2710 903c 5a2f 67be
00000220: 2de3 98bd 41e1 42be b624 b93c 57fa ceba
00000230: e84e e1be 146c 4dbd 5861 22be c468 d4bd
00000240: c71c 52be b2ca a23d 9df6 f3bd 706a febd
00000250: 8314 efbc 59e2 08bd 39e7 b6bd 97ff 2e3d
00000260: 4cda 4ebd d5f3 0abe 0ab1 6cbd 732c 83bc
00000270: 3b98 7dbe 93d6 a83d 39bb 433d a98b 5ebe
00000280: 020d 3ebe 4e72 62be 9f9a ca3d 4413 61bd
00000290: 9b99 c1bd a56c 0ebe 34e7 96be 3028 46be
000002a0: 23c5 87be 11c6 b2bc 79a9 bf3d 69a6 43be
000002b0: 7e6e 17be 85e4 76b9 4052 c6bd bde2 033e
000002c0: 051a 41be 16f8 a9be 0686 11be 807d 73be
000002d0: 49a5 67be 207c 6ebd 24ad 8f3d 4e77 79be
000002e0: f7c9 d43d 7a71 7c3c 5fa8 04bd 704c d5bd
000002f0: 66ab 80be 7842 81be bc57 09bc de3a 58bd
00000300: f0c4 09be 3827 25be b018 333e 06e4 9cbc
00000310: 25af 02be 7261 1f3e 57e3 77bd 8be9 f43d
00000320: 7216 debd 4a54 d0bd 3e4a 17be c4d5 f43c
00000330: 70ec 05be 8b90 62bd 6959 9fbd 30f9 b5bd
00000340: 8846 f93d 76ff 18be 715b 173d a10a 5b3d
00000350: bb4d 543d 469c 573d d0d1 28bd 72a3 323d
00000360: a877 b7bd 1d30 1ebd a19f 23be c9bd 1abe
00000370: b1e5 a8bd 2219 f0bd d86a debc 4c61 2fbe
00000380: 9159 b3bd 325a 8c3d f388 58bd 9c19 0c3e
00000390: b7c8 bfbd 3763 1cbe 5312 85be af8e dc3a
000003a0: 77df 08be 7c25 0f3e 9c1d 7bbe 5b9b 693d
000003b0: 88fc 06be 0ffd 21be 4b79 c53d b2e1 133d
000003c0: d04d 8cbe 2929 0d3e 6584 f7bd 455a e5be
000003d0: a5d5 f03d 1ce8 c3be cda9 03be 00b6 d3bd
000003e0: 6650 973e f711 3cbe 87fc e1bd c025 51be
000003f0: 2b6d 39be 009c 473d 8fb0 99be 65e0 1abf
0.029568082 0.09065844 0.10635759 -0.24314122 0.069556355 -0.07362968 -0.24478318 -0.033930045
0.17248322 0.026057413 0.056596052 0.012289536 -0.15720654 0.08246646 -0.08431875 0.052302934
-0.011556476 -0.025371812 -0.14912088 -0.15979666 0.17218028 0.029060757 -0.030552356 0.1412409
0.042460315 0.17237043 -0.09124588 -0.02523439 -0.13678621 0.16884501 -0.015813982 0.08555675
-0.5888124 -0.11083029 -0.13330525 -0.20682535 -0.16978516 -0.15262945 0.005250247 -0.119905375
0.14274658 0.19694029 0.05750433 -0.1726721 0.19721368 0.12810172 0.1641212 -0.018699018
-0.2196151 0.1042725 -0.055809088 0.10367703 -0.15858713 -0.04180943 0.118651904 0.13185346
-0.14587802 -0.4607234 -0.104914986 -0.19730894 -0.36430606 0.14198174 -0.10191837 -0.18055426
-0.03430364 -0.095764026 0.15253504 0.29812154 0.00043904345 0.13763787 -0.22206298 -0.93097067
-1.0008047 -0.29146078 -0.19958228 -0.06348636 0.41900775 -0.50236315 -0.47128958 -0.22868294
-1.0022489 -1.3966103 -0.8455169 -0.6817984 -0.3180554 -0.41599855 0.54529446 -1.3877214
-0.13702802 0.5845403 -0.012442078 0.08009396 -0.17047438 -0.35320315 -0.75966966 -0.41730866
-0.09825058 -0.098943606 0.12946083 0.10497497 0.010835301 -0.061000165 -0.27039045 -0.1587211
0.1055481 -0.40623164 -0.13370009 -0.15451662 -0.17986432 -0.056867562 -0.16804305 -0.18437257
0.031463042 -0.11238567 -0.4825072 0.012086135 0.13970709 -0.27049375 0.04834431 0.07742543
0.085040204 0.15167612 -0.17113967 -0.23788382 0.11235916 0.10438164 -0.6790334 0.104586095
-0.22366296 -0.09309577 -0.0070765824 -0.13124394 -0.30227438 0.16033202 0.017585827 -0.22576657
-0.07465205 -0.1903124 0.022600513 -0.001579116 -0.44005513 -0.0501519 -0.15857446 -0.10371545
-0.2051879 0.07948817 -0.11912272 -0.12422645 -0.029184585 -0.033418987 -0.08930821 0.04272422
-0.050501153 -0.13569577 -0.057786025 -0.016012406 -0.24765103 0.08244052 0.04778597 -0.21732964
-0.1855965 -0.22113916 0.09892773 -0.054950014 -0.09453126 -0.13908632 -0.2947327 -0.19351268
-0.2651759 -0.021822961 0.09358496 -0.19106449 -0.14788243 -0.00023545518 -0.09683657 0.12879463
-0.18857582 -0.33197087 -0.14211282 -0.23778343 -0.22621645 -0.058223844 0.07015446 -0.24361917
0.10390084 0.015407914 -0.032387134 -0.1041497 -0.25130767 -0.25246024 -0.008382734 -0.052790515
-0.13454032 -0.16128242 0.17489886 -0.019151699 -0.12762125 0.15564516 -0.060519543 0.11958607
-0.10844125 -0.10172327 -0.14774415 0.029887088 -0.13078475 -0.05531363 -0.077807255 -0.08885419
0.12171656 -0.149412 0.03695244 0.053476933 0.051831942 0.05263927 -0.041215718 0.043612905
-0.089583695 -0.038620103 -0.15978862 -0.1511146 -0.08246935 -0.11723544 -0.027150556 -0.1712696
-0.08757318 0.06853141 -0.05286498 0.13681644 -0.09364455 -0.15272222 -0.25990543 0.0016827191
-0.13366495 0.13979143 -0.24523014 0.057032924 -0.1318227 -0.1581919 0.096422754 0.03610391
-0.27403116 0.13785233 -0.12085799 -0.44795433 0.117594995 -0.38263023 -0.12857743 -0.10337448
0.29553527 -0.18366228 -0.11034494 -0.20424557 -0.1810805 0.048732758 -0.30017516 -0.6049865

_transform._transforms.1.autoregressive_net.blocks.1.linear_layers.0.bias f4 [32]
00000000: 3335 55be 065e 2dbf 1614 33bf 98b5 84be
00000010: 3935 c4be 1725 5bbe 93fe 05be a082 10be
00000020: c4b1 34bf 1ccb 75be 9ce1 4ebe fc9c 85be
00000030: 90b6 48be d6ee 553f 19da 19bf 4c51 96be
00000040: fe1a a3bf a1c2 84bf 1db2 b3be b74c a5be
00000050: 6d7a c6be 4a15 13be fd43 d3bf e2a0 97be
00000060: 61c8 7cbe 177f bfbe e9bb 82be 072d a2be
00000070: 91ab c4be a0bc d1be 9104 90be f2c9 b1be
-0.20821075 -0.67721593 -0.69952524 -0.25919795 -0.38321856 -0.21400867 -0.13085394 -0.1411233
-0.7058375 -0.24003261 -0.2020325 -0.26096332 -0.19600892 0.8356756 -0.60098416 -0.293589
-1.2742612 -1.0371896 -0.35096827 -0.3228509 -0.38765278 -0.1436359 -1.6505123 -0.2961493
-0.24685813 -0.3740165 -0.2553399 -0.31674978 -0.38412145 -0.40964222 -0.28128484 -0.34724385

_transform._transforms.1.autoregressive_net.blocks.1.linear_layers.0.mask f4 [32, 32]
00000000: 0000 803f 0000 0000 0000 0000 0000 803f
00000010: 0000 0000 0000 0000 0000 803f 0000 0000
00000020: 0000 0000 0000 803f 0000 0000 0000 0000
00000030: 0000 803f 0000 0000 0000 0000 0000 803f
00000040: 0000 0000 0000 0000 0000 803f 0000 0000
00000050: 0000 0000 0000 803f 0000 0000 0000 0000
00000060: 0000 803f 0000 0000 0000 0000 0000 803f
00000070: 0000 0000 0000 0000 0000 803f 0000 0000
00000080: 0000 803f 0000 803f 0000 0000 0000 803f
00000090: 0000 803f 0000 0000 0000 803f 0000 803f
000000a0: 0000 0000 0000 803f 0000 803f 0000 0000
000000b0: 0000 803f 0000 803f 0000 0000 0000 803f
000000c0: 0000 803f 0000 0000 0000 803f 0000 803f
000000d0: 0000 0000 0000 803f 0000 803f 0000 0000
000000e0: 0000 803f 0000 803f 0000 0000 0000 803f
000000f0: 0000 803f 0000 0000 0000 803f 0000 803f
00000100: 0000 803f 0000 803f 0000 803f 0000 803f
00000110: 0000 803f 0000 803f 0000 803f 0000 803f
00000120: 0000 803f 0000 803f 0000 803f 0000 803f
00000130: 0000 803f 0000 803f 0000 803f 0000 803f
00000140: 0000 803f 0000 803f 0000 803f 0000 803f
00000150: 0000 803f 0000 803f 0000 803f 0000 803f
00000160: 0000 803f 0000 803f 0000 803f 0000 803f
00000170: 0000 803f 0000 803f 0000 803f 0000 803f
00000180: 0000 803f 0000 0000 0000 0000 0000 803f
00000190: 0000 0000 0000 0000 0000 803f 0000 0000
000001a0: 0000 0000 0000 803f 0000 0000 0000 0000
000001b0: 0000 803f 0000 0000 0000 0000 0000 803f
000001c0: 0000 0000 0000 0000 0000 803f 0000 0000
000001d0: 0000 0000 0000 803f 0000 0000 0000 0000
000001e0: 0000 803f 0000 0000 0000 0000 0000 803f
000001f0: 0000 0000 0000 0000 0000 803f 0000 0000
00000200: 0000 803f 0000 803f 0000 0000 0000 803f
00000210: 0000 803f 0000 0000 0000 803f 0000 803f
00000220: 0000 0000 0000 803f 0000 803f 0000 0000
00000230: 0000 803f 0000 803f 0000 0000 0000 803f
00000240: 0000 803f 0000 0000 0000 803f 0000 803f
00000250: 0000 0000 0000 803f 0000 803f 0000 0000
00000260: 0000 803f 0000 803f 0000 0000 0000 803f
00000270: 0000 803f 0000 0000 0000 803f 0000 803f
00000280: 0000 803f 0000 803f 0000 803f 0000 803f
00000290: 0000 803f 0000 803f 0000 803f 0000 803f
000002a0: 0000 803f 0000 803f 0000 803f 0000 803f
000002b0: 0000 803f 0000 803f 0000 803f 0000 803f
000002c0: 0000 803f 0000 803f 0000 803f 0000 803f
000002d0: 0000 803f 0000 803f 0000 803f 0000 803f
000002e0: 0000 803f 0000 803f 0000 803f 0000 803f
000002f0: 0000 803f 0000 803f 0000 803f 0000 803f
00000300: 0000 803f 0000 0000 0000 0000 0000 803f
00000310: 0000 0000 0000 0000 0000 803f 0000 0000
00000320: 0000 0000 0000 803f 0000 0000 0000 0000
00000330: 0000 803f 0000 0000 0000 0000 0000 803f
00000340: 0000 0000 0000 0000 0000 803f 0000 0000
00000350: 0000 0000 0000 803f 0000 0000 0000 0000
00000360: 0000 803f 0000 0000 0000 0000 0000 803f
00000370: 0000 0000 0000 0000 0000 803f 0000 0000
00000380: 0000 803f 0000 803f 0000 0000 0000 803f
00000390: 0000 803f 0000 0000 0000 803f 0000 803f
000003a0: 0000 0000 0000 803f 0000 803f 0000 0000
000003b0: 0000 803f 0000 803f 0000 0000 0000 803f
000003c0: 0000 803f 0000 0000 0000 803f 0000 803f
000003d0: 0000 0000 0000 803f 0000 803f 0000 0000
000003e0: 0000 803f 0000 803f 0000 0000 0000 803f
000003f0: 0000 803f 0000 0000 0000 803f 0000 803f
1.0 0.0 0.0 1.0 0.0 0.0 1.0 0.0
0.0 1.0 0.0 0.0 1.0 0.0 0.0 1.0
0.0 0.0 1.0 0.0 0.0 1.0 0.0 0.0
1.0 0.0 0.0 1.0 0.0 0.0 1.0 0.0
1.0 1.0 0.0 1.0 1.0 0.0 1.0 1.0
0.0 1.0 1.0 0.0 1.0 1.0 0.0 1.0
1.0 0.0 1.0 1.0 0.0 1.0 1.0 0.0
1.0 1.0 0.0 1.0 1.0 0.0 1.0 1.0
1.0 1.0 1.0 1.0 1.0 1.0 1.0 1.0
1.0 1.0 1.0 1.0 1.0 1.0 1.0 1.0
1.0 1.0 1.0 1.0 1.0 1.0 1.0 1.0
1.0 1.0 1.0 1.0 1.0 1.0 1.0 1.0
1.0 0.0 0.0 1.0 0.0 0.0 1.0 0.0
0.0 1.0 0.0 0.0 1.0 0.0 0.0 1.0
0.0 0.0 1.0 0.0 0.0 1.0 0.0 0.0
1.0 0.0 0.0 1.0 0.0 0.0 1.0 0.0
1.0 1.0 0.0 1.0 1.0 0.0 1.0 1.0
0.0 1.0 1.0 0.0 1.0 1.0 0.0 1.0
1.0 0.0 1.0 1.0 0.0 1.0 1.0 0.0
1.0 1.0 0.0 1.0 1.0 0.0 1.0 1.0
1.0 1.0 1.0 1.0 1.0 1.0 1.0 1.0
1.0 1.0 1.0 1.0 1.0 1.0 1.0 1.0
1.0 1.0 1.0 1.0 1.0 1.0 1.0 1.0
1.0 1.0 1.0 1.0 1.0 1.0 1.0 1.0
1.0 0.0 0.0 1.0 0.0 0.0 1.0 0.0
0.0 1.0 0.0 0.0 1.0 0.0 0.0 1.0
0.0 0.0 1.0 0.0 0.0 1.0 0.0 0.0
1.0 0.0 0.0 1.0 0.0 0.0 1.0 0.0
1.0 1.0 0.0 1.0 1.0 0.0 1.0 1.0
0.0 1.0 1.0 0.0 1.0 1.0 0.0 1.0
1.0 0.0 1.0 1.0 0.0 1.0 1.0 0.0
1.0 1.0 0.0 1.0 1.0 0.0 1.0 1.0

_transform._transforms.1.autoregressive_net.blocks.1.linear_layers.1.weight f4 [32, 32]
00000000: 5a21 383c abeb 78ba 039f 4339 7c5e 72bd
00000010: 5754 c039 5b6a 95b9 2b23 01be 8ef3 f1b9
00000020: 9905 823a 5430 34c0 3602 2d3a 2c41 5b3a
00000030: 14ea 003e bfab 6eba abad 49ba b725 d23c
00000040: 4280 9238 077d 15ba 3160 5fbe b7bb d939
00000050: a687 0539 4445 2abd 6304 4b3a c9e9 683a
00000060: adf1 a53c 9ed8 6aba 3c2f 5db8 459c 09be
00000070: b761 88b9 3c87 21b9 4526 b4bd 7535 cab9
00000080: b964 593b ef6c 8a3e ee0a edb9 dd63 4ebe
00000090: 4aec dbbd 9c50 d939 a578 573d 5de4 10bf
000000a0: 7382 49ba 951d 90bd 79e3 b2bd 6d25 263a
000000b0: df75 d73d 4ff3 e23c eae4 55ba 3b47 07be
000000c0: ca08 3b3e a418 b5b9 3ed6 a83e b886 28bd
000000d0: 8645 a0b9 7be6 8a3e 7b88 e53b 71b5 dbb8
000000e0: 139f 893d 94dc c1bb 50e9 21ba e964 dd3e
000000f0: 26e0 5abe c58d 2fba ab80 8dbd 704c fbbc
00000100: e881 7bbc 4a8e 74bb f0df 0abf e1d0 3d3e
00000110: c318 57be 8f39 b2bd c6ff fabd 3047 1ebf
00000120: a85a 03be d9e0 f23b 5e73 a3bc aa73 923e
00000130: 3c96 e2bd eea3 f53c c4ea a6be ba52 aa3e
00000140: 5188 0bbf 0eac b83e 39ae 733e 36fa e03d
00000150: 09cf 81bb 09de 1abd da40 7bbd 63d5 4d3a
00000160: 32f1 3f3e d16f ac3b 964c 29bd 3cff 123f
00000170: 77f3 043d add0 be3c 0623 db3d 73df efbd
00000180: e037 dcbc 6d23 70ba 2a7c ec37 ef23 783e
00000190: 2e2f 1a3a 28a1 da39 1b36 963d 4405 e1b9
000001a0: 903a 5539 19c5 363c 7c84 48ba 5f1f 4dba
000001b0: 7139 d43d b737 36b9 7aef d8b9 13b3 0dbe
000001c0: fa96 9838 a2e3 9b39 8f27 bebd fc8b 0eba
000001d0: 3eda 22ba c245 e93d 19b1 55ba cb7f e9b9
000001e0: 47d8 bb3d 347c 2b3a cbdd 9cb9 bed6 1bbe
000001f0: cb29 d6b8 c59f 73ba 9c29 9cbd ab8a 663a
00000200: 77e6 c0bb 8a3d d7be 3a3d 193a 5527 56be
00000210: fcd8 19be e445 98b8 ba54 d6bd 59da 11bf
00000220: b7b2 53ba a970 f3bd ea8c a4bd 19ac e5b9
00000230: c801 e03d 936c 3d3d 86d0 743a 9574 023d
00000240: 807c d2be 1140 2a39 f93b 3f3e 5c9d 86bc
00000250: 1b52 36ba a818 163d e998 71bd 2188 b9b9
00000260: 78b2 8abd 3be0 b63b b305 37b9 d414 91be
00000270: d0af 5abe 540a 83ba e2bc 03bd bf72 123d
00000280: e81a a23b f958 8dbd 7cfc 2abf f112 c2bb
00000290: 56fc 173e 8b9f 913d fc13 af3d 43d1 143e
000002a0: e5e6 a9be b76d d0bd 163a e33d 303e bcbe
000002b0: 9368 1abd d232 a03a 8fe4 69be 2f81 7c3a
000002c0: 5ff1 1abf 1495 173b a90b a2be bd6b a73b
000002d0: f17a bdbd 195b 7dbe 8b5a dc3c bc90 f1bd
000002e0: d5af c5bd d92e de3c f72f aa3d 81b9 1b3e
000002f0: aec2 643e efdb 64bc 0c62 be3c 4143 373b
00000300: c4d3 273c c106 67b9 bd26 3f3a 01c4 263d
00000310: 2146 9e39 1190 45ba 9e12 003e 9a7a 473a
00000320: 637e 383a 34b8 c6bc bd96 b839 4c97 2138
00000330: b07f edbd c385 743a dee9 0a3a 050f 273e
00000340: 7bad 823a 8850 313a e1f3 0d3d 0f1f c339
00000350: 19f4 0ab8 6731 223d 07e1 60b9 2afa d2b9
00000360: 2eec 0f3e 941e c0b9 f252 4b3a 8b6c 0e3d
00000370: cfd8 223a fd01 76ba 25cf b3bd d885 5d3a
00000380: a5e4 7dbc 76b5 e8be 5919 e238 ce01 3c3d
00000390: 0888 35be b365 8ab9 97cd e93d 1475 a6bd
000003a0: de5a db39 fb0d 2dbd 080c dbbd 7f36 2739
000003b0: 1c5e fcbd e09e 6e3c 944c fe39 a682 293e
000003c0: 14a5 493f 77ee b438 c518 41be b253 08be
000003d0: e271 67ba e6a7 63bd 32e4 293a 1fb5 68ba
000003e0: 5c84 7e3b e951 ee3c da0a 053a 9897 d63e
000003f0: ab35 bdbc c3a9 58b9 f917 f7bd 5795 1cbe
0.01123842 -0.00094955665 0.00018655886 -0.05917214 0.00036683932 -0.00028498736 -0.12611072 -0.00046148564
0.0009919881 -2.8154497 0.0006599756 0.00083638984 0.12589294 -0.00091045717 -0.000769342 0.02565275
6.9857124e-05 -0.00057025295 -0.21814038 0.00041529324 0.00012734401 -0.041569963 0.0007744489 0.00088849344
0.020256842 -0.000895867 -5.2734496e-05 -0.13438518 -0.00026012745 -0.00015404535 -0.08796362 -0.0003856827
0.0033171608 0.27036235 -0.00045212306 -0.20155282 -0.10738428 0.00041449524 0.05260529 -0.56598455
-0.000768698 -0.07036892 -0.08734793 0.00063379743 0.10520529 0.02770391 -0.0008159416 -0.13210766
0.18265072 -0.0003454137 0.32975954 -0.041144103 -0.00030569377 0.27128968 0.007004795 -0.0001047653
0.06719794 -0.0059161875 -0.0006176429 0.4324105 -0.21374568 -0.00066968455 -0.06909307 -0.030676097
-0.015350796 -0.0037316256 -0.5424795 0.18536712 -0.2100554 -0.08702385 -0.12255816 -0.61827374
-0.12827551 0.007412058 -0.019952472 0.2860387 -0.11063811 0.029985394 -0.32600987 0.3326624
-0.5450488 0.36068767 0.2379693 0.10985224 -0.003961448 -0.037809405 -0.061341144 0.00078519265
0.18744352 0.005262353 -0.041332804 0.57420707 0.03245875 0.023292864 0.107000396 -0.117125414
-0.026882112 -0.0009160552 2.819121e-05 0.24232458 0.0005881664 0.0004170027 0.073345385 -0.00042919267
0.00020335079 0.01115539 -0.0007649136 -0.0007824804 0.103625186 -0.00017377628 -0.00041377154 -0.13837843
7.2760464e-05 0.00029733503 -0.09284889 -0.00054377294 -0.000621233 0.11390258 -0.0008151695 -0.00044536436
0.09172111 0.000654164 -0.00029919887 -0.15218636 -0.000102121 -0.0009293522 -0.07625124 0.0008794467
-0.0058868486 -0.42039138 0.000584561 -0.20913441 -0.15024179 -7.260943e-05 -0.10465379 -0.569738
-0.0008075642 -0.118867226 -0.0803469 -0.00043806506 0.1093784 0.046246123 0.0009338934 0.031849463
-0.4111061 0.0001623633 0.18675222 -0.016432457 -0.00069549837 0.036644608 -0.058983717 -0.00035387374
-0.067723215 0.0055809296 -0.00017454363 -0.28336203 -0.2135613 -0.0009997585 -0.032162555 0.03575396
0.004947055 -0.06901736 -0.6679151 -0.005922668 0.14842352 0.071105085 0.085487336 0.14532952
-0.3318397 -0.101771764 0.110950634 -0.36766195 -0.037697386 0.0012222177 -0.22841094 0.0009632287
-0.60524553 0.002312963 -0.3164952 0.005109279 -0.09251965 -0.24741782 0.026898643 -0.11795184
-0.09652678 0.027121948 0.0830993 0.15207483 0.2233989 -0.013968452 0.023240112 0.002796367
0.01024336 -0.00022032393 0.0007291844 0.040714268 0.00030188359 -0.0007536421 0.12507102 0.00076095166
0.0007037876 -0.024257757 0.00035207524 3.8526297e-05 -0.1159662 0.00093277934 0.0005299131 0.16314323
0.0009969914 0.0006764014 0.03465641 0.0003721644 -3.3129098e-05 0.039597895 -0.00021446134 -0.00040240708
0.14054939 -0.00036643876 0.0007756195 0.034771483 0.00062121166 -0.00093844516 -0.08779744 0.0008450425
-0.015496408 -0.45450944 0.00010781241 0.04590016 -0.17727673 -0.00026397183 0.11416166 -0.081278
0.00041838636 -0.04224966 -0.10695654 0.00015946662 -0.123226374 0.014564246 0.0004850371 0.16553745
0.78767514 8.6274864e-05 -0.18857105 -0.13313177 -0.00088289205 -0.055580042 0.0006480842 -0.0008877087
0.0038836217 0.029091792 0.00050751644 0.41912532 -0.02309688 -0.00020662606 -0.12065119 -0.15291344

_transform._transforms.1.autoregressive_net.blocks.1.linear_layers.1.bias f4 [32]
00000000: 4e0a a13f 61be 833f a2a3 a2be be9f 0c3f
00000010: 300c 923f bb5c 8a3e cf07 143f 3e78 7a3f
00000020: 510c 883d bf65 0f3f 14af 4d3f a3d7 533e
00000030: 579e 113f 194d 763f 7613 673e 7398 173f
00000040: ce01 6fbe 1510 a3be 1ceb 033f 3c79 833f
00000050: 783d 1fbe 86b7 163f 0fbb 713f 0ebc d9be
00000060: 8244 133f 416e 5d3f 3a0e 853e 6363 1b3f
00000070: 4e1d 843f 2f8c 353e f933 56be 78d8 1a3e
1.258127 1.0292474 -0.31765467 0.5493125 1.1409969 0.27023873 0.57824415 0.97839725
0.06642974 0.5601463 0.80345273 0.20687728 0.5688223 0.9621139 0.22566018 0.59216994
-0.23340532 -0.31848207 0.51530623 1.0271373 -0.15550792 0.58873785 0.94426054 -0.42526287
0.5752641 0.8649636 0.25987417 0.6069853 1.0321443 0.17729257 -0.20918263 0.15121639
