model1/epoch=599modello-N_iter6-N_features64-N_BS10000-epochs1000-lr0.001.pth (torch, 918276 bytes, 108 tensors)

_transform._transforms.1.autoregressive_net.initial_layer.weight f4 [64, 4]
000000 3d 47 d3 3d 46 de ee 3e 4a 42 ac 3e e4 9a 46 be
       0.10316322 0.46653956 0.33644325 -0.19395024
000010 d5 87 90 3e ce 05 e2 3e d4 f9 bb 3e 28 6b 90 be
       0.28228632 0.44145054 0.3671404 -0.28206754
000020 1a d1 65 3d bf d0 95 be e0 09 ce be 70 dd fc bd
       0.056107618 -0.29260823 -0.4024191 -0.12346923
000030 9e 53 bf 3c da 66 8b be de ea a0 be 4e bc c4 be
       0.023355301 -0.27226907 -0.3142919 -0.38424915
000040 e5 39 e3 be 0b 7a a3 bd 20 91 fa 3c fe 77 ce 3e
       -0.44380108 -0.07982262 0.03058678 0.40325922
000050 ca 9d 19 be 8e 35 cf be fb 35 68 3b de 32 c4 3e
       -0.15001598 -0.40470546 0.0035432565 0.3832006
000060 90 cd b6 3e c8 f7 a9 bd 40 32 c0 bc 3c 86 ff be
       0.35703707 -0.08299214 -0.023461461 -0.499071
000070 d2 52 05 3f 1d 7e ed be b0 c2 9e 3e 12 86 ee 3e
       0.520795 -0.4638528 0.3100791 0.46586663
000080 0c 93 71 3e 9e 04 e4 3b b3 14 c2 3e 70 ed fd 3d
       0.2359125 0.006958558 0.37906417 0.12398803
000090 07 1e 4e be 26 bc d9 3e 12 eb b5 3e c0 8d 2d bc
       -0.20128642 0.42526358 0.35530907 -0.010592878
0000a0 5a cf dd 3e 0e cb ec be 80 e0 3e 3d bc 69 bb 3e
       0.4332226 -0.46248668 0.04660082 0.36604106
0000b0 89 4d c2 be 11 e5 0a 3d 5e 50 26 ba a8 f8 89 bd
       -0.3794978 0.03390986 -0.0006344373 -0.067368805
0000c0 ef 73 00 3e 4a f4 cb be 18 5c 7e 3e 00 ca b2 3a
       0.12544225 -0.39834815 0.24839818 0.0013640523
0000d0 25 92 9e bd 99 22 f9 be 06 0e dc 3e d0 af 38 3d
       -0.077427186 -0.48659208 0.4297945 0.045089543
0000e0 81 ec db 3e c5 e2 d8 3d 58 d8 e2 3e 30 b5 a3 3e
       0.42953876 0.10590128 0.44305682 0.31974173
0000f0 5f 0a 9d 3e 00 46 d2 3b cc 22 a3 be 60 a3 49 bd
       0.30671975 0.006417036 -0.31862485 -0.049228072
000100 2f 65 32 be 9f 3f a4 3d ce 94 ce be bc 63 70 be
       -0.17421411 0.08019947 -0.40347904 -0.23475546
000110 3e 58 c6 be b5 f4 54 3d 14 93 6f 3e 08 68 1e be
       -0.38739198 0.051991183 0.2339595 -0.15469372
000120 e5 90 98 be c0 54 33 3c 56 37 d0 be d6 9d c0 be
       -0.29798046 0.010945499 -0.40667218 -0.3762042
000130 e9 95 0d be ba fc dc bd 58 f9 2c 3e 1e 70 8c be
       -0.13826717 -0.10790391 0.16891992 -0.2742929
000140 10 54 fe 3d bf 18 05 3e f5 f0 14 3d 1c b5 3d 3e
       0.124183774 0.12997721 0.036362607 0.18526119
000150 80 69 39 be de 71 e7 3e a0 a8 39 bd 66 e3 d9 3e
       -0.18106651 0.4520406 -0.04532683 0.42556304
000160 94 7b 80 be 75 f8 a7 3e 20 f8 b6 3d 7c 0c ce 3e
       -0.25094283 0.32806745 0.08934045 0.402439
000170 cd 3b 90 3e 4e 6d 9d bb d3 e9 1e be 66 bc c6 3e
       0.28170624 -0.00480429 -0.15518884 0.38815612
000180 6e ab 31 3d be 70 87 3e 6c 3e 0c 3e 16 b1 cf 3e
       0.04337638 0.26453203 0.13695687 0.40564793
000190 e5 b3 0c 3e e9 9d b1 be aa c2 b3 3e 3c 09 49 3e
       0.137405 -0.34690788 0.35109454 0.19632429
0001a0 48 91 45 bd f4 b7 71 3e 58 f1 43 be ce f3 f0 be
       -0.048234254 0.23605329 -0.19135034 -0.47061008
0001b0 85 86 63 be 88 74 df 3d 64 93 b2 3e 80 a4 6c 3c
       -0.22219284 0.109108984 0.34878075 0.014443517
0001c0 aa d4 87 be ec 76 f0 3d 32 6e ca be 60 03 60 bd
       -0.26529437 0.117414325 -0.39537197 -0.05469072
0001d0 0f 62 3f 3e 99 10 cb 3c 5d 83 8c bd d0 29 0c 3e
       0.1868975 0.024788188 -0.06860993 0.13687825
0001e0 5a 58 bd be 80 48 7c 3d f8 1d 08 be 5c 6a b3 3e
       -0.3698147 0.06159258 -0.13292682 0.35042083
0001f0 f2 d6 8e 3e 4f 3a 9d be 52 83 a3 be e8 30 fe be
       0.27898365 -0.30708548 -0.31936127 -0.49646688
000200 ea db 9f be a3 c6 9c 3d 20 bb 06 bf b2 e7 b2 3e
       -0.3122247 0.076550744 -0.5262928 0.34942394
000210 dc f1 9c be f4 d0 49 3e cc 34 9b be 00 e4 43 3e
       -0.30653274 0.19708616 -0.30313718 0.19129944
000220 7a cc 0b 3e 82 31 18 bd 6e 5d bb 3e 40 40 a6 3e
       0.1365222 -0.03715659 0.3659472 0.32470894
000230 b5 6e 9b bd 37 02 e6 3e 4f 6e e5 3e a0 f6 84 bd
       -0.07589475 0.44923565 0.4481072 -0.064923525
000240 e7 84 0e 3f a0 95 df be 7e df b9 3e 78 8c d8 3d
       0.5567154 -0.43668842 0.36303324 0.10573667
000250 a0 5d 1d be c6 7d cf 3d 50 87 a0 3d e4 df bf 3e
       -0.15367746 0.10131411 0.07838309 0.37475502
000260 25 b0 c9 3e c5 7e b2 be fe ed e9 3e ba ca 9e be
       0.393922 -0.34862342 0.45689386 -0.31014043
000270 10 79 69 be c2 2f e3 3e 88 a3 40 3e 40 60 ab 3c
       -0.22800088 0.44372374 0.18812382 0.020919919
000280 90 4b 58 be d0 47 ad 3e 18 39 fc be 00 ca f3 3d
       -0.21122575 0.3384385 -0.4926231 0.11903763
000290 ce 1f b9 3c bd 0f e2 3e d1 79 89 3e 24 70 47 be
       0.022598173 0.44152632 0.2685075 -0.19476372
0002a0 f5 54 0b be 38 43 9a 3d 00 50 1d ba c8 54 bc 3d
       -0.13606627 0.07532352 -0.00060009956 0.09195858
0002b0 cf d4 a4 be 37 4c 7c be 54 c9 6a 3e f0 d3 b6 3d
       -0.3219361 -0.24638449 0.22928363 0.089271426
0002c0 08 f7 91 be 66 45 53 3e fa 37 22 3e 16 e4 db 3e
       -0.28508782 0.20631942 0.15841666 0.42947453
0002d0 48 ba 7c 3e 28 57 22 be 38 34 df be 68 4f bc 3d
       0.24680436 -0.1585356 -0.43594527 0.09194833
0002e0 a1 ba ee 3e 95 17 a3 3e 60 72 75 3d f8 43 7c be
       0.46626762 0.3185393 0.05992353 -0.24635303
0002f0 1d da 87 3d e9 4f d3 3e e9 de e6 3e 24 13 48 be
       0.06633399 0.41271904 0.45091942 -0.19538552
000300 8c 8e be 3e 2c 1f a8 be d0 9d 68 bd bc 69 64 be
       0.3721813 -0.32836282 -0.056791127 -0.2230596
000310 85 ab cb be 84 99 59 3e 50 fa 6b be 00 c2 d5 3c
       -0.39779297 0.21249968 -0.23044705 0.026093483
000320 26 21 ee be 09 19 81 3e d8 3d e9 3e 24 1c 99 3e
       -0.46509665 0.25214413 0.45554996 0.29904282
000330 c2 66 11 be c2 e2 c3 3e 94 aa 9f be 00 82 ff 3a
       -0.14199355 0.3825894 -0.31184828 0.0019493699
000340 61 56 9c 3e 7e 9d ca 3e 36 86 a4 3e 98 b7 0b be
       0.30534652 0.39573282 0.32133645 -0.13644254
000350 b0 6c 6c 3e f1 ba 33 3e d1 d5 b0 be 1c 40 7b be
       0.23088336 0.17551781 -0.3453813 -0.24536175
000360 84 10 4b be a2 cb bf 3e 8a 1b 9f 3e f8 b3 d3 3e
       -0.19830519 0.37460047 0.31075698 0.41348243
000370 78 ee 82 bc ac 17 03 bf b0 6c e7 be ee 2b a5 3e
       -0.015982851 -0.51207995 -0.4520011 0.32260078
000380 99 d7 a6 3e 6e 41 9a 3e e4 85 76 3e 20 37 08 3d
       0.32586363 0.30128044 0.24074513 0.033255696
000390 41 b8 fc 3e 72 77 8c be 38 d4 f2 3d b0 21 2c 3d
       0.49359325 -0.2743488 0.11856884 0.042024314
0003a0 e3 b9 3b be 56 cf 1d bc 1c d4 a8 3e 0c cf 56 3e
       -0.18332629 -0.009631952 0.32974327 0.2097742
0003b0 31 c4 77 be 36 03 c6 3e a3 69 cb be 64 fd 01 be
       -0.24195935 0.38674325 -0.39729032 -0.12694317
0003c0 3e 2e 06 3e ae 75 ee 3e 20 27 e2 3d c8 3b ce 3e
       0.13103577 0.46574157 0.11042619 0.40279984
0003d0 ff 89 f7 3e 60 46 e6 be d8 b5 cc bd 84 6f b5 3e
       0.4834747 -0.44975567 -0.099956214 0.35436642
0003e0 ef 7e d1 be 56 74 a5 3d 8c 7a c9 3d c0 72 e9 be
       -0.40917155 0.0807883 0.09837827 -0.4559536
0003f0 28 87 de 3e 2e fb b9 be 96 58 e5 be 2a 15 c1 be
       0.4346249 -0.36324447 -0.44794148 -0.3771146

_transform._transforms.1.autoregressive_net.initial_layer.bias f4 [64]
000000 a3 d6 a4 3c d3 41 1a be d5 ca be 3e 50 46 b6 be
       0.020121878 -0.15064172 0.37264124 -0.3560052
000010 e3 1a 61 3e 01 82 82 3d 2f cb ce be ce 26 d2 3e
       0.21982913 0.063724525 -0.40389392 0.4104523
000020 e3 7f 6c bc 90 9c 4f 3e 45 85 33 be 66 0c 72 be
       -0.014434787 0.20274568 -0.17531307 -0.23637542
000030 f0 fe 6f be c8 b5 fe be df 5d 83 3e 50 87 7a be
       -0.23437095 -0.49748063 0.25657555 -0.2446568
000040 7c 95 47 be 14 77 5c be 7a 6e 74 be 04 45 37 be
       -0.19490618 -0.215298 -0.23870268 -0.17897421
000050 9f a7 88 be 7a cf a0 3d f7 e6 d1 3e 17 b1 87 3e
       -0.26690385 0.07852073 0.40996525 0.26502296
000060 3a 2e f9 3d e6 8c ba 3d 3a 1f a9 3d be e1 b2 3d
       0.1216702 0.091089055 0.08257909 0.08734463
000070 5d 44 d0 3d 01 88 a5 be 34 a6 f3 bd 8f 80 dc be
       0.10169289 -0.32330325 -0.11896935 -0.43066832
000080 9a 82 f7 3d 9f 25 3c 3e b0 d0 16 3c 5b 5b cf 3d
       0.12085457 0.18373726 0.009205028 0.101248465
000090 65 65 37 be 91 ed a3 3e 39 69 c6 bd fb 38 96 bd
       -0.17909773 0.32017186 -0.096880384 -0.07335087
0000a0 26 eb c9 3e ce f3 ad 3e 42 ce 45 3e 3d c3 9d 3e
       0.39437217 0.3397507 0.19316962 0.30813017
0000b0 04 ca 09 be 12 50 8b 3e 21 ad a8 be 73 05 b6 be
       -0.13455969 0.27209526 -0.32944587 -0.35551032
0000c0 c4 30 dc 3c 98 0d bb be 95 ff 09 bd 89 5d 3c 3e
       0.026878722 -0.3653381 -0.033691008 0.18395056
0000d0 34 7e 0b be f4 33 e3 3e 73 d2 af bc d1 4f 86 bc
       -0.13622361 0.44375575 -0.021462655 -0.016395481
0000e0 d3 9c b5 be 7b 3f a8 be 57 06 97 bd 1f a2 16 be
       -0.3547121 -0.32860932 -0.07374256 -0.14710282
0000f0 45 1d 6f 3e 8a ab 10 bd c8 65 f0 3e 51 f8 c8 be
       0.23351009 -0.035319842 0.46952653 -0.3925195

_transform._transforms.1.autoregressive_net.initial_layer.mask f4 [64, 4]
000000 00 00 80 3f 00 00 00 00 00 00 00 00 00 00 00 00
       1.0 0.0 0.0 0.0
000010 00 00 80 3f 00 00 80 3f 00 00 00 00 00 00 00 00
       1.0 1.0 0.0 0.0
000020 00 00 80 3f 00 00 80 3f 00 00 80 3f 00 00 00 00
       1.0 1.0 1.0 0.0
000030 00 00 80 3f 00 00 00 00 00 00 00 00 00 00 00 00
       1.0 0.0 0.0 0.0
000040 00 00 80 3f 00 00 80 3f 00 00 00 00 00 00 00 00
       1.0 1.0 0.0 0.0
000050 00 00 80 3f 00 00 80 3f 00 00 80 3f 00 00 00 00
       1.0 1.0 1.0 0.0
000060 00 00 80 3f 00 00 00 00 00 00 00 00 00 00 00 00
       1.0 0.0 0.0 0.0
000070 00 00 80 3f 00 00 80 3f 00 00 00 00 00 00 00 00
       1.0 1.0 0.0 0.0
000080 00 00 80 3f 00 00 80 3f 00 00 80 3f 00 00 00 00
       1.0 1.0 1.0 0.0
000090 00 00 80 3f 00 00 00 00 00 00 00 00 00 00 00 00
       1.0 0.0 0.0 0.0
0000a0 00 00 80 3f 00 00 80 3f 00 00 00 00 00 00 00 00
       1.0 1.0 0.0 0.0
0000b0 00 00 80 3f 00 00 80 3f 00 00 80 3f 00 00 00 00
       1.0 1.0 1.0 0.0
0000c0 00 00 80 3f 00 00 00 00 00 00 00 00 00 00 00 00
       1.0 0.0 0.0 0.0
0000d0 00 00 80 3f 00 00 80 3f 00 00 00 00 00 00 00 00
       1.0 1.0 0.0 0.0
0000e0 00 00 80 3f 00 00 80 3f 00 00 80 3f 00 00 00 00
       1.0 1.0 1.0 0.0
0000f0 00 00 80 3f 00 00 00 00 00 00 00 00 00 00 00 00
       1.0 0.0 0.0 0.0
000100 00 00 80 3f 00 00 80 3f 00 00 00 00 00 00 00 00
       1.0 1.0 0.0 0.0
000110 00 00 80 3f 00 00 80 3f 00 00 80 3f 00 00 00 00
       1.0 1.0 1.0 0.0
000120 00 00 80 3f 00 00 00 00 00 00 00 00 00 00 00 00
       1.0 0.0 0.0 0.0
000130 00 00 80 3f 00 00 80 3f 00 00 00 00 00 00 00 00
       1.0 1.0 0.0 0.0
000140 00 00 80 3f 00 00 80 3f 00 00 80 3f 00 00 00 00
       1.0 1.0 1.0 0.0
000150 00 00 80 3f 00 00 00 00 00 00 00 00 00 00 00 00
       1.0 0.0 0.0 0.0
000160 00 00 80 3f 00 00 80 3f 00 00 00 00 00 00 00 00
       1.0 1.0 0.0 0.0
000170 00 00 80 3f 00 00 80 3f 00 00 80 3f 00 00 00 00
       1.0 1.0 1.0 0.0
000180 00 00 80 3f 00 00 00 00 00 00 00 00 00 00 00 00
       1.0 0.0 0.0 0.0
000190 00 00 80 3f 00 00 80 3f 00 00 00 00 00 00 00 00
       1.0 1.0 0.0 0.0
0001a0 00 00 80 3f 00 00 80 3f 00 00 80 3f 00 00 00 00
       1.0 1.0 1.0 0.0
0001b0 00 00 80 3f 00 00 00 00 00 00 00 00 00 00 00 00
       1.0 0.0 0.0 0.0
0001c0 00 00 80 3f 00 00 80 3f 00 00 00 00 00 00 00 00
       1.0 1.0 0.0 0.0
0001d0 00 00 80 3f 00 00 80 3f 00 00 80 3f 00 00 00 00
       1.0 1.0 1.0 0.0
0001e0 00 00 80 3f 00 00 00 00 00 00 00 00 00 00 00 00
       1.0 0.0 0.0 0.0
0001f0 00 00 80 3f 00 00 80 3f 00 00 00 00 00 00 00 00
       1.0 1.0 0.0 0.0
000200 00 00 80 3f 00 00 80 3f 00 00 80 3f 00 00 00 00
       1.0 1.0 1.0 0.0
000210 00 00 80 3f 00 00 00 00 00 00 00 00 00 00 00 00
       1.0 0.0 0.0 0.0
000220 00 00 80 3f 00 00 80 3f 00 00 00 00 00 00 00 00
       1.0 1.0 0.0 0.0
000230 00 00 80 3f 00 00 80 3f 00 00 80 3f 00 00 00 00
       1.0 1.0 1.0 0.0
000240 00 00 80 3f 00 00 00 00 00 00 00 00 00 00 00 00
       1.0 0.0 0.0 0.0
000250 00 00 80 3f 00 00 80 3f 00 00 00 00 00 00 00 00
       1.0 1.0 0.0 0.0
000260 00 00 80 3f 00 00 80 3f 00 00 80 3f 00 00 00 00
       1.0 1.0 1.0 0.0
000270 00 00 80 3f 00 00 00 00 00 00 00 00 00 00 00 00
       1.0 0.0 0.0 0.0
000280 00 00 80 3f 00 00 80 3f 00 00 00 00 00 00 00 00
       1.0 1.0 0.0 0.0
000290 00 00 80 3f 00 00 80 3f 00 00 80 3f 00 00 00 00
       1.0 1.0 1.0 0.0
0002a0 00 00 80 3f 00 00 00 00 00 00 00 00 00 00 00 00
       1.0 0.0 0.0 0.0
0002b0 00 00 80 3f 00 00 80 3f 00 00 00 00 00 00 00 00
       1.0 1.0 0.0 0.0
0002c0 00 00 80 3f 00 00 80 3f 00 00 80 3f 00 00 00 00
       1.0 1.0 1.0 0.0
0002d0 00 00 80 3f 00 00 00 00 00 00 00 00 00 00 00 00
       1.0 0.0 0.0 0.0
0002e0 00 00 80 3f 00 00 80 3f 00 00 00 00 00 00 00 00
       1.0 1.0 0.0 0.0
0002f0 00 00 80 3f 00 00 80 3f 00 00 80 3f 00 00 00 00
       1.0 1.0 1.0 0.0
000300 00 00 80 3f 00 00 00 00 00 00 00 00 00 00 00 00
       1.0 0.0 0.0 0.0
000310 00 00 80 3f 00 00 80 3f 00 00 00 00 00 00 00 00
       1.0 1.0 0.0 0.0
000320 00 00 80 3f 00 00 80 3f 00 00 80 3f 00 00 00 00
       1.0 1.0 1.0 0.0
000330 00 00 80 3f 00 00 00 00 00 00 00 00 00 00 00 00
       1.0 0.0 0.0 0.0
000340 00 00 80 3f 00 00 80 3f 00 00 00 00 00 00 00 00
       1.0 1.0 0.0 0.0
000350 00 00 80 3f 00 00 80 3f 00 00 80 3f 00 00 00 00
       1.0 1.0 1.0 0.0
000360 00 00 80 3f 00 00 00 00 00 00 00 00 00 00 00 00
       1.0 0.0 0.0 0.0
000370 00 00 80 3f 00 00 80 3f 00 00 00 00 00 00 00 00
       1.0 1.0 0.0 0.0
000380 00 00 80 3f 00 00 80 3f 00 00 80 3f 00 00 00 00
       1.0 1.0 1.0 0.0
000390 00 00 80 3f 00 00 00 00 00 00 00 00 00 00 00 00
       1.0 0.0 0.0 0.0
0003a0 00 00 80 3f 00 00 80 3f 00 00 00 00 00 00 00 00
       1.0 1.0 0.0 0.0
0003b0 00 00 80 3f 00 00 80 3f 00 00 80 3f 00 00 00 00
       1.0 1.0 1.0 0.0
0003c0 00 00 80 3f 00 00 00 00 00 00 00 00 00 00 00 00
       1.0 0.0 0.0 0.0
0003d0 00 00 80 3f 00 00 80 3f 00 00 00 00 00 00 00 00
       1.0 1.0 0.0 0.0
0003e0 00 00 80 3f 00 00 80 3f 00 00 80 3f 00 00 00 00
       1.0 1.0 1.0 0.0
0003f0 00 00 80 3f 00 00 00 00 00 00 00 00 00 00 00 00
       1.0 0.0 0.0 0.0

_transform._transforms.1.autoregressive_net.blocks.0.linear_layers.0.weight f4 [64, 64]
000000 05 53 65 3d 44 81 10 3d 5c 19 6b 3d 04 f4 ff bd
       0.055987377 0.035279527 0.05739723 -0.12497714
000010 c0 b0 0c 3b 40 1c d1 bb 0b ad 24 3c 1c 9f 20 bd
       0.0021467656 -0.0063815415 0.010051022 -0.03921424
000020 0e af c3 3d 03 5f f9 bc 60 0d b2 bb 48 ea 83 3c
       0.095548734 -0.030440813 -0.0054337233 0.016102925
000030 80 d9 85 bd 48 60 e6 bd 70 92 de 3c f4 92 87 bd
       -0.065356255 -0.11248833 0.027169436 -0.06619826
000040 20 86 93 3b 5e db 9c 3d 84 d7 1a 3f 9c 3f cf bd
       0.004502073 0.076590285 0.604851 -0.101195544
000050 bc d6 f4 3d 7a d6 aa 3c 18 26 bd 3c e0 0e f7 bb
       0.1195502 0.020854224 0.023089454 -0.007539615
000060 5b 10 cb 3d 7a 8e b4 bd 3e 64 d9 3d 79 6b ba 3d
       0.09915229 -0.08816238 0.10614823 0.0910253
000070 70 de 23 bd c8 cf ba 3d d5 11 4a ba a0 48 73 bd
       -0.040007055 0.091216624 -0.00077083457 -0.059395432
000080 54 20 a6 3d 41 35 fa 3d f0 46 91 3d 90 2a fe 3c
       0.08111635 0.122171886 0.070936084 0.031026155
000090 d3 dc fe 3c 80 6b 79 3c 0e 07 bb 3d e2 45 2d bb
       0.031111157 0.015223384 0.09132205 -0.0026439358
0000a0 8e bf d5 bd 2c ce 93 bd 26 c4 25 3b da 67 f2 bd
       -0.10436927 -0.072170585 0.0025293916 -0.11836214
0000b0 fa 4e b6 bd f6 c3 09 be dc be 56 bd 00 c5 e2 ba
       -0.08901782 -0.1345366 -0.05242811 -0.0017301142
0000c0 4d 95 b9 bb ca 6e e9 bd d2 63 c4 3d 09 39 bf 3a
       -0.00566355 -0.113980845 0.09589352 0.0014589141
0000d0 ac c1 fc bd ee 82 e1 bd 29 1d 13 3e 84 a4 9c bd
       -0.123416275 -0.11011301 0.14366592 -0.07648566
0000e0 a8 54 c9 3c a5 ec fa bd 40 1b 79 bd a0 20 c0 3c
       0.0245765 -0.122521676 -0.060817003 0.023453057
0000f0 cc c3 b5 3d c8 76 93 3c ea f0 84 3d 50 e1 63 3b
       0.08875236 0.018000975 0.06491263 0.0034771748
000100 58 e9 17 be a9 75 c8 3c e4 73 a4 3d 9c 2f 1d bd
       -0.14835107 0.024470167 0.08029917 -0.038375482
000110 9e 5b 73 39 a0 f4 7f bc be 4e 30 3d 55 76 16 bc
       0.00023208416 -0.015622288 0.043043844 -0.009183486
000120 46 b4 db 3d 91 f2 fc bc c0 19 6a bd dc 2e ee bd
       0.10727744 -0.030877383 -0.057153463 -0.116300315
000130 bc c6 21 be cd 72 80 bd 0a 10 a6 bd 1c 01 a3 3d
       -0.15798467 -0.062718965 -0.08108528 0.07959196
000140 6a 12 a2 bd 9a 66 83 3d 17 77 21 bf d8 9d 33 be
       -0.079136685 0.06416054 -0.6307234 -0.17540681
000150 56 4c a2 bd 62 d4 a6 bd 2e 4d c2 3d ea 1e 8d bd
       -0.07924716 -0.081459776 0.09487377 -0.06890662
000160 6a 65 76 3d 87 35 81 3d 24 2a 11 3d 1f c8 01 3e
       0.06015531 0.06309038 0.03544058 0.12673996
000170 a7 fd 5c 3c 94 46 19 3d 93 52 2a be 55 51 c3 be
       0.01348821 0.037420824 -0.16633062 -0.3814799
000180 bc 1c d6 bd 2d e0 af bd 08 1a a9 bd 34 6f 3c bd
       -0.104546994 -0.0858768 -0.08256918 -0.04600449
000190 a6 02 9c bb 74 b2 3d 3d 8e 5e ba 3d ea a0 cf bc
       -0.004761058 0.046312764 0.09100066 -0.025345284
0001a0 05 0b 34 bd c8 39 df bd e2 1a e6 39 f6 ba e1 bc
       -0.04395582 -0.10899693 0.00043889048 -0.02755497
0001b0 00 be 06 3c c5 4b 13 3e a4 06 64 bd d8 6d 94 bc
       0.0082240105 0.14384373 -0.055670395 -0.018118784
0001c0 5c 36 f1 3b 88 4e 61 bd 84 cb da 3d 77 c6 8f bd
       0.0073612165 -0.055006534 0.10683349 -0.07020276
0001d0 aa 86 0d be 5e ea d0 bd 46 2c c6 bb 79 d5 03 bd
       -0.13820902 -0.10200952 -0.0060477583 -0.032186005
0001e0 c0 7e 9e 3d 70 54 3a bc 53 13 a1 3d 68 7d 81 bc
       0.077390194 -0.0113726705 0.07865014 -0.015806869
0001f0 db 7a 8f 3d c5 85 96 3e a8 f3 6a 3d ca 06 cc bd
       0.07005855 0.29398933 0.057361275 -0.099622324
000200 b4 7f 7e bc 27 f1 11 3c 10 77 ce 3c b0 a4 31 3d
       -0.0155333765 0.008907593 0.025203258 0.04336995
000210 0d 3a 80 3d b5 c8 18 3c 8e 9c c8 bd 66 51 fc bd
       0.06261072 0.009325196 -0.097954854 -0.12320213
000220 95 d2 76 bd fd 4d a2 bd 35 e6 24 bd 5a 7f 56 bd
       -0.06025942 -0.07925031 -0.040258605 -0.052367546
000230 6b c8 5b bd 91 87 f3 3d 93 92 cd bd 2b f4 11 bc
       -0.05365793 0.118910916 -0.100377224 -0.008908312
000240 5c 3a 28 3d a7 ef 01 be 84 f4 80 bc 2f ef e5 3d
       0.04107128 -0.12689076 -0.015741594 0.11227261
000250 1e 21 dc 3d 37 a2 c3 3d 44 a9 a0 3c 99 98 2f bd
       0.10748504 0.095524244 0.019611962 -0.042870138
000260 b6 34 6c bc 25 d3 2a 3d 96 e9 a5 bc f7 3f 11 3d
       -0.014416864 0.04170527 -0.020252984 0.035461392
000270 6f f6 e8 3d be ca ef bc 28 72 12 3d 50 5e f8 bd
       0.113751285 -0.02927148 0.0357534 -0.12127364
000280 4b a5 b7 bd dc 5c 4f 3d 69 c8 68 bd c9 aa ef 3d
       -0.08967074 0.050625667 -0.05683175 0.117024966
000290 55 af 65 3d 00 e2 85 bd 01 d2 1e bd 9e 2a 08 bd
       0.056075413 -0.06537247 -0.038774494 -0.033243768
0002a0 bb 85 74 3c 4c 2d 4f bd 0b ef 03 3c ac d6 90 bd
       0.014924462 -0.050580308 0.008052598 -0.070721954
0002b0 63 89 d9 bd 4d 1d c8 bd 68 59 cb bb ff da 90 3d
       -0.106219076 -0.09771214 -0.0062057264 0.0707302
0002c0 06 1e 37 bc 08 75 2d bd a1 51 c2 3c 67 66 f4 bd
       -0.011176592 -0.042347938 0.023720564 -0.11933594
0002d0 9c bd b6 3d 75 26 cb 3c a0 7b 2f bc 26 3c 29 bc
       0.08922884 0.024798611 -0.010710627 -0.010329282
0002e0 2f d7 9e 3c fa 00 6e bd d1 b9 00 be cf df 9d bd
       0.019389717 -0.0581064 -0.12570883 -0.07708704
0002f0 6e 40 6d 3d 20 6b cb 3d 50 10 aa 3d 01 6a 93 bd
       0.057922773 0.09932542 0.083038926 -0.07197953
000300 da 52 60 3d 50 ff 01 bd d8 42 63 bd dc 99 50 3d
       0.054766513 -0.031737626 -0.05548367 0.05092798
000310 a0 a9 65 3c f8 0b d1 bc d8 f9 c3 bd 88 6a 31 bd
       0.0140174925 -0.025518402 -0.09569138 -0.043314487
000320 b8 b7 d2 3c 9a 69 d0 bb e0 10 de bb fe 56 96 bd
       0.02572237 -0.006360245 -0.006776914 -0.07340811
000330 6e 4f 04 bc f0 cb 2d bc 20 0f 12 bc 67 f2 df 3c
       -0.008075578 -0.0106077045 -0.008914739 0.027337266
000340 ce da ab 3d 72 c2 bb bd 02 9d 27 3f 68 aa fb bd
       0.08391343 -0.09167947 0.6547395 -0.12288362
000350 ac c7 af bd 27 66 f3 3d a4 5c 5b bd e0 c5 ef bd
       -0.08583006 0.118847184 -0.053555146 -0.117076635
000360 27 e6 a7 bd 80 59 09 bd c0 2b 8d bd cf 91 ef 3c
       -0.08198195 -0.03353262 -0.0689311 0.029244332
000370 10 d4 8d 3c 36 b0 99 3d 56 b7 b4 3d f2 11 c2 bd
       0.017313033 0.07504313 0.08824031 -0.09476079
000380 70 e2 9e bc b6 9f a6 3c 18 e6 11 3d 28 d7 88 bc
       -0.019395083 0.020339828 0.035619825 -0.016704157
000390 3b a7 e1 3c b4 8d 8a 3d cc c0 59 3d b6 2b 13 3e
       0.027545562 0.06765309 0.05316238 0.14372143
0003a0 fe a7 e8 bd 90 0b 17 3d 15 e5 01 3e 80 c8 e5 bd
       -0.11360167 0.03687626 0.12685044 -0.11219883
0003b0 4e d0 85 bd 3a df ea bd 44 ff 5b 3d c8 8b 27 3d
       -0.065338716 -0.11468358 0.053710237 0.04090479
0003c0 ac 58 ac bd b4 d0 a1 3d 7c d7 4e bd f9 ba b4 3d
       -0.0841535 0.07901135 -0.05049847 0.08824725
0003d0 08 ef d8 bd 20 47 08 3d 40 0e e1 3d f0 21 df 3c
       -0.105924666 0.033270955 0.10989046 0.027237862
0003e0 86 f3 f5 bd 6c 95 12 3d 30 0a e4 bd fc bb 31 3d
       -0.12009339 0.03578703 -0.111347556 0.043392166
0003f0 d5 a5 c3 3b c0 73 ff bd b8 a5 e0 bc 20 87 aa 3c
       0.0059706965 -0.124732494 -0.02742277 0.020816386

_transform._transforms.1.autoregressive_net.blocks.0.linear_layers.0.bias f4 [64]
000000 6d f6 8d 3d 05 84 00 3e 48 40 94 bd 12 8c 91 3d
       0.069317676 0.12550361 -0.07238823 0.071067944
000010 3e b8 ed 3d a3 5a c0 bd 62 a4 e6 bd 38 75 84 3d
       0.11607407 -0.093922876 -0.11261822 0.0646767
000020 a7 60 3d bd 00 7d b1 bc 71 6d a0 3d 8a b8 b4 3d
       -0.046234753 -0.02166605 0.07833374 0.088242605
000030 96 b1 c3 3d 24 09 88 3d 8b 87 e9 3d 18 c1 70 3d
       0.09555356 0.066423684 0.11402806 0.0587779
000040 9f 2b ba 3d 33 8e bd bd a6 77 ec bd 4d eb 04 3e
       0.09090351 -0.09255638 -0.11546259 0.12980385
000050 4f db 28 3d 96 bc 8a bd 34 f2 d7 3d c0 dd 2e bd
       0.041224774 -0.06774251 0.105442435 -0.042691946
000060 b8 ff 4d bd 7c b0 f3 3b 75 72 1b 3d 9f 3d ef bd
       -0.0502927 0.00743681 0.03795095 -0.11681675
000070 73 c5 be 3d 30 14 a8 3d 21 7a 5a bd fc 72 dc 3b
       0.09315004 0.082069755 -0.053339127 0.0067275744
000080 3b 80 ca 3c f3 58 ff 3c e8 9b 7a bd 5b e9 d8 3d
       0.024719348 0.031170344 -0.06118384 0.10591384
000090 a3 ca 98 3d 8f 11 c4 bb 76 1d 12 3e 42 1f ea 3d
       0.07460525 -0.0059835385 0.14269051 0.11431743
0000a0 56 14 9a bc 30 1a bb 3d 05 6d ab 3d c0 e7 94 bd
       -0.018808525 0.09135854 0.08370403 -0.07270765
0000b0 9d 1b 59 3d 69 68 4b 3d b3 6e ae 3d 61 d0 90 3d
       0.05300485 0.04966012 0.08517208 0.07070995
0000c0 fd 25 ea 3c 9a 99 e3 3d 00 e0 c6 3d 0b 22 72 bc
       0.028582567 0.111132815 0.09710693 -0.014778624
0000d0 15 f5 0d 3e 0f ae 90 3c f0 41 81 bd 86 01 a4 bd
       0.13863023 0.017661123 -0.06311405 -0.08008103
0000e0 65 a3 02 be 84 2e 4c 3d ed 76 bf 3a cb 1e 18 3e
       -0.12757643 0.04984905 0.0014607586 0.14855497
0000f0 b2 ac 7b bc b0 10 08 3e f7 48 5e 3d d2 96 8f bd
       -0.015360998 0.13287616 0.054268803 -0.070111886

_transform._transforms.1.autoregressive_net.blocks.0.linear_layers.0.mask f4 [64, 64]
000000 00 00 80 3f 00 00 00 00 00 00 00 00 00 00 80 3f
       1.0 0.0 0.0 1.0
000010 00 00 00 00 00 00 00 00 00 00 80 3f 00 00 00 00
       0.0 0.0 1.0 0.0
000020 00 00 00 00 00 00 80 3f 00 00 00 00 00 00 00 00
       0.0 1.0 0.0 0.0
000030 00 00 80 3f 00 00 00 00 00 00 00 00 00 00 80 3f
       1.0 0.0 0.0 1.0
000040 00 00 00 00 00 00 00 00 00 00 80 3f 00 00 00 00
       0.0 0.0 1.0 0.0
000050 00 00 00 00 00 00 80 3f 00 00 00 00 00 00 00 00
       0.0 1.0 0.0 0.0
000060 00 00 80 3f 00 00 00 00 00 00 00 00 00 00 80 3f
       1.0 0.0 0.0 1.0
000070 00 00 00 00 00 00 00 00 00 00 80 3f 00 00 00 00
       0.0 0.0 1.0 0.0
000080 00 00 00 00 00 00 80 3f 00 00 00 00 00 00 00 00
       0.0 1.0 0.0 0.0
000090 00 00 80 3f 00 00 00 00 00 00 00 00 00 00 80 3f
       1.0 0.0 0.0 1.0
0000a0 00 00 00 00 00 00 00 00 00 00 80 3f 00 00 00 00
       0.0 0.0 1.0 0.0
0000b0 00 00 00 00 00 00 80 3f 00 00 00 00 00 00 00 00
       0.0 1.0 0.0 0.0
0000c0 00 00 80 3f 00 00 00 00 00 00 00 00 00 00 80 3f
       1.0 0.0 0.0 1.0
0000d0 00 00 00 00 00 00 00 00 00 00 80 3f 00 00 00 00
       0.0 0.0 1.0 0.0
0000e0 00 00 00 00 00 00 80 3f 00 00 00 00 00 00 00 00
       0.0 1.0 0.0 0.0
0000f0 00 00 80 3f 00 00 00 00 00 00 00 00 00 00 80 3f
       1.0 0.0 0.0 1.0
000100 00 00 80 3f 00 00 80 3f 00 00 00 00 00 00 80 3f
       1.0 1.0 0.0 1.0
000110 00 00 80 3f 00 00 00 00 00 00 80 3f 00 00 80 3f
       1.0 0.0 1.0 1.0
000120 00 00 00 00 00 00 80 3f 00 00 80 3f 00 00 00 00
       0.0 1.0 1.0 0.0
000130 00 00 80 3f 00 00 80 3f 00 00 00 00 00 00 80 3f
       1.0 1.0 0.0 1.0
000140 00 00 80 3f 00 00 00 00 00 00 80 3f 00 00 80 3f
       1.0 0.0 1.0 1.0
000150 00 00 00 00 00 00 80 3f 00 00 80 3f 00 00 00 00
       0.0 1.0 1.0 0.0
000160 00 00 80 3f 00 00 80 3f 00 00 00 00 00 00 80 3f
       1.0 1.0 0.0 1.0
000170 00 00 80 3f 00 00 00 00 00 00 80 3f 00 00 80 3f
       1.0 0.0 1.0 1.0
000180 00 00 00 00 00 00 80 3f 00 00 80 3f 00 00 00 00
       0.0 1.0 1.0 0.0
000190 00 00 80 3f 00 00 80 3f 00 00 00 00 00 00 80 3f
       1.0 1.0 0.0 1.0
0001a0 00 00 80 3f 00 00 00 00 00 00 80 3f 00 00 80 3f
       1.0 0.0 1.0 1.0
0001b0 00 00 00 00 00 00 80 3f 00 00 80 3f 00 00 00 00
       0.0 1.0 1.0 0.0
0001c0 00 00 80 3f 00 00 80 3f 00 00 00 00 00 00 80 3f
       1.0 1.0 0.0 1.0
0001d0 00 00 80 3f 00 00 00 00 00 00 80 3f 00 00 80 3f
       1.0 0.0 1.0 1.0
0001e0 00 00 00 00 00 00 80 3f 00 00 80 3f 00 00 00 00
       0.0 1.0 1.0 0.0
0001f0 00 00 80 3f 00 00 80 3f 00 00 00 00 00 00 80 3f
       1.0 1.0 0.0 1.0
000200 00 00 80 3f 00 00 80 3f 00 00 80 3f 00 00 80 3f
       1.0 1.0 1.0 1.0
000210 00 00 80 3f 00 00 80 3f 00 00 80 3f 00 00 80 3f
       1.0 1.0 1.0 1.0
000220 00 00 80 3f 00 00 80 3f 00 00 80 3f 00 00 80 3f
       1.0 1.0 1.0 1.0
000230 00 00 80 3f 00 00 80 3f 00 00 80 3f 00 00 80 3f
       1.0 1.0 1.0 1.0
000240 00 00 80 3f 00 00 80 3f 00 00 80 3f 00 00 80 3f
       1.0 1.0 1.0 1.0
000250 00 00 80 3f 00 00 80 3f 00 00 80 3f 00 00 80 3f
       1.0 1.0 1.0 1.0
000260 00 00 80 3f 00 00 80 3f 00 00 80 3f 00 00 80 3f
       1.0 1.0 1.0 1.0
000270 00 00 80 3f 00 00 80 3f 00 00 80 3f 00 00 80 3f
       1.0 1.0 1.0 1.0
000280 00 00 80 3f 00 00 80 3f 00 00 80 3f 00 00 80 3f
       1.0 1.0 1.0 1.0
000290 00 00 80 3f 00 00 80 3f 00 00 80 3f 00 00 80 3f
       1.0 1.0 1.0 1.0
0002a0 00 00 80 3f 00 00 80 3f 00 00 80 3f 00 00 80 3f
       1.0 1.0 1.0 1.0
0002b0 00 00 80 3f 00 00 80 3f 00 00 80 3f 00 00 80 3f
       1.0 1.0 1.0 1.0
0002c0 00 00 80 3f 00 00 80 3f 00 00 80 3f 00 00 80 3f
       1.0 1.0 1.0 1.0
0002d0 00 00 80 3f 00 00 80 3f 00 00 80 3f 00 00 80 3f
       1.0 1.0 1.0 1.0
0002e0 00 00 80 3f 00 00 80 3f 00 00 80 3f 00 00 80 3f
       1.0 1.0 1.0 1.0
0002f0 00 00 80 3f 00 00 80 3f 00 00 80 3f 00 00 80 3f
       1.0 1.0 1.0 1.0
000300 00 00 80 3f 00 00 00 00 00 00 00 00 00 00 80 3f
       1.0 0.0 0.0 1.0
000310 00 00 00 00 00 00 00 00 00 00 80 3f 00 00 00 00
       0.0 0.0 1.0 0.0
000320 00 00 00 00 00 00 80 3f 00 00 00 00 00 00 00 00
       0.0 1.0 0.0 0.0
000330 00 00 80 3f 00 00 00 00 00 00 00 00 00 00 80 3f
       1.0 0.0 0.0 1.0
000340 00 00 00 00 00 00 00 00 00 00 80 3f 00 00 00 00
       0.0 0.0 1.0 0.0
000350 00 00 00 00 00 00 80 3f 00 00 00 00 00 00 00 00
       0.0 1.0 0.0 0.0
000360 00 00 80 3f 00 00 00 00 00 00 00 00 00 00 80 3f
       1.0 0.0 0.0 1.0
000370 00 00 00 00 00 00 00 00 00 00 80 3f 00 00 00 00
       0.0 0.0 1.0 0.0
000380 00 00 00 00 00 00 80 3f 00 00 00 00 00 00 00 00
       0.0 1.0 0.0 0.0
000390 00 00 80 3f 00 00 00 00 00 00 00 00 00 00 80 3f
       1.0 0.0 0.0 1.0
0003a0 00 00 00 00 00 00 00 00 00 00 80 3f 00 00 00 00
       0.0 0.0 1.0 0.0
0003b0 00 00 00 00 00 00 80 3f 00 00 00 00 00 00 00 00
       0.0 1.0 0.0 0.0
0003c0 00 00 80 3f 00 00 00 00 00 00 00 00 00 00 80 3f
       1.0 0.0 0.0 1.0
0003d0 00 00 00 00 00 00 00 00 00 00 80 3f 00 00 00 00
       0.0 0.0 1.0 0.0
0003e0 00 00 00 00 00 00 80 3f 00 00 00 00 00 00 00 00
       0.0 1.0 0.0 0.0
0003f0 00 00 80 3f 00 00 00 00 00 00 00 00 00 00 80 3f
       1.0 0.0 0.0 1.0

_transform._transforms.1.autoregressive_net.blocks.0.linear_layers.1.weight f4 [64, 64]
000000 35 fd 3b 3d 4a 16 da 39 86 98 1a 3a 14 e8 34 3d
       0.045895774 0.00041596807 0.00058973616 0.04416664
000010 01 c0 42 38 27 17 b1 39 79 9b b7 b9 1b 24 59 3a
       4.6432022e-05 0.0003377732 -0.00035020316 0.0008283273
000020 bd 94 c7 37 30 3d b0 b8 80 68 fc b9 bb a1 f0 b9
       2.379191e-05 -8.403731e-05 -0.00048143044 -0.00045896866
000030 b1 b2 00 3d 63 f9 25 ba a4 62 20 ba 5b 62 75 ba
       0.031420413 -0.0006331412 -0.0006118214 -0.00093606644
000040 fd 5d cc b9 6f 28 5c 3a d2 b2 67 38 80 4e 48 b9
       -0.0003897994 0.0008398359 5.524123e-05 -0.0001910273
000050 19 34 02 b9 3d 64 82 ba a8 3e 2b ba 4e 28 0c ba
       -0.00012417174 -0.0009948086 -0.0006532469 -0.0005346582
000060 7b f7 c9 bd 52 48 39 3a 01 b0 da 38 71 30 a9 3b
       -0.09861656 0.00070679665 0.00010427833 0.0051632454
000070 bd 8b 35 3a 82 df b0 39 5c 95 9c 3c 81 c7 11 ba
       0.00069254247 0.00033735862 0.019114189 -0.00055610394
000080 b5 68 c9 37 6b 1a 56 3d b3 9d 0a 37 7f 95 00 ba
       2.4009825e-05 0.052271288 8.262158e-06 -0.0004905089
000090 14 46 74 3d 19 25 45 ba 28 95 48 39 4f f9 6e 3d
       0.059637144 -0.00075204816 0.00019129051 0.058343228
0000a0 1b 2f 84 38 79 c7 52 ba dd ba 35 3d 28 13 56 3a
       6.3030246e-05 -0.0008040588 0.04436766 0.00081663067
0000b0 98 76 eb b8 63 35 4f 3d 1f 5e 2f 3a bb 55 57 ba
       -0.00011227763 0.050588023 0.00066897454 -0.0008214374
0000c0 14 82 68 3d 5b d7 43 3a dc b5 d5 b9 09 c5 a2 3d
       0.056764677 0.000747075 -0.00040762022 0.07947738
0000d0 a0 b8 f0 b9 17 cb 34 ba 57 d9 68 bb 92 5c 35 ba
       -0.00045913924 -0.0006896718 -0.0035529935 -0.0006918396
0000e0 9e 35 b1 b9 07 d6 cb 3c bd 93 45 ba 63 6b 49 3a
       -0.0003380002 0.02488233 -0.00075369683 0.00076835434
0000f0 36 3e ae 3c 54 b2 14 ba 4e 5a 8b b8 f6 50 e5 b9
       0.021269899 -0.0005672325 -6.644857e-05 -0.00043738604
000100 e8 64 2a 3d 0e 44 8b 3d 0b 77 dc b9 15 27 a4 3c
       0.041600138 0.0680009 -0.00042050364 0.020038167
000110 86 16 46 3d a6 11 3e ba 53 ee e7 b9 71 30 27 3d
       0.048361324 -0.00072505546 -0.0004423732 0.04081768
000120 98 82 c4 b9 13 e0 52 ba f6 6b 68 bc 6d 02 4e ba
       -0.00037481333 -0.0008044254 -0.014185896 -0.0007858638
000130 ad 59 05 3d c8 14 c1 3c e4 8e 60 ba d1 4c 3f 3a
       0.032556225 0.02356948 -0.0008566214 0.00072975183
000140 b8 ee fd 3c 6b c8 48 b9 b5 54 80 39 a5 e4 b2 3d
       0.030997619 -0.00019148148 0.00024477174 0.08735017
000150 78 65 76 ba 03 59 a0 39 e0 83 3b 3d 38 f3 10 ba
       -0.00093992753 0.00030583897 0.045780063 -0.00055294065
000160 ba 72 03 bb e4 8d 2d 3d 46 5e 3f 39 fa 39 a2 3b
       -0.0020057396 0.042371646 0.00018250299 0.004950759
000170 43 be ef 3c a2 05 43 39 0f 70 87 3b 95 a4 06 3d
       0.029265529 0.00018598748 0.0041332315 0.0328718
000180 f0 8e 04 ba 83 a6 18 3d 09 e0 5c 3a 19 49 15 ba
       -0.00050567 0.037268173 0.0008425718 -0.00056947913
000190 49 34 df 3c a9 a5 a8 3d 5f 2a e1 b9 75 62 08 3d
       0.027246611 0.08234722 -0.00042946913 0.03329702
0001a0 0f 68 8b 3c 75 4f 6c 39 6a d9 2f 3d 96 bf f0 b9
       0.017017392 0.00022536314 0.04293195 -0.0004591911
0001b0 51 11 54 ba aa 55 fa 3c d9 22 9a 3d e0 87 b8 b9
       -0.00080897385 0.030558426 0.07526178 -0.0003519645
0001c0 8e 4a 8f 3c 23 f2 55 3d dc bb 53 3a 19 7a 71 ba
       0.017491605 0.052232873 0.00080770045 -0.00092116144
0001d0 6b c8 87 3c 57 fa 48 39 f6 70 08 bc 63 b3 6f ba
       0.016575059 0.00019166745 -0.008327713 -0.0009143857
0001e0 55 e7 32 39 f8 20 61 3c 4b 0f 0c 3d c9 ba 87 b9
       0.00017061581 0.0137407705 0.034194272 -0.00025888372
0001f0 55 f7 6d 3a dc ba 16 3d da a7 2a ba 7c 14 e6 b5
       0.0009077688 0.036799297 -0.0006509997 -1.7142297e-06
000200 6a 98 89 bc 7e bc 14 b9 3d 6f 76 bb 4a 00 a8 bc
       -0.01679631 -0.00014184599 -0.0037602924 -0.02050795
000210 cb 44 49 bd 8d d1 e9 ba 59 83 42 ba 34 d5 31 bd
       -0.04913787 -0.001783894 -0.0007420085 -0.043416217
000220 be 70 be b9 19 30 5e 3a 83 63 16 bd a1 95 16 bd
       -0.00036323623 0.0008475795 -0.036715996 -0.03676379
000230 a7 67 92 bc 2b 14 ad bc 8f 76 ab bc 01 a0 42 3a
       -0.01787169 -0.02112778 -0.020930557 0.0007424355
000240 cb 99 69 bd f6 14 40 3d d2 f4 68 3a e9 99 06 bd
       -0.057031434 0.04689499 0.0008886579 -0.032861624
000250 4a 9e 23 bd a5 4a f1 39 c2 0b eb bc 4d b7 71 3a
       -0.039945878 0.00046022717 -0.02869213 0.00092207344
000260 1f 05 62 3b d7 2b 34 bd be 1e 2a 3c d3 7c 16 3b
       0.0034487916 -0.04398712 0.010383306 0.0022962585
000270 51 6c be bc 91 e8 5b bd 3c 2c 91 bc 48 48 a0 bc
       -0.023245009 -0.05368859 -0.017721288 -0.019565716
000280 d8 3e bb 3b 24 e9 5b bc 2a a0 33 ba 39 e6 3f 3b
       0.0057142787 -0.013422284 -0.00068521744 0.002928151
000290 6a 96 f6 bc ea 0c b6 bc b6 5a b2 bd 33 8a bc bc
       -0.03010102 -0.022222955 -0.08708708 -0.023015117
0002a0 a2 ab 50 bc 65 32 d3 bc 34 16 96 bc 59 59 9d 37
       -0.012736233 -0.025780866 -0.018321134 1.8757464e-05
0002b0 2c 84 3d bd 42 2d bd bc 4a e0 74 bc 42 8d 3d 3d
       -0.046268627 -0.02309287 -0.014946053 0.046277292
0002c0 2a 3a c1 bc 56 42 d0 bc 39 aa 36 3e ff e5 eb bc
       -0.023587305 -0.025422256 0.17838372 -0.028796194
0002d0 dd f7 c4 bc 31 ba 8b bd 10 2b 25 ba 32 18 56 38
       -0.024043972 -0.068226226 -0.00063006673 5.104411e-05
0002e0 7e 5a ef 3b 5f e7 70 bc 1e 46 51 bd 1f 18 5a 3e
       0.0073044887 -0.014703601 -0.05109226 0.21298264
0002f0 86 54 94 bc 4a 79 8f bc 8c bd 68 bc ee 92 89 39
       -0.01810671 -0.01751389 -0.014205348 0.00026240147
000300 3b 06 5f bd 5f 00 a2 b9 63 f8 06 39 4b b5 81 bd
       -0.0544493 -0.00030899324 0.00012871767 -0.06333407
000310 59 79 fd 39 bb fb be b9 2e 19 62 ba 19 4a e6 b9
       0.00048346331 -0.00036427178 -0.0008624968 -0.00043924226
000320 fc cf 16 ba c5 3a 8c 39 f0 1b a1 39 ec 1d 33 b9
       -0.0005753038 0.00026746668 0.00030729128 -0.00017081917
000330 df a1 23 bd b5 a9 12 3a 28 81 7e b8 ab 31 4e 38
       -0.039949294 0.00055947463 -6.0678605e-05 4.9160484e-05
000340 7f 4c 01 ba 26 72 67 3a 69 51 8c 38 4e fc a1 b9
       -0.0004932358 0.000882896 6.690884e-05 -0.00030896295
000350 50 1f a8 39 0b 1f ef 39 fa ca 2b ba 65 d9 ce 39
       0.00032066787 0.0004560876 -0.0006553378 0.00039453353
000360 f6 d6 e3 3d 21 a8 18 ba 6b 01 08 ba e4 61 01 3c
       0.11124985 -0.0005823393 -0.00051881996 0.007896874
000370 57 d8 ce b9 2a 82 3f 3a 13 44 54 bd 6d 9f a7 b9
       -0.00039452568 0.0007305468 -0.051822733 -0.00031971504
000380 42 6d 13 3a c6 c7 89 bd 96 9d 83 39 01 10 c1 b8
       0.00056238857 -0.06727557 0.00025103678 -9.205938e-05
000390 91 e9 9a bd 83 58 06 ba cd 6b 34 ba f9 31 8e bd
       -0.075640805 -0.00051248836 -0.00068825186 -0.06943125
0003a0 dc 27 58 ba 2e 0a ec b8 02 aa 51 bd 09 68 30 39
       -0.00082456856 -0.00011255253 -0.051187523 0.00016823424
0003b0 e8 dc 38 3a b3 d5 8d bd 63 e2 77 ba 4c 97 55 39
       0.00070519606 -0.069255255 -0.00094560365 0.00020369625
0003c0 f6 83 95 bd 13 2b be b8 05 dc b8 b9 61 00 cb bd
       -0.0730056 -9.067929e-05 -0.00035259142 -0.09912182
0003d0 5b d4 21 39 f6 0c 34 ba 5f 4a a8 bb 94 e4 3c ba
       0.00015433265 -0.00068683864 -0.005135819 -0.00072056917
0003e0 67 e4 17 ba 04 ff 41 bd e6 33 32 3a 86 9f 46 3a
       -0.00057942275 -0.047362342 0.00067978946 0.00075768714
0003f0 7a c2 74 bd b5 2c 24 39 88 04 8b 39 e2 32 aa b8
       -0.05975578 0.00015656913 0.00026515522 -8.115709e-05

_transform._transforms.1.autoregressive_net.blocks.0.linear_layers.1.bias f4 [64]
000000 19 78 df 3c 85 74 19 3d df d4 a7 bc 71 92 b2 bc
       0.027278947 0.037464637 -0.020487247 -0.021798344
000010 1a 4a a0 bc 29 b1 3f 3c 0f b2 09 3d d0 6f 00 3d
       -0.019566584 0.011699953 0.033617076 0.031356633
000020 41 61 f7 bb a8 d2 f9 bc 0d e6 d7 bc 91 42 37 3c
       -0.0075494354 -0.030495957 -0.026354814 0.011185304
000030 7f df 95 bc 0d 66 de bc c3 0d f3 bb 60 a8 ab 3c
       -0.018295048 -0.027148271 -0.007417412 0.02095431
000040 26 91 07 bd 19 32 2e 3d d8 d9 20 bd 0d a2 02 3d
       -0.03309741 0.042528246 -0.039270252 0.031892825
000050 b3 fc af 3c 8a 22 8f bc db 4b 4d 3c d9 5d 35 3c
       0.021482801 -0.017472524 0.012530292 0.011069738
000060 c6 f0 85 3c 84 c8 25 3c 33 14 c7 39 47 3b 70 3c
       0.016350161 0.010118607 0.00037971287 0.01466257
000070 ff 41 57 bc f9 60 83 bc 2b fc 88 bd 06 d8 2f 3d
       -0.013138293 -0.016037451 -0.06688722 0.042930625
000080 1c 03 81 3c fa 0c c9 3c 5a cb 29 bd 90 42 ed bb
       0.015748553 0.02454232 -0.041453697 -0.007240601
000090 77 d9 93 bc 19 d4 1d bd be 3b 0d 3c e0 af d5 3b
       -0.018048031 -0.03853235 0.008620201 0.00652121
0000a0 b0 93 af bc 7a 58 8c bc bc 83 f2 bc df 22 00 bd
       -0.021432728 -0.017132033 -0.029603831 -0.031283256
0000b0 8c 03 0e 3d 20 43 02 3d 9f 25 ff bc 3d f4 05 bd
       0.03467135 0.031802297 -0.031145869 -0.032703627
0000c0 54 0a d2 3c 51 90 ad 3c 9d df 90 3c 73 0b 25 bc
       0.02563969 0.02118698 0.017684752 -0.0100735305
0000d0 88 9d 2d bc 93 de 06 3c 12 3d 9c 3c 8b 52 96 bc
       -0.01059664 0.008231777 0.01907209 -0.018349906
0000e0 12 eb 98 bc d7 77 30 3c 99 a9 c4 3c 6a 2e b9 3c
       -0.018666778 0.01077076 0.024006652 0.02260514
0000f0 ac e6 b3 bc ff 69 f5 bc 34 fc 61 3c 39 6c 5e bc
       -0.021960579 -0.02995777 0.01379304 -0.013575607

_transform._transforms.1.autoregressive_net.blocks.0.linear_layers.1.mask f4 [64, 64]
000000 00 00 80 3f 00 00 00 00 00 00 00 00 00 00 80 3f
       1.0 0.0 0.0 1.0
000010 00 00 00 00 00 00 00 00 00 00 80 3f 00 00 00 00
       0.0 0.0 1.0 0.0
000020 00 00 00 00 00 00 80 3f 00 00 00 00 00 00 00 00
       0.0 1.0 0.0 0.0
000030 00 00 80 3f 00 00 00 00 00 00 00 00 00 00 80 3f
       1.0 0.0 0.0 1.0
000040 00 00 00 00 00 00 00 00 00 00 80 3f 00 00 00 00
       0.0 0.0 1.0 0.0
000050 00 00 00 00 00 00 80 3f 00 00 00 00 00 00 00 00
       0.0 1.0 0.0 0.0
000060 00 00 80 3f 00 00 00 00 00 00 00 00 00 00 80 3f
       1.0 0.0 0.0 1.0
000070 00 00 00 00 00 00 00 00 00 00 80 3f 00 00 00 00
       0.0 0.0 1.0 0.0
000080 00 00 00 00 00 00 80 3f 00 00 00 00 00 00 00 00
       0.0 1.0 0.0 0.0
000090 00 00 80 3f 00 00 00 00 00 00 00 00 00 00 80 3f
       1.0 0.0 0.0 1.0
0000a0 00 00 00 00 00 00 00 00 00 00 80 3f 00 00 00 00
       0.0 0.0 1.0 0.0
0000b0 00 00 00 00 00 00 80 3f 00 00 00 00 00 00 00 00
       0.0 1.0 0.0 0.0
0000c0 00 00 80 3f 00 00 00 00 00 00 00 00 00 00 80 3f
       1.0 0.0 0.0 1.0
0000d0 00 00 00 00 00 00 00 00 00 00 80 3f 00 00 00 00
       0.0 0.0 1.0 0.0
0000e0 00 00 00 00 00 00 80 3f 00 00 00 00 00 00 00 00
       0.0 1.0 0.0 0.0
0000f0 00 00 80 3f 00 00 00 00 00 00 00 00 00 00 80 3f
       1.0 0.0 0.0 1.0
000100 00 00 80 3f 00 00 80 3f 00 00 00 00 00 00 80 3f
       1.0 1.0 0.0 1.0
000110 00 00 80 3f 00 00 00 00 00 00 80 3f 00 00 80 3f
       1.0 0.0 1.0 1.0
000120 00 00 00 00 00 00 80 3f 00 00 80 3f 00 00 00 00
       0.0 1.0 1.0 0.0
000130 00 00 80 3f 00 00 80 3f 00 00 00 00 00 00 80 3f
       1.0 1.0 0.0 1.0
000140 00 00 80 3f 00 00 00 00 00 00 80 3f 00 00 80 3f
       1.0 0.0 1.0 1.0
000150 00 00 00 00 00 00 80 3f 00 00 80 3f 00 00 00 00
       0.0 1.0 1.0 0.0
000160 00 00 80 3f 00 00 80 3f 00 00 00 00 00 00 80 3f
       1.0 1.0 0.0 1.0
000170 00 00 80 3f 00 00 00 00 00 00 80 3f 00 00 80 3f
       1.0 0.0 1.0 1.0
000180 00 00 00 00 00 00 80 3f 00 00 80 3f 00 00 00 00
       0.0 1.0 1.0 0.0
000190 00 00 80 3f 00 00 80 3f 00 00 00 00 00 00 80 3f
       1.0 1.0 0.0 1.0
0001a0 00 00 80 3f 00 00 00 00 00 00 80 3f 00 00 80 3f
       1.0 0.0 1.0 1.0
0001b0 00 00 00 00 00 00 80 3f 00 00 80 3f 00 00 00 00
       0.0 1.0 1.0 0.0
0001c0 00 00 80 3f 00 00 80 3f 00 00 00 00 00 00 80 3f
       1.0 1.0 0.0 1.0
0001d0 00 00 80 3f 00 00 00 00 00 00 80 3f 00 00 80 3f
       1.0 0.0 1.0 1.0
0001e0 00 00 00 00 00 00 80 3f 00 00 80 3f 00 00 00 00
       0.0 1.0 1.0 0.0
0001f0 00 00 80 3f 00 00 80 3f 00 00 00 00 00 00 80 3f
       1.0 1.0 0.0 1.0
000200 00 00 80 3f 00 00 80 3f 00 00 80 3f 00 00 80 3f
       1.0 1.0 1.0 1.0
000210 00 00 80 3f 00 00 80 3f 00 00 80 3f 00 00 80 3f
       1.0 1.0 1.0 1.0
000220 00 00 80 3f 00 00 80 3f 00 00 80 3f 00 00 80 3f
       1.0 1.0 1.0 1.0
000230 00 00 80 3f 00 00 80 3f 00 00 80 3f 00 00 80 3f
       1.0 1.0 1.0 1.0
000240 00 00 80 3f 00 00 80 3f 00 00 80 3f 00 00 80 3f
       1.0 1.0 1.0 1.0
000250 00 00 80 3f 00 00 80 3f 00 00 80 3f 00 00 80 3f
       1.0 1.0 1.0 1.0
000260 00 00 80 3f 00 00 80 3f 00 00 80 3f 00 00 80 3f
       1.0 1.0 1.0 1.0
000270 00 00 80 3f 00 00 80 3f 00 00 80 3f 00 00 80 3f
       1.0 1.0 1.0 1.0
000280 00 00 80 3f 00 00 80 3f 00 00 80 3f 00 00 80 3f
       1.0 1.0 1.0 1.0
000290 00 00 80 3f 00 00 80 3f 00 00 80 3f 00 00 80 3f
       1.0 1.0 1.0 1.0
0002a0 00 00 80 3f 00 00 80 3f 00 00 80 3f 00 00 80 3f
       1.0 1.0 1.0 1.0
0002b0 00 00 80 3f 00 00 80 3f 00 00 80 3f 00 00 80 3f
       1.0 1.0 1.0 1.0
0002c0 00 00 80 3f 00 00 80 3f 00 00 80 3f 00 00 80 3f
       1.0 1.0 1.0 1.0
0002d0 00 00 80 3f 00 00 80 3f 00 00 80 3f 00 00 80 3f
       1.0 1.0 1.0 1.0
0002e0 00 00 80 3f 00 00 80 3f 00 00 80 3f 00 00 80 3f
       1.0 1.0 1.0 1.0
0002f0 00 00 80 3f 00 00 80 3f 00 00 80 3f 00 00 80 3f
       1.0 1.0 1.0 1.0
000300 00 00 80 3f 00 00 00 00 00 00 00 00 00 00 80 3f
       1.0 0.0 0.0 1.0
000310 00 00 00 00 00 00 00 00 00 00 80 3f 00 00 00 00
       0.0 0.0 1.0 0.0
000320 00 00 00 00 00 00 80 3f 00 00 00 00 00 00 00 00
       0.0 1.0 0.0 0.0
000330 00 00 80 3f 00 00 00 00 00 00 00 00 00 00 80 3f
       1.0 0.0 0.0 1.0
000340 00 00 00 00 00 00 00 00 00 00 80 3f 00 00 00 00
       0.0 0.0 1.0 0.0
000350 00 00 00 00 00 00 80 3f 00 00 00 00 00 00 00 00
       0.0 1.0 0.0 0.0
000360 00 00 80 3f 00 00 00 00 00 00 00 00 00 00 80 3f
       1.0 0.0 0.0 1.0
000370 00 00 00 00 00 00 00 00 00 00 80 3f 00 00 00 00
       0.0 0.0 1.0 0.0
000380 00 00 00 00 00 00 80 3f 00 00 00 00 00 00 00 00
       0.0 1.0 0.0 0.0
000390 00 00 80 3f 00 00 00 00 00 00 00 00 00 00 80 3f
       1.0 0.0 0.0 1.0
0003a0 00 00 00 00 00 00 00 00 00 00 80 3f 00 00 00 00
       0.0 0.0 1.0 0.0
0003b0 00 00 00 00 00 00 80 3f 00 00 00 00 00 00 00 00
       0.0 1.0 0.0 0.0
0003c0 00 00 80 3f 00 00 00 00 00 00 00 00 00 00 80 3f
       1.0 0.0 0.0 1.0
0003d0 00 00 00 00 00 00 00 00 00 00 80 3f 00 00 00 00
       0.0 0.0 1.0 0.0
0003e0 00 00 00 00 00 00 80 3f 00 00 00 00 00 00 00 00
       0.0 1.0 0.0 0.0
0003f0 00 00 80 3f 00 00 00 00 00 00 00 00 00 00 80 3f
       1.0 0.0 0.0 1.0

_transform._transforms.1.autoregressive_net.blocks.1.linear_layers.0.weight f4 [64, 64]
000000 8b d2 c9 3d 16 a2 b6 3d 12 65 83 bd d4 e5 9e bd
       0.09854611 0.08917634 -0.06415762 -0.0775868
000010 86 f1 e2 3d 12 36 ff bd 52 02 0b 3e 86 6f e9 3d
       0.11081223 -0.12461485 0.13575104 0.113982245
000020 c6 65 8e bd c0 7b 19 bd 78 7d ee 3c 80 97 bb bd
       -0.069530055 -0.037471533 0.029112563 -0.09159756
000030 84 c2 36 bd 00 a9 e5 bc f6 fd f2 3d b9 35 a1 bd
       -0.0446191 -0.028034687 0.118648455 -0.07871575
000040 e0 b7 cf 3d 6e 2c fa bd b3 b6 86 3e 4c e8 7a 3d
       0.10142493 -0.122155055 0.26311263 0.06125669
000050 40 e4 a2 3d 4d c5 17 bd e0 42 ef bc 78 1f e5 bd
       0.079536915 -0.037053395 -0.029206693 -0.11187643
000060 fa ed 1f 3d 1a 8f 94 3d 00 8c d6 39 31 63 08 3e
       0.03904531 0.07253857 0.0004092157 0.13319089
000070 b0 89 c6 bc 7a a3 cf 3d 8e ce 82 3d 6c 48 c1 bd
       -0.024235576 0.101386026 0.063870534 -0.094376415
000080 90 e0 c2 bc 99 4b ab bb a4 54 5e 3d 2e 25 e0 bd
       -0.02378872 -0.005227518 0.05427994 -0.109445915
000090 74 fb 38 3d 96 74 e0 bd 4a e2 e6 bd bb 91 e4 3d
       0.04516168 -0.10959737 -0.1127363 0.111606084
0000a0 60 12 ec 3b 10 10 7b 3c 71 d3 88 3c 00 02 42 3a
       0.007204339 0.015323654 0.016702386 0.0007400811
0000b0 58 8b 9d 3c 86 3e 99 3d 20 d4 cb bc 08 8f 93 3c
       0.019231483 0.074826285 -0.024881423 0.018012539
0000c0 59 a4 ef 3d c6 1c ae 3d 88 82 d4 3d fa 91 ad 3d
       0.11701269 0.08501582 0.10376459 0.084751084
0000d0 5e 64 eb bd 28 f7 fe 3c 74 42 60 bd 50 2d 20 bd
       -0.11493753 0.031123713 -0.054750875 -0.039105713
0000e0 f0 fe 82 3d c1 80 bc 3b a0 b6 4e 3c 42 96 e5 bd
       0.06396282 0.0057526533 0.012616783 -0.112103
0000f0 d0 2f 53 bd e8 3a 19 bd ac ab 40 3d bc c3 0f 3e
       -0.05155927 -0.037409693 0.04703872 0.1403951
000100 ab c8 f6 3d 1c 43 08 3c b2 2d e1 3d c0 cd 3f 3d
       0.12049993 0.008316781 0.10995044 0.046827078
000110 cc 4a 4d bd 28 17 a2 3d b3 3e 1c 3d c3 9b fa 3d
       -0.05012016 0.07914573 0.038145732 0.122367404
000120 0e 3b 8b 3d 05 80 0f 3d fc 97 4a be 8c 7a 16 3d
       0.06798373 0.0350342 -0.1978454 0.036737964
000130 a3 9a e4 bd a4 a6 d1 be b4 18 4f bd e8 8c d8 3b
       -0.11162307 -0.4094745 -0.050560668 0.006608594
000140 d4 c8 6d 3d 0c ea 75 3d 0e 29 a2 bc 5e 48 5c bd
       0.058052853 0.060037658 -0.019794967 -0.053779952
000150 2e bf 81 3d f9 0c c5 3c 79 2e 89 bd e8 56 fe 3d
       0.06335293 0.024054037 -0.06698317 0.1241892
000160 6f ab 92 bd 89 70 98 3c c8 aa cc 3c 10 88 fc bd
       -0.071616046 0.018608348 0.024983779 -0.12330639
000170 b9 77 90 bd 50 db cd bd bd 8e 1e be b9 78 ce be
       -0.07054085 -0.10051596 -0.15484138 -0.4032648
000180 0e 7a d8 3d 9c 12 7d bd 84 4d 76 bd 00 c8 86 ba
       0.10570155 -0.061785325 -0.06013252 -0.0010282993
000190 1f a3 15 be b4 e7 eb 3c 70 e7 ba 3d 40 89 97 bd
       -0.14613007 0.028797008 0.091261744 -0.07399225
0001a0 92 65 e0 bd ae cb de 3d a4 2a e4 3d 56 c3 eb 3d
       -0.10956873 0.108786926 0.111409456 0.11511867
0001b0 5c c5 f7 3d c4 31 03 3e f2 e6 a2 3d 14 84 b6 bd
       0.1209819 0.12811953 0.079542056 -0.08911911
0001c0 dc 47 b0 bd a4 fa dc bb 5c 75 bf bd 67 61 d7 bd
       -0.08607456 -0.006743746 -0.093485564 -0.10516625
0001d0 95 15 89 3d 34 7a 9d bd ad 59 5f 3d d6 16 47 3c
       0.066935696 -0.07689324 0.05452888 0.012151441
0001e0 6c bc ca 3d 4f 55 a0 bc b0 79 6e bd e4 3f 88 bd
       0.0989922 -0.019571928 -0.05822152 -0.06652811
0001f0 c0 af db 3d a8 e5 ca 3e 60 e9 f6 3d 6b 3c 8b 3d
       0.10726881 0.3962834 0.120562315 0.06798633
000200 8e 20 0c 3e 2a 2d 64 bb ad 25 26 be a6 db e6 bd
       0.13684294 -0.003481696 -0.1622531 -0.11272363
000210 b0 e4 38 3d f5 ab a2 bd 5f 69 0a 3e b8 58 bf 3d
       0.04513997 -0.079429545 0.13516758 0.09343094
000220 c6 3c c0 3d 25 d0 89 bc 7f 6d 46 be 30 be 72 be
       0.093865916 -0.016822884 -0.19377707 -0.23705363
000230 9f 18 b0 3c 3d 11 b1 be 22 1b 42 3d c9 4f 9f bc
       0.021496115 -0.34583464 0.047389157 -0.019447224
000240 9c 2c a4 bd d1 e5 f0 bc 9e 1b ec be 4b 2c 40 be
       -0.08016321 -0.02940646 -0.4611482 -0.18766896
000250 8f b6 64 3d 78 cf a5 bd 49 57 cc bd 33 06 ca bd
       0.055838164 -0.08096212 -0.09977586 -0.09864464
000260 5e cb cd bd de 26 cb bc b2 44 d6 bc 91 85 1b be
       -0.10048555 -0.024798807 -0.026155803 -0.1518767
000270 23 46 10 be b4 7e 07 3e 2f 2a 93 bd 59 42 c8 be
       -0.14089255 0.13231927 -0.0718578 -0.3911312
000280 31 db 52 be 5a 76 11 be 35 d8 b8 3d 31 0c 40 3e
       -0.20591427 -0.14205304 0.09025613 0.1875465
000290 b0 f1 bf 3d 19 cb a6 3d 40 6a 6e bd 2a 84 44 be
       0.0937227 0.081442066 -0.058206797 -0.19191042
0002a0 da 8b db 3d d6 ff e9 3d e8 bd da bd eb 3e 64 bd
       0.10720034 0.1142575 -0.10680753 -0.055724066
0002b0 4c 11 04 bc b4 0d 1f 38 39 cd 73 3c 9e 61 e2 3d
       -0.0080607645 3.7921316e-05 0.014880472 0.11053775
0002c0 36 25 0d 3e 76 1e 53 bd 31 19 2c 3e 94 75 ac bd
       0.13783726 -0.05154272 0.16806485 -0.08420864
0002d0 b0 c5 fc 3c 9e 2c d0 bc 5c a3 57 bd 1a 53 a8 bd
       0.030855983 -0.0254119 -0.052646026 -0.08218975
0002e0 df e2 99 bd f3 9d f7 bb e0 6f 29 3d bc d5 0b 3e
       -0.07513975 -0.007556671 0.041366458 0.13655752
0002f0 13 9b ae 3d d2 b0 1e be 94 9a ec bc 62 15 ba 3d
       0.08525672 -0.15497139 -0.028882302 0.0908611
000300 d9 49 d8 bd 88 8d 1a bd a2 99 af bd 26 37 83 bd
       -0.1056096 -0.03773263 -0.08574225 -0.06407003
000310 c0 96 11 bb 14 16 12 bd 82 e8 0d be 80 74 01 3d
       -0.0022215098 -0.035665587 -0.13858226 0.031605244
000320 d8 c3 cf bd 04 35 72 3a 7c eb 37 bd 62 15 c6 3d
       -0.10144776 0.00092394673 -0.04490231 0.09672047
000330 5f c2 97 3c f2 3d c4 bd dc f5 34 3d 1f df 98 bd
       0.0185253 -0.09582128 0.044179782 -0.07464432
000340 88 f4 ef bc d4 2f 05 3d ae f2 a3 3e b0 09 75 3d
       -0.029291406 0.032516316 0.32021087 0.05982369
000350 1c 6f 7d 3d d3 a8 14 bd 20 f9 82 3d 96 19 bc bd
       0.06187354 -0.036293816 0.06395173 -0.09184568
000360 ae 5e 1f 3d 74 8a 91 3d e0 f1 a7 3d fc 1b 22 3e
       0.038908653 0.07106486 0.08200431 0.15830988
000370 66 49 a6 bd 58 23 88 bd f9 ef b6 3c d0 a6 e4 3d
       -0.081194684 -0.06647366 0.022331225 0.111646295
000380 00 56 97 39 8b 7a c6 bc 88 f9 85 bd 20 26 a8 3c
       0.0002886504 -0.024228355 -0.06541735 0.020525992
000390 20 a5 69 bd e0 fe cb 3d c0 21 4e bc 38 b3 5a 3e
       -0.05704224 0.09960723 -0.012581289 0.21357429
0003a0 20 7e 78 3c 6a 01 b5 3d 1e 7c ed 3d 64 1f c6 bd
       0.015166789 0.0883816 0.11595939 -0.09673956
0003b0 b2 c0 fa 3d d8 7c 5e 3d ac ef 5e 3d 88 06 71 bd
       0.12243785 0.05431828 0.054427788 -0.05884412
0003c0 8e 51 b9 3d 04 91 83 3d 1c 26 cd bd ec 27 f9 3d
       0.090487584 0.06424144 -0.100170344 0.121658176
0003d0 12 bb fa bd 40 34 39 3b 72 44 16 3e b4 15 f2 3d
       -0.12242712 0.0028259903 0.14674547 0.11820546
0003e0 08 8d a6 3d 09 be 8d bb 80 69 85 ba 00 b1 62 bd
       0.08132368 -0.0043256325 -0.0010178536 -0.05534458
0003f0 79 75 27 3c 56 00 c5 bd 70 e9 45 3c e3 51 41 3d
       0.010220879 -0.09619205 0.012079582 0.047197234
