model1/epoch=899modello-N_iter6-N_features64-N_BS10000-epochs1000-lr0.001.pth (torch, 918276 bytes, 108 tensors)

_transform._transforms.1.autoregressive_net.initial_layer.weight f4 [64, 4]
00000000: c945 d33d 46de ee3e 4a42 ac3e e49a 46be
00000010: b183 903e b10a e23e d4f9 bb3e 286b 90be
00000020: 0000 663d ffcd 95be 8229 cebe 70dd fcbd
00000030: 5306 c03c da66 8bbe deea a0be 4ebc c4be
00000040: b038 e3be 7675 a3bd 2091 fa3c fe77 ce3e
00000050: 5da9 19be 0745 cfbe 68a0 653b de32 c43e
00000060: 8bcc b63e c8f7 a9bd 4032 c0bc 3c86 ffbe
00000070: e452 053f cb7e edbe b0c2 9e3e 1286 ee3e
00000080: ef96 713e d42f e63b c82b c23e 70ed fd3d
00000090: 1631 4ebe 26bc d93e 12eb b53e c08d 2dbc
000000a0: 43e8 dd3e 5ec2 ecbe 80e0 3e3d bc69 bb3e
000000b0: 4c44 c2be b1d1 0b3d 6e02 ccb9 a8f8 89bd
000000c0: 9179 003e 4af4 cbbe 185c 7e3e 00ca b23a
000000d0: f25e 9dbd 18e6 f8be 060e dc3e d0af 383d
000000e0: 7dc9 db3e b198 d83d 93f6 e23e 30b5 a33e
000000f0: 2c1a 9d3e 0046 d23b cc22 a3be 60a3 49bd
00000100: f161 32be dc3a a43d ce94 cebe bc63 70be
00000110: 6f50 c6be 0310 553d 01d2 6f3e 0868 1ebe
00000120: 7796 98be c054 333c 5637 d0be d69d c0be
00000130: b18b 0dbe 7cba dcbd 58f9 2c3e 1e70 8cbe
00000140: 1ccf fe3d bc70 053e e647 153d 1cb5 3d3e
00000150: ff70 39be de71 e73e a0a8 39bd 66e3 d93e
00000160: 8378 80be d7fc a73e 20f8 b63d 7c0c ce3e
00000170: d93d 903e 26e1 9fbb c303 1fbe 66bc c63e
00000180: d206 323d be70 873e 6c3e 0c3e 16b1 cf3e
00000190: f3c0 0c3e 4e96 b1be aac2 b33e 3c09 493e
000001a0: c370 45bd 15b6 713e 7bc9 43be cef3 f0be
000001b0: 2591 63be 8874 df3d 6493 b23e 80a4 6c3c
000001c0: 6dd3 87be fa8d f03d 326e cabe 6003 60bd
000001d0: 1d5a 3f3e b0ca c93c 9dd7 8cbd d029 0c3e
000001e0: 7760 bdbe 8048 7c3d f81d 08be 5c6a b33e
000001f0: bcca 8e3e ac42 9dbe 5283 a3be e830 febe
00000200: 88dc 9fbe 11cb 9c3d 8dc7 06bf b2e7 b23e
00000210: bff7 9cbe f4d0 493e cc34 9bbe 00e4 433e
00000220: 7adb 0b3e 802b 18bd 6e5d bb3e 4040 a63e
00000230: 6482 9bbd 6712 e63e 678b e53e a0f6 84bd
00000240: e58c 0e3f a095 dfbe 7edf b93e 788c d83d
00000250: 3249 1dbe 249e cf3d 5087 a03d e4df bf3e
00000260: a8c7 c93e d35d b2be e4fc e93e baca 9ebe
00000270: f68a 69be c22f e33e 88a3 403e 4060 ab3c
00000280: 0d51 58be aa3d ad3e 1839 fcbe 00ca f33d
00000290: d052 b93c e118 e23e b382 893e 2470 47be
000002a0: 092b 0bbe 3843 9a3d 0050 1dba c854 bc3d
000002b0: f2cb a4be f54b 7cbe 54c9 6a3e f0d3 b63d
000002c0: 6304 92be e16b 533e 3247 223e 16e4 db3e
000002d0: 03cf 7c3e 2857 22be 3834 dfbe 684f bc3d
000002e0: 2fbb ee3e f81f a33e 6072 753d f843 7cbe
000002f0: 06ce 873d 994c d33e a2d4 e63e 2413 48be
00000300: 1691 be3e 2c1f a8be d09d 68bd bc69 64be
00000310: 70ab cbbe 7a91 593e 50fa 6bbe 00c2 d53c
00000320: 652c eebe 790d 813e c839 e93e 241c 993e
00000330: b242 11be c2e2 c33e 94aa 9fbe 0082 ff3a
00000340: ae59 9c3e 73a0 ca3e 3686 a43e 98b7 0bbe
00000350: a551 6c3e 9b92 333e f2dc b0be 1c40 7bbe
00000360: 811c 4bbe a2cb bf3e 8a1b 9f3e f8b3 d33e
00000370: 71f6 82bc 6013 03bf b06c e7be ee2b a53e
00000380: 27d3 a63e 983e 9a3e b27b 763e 2037 083d
00000390: 9dab fc3e 7277 8cbe 38d4 f23d b021 2c3d
000003a0: 22d1 3bbe e4a1 1cbc 1cd4 a83e 0ccf 563e
000003b0: 36a4 77be ae12 c63e 704f cbbe 64fd 01be
000003c0: 9b54 063e ae75 ee3e 2027 e23d c83b ce3e
000003d0: 598a f73e 616d e6be d8b5 ccbd 846f b53e
000003e0: 708f d1be 3e5b a53d af76 c93d c072 e9be
000003f0: 4092 de3e 2efb b9be 9658 e5be 2a15 c1be
0.10316045 0.46653956 0.33644325 -0.19395024 0.28225473 0.44148782 0.3671404 -0.28206754
0.056152344 -0.29258725 -0.40266043 -0.12346923 0.023440516 -0.27226907 -0.3142919 -0.38424915
-0.44379187 -0.07981388 0.03058678 0.40325922 -0.15006013 -0.4048235 0.0035038237 0.3832006
0.3570293 -0.08299214 -0.023461461 -0.499071 0.52079606 -0.46385798 0.3100791 0.46586663
0.23592733 0.0070247445 0.37924027 0.12398803 -0.20135912 0.42526358 0.35530907 -0.010592878
0.43341264 -0.4624204 0.04660082 0.36604106 -0.3794273 0.034135524 -0.00038911722 -0.067368805
0.12546374 -0.39834815 0.24839818 0.0013640523 -0.07684125 -0.48613048 0.4297945 0.045089543
0.4292716 0.105759986 0.44328746 0.31974173 0.3068403 0.006417036 -0.31862485 -0.049228072
-0.17420174 0.08019039 -0.40347904 -0.23475546 -0.3873324 0.052017223 0.23419954 -0.15469372
-0.29802296 0.010945499 -0.40667218 -0.3762042 -0.1382282 -0.107777566 0.16891992 -0.2742929
0.12441847 0.13031286 0.03644552 0.18526119 -0.18109511 0.4520406 -0.04532683 0.42556304
-0.25091943 0.3281009 0.08934045 0.402439 0.28172186 -0.0048791347 -0.15528779 0.38815612
0.043463536 0.26453203 0.13695687 0.40564793 0.1374548 -0.34684986 0.35109454 0.19632429
-0.04820324 0.23604615 -0.19119827 -0.47061008 -0.22223337 0.109108984 0.34878075 0.014443517
-0.26528493 0.1174583 -0.39537197 -0.05469072 0.18686719 0.024632782 -0.068770625 0.13687825
-0.3698766 0.06159258 -0.13292682 0.35042083 0.2788905 -0.3071493 -0.31936127 -0.49646688
-0.3122294 0.07655919 -0.5264824 0.34942394 -0.30657765 0.19708616 -0.30313718 0.19129944
0.13657942 -0.03715086 0.3659472 0.32470894 -0.075932294 0.44935915 0.44832918 -0.064923525
0.5568374 -0.43668842 0.36303324 0.10573667 -0.15359953 0.10137585 0.07838309 0.37475502
0.39410138 -0.34837207 0.45700753 -0.31014043 -0.22806916 0.44372374 0.18812382 0.020919919
-0.21124668 0.33836108 -0.4926231 0.11903763 0.022622496 0.44159606 0.26857528 -0.19476372
-0.13590635 0.07532352 -0.00060009956 0.09195858 -0.32186848 -0.2463835 0.22928363 0.089271426
-0.28518972 0.20646621 0.15847471 0.42947453 0.24688344 -0.1585356 -0.43594527 0.09194833
0.46627185 0.31860328 0.05992353 -0.24635303 0.06631093 0.41269377 0.450841 -0.19538552
0.37220067 -0.32836282 -0.056791127 -0.2230596 -0.39779234 0.21246901 -0.23044705 0.026093483
-0.46518245 0.2520559 0.45551896 0.29904282 -0.14185598 0.3825894 -0.31184828 0.0019493699
0.3053717 0.39575538 0.32133645 -0.13644254 0.2307802 0.17536394 -0.34543568 -0.24536175
-0.19835092 0.37460047 0.31075698 0.41348243 -0.015986653 -0.5120144 -0.4520011 0.32260078
0.3258297 0.3012588 0.24070624 0.033255696 0.4934968 -0.2743488 0.11856884 0.042024314
-0.18341497 -0.009560082 0.32974327 0.2097742 -0.24183735 0.38686126 -0.39709044 -0.12694317
0.13118212 0.46574157 0.11042619 0.40279984 0.48347738 -0.45005324 -0.099956214 0.35436642
-0.40929747 0.08074044 0.0983709 -0.4559536 0.43470955 -0.36324447 -0.44794148 -0.3771146

_transform._transforms.1.autoregressive_net.initial_layer.bias f4 [64]
00000000: f6ed a43c d249 1abe b8c4 be3e 753d b6be
00000010: 2318 613e 9924 823d 44da cebe bd28 d23e
00000020: ffde 6bbc 6699 4f3e 4866 33be ef2f 72be
00000030: db1f 70be 7a03 ffbe 865a 833e 7083 7abe
00000040: 2492 47be a86b 5cbe 2b88 74be 1c61 37be
00000050: 7196 88be 2dd4 a03d 83ea d13e b2ad 873e
00000060: 4e05 f93d e592 ba3d 8317 a93d 2fb5 b23d
00000070: b679 d03d b58d a5be a0c0 f3bd f88a dcbe
00000080: 5581 f73d 031b 3c3e a530 163c 6ad4 cf3d
00000090: 5c41 37be dcf0 a33e 5c0c c6bd b548 96bd
000000a0: f5ec c93e addc ad3e 85d6 453e 80c8 9d3e
000000b0: a89a 09be dd53 8b3e ecad a8be 1820 b6be
000000c0: 5a1f dc3c 530e bbbe 3036 0abd 3156 3c3e
000000d0: 7a68 0bbe 4d23 e33e 0984 b0bc 408e 86bc
000000e0: 99a3 b5be 2c2b a8be e504 97bd e3a4 16be
000000f0: 5338 6f3e c2c5 0fbd f869 f03e 4cea c8be
0.020133 -0.15067223 0.3725946 -0.35593763 0.21981864 0.06354637 -0.40400898 0.41046706
-0.014396428 0.2027336 -0.17519486 -0.23651098 -0.23449652 -0.4980734 0.25655 -0.24464202
-0.19489342 -0.21525443 -0.23880069 -0.17908138 -0.26677278 0.07852969 0.4099923 0.26499707
0.12159215 0.09110049 0.08256438 0.08725964 0.101794645 -0.32334676 -0.11901975 -0.43074775
0.12085215 0.18369679 0.009166871 0.10147937 -0.17896026 0.320197 -0.09670326 -0.073380865
0.39438596 0.33957425 0.19320114 0.30817032 -0.13437903 0.2721242 -0.32945192 -0.3557136
0.026870418 -0.36534366 -0.033743083 0.18392254 -0.13614073 0.4436287 -0.021547334 -0.016425252
-0.35476378 -0.32845438 -0.073739804 -0.14711337 0.2336133 -0.035100706 0.46955848 -0.39241254

_transform._transforms.1.autoregressive_net.initial_layer.mask f4 [64, 4]
00000000: 0000 803f 0000 0000 0000 0000 0000 0000
00000010: 0000 803f 0000 803f 0000 0000 0000 0000
00000020: 0000 803f 0000 803f 0000 803f 0000 0000
00000030: 0000 803f 0000 0000 0000 0000 0000 0000
00000040: 0000 803f 0000 803f 0000 0000 0000 0000
00000050: 0000 803f 0000 803f 0000 803f 0000 0000
00000060: 0000 803f 0000 0000 0000 0000 0000 0000
00000070: 0000 803f 0000 803f 0000 0000 0000 0000
00000080: 0000 803f 0000 803f 0000 803f 0000 0000
00000090: 0000 803f 0000 0000 0000 0000 0000 0000
000000a0: 0000 803f 0000 803f 0000 0000 0000 0000
000000b0: 0000 803f 0000 803f 0000 803f 0000 0000
000000c0: 0000 803f 0000 0000 0000 0000 0000 0000
000000d0: 0000 803f 0000 803f 0000 0000 0000 0000
000000e0: 0000 803f 0000 803f 0000 803f 0000 0000
000000f0: 0000 803f 0000 0000 0000 0000 0000 0000
00000100: 0000 803f 0000 803f 0000 0000 0000 0000
00000110: 0000 803f 0000 803f 0000 803f 0000 0000
00000120: 0000 803f 0000 0000 0000 0000 0000 0000
00000130: 0000 803f 0000 803f 0000 0000 0000 0000
00000140: 0000 803f 0000 803f 0000 803f 0000 0000
00000150: 0000 803f 0000 0000 0000 0000 0000 0000
00000160: 0000 803f 0000 803f 0000 0000 0000 0000
00000170: 0000 803f 0000 803f 0000 803f 0000 0000
00000180: 0000 803f 0000 0000 0000 0000 0000 0000
00000190: 0000 803f 0000 803f 0000 0000 0000 0000
000001a0: 0000 803f 0000 803f 0000 803f 0000 0000
000001b0: 0000 803f 0000 0000 0000 0000 0000 0000
000001c0: 0000 803f 0000 803f 0000 0000 0000 0000
000001d0: 0000 803f 0000 803f 0000 803f 0000 0000
000001e0: 0000 803f 0000 0000 0000 0000 0000 0000
000001f0: 0000 803f 0000 803f 0000 0000 0000 0000
00000200: 0000 803f 0000 803f 0000 803f 0000 0000
00000210: 0000 803f 0000 0000 0000 0000 0000 0000
00000220: 0000 803f 0000 803f 0000 0000 0000 0000
00000230: 0000 803f 0000 803f 0000 803f 0000 0000
00000240: 0000 803f 0000 0000 0000 0000 0000 0000
00000250: 0000 803f 0000 803f 0000 0000 0000 0000
00000260: 0000 803f 0000 803f 0000 803f 0000 0000
00000270: 0000 803f 0000 0000 0000 0000 0000 0000
00000280: 0000 803f 0000 803f 0000 0000 0000 0000
00000290: 0000 803f 0000 803f 0000 803f 0000 0000
000002a0: 0000 803f 0000 0000 0000 0000 0000 0000
000002b0: 0000 803f 0000 803f 0000 0000 0000 0000
000002c0: 0000 803f 0000 803f 0000 803f 0000 0000
000002d0: 0000 803f 0000 0000 0000 0000 0000 0000
000002e0: 0000 803f 0000 803f 0000 0000 0000 0000
000002f0: 0000 803f 0000 803f 0000 803f 0000 0000
00000300: 0000 803f 0000 0000 0000 0000 0000 0000
00000310: 0000 803f 0000 803f 0000 0000 0000 0000
00000320: 0000 803f 0000 803f 0000 803f 0000 0000
00000330: 0000 803f 0000 0000 0000 0000 0000 0000
00000340: 0000 803f 0000 803f 0000 0000 0000 0000
00000350: 0000 803f 0000 803f 0000 803f 0000 0000
00000360: 0000 803f 0000 0000 0000 0000 0000 0000
00000370: 0000 803f 0000 803f 0000 0000 0000 0000
00000380: 0000 803f 0000 803f 0000 803f 0000 0000
00000390: 0000 803f 0000 0000 0000 0000 0000 0000
000003a0: 0000 803f 0000 803f 0000 0000 0000 0000
000003b0: 0000 803f 0000 803f 0000 803f 0000 0000
000003c0: 0000 803f 0000 0000 0000 0000 0000 0000
000003d0: 0000 803f 0000 803f 0000 0000 0000 0000
000003e0: 0000 803f 0000 803f 0000 803f 0000 0000
000003f0: 0000 803f 0000 0000 0000 0000 0000 0000
1.0 0.0 0.0 0.0 1.0 1.0 0.0 0.0
1.0 1.0 1.0 0.0 1.0 0.0 0.0 0.0
1.0 1.0 0.0 0.0 1.0 1.0 1.0 0.0
1.0 0.0 0.0 0.0 1.0 1.0 0.0 0.0
1.0 1.0 1.0 0.0 1.0 0.0 0.0 0.0
1.0 1.0 0.0 0.0 1.0 1.0 1.0 0.0
1.0 0.0 0.0 0.0 1.0 1.0 0.0 0.0
1.0 1.0 1.0 0.0 1.0 0.0 0.0 0.0
1.0 1.0 0.0 0.0 1.0 1.0 1.0 0.0
1.0 0.0 0.0 0.0 1.0 1.0 0.0 0.0
1.0 1.0 1.0 0.0 1.0 0.0 0.0 0.0
1.0 1.0 0.0 0.0 1.0 1.0 1.0 0.0
1.0 0.0 0.0 0.0 1.0 1.0 0.0 0.0
1.0 1.0 1.0 0.0 1.0 0.0 0.0 0.0
1.0 1.0 0.0 0.0 1.0 1.0 1.0 0.0
1.0 0.0 0.0 0.0 1.0 1.0 0.0 0.0
1.0 1.0 1.0 0.0 1.0 0.0 0.0 0.0
1.0 1.0 0.0 0.0 1.0 1.0 1.0 0.0
1.0 0.0 0.0 0.0 1.0 1.0 0.0 0.0
1.0 1.0 1.0 0.0 1.0 0.0 0.0 0.0
1.0 1.0 0.0 0.0 1.0 1.0 1.0 0.0
1.0 0.0 0.0 0.0 1.0 1.0 0.0 0.0
1.0 1.0 1.0 0.0 1.0 0.0 0.0 0.0
1.0 1.0 0.0 0.0 1.0 1.0 1.0 0.0
1.0 0.0 0.0 0.0 1.0 1.0 0.0 0.0
1.0 1.0 1.0 0.0 1.0 0.0 0.0 0.0
1.0 1.0 0.0 0.0 1.0 1.0 1.0 0.0
1.0 0.0 0.0 0.0 1.0 1.0 0.0 0.0
1.0 1.0 1.0 0.0 1.0 0.0 0.0 0.0
1.0 1.0 0.0 0.0 1.0 1.0 1.0 0.0
1.0 0.0 0.0 0.0 1.0 1.0 0.0 0.0
1.0 1.0 1.0 0.0 1.0 0.0 0.0 0.0

_transform._transforms.1.autoregressive_net.blocks.0.linear_layers.0.weight f4 [64, 64]
00000000: 4ec1 653d 4481 103d 5c19 6b3d 04f4 ffbd
00000010: c0b0 0c3b 401c d1bb b8c7 233c 1c9f 20bd
00000020: 0eaf c33d e171 f9bc 600d b2bb 48ea 833c
00000030: 80d9 85bd 4860 e6bd 7092 de3c c6c9 87bd
00000040: 2086 933b 5edb 9c3d d110 1b3f 9c3f cfbd
00000050: bcd6 f43d b4eb aa3c 1826 bd3c e00e f7bb
00000060: f7f5 ca3d 7a8e b4bd 3e64 d93d 8471 ba3d
00000070: 70de 23bd c8cf ba3d e11a 30ba a048 73bd
00000080: 5420 a63d 5337 fa3d f046 913d 902a fe3c
00000090: 43ff ff3c 806b 793c 0e07 bb3d 5ac8 26bb
000000a0: 8ebf d5bd 2cce 93bd 43e3 243b da67 f2bd
000000b0: fa4e b6bd a8e4 09be dcbe 56bd 00c5 e2ba
000000c0: ac75 b8bb ca6e e9bd d263 c43d 1aa5 bd3a
000000d0: acc1 fcbd ee82 e1bd 1f2c 133e 84a4 9cbd
000000e0: a854 c93c efb7 fabd 401b 79bd a020 c03c
000000f0: 8a9d b53d c876 933c eaf0 843d ab18 513b
00000100: 2bf8 17be 0bf2 c73c e473 a43d 9c2f 1dbd
00000110: de08 5739 a0f4 7fbc 2843 313d ef8d 17bc
00000120: 46b4 db3d e5eb fcbc 1ba0 6abd dc2e eebd
00000130: 7ee4 22be 4c86 81bd 0a10 a6bd c813 a33d
00000140: 6a12 a2bd 9a66 833d bf63 21bf bfd0 33be
00000150: 564c a2bd 5add a6bd f55d c23d ea1e 8dbd
00000160: fd5a 763d 0a13 813d 242a 113d 6dc3 013e
00000170: 0015 5d3c 9446 193d 014c 2abe a852 c3be
00000180: bc1c d6bd 0be2 afbd 5c34 a9bd 346f 3cbd
00000190: 85f3 9ebb 5cb6 3d3d 8e5e ba3d f670 cfbc
000001a0: 47e2 33bd c839 dfbd ac04 dc39 edf3 e1bc
000001b0: 00be 063c e648 133e a436 64bd d86d 94bc
000001c0: e697 f03b 884e 61bd 84cb da3d 3acc 8fbd
000001d0: c696 0dbe 5eea d0bd 04bf c6bb d472 04bd
000001e0: c07e 9e3d b821 39bc 1d27 a13d 687d 81bc
000001f0: 6176 8f3d 09c4 963e a8f3 6a3d 1cc0 cbbd
00000200: f6ae 7ebc f38c 113c 1077 ce3c b0a4 313d
00000210: 0d3a 803d b5c8 183c 33a6 c8bd 6651 fcbd
00000220: bce4 76bd fd4d a2bd 35e6 24bd 5a7f 56bd
00000230: 5cd3 5bbd 9187 f33d 8b9e cdbd 253b 12bc
00000240: 5c3a 283d a7ef 01be 84f4 80bc 2fef e53d
00000250: 0017 dc3d 37a2 c33d 297e a03c eaab 2fbd
00000260: 285b 6cbc 25d3 2a3d 2514 a6bc f73f 113d
00000270: 6ff6 e83d 3ee9 efbc 2872 123d 505e f8bd
00000280: 4ba5 b7bd dc5c 4f3d bed2 68bd 379e ef3d
00000290: 4e98 653d a1e6 85bd 01d2 1ebd 9e2a 08bd
000002a0: df29 743c 6f46 4fbd 0bef 033c acd6 90bd
000002b0: dd8a d9bd 3f27 c8bd 8c20 ccbb 73ce 903d
000002c0: 976c 37bc 0875 2dbd a151 c23c 6766 f4bd
000002d0: f5b0 b63d 20f8 ca3c a07b 2fbc 263c 29bc
000002e0: 4ba6 9e3c 6916 6ebd d1b9 00be afea 9dbd
000002f0: 0e2f 6d3d 206b cb3d 5010 aa3d c374 93bd
00000300: 613d 613d 50ff 01bd d842 63bd dc99 503d
00000310: a0a9 653c f80b d1bc d8f9 c3bd 886a 31bd
00000320: b8b7 d23c 4ef4 d0bb e010 debb fe56 96bd
00000330: 6e4f 04bc f0cb 2dbc 200f 12bc 16e4 dc3c
00000340: ceda ab3d 72c2 bbbd d8d6 273f 68aa fbbd
00000350: acc7 afbd 6c68 f33d a45c 5bbd e0c5 efbd
00000360: 7504 a8bd 8059 09bd c02b 8dbd bd98 ef3c
00000370: 10d4 8d3c 36b0 993d ceea b43d f211 c2bd
00000380: 70e2 9ebc cb8e a63c 18e6 113d 28d7 88bc
00000390: 99cc e33c b48d 8a3d ccc0 593d bf45 133e
000003a0: fea7 e8bd 900b 173d 63e1 013e 80c8 e5bd
000003b0: 4ed0 85bd 1a1d ebbd 44ff 5b3d c88b 273d
000003c0: 54f5 abbd b4d0 a13d 7cd7 4ebd 91b1 b43d
000003d0: 08ef d8bd 2047 083d a927 e13d f021 df3c
000003e0: 86f3 f5bd bf82 123d 300a e4bd fcbb 313d
000003f0: d94b c13b c073 ffbd b8a5 e0bc 96b7 a13c
0.056092553 0.035279527 0.05739723 -0.12497714 0.0021467656 -0.0063815415 0.009996347 -0.03921424
0.095548734 -0.03044981 -0.0054337233 0.016102925 -0.065356255 -0.11248833 0.027169436 -0.06630282
0.004502073 0.076590285 0.60572535 -0.101195544 0.1195502 0.020864345 0.023089454 -0.007539615
0.09910195 -0.08816238 0.10614823 0.09103683 -0.040007055 0.091216624 -0.00067178725 -0.059395432
0.08111635 0.122175835 0.070936084 0.031026155 0.031249648 0.015223384 0.09132205 -0.0025449009
-0.10436927 -0.072170585 0.0025159873 -0.11836214 -0.08901782 -0.13466132 -0.05242811 -0.0017301142
-0.005629262 -0.113980845 0.09589352 0.001446876 -0.123416275 -0.11011301 0.143723 -0.07648566
0.0245765 -0.12242114 -0.060817003 0.023453057 0.08867939 0.018000975 0.06491263 0.0031905572
-0.14840762 0.024407407 0.08029917 -0.038375482 0.00020507301 -0.015622288 0.043276936 -0.009250148
0.10727744 -0.030874202 -0.057281595 -0.116300315 -0.15907475 -0.06324443 -0.08108528 0.07962757
-0.079136685 0.06416054 -0.63042825 -0.17560099 -0.07924716 -0.08147688 0.09490577 -0.06890662
0.060145367 0.063024595 0.03544058 0.12672205 0.013493776 0.037420824 -0.16630556 -0.38149
-0.104546994 -0.08588036 -0.0826194 -0.04600449 -0.004850807 0.04631649 0.09100066 -0.025322419
-0.043916967 -0.10899693 0.0004196515 -0.027582133 0.0082240105 0.14383277 -0.05571617 -0.018118784
0.0073423265 -0.055006534 0.10683349 -0.07021375 -0.13827047 -0.10200952 -0.0060652513 -0.03233607
0.077390194 -0.011299543 0.078687884 -0.015806869 0.07005001 0.29446438 0.057361275 -0.09948751
-0.015544644 0.008883703 0.025203258 0.04336995 0.06261072 0.009325196 -0.09797325 -0.12320213
-0.06027673 -0.07925031 -0.040258605 -0.052367546 -0.053668365 0.118910916 -0.10040005 -0.008925234
0.04107128 -0.12689076 -0.015741594 0.11227261 0.107465744 0.095524244 0.019591408 -0.04288856
-0.01442603 0.04170527 -0.020273278 0.035461392 0.113751285 -0.029286023 0.0357534 -0.12127364
-0.08967074 0.050625667 -0.056841604 0.11700099 0.056053452 -0.065381296 -0.038774494 -0.033243768
0.014902561 -0.05060428 0.008052598 -0.070721954 -0.10622189 -0.097731106 -0.006229466 0.07070627
-0.011195323 -0.042347938 0.023720564 -0.11933594 0.089204706 0.024776518 -0.010710627 -0.010329282
0.019366404 -0.05812684 -0.12570883 -0.07710778 0.057906203 0.09932542 0.083038926 -0.07200005
0.054990176 -0.031737626 -0.05548367 0.05092798 0.0140174925 -0.025518402 -0.09569138 -0.043314487
0.02572237 -0.0063767796 -0.006776914 -0.07340811 -0.008075578 -0.0106077045 -0.008914739 0.026964229
0.08391343 -0.09167947 0.655622 -0.12288362 -0.08583006 0.11885151 -0.053555146 -0.117076635
-0.08203975 -0.03353262 -0.0689311 0.029247636 0.017313033 0.07504313 0.08833848 -0.09476079
-0.019395083 0.02033176 0.035619825 -0.016704157 0.02780752 0.06765309 0.05316238 0.14382075
-0.11360167 0.03687626 0.12683634 -0.11219883 -0.065338716 -0.1148016 0.053710237 0.04090479
-0.08396402 0.07901135 -0.05049847 0.088229306 -0.105924666 0.033270955 0.10993893 0.027237862
-0.12009339 0.03576922 -0.111347556 0.043392166 0.0058989343 -0.124732494 -0.02742277 0.01974086

_transform._transforms.1.autoregressive_net.blocks.0.linear_layers.0.bias f4 [64]
00000000: a6e6 8d3d 4a81 003e 2f48 94bd 1578 913d
00000010: b9b1 ed3d a35a c0bd 62a4 e6bd 8f81 843d
00000020: a760 3dbd 007d b1bc ea7b a03d a5a3 b43d
00000030: 7d88 c33d 7c02 883d 5ba4 e93d 18c1 703d
00000040: 972a ba3d fa91 bdbd a677 ecbd 1bed 043e
00000050: 601c 293d 96bc 8abd b7ee d73d c0dd 2ebd
00000060: 01d4 4dbd 397f f33b 7572 1b3d 9f3d efbd
00000070: a3b5 be3d 4646 a83d 0117 5bbd aaa8 dc3b
00000080: 3b80 ca3c d415 ff3c e89b 7abd 200e d93d
00000090: 03ba 983d 8392 c3bb 8f27 123e 0b0e ea3d
000000a0: 8b3e 9abc d5e9 ba3d 545b ab3d c0e7 94bd
000000b0: 0ba4 593d 9f42 4b3d c469 ae3d b0fd 903d
000000c0: 9ae1 e93c 6ca5 e33d 0814 c73d b424 72bc
000000d0: 71f2 0d3e a56f 903c f041 81bd 8601 a4bd
000000e0: 65a3 02be 5d03 4c3d 6ab1 c53a 4c1d 183e
000000f0: 4ecb 7ebc 270e 083e 1d73 5e3d d296 8fbd
0.06928758 0.1254932 -0.072403304 0.07102982 0.116061635 -0.093922876 -0.11261822 0.06470024
-0.046234753 -0.02166605 0.07836135 0.08820275 0.095475174 0.06641099 0.114083014 0.0587779
0.090901546 -0.092563584 -0.11546259 0.12981074 0.041286826 -0.06774251 0.10543578 -0.042691946
-0.05025101 0.0074309376 0.03795095 -0.11681675 0.09311988 0.082165286 -0.053488735 0.0067339735
0.024719348 0.031138338 -0.06118384 0.10598397 0.07457354 -0.0059683933 0.14272903 0.1142846
-0.018828651 0.09126631 0.08367029 -0.07270765 0.05313496 0.04962408 0.08516267 0.07079637
0.028549958 0.11115536 0.097206175 -0.0147792585 0.13862015 0.017631361 -0.06311405 -0.08008103
-0.12757643 0.049807895 0.0015082781 0.14854926 -0.015551401 0.13286649 0.054309 -0.070111886

_transform._transforms.1.autoregressive_net.blocks.0.linear_layers.0.mask f4 [64, 64]
00000000: 0000 803f 0000 0000 0000 0000 0000 803f
00000010: 0000 0000 0000 0000 0000 803f 0000 0000
00000020: 0000 0000 0000 803f 0000 0000 0000 0000
00000030: 0000 803f 0000 0000 0000 0000 0000 803f
00000040: 0000 0000 0000 0000 0000 803f 0000 0000
00000050: 0000 0000 0000 803f 0000 0000 0000 0000
00000060: 0000 803f 0000 0000 0000 0000 0000 803f
00000070: 0000 0000 0000 0000 0000 803f 0000 0000
00000080: 0000 0000 0000 803f 0000 0000 0000 0000
00000090: 0000 803f 0000 0000 0000 0000 0000 803f
000000a0: 0000 0000 0000 0000 0000 803f 0000 0000
000000b0: 0000 0000 0000 803f 0000 0000 0000 0000
000000c0: 0000 803f 0000 0000 0000 0000 0000 803f
000000d0: 0000 0000 0000 0000 0000 803f 0000 0000
000000e0: 0000 0000 0000 803f 0000 0000 0000 0000
000000f0: 0000 803f 0000 0000 0000 0000 0000 803f
00000100: 0000 803f 0000 803f 0000 0000 0000 803f
00000110: 0000 803f 0000 0000 0000 803f 0000 803f
00000120: 0000 0000 0000 803f 0000 803f 0000 0000
00000130: 0000 803f 0000 803f 0000 0000 0000 803f
00000140: 0000 803f 0000 0000 0000 803f 0000 803f
00000150: 0000 0000 0000 803f 0000 803f 0000 0000
00000160: 0000 803f 0000 803f 0000 0000 0000 803f
00000170: 0000 803f 0000 0000 0000 803f 0000 803f
00000180: 0000 0000 0000 803f 0000 803f 0000 0000
00000190: 0000 803f 0000 803f 0000 0000 0000 803f
000001a0: 0000 803f 0000 0000 0000 803f 0000 803f
000001b0: 0000 0000 0000 803f 0000 803f 0000 0000
000001c0: 0000 803f 0000 803f 0000 0000 0000 803f
000001d0: 0000 803f 0000 0000 0000 803f 0000 803f
000001e0: 0000 0000 0000 803f 0000 803f 0000 0000
000001f0: 0000 803f 0000 803f 0000 0000 0000 803f
00000200: 0000 803f 0000 803f 0000 803f 0000 803f
00000210: 0000 803f 0000 803f 0000 803f 0000 803f
00000220: 0000 803f 0000 803f 0000 803f 0000 803f
00000230: 0000 803f 0000 803f 0000 803f 0000 803f
00000240: 0000 803f 0000 803f 0000 803f 0000 803f
00000250: 0000 803f 0000 803f 0000 803f 0000 803f
00000260: 0000 803f 0000 803f 0000 803f 0000 803f
00000270: 0000 803f 0000 803f 0000 803f 0000 803f
00000280: 0000 803f 0000 803f 0000 803f 0000 803f
00000290: 0000 803f 0000 803f 0000 803f 0000 803f
000002a0: 0000 803f 0000 803f 0000 803f 0000 803f
000002b0: 0000 803f 0000 803f 0000 803f 0000 803f
000002c0: 0000 803f 0000 803f 0000 803f 0000 803f
000002d0: 0000 803f 0000 803f 0000 803f 0000 803f
000002e0: 0000 803f 0000 803f 0000 803f 0000 803f
000002f0: 0000 803f 0000 803f 0000 803f 0000 803f
00000300: 0000 803f 0000 0000 0000 0000 0000 803f
00000310: 0000 0000 0000 0000 0000 803f 0000 0000
00000320: 0000 0000 0000 803f 0000 0000 0000 0000
00000330: 0000 803f 0000 0000 0000 0000 0000 803f
00000340: 0000 0000 0000 0000 0000 803f 0000 0000
00000350: 0000 0000 0000 803f 0000 0000 0000 0000
00000360: 0000 803f 0000 0000 0000 0000 0000 803f
00000370: 0000 0000 0000 0000 0000 803f 0000 0000
00000380: 0000 0000 0000 803f 0000 0000 0000 0000
00000390: 0000 803f 0000 0000 0000 0000 0000 803f
000003a0: 0000 0000 0000 0000 0000 803f 0000 0000
000003b0: 0000 0000 0000 803f 0000 0000 0000 0000
000003c0: 0000 803f 0000 0000 0000 0000 0000 803f
000003d0: 0000 0000 0000 0000 0000 803f 0000 0000
000003e0: 0000 0000 0000 803f 0000 0000 0000 0000
000003f0: 0000 803f 0000 0000 0000 0000 0000 803f
1.0 0.0 0.0 1.0 0.0 0.0 1.0 0.0
0.0 1.0 0.0 0.0 1.0 0.0 0.0 1.0
0.0 0.0 1.0 0.0 0.0 1.0 0.0 0.0
1.0 0.0 0.0 1.0 0.0 0.0 1.0 0.0
0.0 1.0 0.0 0.0 1.0 0.0 0.0 1.0
0.0 0.0 1.0 0.0 0.0 1.0 0.0 0.0
1.0 0.0 0.0 1.0 0.0 0.0 1.0 0.0
0.0 1.0 0.0 0.0 1.0 0.0 0.0 1.0
1.0 1.0 0.0 1.0 1.0 0.0 1.0 1.0
0.0 1.0 1.0 0.0 1.0 1.0 0.0 1.0
1.0 0.0 1.0 1.0 0.0 1.0 1.0 0.0
1.0 1.0 0.0 1.0 1.0 0.0 1.0 1.0
0.0 1.0 1.0 0.0 1.0 1.0 0.0 1.0
1.0 0.0 1.0 1.0 0.0 1.0 1.0 0.0
1.0 1.0 0.0 1.0 1.0 0.0 1.0 1.0
0.0 1.0 1.0 0.0 1.0 1.0 0.0 1.0
1.0 1.0 1.0 1.0 1.0 1.0 1.0 1.0
1.0 1.0 1.0 1.0 1.0 1.0 1.0 1.0
1.0 1.0 1.0 1.0 1.0 1.0 1.0 1.0
1.0 1.0 1.0 1.0 1.0 1.0 1.0 1.0
1.0 1.0 1.0 1.0 1.0 1.0 1.0 1.0
1.0 1.0 1.0 1.0 1.0 1.0 1.0 1.0
1.0 1.0 1.0 1.0 1.0 1.0 1.0 1.0
1.0 1.0 1.0 1.0 1.0 1.0 1.0 1.0
1.0 0.0 0.0 1.0 0.0 0.0 1.0 0.0
0.0 1.0 0.0 0.0 1.0 0.0 0.0 1.0
0.0 0.0 1.0 0.0 0.0 1.0 0.0 0.0
1.0 0.0 0.0 1.0 0.0 0.0 1.0 0.0
0.0 1.0 0.0 0.0 1.0 0.0 0.0 1.0
0.0 0.0 1.0 0.0 0.0 1.0 0.0 0.0
1.0 0.0 0.0 1.0 0.0 0.0 1.0 0.0
0.0 1.0 0.0 0.0 1.0 0.0 0.0 1.0

_transform._transforms.1.autoregressive_net.blocks.0.linear_layers.1.weight f4 [64, 64]
00000000: 5035 3c3d 4a16 da39 8698 1a3a cb2b 353d
00000010: 01c0 4238 2717 b139 799b b7b9 1b24 593a
00000020: bd94 c737 303d b0b8 8068 fcb9 bba1 f0b9
00000030: b2d8 003d 63f9 25ba a462 20ba 5b62 75ba
00000040: fd5d ccb9 6f28 5c3a d2b2 6738 804e 48b9
00000050: 1934 02b9 3d64 82ba a83e 2bba 4e28 0cba
00000060: 5116 cabd 5248 393a 01b0 da38 7130 a93b
00000070: bd8b 353a 82df b039 4be4 9d3c 81c7 11ba
00000080: b568 c937 4049 563d b39d 0a37 7f95 00ba
00000090: 527b 743d 1925 45ba 2895 4839 5d30 6f3d
000000a0: 1b2f 8438 79c7 52ba e3ea 353d 2813 563a
000000b0: 9876 ebb8 d45e 4f3d 1f5e 2f3a bb55 57ba
000000c0: d5c6 683d 5bd7 433a dcb5 d5b9 4af2 a23d
000000d0: a0b8 f0b9 17cb 34ba 57d9 68bb 925c 35ba
000000e0: 9e35 b1b9 e11f cd3c bd93 45ba 636b 493a
000000f0: 9af3 af3c 54b2 14ba 4e5a 8bb8 f650 e5b9
00000100: b079 2a3d 7669 8b3d 0b77 dcb9 e5ac a43c
00000110: c941 463d a611 3eba 53ee e7b9 2691 263d
00000120: 9882 c4b9 13e0 52ba 0afe 69bc 6d02 4eba
00000130: 5c8b 053d b024 c13c e48e 60ba d14c 3f3a
00000140: 3f93 fe3c 6bc8 48b9 b554 8039 9cfb b23d
00000150: 7865 76ba 0359 a039 3389 3b3d 38f3 10ba
00000160: 9956 02bb cbef 2d3d 465e 3f39 fa39 a23b
00000170: 866d f03c a205 4339 f7b9 8a3b e2be 063d
00000180: f08e 04ba fbc1 183d 09e0 5c3a 1949 15ba
00000190: d86d df3c 00f9 a93d 5f2a e1b9 7a75 083d
000001a0: d705 8c3c 754f 6c39 d5df 2f3d 96bf f0b9
000001b0: 5111 54ba 65a7 fa3c 8262 9a3d e087 b8b9
000001c0: 94a7 8f3c 10f5 553d dcbb 533a b547 65ba
000001d0: 8984 873c 57fa 4839 f670 08bc 63b3 6fba
000001e0: 55e7 3239 82e4 623c 5143 0c3d c9ba 87b9
000001f0: 5506 823a 5917 173d daa7 2aba 7c14 e6b5
00000200: 91cb 89bc 0be5 c2b8 3d6f 76bb 330b a8bc
00000210: a76a 49bd 8dd1 e9ba 5983 42ba 7496 33bd
00000220: be70 beb9 1930 5e3a a93d 16bd 1460 17bd
00000230: a988 92bc 4f47 adbc 73eb abbc 01a0 423a
00000240: a1dd 69bd 0472 403d d2f4 683a 385e 06bd
00000250: aee4 23bd a54a f139 8bbe eabc 4db7 713a
00000260: f17f 583b dfde 33bd be1e 2a3c d37c 163b
00000270: f010 bebc 1ae9 5cbd 69d2 91bc 5321 a0bc
00000280: d83e bb3b 2536 5cbc 2aa0 33ba 7eec 3c3b
00000290: c980 f6bc 3fd7 b7bc 1caf b2bd 829f bcbc
000002a0: 8a53 50bc 308b d4bc 0223 96bc 5959 9d37
000002b0: 0aa9 3fbd e311 bdbc 9d81 74bc fbf7 3d3d
000002c0: e747 c1bc 289b d0bc 05cb 363e ca36 ecbc
000002d0: 479f c5bc 7002 8cbd 102b 25ba 3218 5638
000002e0: 7e5a ef3b 3314 71bc eb9d 51bd 9c6a 5a3e
000002f0: 9182 94bc ab44 8fbc 4d24 6abc ee92 8939
00000300: d52e 5fbd 5f00 a2b9 63f8 0639 79ce 81bd
00000310: 5979 fd39 bbfb beb9 2e19 62ba 194a e6b9
00000320: fccf 16ba c53a 8c39 f01b a139 ec1d 33b9
00000330: d29f 23bd b5a9 123a 2881 7eb8 ab31 4e38
00000340: 7f4c 01ba 2672 673a 6951 8c38 4efc a1b9
00000350: 501f a839 0b1f ef39 faca 2bba 65d9 ce39
00000360: 545b e43d 21a8 18ba 6b01 08ba e461 013c
00000370: 57d8 ceb9 2a82 3f3a 07e8 54bd 6d9f a7b9
00000380: 426d 133a c3d4 89bd 969d 8339 0110 c1b8
00000390: 5afb 9abd 8358 06ba cd6b 34ba dd45 8ebd
000003a0: dc27 58ba 2e0a ecb8 f1c7 51bd 0968 3039
000003b0: e8dc 383a e3de 8dbd 63e2 77ba 4c97 5539
000003c0: d79c 95bd 132b beb8 05dc b8b9 1b2b cbbd
000003d0: 5bd4 2139 f60c 34ba 5f4a a8bb 94e4 3cba
000003e0: 67e4 17ba 19b7 42bd e633 323a 869f 463a
000003f0: b4e0 75bd b52c 2439 8804 8b39 e232 aab8
0.04594928 0.00041596807 0.00058973616 0.044231217 4.6432022e-05 0.0003377732 -0.00035020316 0.0008283273
2.379191e-05 -8.403731e-05 -0.00048143044 -0.00045896866 0.031456657 -0.0006331412 -0.0006118214 -0.00093606644
-0.0003897994 0.0008398359 5.524123e-05 -0.0001910273 -0.00012417174 -0.0009948086 -0.0006532469 -0.0005346582
-0.09867538 0.00070679665 0.00010427833 0.0051632454 0.00069254247 0.00033735862 0.019273898 -0.00055610394
2.4009825e-05 0.05231595 8.262158e-06 -0.0004905089 0.05968792 -0.00075204816 0.00019129051 0.058395732
6.3030246e-05 -0.0008040588 0.04441346 0.00081663067 -0.00011227763 0.050627545 0.00066897454 -0.0008214374
0.056830246 0.000747075 -0.00040762022 0.07956369 -0.00045913924 -0.0006896718 -0.0035529935 -0.0006918396
-0.0003380002 0.025039615 -0.00075369683 0.00076835434 0.021478463 -0.0005672325 -6.644857e-05 -0.00043738604
0.041619956 0.068072245 -0.00042050364 0.020101974 0.04840258 -0.00072505546 -0.0004423732 0.040665768
-0.00037481333 -0.0008044254 -0.014281759 -0.0007858638 0.032603607 0.023577064 -0.0008566214 0.00072975183
0.031076072 -0.00019148148 0.00024477174 0.08739397 -0.00093992753 0.00030583897 0.04578514 -0.00055294065
-0.0019888042 0.042465013 0.00018250299 0.004950759 0.0293491 0.00018598748 0.0042335945 0.032896884
-0.00050567 0.03729437 0.0008425718 -0.00056947913 0.027274057 0.08299446 -0.00042946913 0.03331516
0.017092628 0.00022536314 0.042938072 -0.0004591911 -0.00080897385 0.030597398 0.0753832 -0.0003519645
0.017535962 0.052235663 0.00080770045 -0.0008746342 0.01654269 0.00019166745 -0.008327713 -0.0009143857
0.00017061581 0.013848426 0.034243885 -0.00025888372 0.00099201 0.0368875 -0.0006509997 -1.7142297e-06
-0.0168207 -9.2933034e-05 -0.0037602924 -0.020513153 -0.049173977 -0.001783894 -0.0007420085 -0.043844655
-0.00036323623 0.0008475795 -0.036679897 -0.03695686 -0.01788743 -0.021152167 -0.020986294 0.0007424355
-0.057096127 0.046983734 0.0008886579 -0.032804698 -0.040013008 0.00046022717 -0.028655311 0.00092207344
0.0033035243 -0.04391372 0.010383306 0.0022962585 -0.023201436 -0.05393324 -0.017800527 -0.01954714
0.0057142787 -0.013440643 -0.00068521744 0.0028827484 -0.030090706 -0.022441505 -0.08724806 -0.023025278
-0.01271523 -0.025945276 -0.01832724 1.8757464e-05 -0.046792068 -0.023079818 -0.01492348 0.04637907
-0.023593856 -0.02546461 0.17850883 -0.02883472 -0.0241238 -0.068364024 -0.00063006673 5.104411e-05
0.0073044887 -0.0147142885 -0.051175993 0.21329731 -0.018128665 -0.017488798 -0.014290881 0.00026240147
-0.054488022 -0.00030899324 0.00012871767 -0.0633821 0.00048346331 -0.00036427178 -0.0008624968 -0.00043924226
-0.0005753038 0.00026746668 0.00030729128 -0.00017081917 -0.03994734 0.00055947463 -6.0678605e-05 4.9160484e-05
-0.0004932358 0.000882896 6.690884e-05 -0.00030896295 0.00032066787 0.0004560876 -0.0006553378 0.00039453353
0.11150232 -0.0005823393 -0.00051881996 0.007896874 -0.00039452568 0.0007305468 -0.05197909 -0.00031971504
0.00056238857 -0.06730034 0.00025103678 -9.205938e-05 -0.07567473 -0.00051248836 -0.00068825186 -0.06946919
-0.00082456856 -0.00011255253 -0.05121607 0.00016823424 0.00070519606 -0.06927278 -0.00094560365 0.00020369625
-0.073053055 -9.067929e-05 -0.00035259142 -0.09920331 0.00015433265 -0.00068683864 -0.005135819 -0.00072056917
-0.00057942275 -0.047537897 0.00067978946 0.00075768714 -0.060028747 0.00015656913 0.00026515522 -8.115709e-05

_transform._transforms.1.autoregressive_net.blocks.0.linear_layers.1.bias f4 [64]
00000000: 136c df3c 1e73 193d 00f0 a7bc 11ff b1bc
00000010: 8375 a0bc 254d 3e3c 8786 093d 5276 003d
00000020: bf88 f3bb 0bf5 f9bc 17a8 d7bc 97fc 353c
00000030: 2b58 96bc f18b ddbc 3c02 f5bb 5763 ab3c
00000040: 448b 07bd b34c 2e3d 8a0d 21bd 5e82 023d
00000050: 640e b03c 8ceb 8ebc acb5 4d3c f1c7 343c
00000060: c031 853c 1fe9 243c a679 ac39 1b5e 6e3c
00000070: cb98 57bc ae1b 83bc 851e 89bd 777c 2f3d
00000080: 08c8 803c 5da4 c83c 4fd2 29bd a2a7 ebbb
00000090: 1a22 93bc b6c1 1dbd 5d33 0f3c f965 d43b
000000a0: b9b1 afbc 5af5 8bbc 08b9 f2bc b017 00bd
000000b0: f216 0e3d 7460 023d 7e3e ffbc db04 06bd
000000c0: 66ea d13c f985 ad3c c42c 913c 09ad 27bc
000000d0: 6424 2dbc d895 063c baab 9b3c fc7c 96bc
000000e0: d69c 98bc fbe3 313c dd90 c43c 5be9 b83c
000000f0: a70a b3bc 40a1 f5bc 6720 623c ecf9 5cbc
0.027273213 0.0374633 -0.020500183 -0.02172807 -0.019587284 0.011615072 0.03357556 0.03136284
-0.007432073 -0.030512353 -0.026325269 0.011107585 -0.018352589 -0.027044268 -0.007477073 0.020921392
-0.0330918 0.042553615 -0.039319552 0.03186261 0.021491237 -0.017446302 0.012555521 0.011033998
0.016259074 0.010065346 0.00032897032 0.014548804 -0.013158987 -0.01600441 -0.06695274 0.04284331
0.015720382 0.024492437 -0.04146033 -0.0071916142 -0.017960597 -0.038514815 0.008740273 0.0064818827
-0.02144705 -0.017084766 -0.029629245 -0.03127259 0.03468985 0.031830266 -0.031157728 -0.032719474
0.025624465 0.021182047 0.017721541 -0.010234126 -0.010567758 0.0082144365 0.019002784 -0.018370144
-0.018629473 0.010857577 0.023994857 0.02257221 -0.021855665 -0.029984117 0.013801671 -0.01348732

_transform._transforms.1.autoregressive_net.blocks.0.linear_layers.1.mask f4 [64, 64]
00000000: 0000 803f 0000 0000 0000 0000 0000 803f
00000010: 0000 0000 0000 0000 0000 803f 0000 0000
00000020: 0000 0000 0000 803f 0000 0000 0000 0000
00000030: 0000 803f 0000 0000 0000 0000 0000 803f
00000040: 0000 0000 0000 0000 0000 803f 0000 0000
00000050: 0000 0000 0000 803f 0000 0000 0000 0000
00000060: 0000 803f 0000 0000 0000 0000 0000 803f
00000070: 0000 0000 0000 0000 0000 803f 0000 0000
00000080: 0000 0000 0000 803f 0000 0000 0000 0000
00000090: 0000 803f 0000 0000 0000 0000 0000 803f
000000a0: 0000 0000 0000 0000 0000 803f 0000 0000
000000b0: 0000 0000 0000 803f 0000 0000 0000 0000
000000c0: 0000 803f 0000 0000 0000 0000 0000 803f
000000d0: 0000 0000 0000 0000 0000 803f 0000 0000
000000e0: 0000 0000 0000 803f 0000 0000 0000 0000
000000f0: 0000 803f 0000 0000 0000 0000 0000 803f
00000100: 0000 803f 0000 803f 0000 0000 0000 803f
00000110: 0000 803f 0000 0000 0000 803f 0000 803f
00000120: 0000 0000 0000 803f 0000 803f 0000 0000
00000130: 0000 803f 0000 803f 0000 0000 0000 803f
00000140: 0000 803f 0000 0000 0000 803f 0000 803f
00000150: 0000 0000 0000 803f 0000 803f 0000 0000
00000160: 0000 803f 0000 803f 0000 0000 0000 803f
00000170: 0000 803f 0000 0000 0000 803f 0000 803f
00000180: 0000 0000 0000 803f 0000 803f 0000 0000
00000190: 0000 803f 0000 803f 0000 0000 0000 803f
000001a0: 0000 803f 0000 0000 0000 803f 0000 803f
000001b0: 0000 0000 0000 803f 0000 803f 0000 0000
000001c0: 0000 803f 0000 803f 0000 0000 0000 803f
000001d0: 0000 803f 0000 0000 0000 803f 0000 803f
000001e0: 0000 0000 0000 803f 0000 803f 0000 0000
000001f0: 0000 803f 0000 803f 0000 0000 0000 803f
00000200: 0000 803f 0000 803f 0000 803f 0000 803f
00000210: 0000 803f 0000 803f 0000 803f 0000 803f
00000220: 0000 803f 0000 803f 0000 803f 0000 803f
00000230: 0000 803f 0000 803f 0000 803f 0000 803f
00000240: 0000 803f 0000 803f 0000 803f 0000 803f
00000250: 0000 803f 0000 803f 0000 803f 0000 803f
00000260: 0000 803f 0000 803f 0000 803f 0000 803f
00000270: 0000 803f 0000 803f 0000 803f 0000 803f
00000280: 0000 803f 0000 803f 0000 803f 0000 803f
00000290: 0000 803f 0000 803f 0000 803f 0000 803f
000002a0: 0000 803f 0000 803f 0000 803f 0000 803f
000002b0: 0000 803f 0000 803f 0000 803f 0000 803f
000002c0: 0000 803f 0000 803f 0000 803f 0000 803f
000002d0: 0000 803f 0000 803f 0000 803f 0000 803f
000002e0: 0000 803f 0000 803f 0000 803f 0000 803f
000002f0: 0000 803f 0000 803f 0000 803f 0000 803f
00000300: 0000 803f 0000 0000 0000 0000 0000 803f
00000310: 0000 0000 0000 0000 0000 803f 0000 0000
00000320: 0000 0000 0000 803f 0000 0000 0000 0000
00000330: 0000 803f 0000 0000 0000 0000 0000 803f
00000340: 0000 0000 0000 0000 0000 803f 0000 0000
00000350: 0000 0000 0000 803f 0000 0000 0000 0000
00000360: 0000 803f 0000 0000 0000 0000 0000 803f
00000370: 0000 0000 0000 0000 0000 803f 0000 0000
00000380: 0000 0000 0000 803f 0000 0000 0000 0000
00000390: 0000 803f 0000 0000 0000 0000 0000 803f
000003a0: 0000 0000 0000 0000 0000 803f 0000 0000
000003b0: 0000 0000 0000 803f 0000 0000 0000 0000
000003c0: 0000 803f 0000 0000 0000 0000 0000 803f
000003d0: 0000 0000 0000 0000 0000 803f 0000 0000
000003e0: 0000 0000 0000 803f 0000 0000 0000 0000
000003f0: 0000 803f 0000 0000 0000 0000 0000 803f
1.0 0.0 0.0 1.0 0.0 0.0 1.0 0.0
0.0 1.0 0.0 0.0 1.0 0.0 0.0 1.0
0.0 0.0 1.0 0.0 0.0 1.0 0.0 0.0
1.0 0.0 0.0 1.0 0.0 0.0 1.0 0.0
0.0 1.0 0.0 0.0 1.0 0.0 0.0 1.0
0.0 0.0 1.0 0.0 0.0 1.0 0.0 0.0
1.0 0.0 0.0 1.0 0.0 0.0 1.0 0.0
0.0 1.0 0.0 0.0 1.0 0.0 0.0 1.0
1.0 1.0 0.0 1.0 1.0 0.0 1.0 1.0
0.0 1.0 1.0 0.0 1.0 1.0 0.0 1.0
1.0 0.0 1.0 1.0 0.0 1.0 1.0 0.0
1.0 1.0 0.0 1.0 1.0 0.0 1.0 1.0
0.0 1.0 1.0 0.0 1.0 1.0 0.0 1.0
1.0 0.0 1.0 1.0 0.0 1.0 1.0 0.0
1.0 1.0 0.0 1.0 1.0 0.0 1.0 1.0
0.0 1.0 1.0 0.0 1.0 1.0 0.0 1.0
1.0 1.0 1.0 1.0 1.0 1.0 1.0 1.0
1.0 1.0 1.0 1.0 1.0 1.0 1.0 1.0
1.0 1.0 1.0 1.0 1.0 1.0 1.0 1.0
1.0 1.0 1.0 1.0 1.0 1.0 1.0 1.0
1.0 1.0 1.0 1.0 1.0 1.0 1.0 1.0
1.0 1.0 1.0 1.0 1.0 1.0 1.0 1.0
1.0 1.0 1.0 1.0 1.0 1.0 1.0 1.0
1.0 1.0 1.0 1.0 1.0 1.0 1.0 1.0
1.0 0.0 0.0 1.0 0.0 0.0 1.0 0.0
0.0 1.0 0.0 0.0 1.0 0.0 0.0 1.0
0.0 0.0 1.0 0.0 0.0 1.0 0.0 0.0
1.0 0.0 0.0 1.0 0.0 0.0 1.0 0.0
0.0 1.0 0.0 0.0 1.0 0.0 0.0 1.0
0.0 0.0 1.0 0.0 0.0 1.0 0.0 0.0
1.0 0.0 0.0 1.0 0.0 0.0 1.0 0.0
0.0 1.0 0.0 0.0 1.0 0.0 0.0 1.0

_transform._transforms.1.autoregressive_net.blocks.1.linear_layers.0.weight f4 [64, 64]
00000000: 4fbe c93d 16a2 b63d 1265 83bd d4e5 9ebd
00000010: 86f1 e23d 1236 ffbd 0012 0b3e 866f e93d
00000020: c665 8ebd c225 1abd 787d ee3c 8097 bbbd
00000030: 7ce7 36bd 00a9 e5bc f6fd f23d 762e a1bd
00000040: e0b7 cf3d 6e2c fabd 321b 873e 4ce8 7a3d
00000050: 40e4 a23d 1c30 18bd e042 efbc 781f e5bd
00000060: 45b2 1f3d 1a8f 943d 008c d639 204d 083e
00000070: b089 c6bc 7aa3 cf3d a714 833d 6c48 c1bd
00000080: 90e0 c2bc a9e5 aebb a454 5e3d 2e25 e0bd
00000090: 5de7 383d 9674 e0bd 4ae2 e6bd e5aa e43d
000000a0: 6012 ec3b 1010 7b3c e123 873c 0002 423a
000000b0: 588b 9d3c 6015 993d 20d4 cbbc 088f 933c
000000c0: b5a4 ef3d c61c ae3d 8882 d43d 3f40 ad3d
000000d0: 5e64 ebbd 28f7 fe3c 294e 60bd 502d 20bd
000000e0: f0fe 823d d83f bc3b a0b6 4e3c 4296 e5bd
000000f0: 8a44 53bd e83a 19bd acab 403d 03d0 0f3e
00000100: ccc1 f63d 25e2 073c b22d e13d c0cd 3f3d
00000110: e56c 4dbd 2817 a23d 7d6a 1c3d fca5 fa3d
00000120: 0e3b 8b3d e852 0f3d ed6d 4cbe 8c7a 163d
00000130: 1aee e4bd f1cd d2be b418 4fbd 1c71 d43b
00000140: d4c8 6d3d 0cea 753d 1426 9abc 560d 5cbd
00000150: 2ebf 813d 16b2 c43c a244 89bd e856 fe3d
00000160: 9ab4 92bd d304 993c c8aa cc3c e495 fcbd
00000170: ec06 92bd 50db cdbd 7b8e 1ebe d878 cebe
00000180: 0e7a d83d 5833 7dbd 2eeb 76bd 00c8 86ba
00000190: a1c2 15be 5031 eb3c 70e7 ba3d 3da9 97bd
000001a0: 989a e0bd aecb de3d f116 e43d e9be eb3d
000001b0: 5cc5 f73d 1d2a 033e 9f98 a23d 1484 b6bd
000001c0: 6955 b0bd a4fa dcbb 5c75 bfbd ef6e d7bd
000001d0: 5cf2 883d 347a 9dbd 9740 5f3d 0677 483c
000001e0: 6cbc ca3d 3f91 a1bc dd8f 6ebd e43f 88bd
000001f0: a6ba db3d 1fed ca3e 60e9 f63d 6344 8b3d
00000200: 1133 0c3e 71b0 60bb 8ee1 26be a6db e6bd
00000210: df86 383d d2e2 a2bd 1a68 0a3e 0d96 bf3d
00000220: cd2e c03d dc6c 8abc 678d 44be 600d 73be
00000230: c63a b13c 3d11 b1be 64be 423d b5ea 9ebc
00000240: 9c2c a4bd 771f f2bc 4b3f ecbe a165 40be
00000250: ee3b 663d e5ff a5bd fa37 ccbd c7eb c9bd
00000260: 64bb cdbd 495a ccbc 988d d6bc faa0 1bbe
00000270: bf31 11be 5090 073e 1d6a 93bd f1ca c7be
00000280: e07a 53be 1591 11be bfdc b83d d510 403e
00000290: b418 c03d d0fd a63d e3b9 6ebd 89a8 44be
000002a0: 5aac db3d c41f ea3d 50ba dabd 7bc8 64bd
000002b0: aaf9 06bc b783 0d39 5bfb 733c 163f e23d
000002c0: 333e 0d3e 761e 53bd 57ff 2b3e 6980 acbd
000002d0: b4f4 fc3c 425d cfbc af4a 58bd 779b a8bd
000002e0: 6ff1 99bd d200 f7bb 5aaa 283d 26be 0b3e
000002f0: 62cf ae3d bc5f 1ebe 22f4 ecbc 4519 ba3d
00000300: ae41 d8bd 888d 1abd a299 afbd 2637 83bd
00000310: c096 11bb 1416 12bd dd07 0ebe 8074 013d
00000320: d8c3 cfbd d752 653a 7ceb 37bd 6215 c63d
00000330: 5fc2 973c f23d c4bd dcf5 343d 8fde 98bd
00000340: 88f4 efbc d42f 053d 3636 a43e b009 753d
00000350: 1c6f 7d3d 82a7 14bd 20f9 823d 9619 bcbd
00000360: 835c 1f3d 748a 913d e0f1 a73d 281b 223e
00000370: 6649 a6bd 5823 88bd e2ed b73c d0a6 e43d
00000380: 0056 9739 bda1 c6bc 88f9 85bd 2026 a83c
00000390: c54f 69bd e0fe cb3d c021 4ebc fcc8 5a3e
000003a0: 207e 783c 6a01 b53d f154 ed3d 641f c6bd
000003b0: b2c0 fa3d d42f 5e3d acef 5e3d 8806 71bd
000003c0: a26f b93d 0491 833d 1c26 cdbd ea0f f93d
000003d0: 12bb fabd 4034 393b b34f 163e b415 f23d
000003e0: 088d a63d 0829 8ebb 8069 85ba 00b1 62bd
000003f0: b803 293c 5600 c5bd 70e9 453c 79f3 403d
0.098507516 0.08917634 -0.06415762 -0.0775868 0.11081223 -0.12461485 0.13581085 0.113982245
-0.069530055 -0.037633665 0.029112563 -0.09159756 -0.044654354 -0.028034687 0.118648455 -0.0787019
0.10142493 -0.122155055 0.26387936 0.06125669 0.079536915 -0.037155256 -0.029206693 -0.11187643
0.03898837 0.07253857 0.0004092157 0.13310671 -0.024235576 0.101386026 0.064004235 -0.094376415
-0.02378872 -0.005337436 0.05427994 -0.109445915 0.04514252 -0.10959737 -0.1127363 0.11165408
0.007204339 0.015323654 0.0164966 0.0007400811 0.019231483 0.0747478 -0.024881423 0.018012539
0.11701337 0.08501582 0.10376459 0.084595196 -0.11493753 0.031123713 -0.05476204 -0.039105713
0.06396282 0.0057449155 0.012616783 -0.112103 -0.051579036 -0.037409693 0.04703872 0.14044194
0.120486826 0.008293663 0.10995044 0.046827078 -0.050152678 0.07914573 0.038187493 0.1223869
0.06798373 0.034991175 -0.19963808 0.036737964 -0.11178227 -0.41172746 -0.050560668 0.0064832103
0.058052853 0.060037658 -0.018816985 -0.053723656 0.06335293 0.0240107 -0.06702544 0.1241892
-0.07163353 0.018679058 0.024983779 -0.12333277 -0.071302265 -0.10051596 -0.1548404 -0.4032657
0.10570155 -0.061816543 -0.06028288 -0.0010282993 -0.14625026 0.028710037 0.091261744 -0.074053265
-0.109669864 0.108786926 0.11137188 0.115110226 0.1209819 0.12809034 0.079392664 -0.08911911
-0.08610041 -0.006743746 -0.093485564 -0.10519206 0.066868514 -0.07689324 0.054504957 0.012235409
0.0989922 -0.019722579 -0.058242667 -0.06652811 0.1072896 0.39634034 0.120562315 0.06800153
0.13691355 -0.0034284855 -0.1629698 -0.11272363 0.045050498 -0.07953419 0.13516274 0.09354792
0.093839265 -0.016897611 -0.19194566 -0.23735571 0.02163447 -0.34583464 0.047544852 -0.019399026
-0.08016321 -0.02955602 -0.4614204 -0.18788768 0.056209497 -0.08105449 -0.09971614 -0.09859424
-0.100455076 -0.024945395 -0.026190564 -0.15198126 -0.14179133 0.13238645 -0.07197974 -0.3902202
-0.20652342 -0.142155 0.09026479 0.18756421 0.09379712 0.0815388 -0.058282744 -0.19204916
0.10726233 0.1143184 -0.106800675 -0.055855256 -0.0082382355 0.00013495875 0.014891471 0.11047189
0.13793258 -0.05154272 0.16796623 -0.0842293 0.030878402 -0.025313023 -0.0528056 -0.082327776
-0.07516753 -0.0075379396 0.041178085 0.13646755 0.08535649 -0.15466207 -0.028925005 0.09086851
-0.105594024 -0.03773263 -0.08574225 -0.06407003 -0.0022215098 -0.035665587 -0.13870187 0.031605244
-0.10144776 0.0008748001 -0.04490231 0.09672047 0.0185253 -0.09582128 0.044179782 -0.07464325
-0.029291406 0.032516316 0.3207261 0.05982369 0.06187354 -0.03629256 0.06395173 -0.09184568
0.038906585 0.07106486 0.08200431 0.15830672 -0.081194684 -0.06647366 0.022452299 0.111646295
0.0002886504 -0.024247045 -0.06541735 0.020525992 -0.05696084 0.09960723 -0.012581289 0.21365732
0.015166789 0.0883816 0.11588467 -0.09673956 0.12243785 0.05424483 0.054427788 -0.05884412
0.090544954 0.06424144 -0.100170344 0.121612385 -0.12242712 0.0028259903 0.1467884 0.11820546
0.08132368 -0.0043383874 -0.0010178536 -0.05534458 0.010315828 -0.09619205 0.012079582 0.047107194

_transform._transforms.1.autoregressive_net.blocks.1.linear_layers.0.bias f4 [64]
00000000: 7e00 c33c 7ab4 df3d 3a20 063c 5251 9dbc
00000010: 37a8 a0bc 0337 75bc db44 dc3d a70b 593d
00000020: a8b0 9dbd 51ee d53d 6fe5 e9bc a74c cabc
00000030: efd0 2f3b 1993 a4be 31a7 21bd 2792 c43c
00000040: d02e bdbd 786b d3bc 4f67 c83c 2367 64be
00000050: aac2 b73d 4797 8f3d 6485 0cba 8a4a 0bbe
00000060: f871 d03c 2d19 573d 9c9e cd3d 2a77 97bc
00000070: 4448 a83d 17e9 583d dc0c 4fbd c1f2 4f3d
00000080: edc0 6cbd df55 73bd d88a 063e ca93 8a3d
00000090: 38f3 5bbd 0ee3 aa3d b78c 1cbd a018 d6bd
000000a0: 69b3 cb3c 21f2 c0bd a005 023d 4ce6 e9bd
000000b0: 32e6 063c 64c7 31bd 7f15 1f3d b366 843d
000000c0: b994 443d 977b 02bc d33f b0bd c413 3dbd
000000d0: c919 493d 4ebd 68bd 1ad5 fbb9 6260 013e
000000e0: 9c83 63bd fd36 5d3d 0bc0 c33c 447e f13d
000000f0: 162b 833d 5b6d ad3c 43af 61bd 373f 593d
0.023803946 0.10923095 0.008186394 -0.019203816 -0.019611461 -0.014966729 0.10755321 0.05298963
-0.0769971 0.10445846 -0.028551785 -0.024694754 0.0026827415 -0.32143477 -0.039466087 0.023995472
-0.092374444 -0.025808081 0.024463324 -0.22304969 0.08972676 0.07011276 -0.0005360453 -0.13602653
0.02544497 0.052514244 0.10040018 -0.018489439 0.082169086 0.052956667 -0.050549373 0.050768618
-0.057801176 -0.059408065 0.13138902 0.0676647 -0.05369875 0.083440885 -0.038220134 -0.104539156
0.024865823 -0.094211824 0.031743646 -0.11420879 0.008233594 -0.043403044 0.03883886 0.06464901
0.047993395 -0.007964036 -0.086059235 -0.046161428 0.049096856 -0.05682116 -0.00048033224 0.12634423
-0.055545434 0.05400752 0.023895284 0.117916614 0.06404702 0.021170309 -0.055098783 0.053038802

_transform._transforms.1.autoregressive_net.blocks.1.linear_layers.0.mask f4 [64, 64]
00000000: 0000 803f 0000 0000 0000 0000 0000 803f
00000010: 0000 0000 0000 0000 0000 803f 0000 0000
00000020: 0000 0000 0000 803f 0000 0000 0000 0000
00000030: 0000 803f 0000 0000 0000 0000 0000 803f
00000040: 0000 0000 0000 0000 0000 803f 0000 0000
00000050: 0000 0000 0000 803f 0000 0000 0000 0000
00000060: 0000 803f 0000 0000 0000 0000 0000 803f
00000070: 0000 0000 0000 0000 0000 803f 0000 0000
00000080: 0000 0000 0000 803f 0000 0000 0000 0000
00000090: 0000 803f 0000 0000 0000 0000 0000 803f
000000a0: 0000 0000 0000 0000 0000 803f 0000 0000
000000b0: 0000 0000 0000 803f 0000 0000 0000 0000
000000c0: 0000 803f 0000 0000 0000 0000 0000 803f
000000d0: 0000 0000 0000 0000 0000 803f 0000 0000
000000e0: 0000 0000 0000 803f 0000 0000 0000 0000
000000f0: 0000 803f 0000 0000 0000 0000 0000 803f
00000100: 0000 803f 0000 803f 0000 0000 0000 803f
00000110: 0000 803f 0000 0000 0000 803f 0000 803f
00000120: 0000 0000 0000 803f 0000 803f 0000 0000
00000130: 0000 803f 0000 803f 0000 0000 0000 803f
00000140: 0000 803f 0000 0000 0000 803f 0000 803f
00000150: 0000 0000 0000 803f 0000 803f 0000 0000
00000160: 0000 803f 0000 803f 0000 0000 0000 803f
00000170: 0000 803f 0000 0000 0000 803f 0000 803f
00000180: 0000 0000 0000 803f 0000 803f 0000 0000
00000190: 0000 803f 0000 803f 0000 0000 0000 803f
000001a0: 0000 803f 0000 0000 0000 803f 0000 803f
000001b0: 0000 0000 0000 803f 0000 803f 0000 0000
000001c0: 0000 803f 0000 803f 0000 0000 0000 803f
000001d0: 0000 803f 0000 0000 0000 803f 0000 803f
000001e0: 0000 0000 0000 803f 0000 803f 0000 0000
000001f0: 0000 803f 0000 803f 0000 0000 0000 803f
00000200: 0000 803f 0000 803f 0000 803f 0000 803f
00000210: 0000 803f 0000 803f 0000 803f 0000 803f
00000220: 0000 803f 0000 803f 0000 803f 0000 803f
00000230: 0000 803f 0000 803f 0000 803f 0000 803f
00000240: 0000 803f 0000 803f 0000 803f 0000 803f
00000250: 0000 803f 0000 803f 0000 803f 0000 803f
00000260: 0000 803f 0000 803f 0000 803f 0000 803f
00000270: 0000 803f 0000 803f 0000 803f 0000 803f
00000280: 0000 803f 0000 803f 0000 803f 0000 803f
00000290: 0000 803f 0000 803f 0000 803f 0000 803f
000002a0: 0000 803f 0000 803f 0000 803f 0000 803f
000002b0: 0000 803f 0000 803f 0000 803f 0000 803f
000002c0: 0000 803f 0000 803f 0000 803f 0000 803f
000002d0: 0000 803f 0000 803f 0000 803f 0000 803f
000002e0: 0000 803f 0000 803f 0000 803f 0000 803f
000002f0: 0000 803f 0000 803f 0000 803f 0000 803f
00000300: 0000 803f 0000 0000 0000 0000 0000 803f
00000310: 0000 0000 0000 0000 0000 803f 0000 0000
00000320: 0000 0000 0000 803f 0000 0000 0000 0000
00000330: 0000 803f 0000 0000 0000 0000 0000 803f
00000340: 0000 0000 0000 0000 0000 803f 0000 0000
00000350: 0000 0000 0000 803f 0000 0000 0000 0000
00000360: 0000 803f 0000 0000 0000 0000 0000 803f
00000370: 0000 0000 0000 0000 0000 803f 0000 0000
00000380: 0000 0000 0000 803f 0000 0000 0000 0000
00000390: 0000 803f 0000 0000 0000 0000 0000 803f
000003a0: 0000 0000 0000 0000 0000 803f 0000 0000
000003b0: 0000 0000 0000 803f 0000 0000 0000 0000
000003c0: 0000 803f 0000 0000 0000 0000 0000 803f
000003d0: 0000 0000 0000 0000 0000 803f 0000 0000
000003e0: 0000 0000 0000 803f 0000 0000 0000 0000
000003f0: 0000 803f 0000 0000 0000 0000 0000 803f
1.0 0.0 0.0 1.0 0.0 0.0 1.0 0.0
0.0 1.0 0.0 0.0 1.0 0.0 0.0 1.0
0.0 0.0 1.0 0.0 0.0 1.0 0.0 0.0
1.0 0.0 0.0 1.0 0.0 0.0 1.0 0.0
0.0 1.0 0.0 0.0 1.0 0.0 0.0 1.0
0.0 0.0 1.0 0.0 0.0 1.0 0.0 0.0
1.0 0.0 0.0 1.0 0.0 0.0 1.0 0.0
0.0 1.0 0.0 0.0 1.0 0.0 0.0 1.0
1.0 1.0 0.0 1.0 1.0 0.0 1.0 1.0
0.0 1.0 1.0 0.0 1.0 1.0 0.0 1.0
1.0 0.0 1.0 1.0 0.0 1.0 1.0 0.0
1.0 1.0 0.0 1.0 1.0 0.0 1.0 1.0
0.0 1.0 1.0 0.0 1.0 1.0 0.0 1.0
1.0 0.0 1.0 1.0 0.0 1.0 1.0 0.0
1.0 1.0 0.0 1.0 1.0 0.0 1.0 1.0
0.0 1.0 1.0 0.0 1.0 1.0 0.0 1.0
1.0 1.0 1.0 1.0 1.0 1.0 1.0 1.0
1.0 1.0 1.0 1.0 1.0 1.0 1.0 1.0
1.0 1.0 1.0 1.0 1.0 1.0 1.0 1.0
1.0 1.0 1.0 1.0 1.0 1.0 1.0 1.0
1.0 1.0 1.0 1.0 1.0 1.0 1.0 1.0
1.0 1.0 1.0 1.0 1.0 1.0 1.0 1.0
1.0 1.0 1.0 1.0 1.0 1.0 1.0 1.0
1.0 1.0 1.0 1.0 1.0 1.0 1.0 1.0
1.0 0.0 0.0 1.0 0.0 0.0 1.0 0.0
0.0 1.0 0.0 0.0 1.0 0.0 0.0 1.0
0.0 0.0 1.0 0.0 0.0 1.0 0.0 0.0
1.0 0.0 0.0 1.0 0.0 0.0 1.0 0.0
0.0 1.0 0.0 0.0 1.0 0.0 0.0 1.0
0.0 0.0 1.0 0.0 0.0 1.0 0.0 0.0
1.0 0.0 0.0 1.0 0.0 0.0 1.0 0.0
0.0 1.0 0.0 0.0 1.0 0.0 0.0 1.0
