model1/epoch=99modello-N_iter6-N_features64-N_BS10000-epochs1000-lr0.001.pth (torch, 918058 bytes, 108 tensors)

_transform._transforms.1.autoregressive_net.initial_layer.weight f4 [64, 4]
0	0x3dd87673	0.105694674
1	0x3eeede46	0.46653956
2	0x3eac424a	0.33644325
3	0xbe469ae4	-0.19395024
4	0x3e938768	0.28814244
5	0x3ee03a23	0.43794355
6	0x3ebbf9d4	0.3671404
7	0xbe906b28	-0.28206754
8	0x3d5dc552	0.054143257
9	0xbe970966	-0.29499358
10	0xbecbafb2	-0.39782482
11	0xbdfcdd70	-0.12346923
12	0x3c8d87e4	0.017276712
13	0xbe8b66da	-0.27226907
14	0xbea0eade	-0.3142919
15	0xbec4bc4e	-0.38424915
16	0xbee356ab	-0.4440206
17	0xbda76e1b	-0.08175298
18	0x3cfa9120	0.03058678
19	0x3ece77fe	0.40325922
20	0xbe16b4d8	-0.14717424
21	0xbecb2a0e	-0.39680523
22	0x3bd60f81	0.00653261
23	0x3ec432de	0.3832006
24	0x3eb63b33	0.3559204
25	0xbda9f7c8	-0.08299214
26	0xbcc03240	-0.023461461
27	0xbeff863c	-0.499071
28	0x3f053f36	0.5204958
29	0xbeedc7a6	-0.46441382
30	0x3e9ec2b0	0.3100791
31	0x3eee8612	0.46586663
32	0x3e6b5e47	0.22985183
33	0xbb72ea76	-0.003706602
34	0x3eb03fbd	0.34423628
35	0x3dfded70	0.12398803
36	0xbe47457c	-0.194601
37	0x3ed9bc26	0.42526358
38	0x3eb5eb12	0.35530907
39	0xbc2d8dc0	-0.010592878
40	0x3ed27b66	0.4110977
41	0xbeefaac0	-0.4680996
42	0x3d3ee080	0.04660082
43	0x3ebb69bc	0.36604106
44	0xbec67e70	-0.3876834
45	0x3c319fa4	0.010841284
46	0xbc9dd785	-0.019267807
47	0xbd89f8a8	-0.067368805
48	0x3dfc7c52	0.123284
49	0xbecbf44a	-0.39834815
50	0x3e7e5c18	0.24839818
51	0x3ab2ca00	0.0013640523
52	0xbdbe5f7b	-0.09295555
53	0xbefe4b2f	-0.49666736
54	0x3edc0e06	0.4297945
55	0x3d38afd0	0.045089543
56	0x3ee0390c	0.43793523
57	0x3decb3e9	0.11557753
58	0x3ed9c0d1	0.4252992
59	0x3ea3b530	0.31974173
60	0x3e9c1ad6	0.30489224
61	0x3bd24600	0.006417036
62	0xbea322cc	-0.31862485
63	0xbd49a360	-0.049228072
64	0xbe3171b8	-0.17328537
65	0x3da3f851	0.08006347
66	0xbece94ce	-0.40347904
67	0xbe7063bc	-0.23475546
68	0xbec73403	-0.3890687
69	0x3d5f5b9b	0.05453072
70	0x3e60df90	0.21960282
71	0xbe1e6808	-0.15469372
72	0xbe96262b	-0.29325995
73	0x3c3354c0	0.010945499
74	0xbed03756	-0.40667218
75	0xbec09dd6	-0.3762042
76	0xbe0ed7db	-0.1394953
77	0xbdf226ab	-0.118237816
78	0x3e2cf958	0.16891992
79	0xbe8c701e	-0.2742929
80	0x3de705e9	0.11280424
81	0x3de58860	0.11207652
82	0x3d199cca	0.03750304
83	0x3e3db51c	0.18526119
84	0xbe34b19a	-0.17645875
85	0x3ee771de	0.4520406
86	0xbd39a8a0	-0.04532683
87	0x3ed9e366	0.42556304
88	0xbe7b8d4f	-0.24565624
89	0x3ea6ec25	0.3260204
90	0x3db6f820	0.08934045
91	0x3ece0c7c	0.402439
92	0x3e92b712	0.28655297
93	0x3c51732d	0.012783808
94	0xbe19444b	-0.14967458
95	0x3ec6bc66	0.38815612
96	0x3d120f95	0.03565939
97	0x3e8770be	0.26453203
98	0x3e0c3e6c	0.13695687
99	0x3ecfb116	0.40564793
100	0x3e057ac1	0.13035108
101	0xbeb5297d	-0.35383216
102	0x3eb3c2aa	0.35109454
103	0x3e49093c	0.19632429
104	0xbd5483cd	-0.051883508
105	0x3e7175f6	0.23580155
106	0xbe437e14	-0.19091064
107	0xbef0f3ce	-0.47061008
108	0xbe5fad9f	-0.21843575
109	0x3ddf7488	0.109108984
110	0x3eb29364	0.34878075
111	0x3c6ca480	0.014443517
112	0xbe8b7ad9	-0.27242163
113	0x3dd4a488	0.10382944
114	0xbeca6e32	-0.39537197
115	0xbd600360	-0.05469072
116	0x3e405415	0.18782075
117	0x3cf27a0d	0.029599214
118	0xbd900b60	-0.070334196
119	0x3e0c29d0	0.13687825
120	0xbebbc411	-0.36673024
121	0x3d7c4880	0.06159258
122	0xbe081df8	-0.13292682
123	0x3eb36a5c	0.35042083
124	0x3e8e0e58	0.27745318
125	0xbe99c2d4	-0.30031455
126	0xbea38352	-0.31936127
127	0xbefe30e8	-0.49646688
128	0xbea16db2	-0.31529003
129	0x3d985696	0.0743839
130	0xbf004cb0	-0.50117016
131	0x3eb2e7b2	0.34942394
132	0xbe9aac43	-0.3020955
133	0x3e49d0f4	0.19708616
134	0xbe9b34cc	-0.30313718
135	0x3e43e400	0.19129944
136	0x3e08326d	0.13300486
137	0xbd1a7a2e	-0.037714176
138	0x3ebb5d6e	0.3659472
139	0x3ea64040	0.32470894
140	0xbdc1d873	-0.094651125
141	0x3ed86944	0.4226781
142	0x3ed3475b	0.41265377
143	0xbd84f6a0	-0.064923525
144	0x3f0c65bf	0.5484275
145	0xbedf95a0	-0.43668842
146	0x3eb9df7e	0.36303324
147	0x3dd88c78	0.10573667
148	0xbe21ac1f	-0.15788315
149	0x3dc6d71d	0.09708998
150	0x3da08750	0.07838309
151	0x3ebfdfe4	0.37475502
152	0x3ec76186	0.38941592
153	0xbeb71925	-0.3576137
154	0x3ee802b9	0.45314577
155	0xbe9ecaba	-0.31014043
156	0xbe634226	-0.22193202
157	0x3ee32fc2	0.44372374
158	0x3e40a388	0.18812382
159	0x3cab6040	0.020919919
160	0xbe5dffc5	-0.216796
161	0x3eac7c65	0.33688655
162	0xbefc3918	-0.4926231
163	0x3df3ca00	0.11903763
164	0x3cbd967b	0.023143044
165	0x3ee085e5	0.43852153
166	0x3e863d0d	0.26218453
167	0xbe477024	-0.19476372
168	0xbe14835b	-0.14503233
169	0x3d9a4338	0.07532352
170	0xba1d5000	-0.00060009956
171	0x3dbc54c8	0.09195858
172	0xbea8e17f	-0.3298454
173	0xbe7f267e	-0.24917027
174	0x3e6ac954	0.22928363
175	0x3db6d3f0	0.089271426
176	0xbe9a78cb	-0.30170283
177	0x3e3bd9c6	0.18344793
178	0x3e146906	0.14493188
179	0x3edbe416	0.42947453
180	0x3e750818	0.23928869
181	0xbe225728	-0.1585356
182	0xbedf3438	-0.43594527
183	0x3dbc4f68	0.09194833
184	0x3ef042c5	0.4692594
185	0x3ea1e73f	0.3162174
186	0x3d757260	0.05992353
187	0xbe7c43f8	-0.24635303
188	0x3d66aba9	0.05631605
189	0x3ed0c249	0.40773228
190	0x3eed3e46	0.46336573
191	0xbe481324	-0.19538552
192	0x3ebf5578	0.37369895
193	0xbea81f2c	-0.32836282
194	0xbd689dd0	-0.056791127
195	0xbe6469bc	-0.2230596
196	0xbecc60b3	-0.39917526
197	0x3e5bbccc	0.21458739
198	0xbe6bfa50	-0.23044705
199	0x3cd5c200	0.026093483
200	0xbee6936d	-0.45034352
201	0x3e853484	0.2601663
202	0x3ee759e1	0.4518576
203	0x3e991c24	0.29904282
204	0xbe1aa10b	-0.15100496
205	0x3ec3e2c2	0.3825894
206	0xbe9faa94	-0.31184828
207	0x3aff8200	0.0019493699
208	0x3e9a958a	0.30192214
209	0x3ec996dc	0.3937291
210	0x3ea48636	0.32133645
211	0xbe0bb798	-0.13644254
212	0x3e762316	0.24036822
213	0x3e446585	0.19179352
214	0xbeae3a09	-0.34028652
215	0xbe7b401c	-0.24536175
216	0xbe472d27	-0.19450818
217	0x3ebfcba2	0.37460047
218	0x3e9f1b8a	0.31075698
219	0x3ed3b3f8	0.41348243
220	0xbc6dffb2	-0.014526295
221	0xbf046106	-0.51710546
222	0xbee76cb0	-0.4520011
223	0x3ea52bee	0.32260078
224	0x3eaa3c82	0.3324929
225	0x3e9c7702	0.30559546
226	0x3e7230cd	0.23651429
227	0x3d083720	0.033255696
228	0x3f009b0d	0.5023659
229	0xbe8c7772	-0.2743488
230	0x3df2d438	0.11856884
231	0x3d2c21b0	0.042024314
232	0xbe35eb77	-0.17765604
233	0xbc73af05	-0.014873271
234	0x3ea8d41c	0.32974327
235	0x3e56cf0c	0.2097742
236	0xbe7d61e7	-0.24744378
237	0x3ec5e490	0.38650942
238	0xbec9180b	-0.39276156
239	0xbe01fd64	-0.12694317
240	0x3dec41e1	0.11536003
241	0x3eee75ae	0.46574157
242	0x3de22720	0.11042619
243	0x3ece3bc8	0.40279984
244	0x3ef49c8d	0.4777569
245	0xbecb7afd	-0.3974227
246	0xbdccb5d8	-0.099956214
247	0x3eb56f84	0.35436642
248	0xbecfb40c	-0.40567052
249	0x3da33fb1	0.079711325
250	0x3dd99af4	0.10625258
251	0xbee972c0	-0.4559536
252	0x3eda1267	0.42592165
253	0xbeb9fb2e	-0.36324447
254	0xbee55896	-0.44794148
255	0xbec1152a	-0.3771146

_transform._transforms.1.autoregressive_net.initial_layer.bias f4 [64]
0	0x3c9b9d25	0.01899583
1	0xbe172dd1	-0.14763571
2	0x3ebfc3c1	0.37454036
3	0xbeb8712b	-0.3602384
4	0x3e63e87f	0.22256659
5	0x3d928dad	0.07155929
6	0xbecc189c	-0.39862525
7	0x3ed1df00	0.40990448
8	0xbc897dc3	-0.0167836
9	0x3e508db3	0.20366554
10	0xbe40b22d	-0.18817969
11	0xbe5f0228	-0.21778166
12	0xbe686c12	-0.22697476
13	0xbef86b60	-0.4851942
14	0x3e82ae13	0.25523433
15	0xbe74ccce	-0.23906252
16	0xbe4780fc	-0.19482797
17	0xbe5c383e	-0.2150583
18	0xbe6b4f0e	-0.22979376
19	0xbe2fd464	-0.17170864
20	0xbe8cfc78	-0.27536368
21	0x3da1692a	0.078813866
22	0x3ed07de2	0.4072104
23	0x3e85f6d6	0.26164883
24	0x3e02ff6e	0.12792751
25	0x3db38fc0	0.087676525
26	0x3daff770	0.08592117
27	0x3dc0430f	0.093877904
28	0x3dbb5ca4	0.09148529
29	0xbea5cafe	-0.32381433
30	0xbde0ad1c	-0.10970518
31	0xbede1c08	-0.4338076
32	0x3deb6438	0.114937246
33	0x3e3f0d3b	0.18657391
34	0x3c3418c5	0.010992234
35	0x3da71078	0.08157438
36	0xbe3a8dfc	-0.18218225
37	0x3ea41003	0.32043466
38	0xbddb6a3c	-0.10713622
39	0xbd90ff55	-0.07079951
40	0x3ecd4acf	0.40096137
41	0x3eae4f2c	0.34044778
42	0x3e4862b3	0.19568901
43	0x3e9bfdcf	0.30467078
44	0xbe0fe545	-0.14052303
45	0x3e8a9243	0.27064714
46	0xbea81c39	-0.32834032
47	0xbeac243f	-0.33621404
48	0x3cfb5235	0.030678848
49	0xbebb11eb	-0.36537108
50	0xbd0f4f4e	-0.03498774
51	0x3e433763	0.19064097
52	0xbe0f7416	-0.14009127
53	0x3ee56667	0.4480469
54	0xbc7c346a	-0.015393356
55	0xbc66983f	-0.014074384
56	0xbeb331d8	-0.34998965
57	0xbead6555	-0.33866373
58	0xbd95c491	-0.07312883
59	0xbe11076c	-0.14162987
60	0x3e6c89a5	0.23099382
61	0xbdb2a545	-0.08722929
62	0x3ef07055	0.46960703
63	0xbecc8026	-0.3994152

_transform._transforms.1.autoregressive_net.initial_layer.mask f4 [64, 4]
0	0x3f800000	1.0
1	0x00000000	0.0
2	0x00000000	0.0
3	0x00000000	0.0
4	0x3f800000	1.0
5	0x3f800000	1.0
6	0x00000000	0.0
7	0x00000000	0.0
8	0x3f800000	1.0
9	0x3f800000	1.0
10	0x3f800000	1.0
11	0x00000000	0.0
12	0x3f800000	1.0
13	0x00000000	0.0
14	0x00000000	0.0
15	0x00000000	0.0
16	0x3f800000	1.0
17	0x3f800000	1.0
18	0x00000000	0.0
19	0x00000000	0.0
20	0x3f800000	1.0
21	0x3f800000	1.0
22	0x3f800000	1.0
23	0x00000000	0.0
24	0x3f800000	1.0
25	0x00000000	0.0
26	0x00000000	0.0
27	0x00000000	0.0
28	0x3f800000	1.0
29	0x3f800000	1.0
30	0x00000000	0.0
31	0x00000000	0.0
32	0x3f800000	1.0
33	0x3f800000	1.0
34	0x3f800000	1.0
35	0x00000000	0.0
36	0x3f800000	1.0
37	0x00000000	0.0
38	0x00000000	0.0
39	0x00000000	0.0
40	0x3f800000	1.0
41	0x3f800000	1.0
42	0x00000000	0.0
43	0x00000000	0.0
44	0x3f800000	1.0
45	0x3f800000	1.0
46	0x3f800000	1.0
47	0x00000000	0.0
48	0x3f800000	1.0
49	0x00000000	0.0
50	0x00000000	0.0
51	0x00000000	0.0
52	0x3f800000	1.0
53	0x3f800000	1.0
54	0x00000000	0.0
55	0x00000000	0.0
56	0x3f800000	1.0
57	0x3f800000	1.0
58	0x3f800000	1.0
59	0x00000000	0.0
60	0x3f800000	1.0
61	0x00000000	0.0
62	0x00000000	0.0
63	0x00000000	0.0
64	0x3f800000	1.0
65	0x3f800000	1.0
66	0x00000000	0.0
67	0x00000000	0.0
68	0x3f800000	1.0
69	0x3f800000	1.0
70	0x3f800000	1.0
71	0x00000000	0.0
72	0x3f800000	1.0
73	0x00000000	0.0
74	0x00000000	0.0
75	0x00000000	0.0
76	0x3f800000	1.0
77	0x3f800000	1.0
78	0x00000000	0.0
79	0x00000000	0.0
80	0x3f800000	1.0
81	0x3f800000	1.0
82	0x3f800000	1.0
83	0x00000000	0.0
84	0x3f800000	1.0
85	0x00000000	0.0
86	0x00000000	0.0
87	0x00000000	0.0
88	0x3f800000	1.0
89	0x3f800000	1.0
90	0x00000000	0.0
91	0x00000000	0.0
92	0x3f800000	1.0
93	0x3f800000	1.0
94	0x3f800000	1.0
95	0x00000000	0.0
96	0x3f800000	1.0
97	0x00000000	0.0
98	0x00000000	0.0
99	0x00000000	0.0
100	0x3f800000	1.0
101	0x3f800000	1.0
102	0x00000000	0.0
103	0x00000000	0.0
104	0x3f800000	1.0
105	0x3f800000	1.0
106	0x3f800000	1.0
107	0x00000000	0.0
108	0x3f800000	1.0
109	0x00000000	0.0
110	0x00000000	0.0
111	0x00000000	0.0
112	0x3f800000	1.0
113	0x3f800000	1.0
114	0x00000000	0.0
115	0x00000000	0.0
116	0x3f800000	1.0
117	0x3f800000	1.0
118	0x3f800000	1.0
119	0x00000000	0.0
120	0x3f800000	1.0
121	0x00000000	0.0
122	0x00000000	0.0
123	0x00000000	0.0
124	0x3f800000	1.0
125	0x3f800000	1.0
126	0x00000000	0.0
127	0x00000000	0.0
128	0x3f800000	1.0
129	0x3f800000	1.0
130	0x3f800000	1.0
131	0x00000000	0.0
132	0x3f800000	1.0
133	0x00000000	0.0
134	0x00000000	0.0
135	0x00000000	0.0
136	0x3f800000	1.0
137	0x3f800000	1.0
138	0x00000000	0.0
139	0x00000000	0.0
140	0x3f800000	1.0
141	0x3f800000	1.0
142	0x3f800000	1.0
143	0x00000000	0.0
144	0x3f800000	1.0
145	0x00000000	0.0
146	0x00000000	0.0
147	0x00000000	0.0
148	0x3f800000	1.0
149	0x3f800000	1.0
150	0x00000000	0.0
151	0x00000000	0.0
152	0x3f800000	1.0
153	0x3f800000	1.0
154	0x3f800000	1.0
155	0x00000000	0.0
156	0x3f800000	1.0
157	0x00000000	0.0
158	0x00000000	0.0
159	0x00000000	0.0
160	0x3f800000	1.0
161	0x3f800000	1.0
162	0x00000000	0.0
163	0x00000000	0.0
164	0x3f800000	1.0
165	0x3f800000	1.0
166	0x3f800000	1.0
167	0x00000000	0.0
168	0x3f800000	1.0
169	0x00000000	0.0
170	0x00000000	0.0
171	0x00000000	0.0
172	0x3f800000	1.0
173	0x3f800000	1.0
174	0x00000000	0.0
175	0x00000000	0.0
176	0x3f800000	1.0
177	0x3f800000	1.0
178	0x3f800000	1.0
179	0x00000000	0.0
180	0x3f800000	1.0
181	0x00000000	0.0
182	0x00000000	0.0
183	0x00000000	0.0
184	0x3f800000	1.0
185	0x3f800000	1.0
186	0x00000000	0.0
187	0x00000000	0.0
188	0x3f800000	1.0
189	0x3f800000	1.0
190	0x3f800000	1.0
191	0x00000000	0.0
192	0x3f800000	1.0
193	0x00000000	0.0
194	0x00000000	0.0
195	0x00000000	0.0
196	0x3f800000	1.0
197	0x3f800000	1.0
198	0x00000000	0.0
199	0x00000000	0.0
200	0x3f800000	1.0
201	0x3f800000	1.0
202	0x3f800000	1.0
203	0x00000000	0.0
204	0x3f800000	1.0
205	0x00000000	0.0
206	0x00000000	0.0
207	0x00000000	0.0
208	0x3f800000	1.0
209	0x3f800000	1.0
210	0x00000000	0.0
211	0x00000000	0.0
212	0x3f800000	1.0
213	0x3f800000	1.0
214	0x3f800000	1.0
215	0x00000000	0.0
216	0x3f800000	1.0
217	0x00000000	0.0
218	0x00000000	0.0
219	0x00000000	0.0
220	0x3f800000	1.0
221	0x3f800000	1.0
222	0x00000000	0.0
223	0x00000000	0.0
224	0x3f800000	1.0
225	0x3f800000	1.0
226	0x3f800000	1.0
227	0x00000000	0.0
228	0x3f800000	1.0
229	0x00000000	0.0
230	0x00000000	0.0
231	0x00000000	0.0
232	0x3f800000	1.0
233	0x3f800000	1.0
234	0x00000000	0.0
235	0x00000000	0.0
236	0x3f800000	1.0
237	0x3f800000	1.0
238	0x3f800000	1.0
239	0x00000000	0.0
240	0x3f800000	1.0
241	0x00000000	0.0
242	0x00000000	0.0
243	0x00000000	0.0
244	0x3f800000	1.0
245	0x3f800000	1.0
246	0x00000000	0.0
247	0x00000000	0.0
248	0x3f800000	1.0
249	0x3f800000	1.0
250	0x3f800000	1.0
251	0x00000000	0.0
252	0x3f800000	1.0
253	0x00000000	0.0
254	0x00000000	0.0
255	0x00000000	0.0

_transform._transforms.1.autoregressive_net.blocks.0.linear_layers.0.weight f4 [64, 64]
0	0x3d4576c6	0.048208974
1	0x3d108144	0.035279527
2	0x3d6b195c	0.05739723
3	0xbdfff404	-0.12497714
4	0x3b0cb0c0	0.0021467656
5	0xbbd11c40	-0.0063815415
6	0x3c2170de	0.00985357
7	0xbd209f1c	-0.03921424
8	0x3dc3af0e	0.095548734
9	0xbcf53c49	-0.029935973
10	0xbbb20d60	-0.0054337233
11	0x3c83ea48	0.016102925
12	0xbd85d980	-0.065356255
13	0xbde66048	-0.11248833
14	0x3cde9270	0.027169436
15	0xbd85c611	-0.06531919
16	0x3b938620	0.004502073
17	0x3d9cdb5e	0.076590285
18	0x3f0878c4	0.53309274
19	0xbdcf3f9c	-0.101195544
20	0x3df4d6bc	0.1195502
21	0x3ca13df2	0.019682858
22	0x3cbd2618	0.023089454
23	0xbbf70ee0	-0.007539615
24	0x3dd45882	0.10368444
25	0xbdb48e7a	-0.08816238
26	0x3dd9643e	0.10614823
27	0x3db7d0d7	0.0897538
28	0xbd23de70	-0.040007055
29	0x3dbacfc8	0.091216624
30	0xbc181677	-0.0092827
31	0xbd7348a0	-0.059395432
32	0x3da62054	0.08111635
33	0x3df929a5	0.12166146
34	0x3d9146f0	0.070936084
35	0x3cfe2a90	0.031026155
36	0x3ca972cc	0.020684622
37	0x3c796b80	0.015223384
38	0x3dbb070e	0.09132205
39	0xbc3efa48	-0.011656351
40	0xbdd5bf8e	-0.10436927
41	0xbd93ce2c	-0.072170585
42	0x3b637f52	0.003471334
43	0xbdf267da	-0.11836214
44	0xbdb64efa	-0.08901782
45	0xbdfa49de	-0.1222112
46	0xbd56bedc	-0.05242811
47	0xbae2c500	-0.0017301142
48	0xbc16079a	-0.009157086
49	0xbde96eca	-0.113980845
50	0x3dc463d2	0.09589352
51	0x3b14e895	0.0022721638
52	0xbdfcc1ac	-0.123416275
53	0xbde182ee	-0.11011301
54	0x3e0e62da	0.13904896
55	0xbd9ca484	-0.07648566
56	0x3cc954a8	0.0245765
57	0xbe04fc3f	-0.12986849
58	0xbd791b40	-0.060817003
59	0x3cc020a0	0.023453057
60	0x3dc2e125	0.09515599
61	0x3c9376c8	0.018000975
62	0x3d84f0ea	0.06491263
63	0x3c029bb3	0.007971692
64	0xbe163be8	-0.1467129
65	0x3ce521da	0.027970243
66	0x3da473e4	0.08029917
67	0xbd1d2f9c	-0.038375482
68	0x3a84aca7	0.0010122255
69	0xbc7ff4a0	-0.015622288
70	0x3d2fa84e	0.042885117
71	0xbbd1b045	-0.006399187
72	0x3ddbb446	0.10727744
73	0xbd0119c7	-0.031518724
74	0xbca648e3	-0.020298427
75	0xbdee2edc	-0.116300315
76	0xbd3377cc	-0.04381542
77	0xbcf2ccd8	-0.029638693
78	0xbda6100a	-0.08108528
79	0x3da67a6b	0.08128818
80	0xbda2126a	-0.079136685
81	0x3d83669a	0.06416054
82	0xbf21e18c	-0.6323478
83	0xbe25261d	-0.1612782
84	0xbda24c56	-0.07924716
85	0xbda6a1c9	-0.08136327
86	0x3dbae17f	0.09125041
87	0xbd8d1eea	-0.06890662
88	0x3d726b65	0.05918445
89	0x3d897a13	0.06712737
90	0x3d112a24	0.03544058
91	0x3e01ef82	0.12689021
92	0x3c3d43aa	0.011551777
93	0x3d194694	0.037420824
94	0xbe2d76f9	-0.16939916
95	0xbe8f5448	-0.2799399
96	0xbdd61cbc	-0.104546994
97	0xbdb0fe73	-0.08642282
98	0xbdab67ea	-0.083694294
99	0xbd3c6f34	-0.04600449
100	0xbb4d2c95	-0.003130709
101	0x3d37b0dc	0.0448464
102	0x3dba5e8e	0.09100066
103	0xbcebd8a7	-0.028789831
104	0xbd453194	-0.048142985
105	0xbddf39c8	-0.10899693
106	0x3ad4fee9	0.0016250286
107	0xbcd86f57	-0.026420278
108	0x3c06be00	0.0082240105
109	0x3e11ba08	0.14231122
110	0xbd5d4b08	-0.054026634
111	0xbc946dd8	-0.018118784
112	0x3bb2fdc6	0.005462381
113	0xbd614e88	-0.055006534
114	0x3ddacb84	0.10683349
115	0xbd8e54ef	-0.069497935
116	0xbe09dbd3	-0.13462763
117	0xbdd0ea5e	-0.10200952
118	0xbbbcd2e2	-0.005762444
119	0xbcb1b716	-0.021693747
120	0x3d9e7ec0	0.077390194
121	0xbc88df5a	-0.016708065
122	0x3d99e677	0.07514661
123	0xbc817d68	-0.015806869
124	0x3d8cf244	0.06882146
125	0x3e47ea9e	0.19523093
126	0x3d6af3a8	0.057361275
127	0xbddcaedc	-0.10775539
128	0xbc75be1f	-0.014998942
129	0x3c203575	0.00977837
130	0x3cce7710	0.025203258
131	0x3d31a4b0	0.04336995
132	0x3d803a0d	0.06261072
133	0x3c18c8b5	0.009325196
134	0xbdc6f768	-0.09715158
135	0xbdfc5166	-0.12320213
136	0xbd742f89	-0.059615646
137	0xbda24dfd	-0.07925031
138	0xbd24e635	-0.040258605
139	0xbd567f5a	-0.052367546
140	0xbd58bda4	-0.05291523
141	0x3df38791	0.118910916
142	0xbdcbba8f	-0.099476926
143	0xbc07ca56	-0.008287987
144	0x3d283a5c	0.04107128
145	0xbe01efa7	-0.12689076
146	0xbc80f484	-0.015741594
147	0x3de5ef2f	0.11227261
148	0x3dde49bf	0.1085391
149	0x3dc3a237	0.095524244
150	0x3cab4920	0.020908892
151	0xbd2c88d7	-0.04212269
152	0xbc5deee0	-0.013545722
153	0x3d2ad325	0.04170527
154	0xbc9bf042	-0.019035462
155	0x3d113ff7	0.035461392
156	0x3de8f66f	0.113751285
157	0xbce9f2d3	-0.02855817
158	0x3d127228	0.0357534
159	0xbdf85e50	-0.12127364
160	0xbdb7a54b	-0.08967074
161	0x3d4f5cdc	0.050625667
162	0xbd668b73	-0.056285333
163	0x3df1ff47	0.118162684
164	0x3d69556d	0.056966234
165	0xbd828e19	-0.06374759
166	0xbd1ed201	-0.038774494
167	0xbd082a9e	-0.033243768
168	0x3c87ffe6	0.016601514
169	0xbd4b1a25	-0.04958548
170	0x3c03ef0b	0.008052598
171	0xbd90d6ac	-0.070721954
172	0xbdd7755d	-0.10520432
173	0xbdc65044	-0.09683278
174	0xbbaf0293	-0.005340883
175	0x3d934052	0.071900025
176	0xbc2cb6ac	-0.010541599
177	0xbd2d7508	-0.042347938
178	0x3cc251a1	0.023720564
179	0xbdf46667	-0.11933594
180	0x3db8ab78	0.0901708
181	0x3cd27d37	0.025694473
182	0xbc2f7ba0	-0.010710627
183	0xbc293c26	-0.010329282
184	0x3ca64f61	0.020301523
185	0xbd6ac7da	-0.0573195
186	0xbe00b9d1	-0.12570883
187	0xbd9966da	-0.074903205
188	0x3d7497f5	0.05971523
189	0x3dcb6b20	0.09932542
190	0x3daa1050	0.083038926
191	0xbd91695f	-0.07100176
192	0x3d1f5a9f	0.038904782
193	0xbd01ff50	-0.031737626
194	0xbd6342d8	-0.05548367
195	0x3d5099dc	0.05092798
196	0x3c65a9a0	0.0140174925
197	0xbcd10bf8	-0.025518402
198	0xbdc3f9d8	-0.09569138
199	0xbd316a88	-0.043314487
200	0x3cd2b7b8	0.02572237
201	0xbba59b7e	-0.0050539365
202	0xbbde10e0	-0.006776914
203	0xbd9656fe	-0.07340811
204	0xbc044f6e	-0.008075578
205	0xbc2dcbf0	-0.0106077045
206	0xbc120f20	-0.008914739
207	0x3d004c51	0.03132278
208	0x3dabdace	0.08391343
209	0xbdbbc272	-0.09167947
210	0x3f13d94a	0.5775343
211	0xbdfbaa68	-0.12288362
212	0xbdafc7ac	-0.08583006
213	0x3df2e91c	0.11860868
214	0xbd5b5ca4	-0.053555146
215	0xbdefc5e0	-0.117076635
216	0xbd9d7a1d	-0.07689307
217	0xbd095980	-0.03353262
218	0xbd8d2bc0	-0.0689311
219	0x3cecb5fb	0.028895369
220	0x3c8dd410	0.017313033
221	0x3d99b036	0.07504313
222	0x3da306a0	0.07960248
223	0xbdc211f2	-0.09476079
224	0xbc9ee270	-0.019395083
225	0x3ca9eeb0	0.020743698
226	0x3d11e618	0.035619825
227	0xbc88d728	-0.016704157
228	0x3c5355e4	0.012898896
229	0x3d8a8db4	0.06765309
230	0x3d59c0cc	0.05316238
231	0x3e09c72b	0.13454883
232	0xbde8a7fe	-0.11360167
233	0x3d170b90	0.03687626
234	0x3e038e93	0.12847356
235	0xbde5c880	-0.11219883
236	0xbd85d04e	-0.065338716
237	0xbdcf2bc8	-0.101157725
238	0x3d5bff44	0.053710237
239	0x3d278bc8	0.04090479
240	0xbdc83990	-0.09776604
241	0x3da1d0b4	0.07901135
242	0xbd4ed77c	-0.05049847
243	0x3db7d454	0.08976045
244	0xbdd8ef08	-0.105924666
245	0x3d084720	0.033270955
246	0x3dd7f4fc	0.10544774
247	0x3cdf21f0	0.027237862
248	0xbdf5f386	-0.12009339
249	0x3d0bf9b5	0.034173686
250	0xbde40a30	-0.111347556
251	0x3d31bbfc	0.043392166
252	0x3c54b5b8	0.012982778
253	0xbdff73c0	-0.124732494
254	0xbce0a5b8	-0.02742277
255	0x3d01e776	0.03171488

_transform._transforms.1.autoregressive_net.blocks.0.linear_layers.0.bias f4 [64]
0	0x3d9412a8	0.07230121
1	0x3dff4c15	0.12465683
2	0xbd92e2c9	-0.07172162
3	0x3d98e728	0.074659646
4	0x3def734c	0.11691913
5	0xbdc05aa3	-0.093922876
6	0xbde6a462	-0.11261822
7	0x3d6d4797	0.0579296
8	0xbd3d60a7	-0.046234753
9	0xbcb17d00	-0.02166605
10	0x3d9a2838	0.07527202
11	0x3dbd0f3d	0.09231422
12	0x3dd1d5c8	0.10245854
13	0x3d8c577f	0.06852626
14	0x3deab991	0.11461175
15	0x3d70c118	0.0587779
16	0x3dbb98eb	0.09160026
17	0xbdb924b1	-0.090402015
18	0xbdec77a6	-0.11546259
19	0x3e04bff0	0.12963843
20	0x3d167983	0.036736976
21	0xbd8abc96	-0.06774251
22	0x3dd78915	0.10524193
23	0xbd2eddc0	-0.042691946
24	0xbd551a6a	-0.052027144
25	0x3c05d01f	0.008167296
26	0x3d1b7275	0.03795095
27	0xbdef3d9f	-0.11681675
28	0x3dc3b5ff	0.095561974
29	0x3d9b4113	0.07580771
30	0xbd47f023	-0.048812997
31	0x3bcf657c	0.0063292366
32	0x3ccaf9e2	0.024777357
33	0x3d0af381	0.03392363
34	0xbd7a9be8	-0.06118384
35	0x3dc1c43c	0.09461257
36	0x3d9f1616	0.077678844
37	0x390efaa0	0.0001363554
38	0x3e0ea8f9	0.13931645
39	0x3deff5ed	0.117168285
40	0xbc81f6e0	-0.01586479
41	0x3dcb12c6	0.0991569
42	0x3db15b0a	0.086599424
43	0xbd94e7c0	-0.07270765
44	0x3d2977ed	0.041374136
45	0x3d577628	0.052602917
46	0x3dafa570	0.085764766
47	0x3d8960ce	0.06707917
48	0x3d01d9b5	0.031701762
49	0x3de69545	0.1125894
50	0x3dad4234	0.08459893
51	0xbc5482a5	-0.012970601
52	0x3e11adae	0.1422641
53	0x3caa304a	0.02077498
54	0xbd8141f0	-0.06311405
55	0xbda40186	-0.08008103
56	0xbe0299da	-0.12754002
57	0x3d73bb7e	0.05950498
58	0xbb0e97c9	-0.0021757951
59	0x3e190cf6	0.1494635
60	0x3bbcd820	0.005763069
61	0x3e0a3b89	0.13499273
62	0x3d659550	0.0560506
63	0xbd8f96d2	-0.070111886

_transform._transforms.1.autoregressive_net.blocks.0.linear_layers.0.mask f4 [64, 64]
0	0x3f800000	1.0
1	0x00000000	0.0
2	0x00000000	0.0
3	0x3f800000	1.0
4	0x00000000	0.0
5	0x00000000	0.0
6	0x3f800000	1.0
7	0x00000000	0.0
8	0x00000000	0.0
9	0x3f800000	1.0
10	0x00000000	0.0
11	0x00000000	0.0
12	0x3f800000	1.0
13	0x00000000	0.0
14	0x00000000	0.0
15	0x3f800000	1.0
16	0x00000000	0.0
17	0x00000000	0.0
18	0x3f800000	1.0
19	0x00000000	0.0
20	0x00000000	0.0
21	0x3f800000	1.0
22	0x00000000	0.0
23	0x00000000	0.0
24	0x3f800000	1.0
25	0x00000000	0.0
26	0x00000000	0.0
27	0x3f800000	1.0
28	0x00000000	0.0
29	0x00000000	0.0
30	0x3f800000	1.0
31	0x00000000	0.0
32	0x00000000	0.0
33	0x3f800000	1.0
34	0x00000000	0.0
35	0x00000000	0.0
36	0x3f800000	1.0
37	0x00000000	0.0
38	0x00000000	0.0
39	0x3f800000	1.0
40	0x00000000	0.0
41	0x00000000	0.0
42	0x3f800000	1.0
43	0x00000000	0.0
44	0x00000000	0.0
45	0x3f800000	1.0
46	0x00000000	0.0
47	0x00000000	0.0
48	0x3f800000	1.0
49	0x00000000	0.0
50	0x00000000	0.0
51	0x3f800000	1.0
52	0x00000000	0.0
53	0x00000000	0.0
54	0x3f800000	1.0
55	0x00000000	0.0
56	0x00000000	0.0
57	0x3f800000	1.0
58	0x00000000	0.0
59	0x00000000	0.0
60	0x3f800000	1.0
61	0x00000000	0.0
62	0x00000000	0.0
63	0x3f800000	1.0
64	0x3f800000	1.0
65	0x3f800000	1.0
66	0x00000000	0.0
67	0x3f800000	1.0
68	0x3f800000	1.0
69	0x00000000	0.0
70	0x3f800000	1.0
71	0x3f800000	1.0
72	0x00000000	0.0
73	0x3f800000	1.0
74	0x3f800000	1.0
75	0x00000000	0.0
76	0x3f800000	1.0
77	0x3f800000	1.0
78	0x00000000	0.0
79	0x3f800000	1.0
80	0x3f800000	1.0
81	0x00000000	0.0
82	0x3f800000	1.0
83	0x3f800000	1.0
84	0x00000000	0.0
85	0x3f800000	1.0
86	0x3f800000	1.0
87	0x00000000	0.0
88	0x3f800000	1.0
89	0x3f800000	1.0
90	0x00000000	0.0
91	0x3f800000	1.0
92	0x3f800000	1.0
93	0x00000000	0.0
94	0x3f800000	1.0
95	0x3f800000	1.0
96	0x00000000	0.0
97	0x3f800000	1.0
98	0x3f800000	1.0
99	0x00000000	0.0
100	0x3f800000	1.0
101	0x3f800000	1.0
102	0x00000000	0.0
103	0x3f800000	1.0
104	0x3f800000	1.0
105	0x00000000	0.0
106	0x3f800000	1.0
107	0x3f800000	1.0
108	0x00000000	0.0
109	0x3f800000	1.0
110	0x3f800000	1.0
111	0x00000000	0.0
112	0x3f800000	1.0
113	0x3f800000	1.0
114	0x00000000	0.0
115	0x3f800000	1.0
116	0x3f800000	1.0
117	0x00000000	0.0
118	0x3f800000	1.0
119	0x3f800000	1.0
120	0x00000000	0.0
121	0x3f800000	1.0
122	0x3f800000	1.0
123	0x00000000	0.0
124	0x3f800000	1.0
125	0x3f800000	1.0
126	0x00000000	0.0
127	0x3f800000	1.0
128	0x3f800000	1.0
129	0x3f800000	1.0
130	0x3f800000	1.0
131	0x3f800000	1.0
132	0x3f800000	1.0
133	0x3f800000	1.0
134	0x3f800000	1.0
135	0x3f800000	1.0
136	0x3f800000	1.0
137	0x3f800000	1.0
138	0x3f800000	1.0
139	0x3f800000	1.0
140	0x3f800000	1.0
141	0x3f800000	1.0
142	0x3f800000	1.0
143	0x3f800000	1.0
144	0x3f800000	1.0
145	0x3f800000	1.0
146	0x3f800000	1.0
147	0x3f800000	1.0
148	0x3f800000	1.0
149	0x3f800000	1.0
150	0x3f800000	1.0
151	0x3f800000	1.0
152	0x3f800000	1.0
153	0x3f800000	1.0
154	0x3f800000	1.0
155	0x3f800000	1.0
156	0x3f800000	1.0
157	0x3f800000	1.0
158	0x3f800000	1.0
159	0x3f800000	1.0
160	0x3f800000	1.0
161	0x3f800000	1.0
162	0x3f800000	1.0
163	0x3f800000	1.0
164	0x3f800000	1.0
165	0x3f800000	1.0
166	0x3f800000	1.0
167	0x3f800000	1.0
168	0x3f800000	1.0
169	0x3f800000	1.0
170	0x3f800000	1.0
171	0x3f800000	1.0
172	0x3f800000	1.0
173	0x3f800000	1.0
174	0x3f800000	1.0
175	0x3f800000	1.0
176	0x3f800000	1.0
177	0x3f800000	1.0
178	0x3f800000	1.0
179	0x3f800000	1.0
180	0x3f800000	1.0
181	0x3f800000	1.0
182	0x3f800000	1.0
183	0x3f800000	1.0
184	0x3f800000	1.0
185	0x3f800000	1.0
186	0x3f800000	1.0
187	0x3f800000	1.0
188	0x3f800000	1.0
189	0x3f800000	1.0
190	0x3f800000	1.0
191	0x3f800000	1.0
192	0x3f800000	1.0
193	0x00000000	0.0
194	0x00000000	0.0
195	0x3f800000	1.0
196	0x00000000	0.0
197	0x00000000	0.0
198	0x3f800000	1.0
199	0x00000000	0.0
200	0x00000000	0.0
201	0x3f800000	1.0
202	0x00000000	0.0
203	0x00000000	0.0
204	0x3f800000	1.0
205	0x00000000	0.0
206	0x00000000	0.0
207	0x3f800000	1.0
208	0x00000000	0.0
209	0x00000000	0.0
210	0x3f800000	1.0
211	0x00000000	0.0
212	0x00000000	0.0
213	0x3f800000	1.0
214	0x00000000	0.0
215	0x00000000	0.0
216	0x3f800000	1.0
217	0x00000000	0.0
218	0x00000000	0.0
219	0x3f800000	1.0
220	0x00000000	0.0
221	0x00000000	0.0
222	0x3f800000	1.0
223	0x00000000	0.0
224	0x00000000	0.0
225	0x3f800000	1.0
226	0x00000000	0.0
227	0x00000000	0.0
228	0x3f800000	1.0
229	0x00000000	0.0
230	0x00000000	0.0
231	0x3f800000	1.0
232	0x00000000	0.0
233	0x00000000	0.0
234	0x3f800000	1.0
235	0x00000000	0.0
236	0x00000000	0.0
237	0x3f800000	1.0
238	0x00000000	0.0
239	0x00000000	0.0
240	0x3f800000	1.0
241	0x00000000	0.0
242	0x00000000	0.0
243	0x3f800000	1.0
244	0x00000000	0.0
245	0x00000000	0.0
246	0x3f800000	1.0
247	0x00000000	0.0
248	0x00000000	0.0
249	0x3f800000	1.0
250	0x00000000	0.0
251	0x00000000	0.0
252	0x3f800000	1.0
253	0x00000000	0.0
254	0x00000000	0.0
255	0x3f800000	1.0

_transform._transforms.1.autoregressive_net.blocks.0.linear_layers.1.weight f4 [64, 64]
0	0x3d2e2bfc	0.042522416
1	0x39da164a	0.00041596807
2	0x3a1a9886	0.00058973616
3	0x3d2348c3	0.039864313
4	0x3842c001	4.6432022e-05
5	0x39b11727	0.0003377732
6	0xb9b79b79	-0.00035020316
7	0x3a59241b	0.0008283273
8	0x37c794bd	2.379191e-05
9	0xb8b03d30	-8.403731e-05
10	0xb9fc6880	-0.00048143044
11	0xb9f0a1bb	-0.00045896866
12	0x3cf258b5	0.029583314
13	0xba25f963	-0.0006331412
14	0xba2062a4	-0.0006118214
15	0xba75625b	-0.00093606644
16	0xb9cc5dfd	-0.0003897994
17	0x3a5c286f	0.0008398359
18	0x3867b2d2	5.524123e-05
19	0xb9484e80	-0.0001910273
20	0xb9023419	-0.00012417174
21	0xba82643d	-0.0009948086
22	0xba2b3ea8	-0.0006532469
23	0xba0c284e	-0.0005346582
24	0xbdbc5c59	-0.091973014
25	0x3a394852	0.00070679665
26	0x38dab001	0.00010427833
27	0x3ba93071	0.0051632454
28	0x3a358bbd	0.00069254247
29	0x39b0df82	0.00033735862
30	0x3c02f4f3	0.007992971
31	0xba11c781	-0.00055610394
32	0x37c968b5	2.4009825e-05
33	0x3d49fcf3	0.049313497
34	0x370a9db3	8.262158e-06
35	0xba00957f	-0.0004905089
36	0x3d66e2c2	0.056368597
37	0xba452519	-0.00075204816
38	0x39489528	0.00019129051
39	0x3d607af1	0.054804746
40	0x38842f1b	6.3030246e-05
41	0xba52c779	-0.0008040588
42	0x3d2bf877	0.041985
43	0x3a561328	0.00081663067
44	0xb8eb7698	-0.00011227763
45	0x3d460f6f	0.048354562
46	0x3a2f5e1f	0.00066897454
47	0xba5755bb	-0.0008214374
48	0x3d568897	0.052376356
49	0x3a43d75b	0.000747075
50	0xb9d5b5dc	-0.00040762022
51	0x3d957870	0.07298362
52	0xb9f0b8a0	-0.00045913924
53	0xba34cb17	-0.0006896718
54	0xbb68d957	-0.0035529935
55	0xba355c92	-0.0006918396
56	0xb9b1359e	-0.0003380002
57	0x3c745cc5	0.014914696
58	0xba4593bd	-0.00075369683
59	0x3a496b63	0.00076835434
60	0x3c1d37f4	0.00959586
61	0xba14b254	-0.0005672325
62	0xb88b5a4e	-6.644857e-05
63	0xb9e550f6	-0.00043738604
64	0x3d28dd2a	0.041226543
65	0x3d808e03	0.062770866
66	0xb9dc770b	-0.00042050364
67	0x3c81dcf6	0.015852433
68	0x3d2f0361	0.04272783
69	0xba3e11a6	-0.00072505546
70	0xb9e7ee53	-0.0004423732
71	0x3d802dfd	0.062587716
72	0xb9c48298	-0.00037481333
73	0xba52e013	-0.0008044254
74	0xbbad5c3a	-0.0052905353
75	0xba4e026d	-0.0007858638
76	0x3cf783a3	0.030214136
77	0x3cbabe24	0.022795744
78	0xba608ee4	-0.0008566214
79	0x3a3f4cd1	0.00072975183
80	0x3cb622bb	0.022233358
81	0xb948c86b	-0.00019148148
82	0x398054b5	0.00024477174
83	0x3da8fb04	0.082510024
84	0xba766578	-0.00093992753
85	0x39a05903	0.00030583897
86	0x3d3c6c65	0.04600181
87	0xba10f338	-0.00055294065
88	0xbbca94e9	-0.0061823023
89	0x3d10c49f	0.035343762
90	0x393f5e46	0.00018250299
91	0x3ba239fa	0.004950759
92	0x3cce487c	0.025181048
93	0x394305a2	0.00018598748
94	0xbb9460b0	-0.0045281276
95	0x3cee0b2b	0.02905806
96	0xba048ef0	-0.00050567
97	0x3d1127cf	0.035438355
98	0x3a5ce009	0.0008425718
99	0xba154919	-0.00056947913
100	0x3cd7bb86	0.026334535
101	0x3c72c933	0.014818477
102	0xb9e12a5f	-0.00042946913
103	0x3d050a2d	0.032480408
104	0x3c605c21	0.01369384
105	0x396c4f75	0.00022536314
106	0x3d360b2c	0.044444248
107	0xb9f0bf96	-0.0004591911
108	0xba541151	-0.00080897385
109	0x3ced1b5b	0.028943708
110	0x3d836401	0.064155586
111	0xb9b887e0	-0.0003519645
112	0x3c6ffbec	0.014647465
113	0x3d4f18cd	0.05056076
114	0x3a53bbdc	0.00080770045
115	0xbbc88f97	-0.006120633
116	0x3ca2609e	0.019821461
117	0x3948fa57	0.00019166745
118	0xbc0870f6	-0.008327713
119	0xba6fb363	-0.0009143857
120	0x3932e755	0.00017061581
121	0x3bbcd03b	0.0057621277
122	0x3d11e7d8	0.035621494
123	0xb987bac9	-0.00025888372
124	0xbb91fb38	-0.0044549964
125	0x3cfb1998	0.030651852
126	0xba2aa7da	-0.0006509997
127	0xb5e6147c	-1.7142297e-06
128	0xbc81b32e	-0.01583251
129	0xbc10ad1b	-0.008830334
130	0xbb779c17	-0.0037782246
131	0xbcaf83ae	-0.021425094
132	0xbd2ddbad	-0.042445827
133	0xbae9d18d	-0.001783894
134	0xba428359	-0.0007420085
135	0xbcbb12b7	-0.022836072
136	0xb9be70be	-0.00036323623
137	0x3a5e3019	0.0008475795
138	0xbce9b0fe	-0.02852678
139	0xbcecbf04	-0.028899677
140	0xbca16884	-0.019703157
141	0xbca68d17	-0.020330949
142	0xbc992ecb	-0.01869907
143	0x3a42a001	0.0007424355
144	0xbd4d0078	-0.050049275
145	0x3d2c5add	0.04207884
146	0x3a68f4d2	0.0008886579
147	0xbd0bd830	-0.03414172
148	0xbce3d830	-0.027813047
149	0x39f14aa5	0.00046022717
150	0xbd04d0dc	-0.032425746
151	0x3a71b74d	0.00092207344
152	0x3c1d7c70	0.009612188
153	0xbd33a637	-0.043859687
154	0x3c2a1ebe	0.010383306
155	0x3b167cd3	0.0022962585
156	0xbcd97c33	-0.02654848
157	0xbd1d3150	-0.038377106
158	0xbc1eb91d	-0.009687689
159	0xbcae6282	-0.021287207
160	0x3bbb3f04	0.005714299
161	0xbc684803	-0.014177325
162	0xba33a02a	-0.00068521744
163	0xbbadf954	-0.0053092632
164	0xbcfbc51f	-0.030733643
165	0xbcaa3a4a	-0.020779748
166	0xbd6931bf	-0.056932207
167	0xbcb7558c	-0.02237966
168	0xbc81059d	-0.015749747
169	0xbc7bdcad	-0.015372437
170	0xbc943f28	-0.018096521
171	0x379d5959	1.8757464e-05
172	0xbce8085b	-0.028324297
173	0xbcd41418	-0.025888488
174	0xbc986d6f	-0.01860687
175	0x3c956177	0.018234951
176	0xbcbecc99	-0.02329092
177	0xbcd013c1	-0.025400044
178	0x3e1089c4	0.14115053
179	0xbcc75473	-0.02433226
180	0xbca3a1fd	-0.019974703
181	0xbd5c2374	-0.05374475
182	0xba252b10	-0.00063006673
183	0x38561832	5.104411e-05
184	0x3bef5a82	0.0073044905
185	0xbc0f1f73	-0.008735525
186	0xbd4dc53d	-0.05023693
187	0x3e2f2400	0.17103577
188	0xbc455027	-0.012043036
189	0xbca37e54	-0.019957699
190	0xbc4471f6	-0.011990061
191	0x398992ee	0.00026240147
192	0xbd50bb35	-0.050959785
193	0xb9a2005f	-0.00030899324
194	0x3906f863	0.00012871767
195	0xbd730d05	-0.05933859
196	0x39fd7959	0.00048346331
197	0xb9befbbb	-0.00036427178
198	0xba62192e	-0.0008624968
199	0xb9e64a19	-0.00043924226
200	0xba16cffc	-0.0005753038
201	0x398c3ac5	0.00026746668
202	0x39a11bf0	0.00030729128
203	0xb9331dec	-0.00017081917
204	0xbd2150e4	-0.039383784
205	0x3a12a9b5	0.00055947463
206	0xb87e8128	-6.0678605e-05
207	0x384e31ab	4.9160484e-05
208	0xba014c7f	-0.0004932358
209	0x3a677226	0.000882896
210	0x388c5169	6.690884e-05
211	0xb9a1fc4e	-0.00030896295
212	0x39a81f50	0.00032066787
213	0x39ef1f0b	0.0004560876
214	0xba2bcafa	-0.0006553378
215	0x39ced965	0.00039453353
216	0x3dc2c5df	0.09510397
217	0xba18a821	-0.0005823393
218	0xba08016b	-0.00051881996
219	0x3c0161e4	0.007896874
220	0xb9ced857	-0.00039452568
221	0x3a3f822a	0.0007305468
222	0xbd1ed4f1	-0.038777296
223	0xb9a79f6d	-0.00031971504
224	0x3a136d42	0.00056238857
225	0xbd842dad	-0.064540245
226	0x39839d96	0.00025103678
227	0xb8c11001	-9.205938e-05
228	0xbd94017c	-0.072268456
229	0xba065883	-0.00051248836
230	0xba346bcd	-0.00068825186
231	0xbd86aa70	-0.06575477
232	0xba5827dc	-0.00082456856
233	0xb8ec0a2e	-0.00011255253
234	0xbd46ce2c	-0.048536465
235	0x39306809	0.00016823424
236	0x3a38dce8	0.00070519606
237	0xbd89f61e	-0.06736396
238	0xba77e263	-0.00094560365
239	0x3955974c	0.00020369625
240	0xbd8cb8de	-0.06871198
241	0xb8be2b13	-9.067929e-05
242	0xb9b8dc05	-0.00035259142
243	0xbdbd3519	-0.09238643
244	0x3921d45b	0.00015433265
245	0xba340cf6	-0.00068683864
246	0xbba84a5f	-0.005135819
247	0xba3ce494	-0.00072056917
248	0xba17e467	-0.00057942275
249	0xbd0f2002	-0.034942634
250	0x3a3233e6	0.00067978946
251	0x3a469f86	0.00075768714
252	0xbd2f3539	-0.042775366
253	0x39242cb5	0.00015656913
254	0x398b0488	0.00026515522
255	0xb8aa32e2	-8.115709e-05

_transform._transforms.1.autoregressive_net.blocks.0.linear_layers.1.bias f4 [64]
0	0x3ce97471	0.028497906
1	0x3d1aba31	0.037775222
2	0xbcb78822	-0.02240378
3	0xbcd5425d	-0.026032621
4	0xbc8926f9	-0.016742216
5	0x3c806f4d	0.015678072
6	0x3d1193e7	0.03554144
7	0x3cfea5e1	0.031084957
8	0xbc577519	-0.013150477
9	0xbcf33461	-0.029688062
10	0xbcdeb338	-0.027185068
11	0x3c7d200f	0.015449538
12	0xbc7ee8d3	-0.015558439
13	0xbcd222a8	-0.025651291
14	0xbc109d79	-0.008826607
15	0x3ce2ce1d	0.027686173
16	0xbd0741bb	-0.03302167
17	0x3d2cdd31	0.042203132
18	0xbcfd246b	-0.030901155
19	0x3d0a28f5	0.033730466
20	0x3c6ba61b	0.014382864
21	0xbc92160a	-0.017832775
22	0x3c28cb34	0.010302354
23	0x3c86ce11	0.016455682
24	0x3cb27bb7	0.021787507
25	0x3c831161	0.015999498
26	0x3b562e1e	0.0032681297
27	0x3cb8fc05	0.02258111
28	0xbc684b3d	-0.014178094
29	0xbc90696b	-0.017628392
30	0xbd5f9bea	-0.05459205
31	0x3d27d4b0	0.04097432
32	0x3c911654	0.017710842
33	0x3ce16ef7	0.027518732
34	0xbd25ebe6	-0.040508173
35	0xbc35cb68	-0.011095859
36	0xbc9edf71	-0.019393655
37	0xbd1bf421	-0.038074616
38	0x3ab3b977	0.0013711889
39	0x3c111e8b	0.00885738
40	0xbc8d6e64	-0.017264552
41	0xbc908695	-0.017642299
42	0xbce19d52	-0.027540836
43	0xbd079d17	-0.033108797
44	0x3d020ddc	0.0317515
45	0x3d014864	0.031563178
46	0xbcfbaf52	-0.030723248
47	0xbcce6107	-0.02519275
48	0x3ce0075e	0.027347263
49	0x3cad4e01	0.02115536
50	0x3c2f7f67	0.010711527
51	0xbb8b25aa	-0.0042464333
52	0xbc3cc3e2	-0.0115213115
53	0x3c391edc	0.011298861
54	0x3cbcf462	0.02306575
55	0xbc76a72c	-0.015054505
56	0xbcab5fd0	-0.02091971
57	0x3aec08c3	0.0018007982
58	0x3cd1957e	0.025583979
59	0x3d03602e	0.032074146
60	0xbcc5610f	-0.024094133
61	0xbcd06a8e	-0.025441434
62	0x3c679140	0.014133751
63	0xbca021a6	-0.019547295

_transform._transforms.1.autoregressive_net.blocks.0.linear_layers.1.mask f4 [64, 64]
0	0x3f800000	1.0
1	0x00000000	0.0
2	0x00000000	0.0
3	0x3f800000	1.0
4	0x00000000	0.0
5	0x00000000	0.0
6	0x3f800000	1.0
7	0x00000000	0.0
8	0x00000000	0.0
9	0x3f800000	1.0
10	0x00000000	0.0
11	0x00000000	0.0
12	0x3f800000	1.0
13	0x00000000	0.0
14	0x00000000	0.0
15	0x3f800000	1.0
16	0x00000000	0.0
17	0x00000000	0.0
18	0x3f800000	1.0
19	0x00000000	0.0
20	0x00000000	0.0
21	0x3f800000	1.0
22	0x00000000	0.0
23	0x00000000	0.0
24	0x3f800000	1.0
25	0x00000000	0.0
26	0x00000000	0.0
27	0x3f800000	1.0
28	0x00000000	0.0
29	0x00000000	0.0
30	0x3f800000	1.0
31	0x00000000	0.0
32	0x00000000	0.0
33	0x3f800000	1.0
34	0x00000000	0.0
35	0x00000000	0.0
36	0x3f800000	1.0
37	0x00000000	0.0
38	0x00000000	0.0
39	0x3f800000	1.0
40	0x00000000	0.0
41	0x00000000	0.0
42	0x3f800000	1.0
43	0x00000000	0.0
44	0x00000000	0.0
45	0x3f800000	1.0
46	0x00000000	0.0
47	0x00000000	0.0
48	0x3f800000	1.0
49	0x00000000	0.0
50	0x00000000	0.0
51	0x3f800000	1.0
52	0x00000000	0.0
53	0x00000000	0.0
54	0x3f800000	1.0
55	0x00000000	0.0
56	0x00000000	0.0
57	0x3f800000	1.0
58	0x00000000	0.0
59	0x00000000	0.0
60	0x3f800000	1.0
61	0x00000000	0.0
62	0x00000000	0.0
63	0x3f800000	1.0
64	0x3f800000	1.0
65	0x3f800000	1.0
66	0x00000000	0.0
67	0x3f800000	1.0
68	0x3f800000	1.0
69	0x00000000	0.0
70	0x3f800000	1.0
71	0x3f800000	1.0
72	0x00000000	0.0
73	0x3f800000	1.0
74	0x3f800000	1.0
75	0x00000000	0.0
76	0x3f800000	1.0
77	0x3f800000	1.0
78	0x00000000	0.0
79	0x3f800000	1.0
80	0x3f800000	1.0
81	0x00000000	0.0
82	0x3f800000	1.0
83	0x3f800000	1.0
84	0x00000000	0.0
85	0x3f800000	1.0
86	0x3f800000	1.0
87	0x00000000	0.0
88	0x3f800000	1.0
89	0x3f800000	1.0
90	0x00000000	0.0
91	0x3f800000	1.0
92	0x3f800000	1.0
93	0x00000000	0.0
94	0x3f800000	1.0
95	0x3f800000	1.0
96	0x00000000	0.0
97	0x3f800000	1.0
98	0x3f800000	1.0
99	0x00000000	0.0
100	0x3f800000	1.0
101	0x3f800000	1.0
102	0x00000000	0.0
103	0x3f800000	1.0
104	0x3f800000	1.0
105	0x00000000	0.0
106	0x3f800000	1.0
107	0x3f800000	1.0
108	0x00000000	0.0
109	0x3f800000	1.0
110	0x3f800000	1.0
111	0x00000000	0.0
112	0x3f800000	1.0
113	0x3f800000	1.0
114	0x00000000	0.0
115	0x3f800000	1.0
116	0x3f800000	1.0
117	0x00000000	0.0
118	0x3f800000	1.0
119	0x3f800000	1.0
120	0x00000000	0.0
121	0x3f800000	1.0
122	0x3f800000	1.0
123	0x00000000	0.0
124	0x3f800000	1.0
125	0x3f800000	1.0
126	0x00000000	0.0
127	0x3f800000	1.0
128	0x3f800000	1.0
129	0x3f800000	1.0
130	0x3f800000	1.0
131	0x3f800000	1.0
132	0x3f800000	1.0
133	0x3f800000	1.0
134	0x3f800000	1.0
135	0x3f800000	1.0
136	0x3f800000	1.0
137	0x3f800000	1.0
138	0x3f800000	1.0
139	0x3f800000	1.0
140	0x3f800000	1.0
141	0x3f800000	1.0
142	0x3f800000	1.0
143	0x3f800000	1.0
144	0x3f800000	1.0
145	0x3f800000	1.0
146	0x3f800000	1.0
147	0x3f800000	1.0
148	0x3f800000	1.0
149	0x3f800000	1.0
150	0x3f800000	1.0
151	0x3f800000	1.0
152	0x3f800000	1.0
153	0x3f800000	1.0
154	0x3f800000	1.0
155	0x3f800000	1.0
156	0x3f800000	1.0
157	0x3f800000	1.0
158	0x3f800000	1.0
159	0x3f800000	1.0
160	0x3f800000	1.0
161	0x3f800000	1.0
162	0x3f800000	1.0
163	0x3f800000	1.0
164	0x3f800000	1.0
165	0x3f800000	1.0
166	0x3f800000	1.0
167	0x3f800000	1.0
168	0x3f800000	1.0
169	0x3f800000	1.0
170	0x3f800000	1.0
171	0x3f800000	1.0
172	0x3f800000	1.0
173	0x3f800000	1.0
174	0x3f800000	1.0
175	0x3f800000	1.0
176	0x3f800000	1.0
177	0x3f800000	1.0
178	0x3f800000	1.0
179	0x3f800000	1.0
180	0x3f800000	1.0
181	0x3f800000	1.0
182	0x3f800000	1.0
183	0x3f800000	1.0
184	0x3f800000	1.0
185	0x3f800000	1.0
186	0x3f800000	1.0
187	0x3f800000	1.0
188	0x3f800000	1.0
189	0x3f800000	1.0
190	0x3f800000	1.0
191	0x3f800000	1.0
192	0x3f800000	1.0
193	0x00000000	0.0
194	0x00000000	0.0
195	0x3f800000	1.0
196	0x00000000	0.0
197	0x00000000	0.0
198	0x3f800000	1.0
199	0x00000000	0.0
200	0x00000000	0.0
201	0x3f800000	1.0
202	0x00000000	0.0
203	0x00000000	0.0
204	0x3f800000	1.0
205	0x00000000	0.0
206	0x00000000	0.0
207	0x3f800000	1.0
208	0x00000000	0.0
209	0x00000000	0.0
210	0x3f800000	1.0
211	0x00000000	0.0
212	0x00000000	0.0
213	0x3f800000	1.0
214	0x00000000	0.0
215	0x00000000	0.0
216	0x3f800000	1.0
217	0x00000000	0.0
218	0x00000000	0.0
219	0x3f800000	1.0
220	0x00000000	0.0
221	0x00000000	0.0
222	0x3f800000	1.0
223	0x00000000	0.0
224	0x00000000	0.0
225	0x3f800000	1.0
226	0x00000000	0.0
227	0x00000000	0.0
228	0x3f800000	1.0
229	0x00000000	0.0
230	0x00000000	0.0
231	0x3f800000	1.0
232	0x00000000	0.0
233	0x00000000	0.0
234	0x3f800000	1.0
235	0x00000000	0.0
236	0x00000000	0.0
237	0x3f800000	1.0
238	0x00000000	0.0
239	0x00000000	0.0
240	0x3f800000	1.0
241	0x00000000	0.0
242	0x00000000	0.0
243	0x3f800000	1.0
244	0x00000000	0.0
245	0x00000000	0.0
246	0x3f800000	1.0
247	0x00000000	0.0
248	0x00000000	0.0
249	0x3f800000	1.0
250	0x00000000	0.0
251	0x00000000	0.0
252	0x3f800000	1.0
253	0x00000000	0.0
254	0x00000000	0.0
255	0x3f800000	1.0

_transform._transforms.1.autoregressive_net.blocks.1.linear_layers.0.weight f4 [64, 64]
0	0x3dd1a339	0.102362104
1	0x3db6a216	0.08917634
2	0xbd836512	-0.06415762
3	0xbd9ee5d4	-0.0775868
4	0x3de2f186	0.11081223
5	0xbdff3612	-0.12461485
6	0x3e02cc53	0.12773256
7	0x3de96f86	0.113982245
8	0xbd8e65c6	-0.069530055
9	0xbca0bd8f	-0.019621639
10	0x3cee7d78	0.029112563
11	0xbdbb9780	-0.09159756
12	0xbd4697ad	-0.048484493
13	0xbce5a900	-0.028034687
14	0x3df2fdf6	0.118648455
15	0xbda8f46f	-0.08249747
16	0x3dcfb7e0	0.10142493
17	0xbdfa2c6e	-0.122155055
18	0x3e3adaa5	0.18247469
19	0x3d7ae84c	0.06125669
20	0x3da2e440	0.079536915
21	0xbcb1de69	-0.021712499
22	0xbcef42e0	-0.029206693
23	0xbde51f78	-0.11187643
24	0x3d3a92c8	0.045550138
25	0x3d948f1a	0.07253857
26	0x39d68c00	0.0004092157
27	0x3e126180	0.14295006
28	0xbcc689b0	-0.024235576
29	0x3dcfa37a	0.101386026
30	0x3d5b293b	0.053506117
31	0xbdc1486c	-0.094376415
32	0xbcc2e090	-0.02378872
33	0x3bfd09cb	0.0077221147
34	0x3d5e54a4	0.05427994
35	0xbde0252e	-0.109445915
36	0x3d398243	0.045290243
37	0xbde07496	-0.10959737
38	0xbde6e24a	-0.1127363
39	0x3de18f46	0.11013655
40	0x3bec1260	0.007204339
41	0x3c7b1010	0.015323654
42	0x3d14a61c	0.036291227
43	0x3a420200	0.0007400811
44	0x3c9d8b58	0.019231483
45	0x3da6e58b	0.081492506
46	0xbccbd420	-0.024881423
47	0x3c938f08	0.018012539
48	0x3dedc6fa	0.116102174
49	0x3dae1cc6	0.08501582
50	0x3dd48288	0.10376459
51	0x3dce58ec	0.10075554
52	0xbdeb645e	-0.11493753
53	0x3cfef728	0.031123713
54	0xbd470bff	-0.048595425
55	0xbd202d50	-0.039105713
56	0x3d82fef0	0.06396282
57	0x3b1d4c82	0.00240019
58	0x3c4eb6a0	0.012616783
59	0xbde59642	-0.112103
60	0xbd4ad1b4	-0.049516395
61	0xbd193ae8	-0.037409693
62	0x3d40abac	0.04703872
63	0x3e07e723	0.13271765
64	0x3dfe91cc	0.12430152
65	0x3c50e131	0.012749002
66	0x3de12db2	0.10995044
67	0x3d3fcdc0	0.046827078
68	0xbd32b5e0	-0.04363048
69	0x3da21728	0.07914573
70	0x3d078fa6	0.03309598
71	0x3dfd5c90	0.123711705
72	0x3d8b3b0e	0.06798373
73	0x3d28645d	0.04111134
74	0xbd36f266	-0.044664763
75	0x3d167a8c	0.036737964
76	0xbdd3831b	-0.10327741
77	0xbebdcb75	-0.37069288
78	0xbd4f18b4	-0.050560668
79	0x3c908caa	0.017645199
80	0x3d6dc8d4	0.058052853
81	0x3d75ea0c	0.060037658
82	0xbd69ba71	-0.05706257
83	0xbd43c053	-0.047790837
84	0x3d81bf2e	0.06335293
85	0x3d030afa	0.03199289
86	0xbd80ca0a	-0.06288536
87	0x3dfe56e8	0.1241892
88	0xbd89cb34	-0.06728211
89	0x3c95d815	0.018291513
90	0x3cccaac8	0.024983779
91	0xbdefa96f	-0.11702239
92	0xbd0cdb57	-0.034388866
93	0xbdcddb50	-0.10051596
94	0xbe1399b9	-0.1441411
95	0xbec14e11	-0.37754872
96	0x3dd87a0e	0.10570155
97	0xbd63edca	-0.055646695
98	0xbd14f5a5	-0.036367077
99	0xba86c800	-0.0010282993
100	0xbe0a2d8e	-0.1349394
101	0x3d0fbccc	0.03509216
102	0x3dbae770	0.091261744
103	0xbd75631e	-0.05990898
104	0xbdd2b86c	-0.10289082
105	0x3ddecbae	0.108786926
106	0x3dedbc4f	0.11608183
107	0x3df7584f	0.120773904
108	0x3df7c55c	0.1209819
109	0x3e068aef	0.13138936
110	0x3dc1633b	0.09442755
111	0xbdb68414	-0.08911911
112	0xbdac3b9a	-0.084098056
113	0xbbdcfaa4	-0.006743746
114	0xbdbf755c	-0.093485564
115	0xbdce1249	-0.10062081
116	0x3d98eb00	0.07466698
117	0xbd9d7a34	-0.07689324
118	0x3d7f566b	0.062338274
119	0x3c8efa8d	0.017453456
120	0x3dcabc6c	0.0989922
121	0xbbd39185	-0.0064565563
122	0xbd496444	-0.049167886
123	0xbd883fe4	-0.06652811
124	0x3dd8f615	0.105938114
125	0x3eb8f3b8	0.36123443
126	0x3df6e960	0.120562315
127	0x3d7a5e85	0.061125297
128	0x3e05933a	0.13044444
129	0xbc7972c7	-0.015225119
130	0xbda982c9	-0.082768984
131	0xbde6dba6	-0.11272363
132	0x3d8b6693	0.06806674
133	0xbd84507a	-0.06460662
134	0x3e045204	0.12921911
135	0x3da1c29e	0.078984484
136	0x3d96382f	0.07334935
137	0x39669d04	0.00021993002
138	0xbeb8cb03	-0.36092386
139	0xbe0bfb9f	-0.13670205
140	0xbb80451f	-0.00391449
141	0xbeb1322e	-0.34608597
142	0x3c50d5c8	0.012746282
143	0xbce30ff7	-0.027717574
144	0xbda42c9c	-0.08016321
145	0xbc849206	-0.01618291
146	0xbeb4f564	-0.35343468
147	0xbe2011f2	-0.15631846
148	0x3ca19b7d	0.019727463
149	0xbd6857ed	-0.056724478
150	0xbdd653bc	-0.1046519
151	0xbde2026b	-0.110356174
152	0xbdc97b5b	-0.09837981
153	0xbb86eee8	-0.0041178353
154	0xbcb87238	-0.022515401
155	0xbe01fe3e	-0.12694642
156	0xbdb437c6	-0.087997004
157	0x3dea7dbe	0.11449765
158	0xbcee095a	-0.029057194
159	0xbedfcda1	-0.4371157
160	0xbdf6720c	-0.120334715
161	0xbdf5e122	-0.12005831
162	0x3d9e803a	0.07739301
163	0x3e2db319	0.16962852
164	0x3daa27e8	0.08308393
165	0x3db67947	0.089098506
166	0xbd8a2cad	-0.067468025
167	0xbe1cafb5	-0.15301402
168	0x3dd481ab	0.10376295
169	0x3dc53d00	0.096307755
170	0xbdd17129	-0.10226662
171	0xbd03d595	-0.03218611
172	0x3a22632b	0.0006194587
173	0xbc4f9cea	-0.012671689
174	0x3c38a990	0.011270896
175	0x3d8f7e42	0.07006504
176	0x3dfe92c5	0.12430338
177	0xbd531e76	-0.05154272
178	0x3e2a1769	0.16610493
179	0xbd9a27ed	-0.075271465
180	0x3cdb7d44	0.02679313
181	0xbd29b2d6	-0.041430317
182	0xbca7c5a4	-0.020479985
183	0xbd812ee6	-0.06307773
184	0xbda270a7	-0.07931643
185	0xbc4fdede	-0.012687413
186	0x3d8da3f6	0.06916039
187	0x3e11b7eb	0.14230315
188	0x3d931de4	0.071834356
189	0xbe41e09e	-0.18933341
190	0xbcb7c091	-0.02243069
191	0x3dae6c8c	0.085167974
192	0xbdda5ab5	-0.10661832
193	0xbd1a8d88	-0.03773263
194	0xbdaf99a2	-0.08574225
195	0xbd833726	-0.06407003
196	0xbb1196c0	-0.0022215098
197	0xbd121614	-0.035665587
198	0xbe0bcff4	-0.13653547
199	0x3d017480	0.031605244
200	0xbdcfc3d8	-0.10144776
201	0x3b9313f1	0.004488461
202	0xbd37eb7c	-0.04490231
203	0x3dc61562	0.09672047
204	0x3c97c25f	0.0185253
205	0xbdc43df2	-0.09582128
206	0x3d34f5dc	0.044179782
207	0xbda37472	-0.079811946
208	0xbceff488	-0.029291406
209	0x3d052fd4	0.032516316
210	0x3e8f35a7	0.2797062
211	0x3d7509b0	0.05982369
212	0x3d7d6f1c	0.06187354
213	0xbd15d282	-0.03657771
214	0x3d82f920	0.06395173
215	0xbdbc1996	-0.09184568
216	0x3d1ef9e5	0.038812537
217	0x3d918a74	0.07106486
218	0x3da7f1e0	0.08200431
219	0x3e216a53	0.15763216
220	0xbda64966	-0.081194684
221	0xbd882358	-0.06647366
222	0x3c4c6df3	0.012477386
223	0x3de4a6d0	0.111646295
224	0x39975600	0.0002886504
225	0xbcbf2281	-0.023331882
226	0xbd85f988	-0.06541735
227	0x3ca82620	0.020525992
228	0xbd87c339	-0.06629033
229	0x3dcbfee0	0.09960723
230	0xbc4e21c0	-0.012581289
231	0x3e53007c	0.20605654
232	0x3c787e20	0.015166789
233	0x3db5016a	0.0883816
234	0x3df78361	0.120856054
235	0xbdc61f64	-0.09673956
236	0x3dfac0b2	0.12243785
237	0x3d7d13f8	0.06178662
238	0x3d5eefac	0.054427788
239	0xbd710688	-0.05884412
240	0x3dac35f3	0.084087275
241	0x3d839104	0.06424144
242	0xbdcd261c	-0.100170344
243	0x3dfee8e7	0.12446766
244	0xbdfabb12	-0.12242712
245	0x3b393440	0.0028259903
246	0x3e12d14f	0.14337657
247	0x3df215b4	0.11820546
248	0x3da68d08	0.08132368
249	0xbc37c5c8	-0.011216588
250	0xba856980	-0.0010178536
251	0xbd62b100	-0.05534458
252	0x3a555fb6	0.0008139567
253	0xbdc50056	-0.09619205
254	0x3c45e970	0.012079582
255	0x3d485440	0.048908472

_transform._transforms.1.autoregressive_net.blocks.1.linear_layers.0.bias f4 [64]
0	0x3d18b95c	0.037286147
1	0x3de7695b	0.11299392
2	0x3ba2fa5a	0.004973692
3	0xbc5afb4a	-0.013365576
4	0xbc9685ae	-0.01837429
5	0xbc9f41d2	-0.019440565
6	0x3df07940	0.117418766
7	0x3d614e60	0.055006385
8	0xbd9c99a7	-0.07646494
9	0x3ddb3568	0.10703546
10	0xbcd81ff0	-0.026382416
11	0x3c490414	0.012269039
12	0xbb3df1dd	-0.0028983273
13	0xbe92b336	-0.28652352
14	0xbd21a731	-0.039466087
15	0x3d1c5ce4	0.038174525
16	0xbdbd2ed0	-0.092374444
17	0xbcf2bcc6	-0.02963103
18	0x3cf84134	0.030304529
19	0xbe31f6a7	-0.17379247
20	0x3dad7643	0.08469822
21	0x3d99b710	0.075056195
22	0xb9eef6fb	-0.00045578912
23	0xbdfa1cc7	-0.1221252
24	0x3cd071f8	0.02544497
25	0x3d5bdfbf	0.053680178
26	0x3ddfc736	0.10926668
27	0xbcc995b4	-0.024607517
28	0x3dae2a48	0.08504158
29	0x3d55adbc	0.05216764
30	0xbd4f0cdc	-0.050549373
31	0x3d4fd7ce	0.050742917
32	0xbd6da5ff	-0.058019634
33	0xbd616877	-0.055031266
34	0x3e087eef	0.13329671
35	0x3d90591f	0.070482485
36	0xbd437242	-0.047716387
37	0x3daaa712	0.083326474
38	0xbd42b6b9	-0.04753754
39	0xbdd618a0	-0.104539156
40	0x3cf2bbb0	0.029630512
41	0xbdc558c7	-0.096360736
42	0x3d1a13ba	0.03761647
43	0xbde9e64c	-0.11420879
44	0x3c1cba01	0.009565831
45	0xbcfd460b	-0.030917188
46	0x3d219170	0.03944534
47	0x3d8f3ef6	0.06994431
48	0x3d586a70	0.05283588
49	0xbbb4f11c	-0.0055219065
50	0xbda2ecac	-0.07955298
51	0xbd26f32b	-0.040759247
52	0x3d4295b6	0.047506057
53	0xbd61ee78	-0.055159062
54	0x3ba94aa4	0.0051663686
55	0x3e03cba6	0.12870654
56	0xbc1c8b62	-0.009554716
57	0x3d768590	0.06018597
58	0x3ccc13da	0.02491181
59	0x3def7c50	0.116936326
60	0x3d8c4848	0.06849724
61	0x3cb9e344	0.022691377
62	0xbd59aa7d	-0.053141106
63	0x3d71e841	0.059059385
