model1/epoch=199modello-N_iter6-N_features64-N_BS10000-epochs1000-lr0.001.pth (torch, 918276 bytes, 108 tensors)

_transform._transforms.1.autoregressive_net.initial_layer.weight f4 [64, 4]
0	0x3dd56504	0.10419658
1	0x3eeede46	0.46653956
2	0x3eac424a	0.33644325
3	0xbe469ae4	-0.19395024
4	0x3e91c55c	0.28470886
5	0x3ee131ca	0.439833
6	0x3ebbf9d4	0.3671404
7	0xbe906b28	-0.28206754
8	0x3d5fa671	0.05460209
9	0xbe96666e	-0.29375023
10	0xbecc3b03	-0.39888772
11	0xbdfcdd70	-0.12346923
12	0x3ca6182a	0.020275194
13	0xbe8b66da	-0.27226907
14	0xbea0eade	-0.3142919
15	0xbec4bc4e	-0.38424915
16	0xbee30aa0	-0.44344044
17	0xbda5829a	-0.08081551
18	0x3cfa9120	0.03058678
19	0x3ece77fe	0.40325922
20	0xbe174227	-0.14771329
21	0xbecc861c	-0.39946067
22	0x3b57aef0	0.0032910667
23	0x3ec432de	0.3832006
24	0x3eb6adf3	0.35679588
25	0xbda9f7c8	-0.08299214
26	0xbcc03240	-0.023461461
27	0xbeff863c	-0.499071
28	0x3f0561d9	0.5210243
29	0xbeed8966	-0.4639389
30	0x3e9ec2b0	0.3100791
31	0x3eee8612	0.46586663
32	0x3e6ef7c7	0.23336707
33	0x3abf4ac4	0.0014594425
34	0x3ebd2485	0.36941925
35	0x3dfded70	0.12398803
36	0xbe4ae905	-0.19815452
37	0x3ed9bc26	0.42526358
38	0x3eb5eb12	0.35530907
39	0xbc2d8dc0	-0.010592878
40	0x3ed8cae8	0.42342305
41	0xbeedca6c	-0.46443498
42	0x3d3ee080	0.04660082
43	0x3ebb69bc	0.36604106
44	0xbec3ffcd	-0.38281098
45	0x3ccc6516	0.024950545
46	0xbc3828bf	-0.011240183
47	0xbd89f8a8	-0.067368805
48	0x3dfef732	0.124494925
49	0xbecbf44a	-0.39834815
50	0x3e7e5c18	0.24839818
51	0x3ab2ca00	0.0013640523
52	0xbdadacfc	-0.0848026
53	0xbefad6a6	-0.4899189
54	0x3edc0e06	0.4297945
55	0x3d38afd0	0.045089543
56	0x3edf46cb	0.43608698
57	0x3dde491f	0.108537905
58	0x3ee02c7d	0.43783942
59	0x3ea3b530	0.31974173
60	0x3e9b90e5	0.30383983
61	0x3bd24600	0.006417036
62	0xbea322cc	-0.31862485
63	0xbd49a360	-0.049228072
64	0xbe31e854	-0.17373782
65	0x3da43070	0.08017051
66	0xbece94ce	-0.40347904
67	0xbe7063bc	-0.23475546
68	0xbec71a49	-0.3888724
69	0x3d559b94	0.052150324
70	0x3e68a2b4	0.22718316
71	0xbe1e6808	-0.15469372
72	0xbe97f005	-0.29675308
73	0x3c3354c0	0.010945499
74	0xbed03756	-0.40667218
75	0xbec09dd6	-0.3762042
76	0xbe0ef60f	-0.13961051
77	0xbde948ba	-0.113908246
78	0x3e2cf958	0.16891992
79	0xbe8c701e	-0.2742929
80	0x3defc690	0.11707795
81	0x3df5bbc0	0.11998701
82	0x3d160f96	0.036635958
83	0x3e3db51c	0.18526119
84	0xbe3769e3	-0.17911486
85	0x3ee771de	0.4520406
86	0xbd39a8a0	-0.04532683
87	0x3ed9e366	0.42556304
88	0xbe800103	-0.25000772
89	0x3ea6e324	0.3259517
90	0x3db6f820	0.08934045
91	0x3ece0c7c	0.402439
92	0x3e915ace	0.2838959
93	0x3b494729	0.003071258
94	0xbe1af29a	-0.15131608
95	0x3ec6bc66	0.38815612
96	0x3d2233e8	0.039600283
97	0x3e8770be	0.26453203
98	0x3e0c3e6c	0.13695687
99	0x3ecfb116	0.40564793
100	0x3e09f37c	0.13471788
101	0xbeb327a1	-0.34991172
102	0x3eb3c2aa	0.35109454
103	0x3e49093c	0.19632429
104	0xbd4fd763	-0.05074252
105	0x3e71cd01	0.23613359
106	0xbe463be4	-0.19358784
107	0xbef0f3ce	-0.47061008
108	0xbe61c7b0	-0.22048831
109	0x3ddf7488	0.109108984
110	0x3eb29364	0.34878075
111	0x3c6ca480	0.014443517
112	0xbe89fef4	-0.26952326
113	0x3de01513	0.109415196
114	0xbeca6e32	-0.39537197
115	0xbd600360	-0.05469072
116	0x3e3fa5f2	0.18715647
117	0x3ce326ec	0.02772852
118	0xbd87c043	-0.06628468
119	0x3e0c29d0	0.13687825
120	0xbebc7646	-0.36808985
121	0x3d7c4880	0.06159258
122	0xbe081df8	-0.13292682
123	0x3eb36a5c	0.35042083
124	0x3e8e697e	0.2781486
125	0xbe9cf398	-0.30654597
126	0xbea38352	-0.31936127
127	0xbefe30e8	-0.49646688
128	0xbea1637a	-0.31521207
129	0x3d950e43	0.07278111
130	0xbf04a0a1	-0.518076
131	0x3eb2e7b2	0.34942394
132	0xbe9be9ec	-0.30451906
133	0x3e49d0f4	0.19708616
134	0xbe9b34cc	-0.30313718
135	0x3e43e400	0.19129944
136	0x3e09a73d	0.13442703
137	0xbd199b38	-0.037501544
138	0x3ebb5d6e	0.3659472
139	0x3ea64040	0.32470894
140	0xbdaadba1	-0.08342672
141	0x3ede4c84	0.43417752
142	0x3ee107ba	0.43951207
143	0xbd84f6a0	-0.064923525
144	0x3f0d9bad	0.5531567
145	0xbedf95a0	-0.43668842
146	0x3eb9df7e	0.36303324
147	0x3dd88c78	0.10573667
148	0xbe20cc29	-0.15702881
149	0x3dc89199	0.097933955
150	0x3da08750	0.07838309
151	0x3ebfdfe4	0.37475502
152	0x3ec6b172	0.38807255
153	0xbeb6abda	-0.35677987
154	0x3ee85d31	0.453836
155	0xbe9ecaba	-0.31014043
156	0xbe66b8fc	-0.22531503
157	0x3ee32fc2	0.44372374
158	0x3e40a388	0.18812382
159	0x3cab6040	0.020919919
160	0xbe5b034d	-0.21387978
161	0x3ead17ba	0.33807164
162	0xbefc3918	-0.4926231
163	0x3df3ca00	0.11903763
164	0x3cba4861	0.022739591
165	0x3ee0eae6	0.43929213
166	0x3e88edb6	0.2674386
167	0xbe477024	-0.19476372
168	0xbe102cc4	-0.14079577
169	0x3d9a4338	0.07532352
170	0xba1d5000	-0.00060009956
171	0x3dbc54c8	0.09195858
172	0xbea696e1	-0.32536986
173	0xbe7c903f	-0.246644
174	0x3e6ac954	0.22928363
175	0x3db6d3f0	0.089271426
176	0xbe9496c5	-0.29021278
177	0x3e474294	0.19458991
178	0x3e1ddd9f	0.15416573
179	0x3edbe416	0.42947453
180	0x3e796cda	0.2435793
181	0xbe225728	-0.1585356
182	0xbedf3438	-0.43594527
183	0x3dbc4f68	0.09194833
184	0x3eef93ce	0.46792454
185	0x3ea2c822	0.31793314
186	0x3d757260	0.05992353
187	0xbe7c43f8	-0.24635303
188	0x3d83c9ed	0.06434999
189	0x3ed324b2	0.41238934
190	0x3ee8d4da	0.45474893
191	0xbe481324	-0.19538552
192	0x3ebed4a6	0.37271613
193	0xbea81f2c	-0.32836282
194	0xbd689dd0	-0.056791127
195	0xbe6469bc	-0.2230596
196	0xbecc107a	-0.3985632
197	0x3e5af7c8	0.21383584
198	0xbe6bfa50	-0.23044705
199	0x3cd5c200	0.026093483
200	0xbeec5e1b	-0.46165547
201	0x3e821649	0.25407627
202	0x3ee8b422	0.4544993
203	0x3e991c24	0.29904282
204	0xbe161a85	-0.14658554
205	0x3ec3e2c2	0.3825894
206	0xbe9faa94	-0.31184828
207	0x3aff8200	0.0019493699
208	0x3e9b75d6	0.3036334
209	0x3eca6c63	0.39535818
210	0x3ea48636	0.32133645
211	0xbe0bb798	-0.13644254
212	0x3e70e6c7	0.23525535
213	0x3e3b3672	0.18282488
214	0xbeafc4ec	-0.34329927
215	0xbe7b401c	-0.24536175
216	0xbe494aff	-0.19657515
217	0x3ebfcba2	0.37460047
218	0x3e9f1b8a	0.31075698
219	0x3ed3b3f8	0.41348243
220	0xbc7a0aaa	-0.015261332
221	0xbf03d282	-0.51493084
222	0xbee76cb0	-0.4520011
223	0x3ea52bee	0.32260078
224	0x3ea8a9ca	0.3294204
225	0x3e9b9e51	0.30394223
226	0x3e727f76	0.23681435
227	0x3d083720	0.033255696
228	0x3eff6e68	0.4988892
229	0xbe8c7772	-0.2743488
230	0x3df2d438	0.11856884
231	0x3d2c21b0	0.042024314
232	0xbe38f326	-0.18061504
233	0xbc569e4f	-0.013099267
234	0x3ea8d41c	0.32974327
235	0x3e56cf0c	0.2097742
236	0xbe7c24bf	-0.24623393
237	0x3ec4c48c	0.38431203
238	0xbecafb89	-0.3964503
239	0xbe01fd64	-0.12694317
240	0x3dff34b2	0.12461223
241	0x3eee75ae	0.46574157
242	0x3de22720	0.11042619
243	0x3ece3bc8	0.40279984
244	0x3ef5107e	0.47864145
245	0xbedd2039	-0.43188646
246	0xbdccb5d8	-0.099956214
247	0x3eb56f84	0.35436642
248	0xbed03414	-0.40664732
249	0x3da4eb6f	0.08052718
250	0x3dcca9c2	0.09993316
251	0xbee972c0	-0.4559536
252	0x3edc9580	0.4308281
253	0xbeb9fb2e	-0.36324447
254	0xbee55896	-0.44794148
255	0xbec1152a	-0.3771146

_transform._transforms.1.autoregressive_net.initial_layer.bias f4 [64]
0	0x3ca14420	0.019685805
1	0xbe18f0a6	-0.1493555
2	0x3ebeec7a	0.37289792
3	0xbeb76685	-0.35820404
4	0x3e621a56	0.22080359
5	0x3d8cdb8d	0.068778135
6	0xbecd636b	-0.40114912
7	0x3ed1ef15	0.41002718
8	0xbc5aebcd	-0.013361883
9	0x3e5035e6	0.2033306
10	0xbe3a1894	-0.18173438
11	0xbe6b7453	-0.22993593
12	0xbe6b9933	-0.2300766
13	0xbefbbc16	-0.49166936
14	0x3e8360e1	0.2565985
15	0xbe7a4d18	-0.24443471
16	0xbe477dbf	-0.19481562
17	0xbe5c0073	-0.21484546
18	0xbe6f327e	-0.23359105
19	0xbe33072b	-0.17483203
20	0xbe8ac7cd	-0.2710556
21	0x3da0b2e8	0.07846624
22	0x3ed1265f	0.40849587
23	0x3e86f124	0.2635585
24	0x3dfef249	0.12448556
25	0x3db7b588	0.08970171
26	0x3dab377f	0.083601944
27	0x3db91118	0.090364635
28	0x3dc3e7b8	0.09565681
29	0xbea57de3	-0.32322606
30	0xbdee72d6	-0.11642997
31	0xbedc4404	-0.43020642
32	0x3df5087b	0.11964508
33	0x3e3d85e2	0.18508103
34	0x3c28c4b6	0.010300806
35	0x3dbe9b86	0.093070075
36	0xbe394fe5	-0.18096884
37	0x3ea3d57a	0.31998807
38	0xbdcefffc	-0.10107419
39	0xbd93985f	-0.07206797
40	0x3ecaf915	0.3964316
41	0x3eae7cb5	0.3407952
42	0x3e45f9a3	0.1933351
43	0x3e9cd681	0.30632403
44	0xbe0ed371	-0.13947846
45	0x3e8ad6f2	0.27117115
46	0xbea85800	-0.3287964
47	0xbeb26d16	-0.3484885
48	0x3ce82386	0.028337251
49	0xbebb19c9	-0.3654311
50	0xbd09072d	-0.03345411
51	0x3e3e84c8	0.1860534
52	0xbe0deb17	-0.13859211
53	0x3ee49c7f	0.44650647
54	0xbc960f7c	-0.01831793
55	0xbc6f2c71	-0.014597998
56	0xbeb48bdc	-0.35262954
57	0xbeaabf99	-0.33349302
58	0xbd975f93	-0.07391276
59	0xbe11a16d	-0.14221735
60	0x3e6ccd16	0.23125109
61	0xbd47f280	-0.04881525
62	0x3eeff188	0.4686396
63	0xbecaaa51	-0.39583066

_transform._transforms.1.autoregressive_net.initial_layer.mask f4 [64, 4]
0	0x3f800000	1.0
1	0x00000000	0.0
2	0x00000000	0.0
3	0x00000000	0.0
4	0x3f800000	1.0
5	0x3f800000	1.0
6	0x00000000	0.0
7	0x00000000	0.0
8	0x3f800000	1.0
9	0x3f800000	1.0
10	0x3f800000	1.0
11	0x00000000	0.0
12	0x3f800000	1.0
13	0x00000000	0.0
14	0x00000000	0.0
15	0x00000000	0.0
16	0x3f800000	1.0
17	0x3f800000	1.0
18	0x00000000	0.0
19	0x00000000	0.0
20	0x3f800000	1.0
21	0x3f800000	1.0
22	0x3f800000	1.0
23	0x00000000	0.0
24	0x3f800000	1.0
25	0x00000000	0.0
26	0x00000000	0.0
27	0x00000000	0.0
28	0x3f800000	1.0
29	0x3f800000	1.0
30	0x00000000	0.0
31	0x00000000	0.0
32	0x3f800000	1.0
33	0x3f800000	1.0
34	0x3f800000	1.0
35	0x00000000	0.0
36	0x3f800000	1.0
37	0x00000000	0.0
38	0x00000000	0.0
39	0x00000000	0.0
40	0x3f800000	1.0
41	0x3f800000	1.0
42	0x00000000	0.0
43	0x00000000	0.0
44	0x3f800000	1.0
45	0x3f800000	1.0
46	0x3f800000	1.0
47	0x00000000	0.0
48	0x3f800000	1.0
49	0x00000000	0.0
50	0x00000000	0.0
51	0x00000000	0.0
52	0x3f800000	1.0
53	0x3f800000	1.0
54	0x00000000	0.0
55	0x00000000	0.0
56	0x3f800000	1.0
57	0x3f800000	1.0
58	0x3f800000	1.0
59	0x00000000	0.0
60	0x3f800000	1.0
61	0x00000000	0.0
62	0x00000000	0.0
63	0x00000000	0.0
64	0x3f800000	1.0
65	0x3f800000	1.0
66	0x00000000	0.0
67	0x00000000	0.0
68	0x3f800000	1.0
69	0x3f800000	1.0
70	0x3f800000	1.0
71	0x00000000	0.0
72	0x3f800000	1.0
73	0x00000000	0.0
74	0x00000000	0.0
75	0x00000000	0.0
76	0x3f800000	1.0
77	0x3f800000	1.0
78	0x00000000	0.0
79	0x00000000	0.0
80	0x3f800000	1.0
81	0x3f800000	1.0
82	0x3f800000	1.0
83	0x00000000	0.0
84	0x3f800000	1.0
85	0x00000000	0.0
86	0x00000000	0.0
87	0x00000000	0.0
88	0x3f800000	1.0
89	0x3f800000	1.0
90	0x00000000	0.0
91	0x00000000	0.0
92	0x3f800000	1.0
93	0x3f800000	1.0
94	0x3f800000	1.0
95	0x00000000	0.0
96	0x3f800000	1.0
97	0x00000000	0.0
98	0x00000000	0.0
99	0x00000000	0.0
100	0x3f800000	1.0
101	0x3f800000	1.0
102	0x00000000	0.0
103	0x00000000	0.0
104	0x3f800000	1.0
105	0x3f800000	1.0
106	0x3f800000	1.0
107	0x00000000	0.0
108	0x3f800000	1.0
109	0x00000000	0.0
110	0x00000000	0.0
111	0x00000000	0.0
112	0x3f800000	1.0
113	0x3f800000	1.0
114	0x00000000	0.0
115	0x00000000	0.0
116	0x3f800000	1.0
117	0x3f800000	1.0
118	0x3f800000	1.0
119	0x00000000	0.0
120	0x3f800000	1.0
121	0x00000000	0.0
122	0x00000000	0.0
123	0x00000000	0.0
124	0x3f800000	1.0
125	0x3f800000	1.0
126	0x00000000	0.0
127	0x00000000	0.0
128	0x3f800000	1.0
129	0x3f800000	1.0
130	0x3f800000	1.0
131	0x00000000	0.0
132	0x3f800000	1.0
133	0x00000000	0.0
134	0x00000000	0.0
135	0x00000000	0.0
136	0x3f800000	1.0
137	0x3f800000	1.0
138	0x00000000	0.0
139	0x00000000	0.0
140	0x3f800000	1.0
141	0x3f800000	1.0
142	0x3f800000	1.0
143	0x00000000	0.0
144	0x3f800000	1.0
145	0x00000000	0.0
146	0x00000000	0.0
147	0x00000000	0.0
148	0x3f800000	1.0
149	0x3f800000	1.0
150	0x00000000	0.0
151	0x00000000	0.0
152	0x3f800000	1.0
153	0x3f800000	1.0
154	0x3f800000	1.0
155	0x00000000	0.0
156	0x3f800000	1.0
157	0x00000000	0.0
158	0x00000000	0.0
159	0x00000000	0.0
160	0x3f800000	1.0
161	0x3f800000	1.0
162	0x00000000	0.0
163	0x00000000	0.0
164	0x3f800000	1.0
165	0x3f800000	1.0
166	0x3f800000	1.0
167	0x00000000	0.0
168	0x3f800000	1.0
169	0x00000000	0.0
170	0x00000000	0.0
171	0x00000000	0.0
172	0x3f800000	1.0
173	0x3f800000	1.0
174	0x00000000	0.0
175	0x00000000	0.0
176	0x3f800000	1.0
177	0x3f800000	1.0
178	0x3f800000	1.0
179	0x00000000	0.0
180	0x3f800000	1.0
181	0x00000000	0.0
182	0x00000000	0.0
183	0x00000000	0.0
184	0x3f800000	1.0
185	0x3f800000	1.0
186	0x00000000	0.0
187	0x00000000	0.0
188	0x3f800000	1.0
189	0x3f800000	1.0
190	0x3f800000	1.0
191	0x00000000	0.0
192	0x3f800000	1.0
193	0x00000000	0.0
194	0x00000000	0.0
195	0x00000000	0.0
196	0x3f800000	1.0
197	0x3f800000	1.0
198	0x00000000	0.0
199	0x00000000	0.0
200	0x3f800000	1.0
201	0x3f800000	1.0
202	0x3f800000	1.0
203	0x00000000	0.0
204	0x3f800000	1.0
205	0x00000000	0.0
206	0x00000000	0.0
207	0x00000000	0.0
208	0x3f800000	1.0
209	0x3f800000	1.0
210	0x00000000	0.0
211	0x00000000	0.0
212	0x3f800000	1.0
213	0x3f800000	1.0
214	0x3f800000	1.0
215	0x00000000	0.0
216	0x3f800000	1.0
217	0x00000000	0.0
218	0x00000000	0.0
219	0x00000000	0.0
220	0x3f800000	1.0
221	0x3f800000	1.0
222	0x00000000	0.0
223	0x00000000	0.0
224	0x3f800000	1.0
225	0x3f800000	1.0
226	0x3f800000	1.0
227	0x00000000	0.0
228	0x3f800000	1.0
229	0x00000000	0.0
230	0x00000000	0.0
231	0x00000000	0.0
232	0x3f800000	1.0
233	0x3f800000	1.0
234	0x00000000	0.0
235	0x00000000	0.0
236	0x3f800000	1.0
237	0x3f800000	1.0
238	0x3f800000	1.0
239	0x00000000	0.0
240	0x3f800000	1.0
241	0x00000000	0.0
242	0x00000000	0.0
243	0x00000000	0.0
244	0x3f800000	1.0
245	0x3f800000	1.0
246	0x00000000	0.0
247	0x00000000	0.0
248	0x3f800000	1.0
249	0x3f800000	1.0
250	0x3f800000	1.0
251	0x00000000	0.0
252	0x3f800000	1.0
253	0x00000000	0.0
254	0x00000000	0.0
255	0x00000000	0.0

_transform._transforms.1.autoregressive_net.blocks.0.linear_layers.0.weight f4 [64, 64]
0	0x3d5466e6	0.051855944
1	0x3d108144	0.035279527
2	0x3d6b195c	0.05739723
3	0xbdfff404	-0.12497714
4	0x3b0cb0c0	0.0021467656
5	0xbbd11c40	-0.0063815415
6	0x3c2932f6	0.010327091
7	0xbd209f1c	-0.03921424
8	0x3dc3af0e	0.095548734
9	0xbcf6e34c	-0.03013768
10	0xbbb20d60	-0.0054337233
11	0x3c83ea48	0.016102925
12	0xbd85d980	-0.065356255
13	0xbde66048	-0.11248833
14	0x3cde9270	0.027169436
15	0xbd8410bb	-0.064485036
16	0x3b938620	0.004502073
17	0x3d9cdb5e	0.076590285
18	0x3f11e6c4	0.56992745
19	0xbdcf3f9c	-0.101195544
20	0x3df4d6bc	0.1195502
21	0x3ca75258	0.020425007
22	0x3cbd2618	0.023089454
23	0xbbf70ee0	-0.007539615
24	0x3dcf60c2	0.10125877
25	0xbdb48e7a	-0.08816238
26	0x3dd9643e	0.10614823
27	0x3db96c0a	0.0905381
28	0xbd23de70	-0.040007055
29	0x3dbacfc8	0.091216624
30	0xbb944bc9	-0.004525636
31	0xbd7348a0	-0.059395432
32	0x3da62054	0.08111635
33	0x3df9ed4a	0.122034624
34	0x3d9146f0	0.070936084
35	0x3cfe2a90	0.031026155
36	0x3cd3c9e0	0.025853097
37	0x3c796b80	0.015223384
38	0x3dbb070e	0.09132205
39	0xbbd38f56	-0.006456296
40	0xbdd5bf8e	-0.10436927
41	0xbd93ce2c	-0.072170585
42	0x3b468179	0.0030289574
43	0xbdf267da	-0.11836214
44	0xbdb64efa	-0.08901782
45	0xbe045d9e	-0.12926337
46	0xbd56bedc	-0.05242811
47	0xbae2c500	-0.0017301142
48	0xbbdedef0	-0.0068014786
49	0xbde96eca	-0.113980845
50	0x3dc463d2	0.09589352
51	0x3af91894	0.0019004517
52	0xbdfcc1ac	-0.123416275
53	0xbde182ee	-0.11011301
54	0x3e111af3	0.14170437
55	0xbd9ca484	-0.07648566
56	0x3cc954a8	0.0245765
57	0xbe01931e	-0.12653777
58	0xbd791b40	-0.060817003
59	0x3cc020a0	0.023453057
60	0x3dbbae3f	0.09164094
61	0x3c9376c8	0.018000975
62	0x3d84f0ea	0.06491263
63	0x3c06d992	0.008230584
64	0xbe165559	-0.14680995
65	0x3cdaed46	0.026724469
66	0x3da473e4	0.08029917
67	0xbd1d2f9c	-0.038375482
68	0x3a7e2aba	0.0009695698
69	0xbc7ff4a0	-0.015622288
70	0x3d14f1ad	0.036363292
71	0xbbef228a	-0.0072978185
72	0x3ddbb446	0.10727744
73	0xbd003bae	-0.031306915
74	0xbd4e9fb0	-0.05044526
75	0xbdee2edc	-0.116300315
76	0xbdb6b80c	-0.08921823
77	0xbd05ee23	-0.032697808
78	0xbda6100a	-0.08108528
79	0x3da0acb3	0.0784544
80	0xbda2126a	-0.079136685
81	0x3d83669a	0.06416054
82	0xbf25e3ec	-0.64800906
83	0xbe2e6d26	-0.17033824
84	0xbda24c56	-0.07924716
85	0xbda60c0c	-0.081077665
86	0x3dbe9c92	0.09307207
87	0xbd8d1eea	-0.06890662
88	0x3d756267	0.059908297
89	0x3d866117	0.06561487
90	0x3d112a24	0.03544058
91	0x3e023da5	0.12718828
92	0x3c53cc31	0.012927101
93	0x3d194694	0.037420824
94	0xbe2c1d01	-0.16807939
95	0xbeafd67b	-0.34343323
96	0xbdd61cbc	-0.104546994
97	0xbdb043ea	-0.086067036
98	0xbda7d97e	-0.0819578
99	0xbd3c6f34	-0.04600449
100	0xba895eda	-0.0010480538
101	0x3d3b1613	0.04567535
102	0x3dba5e8e	0.09100066
103	0xbcde3ac0	-0.027127624
104	0xbd3c7ab0	-0.04601544
105	0xbddf39c8	-0.10899693
106	0x3a78cb26	0.00094907207
107	0xbcdbb127	-0.026817871
108	0x3c06be00	0.0082240105
109	0x3e12e062	0.14343408
110	0xbd5cb959	-0.0538877
111	0xbc946dd8	-0.018118784
112	0x3beadbb9	0.0071673063
113	0xbd614e88	-0.055006534
114	0x3ddacb84	0.10683349
115	0xbd8f4ab1	-0.06996668
116	0xbe0afd58	-0.13573205
117	0xbdd0ea5e	-0.10200952
118	0xbbbb0370	-0.005707197
119	0xbcd52131	-0.026016803
120	0x3d9e7ec0	0.077390194
121	0xbc77ff7e	-0.015136598
122	0x3d9c9c36	0.07646982
123	0xbc817d68	-0.015806869
124	0x3d8eceb6	0.06973021
125	0x3e84f1ce	0.25965732
126	0x3d6af3a8	0.057361275
127	0xbddc44e8	-0.1075533
128	0xbc7b0348	-0.0153206065
129	0x3c17a98c	0.009256732
130	0x3cce7710	0.025203258
131	0x3d31a4b0	0.04336995
132	0x3d803a0d	0.06261072
133	0x3c18c8b5	0.009325196
134	0xbdc7f3db	-0.097633086
135	0xbdfc5166	-0.12320213
136	0xbd75bba3	-0.059993397
137	0xbda24dfd	-0.07925031
138	0xbd24e635	-0.040258605
139	0xbd567f5a	-0.052367546
140	0xbd5a9070	-0.053360403
141	0x3df38791	0.118910916
142	0xbdccd6c6	-0.10001902
143	0xbc0de0c6	-0.008659547
144	0x3d283a5c	0.04107128
145	0xbe01efa7	-0.12689076
146	0xbc80f484	-0.015741594
147	0x3de5ef2f	0.11227261
148	0x3ddd085c	0.1079261
149	0x3dc3a237	0.095524244
150	0x3ca4e934	0.020130731
151	0xbd2e6707	-0.042578723
152	0xbc665c8e	-0.014060153
153	0x3d2ad325	0.04170527
154	0xbca1e765	-0.019763658
155	0x3d113ff7	0.035461392
156	0x3de8f66f	0.113751285
157	0xbced7a1d	-0.028988892
158	0x3d127228	0.0357534
159	0xbdf85e50	-0.12127364
160	0xbdb7a54b	-0.08967074
161	0x3d4f5cdc	0.050625667
162	0xbd67dfd7	-0.056609955
163	0x3df0a065	0.11749343
164	0x3d67274d	0.056433965
165	0xbd847e4a	-0.064694
166	0xbd1ed201	-0.038774494
167	0xbd082a9e	-0.033243768
168	0x3c7f945a	0.015599335
169	0xbd4d8a50	-0.050180733
170	0x3c03ef0b	0.008052598
171	0xbd90d6ac	-0.070721954
172	0xbdd7755d	-0.10520432
173	0xbdc76372	-0.097357646
174	0xbbbffd0b	-0.0058590225
175	0x3d91d20e	0.07120143
176	0xbc32f3e7	-0.010922409
177	0xbd2d7508	-0.042347938
178	0x3cc251a1	0.023720564
179	0xbdf46667	-0.11933594
180	0x3db783e2	0.089607015
181	0x3cce0b8f	0.025151996
182	0xbc2f7ba0	-0.010710627
183	0xbc293c26	-0.010329282
184	0x3ca1d1fc	0.019753449
185	0xbd6cb75e	-0.05779206
186	0xbe00b9d1	-0.12570883
187	0xbd9c163f	-0.076214306
188	0x3d7040ee	0.05865567
189	0x3dcb6b20	0.09932542
190	0x3daa1050	0.083038926
191	0xbd929b36	-0.071585104
192	0x3d3c79f3	0.046014737
193	0xbd01ff50	-0.031737626
194	0xbd6342d8	-0.05548367
195	0x3d5099dc	0.05092798
196	0x3c65a9a0	0.0140174925
197	0xbcd10bf8	-0.025518402
198	0xbdc3f9d8	-0.09569138
199	0xbd316a88	-0.043314487
200	0x3cd2b7b8	0.02572237
201	0xbbbc8114	-0.005752692
202	0xbbde10e0	-0.006776914
203	0xbd9656fe	-0.07340811
204	0xbc044f6e	-0.008075578
205	0xbc2dcbf0	-0.0106077045
206	0xbc120f20	-0.008914739
207	0x3d07dbc5	0.033168573
208	0x3dabdace	0.08391343
209	0xbdbbc272	-0.09167947
210	0x3f1e32d5	0.61796314
211	0xbdfbaa68	-0.12288362
212	0xbdafc7ac	-0.08583006
213	0x3df3510f	0.11880695
214	0xbd5b5ca4	-0.053555146
215	0xbdefc5e0	-0.117076635
216	0xbda33366	-0.07968788
217	0xbd095980	-0.03353262
218	0xbd8d2bc0	-0.0689311
219	0x3ceeb57e	0.029139277
220	0x3c8dd410	0.017313033
221	0x3d99b036	0.07504313
222	0x3dacba82	0.08434011
223	0xbdc211f2	-0.09476079
224	0xbc9ee270	-0.019395083
225	0x3ca8c359	0.020600962
226	0x3d11e618	0.035619825
227	0xbc88d728	-0.016704157
228	0x3ca27edb	0.01983588
229	0x3d8a8db4	0.06765309
230	0x3d59c0cc	0.05316238
231	0x3e0f1c10	0.13975549
232	0xbde8a7fe	-0.11360167
233	0x3d170b90	0.03687626
234	0x3e02aa21	0.12760212
235	0xbde5c880	-0.11219883
236	0xbd85d04e	-0.065338716
237	0xbddf79c9	-0.109119006
238	0x3d5bff44	0.053710237
239	0x3d278bc8	0.04090479
240	0xbdbacdeb	-0.09121307
241	0x3da1d0b4	0.07901135
242	0xbd4ed77c	-0.05049847
243	0x3db62a59	0.08894796
244	0xbdd8ef08	-0.105924666
245	0x3d084720	0.033270955
246	0x3ddd053d	0.10792015
247	0x3cdf21f0	0.027237862
248	0xbdf5f386	-0.12009339
249	0x3d1c9896	0.038231455
250	0xbde40a30	-0.111347556
251	0x3d31bbfc	0.043392166
252	0x3c142cab	0.009043853
253	0xbdff73c0	-0.124732494
254	0xbce0a5b8	-0.02742277
255	0x3d034248	0.032045633

_transform._transforms.1.autoregressive_net.blocks.0.linear_layers.0.bias f4 [64]
0	0x3d90bfbc	0.070678204
1	0x3e004d42	0.12529472
2	0xbd93b45a	-0.07212134
3	0x3d94c5ab	0.07264265
4	0x3defad86	0.11703019
5	0xbdc05aa3	-0.093922876
6	0xbde6a462	-0.11261822
7	0x3d7a5dfd	0.06112479
8	0xbd3d60a7	-0.046234753
9	0xbcb17d00	-0.02166605
10	0x3d9c2ba1	0.07625509
11	0x3dbb496a	0.09144862
12	0x3dca29b5	0.09871236
13	0x3d8a63aa	0.06757291
14	0x3dead6d7	0.11466759
15	0x3d70c118	0.0587779
16	0x3dbc3d3e	0.091913685
17	0xbdbc4fd6	-0.09194915
18	0xbdec77a6	-0.11546259
19	0x3e05429b	0.13013689
20	0x3d28abfa	0.041179635
21	0xbd8abc96	-0.06774251
22	0x3dd8198a	0.10551746
23	0xbd2eddc0	-0.042691946
24	0xbd528da5	-0.051404614
25	0x3c044ed3	0.008075434
26	0x3d1b7275	0.03795095
27	0xbdef3d9f	-0.11681675
28	0x3dc1b2eb	0.09457954
29	0x3da18af1	0.07887829
30	0xbd4d627b	-0.050142746
31	0x3be3b4fc	0.0069490653
32	0x3ccaf9e2	0.024777357
33	0x3d04b89a	0.032402612
34	0xbd7a9be8	-0.06118384
35	0x3dcfb98d	0.10142813
36	0x3d9b8066	0.075928494
37	0xbbafbe78	-0.005363282
38	0x3e11135c	0.14167541
39	0x3decb833	0.11558571
40	0xbc8de3f8	-0.017320618
41	0x3dc42519	0.09577388
42	0x3dae3ab2	0.08507289
43	0xbd94e7c0	-0.07270765
44	0x3d3e057f	0.04639196
45	0x3d50e648	0.051000863
46	0x3db00296	0.08594243
47	0x3d8e7df4	0.069576174
48	0x3cf4f0ad	0.02989992
49	0x3de4e175	0.11175815
50	0x3dbd7c8f	0.09252273
51	0xbc694f4b	-0.014240096
52	0x3e0f1564	0.13973004
53	0x3ca7a299	0.020463275
54	0xbd8141f0	-0.06311405
55	0xbda40186	-0.08008103
56	0xbe029cee	-0.12755176
57	0x3d62a7c4	0.055335775
58	0xba4b14cb	-0.0007746934
59	0x3e18029f	0.1484475
60	0xbbf83a61	-0.0075753187
61	0x3e095e84	0.13414961
62	0x3d63450e	0.055485778
63	0xbd8f96d2	-0.070111886

_transform._transforms.1.autoregressive_net.blocks.0.linear_layers.0.mask f4 [64, 64]
0	0x3f800000	1.0
1	0x00000000	0.0
2	0x00000000	0.0
3	0x3f800000	1.0
4	0x00000000	0.0
5	0x00000000	0.0
6	0x3f800000	1.0
7	0x00000000	0.0
8	0x00000000	0.0
9	0x3f800000	1.0
10	0x00000000	0.0
11	0x00000000	0.0
12	0x3f800000	1.0
13	0x00000000	0.0
14	0x00000000	0.0
15	0x3f800000	1.0
16	0x00000000	0.0
17	0x00000000	0.0
18	0x3f800000	1.0
19	0x00000000	0.0
20	0x00000000	0.0
21	0x3f800000	1.0
22	0x00000000	0.0
23	0x00000000	0.0
24	0x3f800000	1.0
25	0x00000000	0.0
26	0x00000000	0.0
27	0x3f800000	1.0
28	0x00000000	0.0
29	0x00000000	0.0
30	0x3f800000	1.0
31	0x00000000	0.0
32	0x00000000	0.0
33	0x3f800000	1.0
34	0x00000000	0.0
35	0x00000000	0.0
36	0x3f800000	1.0
37	0x00000000	0.0
38	0x00000000	0.0
39	0x3f800000	1.0
40	0x00000000	0.0
41	0x00000000	0.0
42	0x3f800000	1.0
43	0x00000000	0.0
44	0x00000000	0.0
45	0x3f800000	1.0
46	0x00000000	0.0
47	0x00000000	0.0
48	0x3f800000	1.0
49	0x00000000	0.0
50	0x00000000	0.0
51	0x3f800000	1.0
52	0x00000000	0.0
53	0x00000000	0.0
54	0x3f800000	1.0
55	0x00000000	0.0
56	0x00000000	0.0
57	0x3f800000	1.0
58	0x00000000	0.0
59	0x00000000	0.0
60	0x3f800000	1.0
61	0x00000000	0.0
62	0x00000000	0.0
63	0x3f800000	1.0
64	0x3f800000	1.0
65	0x3f800000	1.0
66	0x00000000	0.0
67	0x3f800000	1.0
68	0x3f800000	1.0
69	0x00000000	0.0
70	0x3f800000	1.0
71	0x3f800000	1.0
72	0x00000000	0.0
73	0x3f800000	1.0
74	0x3f800000	1.0
75	0x00000000	0.0
76	0x3f800000	1.0
77	0x3f800000	1.0
78	0x00000000	0.0
79	0x3f800000	1.0
80	0x3f800000	1.0
81	0x00000000	0.0
82	0x3f800000	1.0
83	0x3f800000	1.0
84	0x00000000	0.0
85	0x3f800000	1.0
86	0x3f800000	1.0
87	0x00000000	0.0
88	0x3f800000	1.0
89	0x3f800000	1.0
90	0x00000000	0.0
91	0x3f800000	1.0
92	0x3f800000	1.0
93	0x00000000	0.0
94	0x3f800000	1.0
95	0x3f800000	1.0
96	0x00000000	0.0
97	0x3f800000	1.0
98	0x3f800000	1.0
99	0x00000000	0.0
100	0x3f800000	1.0
101	0x3f800000	1.0
102	0x00000000	0.0
103	0x3f800000	1.0
104	0x3f800000	1.0
105	0x00000000	0.0
106	0x3f800000	1.0
107	0x3f800000	1.0
108	0x00000000	0.0
109	0x3f800000	1.0
110	0x3f800000	1.0
111	0x00000000	0.0
112	0x3f800000	1.0
113	0x3f800000	1.0
114	0x00000000	0.0
115	0x3f800000	1.0
116	0x3f800000	1.0
117	0x00000000	0.0
118	0x3f800000	1.0
119	0x3f800000	1.0
120	0x00000000	0.0
121	0x3f800000	1.0
122	0x3f800000	1.0
123	0x00000000	0.0
124	0x3f800000	1.0
125	0x3f800000	1.0
126	0x00000000	0.0
127	0x3f800000	1.0
128	0x3f800000	1.0
129	0x3f800000	1.0
130	0x3f800000	1.0
131	0x3f800000	1.0
132	0x3f800000	1.0
133	0x3f800000	1.0
134	0x3f800000	1.0
135	0x3f800000	1.0
136	0x3f800000	1.0
137	0x3f800000	1.0
138	0x3f800000	1.0
139	0x3f800000	1.0
140	0x3f800000	1.0
141	0x3f800000	1.0
142	0x3f800000	1.0
143	0x3f800000	1.0
144	0x3f800000	1.0
145	0x3f800000	1.0
146	0x3f800000	1.0
147	0x3f800000	1.0
148	0x3f800000	1.0
149	0x3f800000	1.0
150	0x3f800000	1.0
151	0x3f800000	1.0
152	0x3f800000	1.0
153	0x3f800000	1.0
154	0x3f800000	1.0
155	0x3f800000	1.0
156	0x3f800000	1.0
157	0x3f800000	1.0
158	0x3f800000	1.0
159	0x3f800000	1.0
160	0x3f800000	1.0
161	0x3f800000	1.0
162	0x3f800000	1.0
163	0x3f800000	1.0
164	0x3f800000	1.0
165	0x3f800000	1.0
166	0x3f800000	1.0
167	0x3f800000	1.0
168	0x3f800000	1.0
169	0x3f800000	1.0
170	0x3f800000	1.0
171	0x3f800000	1.0
172	0x3f800000	1.0
173	0x3f800000	1.0
174	0x3f800000	1.0
175	0x3f800000	1.0
176	0x3f800000	1.0
177	0x3f800000	1.0
178	0x3f800000	1.0
179	0x3f800000	1.0
180	0x3f800000	1.0
181	0x3f800000	1.0
182	0x3f800000	1.0
183	0x3f800000	1.0
184	0x3f800000	1.0
185	0x3f800000	1.0
186	0x3f800000	1.0
187	0x3f800000	1.0
188	0x3f800000	1.0
189	0x3f800000	1.0
190	0x3f800000	1.0
191	0x3f800000	1.0
192	0x3f800000	1.0
193	0x00000000	0.0
194	0x00000000	0.0
195	0x3f800000	1.0
196	0x00000000	0.0
197	0x00000000	0.0
198	0x3f800000	1.0
199	0x00000000	0.0
200	0x00000000	0.0
201	0x3f800000	1.0
202	0x00000000	0.0
203	0x00000000	0.0
204	0x3f800000	1.0
205	0x00000000	0.0
206	0x00000000	0.0
207	0x3f800000	1.0
208	0x00000000	0.0
209	0x00000000	0.0
210	0x3f800000	1.0
211	0x00000000	0.0
212	0x00000000	0.0
213	0x3f800000	1.0
214	0x00000000	0.0
215	0x00000000	0.0
216	0x3f800000	1.0
217	0x00000000	0.0
218	0x00000000	0.0
219	0x3f800000	1.0
220	0x00000000	0.0
221	0x00000000	0.0
222	0x3f800000	1.0
223	0x00000000	0.0
224	0x00000000	0.0
225	0x3f800000	1.0
226	0x00000000	0.0
227	0x00000000	0.0
228	0x3f800000	1.0
229	0x00000000	0.0
230	0x00000000	0.0
231	0x3f800000	1.0
232	0x00000000	0.0
233	0x00000000	0.0
234	0x3f800000	1.0
235	0x00000000	0.0
236	0x00000000	0.0
237	0x3f800000	1.0
238	0x00000000	0.0
239	0x00000000	0.0
240	0x3f800000	1.0
241	0x00000000	0.0
242	0x00000000	0.0
243	0x3f800000	1.0
244	0x00000000	0.0
245	0x00000000	0.0
246	0x3f800000	1.0
247	0x00000000	0.0
248	0x00000000	0.0
249	0x3f800000	1.0
250	0x00000000	0.0
251	0x00000000	0.0
252	0x3f800000	1.0
253	0x00000000	0.0
254	0x00000000	0.0
255	0x3f800000	1.0

_transform._transforms.1.autoregressive_net.blocks.0.linear_layers.1.weight f4 [64, 64]
0	0x3d34a668	0.04410401
1	0x39da164a	0.00041596807
2	0x3a1a9886	0.00058973616
3	0x3d2bb5a0	0.041921258
4	0x3842c001	4.6432022e-05
5	0x39b11727	0.0003377732
6	0xb9b79b79	-0.00035020316
7	0x3a59241b	0.0008283273
8	0x37c794bd	2.379191e-05
9	0xb8b03d30	-8.403731e-05
10	0xb9fc6880	-0.00048143044
11	0xb9f0a1bb	-0.00045896866
12	0x3cf8fed9	0.030394958
13	0xba25f963	-0.0006331412
14	0xba2062a4	-0.0006118214
15	0xba75625b	-0.00093606644
16	0xb9cc5dfd	-0.0003897994
17	0x3a5c286f	0.0008398359
18	0x3867b2d2	5.524123e-05
19	0xb9484e80	-0.0001910273
20	0xb9023419	-0.00012417174
21	0xba82643d	-0.0009948086
22	0xba2b3ea8	-0.0006532469
23	0xba0c284e	-0.0005346582
24	0xbdc248fc	-0.09486577
25	0x3a394852	0.00070679665
26	0x38dab001	0.00010427833
27	0x3ba93071	0.0051632454
28	0x3a358bbd	0.00069254247
29	0x39b0df82	0.00033735862
30	0x3c5978e1	0.013273449
31	0xba11c781	-0.00055610394
32	0x37c968b5	2.4009825e-05
33	0x3d4ff6b9	0.050772402
34	0x370a9db3	8.262158e-06
35	0xba00957f	-0.0004905089
36	0x3d6d8962	0.057992347
37	0xba452519	-0.00075204816
38	0x39489528	0.00019129051
39	0x3d67c79e	0.056586854
40	0x38842f1b	6.3030246e-05
41	0xba52c779	-0.0008040588
42	0x3d306d28	0.04307285
43	0x3a561328	0.00081663067
44	0xb8eb7698	-0.00011227763
45	0x3d4a5b4e	0.04940348
46	0x3a2f5e1f	0.00066897454
47	0xba5755bb	-0.0008214374
48	0x3d5f7d15	0.054562647
49	0x3a43d75b	0.000747075
50	0xb9d5b5dc	-0.00040762022
51	0x3d9c4600	0.07630539
52	0xb9f0b8a0	-0.00045913924
53	0xba34cb17	-0.0006896718
54	0xbb68d957	-0.0035529935
55	0xba355c92	-0.0006918396
56	0xb9b1359e	-0.0003380002
57	0x3ca00135	0.019531826
58	0xba4593bd	-0.00075369683
59	0x3a496b63	0.00076835434
60	0x3c73f0f3	0.01488899
61	0xba14b254	-0.0005672325
62	0xb88b5a4e	-6.644857e-05
63	0xb9e550f6	-0.00043738604
64	0x3d27dcdc	0.040982112
65	0x3d868123	0.065675996
66	0xb9dc770b	-0.00042050364
67	0x3c8f2289	0.017472522
68	0x3d3ba19f	0.04580843
69	0xba3e11a6	-0.00072505546
70	0xb9e7ee53	-0.0004423732
71	0x3d577227	0.0525991
72	0xb9c48298	-0.00037481333
73	0xba52e013	-0.0008044254
74	0xbc31adab	-0.010844628
75	0xba4e026d	-0.0007858638
76	0x3cfdc782	0.030978922
77	0x3cbb1927	0.022839142
78	0xba608ee4	-0.0008566214
79	0x3a3f4cd1	0.00072975183
80	0x3cdc017b	0.026856175
81	0xb948c86b	-0.00019148148
82	0x398054b5	0.00024477174
83	0x3dae8b8c	0.0852271
84	0xba766578	-0.00093992753
85	0x39a05903	0.00030583897
86	0x3d3a4d3d	0.045483816
87	0xba10f338	-0.00055294065
88	0xbb4e58ea	-0.0031486102
89	0x3d1c03cc	0.03808956
90	0x393f5e46	0.00018250299
91	0x3ba239fa	0.004950759
92	0x3cdb32d7	0.02675764
93	0x394305a2	0.00018598748
94	0xba45a580	-0.0007539615
95	0x3cff44e5	0.031160781
96	0xba048ef0	-0.00050567
97	0x3d1438e0	0.036187053
98	0x3a5ce009	0.0008425718
99	0xba154919	-0.00056947913
100	0x3cd8bea6	0.026458096
101	0x3d3885c2	0.045049436
102	0xb9e12a5f	-0.00042946913
103	0x3d05e44e	0.03268843
104	0x3c6e47ed	0.014543516
105	0x396c4f75	0.00022536314
106	0x3d3104b4	0.043217376
107	0xb9f0bf96	-0.0004591911
108	0xba541151	-0.00080897385
109	0x3cf015d2	0.02930728
110	0x3d9035f2	0.07041539
111	0xb9b887e0	-0.0003519645
112	0x3c818c85	0.015814075
113	0x3d577671	0.05260319
114	0x3a53bbdc	0.00080770045
115	0xbb586a53	-0.0033022359
116	0x3c90f5ff	0.017695425
117	0x3948fa57	0.00019166745
118	0xbc0870f6	-0.008327713
119	0xba6fb363	-0.0009143857
120	0x3932e755	0.00017061581
121	0x3c20fc24	0.00982574
122	0x3d0c259f	0.034215566
123	0xb987bac9	-0.00025888372
124	0xbb02f743	-0.0019983805
125	0x3d08ca35	0.033395965
126	0xba2aa7da	-0.0006509997
127	0xb5e6147c	-1.7142297e-06
128	0xbc88faea	-0.016721208
129	0xbaaf9dd3	-0.0013398476
130	0xbb767b8f	-0.0037610268
131	0xbcafb3e3	-0.021448081
132	0xbd44a31f	-0.048007127
133	0xbae9d18d	-0.001783894
134	0xba428359	-0.0007420085
135	0xbcffed35	-0.031241039
136	0xb9be70be	-0.00036323623
137	0x3a5e3019	0.0008475795
138	0xbd0ed59a	-0.034871675
139	0xbd0b8739	-0.034064505
140	0xbc97aa0f	-0.018513707
141	0xbcb1b8f1	-0.021694632
142	0xbca499f7	-0.020092947
143	0x3a42a001	0.0007424355
144	0xbd63e5b7	-0.055638995
145	0x3d347e09	0.04406551
146	0x3a68f4d2	0.0008886579
147	0xbd091da2	-0.033475526
148	0xbd177ec3	-0.036986124
149	0x39f14aa5	0.00046022717
150	0xbcf5519e	-0.029946145
151	0x3a71b74d	0.00092207344
152	0x3bd7b219	0.00658251
153	0xbd3a442c	-0.04547517
154	0x3c2a1ebe	0.010383306
155	0x3b167cd3	0.0022962585
156	0xbcc4553a	-0.02396642
157	0xbd41027f	-0.04712152
158	0xbc830fe0	-0.01599878
159	0xbcb06ac2	-0.021535281
160	0x3bbb3f04	0.005714299
161	0xbc648308	-0.013947256
162	0xba33a02a	-0.00068521744
163	0x3b90834c	0.004410183
164	0xbcfd35fe	-0.030909535
165	0xbca59ba3	-0.020215815
166	0xbd98bfbf	-0.07458448
167	0xbcbf3685	-0.023341427
168	0xbc7078e9	-0.014677265
169	0xbca76cd2	-0.020437632
170	0xbc967108	-0.018364444
171	0x379d5959	1.8757464e-05
172	0xbd07fa9d	-0.033197988
173	0xbcc69625	-0.024241516
174	0xbc7b9989	-0.01535643
175	0x3ce9b56b	0.02852889
176	0xbcc6a605	-0.024249086
177	0xbccf15b0	-0.025278896
178	0x3e2ec17e	0.17065999
179	0xbce97878	-0.028499827
180	0xbcb1c597	-0.021700663
181	0xbd8661e8	-0.06561643
182	0xba252b10	-0.00063006673
183	0x38561832	5.104411e-05
184	0x3bef5a7e	0.0073044887
185	0xbc6d1337	-0.014469913
186	0xbd42a824	-0.047523633
187	0x3e50160a	0.20320907
188	0xbc8d5ca4	-0.017256089
189	0xbc9bc605	-0.019015322
190	0xbc5d44c2	-0.013505163
191	0x398992ee	0.00026240147
192	0xbd57eb2a	-0.052714504
193	0xb9a2005f	-0.00030899324
194	0x3906f863	0.00012871767
195	0xbd7b7661	-0.06139219
196	0x39fd7959	0.00048346331
197	0xb9befbbb	-0.00036427178
198	0xba62192e	-0.0008624968
199	0xb9e64a19	-0.00043924226
200	0xba16cffc	-0.0005753038
201	0x398c3ac5	0.00026746668
202	0x39a11bf0	0.00030729128
203	0xb9331dec	-0.00017081917
204	0xbd22bd83	-0.039731514
205	0x3a12a9b5	0.00055947463
206	0xb87e8128	-6.0678605e-05
207	0x384e31ab	4.9160484e-05
208	0xba014c7f	-0.0004932358
209	0x3a677226	0.000882896
210	0x388c5169	6.690884e-05
211	0xb9a1fc4e	-0.00030896295
212	0x39a81f50	0.00032066787
213	0x39ef1f0b	0.0004560876
214	0xba2bcafa	-0.0006553378
215	0x39ced965	0.00039453353
216	0x3dd3050a	0.103036955
217	0xba18a821	-0.0005823393
218	0xba08016b	-0.00051881996
219	0x3c0161e4	0.007896874
220	0xb9ced857	-0.00039452568
221	0x3a3f822a	0.0007305468
222	0xbd3a7f5b	-0.045531612
223	0xb9a79f6d	-0.00031971504
224	0x3a136d42	0.00056238857
225	0xbd87195d	-0.065966345
226	0x39839d96	0.00025103678
227	0xb8c11001	-9.205938e-05
228	0xbd97a2d7	-0.07404106
229	0xba065883	-0.00051248836
230	0xba346bcd	-0.00068825186
231	0xbd8a9d8f	-0.06768333
232	0xba5827dc	-0.00082456856
233	0xb8ec0a2e	-0.00011255253
234	0xbd4c48a5	-0.049873967
235	0x39306809	0.00016823424
236	0x3a38dce8	0.00070519606
237	0xbd8c0cb8	-0.068383634
238	0xba77e263	-0.00094560365
239	0x3955974c	0.00020369625
240	0xbd915047	-0.0709539
241	0xb8be2b13	-9.067929e-05
242	0xb9b8dc05	-0.00035259142
243	0xbdc44965	-0.095843114
244	0x3921d45b	0.00015433265
245	0xba340cf6	-0.00068683864
246	0xbba84a5f	-0.005135819
247	0xba3ce494	-0.00072056917
248	0xba17e467	-0.00057942275
249	0xbd26fbc2	-0.04076744
250	0x3a3233e6	0.00067978946
251	0x3a469f86	0.00075768714
252	0xbd4f0942	-0.05054594
253	0x39242cb5	0.00015656913
254	0x398b0488	0.00026515522
255	0xb8aa32e2	-8.115709e-05

_transform._transforms.1.autoregressive_net.blocks.0.linear_layers.1.bias f4 [64]
0	0x3ce4adf3	0.027914977
1	0x3d19de15	0.03756531
2	0xbcab2d4f	-0.020895628
3	0xbcc49746	-0.023997914
4	0xbc96ebd4	-0.018422998
5	0x3c606d28	0.0136979
6	0x3d0db11e	0.03459274
7	0x3cfecc94	0.03110341
8	0xbc1a9dda	-0.009437049
9	0xbcf5956a	-0.029978473
10	0xbcdaf5b9	-0.026728498
11	0x3c52d9b4	0.012869287
12	0xbc872197	-0.01649551
13	0xbceced4d	-0.028921748
14	0xbbdde244	-0.0067713577
15	0x3cb7f008	0.022453323
16	0xbd0734a1	-0.033009175
17	0x3d30a4a4	0.043125764
18	0xbd11bed6	-0.035582386
19	0x3d066613	0.03281219
20	0x3c9be085	0.019027958
21	0xbc92006f	-0.017822472
22	0x3c3a8b49	0.011385747
23	0x3c51a67a	0.012796039
24	0x3c9b6c8f	0.018972663
25	0x3c5eae49	0.0135913575
26	0x3b08b8c1	0.0020862075
27	0x3c9712c5	0.018441567
28	0xbc5ab7fe	-0.013349531
29	0xbc89a2ec	-0.01680132
30	0xbd82b0bd	-0.063813664
31	0x3d34579b	0.04402886
32	0x3c87de32	0.016585443
33	0x3cd4d5e6	0.025980901
34	0xbd285a95	-0.04110201
35	0xbbcb2111	-0.00619901
36	0xbc998e9f	-0.018744765
37	0xbd1dff00	-0.038573265
38	0x3bcf492b	0.006325861
39	0x3bff3f75	0.007789547
40	0xbca5d88f	-0.020244865
41	0xbc919d4e	-0.017775204
42	0xbce9b2e7	-0.02852769
43	0xbd03d7c5	-0.032188196
44	0x3d08639c	0.03329812
45	0x3d00d5fe	0.03145408
46	0xbcfa43bd	-0.030549878
47	0xbd0197dc	-0.031638965
48	0x3cd7f26a	0.02636071
49	0x3caccfbe	0.021095153
50	0x3c72c10f	0.014816537
51	0xbbdaf75a	-0.0066823186
52	0xbc388341	-0.011261762
53	0x3c0f87b7	0.008760384
54	0x3cacf1b7	0.021111352
55	0xbc8a0975	-0.016850213
56	0xbca389aa	-0.019963104
57	0x3bf3ad1a	0.007436407
58	0x3cc856d0	0.024455458
59	0x3cedd752	0.029033337
60	0xbcc4fd67	-0.024046613
61	0xbcdec02f	-0.02719125
62	0x3c66018e	0.014038457
63	0xbc87037b	-0.016481152

_transform._transforms.1.autoregressive_net.blocks.0.linear_layers.1.mask f4 [64, 64]
0	0x3f800000	1.0
1	0x00000000	0.0
2	0x00000000	0.0
3	0x3f800000	1.0
4	0x00000000	0.0
5	0x00000000	0.0
6	0x3f800000	1.0
7	0x00000000	0.0
8	0x00000000	0.0
9	0x3f800000	1.0
10	0x00000000	0.0
11	0x00000000	0.0
12	0x3f800000	1.0
13	0x00000000	0.0
14	0x00000000	0.0
15	0x3f800000	1.0
16	0x00000000	0.0
17	0x00000000	0.0
18	0x3f800000	1.0
19	0x00000000	0.0
20	0x00000000	0.0
21	0x3f800000	1.0
22	0x00000000	0.0
23	0x00000000	0.0
24	0x3f800000	1.0
25	0x00000000	0.0
26	0x00000000	0.0
27	0x3f800000	1.0
28	0x00000000	0.0
29	0x00000000	0.0
30	0x3f800000	1.0
31	0x00000000	0.0
32	0x00000000	0.0
33	0x3f800000	1.0
34	0x00000000	0.0
35	0x00000000	0.0
36	0x3f800000	1.0
37	0x00000000	0.0
38	0x00000000	0.0
39	0x3f800000	1.0
40	0x00000000	0.0
41	0x00000000	0.0
42	0x3f800000	1.0
43	0x00000000	0.0
44	0x00000000	0.0
45	0x3f800000	1.0
46	0x00000000	0.0
47	0x00000000	0.0
48	0x3f800000	1.0
49	0x00000000	0.0
50	0x00000000	0.0
51	0x3f800000	1.0
52	0x00000000	0.0
53	0x00000000	0.0
54	0x3f800000	1.0
55	0x00000000	0.0
56	0x00000000	0.0
57	0x3f800000	1.0
58	0x00000000	0.0
59	0x00000000	0.0
60	0x3f800000	1.0
61	0x00000000	0.0
62	0x00000000	0.0
63	0x3f800000	1.0
64	0x3f800000	1.0
65	0x3f800000	1.0
66	0x00000000	0.0
67	0x3f800000	1.0
68	0x3f800000	1.0
69	0x00000000	0.0
70	0x3f800000	1.0
71	0x3f800000	1.0
72	0x00000000	0.0
73	0x3f800000	1.0
74	0x3f800000	1.0
75	0x00000000	0.0
76	0x3f800000	1.0
77	0x3f800000	1.0
78	0x00000000	0.0
79	0x3f800000	1.0
80	0x3f800000	1.0
81	0x00000000	0.0
82	0x3f800000	1.0
83	0x3f800000	1.0
84	0x00000000	0.0
85	0x3f800000	1.0
86	0x3f800000	1.0
87	0x00000000	0.0
88	0x3f800000	1.0
89	0x3f800000	1.0
90	0x00000000	0.0
91	0x3f800000	1.0
92	0x3f800000	1.0
93	0x00000000	0.0
94	0x3f800000	1.0
95	0x3f800000	1.0
96	0x00000000	0.0
97	0x3f800000	1.0
98	0x3f800000	1.0
99	0x00000000	0.0
100	0x3f800000	1.0
101	0x3f800000	1.0
102	0x00000000	0.0
103	0x3f800000	1.0
104	0x3f800000	1.0
105	0x00000000	0.0
106	0x3f800000	1.0
107	0x3f800000	1.0
108	0x00000000	0.0
109	0x3f800000	1.0
110	0x3f800000	1.0
111	0x00000000	0.0
112	0x3f800000	1.0
113	0x3f800000	1.0
114	0x00000000	0.0
115	0x3f800000	1.0
116	0x3f800000	1.0
117	0x00000000	0.0
118	0x3f800000	1.0
119	0x3f800000	1.0
120	0x00000000	0.0
121	0x3f800000	1.0
122	0x3f800000	1.0
123	0x00000000	0.0
124	0x3f800000	1.0
125	0x3f800000	1.0
126	0x00000000	0.0
127	0x3f800000	1.0
128	0x3f800000	1.0
129	0x3f800000	1.0
130	0x3f800000	1.0
131	0x3f800000	1.0
132	0x3f800000	1.0
133	0x3f800000	1.0
134	0x3f800000	1.0
135	0x3f800000	1.0
136	0x3f800000	1.0
137	0x3f800000	1.0
138	0x3f800000	1.0
139	0x3f800000	1.0
140	0x3f800000	1.0
141	0x3f800000	1.0
142	0x3f800000	1.0
143	0x3f800000	1.0
144	0x3f800000	1.0
145	0x3f800000	1.0
146	0x3f800000	1.0
147	0x3f800000	1.0
148	0x3f800000	1.0
149	0x3f800000	1.0
150	0x3f800000	1.0
151	0x3f800000	1.0
152	0x3f800000	1.0
153	0x3f800000	1.0
154	0x3f800000	1.0
155	0x3f800000	1.0
156	0x3f800000	1.0
157	0x3f800000	1.0
158	0x3f800000	1.0
159	0x3f800000	1.0
160	0x3f800000	1.0
161	0x3f800000	1.0
162	0x3f800000	1.0
163	0x3f800000	1.0
164	0x3f800000	1.0
165	0x3f800000	1.0
166	0x3f800000	1.0
167	0x3f800000	1.0
168	0x3f800000	1.0
169	0x3f800000	1.0
170	0x3f800000	1.0
171	0x3f800000	1.0
172	0x3f800000	1.0
173	0x3f800000	1.0
174	0x3f800000	1.0
175	0x3f800000	1.0
176	0x3f800000	1.0
177	0x3f800000	1.0
178	0x3f800000	1.0
179	0x3f800000	1.0
180	0x3f800000	1.0
181	0x3f800000	1.0
182	0x3f800000	1.0
183	0x3f800000	1.0
184	0x3f800000	1.0
185	0x3f800000	1.0
186	0x3f800000	1.0
187	0x3f800000	1.0
188	0x3f800000	1.0
189	0x3f800000	1.0
190	0x3f800000	1.0
191	0x3f800000	1.0
192	0x3f800000	1.0
193	0x00000000	0.0
194	0x00000000	0.0
195	0x3f800000	1.0
196	0x00000000	0.0
197	0x00000000	0.0
198	0x3f800000	1.0
199	0x00000000	0.0
200	0x00000000	0.0
201	0x3f800000	1.0
202	0x00000000	0.0
203	0x00000000	0.0
204	0x3f800000	1.0
205	0x00000000	0.0
206	0x00000000	0.0
207	0x3f800000	1.0
208	0x00000000	0.0
209	0x00000000	0.0
210	0x3f800000	1.0
211	0x00000000	0.0
212	0x00000000	0.0
213	0x3f800000	1.0
214	0x00000000	0.0
215	0x00000000	0.0
216	0x3f800000	1.0
217	0x00000000	0.0
218	0x00000000	0.0
219	0x3f800000	1.0
220	0x00000000	0.0
221	0x00000000	0.0
222	0x3f800000	1.0
223	0x00000000	0.0
224	0x00000000	0.0
225	0x3f800000	1.0
226	0x00000000	0.0
227	0x00000000	0.0
228	0x3f800000	1.0
229	0x00000000	0.0
230	0x00000000	0.0
231	0x3f800000	1.0
232	0x00000000	0.0
233	0x00000000	0.0
234	0x3f800000	1.0
235	0x00000000	0.0
236	0x00000000	0.0
237	0x3f800000	1.0
238	0x00000000	0.0
239	0x00000000	0.0
240	0x3f800000	1.0
241	0x00000000	0.0
242	0x00000000	0.0
243	0x3f800000	1.0
244	0x00000000	0.0
245	0x00000000	0.0
246	0x3f800000	1.0
247	0x00000000	0.0
248	0x00000000	0.0
249	0x3f800000	1.0
250	0x00000000	0.0
251	0x00000000	0.0
252	0x3f800000	1.0
253	0x00000000	0.0
254	0x00000000	0.0
255	0x3f800000	1.0

_transform._transforms.1.autoregressive_net.blocks.1.linear_layers.0.weight f4 [64, 64]
0	0x3dcce129	0.100038834
1	0x3db6a216	0.08917634
2	0xbd836512	-0.06415762
3	0xbd9ee5d4	-0.0775868
4	0x3de2f186	0.11081223
5	0xbdff3612	-0.12461485
6	0x3e07ac65	0.13249357
7	0x3de96f86	0.113982245
8	0xbd8e65c6	-0.069530055
9	0xbcf1f12a	-0.029533941
10	0x3cee7d78	0.029112563
11	0xbdbb9780	-0.09159756
12	0xbd36a3cc	-0.044589803
13	0xbce5a900	-0.028034687
14	0x3df2fdf6	0.118648455
15	0xbda39ef8	-0.07989305
16	0x3dcfb7e0	0.10142493
17	0xbdfa2c6e	-0.122155055
18	0x3e64e7a5	0.2235399
19	0x3d7ae84c	0.06125669
20	0x3da2e440	0.079536915
21	0xbcfcbbf7	-0.030851347
22	0xbcef42e0	-0.029206693
23	0xbde51f78	-0.11187643
24	0x3d2a736e	0.04161399
25	0x3d948f1a	0.07253857
26	0x39d68c00	0.0004092157
27	0x3e0c3b44	0.13694483
28	0xbcc689b0	-0.024235576
29	0x3dcfa37a	0.101386026
30	0x3d6b3557	0.057423916
31	0xbdc1486c	-0.094376415
32	0xbcc2e090	-0.02378872
33	0x3920c971	0.00015333832
34	0x3d5e54a4	0.05427994
35	0xbde0252e	-0.109445915
36	0x3d3be783	0.045875084
37	0xbde07496	-0.10959737
38	0xbde6e24a	-0.1127363
39	0x3de1161b	0.109905444
40	0x3bec1260	0.007204339
41	0x3c7b1010	0.015323654
42	0x3cd70964	0.026249595
43	0x3a420200	0.0007400811
44	0x3c9d8b58	0.019231483
45	0x3d9fc752	0.07801689
46	0xbccbd420	-0.024881423
47	0x3c938f08	0.018012539
48	0x3deed564	0.11661795
49	0x3dae1cc6	0.08501582
50	0x3dd48288	0.10376459
51	0x3dbc9e04	0.092098266
52	0xbdeb645e	-0.11493753
53	0x3cfef728	0.031123713
54	0xbd59da0b	-0.053186458
55	0xbd202d50	-0.039105713
56	0x3d82fef0	0.06396282
57	0x3ba6fd9d	0.005096151
58	0x3c4eb6a0	0.012616783
59	0xbde59642	-0.112103
60	0xbd50297b	-0.05082081
61	0xbd193ae8	-0.037409693
62	0x3d40abac	0.04703872
63	0x3e0cc354	0.13746387
64	0x3df9b719	0.12193126
65	0x3c290546	0.010316199
66	0x3de12db2	0.10995044
67	0x3d3fcdc0	0.046827078
68	0xbd3cb536	-0.046071254
69	0x3da21728	0.07914573
70	0x3d13c2e8	0.03607455
71	0x3dfb2096	0.12262075
72	0x3d8b3b0e	0.06798373
73	0x3d1f7a86	0.038935207
74	0xbde36fd7	-0.11105316
75	0x3d167a8c	0.036737964
76	0xbdd3b9eb	-0.103381954
77	0xbeac670e	-0.33672374
78	0xbd4f18b4	-0.050560668
79	0x3c63cc46	0.013903683
80	0x3d6dc8d4	0.058052853
81	0x3d75ea0c	0.060037658
82	0xbd556952	-0.052102394
83	0xbd537d8d	-0.051633406
84	0x3d81bf2e	0.06335293
85	0x3cec2fe6	0.028831434
86	0xbd83ce60	-0.06435847
87	0x3dfe56e8	0.1241892
88	0xbd8e54cc	-0.069497675
89	0x3c9166cf	0.017749218
90	0x3cccaac8	0.024983779
91	0xbdf51433	-0.11966743
92	0xbd166696	-0.036718927
93	0xbdcddb50	-0.10051596
94	0xbe198db7	-0.14995466
95	0xbed1d705	-0.4098436
96	0x3dd87a0e	0.10570155
97	0xbd6e37ea	-0.058158793
98	0xbd4c5d3c	-0.049893603
99	0xba86c800	-0.0010282993
100	0xbe0ea919	-0.13931693
101	0x3d07743e	0.03306984
102	0x3dbae770	0.091261744
103	0xbd8853d9	-0.06656618
104	0xbdd748c5	-0.105119266
105	0x3ddecbae	0.108786926
106	0x3dea67bd	0.11445568
107	0x3df280cf	0.118409745
108	0x3df7c55c	0.1209819
109	0x3e04dd99	0.12975158
110	0x3db3ae64	0.08773497
111	0xbdb68414	-0.08911911
112	0xbdaf1437	-0.085487776
113	0xbbdcfaa4	-0.006743746
114	0xbdbf755c	-0.093485564
115	0xbdd1aa62	-0.10237576
116	0x3d9135b4	0.07090321
117	0xbd9d7a34	-0.07689324
118	0x3d70e78a	0.058814563
119	0x3c5c34c9	0.013440319
120	0x3dcabc6c	0.0989922
121	0xbc3b7744	-0.011442009
122	0xbd5b8627	-0.053594735
123	0xbd883fe4	-0.06652811
124	0x3dd8be8e	0.105832204
125	0x3ec75330	0.38930655
126	0x3df6e960	0.120562315
127	0x3d877ad0	0.066152215
128	0x3e07715c	0.13226837
129	0xbc076970	-0.008264884
130	0xbdfa593c	-0.12224051
131	0xbde6dba6	-0.11272363
132	0x3d54940a	0.051898994
133	0xbd991333	-0.07474365
134	0x3e09dee8	0.13463938
135	0x3dae4171	0.08508576
136	0x3dc2395f	0.09483599
137	0xbc4a3636	-0.012342026
138	0xbe9e9148	-0.30970216
139	0xbe555594	-0.20833427
140	0x3c5461ba	0.012962753
141	0xbeb1113d	-0.34583464
142	0x3d17f220	0.037096143
143	0xbcb44f99	-0.022010611
144	0xbda42c9c	-0.08016321
145	0xbcac7777	-0.021053059
146	0xbedd774f	-0.43255088
147	0xbe33a339	-0.17542733
148	0x3d15f15c	0.03660713
149	0xbd9771a1	-0.0739472
150	0xbdd7ef0e	-0.10543643
151	0xbdd64d83	-0.10464003
152	0xbdd06c0f	-0.101768605
153	0xbc9753b4	-0.01847253
154	0xbcdc8dce	-0.026923086
155	0xbe13ed0e	-0.14445898
156	0xbde1dda2	-0.11028601
157	0x3e022502	0.1270943
158	0xbd6da294	-0.058016375
159	0xbede6e51	-0.4344354
160	0xbe287ae4	-0.16453129
161	0xbe0af55a	-0.13570157
162	0x3db517d4	0.088424355
163	0x3e3ef568	0.18648303
164	0x3db72e22	0.08944346
165	0x3da379f7	0.07982247
166	0xbd5c1d0d	-0.053738642
167	0xbe371a3a	-0.17881098
168	0x3dd0a5b3	0.101878546
169	0x3ddf2f61	0.10897709
170	0xbddc8ce3	-0.107690595
171	0xbd45683b	-0.048195105
172	0xb97bff18	-0.00024032255
173	0xbbf85675	-0.007578666
174	0x3c5f2216	0.013618967
175	0x3ddf79c1	0.109118946
176	0x3e0617b0	0.13094974
177	0xbd531e76	-0.05154272
178	0x3e30c62b	0.17263095
179	0xbdaa2854	-0.08308473
180	0x3cebf015	0.028801003
181	0xbd0ace39	-0.033888076
182	0xbd2c3c26	-0.04204955
183	0xbd9607e8	-0.07325727
184	0xbd95473b	-0.07288977
185	0xbc0e9436	-0.008702328
186	0x3d52d944	0.051476732
187	0x3e0b9b7c	0.13633531
188	0x3d9e4bad	0.07729278
189	0xbe2b93f3	-0.16755657
190	0xbcdc49d9	-0.026890682
191	0x3db8739f	0.09006428
192	0xbdd9d518	-0.106363475
193	0xbd1a8d88	-0.03773263
194	0xbdaf99a2	-0.08574225
195	0xbd833726	-0.06407003
196	0xbb1196c0	-0.0022215098
197	0xbd121614	-0.035665587
198	0xbe0d05df	-0.13771771
199	0x3d017480	0.031605244
200	0xbdcfc3d8	-0.10144776
201	0x3b2c244b	0.002626675
202	0xbd37eb7c	-0.04490231
203	0x3dc61562	0.09672047
204	0x3c97c25f	0.0185253
205	0xbdc43df2	-0.09582128
206	0x3d34f5dc	0.044179782
207	0xbd9e36b8	-0.077252805
208	0xbceff488	-0.029291406
209	0x3d052fd4	0.032516316
210	0x3e99c8f3	0.30036125
211	0x3d7509b0	0.05982369
212	0x3d7d6f1c	0.06187354
213	0xbd1553bd	-0.036456812
214	0x3d82f920	0.06395173
215	0xbdbc1996	-0.09184568
216	0x3d1ec740	0.03876424
217	0x3d918a74	0.07106486
218	0x3da7f1e0	0.08200431
219	0x3e21c7a7	0.15798818
220	0xbda64966	-0.081194684
221	0xbd882358	-0.06647366
222	0x3c8ff066	0.017570686
223	0x3de4a6d0	0.111646295
224	0x39975600	0.0002886504
225	0xbcc2b8ea	-0.023769815
226	0xbd85f988	-0.06541735
227	0x3ca82620	0.020525992
228	0xbd7d3666	-0.061819457
229	0x3dcbfee0	0.09960723
230	0xbc4e21c0	-0.012581289
231	0x3e572175	0.21008857
232	0x3c787e20	0.015166789
233	0x3db5016a	0.0883816
234	0x3df29ef0	0.11846721
235	0xbdc61f64	-0.09673956
236	0x3dfac0b2	0.12243785
237	0x3d6b5530	0.057454288
238	0x3d5eefac	0.054427788
239	0xbd710688	-0.05884412
240	0x3db35726	0.087568566
241	0x3d839104	0.06424144
242	0xbdcd261c	-0.100170344
243	0x3dfc0811	0.12306226
244	0xbdfabb12	-0.12242712
245	0x3b393440	0.0028259903
246	0x3e148cd2	0.14506844
247	0x3df215b4	0.11820546
248	0x3da68d08	0.08132368
249	0xbbe3933a	-0.006945041
250	0xba856980	-0.0010178536
251	0xbd62b100	-0.05534458
252	0x3b9406f9	0.004517433
253	0xbdc50056	-0.09619205
254	0x3c45e970	0.012079582
255	0x3d40c6b4	0.047064498

_transform._transforms.1.autoregressive_net.blocks.1.linear_layers.0.bias f4 [64]
0	0x3cf6b8ee	0.030117478
1	0x3de40e58	0.11135548
2	0x3b73db26	0.003720948
3	0xbc8789df	-0.016545234
4	0xbc99e1bf	-0.018784402
5	0xbc8ca51f	-0.01716858
6	0x3de58467	0.11206894
7	0x3d5aaa50	0.05338508
8	0xbda26f83	-0.079314254
9	0x3dd8a039	0.10577435
10	0xbce20ac9	-0.027593033
11	0xbcae0be3	-0.021245902
12	0xbac0a063	-0.0014696236
13	0xbe9c430d	-0.30519906
14	0xbd21a731	-0.039466087
15	0x3cf6df9b	0.03013592
16	0xbdbd2ed0	-0.092374444
17	0xbce17296	-0.02752046
18	0x3cdebc42	0.027189378
19	0xbe567427	-0.20942746
20	0x3db417ff	0.087936394
21	0x3d947e97	0.072507076
22	0xba05e0db	-0.00051070534
23	0xbe043ed2	-0.12914589
24	0x3cd071f8	0.02544497
25	0x3d58ca3c	0.05292724
26	0x3dd69328	0.104772866
27	0xbcb3bfde	-0.021942075
28	0x3daaa6f8	0.08332628
29	0x3d5a4518	0.05328855
30	0xbd4f0cdc	-0.050549373
31	0x3d50713c	0.05088924
32	0xbd6e2e74	-0.05814977
33	0xbd6aacc3	-0.057293665
34	0x3e075bde	0.13218638
35	0x3d8b5557	0.06803387
36	0xbd5087cc	-0.050910756
37	0x3dab529c	0.08365366
38	0xbd359c8b	-0.044338744
39	0xbdd618a0	-0.104539156
40	0x3ce1f903	0.027584558
41	0xbdc6b4a7	-0.097024255
42	0x3d0ce98c	0.034402415
43	0xbde9e64c	-0.11420879
44	0x3c1144eb	0.008866529
45	0xbd22bb05	-0.039729137
46	0x3d1f0089	0.03881887
47	0x3d8b07bc	0.067885846
48	0x3d4d3aba	0.050104834
49	0xbbe388fa	-0.006943819
50	0xbda3f5a5	-0.08005837
51	0xbd3292a3	-0.043596875
52	0x3d471733	0.04860611
53	0xbd64a45e	-0.055820815
54	0x3b12ec91	0.0022418837
55	0x3e0252fd	0.1272697
56	0xbcebcfb0	-0.028785557
57	0x3d695d8b	0.056973975
58	0x3cc99100	0.024605274
59	0x3def18b1	0.116746314
60	0x3d87966e	0.06620489
61	0x3cb2ee7b	0.021842232
62	0xbd60702c	-0.054794475
63	0x3d640ea7	0.055678036
