model1/epoch=499modello-N_iter6-N_features64-N_BS10000-epochs1000-lr0.001.pth (torch, 918276 bytes, 108 tensors)

_transform._transforms.1.autoregressive_net.initial_layer.weight f4 [64, 4]
0	0x3dd347fb	0.103164636
1	0x3eeede46	0.46653956
2	0x3eac424a	0.33644325
3	0xbe469ae4	-0.19395024
4	0x3e908928	0.28229642
5	0x3ee20416	0.44143742
6	0x3ebbf9d4	0.3671404
7	0xbe906b28	-0.28206754
8	0x3d65c6c5	0.056097765
9	0xbe95d0fd	-0.29261008
10	0xbece0173	-0.4023548
11	0xbdfcdd70	-0.12346923
12	0x3cbf164b	0.02332606
13	0xbe8b66da	-0.27226907
14	0xbea0eade	-0.3142919
15	0xbec4bc4e	-0.38424915
16	0xbee339ed	-0.4438013
17	0xbda37b73	-0.079825304
18	0x3cfa9120	0.03058678
19	0x3ece77fe	0.40325922
20	0xbe1999ea	-0.1500012
21	0xbecf3029	-0.4046643
22	0x3b6913a5	0.0035564688
23	0x3ec432de	0.3832006
24	0x3eb6cde5	0.3570396
25	0xbda9f7c8	-0.08299214
26	0xbcc03240	-0.023461461
27	0xbeff863c	-0.499071
28	0x3f05529c	0.52079177
29	0xbeed7d85	-0.46384826
30	0x3e9ec2b0	0.3100791
31	0x3eee8612	0.46586663
32	0x3e719268	0.23591006
33	0x3be35c47	0.0069384906
34	0x3ec20b90	0.37899446
35	0x3dfded70	0.12398803
36	0xbe4e172d	-0.20126028
37	0x3ed9bc26	0.42526358
38	0x3eb5eb12	0.35530907
39	0xbc2d8dc0	-0.010592878
40	0x3eddc7c5	0.43316475
41	0xbeeccd4f	-0.46250388
42	0x3d3ee080	0.04660082
43	0x3ebb69bc	0.36604106
44	0xbec251b0	-0.37952948
45	0x3d0a911c	0.033829793
46	0xba39f8bc	-0.0007094254
47	0xbd89f8a8	-0.067368805
48	0x3e0072ac	0.12543744
49	0xbecbf44a	-0.39834815
50	0x3e7e5c18	0.24839818
51	0x3ab2ca00	0.0013640523
52	0xbd9f05b7	-0.07764762
53	0xbef93a88	-0.48677468
54	0x3edc0e06	0.4297945
55	0x3d38afd0	0.045089543
56	0x3edbf736	0.42962044
57	0x3dd8fbbd	0.1059489
58	0x3ee2ce69	0.44298103
59	0x3ea3b530	0.31974173
60	0x3e9d052c	0.30668008
61	0x3bd24600	0.006417036
62	0xbea322cc	-0.31862485
63	0xbd49a360	-0.049228072
64	0xbe326654	-0.17421848
65	0x3da440cd	0.08020172
66	0xbece94ce	-0.40347904
67	0xbe7063bc	-0.23475546
68	0xbec65a9e	-0.3874101
69	0x3d54f091	0.051987235
70	0x3e6f7f77	0.23388468
71	0xbe1e6808	-0.15469372
72	0xbe988f60	-0.29796886
73	0x3c3354c0	0.010945499
74	0xbed03756	-0.40667218
75	0xbec09dd6	-0.3762042
76	0xbe0d9805	-0.13827522
77	0xbddd0fbe	-0.10794018
78	0x3e2cf958	0.16891992
79	0xbe8c701e	-0.2742929
80	0x3dfe2e2e	0.12411152
81	0x3e04fc7a	0.12986937
82	0x3d14d123	0.03633226
83	0x3e3db51c	0.18526119
84	0xbe3966cf	-0.18105625
85	0x3ee771de	0.4520406
86	0xbd39a8a0	-0.04532683
87	0x3ed9e366	0.42556304
88	0xbe807cd9	-0.2509525
89	0x3ea7f731	0.3280578
90	0x3db6f820	0.08934045
91	0x3ece0c7c	0.402439
92	0x3e903ae8	0.28169942
93	0xbb9c8420	-0.0047764927
94	0xbe1ee28f	-0.15516113
95	0x3ec6bc66	0.38815612
96	0x3d318bb7	0.043346133
97	0x3e8770be	0.26453203
98	0x3e0c3e6c	0.13695687
99	0x3ecfb116	0.40564793
100	0x3e0caeb9	0.13738526
101	0xbeb1a098	-0.34692836
102	0x3eb3c2aa	0.35109454
103	0x3e49093c	0.19632429
104	0xbd459879	-0.048241112
105	0x3e71b7fa	0.23605338
106	0xbe43fdfc	-0.19139856
107	0xbef0f3ce	-0.47061008
108	0xbe6382d5	-0.22217877
109	0x3ddf7488	0.109108984
110	0x3eb29364	0.34878075
111	0x3c6ca480	0.014443517
112	0xbe87d602	-0.26530463
113	0x3df06d37	0.11739581
114	0xbeca6e32	-0.39537197
115	0xbd600360	-0.05469072
116	0x3e3f6785	0.18691833
117	0x3ccb91d7	0.024849815
118	0xbd8c68ff	-0.06855964
119	0x3e0c29d0	0.13687825
120	0xbebd55b5	-0.36979452
121	0x3d7c4880	0.06159258
122	0xbe081df8	-0.13292682
123	0x3eb36a5c	0.35042083
124	0x3e8eda84	0.2790109
125	0xbe9d37e2	-0.30706698
126	0xbea38352	-0.31936127
127	0xbefe30e8	-0.49646688
128	0xbe9fdaf2	-0.3122173
129	0x3d9cc82a	0.07655366
130	0xbf06b7e5	-0.5262435
131	0x3eb2e7b2	0.34942394
132	0xbe9cefaa	-0.306516
133	0x3e49d0f4	0.19708616
134	0xbe9b34cc	-0.30313718
135	0x3e43e400	0.19129944
136	0x3e0bc7e6	0.13650474
137	0xbd183338	-0.03715822
138	0x3ebb5d6e	0.3659472
139	0x3ea64040	0.32470894
140	0xbd9b5f87	-0.0758658
141	0x3ee5ff49	0.4492133
142	0x3ee561ba	0.44801122
143	0xbd84f6a0	-0.064923525
144	0x3f0e8294	0.55667996
145	0xbedf95a0	-0.43668842
146	0x3eb9df7e	0.36303324
147	0x3dd88c78	0.10573667
148	0xbe1d656b	-0.15370719
149	0x3dcf70c1	0.10128928
150	0x3da08750	0.07838309
151	0x3ebfdfe4	0.37475502
152	0x3ec9a7e3	0.393859
153	0xbeb28c63	-0.34872732
154	0x3ee9e89b	0.45685276
155	0xbe9ecaba	-0.31014043
156	0xbe697306	-0.22797784
157	0x3ee32fc2	0.44372374
158	0x3e40a388	0.18812382
159	0x3cab6040	0.020919919
160	0xbe584d13	-0.21123151
161	0x3ead49bf	0.33845326
162	0xbefc3918	-0.4926231
163	0x3df3ca00	0.11903763
164	0x3cb92020	0.022598326
165	0x3ee20d51	0.44150785
166	0x3e89764f	0.26848075
167	0xbe477024	-0.19476372
168	0xbe0b6270	-0.1361177
169	0x3d9a4338	0.07532352
170	0xba1d5000	-0.00060009956
171	0x3dbc54c8	0.09195858
172	0xbea4d7cf	-0.321959
173	0xbe7c4bf7	-0.24638353
174	0x3e6ac954	0.22928363
175	0x3db6d3f0	0.089271426
176	0xbe91f4d4	-0.28507102
177	0x3e5334a0	0.20625544
178	0x3e2236ae	0.15841171
179	0x3edbe416	0.42947453
180	0x3e7cb2f8	0.24677646
181	0xbe225728	-0.1585356
182	0xbedf3438	-0.43594527
183	0x3dbc4f68	0.09194833
184	0x3eeeba62	0.46626574
185	0x3ea314ab	0.31851706
186	0x3d757260	0.05992353
187	0xbe7c43f8	-0.24635303
188	0x3d87de51	0.066342
189	0x3ed35132	0.41272885
190	0x3ee6e1d6	0.45094174
191	0xbe481324	-0.19538552
192	0x3ebe8e2c	0.37217844
193	0xbea81f2c	-0.32836282
194	0xbd689dd0	-0.056791127
195	0xbe6469bc	-0.2230596
196	0xbecbabc2	-0.39779478
197	0x3e599c12	0.21250942
198	0xbe6bfa50	-0.23044705
199	0x3cd5c200	0.026093483
200	0xbeee1ea6	-0.46507758
201	0x3e811c4f	0.2521691
202	0x3ee93f12	0.4555593
203	0x3e991c24	0.29904282
204	0xbe1173b0	-0.14204288
205	0x3ec3e2c2	0.3825894
206	0xbe9faa94	-0.31184828
207	0x3aff8200	0.0019493699
208	0x3e9c553d	0.30533782
209	0x3eca9c80	0.39572525
210	0x3ea48636	0.32133645
211	0xbe0bb798	-0.13644254
212	0x3e6c76dc	0.23092216
213	0x3e33c8ee	0.17557117
214	0xbeb0d2da	-0.34535867
215	0xbe7b401c	-0.24536175
216	0xbe4b0c1a	-0.19828835
217	0x3ebfcba2	0.37460047
218	0x3e9f1b8a	0.31075698
219	0x3ed3b3f8	0.41348243
220	0xbc82e939	-0.01598035
221	0xbf03192b	-0.5121028
222	0xbee76cb0	-0.4520011
223	0x3ea52bee	0.32260078
224	0x3ea6d9bc	0.32587993
225	0x3e9a4218	0.3012855
226	0x3e7688ec	0.24075669
227	0x3d083720	0.033255696
228	0x3efcbbbc	0.4936198
229	0xbe8c7772	-0.2743488
230	0x3df2d438	0.11856884
231	0x3d2c21b0	0.042024314
232	0xbe3bb255	-0.18329747
233	0xbc1e2919	-0.009653353
234	0x3ea8d41c	0.32974327
235	0x3e56cf0c	0.2097742
236	0xbe77c988	-0.24197972
237	0x3ec60001	0.38671878
238	0xbecb7188	-0.39735055
239	0xbe01fd64	-0.12694317
240	0x3e062229	0.13098969
241	0x3eee75ae	0.46574157
242	0x3de22720	0.11042619
243	0x3ece3bc8	0.40279984
244	0x3ef78a02	0.4834748
245	0xbee63987	-0.44965765
246	0xbdccb5d8	-0.099956214
247	0x3eb56f84	0.35436642
248	0xbed17926	-0.4091274
249	0x3da57e4e	0.08080731
250	0x3dc97dd8	0.09838456
251	0xbee972c0	-0.4559536
252	0x3ede838d	0.4345974
253	0xbeb9fb2e	-0.36324447
254	0xbee55896	-0.44794148
255	0xbec1152a	-0.3771146

_transform._transforms.1.autoregressive_net.initial_layer.bias f4 [64]
0	0x3ca4cd12	0.020117316
1	0xbe1a3df3	-0.15062694
2	0x3ebecb07	0.37264273
3	0xbeb6490f	-0.35602614
4	0x3e611b80	0.21983147
5	0x3d829f8d	0.06378088
6	0xbecec63f	-0.40385625
7	0x3ed22621	0.41044715
8	0xbc6cd311	-0.014454619
9	0x3e4f9da9	0.20274986
10	0xbe338e3c	-0.17534727
11	0xbe71fefc	-0.23632425
12	0xbe6ff3c0	-0.23432827
13	0xbefe9856	-0.49725598
14	0x3e835ed8	0.25658298
15	0xbe7a8791	-0.24465777
16	0xbe4795f5	-0.19490798
17	0xbe5c7b42	-0.21531394
18	0xbe746323	-0.23865943
19	0xbe373dc5	-0.17894657
20	0xbe88aaf7	-0.26692936
21	0x3da0cd6d	0.07851682
22	0x3ed1e5f2	0.40995747
23	0x3e87b160	0.26502514
24	0x3df93d34	0.12169877
25	0x3dba8a06	0.09108357
26	0x3da91d89	0.082575865
27	0x3db2eff0	0.08737171
28	0x3dd0321a	0.10165806
29	0xbea58516	-0.323281
30	0xbdf39dca	-0.1189533
31	0xbedc7d55	-0.4306437
32	0x3df77c8b	0.120843016
33	0x3e3c291b	0.18375055
34	0x3c170745	0.009218042
35	0x3dcf326b	0.10117038
36	0xbe37704d	-0.17913933
37	0x3ea3ecbc	0.32016551
38	0xbdc69272	-0.09695901
39	0xbd963331	-0.07333983
40	0x3ec9eb00	0.39437103
41	0x3eadfaa8	0.33980298
42	0x3e45ca8f	0.19315551
43	0x3e9dc0d4	0.3081118
44	0xbe09db9d	-0.13462682
45	0x3e8b4e97	0.27208397
46	0xbea8ad1b	-0.3294457
47	0xbeb5fcc3	-0.35544404
48	0x3cdc37a0	0.026881993
49	0xbebb0dad	-0.3653387
50	0xbd09eff6	-0.03367611
51	0x3e3c5f0a	0.1839563
52	0xbe0b857e	-0.13625142
53	0x3ee338fa	0.44379407
54	0xbcaf97d2	-0.021434698
55	0xbc863c31	-0.016386123
56	0xbeb599f2	-0.35469013
57	0xbea846c3	-0.32866487
58	0xbd970862	-0.07374646
59	0xbe16a461	-0.14711143
60	0x3e6f147f	0.23347662
61	0xbd10df55	-0.035369236
62	0x3ef063d0	0.4695115
63	0xbec8fcf6	-0.39255494

_transform._transforms.1.autoregressive_net.initial_layer.mask f4 [64, 4]
0	0x3f800000	1.0
1	0x00000000	0.0
2	0x00000000	0.0
3	0x00000000	0.0
4	0x3f800000	1.0
5	0x3f800000	1.0
6	0x00000000	0.0
7	0x00000000	0.0
8	0x3f800000	1.0
9	0x3f800000	1.0
10	0x3f800000	1.0
11	0x00000000	0.0
12	0x3f800000	1.0
13	0x00000000	0.0
14	0x00000000	0.0
15	0x00000000	0.0
16	0x3f800000	1.0
17	0x3f800000	1.0
18	0x00000000	0.0
19	0x00000000	0.0
20	0x3f800000	1.0
21	0x3f800000	1.0
22	0x3f800000	1.0
23	0x00000000	0.0
24	0x3f800000	1.0
25	0x00000000	0.0
26	0x00000000	0.0
27	0x00000000	0.0
28	0x3f800000	1.0
29	0x3f800000	1.0
30	0x00000000	0.0
31	0x00000000	0.0
32	0x3f800000	1.0
33	0x3f800000	1.0
34	0x3f800000	1.0
35	0x00000000	0.0
36	0x3f800000	1.0
37	0x00000000	0.0
38	0x00000000	0.0
39	0x00000000	0.0
40	0x3f800000	1.0
41	0x3f800000	1.0
42	0x00000000	0.0
43	0x00000000	0.0
44	0x3f800000	1.0
45	0x3f800000	1.0
46	0x3f800000	1.0
47	0x00000000	0.0
48	0x3f800000	1.0
49	0x00000000	0.0
50	0x00000000	0.0
51	0x00000000	0.0
52	0x3f800000	1.0
53	0x3f800000	1.0
54	0x00000000	0.0
55	0x00000000	0.0
56	0x3f800000	1.0
57	0x3f800000	1.0
58	0x3f800000	1.0
59	0x00000000	0.0
60	0x3f800000	1.0
61	0x00000000	0.0
62	0x00000000	0.0
63	0x00000000	0.0
64	0x3f800000	1.0
65	0x3f800000	1.0
66	0x00000000	0.0
67	0x00000000	0.0
68	0x3f800000	1.0
69	0x3f800000	1.0
70	0x3f800000	1.0
71	0x00000000	0.0
72	0x3f800000	1.0
73	0x00000000	0.0
74	0x00000000	0.0
75	0x00000000	0.0
76	0x3f800000	1.0
77	0x3f800000	1.0
78	0x00000000	0.0
79	0x00000000	0.0
80	0x3f800000	1.0
81	0x3f800000	1.0
82	0x3f800000	1.0
83	0x00000000	0.0
84	0x3f800000	1.0
85	0x00000000	0.0
86	0x00000000	0.0
87	0x00000000	0.0
88	0x3f800000	1.0
89	0x3f800000	1.0
90	0x00000000	0.0
91	0x00000000	0.0
92	0x3f800000	1.0
93	0x3f800000	1.0
94	0x3f800000	1.0
95	0x00000000	0.0
96	0x3f800000	1.0
97	0x00000000	0.0
98	0x00000000	0.0
99	0x00000000	0.0
100	0x3f800000	1.0
101	0x3f800000	1.0
102	0x00000000	0.0
103	0x00000000	0.0
104	0x3f800000	1.0
105	0x3f800000	1.0
106	0x3f800000	1.0
107	0x00000000	0.0
108	0x3f800000	1.0
109	0x00000000	0.0
110	0x00000000	0.0
111	0x00000000	0.0
112	0x3f800000	1.0
113	0x3f800000	1.0
114	0x00000000	0.0
115	0x00000000	0.0
116	0x3f800000	1.0
117	0x3f800000	1.0
118	0x3f800000	1.0
119	0x00000000	0.0
120	0x3f800000	1.0
121	0x00000000	0.0
122	0x00000000	0.0
123	0x00000000	0.0
124	0x3f800000	1.0
125	0x3f800000	1.0
126	0x00000000	0.0
127	0x00000000	0.0
128	0x3f800000	1.0
129	0x3f800000	1.0
130	0x3f800000	1.0
131	0x00000000	0.0
132	0x3f800000	1.0
133	0x00000000	0.0
134	0x00000000	0.0
135	0x00000000	0.0
136	0x3f800000	1.0
137	0x3f800000	1.0
138	0x00000000	0.0
139	0x00000000	0.0
140	0x3f800000	1.0
141	0x3f800000	1.0
142	0x3f800000	1.0
143	0x00000000	0.0
144	0x3f800000	1.0
145	0x00000000	0.0
146	0x00000000	0.0
147	0x00000000	0.0
148	0x3f800000	1.0
149	0x3f800000	1.0
150	0x00000000	0.0
151	0x00000000	0.0
152	0x3f800000	1.0
153	0x3f800000	1.0
154	0x3f800000	1.0
155	0x00000000	0.0
156	0x3f800000	1.0
157	0x00000000	0.0
158	0x00000000	0.0
159	0x00000000	0.0
160	0x3f800000	1.0
161	0x3f800000	1.0
162	0x00000000	0.0
163	0x00000000	0.0
164	0x3f800000	1.0
165	0x3f800000	1.0
166	0x3f800000	1.0
167	0x00000000	0.0
168	0x3f800000	1.0
169	0x00000000	0.0
170	0x00000000	0.0
171	0x00000000	0.0
172	0x3f800000	1.0
173	0x3f800000	1.0
174	0x00000000	0.0
175	0x00000000	0.0
176	0x3f800000	1.0
177	0x3f800000	1.0
178	0x3f800000	1.0
179	0x00000000	0.0
180	0x3f800000	1.0
181	0x00000000	0.0
182	0x00000000	0.0
183	0x00000000	0.0
184	0x3f800000	1.0
185	0x3f800000	1.0
186	0x00000000	0.0
187	0x00000000	0.0
188	0x3f800000	1.0
189	0x3f800000	1.0
190	0x3f800000	1.0
191	0x00000000	0.0
192	0x3f800000	1.0
193	0x00000000	0.0
194	0x00000000	0.0
195	0x00000000	0.0
196	0x3f800000	1.0
197	0x3f800000	1.0
198	0x00000000	0.0
199	0x00000000	0.0
200	0x3f800000	1.0
201	0x3f800000	1.0
202	0x3f800000	1.0
203	0x00000000	0.0
204	0x3f800000	1.0
205	0x00000000	0.0
206	0x00000000	0.0
207	0x00000000	0.0
208	0x3f800000	1.0
209	0x3f800000	1.0
210	0x00000000	0.0
211	0x00000000	0.0
212	0x3f800000	1.0
213	0x3f800000	1.0
214	0x3f800000	1.0
215	0x00000000	0.0
216	0x3f800000	1.0
217	0x00000000	0.0
218	0x00000000	0.0
219	0x00000000	0.0
220	0x3f800000	1.0
221	0x3f800000	1.0
222	0x00000000	0.0
223	0x00000000	0.0
224	0x3f800000	1.0
225	0x3f800000	1.0
226	0x3f800000	1.0
227	0x00000000	0.0
228	0x3f800000	1.0
229	0x00000000	0.0
230	0x00000000	0.0
231	0x00000000	0.0
232	0x3f800000	1.0
233	0x3f800000	1.0
234	0x00000000	0.0
235	0x00000000	0.0
236	0x3f800000	1.0
237	0x3f800000	1.0
238	0x3f800000	1.0
239	0x00000000	0.0
240	0x3f800000	1.0
241	0x00000000	0.0
242	0x00000000	0.0
243	0x00000000	0.0
244	0x3f800000	1.0
245	0x3f800000	1.0
246	0x00000000	0.0
247	0x00000000	0.0
248	0x3f800000	1.0
249	0x3f800000	1.0
250	0x3f800000	1.0
251	0x00000000	0.0
252	0x3f800000	1.0
253	0x00000000	0.0
254	0x00000000	0.0
255	0x00000000	0.0

_transform._transforms.1.autoregressive_net.blocks.0.linear_layers.0.weight f4 [64, 64]
0	0x3d653fd8	0.05596909
1	0x3d108144	0.035279527
2	0x3d6b195c	0.05739723
3	0xbdfff404	-0.12497714
4	0x3b0cb0c0	0.0021467656
5	0xbbd11c40	-0.0063815415
6	0x3c261ee4	0.010139201
7	0xbd209f1c	-0.03921424
8	0x3dc3af0e	0.095548734
9	0xbcf958dd	-0.030437881
10	0xbbb20d60	-0.0054337233
11	0x3c83ea48	0.016102925
12	0xbd85d980	-0.065356255
13	0xbde66048	-0.11248833
14	0x3cde9270	0.027169436
15	0xbd876754	-0.06611505
16	0x3b938620	0.004502073
17	0x3d9cdb5e	0.076590285
18	0x3f1ac3fc	0.604553
19	0xbdcf3f9c	-0.101195544
20	0x3df4d6bc	0.1195502
21	0x3caacf54	0.020850815
22	0x3cbd2618	0.023089454
23	0xbbf70ee0	-0.007539615
24	0x3dcb1a72	0.099171534
25	0xbdb48e7a	-0.08816238
26	0x3dd9643e	0.10614823
27	0x3dba696c	0.09102139
28	0xbd23de70	-0.040007055
29	0x3dbacfc8	0.091216624
30	0xba528b13	-0.0008031588
31	0xbd7348a0	-0.059395432
32	0x3da62054	0.08111635
33	0x3dfa34f4	0.12217131
34	0x3d9146f0	0.070936084
35	0x3cfe2a90	0.031026155
36	0x3cfeb754	0.031093277
37	0x3c796b80	0.015223384
38	0x3dbb070e	0.09132205
39	0xbb2f6424	-0.002676257
40	0xbdd5bf8e	-0.10436927
41	0xbd93ce2c	-0.072170585
42	0x3b260ebb	0.002533837
43	0xbdf267da	-0.11836214
44	0xbdb64efa	-0.08901782
45	0xbe09b760	-0.13448858
46	0xbd56bedc	-0.05242811
47	0xbae2c500	-0.0017301142
48	0xbbb96156	-0.0056573553
49	0xbde96eca	-0.113980845
50	0x3dc463d2	0.09589352
51	0x3abfbee9	0.0014629039
52	0xbdfcc1ac	-0.123416275
53	0xbde182ee	-0.11011301
54	0x3e131816	0.14364657
55	0xbd9ca484	-0.07648566
56	0x3cc954a8	0.0245765
57	0xbdfae741	-0.122511394
58	0xbd791b40	-0.060817003
59	0x3cc020a0	0.023453057
60	0x3db5d147	0.08877807
61	0x3c9376c8	0.018000975
62	0x3d84f0ea	0.06491263
63	0x3b6da56d	0.0036261932
64	0xbe17e60e	-0.14833853
65	0x3cc89967	0.02448721
66	0x3da473e4	0.08029917
67	0xbd1d2f9c	-0.038375482
68	0x397e834a	0.00024272237
69	0xbc7ff4a0	-0.015622288
70	0x3d2feb30	0.0429489
71	0xbc1621fd	-0.009163377
72	0x3ddbb446	0.10727744
73	0xbcfcf213	-0.030877149
74	0xbd6a0247	-0.057131078
75	0xbdee2edc	-0.116300315
76	0xbe21693b	-0.15762798
77	0xbd800f66	-0.06252937
78	0xbda6100a	-0.08108528
79	0x3da2f37b	0.079565965
80	0xbda2126a	-0.079136685
81	0x3d83669a	0.06416054
82	0xbf217d14	-0.6308148
83	0xbe338b34	-0.1753357
84	0xbda24c56	-0.07924716
85	0xbda6d049	-0.08145196
86	0x3dc24845	0.094864406
87	0xbd8d1eea	-0.06890662
88	0x3d7668d4	0.060158566
89	0x3d814018	0.06311053
90	0x3d112a24	0.03544058
91	0x3e01ca52	0.12674835
92	0x3c5d0050	0.013488844
93	0x3d194694	0.037420824
94	0xbe2a5403	-0.1663361
95	0xbec356ff	-0.3815231
96	0xbdd61cbc	-0.104546994
97	0xbdafdea3	-0.085873865
98	0xbda914d0	-0.08255923
99	0xbd3c6f34	-0.04600449
100	0xbb9b3ce9	-0.0047374857
101	0x3d3db2d7	0.046313133
102	0x3dba5e8e	0.09100066
103	0xbccfaacb	-0.025349995
104	0xbd341663	-0.043966662
105	0xbddf39c8	-0.10899693
106	0x39ea38c9	0.00044674266
107	0xbce1a590	-0.027544767
108	0x3c06be00	0.0082240105
109	0x3e134c46	0.14384565
110	0xbd63fcea	-0.05566112
111	0xbc946dd8	-0.018118784
112	0x3bf13a12	0.007361659
113	0xbd614e88	-0.055006534
114	0x3ddacb84	0.10683349
115	0xbd8fc3a1	-0.07019735
116	0xbe0d8233	-0.13819198
117	0xbdd0ea5e	-0.10200952
118	0xbbc5ef05	-0.0060404562
119	0xbd03a183	-0.03213645
120	0x3d9e7ec0	0.077390194
121	0xbc3ae9a4	-0.011408243
122	0x3da10e7e	0.07864092
123	0xbc817d68	-0.015806869
124	0x3d8f7c44	0.07006124
125	0x3e966eee	0.29381508
126	0x3d6af3a8	0.057361275
127	0xbdcc2721	-0.09968401
128	0xbc7e7530	-0.015530869
129	0x3c120405	0.008912091
130	0x3cce7710	0.025203258
131	0x3d31a4b0	0.04336995
132	0x3d803a0d	0.06261072
133	0x3c18c8b5	0.009325196
134	0xbdc89a7a	-0.09795089
135	0xbdfc5166	-0.12320213
136	0xbd76cf07	-0.06025603
137	0xbda24dfd	-0.07925031
138	0xbd24e635	-0.040258605
139	0xbd567f5a	-0.052367546
140	0xbd5bc509	-0.053654704
141	0x3df38791	0.118910916
142	0xbdcd9037	-0.100372724
143	0xbc11e701	-0.008905173
144	0x3d283a5c	0.04107128
145	0xbe01efa7	-0.12689076
146	0xbc80f484	-0.015741594
147	0x3de5ef2f	0.11227261
148	0x3ddc23ff	0.10749053
149	0x3dc3a237	0.095524244
150	0x3ca0b638	0.019618139
151	0xbd2f94de	-0.04286658
152	0xbc6c259a	-0.014413262
153	0x3d2ad325	0.04170527
154	0xbca5dd53	-0.020247137
155	0x3d113ff7	0.035461392
156	0x3de8f66f	0.113751285
157	0xbcefc3c9	-0.029268162
158	0x3d127228	0.0357534
159	0xbdf85e50	-0.12127364
160	0xbdb7a54b	-0.08967074
161	0x3d4f5cdc	0.050625667
162	0xbd68c5b9	-0.056829188
163	0x3defadf1	0.117030986
164	0x3d65b418	0.056079954
165	0xbd85df2b	-0.065367065
166	0xbd1ed201	-0.038774494
167	0xbd082a9e	-0.033243768
168	0x3c74a686	0.01493228
169	0xbd4f27f3	-0.050575208
170	0x3c03ef0b	0.008052598
171	0xbd90d6ac	-0.070721954
172	0xbdd987ee	-0.1062163
173	0xbdc81b03	-0.09770777
174	0xbbcb33f4	-0.0062012617
175	0x3d90de15	0.07073609
176	0xbc37107d	-0.011173365
177	0xbd2d7508	-0.042347938
178	0x3cc251a1	0.023720564
179	0xbdf46667	-0.11933594
180	0x3db6c025	0.089233674
181	0x3ccb2fb2	0.024803016
182	0xbc2f7ba0	-0.010710627
183	0xbc293c26	-0.010329282
184	0x3c9ee0df	0.019394336
185	0xbd6dfcd6	-0.05810245
186	0xbe00b9d1	-0.12570883
187	0xbd9ddade	-0.07707761
188	0x3d6d485f	0.057930347
189	0x3dcb6b20	0.09932542
190	0x3daa1050	0.083038926
191	0xbd936773	-0.07197466
192	0x3d60062c	0.054693386
193	0xbd01ff50	-0.031737626
194	0xbd6342d8	-0.05548367
195	0x3d5099dc	0.05092798
196	0x3c65a9a0	0.0140174925
197	0xbcd10bf8	-0.025518402
198	0xbdc3f9d8	-0.09569138
199	0xbd316a88	-0.043314487
200	0x3cd2b7b8	0.02572237
201	0xbbd03b98	-0.0063547604
202	0xbbde10e0	-0.006776914
203	0xbd9656fe	-0.07340811
204	0xbc044f6e	-0.008075578
205	0xbc2dcbf0	-0.0106077045
206	0xbc120f20	-0.008914739
207	0x3ce0f32c	0.027459703
208	0x3dabdace	0.08391343
209	0xbdbbc272	-0.09167947
210	0x3f27897a	0.6544415
211	0xbdfbaa68	-0.12288362
212	0xbdafc7ac	-0.08583006
213	0x3df36586	0.118845984
214	0xbd5b5ca4	-0.053555146
215	0xbdefc5e0	-0.117076635
216	0xbda7dc02	-0.0819626
217	0xbd095980	-0.03353262
218	0xbd8d2bc0	-0.0689311
219	0x3cef8f88	0.029243246
220	0x3c8dd410	0.017313033
221	0x3d99b036	0.07504313
222	0x3db4a687	0.08820825
223	0xbdc211f2	-0.09476079
224	0xbc9ee270	-0.019395083
225	0x3ca6a53f	0.020342467
226	0x3d11e618	0.035619825
227	0xbc88d728	-0.016704157
228	0x3ce0f562	0.027460758
229	0x3d8a8db4	0.06765309
230	0x3d59c0cc	0.05316238
231	0x3e132337	0.14368902
232	0xbde8a7fe	-0.11360167
233	0x3d170b90	0.03687626
234	0x3e01e6da	0.12685719
235	0xbde5c880	-0.11219883
236	0xbd85d04e	-0.065338716
237	0xbdeacaf9	-0.11464495
238	0x3d5bff44	0.053710237
239	0x3d278bc8	0.04090479
240	0xbdac7978	-0.08421606
241	0x3da1d0b4	0.07901135
242	0xbd4ed77c	-0.05049847
243	0x3db4be2c	0.08825335
244	0xbdd8ef08	-0.105924666
245	0x3d084720	0.033270955
246	0x3de105f3	0.10987463
247	0x3cdf21f0	0.027237862
248	0xbdf5f386	-0.12009339
249	0x3d129d20	0.035794377
250	0xbde40a30	-0.111347556
251	0x3d31bbfc	0.043392166
252	0x3bc46d20	0.005994454
253	0xbdff73c0	-0.124732494
254	0xbce0a5b8	-0.02742277
255	0x3cad6aed	0.02116915

_transform._transforms.1.autoregressive_net.blocks.0.linear_layers.0.bias f4 [64]
0	0x3d8dfc29	0.06932861
1	0x3e008508	0.12550747
2	0xbd943e97	-0.072385006
3	0x3d9192c9	0.07108075
4	0x3dedb9b1	0.116076834
5	0xbdc05aa3	-0.093922876
6	0xbde6a462	-0.11261822
7	0x3d846cd7	0.06466072
8	0xbd3d60a7	-0.046234753
9	0xbcb17d00	-0.02166605
10	0x3da06923	0.07832553
11	0x3db4be8a	0.08825405
12	0x3dc3bf67	0.095579915
13	0x3d880a8b	0.06642636
14	0x3de97acf	0.11400377
15	0x3d70c118	0.0587779
16	0x3dba2a46	0.09090094
17	0xbdbd8db9	-0.09255547
18	0xbdec77a6	-0.11546259
19	0x3e04ec87	0.12980853
20	0x3d28c042	0.041198976
21	0xbd8abc96	-0.06774251
22	0x3dd7f34e	0.105444536
23	0xbd2eddc0	-0.042691946
24	0xbd4e0cb2	-0.050305076
25	0x3bf3b6e3	0.0074375733
26	0x3d1b7275	0.03795095
27	0xbdef3d9f	-0.11681675
28	0x3dbeca5d	0.093159415
29	0x3da800f9	0.082033105
30	0xbd5a47ba	-0.05329106
31	0x3bdc5ac5	0.0067246878
32	0x3cca803b	0.024719348
33	0x3cff6f2a	0.031180937
34	0xbd7a9be8	-0.06118384
35	0x3dd8de92	0.10589327
36	0x3d98d072	0.07461633
37	0xbbc3f6dc	-0.0059803557
38	0x3e12184b	0.1426708
39	0x3dea250b	0.11432847
40	0xbc9a0866	-0.018802833
41	0x3dbb2557	0.091379814
42	0x3dab7290	0.083714604
43	0xbd94e7c0	-0.07270765
44	0x3d58e357	0.052951183
45	0x3d4b747b	0.04967163
46	0x3dae70b8	0.08517593
47	0x3d90c713	0.070692204
48	0x3cea3c90	0.028593332
49	0x3de395a3	0.11112525
50	0x3dc6d515	0.09708611
51	0xbc722c6f	-0.014781102
52	0x3e0df497	0.13862835
53	0x3c90e28f	0.017686157
54	0xbd8141f0	-0.06311405
55	0xbda40186	-0.08008103
56	0xbe02a365	-0.12757643
57	0x3d4c40bb	0.04986642
58	0x3abd39c7	0.0014436775
59	0x3e181e5b	0.1485533
60	0xbc7a9a79	-0.015295618
61	0x3e08115a	0.13287869
62	0x3d5e353d	0.05424999
63	0xbd8f96d2	-0.070111886

_transform._transforms.1.autoregressive_net.blocks.0.linear_layers.0.mask f4 [64, 64]
0	0x3f800000	1.0
1	0x00000000	0.0
2	0x00000000	0.0
3	0x3f800000	1.0
4	0x00000000	0.0
5	0x00000000	0.0
6	0x3f800000	1.0
7	0x00000000	0.0
8	0x00000000	0.0
9	0x3f800000	1.0
10	0x00000000	0.0
11	0x00000000	0.0
12	0x3f800000	1.0
13	0x00000000	0.0
14	0x00000000	0.0
15	0x3f800000	1.0
16	0x00000000	0.0
17	0x00000000	0.0
18	0x3f800000	1.0
19	0x00000000	0.0
20	0x00000000	0.0
21	0x3f800000	1.0
22	0x00000000	0.0
23	0x00000000	0.0
24	0x3f800000	1.0
25	0x00000000	0.0
26	0x00000000	0.0
27	0x3f800000	1.0
28	0x00000000	0.0
29	0x00000000	0.0
30	0x3f800000	1.0
31	0x00000000	0.0
32	0x00000000	0.0
33	0x3f800000	1.0
34	0x00000000	0.0
35	0x00000000	0.0
36	0x3f800000	1.0
37	0x00000000	0.0
38	0x00000000	0.0
39	0x3f800000	1.0
40	0x00000000	0.0
41	0x00000000	0.0
42	0x3f800000	1.0
43	0x00000000	0.0
44	0x00000000	0.0
45	0x3f800000	1.0
46	0x00000000	0.0
47	0x00000000	0.0
48	0x3f800000	1.0
49	0x00000000	0.0
50	0x00000000	0.0
51	0x3f800000	1.0
52	0x00000000	0.0
53	0x00000000	0.0
54	0x3f800000	1.0
55	0x00000000	0.0
56	0x00000000	0.0
57	0x3f800000	1.0
58	0x00000000	0.0
59	0x00000000	0.0
60	0x3f800000	1.0
61	0x00000000	0.0
62	0x00000000	0.0
63	0x3f800000	1.0
64	0x3f800000	1.0
65	0x3f800000	1.0
66	0x00000000	0.0
67	0x3f800000	1.0
68	0x3f800000	1.0
69	0x00000000	0.0
70	0x3f800000	1.0
71	0x3f800000	1.0
72	0x00000000	0.0
73	0x3f800000	1.0
74	0x3f800000	1.0
75	0x00000000	0.0
76	0x3f800000	1.0
77	0x3f800000	1.0
78	0x00000000	0.0
79	0x3f800000	1.0
80	0x3f800000	1.0
81	0x00000000	0.0
82	0x3f800000	1.0
83	0x3f800000	1.0
84	0x00000000	0.0
85	0x3f800000	1.0
86	0x3f800000	1.0
87	0x00000000	0.0
88	0x3f800000	1.0
89	0x3f800000	1.0
90	0x00000000	0.0
91	0x3f800000	1.0
92	0x3f800000	1.0
93	0x00000000	0.0
94	0x3f800000	1.0
95	0x3f800000	1.0
96	0x00000000	0.0
97	0x3f800000	1.0
98	0x3f800000	1.0
99	0x00000000	0.0
100	0x3f800000	1.0
101	0x3f800000	1.0
102	0x00000000	0.0
103	0x3f800000	1.0
104	0x3f800000	1.0
105	0x00000000	0.0
106	0x3f800000	1.0
107	0x3f800000	1.0
108	0x00000000	0.0
109	0x3f800000	1.0
110	0x3f800000	1.0
111	0x00000000	0.0
112	0x3f800000	1.0
113	0x3f800000	1.0
114	0x00000000	0.0
115	0x3f800000	1.0
116	0x3f800000	1.0
117	0x00000000	0.0
118	0x3f800000	1.0
119	0x3f800000	1.0
120	0x00000000	0.0
121	0x3f800000	1.0
122	0x3f800000	1.0
123	0x00000000	0.0
124	0x3f800000	1.0
125	0x3f800000	1.0
126	0x00000000	0.0
127	0x3f800000	1.0
128	0x3f800000	1.0
129	0x3f800000	1.0
130	0x3f800000	1.0
131	0x3f800000	1.0
132	0x3f800000	1.0
133	0x3f800000	1.0
134	0x3f800000	1.0
135	0x3f800000	1.0
136	0x3f800000	1.0
137	0x3f800000	1.0
138	0x3f800000	1.0
139	0x3f800000	1.0
140	0x3f800000	1.0
141	0x3f800000	1.0
142	0x3f800000	1.0
143	0x3f800000	1.0
144	0x3f800000	1.0
145	0x3f800000	1.0
146	0x3f800000	1.0
147	0x3f800000	1.0
148	0x3f800000	1.0
149	0x3f800000	1.0
150	0x3f800000	1.0
151	0x3f800000	1.0
152	0x3f800000	1.0
153	0x3f800000	1.0
154	0x3f800000	1.0
155	0x3f800000	1.0
156	0x3f800000	1.0
157	0x3f800000	1.0
158	0x3f800000	1.0
159	0x3f800000	1.0
160	0x3f800000	1.0
161	0x3f800000	1.0
162	0x3f800000	1.0
163	0x3f800000	1.0
164	0x3f800000	1.0
165	0x3f800000	1.0
166	0x3f800000	1.0
167	0x3f800000	1.0
168	0x3f800000	1.0
169	0x3f800000	1.0
170	0x3f800000	1.0
171	0x3f800000	1.0
172	0x3f800000	1.0
173	0x3f800000	1.0
174	0x3f800000	1.0
175	0x3f800000	1.0
176	0x3f800000	1.0
177	0x3f800000	1.0
178	0x3f800000	1.0
179	0x3f800000	1.0
180	0x3f800000	1.0
181	0x3f800000	1.0
182	0x3f800000	1.0
183	0x3f800000	1.0
184	0x3f800000	1.0
185	0x3f800000	1.0
186	0x3f800000	1.0
187	0x3f800000	1.0
188	0x3f800000	1.0
189	0x3f800000	1.0
190	0x3f800000	1.0
191	0x3f800000	1.0
192	0x3f800000	1.0
193	0x00000000	0.0
194	0x00000000	0.0
195	0x3f800000	1.0
196	0x00000000	0.0
197	0x00000000	0.0
198	0x3f800000	1.0
199	0x00000000	0.0
200	0x00000000	0.0
201	0x3f800000	1.0
202	0x00000000	0.0
203	0x00000000	0.0
204	0x3f800000	1.0
205	0x00000000	0.0
206	0x00000000	0.0
207	0x3f800000	1.0
208	0x00000000	0.0
209	0x00000000	0.0
210	0x3f800000	1.0
211	0x00000000	0.0
212	0x00000000	0.0
213	0x3f800000	1.0
214	0x00000000	0.0
215	0x00000000	0.0
216	0x3f800000	1.0
217	0x00000000	0.0
218	0x00000000	0.0
219	0x3f800000	1.0
220	0x00000000	0.0
221	0x00000000	0.0
222	0x3f800000	1.0
223	0x00000000	0.0
224	0x00000000	0.0
225	0x3f800000	1.0
226	0x00000000	0.0
227	0x00000000	0.0
228	0x3f800000	1.0
229	0x00000000	0.0
230	0x00000000	0.0
231	0x3f800000	1.0
232	0x00000000	0.0
233	0x00000000	0.0
234	0x3f800000	1.0
235	0x00000000	0.0
236	0x00000000	0.0
237	0x3f800000	1.0
238	0x00000000	0.0
239	0x00000000	0.0
240	0x3f800000	1.0
241	0x00000000	0.0
242	0x00000000	0.0
243	0x3f800000	1.0
244	0x00000000	0.0
245	0x00000000	0.0
246	0x3f800000	1.0
247	0x00000000	0.0
248	0x00000000	0.0
249	0x3f800000	1.0
250	0x00000000	0.0
251	0x00000000	0.0
252	0x3f800000	1.0
253	0x00000000	0.0
254	0x00000000	0.0
255	0x3f800000	1.0

_transform._transforms.1.autoregressive_net.blocks.0.linear_layers.1.weight f4 [64, 64]
0	0x3d3bea8a	0.04587797
1	0x39da164a	0.00041596807
2	0x3a1a9886	0.00058973616
3	0x3d34d15d	0.044144977
4	0x3842c001	4.6432022e-05
5	0x39b11727	0.0003377732
6	0xb9b79b79	-0.00035020316
7	0x3a59241b	0.0008283273
8	0x37c794bd	2.379191e-05
9	0xb8b03d30	-8.403731e-05
10	0xb9fc6880	-0.00048143044
11	0xb9f0a1bb	-0.00045896866
12	0x3d00a649	0.031408582
13	0xba25f963	-0.0006331412
14	0xba2062a4	-0.0006118214
15	0xba75625b	-0.00093606644
16	0xb9cc5dfd	-0.0003897994
17	0x3a5c286f	0.0008398359
18	0x3867b2d2	5.524123e-05
19	0xb9484e80	-0.0001910273
20	0xb9023419	-0.00012417174
21	0xba82643d	-0.0009948086
22	0xba2b3ea8	-0.0006532469
23	0xba0c284e	-0.0005346582
24	0xbdc9ed62	-0.0985973
25	0x3a394852	0.00070679665
26	0x38dab001	0.00010427833
27	0x3ba93071	0.0051632454
28	0x3a358bbd	0.00069254247
29	0x39b0df82	0.00033735862
30	0x3c9c20ed	0.019058669
31	0xba11c781	-0.00055610394
32	0x37c968b5	2.4009825e-05
33	0x3d560b31	0.052256767
34	0x370a9db3	8.262158e-06
35	0xba00957f	-0.0004905089
36	0x3d7433fc	0.05961989
37	0xba452519	-0.00075204816
38	0x39489528	0.00019129051
39	0x3d6ee6ee	0.0583257
40	0x38842f1b	6.3030246e-05
41	0xba52c779	-0.0008040588
42	0x3d35ab5d	0.044352878
43	0x3a561328	0.00081663067
44	0xb8eb7698	-0.00011227763
45	0x3d4f2889	0.050575767
46	0x3a2f5e1f	0.00066897454
47	0xba5755bb	-0.0008214374
48	0x3d686af7	0.056742635
49	0x3a43d75b	0.000747075
50	0xb9d5b5dc	-0.00040762022
51	0x3da2b584	0.079447776
52	0xb9f0b8a0	-0.00045913924
53	0xba34cb17	-0.0006896718
54	0xbb68d957	-0.0035529935
55	0xba355c92	-0.0006918396
56	0xb9b1359e	-0.0003380002
57	0x3ccb64c6	0.024828326
58	0xba4593bd	-0.00075369683
59	0x3a496b63	0.00076835434
60	0x3cadaba6	0.021200012
61	0xba14b254	-0.0005672325
62	0xb88b5a4e	-6.644857e-05
63	0xb9e550f6	-0.00043738604
64	0x3d2a6059	0.04159579
65	0x3d8b38e6	0.06797962
66	0xb9dc770b	-0.00042050364
67	0x3ca3fef7	0.020019038
68	0x3d46063b	0.048345786
69	0xba3e11a6	-0.00072505546
70	0xb9e7ee53	-0.0004423732
71	0x3d276765	0.04087009
72	0xb9c48298	-0.00037481333
73	0xba52e013	-0.0008044254
74	0xbc67d87a	-0.014150733
75	0xba4e026d	-0.0007858638
76	0x3d054b95	0.032542784
77	0x3cc1112d	0.02356776
78	0xba608ee4	-0.0008566214
79	0x3a3f4cd1	0.00072975183
80	0x3cfdb748	0.030971184
81	0xb948c86b	-0.00019148148
82	0x398054b5	0.00024477174
83	0x3db2dd1f	0.08733582
84	0xba766578	-0.00093992753
85	0x39a05903	0.00030583897
86	0x3d3b8430	0.04578036
87	0xba10f338	-0.00055294065
88	0xbb03e300	-0.0020124316
89	0x3d2d6cd7	0.042340126
90	0x393f5e46	0.00018250299
91	0x3ba239fa	0.004950759
92	0x3cef8fb2	0.029243324
93	0x394305a2	0.00018598748
94	0x3b865324	0.0040992666
95	0x3d069b10	0.032862723
96	0xba048ef0	-0.00050567
97	0x3d189f46	0.03726127
98	0x3a5ce009	0.0008425718
99	0xba154919	-0.00056947913
100	0x3cdf25e1	0.027239742
101	0x3da83443	0.08213093
102	0xb9e12a5f	-0.00042946913
103	0x3d085e0b	0.03329281
104	0x3c8b3d0a	0.01699688
105	0x396c4f75	0.00022536314
106	0x3d2fd9c9	0.042932305
107	0xb9f0bf96	-0.0004591911
108	0xba541151	-0.00080897385
109	0x3cfa3fea	0.030548055
110	0x3d9a0dd5	0.075221695
111	0xb9b887e0	-0.0003519645
112	0x3c8f2eb0	0.017478317
113	0x3d55f413	0.05223472
114	0x3a53bbdc	0.00080770045
115	0xba75accf	-0.0009371759
116	0x3c87df42	0.01658595
117	0x3948fa57	0.00019166745
118	0xbc0870f6	-0.008327713
119	0xba6fb363	-0.0009143857
120	0x3932e755	0.00017061581
121	0x3c608bf6	0.013705244
122	0x3d0bfea5	0.034178395
123	0xb987bac9	-0.00025888372
124	0x3a677142	0.00088288274
125	0x3d169ed0	0.03677255
126	0xba2aa7da	-0.0006509997
127	0xb5e6147c	-1.7142297e-06
128	0xbc899f7b	-0.016799679
129	0xb92caba5	-0.00016467141
130	0xbb766f3d	-0.0037602924
131	0xbca81470	-0.020517558
132	0xbd4945d6	-0.049138866
133	0xbae9d18d	-0.001783894
134	0xba428359	-0.0007420085
135	0xbd31503d	-0.04328941
136	0xb9be70be	-0.00036323623
137	0x3a5e3019	0.0008475795
138	0xbd1671f5	-0.03672977
139	0xbd1661e5	-0.036714453
140	0xbc9276d7	-0.017878933
141	0xbcad1f92	-0.021133218
142	0xbcab6ade	-0.020924982
143	0x3a42a001	0.0007424355
144	0xbd6990b3	-0.05702276
145	0x3d3ff188	0.0468612
146	0x3a68f4d2	0.0008886579
147	0xbd06b547	-0.032887723
148	0xbd239447	-0.03993633
149	0x39f14aa5	0.00046022717
150	0xbceb3928	-0.028713778
151	0x3a71b74d	0.00092207344
152	0x3b64cf48	0.0034913588
153	0xbd344de7	-0.044019606
154	0x3c2a1ebe	0.010383306
155	0x3b167cd3	0.0022962585
156	0xbcbe957a	-0.023264635
157	0xbd5ba22f	-0.053621467
158	0xbc910a3c	-0.017705075
159	0xbca06f8f	-0.019584445
160	0x3bbb3ed8	0.0057142787
161	0xbc5c011f	-0.013428002
162	0xba33a02a	-0.00068521744
163	0x3b4097dd	0.0029387393
164	0xbcf6b632	-0.030116174
165	0xbcb57982	-0.022152666
166	0xbdb23f94	-0.08703533
167	0xbcbc9c75	-0.023023823
168	0xbc50f641	-0.012754024
169	0xbcd2c82c	-0.025730215
170	0xbc962b2d	-0.018331135
171	0x379d5959	1.8757464e-05
172	0xbd3ce066	-0.04611244
173	0xbcbd4eb4	-0.023108818
174	0xbc751b7f	-0.014960169
175	0x3d3d64ec	0.046238825
176	0xbcc14e84	-0.02359701
177	0xbcd041b7	-0.02542196
178	0x3e369b85	0.17832763
179	0xbcebe375	-0.028794983
180	0xbcc4cf05	-0.024024496
181	0xbd8ba6fd	-0.0681896
182	0xba252b10	-0.00063006673
183	0x38561832	5.104411e-05
184	0x3bef5a7e	0.0073044887
185	0xbc710167	-0.014709807
186	0xbd513326	-0.05107417
187	0x3e59f9b6	0.21286663
188	0xbc945420	-0.01810652
189	0xbc8fa2a2	-0.017533604
190	0xbc687cc3	-0.014189902
191	0x398992ee	0.00026240147
192	0xbd5ef788	-0.054435283
193	0xb9a2005f	-0.00030899324
194	0x3906f863	0.00012871767
195	0xbd81acb5	-0.063317694
196	0x39fd7959	0.00048346331
197	0xb9befbbb	-0.00036427178
198	0xba62192e	-0.0008624968
199	0xb9e64a19	-0.00043924226
200	0xba16cffc	-0.0005753038
201	0x398c3ac5	0.00026746668
202	0x39a11bf0	0.00030729128
203	0xb9331dec	-0.00017081917
204	0xbd23a1f8	-0.039949387
205	0x3a12a9b5	0.00055947463
206	0xb87e8128	-6.0678605e-05
207	0x384e31ab	4.9160484e-05
208	0xba014c7f	-0.0004932358
209	0x3a677226	0.000882896
210	0x388c5169	6.690884e-05
211	0xb9a1fc4e	-0.00030896295
212	0x39a81f50	0.00032066787
213	0x39ef1f0b	0.0004560876
214	0xba2bcafa	-0.0006553378
215	0x39ced965	0.00039453353
216	0x3de3aa82	0.11116506
217	0xba18a821	-0.0005823393
218	0xba08016b	-0.00051881996
219	0x3c0161e4	0.007896874
220	0xb9ced857	-0.00039452568
221	0x3a3f822a	0.0007305468
222	0xbd540b63	-0.05176867
223	0xb9a79f6d	-0.00031971504
224	0x3a136d42	0.00056238857
225	0xbd89c312	-0.0672666
226	0x39839d96	0.00025103678
227	0xb8c11001	-9.205938e-05
228	0xbd9ae331	-0.075628646
229	0xba065883	-0.00051248836
230	0xba346bcd	-0.00068825186
231	0xbd8e2b01	-0.06941796
232	0xba5827dc	-0.00082456856
233	0xb8ec0a2e	-0.00011255253
234	0xbd519ef1	-0.05117697
235	0x39306809	0.00016823424
236	0x3a38dce8	0.00070519606
237	0xbd8dd1f5	-0.06924812
238	0xba77e263	-0.00094560365
239	0x3955974c	0.00020369625
240	0xbd957a85	-0.07298759
241	0xb8be2b13	-9.067929e-05
242	0xb9b8dc05	-0.00035259142
243	0xbdcaf131	-0.09909285
244	0x3921d45b	0.00015433265
245	0xba340cf6	-0.00068683864
246	0xbba84a5f	-0.005135819
247	0xba3ce494	-0.00072056917
248	0xba17e467	-0.00057942275
249	0xbd41bf76	-0.047301732
250	0x3a3233e6	0.00067978946
251	0x3a469f86	0.00075768714
252	0xbd7460a0	-0.05966246
253	0x39242cb5	0.00015656913
254	0x398b0488	0.00026515522
255	0xb8aa32e2	-8.115709e-05

_transform._transforms.1.autoregressive_net.blocks.0.linear_layers.1.bias f4 [64]
0	0x3cdf7ea5	0.027282069
1	0x3d1977d9	0.03746781
2	0xbca7e76b	-0.02049609
3	0xbcb2c35b	-0.021821668
4	0xbca03e29	-0.01956089
5	0x3c4035df	0.011731594
6	0x3d09bfa5	0.033630032
7	0x3d006d3d	0.031354178
8	0xbbf8f3d1	-0.0075974246
9	0xbcf9cade	-0.030492242
10	0xbcd7f784	-0.026363142
11	0x3c37aac5	0.011210148
12	0xbc95b7d5	-0.018276135
13	0xbcdea13a	-0.027176488
14	0xbbf28256	-0.007400791
15	0x3cabbfdd	0.020965511
16	0xbd0792fc	-0.03309916
17	0x3d2e282b	0.042518776
18	0xbd20c34b	-0.039248746
19	0x3d02aa77	0.03190085
20	0x3cb0121e	0.021493014
21	0xbc8f396d	-0.017483437
22	0x3c4d300f	0.012523665
23	0x3c356899	0.011072301
24	0x3c863487	0.016382469
25	0x3c2607ce	0.010133697
26	0x39cbb98b	0.00038857418
27	0x3c70d66d	0.014699561
28	0xbc5730e8	-0.013134219
29	0xbc837a2d	-0.016049469
30	0xbd88f220	-0.06686807
31	0x3d2ff424	0.04295744
32	0x3c810dd9	0.015753673
33	0x3cc92cc1	0.024557473
34	0xbd29c8d3	-0.041451287
35	0xbbede0df	-0.0072594727
36	0xbc940eb1	-0.018073412
37	0xbd1dd9b0	-0.03853768
38	0x3c0c3b1e	0.0085590165
39	0x3bd61e00	0.006534338
40	0xbcaf859a	-0.02142601
41	0xbc8c7abe	-0.017148372
42	0xbcf277ac	-0.02959808
43	0xbd0028ce	-0.031288914
44	0x3d0df0bc	0.03465341
45	0x3d023bb2	0.03179521
46	0xbcff200d	-0.031143213
47	0xbd05ee35	-0.032697875
48	0x3cd21871	0.02564642
49	0x3cad948f	0.021189002
50	0x3c90c1b0	0.017670482
51	0xbc24432c	-0.010025781
52	0xbc2dc3c2	-0.010605754
53	0x3c06f483	0.008237007
54	0x3c9c6b10	0.01909402
55	0xbc9646e0	-0.018344343
56	0xbc99016f	-0.018677441
57	0x3c2fecda	0.010737622
58	0x3cc4ada9	0.024008589
59	0x3cb93fcf	0.022613434
60	0xbcb42f51	-0.021995218
61	0xbcf55e64	-0.029952236
62	0x3c61dee1	0.013786049
63	0xbc5ee890	-0.013605252

_transform._transforms.1.autoregressive_net.blocks.0.linear_layers.1.mask f4 [64, 64]
0	0x3f800000	1.0
1	0x00000000	0.0
2	0x00000000	0.0
3	0x3f800000	1.0
4	0x00000000	0.0
5	0x00000000	0.0
6	0x3f800000	1.0
7	0x00000000	0.0
8	0x00000000	0.0
9	0x3f800000	1.0
10	0x00000000	0.0
11	0x00000000	0.0
12	0x3f800000	1.0
13	0x00000000	0.0
14	0x00000000	0.0
15	0x3f800000	1.0
16	0x00000000	0.0
17	0x00000000	0.0
18	0x3f800000	1.0
19	0x00000000	0.0
20	0x00000000	0.0
21	0x3f800000	1.0
22	0x00000000	0.0
23	0x00000000	0.0
24	0x3f800000	1.0
25	0x00000000	0.0
26	0x00000000	0.0
27	0x3f800000	1.0
28	0x00000000	0.0
29	0x00000000	0.0
30	0x3f800000	1.0
31	0x00000000	0.0
32	0x00000000	0.0
33	0x3f800000	1.0
34	0x00000000	0.0
35	0x00000000	0.0
36	0x3f800000	1.0
37	0x00000000	0.0
38	0x00000000	0.0
39	0x3f800000	1.0
40	0x00000000	0.0
41	0x00000000	0.0
42	0x3f800000	1.0
43	0x00000000	0.0
44	0x00000000	0.0
45	0x3f800000	1.0
46	0x00000000	0.0
47	0x00000000	0.0
48	0x3f800000	1.0
49	0x00000000	0.0
50	0x00000000	0.0
51	0x3f800000	1.0
52	0x00000000	0.0
53	0x00000000	0.0
54	0x3f800000	1.0
55	0x00000000	0.0
56	0x00000000	0.0
57	0x3f800000	1.0
58	0x00000000	0.0
59	0x00000000	0.0
60	0x3f800000	1.0
61	0x00000000	0.0
62	0x00000000	0.0
63	0x3f800000	1.0
64	0x3f800000	1.0
65	0x3f800000	1.0
66	0x00000000	0.0
67	0x3f800000	1.0
68	0x3f800000	1.0
69	0x00000000	0.0
70	0x3f800000	1.0
71	0x3f800000	1.0
72	0x00000000	0.0
73	0x3f800000	1.0
74	0x3f800000	1.0
75	0x00000000	0.0
76	0x3f800000	1.0
77	0x3f800000	1.0
78	0x00000000	0.0
79	0x3f800000	1.0
80	0x3f800000	1.0
81	0x00000000	0.0
82	0x3f800000	1.0
83	0x3f800000	1.0
84	0x00000000	0.0
85	0x3f800000	1.0
86	0x3f800000	1.0
87	0x00000000	0.0
88	0x3f800000	1.0
89	0x3f800000	1.0
90	0x00000000	0.0
91	0x3f800000	1.0
92	0x3f800000	1.0
93	0x00000000	0.0
94	0x3f800000	1.0
95	0x3f800000	1.0
96	0x00000000	0.0
97	0x3f800000	1.0
98	0x3f800000	1.0
99	0x00000000	0.0
100	0x3f800000	1.0
101	0x3f800000	1.0
102	0x00000000	0.0
103	0x3f800000	1.0
104	0x3f800000	1.0
105	0x00000000	0.0
106	0x3f800000	1.0
107	0x3f800000	1.0
108	0x00000000	0.0
109	0x3f800000	1.0
110	0x3f800000	1.0
111	0x00000000	0.0
112	0x3f800000	1.0
113	0x3f800000	1.0
114	0x00000000	0.0
115	0x3f800000	1.0
116	0x3f800000	1.0
117	0x00000000	0.0
118	0x3f800000	1.0
119	0x3f800000	1.0
120	0x00000000	0.0
121	0x3f800000	1.0
122	0x3f800000	1.0
123	0x00000000	0.0
124	0x3f800000	1.0
125	0x3f800000	1.0
126	0x00000000	0.0
127	0x3f800000	1.0
128	0x3f800000	1.0
129	0x3f800000	1.0
130	0x3f800000	1.0
131	0x3f800000	1.0
132	0x3f800000	1.0
133	0x3f800000	1.0
134	0x3f800000	1.0
135	0x3f800000	1.0
136	0x3f800000	1.0
137	0x3f800000	1.0
138	0x3f800000	1.0
139	0x3f800000	1.0
140	0x3f800000	1.0
141	0x3f800000	1.0
142	0x3f800000	1.0
143	0x3f800000	1.0
144	0x3f800000	1.0
145	0x3f800000	1.0
146	0x3f800000	1.0
147	0x3f800000	1.0
148	0x3f800000	1.0
149	0x3f800000	1.0
150	0x3f800000	1.0
151	0x3f800000	1.0
152	0x3f800000	1.0
153	0x3f800000	1.0
154	0x3f800000	1.0
155	0x3f800000	1.0
156	0x3f800000	1.0
157	0x3f800000	1.0
158	0x3f800000	1.0
159	0x3f800000	1.0
160	0x3f800000	1.0
161	0x3f800000	1.0
162	0x3f800000	1.0
163	0x3f800000	1.0
164	0x3f800000	1.0
165	0x3f800000	1.0
166	0x3f800000	1.0
167	0x3f800000	1.0
168	0x3f800000	1.0
169	0x3f800000	1.0
170	0x3f800000	1.0
171	0x3f800000	1.0
172	0x3f800000	1.0
173	0x3f800000	1.0
174	0x3f800000	1.0
175	0x3f800000	1.0
176	0x3f800000	1.0
177	0x3f800000	1.0
178	0x3f800000	1.0
179	0x3f800000	1.0
180	0x3f800000	1.0
181	0x3f800000	1.0
182	0x3f800000	1.0
183	0x3f800000	1.0
184	0x3f800000	1.0
185	0x3f800000	1.0
186	0x3f800000	1.0
187	0x3f800000	1.0
188	0x3f800000	1.0
189	0x3f800000	1.0
190	0x3f800000	1.0
191	0x3f800000	1.0
192	0x3f800000	1.0
193	0x00000000	0.0
194	0x00000000	0.0
195	0x3f800000	1.0
196	0x00000000	0.0
197	0x00000000	0.0
198	0x3f800000	1.0
199	0x00000000	0.0
200	0x00000000	0.0
201	0x3f800000	1.0
202	0x00000000	0.0
203	0x00000000	0.0
204	0x3f800000	1.0
205	0x00000000	0.0
206	0x00000000	0.0
207	0x3f800000	1.0
208	0x00000000	0.0
209	0x00000000	0.0
210	0x3f800000	1.0
211	0x00000000	0.0
212	0x00000000	0.0
213	0x3f800000	1.0
214	0x00000000	0.0
215	0x00000000	0.0
216	0x3f800000	1.0
217	0x00000000	0.0
218	0x00000000	0.0
219	0x3f800000	1.0
220	0x00000000	0.0
221	0x00000000	0.0
222	0x3f800000	1.0
223	0x00000000	0.0
224	0x00000000	0.0
225	0x3f800000	1.0
226	0x00000000	0.0
227	0x00000000	0.0
228	0x3f800000	1.0
229	0x00000000	0.0
230	0x00000000	0.0
231	0x3f800000	1.0
232	0x00000000	0.0
233	0x00000000	0.0
234	0x3f800000	1.0
235	0x00000000	0.0
236	0x00000000	0.0
237	0x3f800000	1.0
238	0x00000000	0.0
239	0x00000000	0.0
240	0x3f800000	1.0
241	0x00000000	0.0
242	0x00000000	0.0
243	0x3f800000	1.0
244	0x00000000	0.0
245	0x00000000	0.0
246	0x3f800000	1.0
247	0x00000000	0.0
248	0x00000000	0.0
249	0x3f800000	1.0
250	0x00000000	0.0
251	0x00000000	0.0
252	0x3f800000	1.0
253	0x00000000	0.0
254	0x00000000	0.0
255	0x3f800000	1.0

_transform._transforms.1.autoregressive_net.blocks.1.linear_layers.0.weight f4 [64, 64]
0	0x3dc9d82f	0.09855687
1	0x3db6a216	0.08917634
2	0xbd836512	-0.06415762
3	0xbd9ee5d4	-0.0775868
4	0x3de2f186	0.11081223
5	0xbdff3612	-0.12461485
6	0x3e0afced	0.13573046
7	0x3de96f86	0.113982245
8	0xbd8e65c6	-0.069530055
9	0xbd1942c2	-0.03741718
10	0x3cee7d78	0.029112563
11	0xbdbb9780	-0.09159756
12	0xbd36b8f7	-0.04460999
13	0xbce5a900	-0.028034687
14	0x3df2fdf6	0.118648455
15	0xbda1389f	-0.07872128
16	0x3dcfb7e0	0.10142493
17	0xbdfa2c6e	-0.122155055
18	0x3e869401	0.26284793
19	0x3d7ae84c	0.06125669
20	0x3da2e440	0.079536915
21	0xbd17a090	-0.03701836
22	0xbcef42e0	-0.029206693
23	0xbde51f78	-0.11187643
24	0x3d200173	0.039063882
25	0x3d948f1a	0.07253857
26	0x39d68c00	0.0004092157
27	0x3e086aba	0.13321963
28	0xbcc689b0	-0.024235576
29	0x3dcfa37a	0.101386026
30	0x3d82b6ef	0.06382548
31	0xbdc1486c	-0.094376415
32	0xbcc2e090	-0.02378872
33	0xbbaa1758	-0.005190771
34	0x3d5e54a4	0.05427994
35	0xbde0252e	-0.109445915
36	0x3d3901ea	0.04516784
37	0xbde07496	-0.10959737
38	0xbde6e24a	-0.1127363
39	0x3de48a32	0.11159171
40	0x3bec1260	0.007204339
41	0x3c7b1010	0.015323654
42	0x3c8963f1	0.016771289
43	0x3a420200	0.0007400811
44	0x3c9d8b58	0.019231483
45	0x3d994c79	0.07485289
46	0xbccbd420	-0.024881423
47	0x3c938f08	0.018012539
48	0x3defa3c7	0.1170116
49	0x3dae1cc6	0.08501582
50	0x3dd48288	0.10376459
51	0x3dadad22	0.08480288
52	0xbdeb645e	-0.11493753
53	0x3cfef728	0.031123713
54	0xbd603de1	-0.054746512
55	0xbd202d50	-0.039105713
56	0x3d82fef0	0.06396282
57	0x3bbc8f37	0.005754377
58	0x3c4eb6a0	0.012616783
59	0xbde59642	-0.112103
60	0xbd53299f	-0.051553365
61	0xbd193ae8	-0.037409693
62	0x3d40abac	0.04703872
63	0x3e0fbf51	0.14037825
64	0x3df6caac	0.12050375
65	0x3c0869f1	0.00832604
66	0x3de12db2	0.10995044
67	0x3d3fcdc0	0.046827078
68	0xbd4d3e78	-0.050108403
69	0x3da21728	0.07914573
70	0x3d1c32cc	0.03813438
71	0x3dfa9772	0.12235917
72	0x3d8b3b0e	0.06798373
73	0x3d0f8f9e	0.035049073
74	0xbe49fd4c	-0.19725531
75	0x3d167a8c	0.036737964
76	0xbde47c0c	-0.111564726
77	0xbed145bb	-0.40873513
78	0xbd4f18b4	-0.050560668
79	0x3bd9f7f0	0.006651871
80	0x3d6dc8d4	0.058052853
81	0x3d75ea0c	0.060037658
82	0xbca4e5bb	-0.020129075
83	0xbd5c5ae3	-0.053797614
84	0x3d81bf2e	0.06335293
85	0x3cc52db4	0.024069645
86	0xbd892764	-0.06696966
87	0x3dfe56e8	0.1241892
88	0xbd92a854	-0.07161012
89	0x3c983b50	0.01858297
90	0x3cccaac8	0.024983779
91	0xbdfc8319	-0.123296924
92	0xbd8fefeb	-0.070281826
93	0xbdcddb50	-0.10051596
94	0xbe1e8ea9	-0.15484108
95	0xbece7727	-0.4032528
96	0x3dd87a0e	0.10570155
97	0xbd7d071d	-0.061774362
98	0xbd7613ed	-0.060077596
99	0xba86c800	-0.0010282993
100	0xbe159865	-0.14608915
101	0x3cec2573	0.02882645
102	0x3dbae770	0.091261744
103	0xbd977dd6	-0.07397048
104	0xbde052c8	-0.10953289
105	0x3ddecbae	0.108786926
106	0x3de43119	0.11142177
107	0x3debc51f	0.11512207
108	0x3df7c55c	0.1209819
109	0x3e033442	0.12812904
110	0x3da30265	0.07959441
111	0xbdb68414	-0.08911911
112	0xbdb04417	-0.08606737
113	0xbbdcfaa4	-0.006743746
114	0xbdbf755c	-0.093485564
115	0xbdd75cee	-0.10515772
116	0x3d8922b9	0.06696076
117	0xbd9d7a34	-0.07689324
118	0x3d5f6376	0.054538213
119	0x3c46a3ff	0.012124061
120	0x3dcabc6c	0.0989922
121	0xbc9feac0	-0.019521117
122	0xbd6e7101	-0.058213238
123	0xbd883fe4	-0.06652811
124	0x3ddbaae8	0.10725957
125	0x3ecae33d	0.39626494
126	0x3df6e960	0.120562315
127	0x3d8b3a90	0.06798279
128	0x3e0c19cb	0.13681714
129	0xbb653d87	-0.00349793
130	0xbe25e674	-0.16201192
131	0xbde6dba6	-0.11272363
132	0x3d39005e	0.045166366
133	0xbda29caf	-0.07940041
134	0x3e0a6a3f	0.13517092
135	0x3dbf42d0	0.09338915
136	0x3dc03d62	0.09386708
137	0xbc89a383	-0.016801601
138	0xbe470f9d	-0.1943955
139	0xbe72a659	-0.23696269
140	0x3cafbd95	0.021452704
141	0xbeb1113d	-0.34583464
142	0x3d41de87	0.04733136
143	0xbc9f6e98	-0.019461915
144	0xbda42c9c	-0.08016321
145	0xbcf0898c	-0.029362462
146	0xbeec10a4	-0.46106446
147	0xbe401b01	-0.18760301
148	0x3d64347b	0.05571411
149	0xbda5c109	-0.08093459
150	0xbdcc622f	-0.099796645
151	0xbdca0f7c	-0.09866235
152	0xbdcdd15e	-0.10049699
153	0xbccacd46	-0.024756085
154	0xbcd622c5	-0.026139626
155	0xbe1b7d74	-0.15184575
156	0xbe0ffa93	-0.1406043
157	0x3e0779a6	0.13229999
158	0xbd9316e6	-0.07182102
159	0xbec86a53	-0.3914362
160	0xbe52a4ad	-0.20570631
161	0xbe116ec7	-0.14202414
162	0x3db8d6ba	0.09025331
163	0x3e40095e	0.18753573
164	0x3dbfe50a	0.093698576
165	0x3da6ba03	0.08140948
166	0xbd6e589a	-0.058189966
167	0xbe44787b	-0.19186585
168	0x3ddb8147	0.10718017
169	0x3de9f3b0	0.11423433
170	0xbddac0bb	-0.10681292
171	0xbd6415ba	-0.055684783
172	0xbc032f35	-0.0080068605
173	0x36a26a4d	4.8403513e-06
174	0x3c73c414	0.014878292
175	0x3de267cf	0.11054956
176	0x3e0d1cb7	0.13780485
177	0xbd531e76	-0.05154272
178	0x3e2c205b	0.16809218
179	0xbdac7411	-0.084205754
180	0x3cfcb9bb	0.030850282
181	0xbcd0717a	-0.025444735
182	0xbd576f08	-0.052596122
183	0xbda83d89	-0.08214862
184	0xbd99de6e	-0.07513128
185	0xbbf7c94d	-0.0075618387
186	0x3d29ae05	0.041425724
187	0x3e0bdf6d	0.13659449
188	0x3dae8937	0.085222654
189	0xbe1ec9e4	-0.15506703
190	0xbcec851e	-0.028872069
191	0x3dba147a	0.09085937
192	0xbdd84d03	-0.10561564
193	0xbd1a8d88	-0.03773263
194	0xbdaf99a2	-0.08574225
195	0xbd833726	-0.06407003
196	0xbb1196c0	-0.0022215098
197	0xbd121614	-0.035665587
198	0xbe0ddce3	-0.13853793
199	0x3d017480	0.031605244
200	0xbdcfc3d8	-0.10144776
201	0x3a765798	0.0009397208
202	0xbd37eb7c	-0.04490231
203	0x3dc61562	0.09672047
204	0x3c97c25f	0.0185253
205	0xbdc43df2	-0.09582128
206	0x3d34f5dc	0.044179782
207	0xbd98de61	-0.074642904
208	0xbceff488	-0.029291406
209	0x3d052fd4	0.032516316
210	0x3ea3dbb2	0.32003552
211	0x3d7509b0	0.05982369
212	0x3d7d6f1c	0.06187354
213	0xbd14aa49	-0.03629521
214	0x3d82f920	0.06395173
215	0xbdbc1996	-0.09184568
216	0x3d1f5e4c	0.038908288
217	0x3d918a74	0.07106486
218	0x3da7f1e0	0.08200431
219	0x3e221c31	0.15831067
220	0xbda64966	-0.081194684
221	0xbd882358	-0.06647366
222	0x3cb699ce	0.022290137
223	0x3de4a6d0	0.111646295
224	0x39975600	0.0002886504
225	0xbcc66ed8	-0.024222776
226	0xbd85f988	-0.06541735
227	0x3ca82620	0.020525992
228	0xbd69bfdb	-0.057067733
229	0x3dcbfee0	0.09960723
230	0xbc4e21c0	-0.012581289
231	0x3e5aabc6	0.21354589
232	0x3c787e20	0.015166789
233	0x3db5016a	0.0883816
234	0x3ded88e9	0.11598379
235	0xbdc61f64	-0.09673956
236	0x3dfac0b2	0.12243785
237	0x3d5e9711	0.054343287
238	0x3d5eefac	0.054427788
239	0xbd710688	-0.05884412
240	0x3db9499a	0.090472415
241	0x3d839104	0.06424144
242	0xbdcd261c	-0.100170344
243	0x3df92fe7	0.1216734
244	0xbdfabb12	-0.12242712
245	0x3b393440	0.0028259903
246	0x3e164112	0.1467326
247	0x3df215b4	0.11820546
248	0x3da68d08	0.08132368
249	0xbb8d9176	-0.004320319
250	0xba856980	-0.0010178536
251	0xbd62b100	-0.05534458
252	0x3c26f38f	0.010189905
253	0xbdc50056	-0.09619205
254	0x3c45e970	0.012079582
255	0x3d4173a4	0.047229424

_transform._transforms.1.autoregressive_net.blocks.1.linear_layers.0.bias f4 [64]
0	0x3cc48303	0.023988253
1	0x3ddfc680	0.10926533
2	0x3c04c51a	0.008103633
3	0xbc9c961e	-0.01911455
4	0xbc9ff8bb	-0.019527784
5	0xbc76856d	-0.01504646
6	0x3ddc8e0e	0.10769282
7	0x3d590fb7	0.052993502
8	0xbd9d9a2a	-0.0769542
9	0x3dd60fe7	0.10452252
10	0xbce91b33	-0.028455352
11	0xbcc9cfb6	-0.024635177
12	0x3b25e778	0.0025314968
13	0xbea456e8	-0.32097554
14	0xbd21a731	-0.039466087
15	0x3cc5f29c	0.024163537
16	0xbdbd2ed0	-0.092374444
17	0xbcd3c975	-0.025852898
18	0x3cc8df4e	0.024520542
19	0xbe642d2e	-0.2228286
20	0x3db78cde	0.08962415
21	0x3d8fc338	0.07019657
22	0xba131aee	-0.0005611618
23	0xbe0b29cc	-0.13590163
24	0x3cd071f8	0.02544497
25	0x3d571ad4	0.05251582
26	0x3dcd6caf	0.100304954
27	0xbc991653	-0.018687403
28	0x3da850d5	0.082185425
29	0x3d590a00	0.052988052
30	0xbd4f0cdc	-0.050549373
31	0x3d4ff5fc	0.0507717
32	0xbd6cefee	-0.057846002
33	0xbd730760	-0.059333205
34	0x3e068dbd	0.13140006
35	0x3d8a7f80	0.067626
36	0xbd5b9460	-0.0536083
37	0x3daad7f1	0.08341969
38	0xbd1dad25	-0.0384952
39	0xbdd618a0	-0.104539156
40	0x3ccc654f	0.024950651
41	0xbdc0ab13	-0.0940763
42	0x3d025eec	0.031828806
43	0xbde9e64c	-0.11420879
44	0x3c078a4e	0.0082727205
45	0xbd312ed0	-0.043257535
46	0x3d1f1c34	0.038845256
47	0x3d8473c7	0.06467395
48	0x3d44d624	0.048055783
49	0xbc023180	-0.007946372
50	0xbdb0074c	-0.08595142
51	0xbd3cc019	-0.046081636
52	0x3d48f1c6	0.049058698
53	0xbd68cf0c	-0.05683808
54	0xb9cc72b0	-0.0003899536
55	0x3e01601e	0.12634322
56	0xbd61ec67	-0.05515709
57	0x3d5dd3fc	0.054157242
58	0x3cc3d2d4	0.023904242
59	0x3df1334f	0.117773645
60	0x3d8352ac	0.06412253
61	0x3cad89e3	0.021183914
62	0xbd614480	-0.054996967
63	0x3d5991b5	0.053117473
