model1/epoch=399modello-N_iter6-N_features64-N_BS10000-epochs1000-lr0.001.pth (torch, 918276 bytes, 108 tensors)

_transform._transforms.1.autoregressive_net.initial_layer.weight f4 [64, 4]
0.103167035 0.46653956 0.33644325 -0.19395024 0.28230655 0.44143203 0.3671404 -0.28206754
0.056088094 -0.29260972 -0.40230507 -0.12346923 0.023298081 -0.27226907 -0.3142919 -0.38424915
-0.44380024 -0.07982869 0.03058678 0.40325922 -0.14998865 -0.40462783 0.0035755576 0.3832006
0.3570387 -0.08299214 -0.023461461 -0.499071 0.52078485 -0.46384755 0.3100791 0.46586663
0.23590384 0.0069111916 0.3789189 0.12398803 -0.20123573 0.42526358 0.35530907 -0.010592878
0.43310678 -0.46252286 0.04660082 0.36604106 -0.3795521 0.033761013 -0.0007863985 -0.067368805
0.12543438 -0.39834815 0.24839818 0.0013640523 -0.07785997 -0.4869534 0.4297945 0.045089543
0.42969236 0.10598333 0.44292006 0.31974173 0.30664116 0.006417036 -0.31862485 -0.049228072
-0.17422315 0.080202885 -0.40347904 -0.23475546 -0.38742265 0.051985025 0.23381543 -0.15469372
-0.297964 0.010945499 -0.40667218 -0.3762042 -0.13828456 -0.10797695 0.16891992 -0.2742929
0.12404836 0.12977235 0.036302626 0.18526119 -0.1810437 0.4520406 -0.04532683 0.42556304
-0.2509613 0.32804862 0.08934045 0.402439 0.2816916 -0.0047447123 -0.15513037 0.38815612
0.043315995 0.26453203 0.13695687 0.40564793 0.13736628 -0.3469482 0.35109454 0.19632429
-0.04824171 0.2360626 -0.19144233 -0.47061008 -0.2221655 0.109108984 0.34878075 0.014443517
-0.26531443 0.11737669 -0.39537197 -0.05469072 0.18694419 0.024911614 -0.06851345 0.13687825
-0.36977634 0.06159258 -0.13292682 0.35042083 0.27904516 -0.30704173 -0.31936127 -0.49646688
-0.31221732 0.076555595 -0.52619535 0.34942394 -0.30649737 0.19708616 -0.30313718 0.19129944
0.13648562 -0.037160274 0.3659472 0.32470894 -0.075844124 0.44917613 0.44791636 -0.064923525
0.55665576 -0.43668842 0.36303324 0.10573667 -0.15373364 0.1012662 0.07838309 0.37475502
0.3937896 -0.34883 0.45680964 -0.31014043 -0.22795554 0.44372374 0.18812382 0.020919919
-0.2112368 0.33846948 -0.4926231 0.11903763 0.022597985 0.4414886 0.26845756 -0.19476372
-0.13616717 0.07532352 -0.00060009956 0.09195858 -0.32198077 -0.24638666 0.22928363 0.089271426
-0.28506467 0.20618734 0.15839864 0.42947453 0.2467507 -0.1585356 -0.43594527 0.09194833
0.4662598 0.3184991 0.05992353 -0.24635303 0.06634628 0.41273904 0.45096382 -0.19538552
0.37217402 -0.32836282 -0.056791127 -0.2230596 -0.39779747 0.21251665 -0.23044705 0.026093483
-0.46505517 0.25218743 0.45556015 0.29904282 -0.1420895 0.3825894 -0.31184828 0.0019493699
0.3053254 0.39571762 0.32133645 -0.13644254 0.2309582 0.17562532 -0.34533235 -0.24536175
-0.19827467 0.37460047 0.31075698 0.41348243 -0.015977908 -0.512129 -0.4520011 0.32260078
0.32589087 0.3012875 0.24076372 0.033255696 0.49364963 -0.2743488 0.11856884 0.042024314
-0.18326113 -0.009668277 0.32974327 0.2097742 -0.24199633 0.38669896 -0.39741242 -0.12694317
0.13094388 0.46574157 0.11042619 0.40279984 0.48346692 -0.44956547 -0.099956214 0.35436642
-0.4090816 0.080828615 0.098393045 -0.4559536 0.4345688 -0.36324447 -0.44794148 -0.3771146
00000000: 3d49 d33d 46de ee3e 4a42 ac3e e49a 46be
00000010: 7c8a 903e 6103 e23e d4f9 bb3e 286b 90be
00000020: a1bc 653d f1d0 95be eefa cdbe 70dd fcbd
00000030: 9edb be3c da66 8bbe deea a0be 4ebc c4be
00000040: c939 e3be 397d a3bd 2091 fa3c fe77 ce3e
00000050: a096 19be 612b cfbe e753 6a3b de32 c43e
00000060: c7cd b63e c8f7 a9bd 4032 c0bc 3c86 ffbe
00000070: 2852 053f 6d7d edbe b0c2 9e3e 1286 ee3e
00000080: c790 713e 4777 e23b a801 c23e 70ed fd3d
00000090: bd10 4ebe 26bc d93e 12eb b53e c08d 2dbc
000000a0: 2cc0 dd3e cccf ecbe 80e0 3e3d bc69 bb3e
000000b0: a754 c2be fd48 0a3d 4f26 4eba a8f8 89bd
000000c0: df71 003e 4af4 cbbe 185c 7e3e 00ca b23a
000000d0: 0c75 9fbd f551 f9be 060e dc3e d0af 383d
000000e0: a300 dc3e ca0d d93d 6bc6 e23e 30b5 a33e
000000f0: 1200 9d3e 0046 d23b cc22 a3be 60a3 49bd
00000100: 8e67 32be 6941 a43d ce94 cebe bc63 70be
00000110: 435c c6be 40ee 543d 506d 6f3e 0868 1ebe
00000120: bd8e 98be c054 333c 5637 d0be d69d c0be
00000130: 789a 0dbe 0523 ddbd 58f9 2c3e 1e70 8cbe
00000140: 110d fe3d 0be3 043e 10b2 143d 1cb5 3d3e
00000150: 8563 39be de71 e73e a0a8 39bd 66e3 d93e
00000160: 007e 80be fdf5 a73e 20f8 b63d 7c0c ce3e
00000170: e239 903e 8879 9bbb 7fda 1ebe 66bc c63e
00000180: 1d6c 313d be70 873e 6c3e 0c3e 16b1 cf3e
00000190: bfa9 0c3e 32a3 b1be aac2 b33e 3c09 493e
000001a0: 1999 45bd 65ba 713e 7509 44be cef3 f0be
000001b0: 5a7f 63be 8874 df3d 6493 b23e 80a4 6c3c
000001c0: 4bd7 87be 3163 f03d 326e cabe 6003 60bd
000001d0: 4c6e 3f3e 7113 cc3c c850 8cbd d029 0c3e
000001e0: 5353 bdbe 8048 7c3d f81d 08be 5c6a b33e
000001f0: 02df 8e3e 9334 9dbe 5283 a3be e830 febe
00000200: f3da 9fbe 2ec9 9c3d bdb4 06bf b2e7 b23e
00000210: 39ed 9cbe f4d0 493e cc34 9bbe 00e4 433e
00000220: e3c2 0b3e 5f35 18bd 6e5d bb3e 4040 a63e
00000230: 2a54 9bbd 6afa e53e 4b55 e53e a0f6 84bd
00000240: fe80 0e3f a095 dfbe 7edf b93e 788c d83d
00000250: 5a6c 1dbe a764 cf3d 5087 a03d e4df bf3e
00000260: ca9e c93e d999 b2be f4e2 e93e baca 9ebe
00000270: 2d6d 69be c22f e33e 88a3 403e 4060 ab3c
00000280: 764e 58be df4b ad3e 1839 fcbe 00ca f33d
00000290: 691f b93c cb0a e23e 4573 893e 2470 47be
000002a0: 686f 0bbe 3843 9a3d 0050 1dba c854 bc3d
000002b0: aada a4be c94c 7cbe 54c9 6a3e f0d3 b63d
000002c0: fff3 91be c622 533e 4133 223e 16e4 db3e
000002d0: 37ac 7c3e 2857 22be 3834 dfbe 684f bc3d
000002e0: 9bb9 ee3e 5012 a33e 6072 753d f843 7cbe
000002f0: 8fe0 873d 8852 d33e bbe4 e63e 2413 48be
00000300: 988d be3e 2c1f a8be d09d 68bd bc69 64be
00000310: 1cac cbbe f79d 593e 50fa 6bbe 00c2 d53c
00000320: b61b eebe b61e 813e 2e3f e93e 241c 993e
00000330: e97f 11be c2e2 c33e 94aa 9fbe 0082 ff3a
00000340: 9c53 9c3e 809b ca3e 3686 a43e 98b7 0bbe
00000350: 4e80 6c3e 20d7 333e 67cf b0be 1c40 7bbe
00000360: 8408 4bbe a2cb bf3e 8a1b 9f3e f8b3 d33e
00000370: 1ae4 82bc e31a 03bf b06c e7be ee2b a53e
00000380: 2bdb a63e 5b42 9a3e c48a 763e 2037 083d
00000390: a5bf fc3e 7277 8cbe 38d4 f23d b021 2c3d
000003a0: cea8 3bbe b167 1ebc 1cd4 a83e 0ccf 563e
000003b0: e3cd 77be 68fd c53e a479 cbbe 64fd 01be
000003c0: 2716 063e ae75 ee3e 2027 e23d c83b ce3e
000003d0: fa88 f73e 722d e6be d8b5 ccbd 846f b53e
000003e0: 2573 d1be 7989 a53d 4b82 c93d c072 e9be
000003f0: cd7f de3e 2efb b9be 9658 e5be 2a15 c1be

_transform._transforms.1.autoregressive_net.initial_layer.bias f4 [64]
0.02011112 -0.1506126 0.37262586 -0.3560487 0.21983387 0.06383622 -0.40382114 0.41044194
-0.01446842 0.20275366 -0.17538302 -0.23628427 -0.23428486 -0.49704212 0.25657693 -0.2446635
-0.19490843 -0.21534397 -0.23862132 -0.17891465 -0.2669534 0.07851248 0.40994826 0.26502043
0.12172558 0.09107774 0.08258085 0.08739755 0.10162264 -0.32325807 -0.11893837 -0.43061435
0.12082142 0.18376273 0.009229512 0.10109608 -0.17917766 0.32015997 -0.09704468 -0.073329926
0.39436978 0.3398411 0.1931455 0.3080981 -0.13468549 0.2720724 -0.3294483 -0.35538724
0.026884094 -0.36533463 -0.033663843 0.18396498 -0.13627674 0.44382888 -0.021408536 -0.016378097
-0.35467458 -0.328715 -0.07375315 -0.14711629 0.2334447 -0.0354111 0.46948895 -0.3925844
00000000: 13c0 a43c 303a 1abe d1c8 be3e 044c b6be
00000010: 211c 613e 90bc 823d a5c1 cebe 7225 d23e
00000020: f40c 6dbc a89e 4f3e 9b97 33be 81f4 71be
00000030: 5fe8 6fbe 4e7c febe 0d5e 833e 1289 7abe
00000040: 1396 47be 2183 5cbe 2659 74be 6735 37be
00000050: 1eae 88be 27cb a03d bde4 d13e c2b0 873e
00000060: 434b f93d f786 ba3d 2620 a93d 7dfd b23d
00000070: 881f d03d 1582 a5be f695 f3bd 7c79 dcbe
00000080: 3871 f73d 4c2c 3c3e 6137 173c 760b cf3d
00000090: 597a 37be 02ec a33e 5cbf c6bd 002e 96bd
000000a0: d6ea c93e a7ff ad3e efc7 453e 09bf 9d3e
000000b0: feea 09be 134d 8b3e 73ad a8be 51f5 b5be
000000c0: 083c dc3c 240d bbbe 19e3 09bd 5161 3c3e
000000d0: 218c 0bbe 8a3d e33e f460 afbc 5c2b 86bc
000000e0: e897 b5be 554d a8be e40b 97bd a7a5 16be
000000f0: 210c 6f3e 3b0b 11bd db60 f03e d300 c9be

_transform._transforms.1.autoregressive_net.initial_layer.mask f4 [64, 4]
1.0 0.0 0.0 0.0 1.0 1.0 0.0 0.0
1.0 1.0 1.0 0.0 1.0 0.0 0.0 0.0
1.0 1.0 0.0 0.0 1.0 1.0 1.0 0.0
1.0 0.0 0.0 0.0 1.0 1.0 0.0 0.0
1.0 1.0 1.0 0.0 1.0 0.0 0.0 0.0
1.0 1.0 0.0 0.0 1.0 1.0 1.0 0.0
1.0 0.0 0.0 0.0 1.0 1.0 0.0 0.0
1.0 1.0 1.0 0.0 1.0 0.0 0.0 0.0
1.0 1.0 0.0 0.0 1.0 1.0 1.0 0.0
1.0 0.0 0.0 0.0 1.0 1.0 0.0 0.0
1.0 1.0 1.0 0.0 1.0 0.0 0.0 0.0
1.0 1.0 0.0 0.0 1.0 1.0 1.0 0.0
1.0 0.0 0.0 0.0 1.0 1.0 0.0 0.0
1.0 1.0 1.0 0.0 1.0 0.0 0.0 0.0
1.0 1.0 0.0 0.0 1.0 1.0 1.0 0.0
1.0 0.0 0.0 0.0 1.0 1.0 0.0 0.0
1.0 1.0 1.0 0.0 1.0 0.0 0.0 0.0
1.0 1.0 0.0 0.0 1.0 1.0 1.0 0.0
1.0 0.0 0.0 0.0 1.0 1.0 0.0 0.0
1.0 1.0 1.0 0.0 1.0 0.0 0.0 0.0
1.0 1.0 0.0 0.0 1.0 1.0 1.0 0.0
1.0 0.0 0.0 0.0 1.0 1.0 0.0 0.0
1.0 1.0 1.0 0.0 1.0 0.0 0.0 0.0
1.0 1.0 0.0 0.0 1.0 1.0 1.0 0.0
1.0 0.0 0.0 0.0 1.0 1.0 0.0 0.0
1.0 1.0 1.0 0.0 1.0 0.0 0.0 0.0
1.0 1.0 0.0 0.0 1.0 1.0 1.0 0.0
1.0 0.0 0.0 0.0 1.0 1.0 0.0 0.0
1.0 1.0 1.0 0.0 1.0 0.0 0.0 0.0
1.0 1.0 0.0 0.0 1.0 1.0 1.0 0.0
1.0 0.0 0.0 0.0 1.0 1.0 0.0 0.0
1.0 1.0 1.0 0.0 1.0 0.0 0.0 0.0
00000000: 0000 803f 0000 0000 0000 0000 0000 0000
00000010: 0000 803f 0000 803f 0000 0000 0000 0000
00000020: 0000 803f 0000 803f 0000 803f 0000 0000
00000030: 0000 803f 0000 0000 0000 0000 0000 0000
00000040: 0000 803f 0000 803f 0000 0000 0000 0000
00000050: 0000 803f 0000 803f 0000 803f 0000 0000
00000060: 0000 803f 0000 0000 0000 0000 0000 0000
00000070: 0000 803f 0000 803f 0000 0000 0000 0000
00000080: 0000 803f 0000 803f 0000 803f 0000 0000
00000090: 0000 803f 0000 0000 0000 0000 0000 0000
000000a0: 0000 803f 0000 803f 0000 0000 0000 0000
000000b0: 0000 803f 0000 803f 0000 803f 0000 0000
000000c0: 0000 803f 0000 0000 0000 0000 0000 0000
000000d0: 0000 803f 0000 803f 0000 0000 0000 0000
000000e0: 0000 803f 0000 803f 0000 803f 0000 0000
000000f0: 0000 803f 0000 0000 0000 0000 0000 0000
00000100: 0000 803f 0000 803f 0000 0000 0000 0000
00000110: 0000 803f 0000 803f 0000 803f 0000 0000
00000120: 0000 803f 0000 0000 0000 0000 0000 0000
00000130: 0000 803f 0000 803f 0000 0000 0000 0000
00000140: 0000 803f 0000 803f 0000 803f 0000 0000
00000150: 0000 803f 0000 0000 0000 0000 0000 0000
00000160: 0000 803f 0000 803f 0000 0000 0000 0000
00000170: 0000 803f 0000 803f 0000 803f 0000 0000
00000180: 0000 803f 0000 0000 0000 0000 0000 0000
00000190: 0000 803f 0000 803f 0000 0000 0000 0000
000001a0: 0000 803f 0000 803f 0000 803f 0000 0000
000001b0: 0000 803f 0000 0000 0000 0000 0000 0000
000001c0: 0000 803f 0000 803f 0000 0000 0000 0000
000001d0: 0000 803f 0000 803f 0000 803f 0000 0000
000001e0: 0000 803f 0000 0000 0000 0000 0000 0000
000001f0: 0000 803f 0000 803f 0000 0000 0000 0000
00000200: 0000 803f 0000 803f 0000 803f 0000 0000
00000210: 0000 803f 0000 0000 0000 0000 0000 0000
00000220: 0000 803f 0000 803f 0000 0000 0000 0000
00000230: 0000 803f 0000 803f 0000 803f 0000 0000
00000240: 0000 803f 0000 0000 0000 0000 0000 0000
00000250: 0000 803f 0000 803f 0000 0000 0000 0000
00000260: 0000 803f 0000 803f 0000 803f 0000 0000
00000270: 0000 803f 0000 0000 0000 0000 0000 0000
00000280: 0000 803f 0000 803f 0000 0000 0000 0000
00000290: 0000 803f 0000 803f 0000 803f 0000 0000
000002a0: 0000 803f 0000 0000 0000 0000 0000 0000
000002b0: 0000 803f 0000 803f 0000 0000 0000 0000
000002c0: 0000 803f 0000 803f 0000 803f 0000 0000
000002d0: 0000 803f 0000 0000 0000 0000 0000 0000
000002e0: 0000 803f 0000 803f 0000 0000 0000 0000
000002f0: 0000 803f 0000 803f 0000 803f 0000 0000
00000300: 0000 803f 0000 0000 0000 0000 0000 0000
00000310: 0000 803f 0000 803f 0000 0000 0000 0000
00000320: 0000 803f 0000 803f 0000 803f 0000 0000
00000330: 0000 803f 0000 0000 0000 0000 0000 0000
00000340: 0000 803f 0000 803f 0000 0000 0000 0000
00000350: 0000 803f 0000 803f 0000 803f 0000 0000
00000360: 0000 803f 0000 0000 0000 0000 0000 0000
00000370: 0000 803f 0000 803f 0000 0000 0000 0000
00000380: 0000 803f 0000 803f 0000 803f 0000 0000
00000390: 0000 803f 0000 0000 0000 0000 0000 0000
000003a0: 0000 803f 0000 803f 0000 0000 0000 0000
000003b0: 0000 803f 0000 803f 0000 803f 0000 0000
000003c0: 0000 803f 0000 0000 0000 0000 0000 0000
000003d0: 0000 803f 0000 803f 0000 0000 0000 0000
000003e0: 0000 803f 0000 803f 0000 803f 0000 0000
000003f0: 0000 803f 0000 0000 0000 0000 0000 0000

_transform._transforms.1.autoregressive_net.blocks.0.linear_layers.0.weight f4 [64, 64]
0.05594776 0.035279527 0.05739723 -0.12497714 0.0021467656 -0.0063815415 0.010209735 -0.03921424
0.095548734 -0.030435093 -0.0054337233 0.016102925 -0.065356255 -0.11248833 0.027169436 -0.06604404
0.004502073 0.076590285 0.6042762 -0.101195544 0.1195502 0.020847578 0.023089454 -0.007539615
0.0991895 -0.08816238 0.10614823 0.09101749 -0.040007055 0.091216624 -0.00083346997 -0.059395432
0.08111635 0.12217024 0.070936084 0.031026155 0.031070288 0.015223384 0.09132205 -0.0027065955
-0.10436927 -0.072170585 0.002537964 -0.11836214 -0.08901782 -0.13444677 -0.05242811 -0.0017301142
-0.0056550372 -0.113980845 0.09589352 0.0014666106 -0.123416275 -0.11011301 0.14363146 -0.07648566
0.0245765 -0.122508734 -0.060817003 0.023453057 0.0888021 0.018000975 0.06491263 0.00375876
-0.14832431 0.024504932 0.08029917 -0.038375482 0.00025404614 -0.015622288 0.042852268 -0.009144105
0.10727744 -0.030876577 -0.05712557 -0.116300315 -0.15727113 -0.062333364 -0.08108528 0.07953891
-0.079136685 0.06416054 -0.63090605 -0.1752613 -0.07924716 -0.08144261 0.09485536 -0.06890662
0.060161453 0.06313105 0.03544058 0.1267568 0.013490219 0.037420824 -0.16633901 -0.38157535
-0.104546994 -0.08587002 -0.0825497 -0.04600449 -0.0047113127 0.046313632 0.09100066 -0.025353342
-0.043977253 -0.10899693 0.00045456088 -0.02753421 0.0082240105 0.14384605 -0.05565091 -0.018118784
0.0073624393 -0.055006534 0.10683349 -0.07019209 -0.13817546 -0.10200952 -0.006031879 -0.03208666
0.077390194 -0.011443076 0.0786336 -0.015806869 0.070063606 0.29364306 0.057361275 -0.09974657
-0.015530005 0.00891356 0.025203258 0.04336995 0.06261072 0.009325196 -0.09794956 -0.12320213
-0.0602549 -0.07925031 -0.040258605 -0.052367546 -0.053653523 0.118910916 -0.10037124 -0.008904127
0.04107128 -0.12689076 -0.015741594 0.11227261 0.10749243 0.095524244 0.019620277 -0.0428654
-0.014411845 0.04170527 -0.020245118 0.035461392 0.113751285 -0.029267028 0.0357534 -0.12127364
-0.08967074 0.050625667 -0.05682828 0.117033 0.05608145 -0.06536454 -0.038774494 -0.033243768
0.014935056 -0.050573528 0.008052598 -0.070721954 -0.10621366 -0.097706296 -0.0061998 0.070738025
-0.011172303 -0.042347938 0.023720564 -0.11933594 0.08923523 0.024804471 -0.010710627 -0.010329282
0.019395854 -0.058101147 -0.12570883 -0.07707406 0.057933286 0.09932542 0.083038926 -0.07197301
0.05462306 -0.031737626 -0.05548367 0.05092798 0.0140174925 -0.025518402 -0.09569138 -0.043314487
0.02572237 -0.006349629 -0.006776914 -0.07340811 -0.008075578 -0.0106077045 -0.008914739 0.027575625
0.08391343 -0.09167947 0.654161 -0.12288362 -0.08583006 0.11884537 -0.053555146 -0.117076635
-0.08194443 -0.03353262 -0.0689311 0.029242346 0.017313033 0.07504313 0.08817752 -0.09476079
-0.019395083 0.02034491 0.035619825 -0.016704157 0.027379803 0.06765309 0.05316238 0.1436573
-0.11360167 0.03687626 0.12686382 -0.11219883 -0.065338716 -0.11460716 0.053710237 0.04090479
-0.08427594 0.07901135 -0.05049847 0.088258855 -0.105924666 0.033270955 0.10985865 0.027237862
-0.12009339 0.035805915 -0.111347556 0.043392166 0.0060172672 -0.124732494 -0.02742277 0.02147747
00000000: 7a29 653d 4481 103d 5c19 6b3d 04f4 ffbd
00000010: c0b0 0c3b 401c d1bb bb46 273c 1c9f 20bd
00000020: 0eaf c33d 0453 f9bc 600d b2bb 48ea 833c
00000030: 80d9 85bd 4860 e6bd 7092 de3c 1942 87bd
00000040: 2086 933b 5edb 9c3d d8b1 1a3f 9c3f cfbd
00000050: bcd6 f43d 8ac8 aa3c 1826 bd3c e00e f7bb
00000060: dd23 cb3d 7a8e b4bd 3e64 d93d 6167 ba3d
00000070: 70de 23bd c8cf ba3d 397d 5aba a048 73bd
00000080: 5420 a63d 6434 fa3d f046 913d 902a fe3c
00000090: 1e87 fe3c 806b 793c 0e07 bb3d 2361 31bb
000000a0: 8ebf d5bd 2cce 93bd f853 263b da67 f2bd
000000b0: fa4e b6bd 6aac 09be dcbe 56bd 00c5 e2ba
000000c0: e44d b9bb ca6e e9bd d263 c43d 493b c03a
000000d0: acc1 fcbd ee82 e1bd 2014 133e 84a4 9cbd
000000e0: a854 c93c dce5 fabd 401b 79bd a020 c03c
000000f0: e0dd b53d c876 933c eaf0 843d 8755 763b
00000100: 54e2 17be 91be c83c e473 a43d 9c2f 1dbd
00000110: 7f31 8539 a0f4 7fbc dc85 2f3d 28d1 15bc
00000120: 46b4 db3d e0f0 fcbc 80fc 69bd dc2e eebd
00000130: af0b 21be 4551 7fbd 0a10 a6bd 4ce5 a23d
00000140: 6a12 a2bd 9a66 833d 0f83 21bf b377 33be
00000150: 564c a2bd 62cb a6bd 8743 c23d ea1e 8dbd
00000160: db6b 763d da4a 813d 242a 113d 89cc 013e
00000170: 1406 5d3c 9446 193d c654 2abe d85d c3be
00000180: bc1c d6bd 9fdc afbd d10f a9bd 346f 3cbd
00000190: 5b61 9abb 5db3 3d3d 8e5e ba3d d0b1 cfbc
000001a0: 7e21 34bd c839 dfbd 2152 ee39 6c8f e1bc
000001b0: 00be 063c 614c 133e 35f2 63bd d86d 94bc
000001c0: 9e40 f13b 884e 61bd 84cb da3d dfc0 8fbd
000001d0: de7d 0dbe 5eea d0bd 12a7 c5bb 4d6d 03bd
000001e0: c07e 9e3d bd7b 3bbc a70a a13d 687d 81bc
000001f0: 827d 8f3d 6258 963e a8f3 6a3d ee47 ccbd
00000200: 9071 7ebc 2e0a 123c 1077 ce3c b0a4 313d
00000210: 0d3a 803d b5c8 183c c799 c8bd 6651 fcbd
00000220: d8cd 76bd fd4d a2bd 35e6 24bd 5a7f 56bd
00000230: ccc3 5bbd 9187 f33d 708f cdbd 9ee2 11bc
00000240: 5c3a 283d a7ef 01be 84f4 80bc 2fef e53d
00000250: fe24 dc3d 37a2 c33d b4ba a03c a193 2fbd
00000260: a91f 6cbc 25d3 2a3d 17d9 a5bc f73f 113d
00000270: 6ff6 e83d 68c1 efbc 2872 123d 505e f8bd
00000280: 4ba5 b7bd dc5c 4f3d c5c4 68bd ffae ef3d
00000290: aab5 653d d8dd 85bd 01d2 1ebd 9e2a 08bd
000002a0: 2ab2 743c 3026 4fbd 0bef 033c acd6 90bd
000002b0: 8c86 d9bd 3d1a c8bd b127 cbbb 19df 903d
000002c0: 090c 37bc 0875 2dbd a151 c23c 6766 f4bd
000002d0: f6c0 b63d bf32 cb3c a07b 2fbc 263c 29bc
000002e0: 0ee4 9e3c 78fb 6dbd d1b9 00be 01d9 9dbd
000002f0: 744b 6d3d 206b cb3d 5010 aa3d 9666 93bd
00000300: 6ebc 5f3d 50ff 01bd d842 63bd dc99 503d
00000310: a0a9 653c f80b d1bc d8f9 c3bd 886a 31bd
00000320: b8b7 d23c 8c10 d0bb e010 debb fe56 96bd
00000330: 6e4f 04bc f0cb 2dbc 200f 12bc 47e6 e13c
00000340: ceda ab3d 72c2 bbbd 1877 273f 68aa fbbd
00000350: acc7 afbd 3465 f33d a45c 5bbd e0c5 efbd
00000360: 7bd2 a7bd 8059 09bd c02b 8dbd a58d ef3c
00000370: 10d4 8d3c 36b0 993d 6a96 b43d f211 c2bd
00000380: 70e2 9ebc 5eaa a63c 18e6 113d 28d7 88bc
00000390: 9c4b e03c b48d 8a3d ccc0 593d e61a 133e
000003a0: fea7 e8bd 900b 173d 97e8 013e 80c8 e5bd
000003b0: 4ed0 85bd 29b7 eabd 44ff 5b3d c88b 273d
000003c0: dd98 acbd b4d0 a13d 7cd7 4ebd 0fc1 b43d
000003d0: 08ef d8bd 2047 083d 92fd e03d f021 df3c
000003e0: 86f3 f5bd 39a9 123d 300a e4bd fcbb 313d
000003f0: 7f2c c53b c073 ffbd b8a5 e0bc 85f1 af3c

_transform._transforms.1.autoregressive_net.blocks.0.linear_layers.0.bias f4 [64]
0.06933944 0.12551218 -0.072383925 0.071092546 0.11607882 -0.093922876 -0.11261822 0.06464555
-0.046234753 -0.02166605 0.078314 0.08825958 0.09560493 0.06642946 0.11397969 0.0587779
0.09089677 -0.09255666 -0.11546259 0.1298127 0.041176327 -0.06774251 0.10544618 -0.042691946
-0.050316446 0.007438074 0.03795095 -0.11681675 0.09316778 0.082002826 -0.05324635 0.006721478
0.024719348 0.031190883 -0.06118384 0.1058771 0.07462682 -0.005966896 0.14265755 0.11433892
-0.018796919 0.09140043 0.08372515 -0.07270765 0.052910358 0.049682215 0.085179 0.07067808
0.028603347 0.1111198 0.09706385 -0.014783874 0.13863017 0.017730296 -0.06311405 -0.08008103
-0.12757643 0.04988419 0.0014274721 0.14856285 -0.015230285 0.13288087 0.05423064 -0.070111886
00000000: d601 8e3d 4486 003e 063e 94bd f898 913d
00000010: bbba ed3d a35a c0bd 62a4 e6bd e364 843d
00000020: a760 3dbd 007d b1bc 1763 a03d 70c1 b43d
00000030: 84cc c33d 2b0c 883d 2f6e e93d 18c1 703d
00000040: 1628 ba3d 598e bdbd a677 ecbd 9fed 043e
00000050: 82a8 283d 96bc 8abd 2bf4 d73d c0dd 2ebd
00000060: 9e18 4ebd 16bb f33b 7572 1b3d 9f3d efbd
00000070: c0ce be3d 19f1 a73d d818 5abd d83f dc3b
00000080: 3b80 ca3c 0684 ff3c e89b 7abd 18d6 d83d
00000090: f2d5 983d f485 c3bb d214 123e 862a ea3d
000000a0: fffb 99bc 2630 bb3d 1778 ab3d c0e7 94bd
000000b0: 88b8 583d 947f 4b3d 5472 ae3d abbf 903d
000000c0: 9151 ea3c c792 e33d 69c9 c63d 1038 72bc
000000d0: 11f5 0d3e 203f 913c f041 81bd 8601 a4bd
000000e0: 65a3 02be 5d53 4c3d 041a bb3a dc20 183e
000000f0: 7288 79bc ec11 083e f320 5e3d d296 8fbd

_transform._transforms.1.autoregressive_net.blocks.0.linear_layers.0.mask f4 [64, 64]
1.0 0.0 0.0 1.0 0.0 0.0 1.0 0.0
0.0 1.0 0.0 0.0 1.0 0.0 0.0 1.0
0.0 0.0 1.0 0.0 0.0 1.0 0.0 0.0
1.0 0.0 0.0 1.0 0.0 0.0 1.0 0.0
0.0 1.0 0.0 0.0 1.0 0.0 0.0 1.0
0.0 0.0 1.0 0.0 0.0 1.0 0.0 0.0
1.0 0.0 0.0 1.0 0.0 0.0 1.0 0.0
0.0 1.0 0.0 0.0 1.0 0.0 0.0 1.0
1.0 1.0 0.0 1.0 1.0 0.0 1.0 1.0
0.0 1.0 1.0 0.0 1.0 1.0 0.0 1.0
1.0 0.0 1.0 1.0 0.0 1.0 1.0 0.0
1.0 1.0 0.0 1.0 1.0 0.0 1.0 1.0
0.0 1.0 1.0 0.0 1.0 1.0 0.0 1.0
1.0 0.0 1.0 1.0 0.0 1.0 1.0 0.0
1.0 1.0 0.0 1.0 1.0 0.0 1.0 1.0
0.0 1.0 1.0 0.0 1.0 1.0 0.0 1.0
1.0 1.0 1.0 1.0 1.0 1.0 1.0 1.0
1.0 1.0 1.0 1.0 1.0 1.0 1.0 1.0
1.0 1.0 1.0 1.0 1.0 1.0 1.0 1.0
1.0 1.0 1.0 1.0 1.0 1.0 1.0 1.0
1.0 1.0 1.0 1.0 1.0 1.0 1.0 1.0
1.0 1.0 1.0 1.0 1.0 1.0 1.0 1.0
1.0 1.0 1.0 1.0 1.0 1.0 1.0 1.0
1.0 1.0 1.0 1.0 1.0 1.0 1.0 1.0
1.0 0.0 0.0 1.0 0.0 0.0 1.0 0.0
0.0 1.0 0.0 0.0 1.0 0.0 0.0 1.0
0.0 0.0 1.0 0.0 0.0 1.0 0.0 0.0
1.0 0.0 0.0 1.0 0.0 0.0 1.0 0.0
0.0 1.0 0.0 0.0 1.0 0.0 0.0 1.0
0.0 0.0 1.0 0.0 0.0 1.0 0.0 0.0
1.0 0.0 0.0 1.0 0.0 0.0 1.0 0.0
0.0 1.0 0.0 0.0 1.0 0.0 0.0 1.0
00000000: 0000 803f 0000 0000 0000 0000 0000 803f
00000010: 0000 0000 0000 0000 0000 803f 0000 0000
00000020: 0000 0000 0000 803f 0000 0000 0000 0000
00000030: 0000 803f 0000 0000 0000 0000 0000 803f
00000040: 0000 0000 0000 0000 0000 803f 0000 0000
00000050: 0000 0000 0000 803f 0000 0000 0000 0000
00000060: 0000 803f 0000 0000 0000 0000 0000 803f
00000070: 0000 0000 0000 0000 0000 803f 0000 0000
00000080: 0000 0000 0000 803f 0000 0000 0000 0000
00000090: 0000 803f 0000 0000 0000 0000 0000 803f
000000a0: 0000 0000 0000 0000 0000 803f 0000 0000
000000b0: 0000 0000 0000 803f 0000 0000 0000 0000
000000c0: 0000 803f 0000 0000 0000 0000 0000 803f
000000d0: 0000 0000 0000 0000 0000 803f 0000 0000
000000e0: 0000 0000 0000 803f 0000 0000 0000 0000
000000f0: 0000 803f 0000 0000 0000 0000 0000 803f
00000100: 0000 803f 0000 803f 0000 0000 0000 803f
00000110: 0000 803f 0000 0000 0000 803f 0000 803f
00000120: 0000 0000 0000 803f 0000 803f 0000 0000
00000130: 0000 803f 0000 803f 0000 0000 0000 803f
00000140: 0000 803f 0000 0000 0000 803f 0000 803f
00000150: 0000 0000 0000 803f 0000 803f 0000 0000
00000160: 0000 803f 0000 803f 0000 0000 0000 803f
00000170: 0000 803f 0000 0000 0000 803f 0000 803f
00000180: 0000 0000 0000 803f 0000 803f 0000 0000
00000190: 0000 803f 0000 803f 0000 0000 0000 803f
000001a0: 0000 803f 0000 0000 0000 803f 0000 803f
000001b0: 0000 0000 0000 803f 0000 803f 0000 0000
000001c0: 0000 803f 0000 803f 0000 0000 0000 803f
000001d0: 0000 803f 0000 0000 0000 803f 0000 803f
000001e0: 0000 0000 0000 803f 0000 803f 0000 0000
000001f0: 0000 803f 0000 803f 0000 0000 0000 803f
00000200: 0000 803f 0000 803f 0000 803f 0000 803f
00000210: 0000 803f 0000 803f 0000 803f 0000 803f
00000220: 0000 803f 0000 803f 0000 803f 0000 803f
00000230: 0000 803f 0000 803f 0000 803f 0000 803f
00000240: 0000 803f 0000 803f 0000 803f 0000 803f
00000250: 0000 803f 0000 803f 0000 803f 0000 803f
00000260: 0000 803f 0000 803f 0000 803f 0000 803f
00000270: 0000 803f 0000 803f 0000 803f 0000 803f
00000280: 0000 803f 0000 803f 0000 803f 0000 803f
00000290: 0000 803f 0000 803f 0000 803f 0000 803f
000002a0: 0000 803f 0000 803f 0000 803f 0000 803f
000002b0: 0000 803f 0000 803f 0000 803f 0000 803f
000002c0: 0000 803f 0000 803f 0000 803f 0000 803f
000002d0: 0000 803f 0000 803f 0000 803f 0000 803f
000002e0: 0000 803f 0000 803f 0000 803f 0000 803f
000002f0: 0000 803f 0000 803f 0000 803f 0000 803f
00000300: 0000 803f 0000 0000 0000 0000 0000 803f
00000310: 0000 0000 0000 0000 0000 803f 0000 0000
00000320: 0000 0000 0000 803f 0000 0000 0000 0000
00000330: 0000 803f 0000 0000 0000 0000 0000 803f
00000340: 0000 0000 0000 0000 0000 803f 0000 0000
00000350: 0000 0000 0000 803f 0000 0000 0000 0000
00000360: 0000 803f 0000 0000 0000 0000 0000 803f
00000370: 0000 0000 0000 0000 0000 803f 0000 0000
00000380: 0000 0000 0000 803f 0000 0000 0000 0000
00000390: 0000 803f 0000 0000 0000 0000 0000 803f
000003a0: 0000 0000 0000 0000 0000 803f 0000 0000
000003b0: 0000 0000 0000 803f 0000 0000 0000 0000
000003c0: 0000 803f 0000 0000 0000 0000 0000 803f
000003d0: 0000 0000 0000 0000 0000 803f 0000 0000
000003e0: 0000 0000 0000 803f 0000 0000 0000 0000
000003f0: 0000 803f 0000 0000 0000 0000 0000 803f

_transform._transforms.1.autoregressive_net.blocks.0.linear_layers.1.weight f4 [64, 64]
0.045860723 0.00041596807 0.00058973616 0.04412456 4.6432022e-05 0.0003377732 -0.00035020316 0.0008283273
2.379191e-05 -8.403731e-05 -0.00048143044 -0.00045896866 0.03139751 -0.0006331412 -0.0006118214 -0.00093606644
-0.0003897994 0.0008398359 5.524123e-05 -0.0001910273 -0.00012417174 -0.0009948086 -0.0006532469 -0.0005346582
-0.0985773 0.00070679665 0.00010427833 0.0051632454 0.00069254247 0.00033735862 0.019006398 -0.00055610394
2.4009825e-05 0.05224255 8.262158e-06 -0.0004905089 0.059603702 -0.00075204816 0.00019129051 0.058308844
6.3030246e-05 -0.0008040588 0.044338442 0.00081663067 -0.00011227763 0.050563764 0.00066897454 -0.0008214374
0.05672171 0.000747075 -0.00040762022 0.07941892 -0.00045913924 -0.0006896718 -0.0035529935 -0.0006918396
-0.0003380002 0.024777304 -0.00075369683 0.00076835434 0.02113539 -0.0005672325 -6.644857e-05 -0.00043738604
0.04159166 0.067958795 -0.00042050364 0.020000933 0.048329756 -0.00072505546 -0.0004423732 0.0409197
-0.00037481333 -0.0008044254 -0.014119163 -0.0007858638 0.032530684 0.02356652 -0.0008566214 0.00072975183
0.030944962 -0.00019148148 0.00024477174 0.08732081 -0.00093992753 0.00030583897 0.045780025 -0.00055294065
-0.0020189905 0.04230824 0.00018250299 0.004950759 0.029221112 0.00018598748 0.0040669627 0.032852914
-0.00050567 0.03725471 0.0008425718 -0.00056947913 0.02723281 0.08190797 -0.00042946913 0.033288002
0.016978312 0.00022536314 0.04293229 -0.0004591911 -0.00080897385 0.030538553 0.075181045 -0.0003519645
0.017464807 0.052235212 0.00080770045 -0.0009544823 0.016596474 0.00019166745 -0.008327713 -0.0009143857
0.00017061581 0.013670874 0.03416584 -0.00025888372 0.00086086016 0.036745645 -0.0006509997 -1.7142297e-06
-0.01681206 -0.0002022054 -0.0037602924 -0.020533977 -0.049154725 -0.001783894 -0.0007420085 -0.043187432
-0.00036323623 0.0008475795 -0.036754947 -0.036679585 -0.017896708 -0.021153571 -0.020931624 0.0007424355
-0.057029728 0.046828184 0.0008886579 -0.03293048 -0.039936945 0.00046022717 -0.028750302 0.00092207344
0.0035246955 -0.044062924 0.010383306 0.0022962585 -0.02329841 -0.053576652 -0.017693652 -0.01961258
0.0057142787 -0.013442169 -0.00068521744 0.0029333094 -0.030139405 -0.022084823 -0.087001644 -0.023040766
-0.0127860755 -0.025691941 -0.018350726 1.8757464e-05 -0.045987833 -0.02313315 -0.014990161 0.04619923
-0.023613604 -0.025434664 0.17826493 -0.028798608 -0.024022467 -0.06816154 -0.00063006673 5.104411e-05
0.0073044887 -0.014719424 -0.05107068 0.21274735 -0.018107936 -0.017564788 -0.014186896 0.00026240147
-0.05442154 -0.00030899324 0.00012871767 -0.063301936 0.00048346331 -0.00036427178 -0.0008624968 -0.00043924226
-0.0005753038 0.00026746668 0.00030729128 -0.00017081917 -0.039948765 0.00055947463 -6.0678605e-05 4.9160484e-05
-0.0004932358 0.000882896 6.690884e-05 -0.00030896295 0.00032066787 0.0004560876 -0.0006553378 0.00039453353
0.111083455 -0.0005823393 -0.00051881996 0.007896874 -0.00039452568 0.0007305468 -0.05171686 -0.00031971504
0.00056238857 -0.06725686 0.00025103678 -9.205938e-05 -0.07561631 -0.00051248836 -0.00068825186 -0.06940466
-0.00082456856 -0.00011255253 -0.051166635 0.00016823424 0.00070519606 -0.0692417 -0.00094560365 0.00020369625
-0.07297081 -9.067929e-05 -0.00035259142 -0.09906617 0.00015433265 -0.00068683864 -0.005135819 -0.00072056917
-0.00057942275 -0.04724439 0.00067978946 0.00075768714 -0.059574593 0.00015656913 0.00026515522 -8.115709e-05
00000000: 74d8 3b3d 4a16 da39 8698 1a3a f4bb 343d
00000010: 01c0 4238 2717 b139 799b b7b9 1b24 593a
00000020: bd94 c737 303d b0b8 8068 fcb9 bba1 f0b9
00000030: ad9a 003d 63f9 25ba a462 20ba 5b62 75ba
00000040: fd5d ccb9 6f28 5c3a d2b2 6738 804e 48b9
00000050: 1934 02b9 3d64 82ba a83e 2bba 4e28 0cba
00000060: e5e2 c9bd 5248 393a 01b0 da38 7130 a93b
00000070: bd8b 353a 82df b039 4eb3 9b3c 81c7 11ba
00000080: b568 c937 49fc 553d b39d 0a37 7f95 00ba
00000090: 0323 743d 1925 45ba 2895 4839 41d5 6e3d
000000a0: 1b2f 8438 79c7 52ba 3a9c 353d 2813 563a
000000b0: 9876 ebb8 f31b 4f3d 1f5e 2f3a bb55 57ba
000000c0: 0655 683d 5bd7 433a dcb5 d5b9 63a6 a23d
000000d0: a0b8 f0b9 17cb 34ba 57d9 68bb 925c 35ba
000000e0: 9e35 b1b9 c6f9 ca3c bd93 45ba 636b 493a
000000f0: 2024 ad3c 54b2 14ba 4e5a 8bb8 f650 e5b9
00000100: 045c 2a3d fb2d 8b3d 0b77 dcb9 ffd8 a33c
00000110: 6cf5 453d a611 3eba 53ee e7b9 6a9b 273d
00000120: 9882 c4b9 13e0 52ba 1054 67bc 6d02 4eba
00000130: e53e 053d 930e c13c e48e 60ba d14c 3f3a
00000140: 4a80 fd3c 6bc8 48b9 b554 8039 41d5 b23d
00000150: 7865 76ba 0359 a039 d683 3b3d 38f3 10ba
00000160: 0a51 04bb 684b 2d3d 465e 3f39 fa39 a23b
00000170: 1d61 ef3c a205 4339 2844 853b c790 063d
00000180: f08e 04ba 6598 183d 09e0 5c3a 1949 15ba
00000190: 5817 df3c 5ebf a73d 5f2a e1b9 0059 083d
000001a0: 1a16 8b3c 754f 6c39 c5d9 2f3d 96bf f0b9
000001b0: 5111 54ba fd2b fa3c 85f8 993d e087 b8b9
000001c0: 5b12 8f3c 97f4 553d dcbb 533a 3936 7aba
000001d0: 54f5 873c 57fa 4839 f670 08bc 63b3 6fba
000001e0: 55e7 3239 cdfb 5f3c 7bf1 0b3d c9ba 87b9
000001f0: 59ab 613a 9a82 163d daa7 2aba 7c14 e6b5
00000200: 72b9 89bc 1907 54b9 3d6f 76bb df36 a8bc
00000210: 7756 49bd 8dd1 e9ba 5983 42ba 4ee5 30bd
00000220: be70 beb9 1930 5e3a 5b8c 16bd 553d 16bd
00000230: 1e9c 92bc 414a adbc cc78 abbc 01a0 423a
00000240: 0198 69bd e9ce 3f3d d2f4 683a 1ce2 06bd
00000250: ec94 23bd a54a f139 c185 ebbc 4db7 713a
00000260: 94fe 663b 537b 34bd be1e 2a3c d37c 163b
00000270: 4fdc bebc 3173 5bbd 47f2 90bc 90aa a0bc
00000280: d83e bb3b 8b3c 5cbc 2aa0 33ba c43c 403b
00000290: eae6 f6bc 3beb b4bc eb2d b2bd fdbf bcbc
000002a0: b07c 51bc e877 d2bc 4354 96bc 5959 9d37
000002b0: bd5d 3cbd bb81 bdbc 4b99 75bc 673b 3d3d
000002c0: 5171 c1bc 5b5c d0bc 158b 363e 0feb ebbc
000002d0: c4ca c4bc 4798 8bbd 102b 25ba 3218 5638
000002e0: 7e5a ef3b bd29 71bc 7d2f 51bd 71da 593e
000002f0: 1857 94bc 08e4 8fbc 2870 68bc ee92 8939
00000300: 1fe9 5ebd 5f00 a2b9 63f8 0639 72a4 81bd
00000310: 5979 fd39 bbfb beb9 2e19 62ba 194a e6b9
00000320: fccf 16ba c53a 8c39 f01b a139 ec1d 33b9
00000330: 51a1 23bd b5a9 123a 2881 7eb8 ab31 4e38
00000340: 7f4c 01ba 2672 673a 6951 8c38 4efc a1b9
00000350: 501f a839 0b1f ef39 faca 2bba 65d9 ce39
00000360: b97f e33d 21a8 18ba 6b01 08ba e461 013c
00000370: 57d8 ceb9 2a82 3f3a 0fd5 53bd 6d9f a7b9
00000380: 426d 133a f7bd 89bd 969d 8339 0110 c1b8
00000390: b9dc 9abd 8358 06ba cd6b 34ba 0824 8ebd
000003a0: dc27 58ba 2e0a ecb8 1b94 51bd 0968 3039
000003b0: e8dc 383a 98ce 8dbd 63e2 77ba 4c97 5539
000003c0: b871 95bd 132b beb8 05dc b8b9 34e3 cabd
000003d0: 5bd4 2139 f60c 34ba 5f4a a8bb 94e4 3cba
000003e0: 67e4 17ba 5583 41bd e633 323a 869f 463a
000003f0: 7d04 74bd b52c 2439 8804 8b39 e232 aab8

_transform._transforms.1.autoregressive_net.blocks.0.linear_layers.1.bias f4 [64]
0.027284697 0.03747055 -0.020519188 -0.021842757 -0.019556088 0.0117618125 0.03364228 0.03135123
-0.007641087 -0.030489454 -0.026372207 0.0112336995 -0.018258339 -0.027207611 -0.0073956717 0.020975552
-0.03310123 0.04249597 -0.039225083 0.031909004 0.02149933 -0.017493222 0.012517517 0.011076553
0.016411917 0.010146141 0.00040492916 0.014733436 -0.01312942 -0.016061727 -0.06684947 0.042984862
0.015756322 0.024571164 -0.041449603 -0.007280845 -0.018095514 -0.03854238 0.008488173 0.0065450743
-0.021419821 -0.017163308 -0.02959178 -0.031293847 0.034640003 0.031790026 -0.0311408 -0.032690227
0.025651714 0.021190949 0.017654937 -0.009982255 -0.010614671 0.008247685 0.019114072 -0.018339861
-0.018687792 0.010707403 0.024010042 0.022623185 -0.02202739 -0.029946178 0.013778876 -0.01363166
00000000: 2884 df3c b87a 193d db17 a8bc 95ef b2bc
00000010: 1734 a0bc 9eb4 403c 7dcc 093d 266a 003d
00000020: 1562 fabb 05c5 f9bc 870a d8bc 8d0d 383c
00000030: 8392 95bc 7fe2 debc 6457 f2bb ecd4 ab3c
00000040: 2895 07bd 4110 2e3d 7baa 20bd 04b3 023d
00000050: 5d1f b03c f24d 8fbc 4616 4d3c 6e7a 353c
00000060: 4972 863c 003c 263c ac4c d439 8264 713c
00000070: c71c 57bc e293 83bc 60e8 88bd e510 303d
00000080: 6713 813c 7749 c93c 0fc7 29bd 2894 eebb
00000090: 0b3d 94bc 9dde 1dbd fa11 0b3c 1078 d63b
000000a0: 9f78 afbc 119a 8cbc 766a f2bc fa2d 00bd
000000b0: ade2 0d3d 4236 023d fe1a ffbc 30e6 05bd
000000c0: 8b23 d23c a498 ad3c 16a1 903c 9d8c 23bc
000000d0: 28e9 2dbc 4c21 073c 1d95 9c3c 7a3d 96bc
000000e0: 2417 99bc 1a6e 2f3c b5b0 c43c 4254 b93c
000000f0: c972 b4bc b051 f5bc cbc0 613c 5357 5fbc

_transform._transforms.1.autoregressive_net.blocks.0.linear_layers.1.mask f4 [64, 64]
1.0 0.0 0.0 1.0 0.0 0.0 1.0 0.0
0.0 1.0 0.0 0.0 1.0 0.0 0.0 1.0
0.0 0.0 1.0 0.0 0.0 1.0 0.0 0.0
1.0 0.0 0.0 1.0 0.0 0.0 1.0 0.0
0.0 1.0 0.0 0.0 1.0 0.0 0.0 1.0
0.0 0.0 1.0 0.0 0.0 1.0 0.0 0.0
1.0 0.0 0.0 1.0 0.0 0.0 1.0 0.0
0.0 1.0 0.0 0.0 1.0 0.0 0.0 1.0
1.0 1.0 0.0 1.0 1.0 0.0 1.0 1.0
0.0 1.0 1.0 0.0 1.0 1.0 0.0 1.0
1.0 0.0 1.0 1.0 0.0 1.0 1.0 0.0
1.0 1.0 0.0 1.0 1.0 0.0 1.0 1.0
0.0 1.0 1.0 0.0 1.0 1.0 0.0 1.0
1.0 0.0 1.0 1.0 0.0 1.0 1.0 0.0
1.0 1.0 0.0 1.0 1.0 0.0 1.0 1.0
0.0 1.0 1.0 0.0 1.0 1.0 0.0 1.0
1.0 1.0 1.0 1.0 1.0 1.0 1.0 1.0
1.0 1.0 1.0 1.0 1.0 1.0 1.0 1.0
1.0 1.0 1.0 1.0 1.0 1.0 1.0 1.0
1.0 1.0 1.0 1.0 1.0 1.0 1.0 1.0
1.0 1.0 1.0 1.0 1.0 1.0 1.0 1.0
1.0 1.0 1.0 1.0 1.0 1.0 1.0 1.0
1.0 1.0 1.0 1.0 1.0 1.0 1.0 1.0
1.0 1.0 1.0 1.0 1.0 1.0 1.0 1.0
1.0 0.0 0.0 1.0 0.0 0.0 1.0 0.0
0.0 1.0 0.0 0.0 1.0 0.0 0.0 1.0
0.0 0.0 1.0 0.0 0.0 1.0 0.0 0.0
1.0 0.0 0.0 1.0 0.0 0.0 1.0 0.0
0.0 1.0 0.0 0.0 1.0 0.0 0.0 1.0
0.0 0.0 1.0 0.0 0.0 1.0 0.0 0.0
1.0 0.0 0.0 1.0 0.0 0.0 1.0 0.0
0.0 1.0 0.0 0.0 1.0 0.0 0.0 1.0
00000000: 0000 803f 0000 0000 0000 0000 0000 803f
00000010: 0000 0000 0000 0000 0000 803f 0000 0000
00000020: 0000 0000 0000 803f 0000 0000 0000 0000
00000030: 0000 803f 0000 0000 0000 0000 0000 803f
00000040: 0000 0000 0000 0000 0000 803f 0000 0000
00000050: 0000 0000 0000 803f 0000 0000 0000 0000
00000060: 0000 803f 0000 0000 0000 0000 0000 803f
00000070: 0000 0000 0000 0000 0000 803f 0000 0000
00000080: 0000 0000 0000 803f 0000 0000 0000 0000
00000090: 0000 803f 0000 0000 0000 0000 0000 803f
000000a0: 0000 0000 0000 0000 0000 803f 0000 0000
000000b0: 0000 0000 0000 803f 0000 0000 0000 0000
000000c0: 0000 803f 0000 0000 0000 0000 0000 803f
000000d0: 0000 0000 0000 0000 0000 803f 0000 0000
000000e0: 0000 0000 0000 803f 0000 0000 0000 0000
000000f0: 0000 803f 0000 0000 0000 0000 0000 803f
00000100: 0000 803f 0000 803f 0000 0000 0000 803f
00000110: 0000 803f 0000 0000 0000 803f 0000 803f
00000120: 0000 0000 0000 803f 0000 803f 0000 0000
00000130: 0000 803f 0000 803f 0000 0000 0000 803f
00000140: 0000 803f 0000 0000 0000 803f 0000 803f
00000150: 0000 0000 0000 803f 0000 803f 0000 0000
00000160: 0000 803f 0000 803f 0000 0000 0000 803f
00000170: 0000 803f 0000 0000 0000 803f 0000 803f
00000180: 0000 0000 0000 803f 0000 803f 0000 0000
00000190: 0000 803f 0000 803f 0000 0000 0000 803f
000001a0: 0000 803f 0000 0000 0000 803f 0000 803f
000001b0: 0000 0000 0000 803f 0000 803f 0000 0000
000001c0: 0000 803f 0000 803f 0000 0000 0000 803f
000001d0: 0000 803f 0000 0000 0000 803f 0000 803f
000001e0: 0000 0000 0000 803f 0000 803f 0000 0000
000001f0: 0000 803f 0000 803f 0000 0000 0000 803f
00000200: 0000 803f 0000 803f 0000 803f 0000 803f
00000210: 0000 803f 0000 803f 0000 803f 0000 803f
00000220: 0000 803f 0000 803f 0000 803f 0000 803f
00000230: 0000 803f 0000 803f 0000 803f 0000 803f
00000240: 0000 803f 0000 803f 0000 803f 0000 803f
00000250: 0000 803f 0000 803f 0000 803f 0000 803f
00000260: 0000 803f 0000 803f 0000 803f 0000 803f
00000270: 0000 803f 0000 803f 0000 803f 0000 803f
00000280: 0000 803f 0000 803f 0000 803f 0000 803f
00000290: 0000 803f 0000 803f 0000 803f 0000 803f
000002a0: 0000 803f 0000 803f 0000 803f 0000 803f
000002b0: 0000 803f 0000 803f 0000 803f 0000 803f
000002c0: 0000 803f 0000 803f 0000 803f 0000 803f
000002d0: 0000 803f 0000 803f 0000 803f 0000 803f
000002e0: 0000 803f 0000 803f 0000 803f 0000 803f
000002f0: 0000 803f 0000 803f 0000 803f 0000 803f
00000300: 0000 803f 0000 0000 0000 0000 0000 803f
00000310: 0000 0000 0000 0000 0000 803f 0000 0000
00000320: 0000 0000 0000 803f 0000 0000 0000 0000
00000330: 0000 803f 0000 0000 0000 0000 0000 803f
00000340: 0000 0000 0000 0000 0000 803f 0000 0000
00000350: 0000 0000 0000 803f 0000 0000 0000 0000
00000360: 0000 803f 0000 0000 0000 0000 0000 803f
00000370: 0000 0000 0000 0000 0000 803f 0000 0000
00000380: 0000 0000 0000 803f 0000 0000 0000 0000
00000390: 0000 803f 0000 0000 0000 0000 0000 803f
000003a0: 0000 0000 0000 0000 0000 803f 0000 0000
000003b0: 0000 0000 0000 803f 0000 0000 0000 0000
000003c0: 0000 803f 0000 0000 0000 0000 0000 803f
000003d0: 0000 0000 0000 0000 0000 803f 0000 0000
000003e0: 0000 0000 0000 803f 0000 0000 0000 0000
000003f0: 0000 803f 0000 0000 0000 0000 0000 803f

_transform._transforms.1.autoregressive_net.blocks.1.linear_layers.0.weight f4 [64, 64]
0.09856794 0.08917634 -0.06415762 -0.0775868 0.11081223 -0.12461485 0.13571166 0.113982245
-0.069530055 -0.037363738 0.029112563 -0.09159756 -0.04460199 -0.028034687 0.118648455 -0.07872662
0.10142493 -0.122155055 0.26259035 0.06125669 0.079536915 -0.03698333 -0.029206693 -0.11187643
0.039082404 0.07253857 0.0004092157 0.13324511 -0.024235576 0.101386026 0.063783444 -0.094376415
-0.02378872 -0.0051545226 0.05427994 -0.109445915 0.045174498 -0.10959737 -0.1127363 0.111578405
0.007204339 0.015323654 0.016839683 0.0007400811 0.019231483 0.07487909 -0.024881423 0.018012539
0.11701131 0.08501582 0.10376459 0.084853485 -0.11493753 0.031123713 -0.054741215 -0.039105713
0.06396282 0.005756025 0.012616783 -0.112103 -0.051547218 -0.037409693 0.04703872 0.14036207
0.12050913 0.008340457 0.10995044 0.046827078 -0.050096244 0.07914573 0.03812142 0.12235204
0.06798373 0.035063002 -0.19668338 0.036737964 -0.11150761 -0.4080212 -0.050560668 0.0066952696
0.058052853 0.060037658 -0.020455629 -0.053814698 0.06335293 0.024086103 -0.066955104 0.1241892
-0.07160346 0.018556356 0.024983779 -0.12328798 -0.07002723 -0.10051596 -0.1548365 -0.4032834
0.10570155 -0.061764162 -0.060025796 -0.0010282993 -0.14604405 0.028856069 0.091261744 -0.07394395
-0.109497495 0.108786926 0.11143412 0.11512544 0.1209819 0.12813963 0.07964469 -0.08911911
-0.086056754 -0.006743746 -0.093485564 -0.10514868 0.0669866 -0.07689324 0.054549396 0.012096267
0.0989922 -0.019470736 -0.058205117 -0.06652811 0.10725277 0.39624384 0.120562315 0.067977615
0.13678719 -0.0035166398 -0.16177244 -0.11272363 0.045189813 -0.07937356 0.13517079 0.09334434
0.09386285 -0.01678448 -0.19501746 -0.23687352 0.021407334 -0.34583464 0.04726937 -0.019477919
-0.08016321 -0.029323261 -0.46098056 -0.18753864 0.05558806 -0.08090979 -0.09982325 -0.09868393
-0.1005139 -0.024717003 -0.026126167 -0.1518183 -0.14032666 0.13227698 -0.071786284 -0.3917368
-0.20550412 -0.14200021 0.09024773 0.18751803 0.09367373 0.081373215 -0.058176532 -0.1918256
0.10715275 0.11420588 -0.10682211 -0.05564803 -0.00795972 -3.1960568e-05 0.014874056 0.11055466
0.1377699 -0.05154272 0.1681137 -0.08420678 0.030842409 -0.025480323 -0.052550368 -0.082109116
-0.07512628 -0.0075682974 0.04148102 0.13662854 0.085185535 -0.15515791 -0.028866423 0.09085555
-0.10562166 -0.03773263 -0.08574225 -0.06407003 -0.0022215098 -0.035665587 -0.13849597 0.031605244
-0.10144776 0.00095389877 -0.04490231 0.09672047 0.0185253 -0.09582128 0.044179782 -0.07464249
-0.029291406 0.032516316 0.31987333 0.05982369 0.06187354 -0.0362971 0.06395173 -0.09184568
0.038908057 0.07106486 0.08200431 0.15830709 -0.081194684 -0.06647366 0.022251094 0.111646295
0.0002886504 -0.024218287 -0.06541735 0.020525992 -0.057092436 0.09960723 -0.012581289 0.21351776
0.015166789 0.0883816 0.11600612 -0.09673956 0.12243785 0.054367296 0.054427788 -0.05884412
0.090458244 0.06424144 -0.100170344 0.1216865 -0.12242712 0.0028259903 0.1467186 0.11820546
0.08132368 -0.004314438 -0.0010178536 -0.05534458 0.010159327 -0.09619205 0.012079582 0.047261685
00000000: fddd c93d 16a2 b63d 1265 83bd d4e5 9ebd
00000010: 86f1 e23d 1236 ffbd fff7 0a3e 866f e93d
00000020: c665 8ebd b80a 19bd 787d ee3c 8097 bbbd
00000030: 94b0 36bd 00a9 e5bc f6fd f23d 6c3b a1bd
00000040: e0b7 cf3d 6e2c fabd 3e72 863e 4ce8 7a3d
00000050: 40e4 a23d d57b 17bd e042 efbc 781f e5bd
00000060: df14 203d 1a8f 943d 008c d639 6871 083e
00000070: b089 c6bc 7aa3 cf3d e5a0 823d 6c48 c1bd
00000080: 90e0 c2bc 45e7 a8bb a454 5e3d 2e25 e0bd
00000090: e508 393d 9674 e0bd 4ae2 e6bd 3883 e43d
000000a0: 6012 ec3b 1010 7b3c 60f3 893c 0002 423a
000000b0: 588b 9d3c 355a 993d 20d4 cbbc 088f 933c
000000c0: a0a3 ef3d c61c ae3d 8882 d43d aac7 ad3d
000000d0: 5e64 ebbd 28f7 fe3c 5338 60bd 502d 20bd
000000e0: f0fe 823d 0a9d bc3b a0b6 4e3c 4296 e5bd
000000f0: 2d23 53bd e83a 19bd acab 403d 13bb 0f3e
00000100: 7ecd f63d 6aa6 083c b22d e13d c0cd 3f3d
00000110: b831 4dbd 2817 a23d 3525 1c3d b593 fa3d
00000120: 0e3b 8b3d 399e 0f3d 5e67 49be 8c7a 163d
00000130: 1a5e e4bd 28e8 d0be b418 4fbd fe63 db3b
00000140: d4c8 6d3d 0cea 753d 9092 a7bc cd6c 5cbd
00000150: 2ebf 813d 3850 c53c c21f 89bd e856 fe3d
00000160: d6a4 92bd 8003 983c c8aa cc3c 697e fcbd
00000170: 706a 8fbd 50db cdbd 768d 1ebe 297b cebe
00000180: 0e7a d83d 6bfc 7cbd 9cdd 75bd 00c8 86ba
00000190: 928c 15be 9063 ec3c 70e7 ba3d ed6f 97bd
000001a0: 3940 e0bd aecb de3d 9237 e43d e3c6 eb3d
000001b0: 5cc5 f73d 0937 033e c11c a33d 1484 b6bd
000001c0: 863e b0bd a4fa dcbb 5c75 bfbd 3158 d7bd
000001d0: 4530 893d 347a 9dbd 306f 5f3d 6c2f 463c
000001e0: 6cbc ca3d 1881 9fbc 7d68 6ebd e43f 88bd
000001f0: 57a7 db3d 79e0 ca3e 60e9 f63d d937 8b3d
00000200: f111 0c3e 6d77 66bb ada7 25be a6db e6bd
00000210: f418 393d 9b8e a2bd 366a 0a3e 512b bf3d
00000220: 2a3b c03d 9b7f 89bc a8b2 47be f98e 72be
00000230: 6f5e af3c 3d11 b1be 879d 413d 2890 9fbc
00000240: 9c2c a4bd 5637 f0bc a505 ecbe 210a 40be
00000250: 4eb0 633d 08b4 a5bd 2270 ccbd cd1a cabd
00000260: 3bda cdbd 507b cabc 8b06 d6bc 4276 1bbe
00000270: cbb1 0fbe 9e73 073e b004 93bd ba91 c8be
00000280: ac6f 52be 8168 11be cdd3 b83d ba04 403e
00000290: 03d8 bf3d 00a7 a63d 844a 6ebd ee6d 44be
000002a0: e772 db3d c6e4 e93d 8dc5 dabd 30ef 63bd
000002b0: 7c69 02bc 660d 06b8 50b2 733c 7b6a e23d
000002c0: 8d13 0d3e 761e 53bd ff25 2c3e 9b74 acbd
000002d0: 38a9 fc3c 1cbc d0bc 0e3f 57bd d328 a8bd
000002e0: cfdb 99bd 7bff f7bb 01e8 293d 5ae8 0b3e
000002f0: c175 ae3d b7e1 1ebe 4779 ecbc 7912 ba3d
00000300: 2b50 d8bd 888d 1abd a299 afbd 2637 83bd
00000310: c096 11bb 1416 12bd e3d1 0dbe 8074 013d
00000320: d8c3 cfbd 100f 7a3a 7ceb 37bd 6215 c63d
00000330: 5fc2 973c f23d c4bd dcf5 343d 29de 98bd
00000340: 88f4 efbc d42f 053d 70c6 a33e b009 753d
00000350: 1c6f 7d3d 45ac 14bd 20f9 823d 9619 bcbd
00000360: 0e5e 1f3d 748a 913d e0f1 a73d 411b 223e
00000370: 6649 a6bd 5823 88bd ed47 b63c d0a6 e43d
00000380: 0056 9739 6e65 c6bc 88f9 85bd 2026 a83c
00000390: c2d9 69bd e0fe cb3d c021 4ebc 66a4 5a3e
000003a0: 207e 783c 6a01 b53d 9e94 ed3d 641f c6bd
000003b0: b2c0 fa3d 3eb0 5e3d acef 5e3d 8806 71bd
000003c0: 2c42 b93d 0491 833d 1c26 cdbd c636 f93d
000003d0: 12bb fabd 4034 393b 673d 163e b415 f23d
000003e0: 088d a63d 2160 8dbb 8069 85ba 00b1 62bd
000003f0: 4e73 263c 5600 c5bd 70e9 453c 7895 413d

_transform._transforms.1.autoregressive_net.blocks.1.linear_layers.0.bias f4 [64]
0.024034074 0.109274186 0.008076633 -0.019093962 -0.01951114 -0.015065373 0.10772611 0.05299808
-0.07695665 0.10453767 -0.028444346 -0.024604056 0.0025001997 -0.32085317 -0.039466087 0.024205036
-0.092374444 -0.025861396 0.024535714 -0.22277094 0.08960439 0.07021547 -0.00056546024 -0.13588537
0.02544497 0.052516192 0.10027672 -0.018724892 0.08219025 0.0529899 -0.050549373 0.050772864
-0.057855405 -0.059315942 0.13140473 0.06760853 -0.053587094 0.083417386 -0.03856972 -0.104539156
0.024972307 -0.09404073 0.031848703 -0.11420879 0.008280484 -0.043222897 0.0388455 0.064677946
0.048070177 -0.007941796 -0.08593446 -0.046064876 0.049054366 -0.056840915 -0.000368819 0.12634192
-0.05505632 0.05419074 0.023906648 0.1177438 0.06413913 0.021190282 -0.054981712 0.053135946
00000000: 1be3 c43c 25cb df3d db53 043c f16a 9cbc
00000010: d4d5 9fbc c1d4 76bc 829f dc3d 8414 593d
00000020: 739b 9dbd d917 d63d 1e04 e9bc 728e c9bc
00000030: 64da 233b de46 a4be 31a7 21bd a449 c63c
00000040: d02e bdbd 47db d3bc 1fff c83c 111e 64be
00000050: 8282 b73d 21cd 8f3d 653b 14ba 8925 0bbe
00000060: f871 d03c 381b 573d e25d cd3d f264 99bc
00000070: 5d53 a83d f00b 593d dc0c 4fbd 35f7 4f3d
00000080: caf9 6cbd 46f5 72bd f68e 063e 5776 8a3d
00000090: 247e 5bbd bcd6 aa3d 48fb 1dbd a018 d6bd
000000a0: b992 cc3c 6d98 c0bd c973 023d 4ce6 e9bd
000000b0: deaa 073c 7e0a 31bd 761c 1f3d df75 843d
000000c0: 3ce5 443d 4f1e 02bc 68fe afbd 86ae 3cbd
000000d0: 3bed 483d 05d2 68bd 0c5e c1b9 c75f 013e
000000e0: bc82 61bd 1cf7 5d3d e0d7 c33c a923 f13d
000000f0: 605b 833d 3e97 ad3c 8134 61bd 14a5 593d

_transform._transforms.1.autoregressive_net.blocks.1.linear_layers.0.mask f4 [64, 64]
1.0 0.0 0.0 1.0 0.0 0.0 1.0 0.0
0.0 1.0 0.0 0.0 1.0 0.0 0.0 1.0
0.0 0.0 1.0 0.0 0.0 1.0 0.0 0.0
1.0 0.0 0.0 1.0 0.0 0.0 1.0 0.0
0.0 1.0 0.0 0.0 1.0 0.0 0.0 1.0
0.0 0.0 1.0 0.0 0.0 1.0 0.0 0.0
1.0 0.0 0.0 1.0 0.0 0.0 1.0 0.0
0.0 1.0 0.0 0.0 1.0 0.0 0.0 1.0
1.0 1.0 0.0 1.0 1.0 0.0 1.0 1.0
0.0 1.0 1.0 0.0 1.0 1.0 0.0 1.0
1.0 0.0 1.0 1.0 0.0 1.0 1.0 0.0
1.0 1.0 0.0 1.0 1.0 0.0 1.0 1.0
0.0 1.0 1.0 0.0 1.0 1.0 0.0 1.0
1.0 0.0 1.0 1.0 0.0 1.0 1.0 0.0
1.0 1.0 0.0 1.0 1.0 0.0 1.0 1.0
0.0 1.0 1.0 0.0 1.0 1.0 0.0 1.0
1.0 1.0 1.0 1.0 1.0 1.0 1.0 1.0
1.0 1.0 1.0 1.0 1.0 1.0 1.0 1.0
1.0 1.0 1.0 1.0 1.0 1.0 1.0 1.0
1.0 1.0 1.0 1.0 1.0 1.0 1.0 1.0
1.0 1.0 1.0 1.0 1.0 1.0 1.0 1.0
1.0 1.0 1.0 1.0 1.0 1.0 1.0 1.0
1.0 1.0 1.0 1.0 1.0 1.0 1.0 1.0
1.0 1.0 1.0 1.0 1.0 1.0 1.0 1.0
1.0 0.0 0.0 1.0 0.0 0.0 1.0 0.0
0.0 1.0 0.0 0.0 1.0 0.0 0.0 1.0
0.0 0.0 1.0 0.0 0.0 1.0 0.0 0.0
1.0 0.0 0.0 1.0 0.0 0.0 1.0 0.0
0.0 1.0 0.0 0.0 1.0 0.0 0.0 1.0
0.0 0.0 1.0 0.0 0.0 1.0 0.0 0.0
1.0 0.0 0.0 1.0 0.0 0.0 1.0 0.0
0.0 1.0 0.0 0.0 1.0 0.0 0.0 1.0
00000000: 0000 803f 0000 0000 0000 0000 0000 803f
00000010: 0000 0000 0000 0000 0000 803f 0000 0000
00000020: 0000 0000 0000 803f 0000 0000 0000 0000
00000030: 0000 803f 0000 0000 0000 0000 0000 803f
00000040: 0000 0000 0000 0000 0000 803f 0000 0000
00000050: 0000 0000 0000 803f 0000 0000 0000 0000
00000060: 0000 803f 0000 0000 0000 0000 0000 803f
00000070: 0000 0000 0000 0000 0000 803f 0000 0000
00000080: 0000 0000 0000 803f 0000 0000 0000 0000
00000090: 0000 803f 0000 0000 0000 0000 0000 803f
000000a0: 0000 0000 0000 0000 0000 803f 0000 0000
000000b0: 0000 0000 0000 803f 0000 0000 0000 0000
000000c0: 0000 803f 0000 0000 0000 0000 0000 803f
000000d0: 0000 0000 0000 0000 0000 803f 0000 0000
000000e0: 0000 0000 0000 803f 0000 0000 0000 0000
000000f0: 0000 803f 0000 0000 0000 0000 0000 803f
00000100: 0000 803f 0000 803f 0000 0000 0000 803f
00000110: 0000 803f 0000 0000 0000 803f 0000 803f
00000120: 0000 0000 0000 803f 0000 803f 0000 0000
00000130: 0000 803f 0000 803f 0000 0000 0000 803f
00000140: 0000 803f 0000 0000 0000 803f 0000 803f
00000150: 0000 0000 0000 803f 0000 803f 0000 0000
00000160: 0000 803f 0000 803f 0000 0000 0000 803f
00000170: 0000 803f 0000 0000 0000 803f 0000 803f
00000180: 0000 0000 0000 803f 0000 803f 0000 0000
00000190: 0000 803f 0000 803f 0000 0000 0000 803f
000001a0: 0000 803f 0000 0000 0000 803f 0000 803f
000001b0: 0000 0000 0000 803f 0000 803f 0000 0000
000001c0: 0000 803f 0000 803f 0000 0000 0000 803f
000001d0: 0000 803f 0000 0000 0000 803f 0000 803f
000001e0: 0000 0000 0000 803f 0000 803f 0000 0000
000001f0: 0000 803f 0000 803f 0000 0000 0000 803f
00000200: 0000 803f 0000 803f 0000 803f 0000 803f
00000210: 0000 803f 0000 803f 0000 803f 0000 803f
00000220: 0000 803f 0000 803f 0000 803f 0000 803f
00000230: 0000 803f 0000 803f 0000 803f 0000 803f
00000240: 0000 803f 0000 803f 0000 803f 0000 803f
00000250: 0000 803f 0000 803f 0000 803f 0000 803f
00000260: 0000 803f 0000 803f 0000 803f 0000 803f
00000270: 0000 803f 0000 803f 0000 803f 0000 803f
00000280: 0000 803f 0000 803f 0000 803f 0000 803f
00000290: 0000 803f 0000 803f 0000 803f 0000 803f
000002a0: 0000 803f 0000 803f 0000 803f 0000 803f
000002b0: 0000 803f 0000 803f 0000 803f 0000 803f
000002c0: 0000 803f 0000 803f 0000 803f 0000 803f
000002d0: 0000 803f 0000 803f 0000 803f 0000 803f
000002e0: 0000 803f 0000 803f 0000 803f 0000 803f
000002f0: 0000 803f 0000 803f 0000 803f 0000 803f
00000300: 0000 803f 0000 0000 0000 0000 0000 803f
00000310: 0000 0000 0000 0000 0000 803f 0000 0000
00000320: 0000 0000 0000 803f 0000 0000 0000 0000
00000330: 0000 803f 0000 0000 0000 0000 0000 803f
00000340: 0000 0000 0000 0000 0000 803f 0000 0000
00000350: 0000 0000 0000 803f 0000 0000 0000 0000
00000360: 0000 803f 0000 0000 0000 0000 0000 803f
00000370: 0000 0000 0000 0000 0000 803f 0000 0000
00000380: 0000 0000 0000 803f 0000 0000 0000 0000
00000390: 0000 803f 0000 0000 0000 0000 0000 803f
000003a0: 0000 0000 0000 0000 0000 803f 0000 0000
000003b0: 0000 0000 0000 803f 0000 0000 0000 0000
000003c0: 0000 803f 0000 0000 0000 0000 0000 803f
000003d0: 0000 0000 0000 0000 0000 803f 0000 0000
000003e0: 0000 0000 0000 803f 0000 0000 0000 0000
000003f0: 0000 803f 0000 0000 0000 0000 0000 803f
