model1/epoch=699modello-N_iter6-N_features64-N_BS10000-epochs1000-lr0.001.pth (torch, 918276 bytes, 108 tensors)

_transform._transforms.1.autoregressive_net.initial_layer.weight f4 [64, 4]
0	0x3dd3461d	0.103161074
1	0x3eeede46	0.46653956
2	0x3eac424a	0.33644325
3	0xbe469ae4	-0.19395024
4	0x3e908692	0.2822767
5	0x3ee207f0	0.4414668
6	0x3ebbf9d4	0.3671404
7	0xbe906b28	-0.28206754
8	0x3d65df7e	0.056121342
9	0xbe95cfec	-0.29260194
10	0xbece12b6	-0.4024865
11	0xbdfcdd70	-0.12346923
12	0x3cbf908c	0.023384355
13	0xbe8b66da	-0.27226907
14	0xbea0eade	-0.3142919
15	0xbec4bc4e	-0.38424915
16	0xbee33970	-0.4437976
17	0xbda378c3	-0.07982018
18	0x3cfa9120	0.03058678
19	0x3ece77fe	0.40325922
20	0xbe19a24e	-0.1500332
21	0xbecf3aee	-0.40474647
22	0x3b67b2b5	0.003535432
23	0x3ec432de	0.3832006
24	0x3eb6cd3c	0.35703456
25	0xbda9f7c8	-0.08299214
26	0xbcc03240	-0.023461461
27	0xbeff863c	-0.499071
28	0x3f0552e5	0.5207961
29	0xbeed7e37	-0.46385357
30	0x3e9ec2b0	0.3100791
31	0x3eee8612	0.46586663
32	0x3e719437	0.23591696
33	0x3be4bc0f	0.006980426
34	0x3ec21ced	0.37912694
35	0x3dfded70	0.12398803
36	0xbe4e24ba	-0.20131198
37	0x3ed9bc26	0.42526358
38	0x3eb5eb12	0.35530907
39	0xbc2d8dc0	-0.010592878
40	0x3eddd757	0.43328354
41	0xbeecc874	-0.46246684
42	0x3d3ee080	0.04660082
43	0x3ebb69bc	0.36604106
44	0xbec24b2f	-0.37947986
45	0x3d0b2ea9	0.033980045
46	0xba10e63a	-0.00055274705
47	0xbd89f8a8	-0.067368805
48	0x3e0075e8	0.12544978
49	0xbecbf44a	-0.39834815
50	0x3e7e5c18	0.24839818
51	0x3ab2ca00	0.0013640523
52	0xbd9e29c2	-0.077228084
53	0xbef90dce	-0.48643345
54	0x3edc0e06	0.4297945
55	0x3d38afd0	0.045089543
56	0x3edbe09c	0.429448
57	0x3dd8c8d0	0.10585177
58	0x3ee2e290	0.44313478
59	0x3ea3b530	0.31974173
60	0x3e9d0f5c	0.3067578
61	0x3bd24600	0.006417036
62	0xbea322cc	-0.31862485
63	0xbd49a360	-0.049228072
64	0xbe32642b	-0.17421024
65	0x3da43e34	0.08019677
66	0xbece94ce	-0.40347904
67	0xbe7063bc	-0.23475546
68	0xbec655fa	-0.3873747
69	0x3d54f896	0.051994883
70	0x3e6fa765	0.234037
71	0xbe1e6808	-0.15469372
72	0xbe98928f	-0.29799315
73	0x3c3354c0	0.010945499
74	0xbed03756	-0.40667218
75	0xbec09dd6	-0.3762042
76	0xbe0d940e	-0.1382601
77	0xbddce91c	-0.107866496
78	0x3e2cf958	0.16891992
79	0xbe8c701e	-0.2742929
80	0x3dfe7d86	0.124262854
81	0x3e0536a3	0.13009124
82	0x3d151224	0.036394253
83	0x3e3db51c	0.18526119
84	0xbe396c2d	-0.18107672
85	0x3ee771de	0.4520406
86	0xbd39a8a0	-0.04532683
87	0x3ed9e366	0.42556304
88	0xbe807a4f	-0.25093314
89	0x3ea7fa56	0.3280818
90	0x3db6f820	0.08934045
91	0x3ece0c7c	0.402439
92	0x3e903c67	0.28171083
93	0xbb9e55f3	-0.0048320233
94	0xbe1ef160	-0.15521765
95	0x3ec6bc66	0.38815612
96	0x3d31c977	0.043405022
97	0x3e8770be	0.26453203
98	0x3e0c3e6c	0.13695687
99	0x3ecfb116	0.40564793
100	0x3e0cb8ca	0.13742366
101	0xbeb19b2f	-0.34688708
102	0x3eb3c2aa	0.35109454
103	0x3e49093c	0.19632429
104	0xbd45849e	-0.048222177
105	0x3e71b7b5	0.23605235
106	0xbe43e623	-0.19130759
107	0xbef0f3ce	-0.47061008
108	0xbe638a2c	-0.22220677
109	0x3ddf7488	0.109108984
110	0x3eb29364	0.34878075
111	0x3c6ca480	0.014443517
112	0xbe87d424	-0.26529038
113	0x3df07d5b	0.1174266
114	0xbeca6e32	-0.39537197
115	0xbd600360	-0.05469072
116	0x3e3f5ea2	0.18688443
117	0x3cca9d91	0.024733337
118	0xbd8c9e8b	-0.06866177
119	0x3e0c29d0	0.13687825
120	0xbebd5adf	-0.36983392
121	0x3d7c4880	0.06159258
122	0xbe081df8	-0.13292682
123	0x3eb36a5c	0.35042083
124	0x3e8ed3fa	0.278961
125	0xbe9d3c3f	-0.30710027
126	0xbea38352	-0.31936127
127	0xbefe30e8	-0.49646688
128	0xbe9fdbf0	-0.31222486
129	0x3d9cc822	0.0765536
130	0xbf06bf28	-0.5263543
131	0x3eb2e7b2	0.34942394
132	0xbe9cf3d4	-0.30654776
133	0x3e49d0f4	0.19708616
134	0xbe9b34cc	-0.30313718
135	0x3e43e400	0.19129944
136	0x3e0bd175	0.1365412
137	0xbd182eb4	-0.037153915
138	0x3ebb5d6e	0.3659472
139	0x3ea64040	0.32470894
140	0xbd9b77cc	-0.07591209
141	0x3ee60771	0.44927552
142	0x3ee578a3	0.448186
143	0xbd84f6a0	-0.064923525
144	0x3f0e877b	0.55675477
145	0xbedf95a0	-0.43668842
146	0x3eb9df7e	0.36303324
147	0x3dd88c78	0.10573667
148	0xbe1d56b6	-0.15365109
149	0x3dcf89ad	0.101336814
150	0x3da08750	0.07838309
151	0x3ebfdfe4	0.37475502
152	0x3ec9b982	0.39399344
153	0xbeb270ef	-0.34851786
154	0x3ee9f368	0.45693517
155	0xbe9ecaba	-0.31014043
156	0xbe697f1c	-0.22802395
157	0x3ee32fc2	0.44372374
158	0x3e40a388	0.18812382
159	0x3cab6040	0.020919919
160	0xbe584c26	-0.21122798
161	0x3ead4456	0.338412
162	0xbefc3918	-0.4926231
163	0x3df3ca00	0.11903763
164	0x3cb931a5	0.02260668
165	0x3ee2129e	0.4415483
166	0x3e897ce5	0.268531
167	0xbe477024	-0.19476372
168	0xbe0b46f0	-0.1360128
169	0x3d9a4338	0.07532352
170	0xba1d5000	-0.00060009956
171	0x3dbc54c8	0.09195858
172	0xbea4d202	-0.32191473
173	0xbe7c4d13	-0.24638776
174	0x3e6ac954	0.22928363
175	0x3db6d3f0	0.089271426
176	0xbe91fb58	-0.28512073
177	0x3e535292	0.20636967
178	0x3e223a7a	0.1584262
179	0x3edbe416	0.42947453
180	0x3e7cc161	0.24683143
181	0xbe225728	-0.1585356
182	0xbedf3438	-0.43594527
183	0x3dbc4f68	0.09194833
184	0x3eeebac0	0.46626854
185	0x3ea31abf	0.31856343
186	0x3d757260	0.05992353
187	0xbe7c43f8	-0.24635303
188	0x3d87d591	0.066325314
189	0x3ed34ecb	0.41271052
190	0x3ee6dbec	0.45089662
191	0xbe481324	-0.19538552
192	0x3ebe8f1b	0.37218556
193	0xbea81f2c	-0.32836282
194	0xbd689dd0	-0.056791127
195	0xbe6469bc	-0.2230596
196	0xbecbab65	-0.397792
197	0x3e59963f	0.2124872
198	0xbe6bfa50	-0.23044705
199	0x3cd5c200	0.026093483
200	0xbeee24dc	-0.46512496
201	0x3e811502	0.2521134
202	0x3ee93c59	0.45553854
203	0x3e991c24	0.29904282
204	0xbe115a86	-0.14194688
205	0x3ec3e2c2	0.3825894
206	0xbe9faa94	-0.31184828
207	0x3aff8200	0.0019493699
208	0x3e9c5790	0.30535555
209	0x3eca9e14	0.3957373
210	0x3ea48636	0.32133645
211	0xbe0bb798	-0.13644254
212	0x3e6c63a1	0.2308488
213	0x3e33ad21	0.17546512
214	0xbeb0d8b7	-0.3454034
215	0xbe7b401c	-0.24536175
216	0xbe4b14b7	-0.19832121
217	0x3ebfcba2	0.37460047
218	0x3e9f1b8a	0.31075698
219	0x3ed3b3f8	0.41348243
220	0xbc82efe5	-0.015983531
221	0xbf0315f3	-0.51205367
222	0xbee76cb0	-0.4520011
223	0x3ea52bee	0.32260078
224	0x3ea6d662	0.32585436
225	0x3e9a40d6	0.3012759
226	0x3e768357	0.2407354
227	0x3d083720	0.033255696
228	0x3efcb47d	0.49356452
229	0xbe8c7772	-0.2743488
230	0x3df2d438	0.11856884
231	0x3d2c21b0	0.042024314
232	0xbe3bc14d	-0.18335457
233	0xbc1d6a6f	-0.009607895
234	0x3ea8d41c	0.32974327
235	0x3e56cf0c	0.2097742
236	0xbe77b891	-0.241915
237	0x3ec608ab	0.38678488
238	0xbecb61ca	-0.39723045
239	0xbe01fd64	-0.12694317
240	0x3e063a4a	0.13108173
241	0x3eee75ae	0.46574157
242	0x3de22720	0.11042619
243	0x3ece3bc8	0.40279984
244	0x3ef789cc	0.48347318
245	0xbee652c7	-0.4498503
246	0xbdccb5d8	-0.099956214
247	0x3eb56f84	0.35436642
248	0xbed184f7	-0.40921757
249	0x3da56b88	0.080771506
250	0x3dc97916	0.098375484
251	0xbee972c0	-0.4559536
252	0x3ede8ad8	0.43465304
253	0xbeb9fb2e	-0.36324447
254	0xbee55896	-0.44794148
255	0xbec1152a	-0.3771146

_transform._transforms.1.autoregressive_net.initial_layer.bias f4 [64]
0	0x3ca4e3f7	0.020128233
1	0xbe1a457f	-0.15065573
2	0x3ebec9cc	0.37263334
3	0xbeb64377	-0.35598347
4	0x3e611a17	0.21982609
5	0x3d82657a	0.06367011
6	0xbeced02a	-0.40393192
7	0x3ed2277c	0.4104575
8	0xbc6c4bb4	-0.014422346
9	0x3e4f9b4f	0.2027409
10	0xbe337b4f	-0.17527507
11	0xbe7216c7	-0.23641501
12	0xbe7009c5	-0.23441227
13	0xbefed036	-0.49768227
14	0x3e835cd1	0.2565675
15	0xbe7a870f	-0.24465583
16	0xbe4794aa	-0.19490305
17	0xbe5c73c5	-0.21528538
18	0xbe7477f0	-0.23873878
19	0xbe374c30	-0.17900157
20	0xbe88a244	-0.266863
21	0x3da0d12f	0.078523986
22	0x3ed1e7e6	0.40997237
23	0x3e87b096	0.26501912
24	0x3df92147	0.1216455
25	0x3dba8f3a	0.091093495
26	0x3da91cd5	0.082574524
27	0x3db2d28b	0.08731564
28	0x3dd05701	0.10172845
29	0xbea58a64	-0.32332146
30	0xbdf3aeff	-0.11898612
31	0xbedc8412	-0.43069512
32	0x3df78109	0.120851584
33	0x3e3c219c	0.18372196
34	0x3c169a4e	0.009192063
35	0x3dcf81a3	0.10132148
36	0xbe375a61	-0.1790557
37	0x3ea3ee9a	0.32017976
38	0xbdc64682	-0.09681417
39	0xbd963e30	-0.0733608
40	0x3ec9eb6d	0.39437428
41	0x3eadec6e	0.33969444
42	0x3e45d116	0.19318041
43	0x3e9dc553	0.3081461
44	0xbe09bb27	-0.13450299
45	0x3e8b5164	0.27210534
46	0xbea8ad73	-0.3294483
47	0xbeb60eae	-0.35558075
48	0x3cdc2e4e	0.026877549
49	0xbebb0d8a	-0.36533767
50	0xbd0a15a9	-0.033712063
51	0x3e3c5b53	0.18394212
52	0xbe0b7715	-0.13619645
53	0x3ee32eb0	0.44371557
54	0xbcb00df1	-0.021491023
55	0xbc866679	-0.016406285
56	0xbeb59f1a	-0.35472947
57	0xbea83880	-0.32855606
58	0xbd9704ca	-0.0737396
59	0xbe16a26b	-0.14710395
60	0x3e6f26c1	0.23354627
61	0xbd106d61	-0.03526056
62	0x3ef067b9	0.46954134
63	0xbec8f3c0	-0.39248466

_transform._transforms.1.autoregressive_net.initial_layer.mask f4 [64, 4]
0	0x3f800000	1.0
1	0x00000000	0.0
2	0x00000000	0.0
3	0x00000000	0.0
4	0x3f800000	1.0
5	0x3f800000	1.0
6	0x00000000	0.0
7	0x00000000	0.0
8	0x3f800000	1.0
9	0x3f800000	1.0
10	0x3f800000	1.0
11	0x00000000	0.0
12	0x3f800000	1.0
13	0x00000000	0.0
14	0x00000000	0.0
15	0x00000000	0.0
16	0x3f800000	1.0
17	0x3f800000	1.0
18	0x00000000	0.0
19	0x00000000	0.0
20	0x3f800000	1.0
21	0x3f800000	1.0
22	0x3f800000	1.0
23	0x00000000	0.0
24	0x3f800000	1.0
25	0x00000000	0.0
26	0x00000000	0.0
27	0x00000000	0.0
28	0x3f800000	1.0
29	0x3f800000	1.0
30	0x00000000	0.0
31	0x00000000	0.0
32	0x3f800000	1.0
33	0x3f800000	1.0
34	0x3f800000	1.0
35	0x00000000	0.0
36	0x3f800000	1.0
37	0x00000000	0.0
38	0x00000000	0.0
39	0x00000000	0.0
40	0x3f800000	1.0
41	0x3f800000	1.0
42	0x00000000	0.0
43	0x00000000	0.0
44	0x3f800000	1.0
45	0x3f800000	1.0
46	0x3f800000	1.0
47	0x00000000	0.0
48	0x3f800000	1.0
49	0x00000000	0.0
50	0x00000000	0.0
51	0x00000000	0.0
52	0x3f800000	1.0
53	0x3f800000	1.0
54	0x00000000	0.0
55	0x00000000	0.0
56	0x3f800000	1.0
57	0x3f800000	1.0
58	0x3f800000	1.0
59	0x00000000	0.0
60	0x3f800000	1.0
61	0x00000000	0.0
62	0x00000000	0.0
63	0x00000000	0.0
64	0x3f800000	1.0
65	0x3f800000	1.0
66	0x00000000	0.0
67	0x00000000	0.0
68	0x3f800000	1.0
69	0x3f800000	1.0
70	0x3f800000	1.0
71	0x00000000	0.0
72	0x3f800000	1.0
73	0x00000000	0.0
74	0x00000000	0.0
75	0x00000000	0.0
76	0x3f800000	1.0
77	0x3f800000	1.0
78	0x00000000	0.0
79	0x00000000	0.0
80	0x3f800000	1.0
81	0x3f800000	1.0
82	0x3f800000	1.0
83	0x00000000	0.0
84	0x3f800000	1.0
85	0x00000000	0.0
86	0x00000000	0.0
87	0x00000000	0.0
88	0x3f800000	1.0
89	0x3f800000	1.0
90	0x00000000	0.0
91	0x00000000	0.0
92	0x3f800000	1.0
93	0x3f800000	1.0
94	0x3f800000	1.0
95	0x00000000	0.0
96	0x3f800000	1.0
97	0x00000000	0.0
98	0x00000000	0.0
99	0x00000000	0.0
100	0x3f800000	1.0
101	0x3f800000	1.0
102	0x00000000	0.0
103	0x00000000	0.0
104	0x3f800000	1.0
105	0x3f800000	1.0
106	0x3f800000	1.0
107	0x00000000	0.0
108	0x3f800000	1.0
109	0x00000000	0.0
110	0x00000000	0.0
111	0x00000000	0.0
112	0x3f800000	1.0
113	0x3f800000	1.0
114	0x00000000	0.0
115	0x00000000	0.0
116	0x3f800000	1.0
117	0x3f800000	1.0
118	0x3f800000	1.0
119	0x00000000	0.0
120	0x3f800000	1.0
121	0x00000000	0.0
122	0x00000000	0.0
123	0x00000000	0.0
124	0x3f800000	1.0
125	0x3f800000	1.0
126	0x00000000	0.0
127	0x00000000	0.0
128	0x3f800000	1.0
129	0x3f800000	1.0
130	0x3f800000	1.0
131	0x00000000	0.0
132	0x3f800000	1.0
133	0x00000000	0.0
134	0x00000000	0.0
135	0x00000000	0.0
136	0x3f800000	1.0
137	0x3f800000	1.0
138	0x00000000	0.0
139	0x00000000	0.0
140	0x3f800000	1.0
141	0x3f800000	1.0
142	0x3f800000	1.0
143	0x00000000	0.0
144	0x3f800000	1.0
145	0x00000000	0.0
146	0x00000000	0.0
147	0x00000000	0.0
148	0x3f800000	1.0
149	0x3f800000	1.0
150	0x00000000	0.0
151	0x00000000	0.0
152	0x3f800000	1.0
153	0x3f800000	1.0
154	0x3f800000	1.0
155	0x00000000	0.0
156	0x3f800000	1.0
157	0x00000000	0.0
158	0x00000000	0.0
159	0x00000000	0.0
160	0x3f800000	1.0
161	0x3f800000	1.0
162	0x00000000	0.0
163	0x00000000	0.0
164	0x3f800000	1.0
165	0x3f800000	1.0
166	0x3f800000	1.0
167	0x00000000	0.0
168	0x3f800000	1.0
169	0x00000000	0.0
170	0x00000000	0.0
171	0x00000000	0.0
172	0x3f800000	1.0
173	0x3f800000	1.0
174	0x00000000	0.0
175	0x00000000	0.0
176	0x3f800000	1.0
177	0x3f800000	1.0
178	0x3f800000	1.0
179	0x00000000	0.0
180	0x3f800000	1.0
181	0x00000000	0.0
182	0x00000000	0.0
183	0x00000000	0.0
184	0x3f800000	1.0
185	0x3f800000	1.0
186	0x00000000	0.0
187	0x00000000	0.0
188	0x3f800000	1.0
189	0x3f800000	1.0
190	0x3f800000	1.0
191	0x00000000	0.0
192	0x3f800000	1.0
193	0x00000000	0.0
194	0x00000000	0.0
195	0x00000000	0.0
196	0x3f800000	1.0
197	0x3f800000	1.0
198	0x00000000	0.0
199	0x00000000	0.0
200	0x3f800000	1.0
201	0x3f800000	1.0
202	0x3f800000	1.0
203	0x00000000	0.0
204	0x3f800000	1.0
205	0x00000000	0.0
206	0x00000000	0.0
207	0x00000000	0.0
208	0x3f800000	1.0
209	0x3f800000	1.0
210	0x00000000	0.0
211	0x00000000	0.0
212	0x3f800000	1.0
213	0x3f800000	1.0
214	0x3f800000	1.0
215	0x00000000	0.0
216	0x3f800000	1.0
217	0x00000000	0.0
218	0x00000000	0.0
219	0x00000000	0.0
220	0x3f800000	1.0
221	0x3f800000	1.0
222	0x00000000	0.0
223	0x00000000	0.0
224	0x3f800000	1.0
225	0x3f800000	1.0
226	0x3f800000	1.0
227	0x00000000	0.0
228	0x3f800000	1.0
229	0x00000000	0.0
230	0x00000000	0.0
231	0x00000000	0.0
232	0x3f800000	1.0
233	0x3f800000	1.0
234	0x00000000	0.0
235	0x00000000	0.0
236	0x3f800000	1.0
237	0x3f800000	1.0
238	0x3f800000	1.0
239	0x00000000	0.0
240	0x3f800000	1.0
241	0x00000000	0.0
242	0x00000000	0.0
243	0x00000000	0.0
244	0x3f800000	1.0
245	0x3f800000	1.0
246	0x00000000	0.0
247	0x00000000	0.0
248	0x3f800000	1.0
249	0x3f800000	1.0
250	0x3f800000	1.0
251	0x00000000	0.0
252	0x3f800000	1.0
253	0x00000000	0.0
254	0x00000000	0.0
255	0x00000000	0.0

_transform._transforms.1.autoregressive_net.blocks.0.linear_layers.0.weight f4 [64, 64]
0	0x3d6570e3	0.05601586
1	0x3d108144	0.035279527
2	0x3d6b195c	0.05739723
3	0xbdfff404	-0.12497714
4	0x3b0cb0c0	0.0021467656
5	0xbbd11c40	-0.0063815415
6	0x3c23d9ac	0.0100006275
7	0xbd209f1c	-0.03921424
8	0x3dc3af0e	0.095548734
9	0xbcf96513	-0.030443704
10	0xbbb20d60	-0.0054337233
11	0x3c83ea48	0.016102925
12	0xbd85d980	-0.065356255
13	0xbde66048	-0.11248833
14	0x3cde9270	0.027169436
15	0xbd87b110	-0.06625569
16	0x3b938620	0.004502073
17	0x3d9cdb5e	0.076590285
18	0x3f1aeb09	0.60514885
19	0xbdcf3f9c	-0.101195544
20	0x3df4d6bc	0.1195502
21	0x3caaddf3	0.020857787
22	0x3cbd2618	0.023089454
23	0xbbf70ee0	-0.007539615
24	0x3dcb0759	0.09913511
25	0xbdb48e7a	-0.08816238
26	0x3dd9643e	0.10614823
27	0x3dba6d45	0.09102873
28	0xbd23de70	-0.040007055
29	0x3dbacfc8	0.091216624
30	0xba41696e	-0.0007378076
31	0xbd7348a0	-0.059395432
32	0x3da62054	0.08111635
33	0x3dfa35c9	0.1221729
34	0x3d9146f0	0.070936084
35	0x3cfe2a90	0.031026155
36	0x3cff25d0	0.03114596
37	0x3c796b80	0.015223384
38	0x3dbb070e	0.09132205
39	0xbb2b1bd0	-0.0026109107
40	0xbdd5bf8e	-0.10436927
41	0xbd93ce2c	-0.072170585
42	0x3b257b11	0.0025250355
43	0xbdf267da	-0.11836214
44	0xbdb64efa	-0.08901782
45	0xbe09cf84	-0.13458067
46	0xbd56bedc	-0.05242811
47	0xbae2c500	-0.0017301142
48	0xbbb96e20	-0.00565888
49	0xbde96eca	-0.113980845
50	0x3dc463d2	0.09589352
51	0x3abeb63c	0.001455016
52	0xbdfcc1ac	-0.123416275
53	0xbde182ee	-0.11011301
54	0x3e132253	0.14368562
55	0xbd9ca484	-0.07648566
56	0x3cc954a8	0.0245765
57	0xbdfae4f8	-0.122507036
58	0xbd791b40	-0.060817003
59	0x3cc020a0	0.023453057
60	0x3db5b689	0.088727064
61	0x3c9376c8	0.018000975
62	0x3d84f0ea	0.06491263
63	0x3b5bf44a	0.0033562356
64	0xbe17ee3e	-0.14836976
65	0x3cc8450f	0.024446992
66	0x3da473e4	0.08029917
67	0xbd1d2f9c	-0.038375482
68	0x39692c9d	0.00022237231
69	0xbc7ff4a0	-0.015622288
70	0x3d309609	0.043111835
71	0xbc16d652	-0.009206371
72	0x3ddbb446	0.10727744
73	0xbcfcf0f5	-0.030876616
74	0xbd6a4f9e	-0.057204835
75	0xbdee2edc	-0.116300315
76	0xbe2229ca	-0.15836254
77	0xbd80cf72	-0.06289567
78	0xbda6100a	-0.08108528
79	0x3da30377	0.07959645
80	0xbda2126a	-0.079136685
81	0x3d83669a	0.06416054
82	0xbf2170c9	-0.6306272
83	0xbe33ae7e	-0.17547032
84	0xbda24c56	-0.07924716
85	0xbda6d7ca	-0.08146627
86	0x3dc252ed	0.09488473
87	0xbd8d1eea	-0.06890662
88	0x3d7661ac	0.06015174
89	0x3d8129f0	0.06306827
90	0x3d112a24	0.03544058
91	0x3e01c66a	0.12673345
92	0x3c5d0566	0.013490057
93	0x3d194694	0.037420824
94	0xbe2a4fda	-0.16632023
95	0xbec35182	-0.38148123
96	0xbdd61cbc	-0.104546994
97	0xbdafe14c	-0.08587894
98	0xbda922ee	-0.082586154
99	0xbd3c6f34	-0.04600449
100	0xbb9d1eba	-0.0047949227
101	0x3d3db3e4	0.046314135
102	0x3dba5e8e	0.09100066
103	0xbccf8e0e	-0.025336292
104	0xbd33fd25	-0.04394259
105	0xbddf39c8	-0.10899693
106	0x39e2a55f	0.0004322929
107	0xbce1cf8f	-0.027564792
108	0x3c06be00	0.0082240105
109	0x3e134ab5	0.14383967
110	0xbd641bbc	-0.055690512
111	0xbc946dd8	-0.018118784
112	0x3bf104cf	0.0073553096
113	0xbd614e88	-0.055006534
114	0x3ddacb84	0.10683349
115	0xbd8fc88c	-0.07020673
116	0xbe0d8c9d	-0.13823171
117	0xbdd0ea5e	-0.10200952
118	0xbbc65312	-0.006052383
119	0xbd040a3e	-0.03223633
120	0x3d9e7ec0	0.077390194
121	0xbc3a0c0e	-0.011355413
122	0x3da11a97	0.078664
123	0xbc817d68	-0.015806869
124	0x3d8f7904	0.07005504
125	0x3e969a57	0.29414627
126	0x3d6af3a8	0.057361275
127	0xbdcbf325	-0.099584855
128	0xbc7e7fb4	-0.0155333765
129	0x3c11f127	0.008907593
130	0x3cce7710	0.025203258
131	0x3d31a4b0	0.04336995
132	0x3d803a0d	0.06261072
133	0x3c18c8b5	0.009325196
134	0xbdc89c8e	-0.097954854
135	0xbdfc5166	-0.12320213
136	0xbd76d295	-0.06025942
137	0xbda24dfd	-0.07925031
138	0xbd24e635	-0.040258605
139	0xbd567f5a	-0.052367546
140	0xbd5bc86b	-0.05365793
141	0x3df38791	0.118910916
142	0xbdcd9293	-0.100377224
143	0xbc11f42b	-0.008908312
144	0x3d283a5c	0.04107128
145	0xbe01efa7	-0.12689076
146	0xbc80f484	-0.015741594
147	0x3de5ef2f	0.11227261
148	0x3ddc211e	0.10748504
149	0x3dc3a237	0.095524244
150	0x3ca0a944	0.019611962
151	0xbd2f9899	-0.042870138
152	0xbc6c34b6	-0.014416864
153	0x3d2ad325	0.04170527
154	0xbca5e996	-0.020252984
155	0x3d113ff7	0.035461392
156	0x3de8f66f	0.113751285
157	0xbcefcabe	-0.02927148
158	0x3d127228	0.0357534
159	0xbdf85e50	-0.12127364
160	0xbdb7a54b	-0.08967074
161	0x3d4f5cdc	0.050625667
162	0xbd68c869	-0.05683175
163	0x3defaac9	0.117024966
164	0x3d65af55	0.056075413
165	0xbd85e200	-0.06537247
166	0xbd1ed201	-0.038774494
167	0xbd082a9e	-0.033243768
168	0x3c7485bb	0.014924462
169	0xbd4f2d4c	-0.050580308
170	0x3c03ef0b	0.008052598
171	0xbd90d6ac	-0.070721954
172	0xbdd98963	-0.106219076
173	0xbdc81d4d	-0.09771214
174	0xbbcb5968	-0.0062057264
175	0x3d90daff	0.0707302
176	0xbc371e06	-0.011176592
177	0xbd2d7508	-0.042347938
178	0x3cc251a1	0.023720564
179	0xbdf46667	-0.11933594
180	0x3db6bd9c	0.08922884
181	0x3ccb2675	0.024798611
182	0xbc2f7ba0	-0.010710627
183	0xbc293c26	-0.010329282
184	0x3c9ed72f	0.019389717
185	0xbd6e00fa	-0.0581064
186	0xbe00b9d1	-0.12570883
187	0xbd9ddfcf	-0.07708704
188	0x3d6d406e	0.057922773
189	0x3dcb6b20	0.09932542
190	0x3daa1050	0.083038926
191	0xbd936a01	-0.07197953
192	0x3d609f4a	0.05483941
193	0xbd01ff50	-0.031737626
194	0xbd6342d8	-0.05548367
195	0x3d5099dc	0.05092798
196	0x3c65a9a0	0.0140174925
197	0xbcd10bf8	-0.025518402
198	0xbdc3f9d8	-0.09569138
199	0xbd316a88	-0.043314487
200	0x3cd2b7b8	0.02572237
201	0xbbd09694	-0.0063656066
202	0xbbde10e0	-0.006776914
203	0xbd9656fe	-0.07340811
204	0xbc044f6e	-0.008075578
205	0xbc2dcbf0	-0.0106077045
206	0xbc120f20	-0.008914739
207	0x3cdef5c2	0.027216796
208	0x3dabdace	0.08391343
209	0xbdbbc272	-0.09167947
210	0x3f27b08a	0.6550375
211	0xbdfbaa68	-0.12288362
212	0xbdafc7ac	-0.08583006
213	0x3df3670d	0.1188489
214	0xbd5b5ca4	-0.053555146
215	0xbdefc5e0	-0.117076635
216	0xbda7f01c	-0.08200094
217	0xbd095980	-0.03353262
218	0xbd8d2bc0	-0.0689311
219	0x3cef9473	0.02924559
220	0x3c8dd410	0.017313033
221	0x3d99b036	0.07504313
222	0x3db4c83a	0.08827253
223	0xbdc211f2	-0.09476079
224	0xbc9ee270	-0.019395083
225	0x3ca69aa3	0.020337408
226	0x3d11e618	0.035619825
227	0xbc88d728	-0.016704157
228	0x3ce25c6f	0.027631966
229	0x3d8a8db4	0.06765309
230	0x3d59c0cc	0.05316238
231	0x3e133468	0.1437546
232	0xbde8a7fe	-0.11360167
233	0x3d170b90	0.03687626
234	0x3e01e3e3	0.12684588
235	0xbde5c880	-0.11219883
236	0xbd85d04e	-0.065338716
237	0xbdeaf3bc	-0.1147227
238	0x3d5bff44	0.053710237
239	0x3d278bc8	0.04090479
240	0xbdac3879	-0.08409209
241	0x3da1d0b4	0.07901135
242	0xbd4ed77c	-0.05049847
243	0x3db4b7c9	0.08824117
244	0xbdd8ef08	-0.105924666
245	0x3d084720	0.033270955
246	0x3de116ae	0.10990654
247	0x3cdf21f0	0.027237862
248	0xbdf5f386	-0.12009339
249	0x3d12915c	0.035783157
250	0xbde40a30	-0.111347556
251	0x3d31bbfc	0.043392166
252	0x3bc2dda8	0.0059468336
253	0xbdff73c0	-0.124732494
254	0xbce0a5b8	-0.02742277
255	0x3ca79f9f	0.020461855

_transform._transforms.1.autoregressive_net.blocks.0.linear_layers.0.bias f4 [64]
0	0x3d8df0b4	0.06930676
1	0x3e0082da	0.12549916
2	0xbd944048	-0.07238823
3	0x3d918569	0.07105524
4	0x3dedb612	0.11606993
5	0xbdc05aa3	-0.093922876
6	0xbde6a462	-0.11261822
7	0x3d847c05	0.06468967
8	0xbd3d60a7	-0.046234753
9	0xbcb17d00	-0.02166605
10	0x3da07238	0.078342855
11	0x3db4b16c	0.08822903
12	0x3dc3a3d5	0.09552733
13	0x3d88074f	0.06642019
14	0x3de990c4	0.11404565
15	0x3d70c118	0.0587779
16	0x3dba2ba9	0.09090359
17	0xbdbd8dca	-0.0925556
18	0xbdec77a6	-0.11546259
19	0x3e04ea33	0.12979965
20	0x3d28f0ee	0.041245393
21	0xbd8abc96	-0.06774251
22	0x3dd7f14a	0.10544069
23	0xbd2eddc0	-0.042691946
24	0xbd4df13f	-0.0502789
25	0x3bf3a6a5	0.007435637
26	0x3d1b7275	0.03795095
27	0xbdef3d9f	-0.11681675
28	0x3dbec06c	0.09314045
29	0x3da824dd	0.08210156
30	0xbd5aaf60	-0.053389907
31	0x3bdc87e1	0.006730065
32	0x3cca803b	0.024719348
33	0x3cff4295	0.031159678
34	0xbd7a9be8	-0.06118384
35	0x3dd8f417	0.105934314
36	0x3d98c51c	0.07459471
37	0xbbc40dc1	-0.005983085
38	0x3e12203d	0.1427011
39	0x3dea19a3	0.11430671
40	0xbc9a2177	-0.018814785
41	0x3dbb0a58	0.09132832
42	0x3dab6725	0.08369283
43	0xbd94e7c0	-0.07270765
44	0x3d5948fc	0.05304812
45	0x3d4b5bad	0.049647976
46	0x3dae6d0a	0.08516891
47	0x3d90e008	0.070739806
48	0x3cea0f48	0.02857174
49	0x3de39d6f	0.111140124
50	0x3dc6ef5e	0.097136244
51	0xbc721d2b	-0.014777462
52	0x3e0df4aa	0.13862863
53	0x3c908395	0.017640868
54	0xbd8141f0	-0.06311405
55	0xbda40186	-0.08008103
56	0xbe02a365	-0.12757643
57	0x3d4c201e	0.049835317
58	0x3ac196d0	0.0014769677
59	0x3e181c8b	0.14854638
60	0xbc7cc637	-0.0154281175
61	0x3e081006	0.13287362
62	0x3d5e5676	0.054281674
63	0xbd8f96d2	-0.070111886

_transform._transforms.1.autoregressive_net.blocks.0.linear_layers.0.mask f4 [64, 64]
0	0x3f800000	1.0
1	0x00000000	0.0
2	0x00000000	0.0
3	0x3f800000	1.0
4	0x00000000	0.0
5	0x00000000	0.0
6	0x3f800000	1.0
7	0x00000000	0.0
8	0x00000000	0.0
9	0x3f800000	1.0
10	0x00000000	0.0
11	0x00000000	0.0
12	0x3f800000	1.0
13	0x00000000	0.0
14	0x00000000	0.0
15	0x3f800000	1.0
16	0x00000000	0.0
17	0x00000000	0.0
18	0x3f800000	1.0
19	0x00000000	0.0
20	0x00000000	0.0
21	0x3f800000	1.0
22	0x00000000	0.0
23	0x00000000	0.0
24	0x3f800000	1.0
25	0x00000000	0.0
26	0x00000000	0.0
27	0x3f800000	1.0
28	0x00000000	0.0
29	0x00000000	0.0
30	0x3f800000	1.0
31	0x00000000	0.0
32	0x00000000	0.0
33	0x3f800000	1.0
34	0x00000000	0.0
35	0x00000000	0.0
36	0x3f800000	1.0
37	0x00000000	0.0
38	0x00000000	0.0
39	0x3f800000	1.0
40	0x00000000	0.0
41	0x00000000	0.0
42	0x3f800000	1.0
43	0x00000000	0.0
44	0x00000000	0.0
45	0x3f800000	1.0
46	0x00000000	0.0
47	0x00000000	0.0
48	0x3f800000	1.0
49	0x00000000	0.0
50	0x00000000	0.0
51	0x3f800000	1.0
52	0x00000000	0.0
53	0x00000000	0.0
54	0x3f800000	1.0
55	0x00000000	0.0
56	0x00000000	0.0
57	0x3f800000	1.0
58	0x00000000	0.0
59	0x00000000	0.0
60	0x3f800000	1.0
61	0x00000000	0.0
62	0x00000000	0.0
63	0x3f800000	1.0
64	0x3f800000	1.0
65	0x3f800000	1.0
66	0x00000000	0.0
67	0x3f800000	1.0
68	0x3f800000	1.0
69	0x00000000	0.0
70	0x3f800000	1.0
71	0x3f800000	1.0
72	0x00000000	0.0
73	0x3f800000	1.0
74	0x3f800000	1.0
75	0x00000000	0.0
76	0x3f800000	1.0
77	0x3f800000	1.0
78	0x00000000	0.0
79	0x3f800000	1.0
80	0x3f800000	1.0
81	0x00000000	0.0
82	0x3f800000	1.0
83	0x3f800000	1.0
84	0x00000000	0.0
85	0x3f800000	1.0
86	0x3f800000	1.0
87	0x00000000	0.0
88	0x3f800000	1.0
89	0x3f800000	1.0
90	0x00000000	0.0
91	0x3f800000	1.0
92	0x3f800000	1.0
93	0x00000000	0.0
94	0x3f800000	1.0
95	0x3f800000	1.0
96	0x00000000	0.0
97	0x3f800000	1.0
98	0x3f800000	1.0
99	0x00000000	0.0
100	0x3f800000	1.0
101	0x3f800000	1.0
102	0x00000000	0.0
103	0x3f800000	1.0
104	0x3f800000	1.0
105	0x00000000	0.0
106	0x3f800000	1.0
107	0x3f800000	1.0
108	0x00000000	0.0
109	0x3f800000	1.0
110	0x3f800000	1.0
111	0x00000000	0.0
112	0x3f800000	1.0
113	0x3f800000	1.0
114	0x00000000	0.0
115	0x3f800000	1.0
116	0x3f800000	1.0
117	0x00000000	0.0
118	0x3f800000	1.0
119	0x3f800000	1.0
120	0x00000000	0.0
121	0x3f800000	1.0
122	0x3f800000	1.0
123	0x00000000	0.0
124	0x3f800000	1.0
125	0x3f800000	1.0
126	0x00000000	0.0
127	0x3f800000	1.0
128	0x3f800000	1.0
129	0x3f800000	1.0
130	0x3f800000	1.0
131	0x3f800000	1.0
132	0x3f800000	1.0
133	0x3f800000	1.0
134	0x3f800000	1.0
135	0x3f800000	1.0
136	0x3f800000	1.0
137	0x3f800000	1.0
138	0x3f800000	1.0
139	0x3f800000	1.0
140	0x3f800000	1.0
141	0x3f800000	1.0
142	0x3f800000	1.0
143	0x3f800000	1.0
144	0x3f800000	1.0
145	0x3f800000	1.0
146	0x3f800000	1.0
147	0x3f800000	1.0
148	0x3f800000	1.0
149	0x3f800000	1.0
150	0x3f800000	1.0
151	0x3f800000	1.0
152	0x3f800000	1.0
153	0x3f800000	1.0
154	0x3f800000	1.0
155	0x3f800000	1.0
156	0x3f800000	1.0
157	0x3f800000	1.0
158	0x3f800000	1.0
159	0x3f800000	1.0
160	0x3f800000	1.0
161	0x3f800000	1.0
162	0x3f800000	1.0
163	0x3f800000	1.0
164	0x3f800000	1.0
165	0x3f800000	1.0
166	0x3f800000	1.0
167	0x3f800000	1.0
168	0x3f800000	1.0
169	0x3f800000	1.0
170	0x3f800000	1.0
171	0x3f800000	1.0
172	0x3f800000	1.0
173	0x3f800000	1.0
174	0x3f800000	1.0
175	0x3f800000	1.0
176	0x3f800000	1.0
177	0x3f800000	1.0
178	0x3f800000	1.0
179	0x3f800000	1.0
180	0x3f800000	1.0
181	0x3f800000	1.0
182	0x3f800000	1.0
183	0x3f800000	1.0
184	0x3f800000	1.0
185	0x3f800000	1.0
186	0x3f800000	1.0
187	0x3f800000	1.0
188	0x3f800000	1.0
189	0x3f800000	1.0
190	0x3f800000	1.0
191	0x3f800000	1.0
192	0x3f800000	1.0
193	0x00000000	0.0
194	0x00000000	0.0
195	0x3f800000	1.0
196	0x00000000	0.0
197	0x00000000	0.0
198	0x3f800000	1.0
199	0x00000000	0.0
200	0x00000000	0.0
201	0x3f800000	1.0
202	0x00000000	0.0
203	0x00000000	0.0
204	0x3f800000	1.0
205	0x00000000	0.0
206	0x00000000	0.0
207	0x3f800000	1.0
208	0x00000000	0.0
209	0x00000000	0.0
210	0x3f800000	1.0
211	0x00000000	0.0
212	0x00000000	0.0
213	0x3f800000	1.0
214	0x00000000	0.0
215	0x00000000	0.0
216	0x3f800000	1.0
217	0x00000000	0.0
218	0x00000000	0.0
219	0x3f800000	1.0
220	0x00000000	0.0
221	0x00000000	0.0
222	0x3f800000	1.0
223	0x00000000	0.0
224	0x00000000	0.0
225	0x3f800000	1.0
226	0x00000000	0.0
227	0x00000000	0.0
228	0x3f800000	1.0
229	0x00000000	0.0
230	0x00000000	0.0
231	0x3f800000	1.0
232	0x00000000	0.0
233	0x00000000	0.0
234	0x3f800000	1.0
235	0x00000000	0.0
236	0x00000000	0.0
237	0x3f800000	1.0
238	0x00000000	0.0
239	0x00000000	0.0
240	0x3f800000	1.0
241	0x00000000	0.0
242	0x00000000	0.0
243	0x3f800000	1.0
244	0x00000000	0.0
245	0x00000000	0.0
246	0x3f800000	1.0
247	0x00000000	0.0
248	0x00000000	0.0
249	0x3f800000	1.0
250	0x00000000	0.0
251	0x00000000	0.0
252	0x3f800000	1.0
253	0x00000000	0.0
254	0x00000000	0.0
255	0x3f800000	1.0

_transform._transforms.1.autoregressive_net.blocks.0.linear_layers.1.weight f4 [64, 64]
0	0x3d3c1153	0.04591496
1	0x39da164a	0.00041596807
2	0x3a1a9886	0.00058973616
3	0x3d34ffd7	0.0441893
4	0x3842c001	4.6432022e-05
5	0x39b11727	0.0003377732
6	0xb9b79b79	-0.00035020316
7	0x3a59241b	0.0008283273
8	0x37c794bd	2.379191e-05
9	0xb8b03d30	-8.403731e-05
10	0xb9fc6880	-0.00048143044
11	0xb9f0a1bb	-0.00045896866
12	0x3d00c0fd	0.031434048
13	0xba25f963	-0.0006331412
14	0xba2062a4	-0.0006118214
15	0xba75625b	-0.00093606644
16	0xb9cc5dfd	-0.0003897994
17	0x3a5c286f	0.0008398359
18	0x3867b2d2	5.524123e-05
19	0xb9484e80	-0.0001910273
20	0xb9023419	-0.00012417174
21	0xba82643d	-0.0009948086
22	0xba2b3ea8	-0.0006532469
23	0xba0c284e	-0.0005346582
24	0xbdca01f5	-0.098636545
25	0x3a394852	0.00070679665
26	0x38dab001	0.00010427833
27	0x3ba93071	0.0051632454
28	0x3a358bbd	0.00069254247
29	0x39b0df82	0.00033735862
30	0x3c9d07b7	0.019168718
31	0xba11c781	-0.00055610394
32	0x37c968b5	2.4009825e-05
33	0x3d562b2c	0.052287266
34	0x370a9db3	8.262158e-06
35	0xba00957f	-0.0004905089
36	0x3d74595f	0.059655543
37	0xba452519	-0.00075204816
38	0x39489528	0.00019129051
39	0x3d6f0cf9	0.05836198
40	0x38842f1b	6.3030246e-05
41	0xba52c779	-0.0008040588
42	0x3d35ccaa	0.044384636
43	0x3a561328	0.00081663067
44	0xb8eb7698	-0.00011227763
45	0x3d4f4461	0.05060232
46	0x3a2f5e1f	0.00066897454
47	0xba5755bb	-0.0008214374
48	0x3d689a84	0.056787983
49	0x3a43d75b	0.000747075
50	0xb9d5b5dc	-0.00040762022
51	0x3da2d4ca	0.079507425
52	0xb9f0b8a0	-0.00045913924
53	0xba34cb17	-0.0006896718
54	0xbb68d957	-0.0035529935
55	0xba355c92	-0.0006918396
56	0xb9b1359e	-0.0003380002
57	0x3ccc467f	0.024935959
58	0xba4593bd	-0.00075369683
59	0x3a496b63	0.00076835434
60	0x3caed1eb	0.021340331
61	0xba14b254	-0.0005672325
62	0xb88b5a4e	-6.644857e-05
63	0xb9e550f6	-0.00043738604
64	0x3d2a6ac8	0.04160574
65	0x3d8b4f88	0.06802279
66	0xb9dc770b	-0.00042050364
67	0x3ca45160	0.020058334
68	0x3d462548	0.048375398
69	0xba3e11a6	-0.00072505546
70	0xb9e7ee53	-0.0004423732
71	0x3d26fa44	0.040766016
72	0xb9c48298	-0.00037481333
73	0xba52e013	-0.0008044254
74	0xbc68f942	-0.014219584
75	0xba4e026d	-0.0007858638
76	0x3d0568bd	0.03257059
77	0x3cc116c2	0.023570422
78	0xba608ee4	-0.0008566214
79	0x3a3f4cd1	0.00072975183
80	0x3cfe25ba	0.031023849
81	0xb948c86b	-0.00019148148
82	0x398054b5	0.00024477174
83	0x3db2ebfb	0.08736416
84	0xba766578	-0.00093992753
85	0x39a05903	0.00030583897
86	0x3d3b81c1	0.04577804
87	0xba10f338	-0.00055294065
88	0xbb030505	-0.0019992006
89	0x3d2dab2b	0.042399567
90	0x393f5e46	0.00018250299
91	0x3ba239fa	0.004950759
92	0x3ceff2de	0.029290613
93	0x394305a2	0.00018598748
94	0x3b8897dc	0.0041684937
95	0x3d06aa1a	0.032877065
96	0xba048ef0	-0.00050567
97	0x3d18aea6	0.037275933
98	0x3a5ce009	0.0008425718
99	0xba154919	-0.00056947913
100	0x3cdf46dd	0.02725547
101	0x3da911b5	0.082553305
102	0xb9e12a5f	-0.00042946913
103	0x3d0868a2	0.03330291
104	0x3c8b96b1	0.017039629
105	0x396c4f75	0.00022536314
106	0x3d2fdb24	0.0429336
107	0xb9f0bf96	-0.0004591911
108	0xba541151	-0.00080897385
109	0x3cfa6e22	0.030570094
110	0x3d9a37d0	0.07530177
111	0xb9b887e0	-0.0003519645
112	0x3c8f6a34	0.017506696
113	0x3d55f23d	0.05223297
114	0x3a53bbdc	0.00080770045
115	0xba6ceeef	-0.00090382894
116	0x3c87aed1	0.016562851
117	0x3948fa57	0.00019166745
118	0xbc0870f6	-0.008327713
119	0xba6fb363	-0.0009143857
120	0x3932e755	0.00017061581
121	0x3c61c1ed	0.013779146
122	0x3d0c1ed5	0.03420909
123	0xb987bac9	-0.00025888372
124	0x3a75cb94	0.0009376344
125	0x3d16d72b	0.036826294
126	0xba2aa7da	-0.0006509997
127	0xb5e6147c	-1.7142297e-06
128	0xbc899878	-0.016796336
129	0xb8fb030f	-0.000119691824
130	0xbb766f3d	-0.0037602924
131	0xbca7f41e	-0.020502146
132	0xbd494670	-0.04913944
133	0xbae9d18d	-0.001783894
134	0xba428359	-0.0007420085
135	0xbd3260e3	-0.04354943
136	0xb9be70be	-0.00036323623
137	0x3a5e3019	0.0008475795
138	0xbd165086	-0.036697887
139	0xbd16ce4f	-0.036817845
140	0xbc926058	-0.017868206
141	0xbcad0f8e	-0.021125581
142	0xbcab8a77	-0.020940049
143	0x3a42a001	0.0007424355
144	0xbd69a59c	-0.057042703
145	0x3d403568	0.046925932
146	0x3a68f4d2	0.0008886579
147	0xbd067e01	-0.03283501
148	0xbd23ad7e	-0.039960377
149	0x39f14aa5	0.00046022717
150	0xbceae29e	-0.028672513
151	0x3a71b74d	0.00092207344
152	0x3b5f376a	0.003406013
153	0xbd340aad	-0.043955494
154	0x3c2a1ebe	0.010383306
155	0x3b167cd3	0.0022962585
156	0xbcbe4115	-0.023224393
157	0xbd5c3202	-0.05375863
158	0xbc915387	-0.017740024
159	0xbca02aa7	-0.019551588
160	0x3bbb3ed8	0.0057142787
161	0xbc5be13a	-0.013420397
162	0xba33a02a	-0.00068521744
163	0x3b3f52a2	0.002919354
164	0xbcf67d2b	-0.030088982
165	0xbcb6a1b0	-0.022293895
166	0xbdb2726c	-0.087132305
167	0xbcbc7f2e	-0.023009863
168	0xbc506896	-0.012720248
169	0xbcd39820	-0.025829375
170	0xbc96081e	-0.018314417
171	0x379d5959	1.8757464e-05
172	0xbd3e2c58	-0.04642901
173	0xbcbd1341	-0.02308047
174	0xbc74a283	-0.014931324
175	0x3d3db922	0.046319135
176	0xbcc12d2d	-0.023581112
177	0xbcd04a8e	-0.025426175
178	0x3e36b820	0.17843676
179	0xbcebf01b	-0.028801015
180	0xbcc52102	-0.02406359
181	0xbd8bcee8	-0.068265736
182	0xba252b10	-0.00063006673
183	0x38561832	5.104411e-05
184	0x3bef5a7e	0.0073044887
185	0xbc70d668	-0.014699556
186	0xbd515d3b	-0.051114302
187	0x3e5a34da	0.21309224
188	0xbc9456bd	-0.018107766
189	0xbc8f54ff	-0.017496584
190	0xbc690e84	-0.014224652
191	0x398992ee	0.00026240147
192	0xbd5f1469	-0.054462824
193	0xb9a2005f	-0.00030899324
194	0x3906f863	0.00012871767
195	0xbd81bdcc	-0.06335029
196	0x39fd7959	0.00048346331
197	0xb9befbbb	-0.00036427178
198	0xba62192e	-0.0008624968
199	0xb9e64a19	-0.00043924226
200	0xba16cffc	-0.0005753038
201	0x398c3ac5	0.00026746668
202	0x39a11bf0	0.00030729128
203	0xb9331dec	-0.00017081917
204	0xbd23a198	-0.03994903
205	0x3a12a9b5	0.00055947463
206	0xb87e8128	-6.0678605e-05
207	0x384e31ab	4.9160484e-05
208	0xba014c7f	-0.0004932358
209	0x3a677226	0.000882896
210	0x388c5169	6.690884e-05
211	0xb9a1fc4e	-0.00030896295
212	0x39a81f50	0.00032066787
213	0x39ef1f0b	0.0004560876
214	0xba2bcafa	-0.0006553378
215	0x39ced965	0.00039453353
216	0x3de40364	0.11133459
217	0xba18a821	-0.0005823393
218	0xba08016b	-0.00051881996
219	0x3c0161e4	0.007896874
220	0xb9ced857	-0.00039452568
221	0x3a3f822a	0.0007305468
222	0xbd547bef	-0.051876005
223	0xb9a79f6d	-0.00031971504
224	0x3a136d42	0.00056238857
225	0xbd89cc6e	-0.06728445
226	0x39839d96	0.00025103678
227	0xb8c11001	-9.205938e-05
228	0xbd9aef9b	-0.07565232
229	0xba065883	-0.00051248836
230	0xba346bcd	-0.00068825186
231	0xbd8e38af	-0.06944405
232	0xba5827dc	-0.00082456856
233	0xb8ec0a2e	-0.00011255253
234	0xbd51b472	-0.051197477
235	0x39306809	0.00016823424
236	0x3a38dce8	0.00070519606
237	0xbd8dd8ee	-0.06926142
238	0xba77e263	-0.00094560365
239	0x3955974c	0.00020369625
240	0xbd958cc8	-0.073022425
241	0xb8be2b13	-9.067929e-05
242	0xb9b8dc05	-0.00035259142
243	0xbdcb0ef4	-0.099149615
244	0x3921d45b	0.00015433265
245	0xba340cf6	-0.00068683864
246	0xbba84a5f	-0.005135819
247	0xba3ce494	-0.00072056917
248	0xba17e467	-0.00057942275
249	0xbd423d86	-0.047421955
250	0x3a3233e6	0.00067978946
251	0x3a469f86	0.00075768714
252	0xbd752338	-0.05984804
253	0x39242cb5	0.00015656913
254	0x398b0488	0.00026515522
255	0xb8aa32e2	-8.115709e-05

_transform._transforms.1.autoregressive_net.blocks.0.linear_layers.1.bias f4 [64]
0	0x3cdf7731	0.027278515
1	0x3d19726d	0.03746264
2	0xbca7c933	-0.020481681
3	0xbcb260fd	-0.021774763
4	0xbca056f1	-0.019572707
5	0x3c3f3358	0.011669956
6	0x3d09a376	0.033603154
7	0x3d007234	0.031358913
8	0xbbf60abe	-0.007508605
9	0xbcf9df11	-0.030501874
10	0xbcd7d360	-0.026345909
11	0x3c36d350	0.011158779
12	0xbc960724	-0.018313952
13	0xbcde2dff	-0.027121542
14	0xbbf39f76	-0.0074347807
15	0x3cab8efb	0.020942202
16	0xbd078f50	-0.033095658
17	0x3d2e37bf	0.042533632
18	0xbd20ec40	-0.039287806
19	0x3d029792	0.03188283
20	0x3caff6ca	0.021479983
21	0xbc8f0f65	-0.017463395
22	0x3c4d6d00	0.012538195
23	0x3c354365	0.011063431
24	0x3c85b371	0.016320916
25	0x3c257ed2	0.010101037
26	0x39bdc51d	0.0003619575
27	0x3c6f99a5	0.014624034
28	0xbc5758a6	-0.013143694
29	0xbc834905	-0.01602603
30	0xbd890757	-0.06690853
31	0x3d2fbbdc	0.042903766
32	0x3c80f2df	0.01574081
33	0x3cc8e850	0.024524838
34	0xbd29cd87	-0.04145577
35	0xbbecbe66	-0.0072248457
36	0xbc93a07f	-0.018020866
37	0xbd1dce83	-0.038527023
38	0x3c0e0da3	0.008670243
39	0x3bd54460	0.006508395
40	0xbcaf9f64	-0.021438308
41	0xbc8c36a9	-0.017115908
42	0xbcf297b1	-0.029613348
43	0xbd001ecc	-0.03127937
44	0x3d0e0b42	0.034678705
45	0x3d024e6e	0.031813078
46	0xbcff2cae	-0.031149235
47	0xbd05f990	-0.032708704
48	0x3cd201b2	0.025635574
49	0x3cad8cae	0.021185245
50	0x3c90f275	0.017693738
51	0xbc25df4a	-0.010124037
52	0xbc2d792e	-0.0105879735
53	0x3c06caa3	0.008227023
54	0x3c9c0cc3	0.019049054
55	0xbc966097	-0.018356605
56	0xbc98d22f	-0.01865491
57	0x3c30f861	0.010801406
58	0x3cc4a450	0.024004132
59	0x3cb9183e	0.022594567
60	0xbcb397fe	-0.021923061
61	0xbcf579fb	-0.029965391
62	0x3c620fe4	0.013797734
63	0xbc5def92	-0.013545888

_transform._transforms.1.autoregressive_net.blocks.0.linear_layers.1.mask f4 [64, 64]
0	0x3f800000	1.0
1	0x00000000	0.0
2	0x00000000	0.0
3	0x3f800000	1.0
4	0x00000000	0.0
5	0x00000000	0.0
6	0x3f800000	1.0
7	0x00000000	0.0
8	0x00000000	0.0
9	0x3f800000	1.0
10	0x00000000	0.0
11	0x00000000	0.0
12	0x3f800000	1.0
13	0x00000000	0.0
14	0x00000000	0.0
15	0x3f800000	1.0
16	0x00000000	0.0
17	0x00000000	0.0
18	0x3f800000	1.0
19	0x00000000	0.0
20	0x00000000	0.0
21	0x3f800000	1.0
22	0x00000000	0.0
23	0x00000000	0.0
24	0x3f800000	1.0
25	0x00000000	0.0
26	0x00000000	0.0
27	0x3f800000	1.0
28	0x00000000	0.0
29	0x00000000	0.0
30	0x3f800000	1.0
31	0x00000000	0.0
32	0x00000000	0.0
33	0x3f800000	1.0
34	0x00000000	0.0
35	0x00000000	0.0
36	0x3f800000	1.0
37	0x00000000	0.0
38	0x00000000	0.0
39	0x3f800000	1.0
40	0x00000000	0.0
41	0x00000000	0.0
42	0x3f800000	1.0
43	0x00000000	0.0
44	0x00000000	0.0
45	0x3f800000	1.0
46	0x00000000	0.0
47	0x00000000	0.0
48	0x3f800000	1.0
49	0x00000000	0.0
50	0x00000000	0.0
51	0x3f800000	1.0
52	0x00000000	0.0
53	0x00000000	0.0
54	0x3f800000	1.0
55	0x00000000	0.0
56	0x00000000	0.0
57	0x3f800000	1.0
58	0x00000000	0.0
59	0x00000000	0.0
60	0x3f800000	1.0
61	0x00000000	0.0
62	0x00000000	0.0
63	0x3f800000	1.0
64	0x3f800000	1.0
65	0x3f800000	1.0
66	0x00000000	0.0
67	0x3f800000	1.0
68	0x3f800000	1.0
69	0x00000000	0.0
70	0x3f800000	1.0
71	0x3f800000	1.0
72	0x00000000	0.0
73	0x3f800000	1.0
74	0x3f800000	1.0
75	0x00000000	0.0
76	0x3f800000	1.0
77	0x3f800000	1.0
78	0x00000000	0.0
79	0x3f800000	1.0
80	0x3f800000	1.0
81	0x00000000	0.0
82	0x3f800000	1.0
83	0x3f800000	1.0
84	0x00000000	0.0
85	0x3f800000	1.0
86	0x3f800000	1.0
87	0x00000000	0.0
88	0x3f800000	1.0
89	0x3f800000	1.0
90	0x00000000	0.0
91	0x3f800000	1.0
92	0x3f800000	1.0
93	0x00000000	0.0
94	0x3f800000	1.0
95	0x3f800000	1.0
96	0x00000000	0.0
97	0x3f800000	1.0
98	0x3f800000	1.0
99	0x00000000	0.0
100	0x3f800000	1.0
101	0x3f800000	1.0
102	0x00000000	0.0
103	0x3f800000	1.0
104	0x3f800000	1.0
105	0x00000000	0.0
106	0x3f800000	1.0
107	0x3f800000	1.0
108	0x00000000	0.0
109	0x3f800000	1.0
110	0x3f800000	1.0
111	0x00000000	0.0
112	0x3f800000	1.0
113	0x3f800000	1.0
114	0x00000000	0.0
115	0x3f800000	1.0
116	0x3f800000	1.0
117	0x00000000	0.0
118	0x3f800000	1.0
119	0x3f800000	1.0
120	0x00000000	0.0
121	0x3f800000	1.0
122	0x3f800000	1.0
123	0x00000000	0.0
124	0x3f800000	1.0
125	0x3f800000	1.0
126	0x00000000	0.0
127	0x3f800000	1.0
128	0x3f800000	1.0
129	0x3f800000	1.0
130	0x3f800000	1.0
131	0x3f800000	1.0
132	0x3f800000	1.0
133	0x3f800000	1.0
134	0x3f800000	1.0
135	0x3f800000	1.0
136	0x3f800000	1.0
137	0x3f800000	1.0
138	0x3f800000	1.0
139	0x3f800000	1.0
140	0x3f800000	1.0
141	0x3f800000	1.0
142	0x3f800000	1.0
143	0x3f800000	1.0
144	0x3f800000	1.0
145	0x3f800000	1.0
146	0x3f800000	1.0
147	0x3f800000	1.0
148	0x3f800000	1.0
149	0x3f800000	1.0
150	0x3f800000	1.0
151	0x3f800000	1.0
152	0x3f800000	1.0
153	0x3f800000	1.0
154	0x3f800000	1.0
155	0x3f800000	1.0
156	0x3f800000	1.0
157	0x3f800000	1.0
158	0x3f800000	1.0
159	0x3f800000	1.0
160	0x3f800000	1.0
161	0x3f800000	1.0
162	0x3f800000	1.0
163	0x3f800000	1.0
164	0x3f800000	1.0
165	0x3f800000	1.0
166	0x3f800000	1.0
167	0x3f800000	1.0
168	0x3f800000	1.0
169	0x3f800000	1.0
170	0x3f800000	1.0
171	0x3f800000	1.0
172	0x3f800000	1.0
173	0x3f800000	1.0
174	0x3f800000	1.0
175	0x3f800000	1.0
176	0x3f800000	1.0
177	0x3f800000	1.0
178	0x3f800000	1.0
179	0x3f800000	1.0
180	0x3f800000	1.0
181	0x3f800000	1.0
182	0x3f800000	1.0
183	0x3f800000	1.0
184	0x3f800000	1.0
185	0x3f800000	1.0
186	0x3f800000	1.0
187	0x3f800000	1.0
188	0x3f800000	1.0
189	0x3f800000	1.0
190	0x3f800000	1.0
191	0x3f800000	1.0
192	0x3f800000	1.0
193	0x00000000	0.0
194	0x00000000	0.0
195	0x3f800000	1.0
196	0x00000000	0.0
197	0x00000000	0.0
198	0x3f800000	1.0
199	0x00000000	0.0
200	0x00000000	0.0
201	0x3f800000	1.0
202	0x00000000	0.0
203	0x00000000	0.0
204	0x3f800000	1.0
205	0x00000000	0.0
206	0x00000000	0.0
207	0x3f800000	1.0
208	0x00000000	0.0
209	0x00000000	0.0
210	0x3f800000	1.0
211	0x00000000	0.0
212	0x00000000	0.0
213	0x3f800000	1.0
214	0x00000000	0.0
215	0x00000000	0.0
216	0x3f800000	1.0
217	0x00000000	0.0
218	0x00000000	0.0
219	0x3f800000	1.0
220	0x00000000	0.0
221	0x00000000	0.0
222	0x3f800000	1.0
223	0x00000000	0.0
224	0x00000000	0.0
225	0x3f800000	1.0
226	0x00000000	0.0
227	0x00000000	0.0
228	0x3f800000	1.0
229	0x00000000	0.0
230	0x00000000	0.0
231	0x3f800000	1.0
232	0x00000000	0.0
233	0x00000000	0.0
234	0x3f800000	1.0
235	0x00000000	0.0
236	0x00000000	0.0
237	0x3f800000	1.0
238	0x00000000	0.0
239	0x00000000	0.0
240	0x3f800000	1.0
241	0x00000000	0.0
242	0x00000000	0.0
243	0x3f800000	1.0
244	0x00000000	0.0
245	0x00000000	0.0
246	0x3f800000	1.0
247	0x00000000	0.0
248	0x00000000	0.0
249	0x3f800000	1.0
250	0x00000000	0.0
251	0x00000000	0.0
252	0x3f800000	1.0
253	0x00000000	0.0
254	0x00000000	0.0
255	0x3f800000	1.0

_transform._transforms.1.autoregressive_net.blocks.1.linear_layers.0.weight f4 [64, 64]
0	0x3dc9cc41	0.098534115
1	0x3db6a216	0.08917634
2	0xbd836512	-0.06415762
3	0xbd9ee5d4	-0.0775868
4	0x3de2f186	0.11081223
5	0xbdff3612	-0.12461485
6	0x3e0b078a	0.13577095
7	0x3de96f86	0.113982245
8	0xbd8e65c6	-0.069530055
9	0xbd19b467	-0.03752556
10	0x3cee7d78	0.029112563
11	0xbdbb9780	-0.09159756
12	0xbd36cd27	-0.044629242
13	0xbce5a900	-0.028034687
14	0x3df2fdf6	0.118648455
15	0xbda1331a	-0.07871075
16	0x3dcfb7e0	0.10142493
17	0xbdfa2c6e	-0.122155055
18	0x3e86d88d	0.2633709
19	0x3d7ae84c	0.06125669
20	0x3da2e440	0.079536915
21	0xbd17e948	-0.03708771
22	0xbcef42e0	-0.029206693
23	0xbde51f78	-0.11187643
24	0x3d1fda66	0.03902664
25	0x3d948f1a	0.07253857
26	0x39d68c00	0.0004092157
27	0x3e085bd2	0.13316277
28	0xbcc689b0	-0.024235576
29	0x3dcfa37a	0.101386026
30	0x3d82e638	0.06391567
31	0xbdc1486c	-0.094376415
32	0xbcc2e090	-0.02378872
33	0xbbac7dbc	-0.005264012
34	0x3d5e54a4	0.05427994
35	0xbde0252e	-0.109445915
36	0x3d38f4b3	0.04515524
37	0xbde07496	-0.10959737
38	0xbde6e24a	-0.1127363
39	0x3de499fb	0.11162182
40	0x3bec1260	0.007204339
41	0x3c7b1010	0.015323654
42	0x3c884342	0.016633634
43	0x3a420200	0.0007400811
44	0x3c9d8b58	0.019231483
45	0x3d99309c	0.07479975
46	0xbccbd420	-0.024881423
47	0x3c938f08	0.018012539
48	0x3defa4b8	0.117013395
49	0x3dae1cc6	0.08501582
50	0x3dd48288	0.10376459
51	0x3dad76bc	0.084699124
52	0xbdeb645e	-0.11493753
53	0x3cfef728	0.031123713
54	0xbd60468d	-0.054754782
55	0xbd202d50	-0.039105713
56	0x3d82fef0	0.06396282
57	0x3bbc6e37	0.0057504433
58	0x3c4eb6a0	0.012616783
59	0xbde59642	-0.112103
60	0xbd5336a8	-0.051565796
61	0xbd193ae8	-0.037409693
62	0x3d40abac	0.04703872
63	0x3e0fc827	0.14041196
64	0x3df6c679	0.120495744
65	0x3c082a07	0.008310801
66	0x3de12db2	0.10995044
67	0x3d3fcdc0	0.046827078
68	0xbd4d5725	-0.050131936
69	0x3da21728	0.07914573
70	0x3d1c4e06	0.038160346
71	0x3dfa9f31	0.122373946
72	0x3d8b3b0e	0.06798373
73	0x3d0f7029	0.035019074
74	0xbe4b3453	-0.19844179
75	0x3d167a8c	0.036737964
76	0xbde4b5fa	-0.11167522
77	0xbed20820	-0.41021824
78	0xbd4f18b4	-0.050560668
79	0x3bd734f6	0.0065675927
80	0x3d6dc8d4	0.058052853
81	0x3d75ea0c	0.060037658
82	0xbc9f7c81	-0.019468548
83	0xbd5c36a9	-0.053763065
84	0x3d81bf2e	0.06335293
85	0x3cc4ec8f	0.024038581
86	0xbd893588	-0.066996634
87	0x3dfe56e8	0.1241892
88	0xbd92aea9	-0.0716222
89	0x3c98a0ee	0.018631425
90	0x3cccaac8	0.024983779
91	0xbdfc8d1a	-0.123316005
92	0xbd90fda0	-0.07079625
93	0xbdcddb50	-0.10051596
94	0xbe1e8f69	-0.15484394
95	0xbece7b7f	-0.40328595
96	0x3dd87a0e	0.10570155
97	0xbd7d1e4c	-0.06179647
98	0xbd7682e8	-0.060183436
99	0xba86c800	-0.0010282993
100	0xbe15ad6f	-0.14616941
101	0x3cebaa54	0.028767742
102	0x3dbae770	0.091261744
103	0xbd979456	-0.0740134
104	0xbde07726	-0.10960226
105	0x3ddecbae	0.108786926
106	0x3de423a1	0.11139608
107	0x3debc0ee	0.11511408
108	0x3df7c55c	0.1209819
109	0x3e032f0c	0.12810916
110	0x3da2cd48	0.079493105
111	0xbdb68414	-0.08911911
112	0xbdb04bab	-0.086081825
113	0xbbdcfaa4	-0.006743746
114	0xbdbf755c	-0.093485564
115	0xbdd76631	-0.10517538
116	0x3d890a6d	0.06691442
117	0xbd9d7a34	-0.07689324
118	0x3d5f504c	0.054519936
119	0x3c478314	0.012177248
120	0x3dcabc6c	0.0989922
121	0xbca0bcf7	-0.019621355
122	0xbd6e82af	-0.0582301
123	0xbd883fe4	-0.06652811
124	0x3ddbb411	0.10727704
125	0x3ecae7a4	0.39629853
126	0x3df6e960	0.120562315
127	0x3d8b3f81	0.06799222
128	0x3e0c276f	0.13686918
129	0xbb62fe32	-0.0034636375
130	0xbe2664b6	-0.16249356
131	0xbde6dba6	-0.11272363
132	0x3d38c4d7	0.045109596
133	0xbda2bdb1	-0.07946337
134	0x3e0a688a	0.13516441
135	0x3dbf6e34	0.093471915
136	0x3dc039db	0.09386035
137	0xbc8a04ba	-0.016847957
138	0xbe45cb59	-0.19315852
139	0xbe72d7bd	-0.2371511
140	0x3cb0792c	0.021542154
141	0xbeb1113d	-0.34583464
142	0x3d425454	0.047443703
143	0xbc9f2d32	-0.01943073
144	0xbda42c9c	-0.08016321
145	0xbcf14c1e	-0.02945524
146	0xbeec2702	-0.4612351
147	0xbe403f4f	-0.1877415
148	0x3d6538e5	0.055962462
149	0xbda5dff1	-0.08099354
150	0xbdcc4cc9	-0.09975583
151	0xbdc9fcc9	-0.09862668
152	0xbdcdc589	-0.100474425
153	0xbccb8aa9	-0.024846392
154	0xbcd66007	-0.026168836
155	0xbe1b8ea9	-0.1519114
156	0xbe10934d	-0.14118691
157	0x3e078496	0.13234171
158	0xbd933eee	-0.07189737
159	0xbec81a04	-0.39082348
160	0xbe5310f4	-0.20611936
161	0xbe117fae	-0.14208862
162	0x3db8da0d	0.09025965
163	0x3e400dd0	0.18755269
164	0x3dbffeb3	0.09374752
165	0x3da6db4f	0.081472985
166	0xbd6e820a	-0.058229484
167	0xbe448fec	-0.19195527
168	0x3ddb962a	0.10722001
169	0x3dea0b27	0.114279084
170	0xbddabc60	-0.10680461
171	0xbd646c78	-0.055767506
172	0xbc050663	-0.0081191985
173	0x3895356f	7.1148264e-05
174	0x3c73dc88	0.014884122
175	0x3de2586d	0.11052022
176	0x3e0d2dfa	0.1378707
177	0xbd531e76	-0.05154272
178	0x3e2c10d4	0.16803294
179	0xbdac790b	-0.084215246
180	0x3cfcd542	0.030863408
181	0xbccfe600	-0.025378227
182	0xbd57db5c	-0.05269943
183	0xbda86ac8	-0.08223492
184	0xbd99e743	-0.07514813
185	0xbbf7651f	-0.0075498964
186	0x3d292e1d	0.041303743
187	0x3e0bcd81	0.13652612
188	0x3daeacde	0.085290655
189	0xbe1e9631	-0.15486981
190	0xbcecb777	-0.028896077
191	0x3dba1722	0.090864435
192	0xbdd84749	-0.105604716
193	0xbd1a8d88	-0.03773263
194	0xbdaf99a2	-0.08574225
195	0xbd833726	-0.06407003
196	0xbb1196c0	-0.0022215098
197	0xbd121614	-0.035665587
198	0xbe0df356	-0.13862357
199	0x3d017480	0.031605244
200	0xbdcfc3d8	-0.10144776
201	0x3a6dfbf1	0.0009078375
202	0xbd37eb7c	-0.04490231
203	0x3dc61562	0.09672047
204	0x3c97c25f	0.0185253
205	0xbdc43df2	-0.09582128
206	0x3d34f5dc	0.044179782
207	0xbd98df67	-0.074644856
208	0xbceff488	-0.029291406
209	0x3d052fd4	0.032516316
210	0x3ea4099c	0.3203858
211	0x3d7509b0	0.05982369
212	0x3d7d6f1c	0.06187354
213	0xbd14a85a	-0.036293365
214	0x3d82f920	0.06395173
215	0xbdbc1996	-0.09184568
216	0x3d1f5e55	0.03890832
217	0x3d918a74	0.07106486
218	0x3da7f1e0	0.08200431
219	0x3e221bca	0.15830913
220	0xbda64966	-0.081194684
221	0xbd882358	-0.06647366
222	0x3cb744ed	0.022371734
223	0x3de4a6d0	0.111646295
224	0x39975600	0.0002886504
225	0xbcc686ff	-0.024234293
226	0xbd85f988	-0.06541735
227	0x3ca82620	0.020525992
228	0xbd698a8e	-0.0570169
229	0x3dcbfee0	0.09960723
230	0xbc4e21c0	-0.012581289
231	0x3e5aba94	0.21360236
232	0x3c787e20	0.015166789
233	0x3db5016a	0.0883816
234	0x3ded6f3d	0.11593483
235	0xbdc61f64	-0.09673956
236	0x3dfac0b2	0.12243785
237	0x3d5e6280	0.054293156
238	0x3d5eefac	0.054427788
239	0xbd710688	-0.05884412
240	0x3db9595c	0.09050247
241	0x3d839104	0.06424144
242	0xbdcd261c	-0.100170344
243	0x3df91feb	0.12164291
244	0xbdfabb12	-0.12242712
245	0x3b393440	0.0028259903
246	0x3e16482b	0.14675967
247	0x3df215b4	0.11820546
248	0x3da68d08	0.08132368
249	0xbb8de417	-0.004330169
250	0xba856980	-0.0010178536
251	0xbd62b100	-0.05534458
252	0x3c27f455	0.010251124
253	0xbdc50056	-0.09619205
254	0x3c45e970	0.012079582
255	0x3d413211	0.047166888

_transform._transforms.1.autoregressive_net.blocks.1.linear_layers.0.bias f4 [64]
0	0x3cc3c182	0.023895983
1	0x3ddfbe10	0.109249234
2	0x3c057acd	0.008146954
3	0xbc9cf3f1	-0.01915929
4	0xbca0480e	-0.019565608
5	0xbc75e25d	-0.0150075825
6	0x3ddc68e0	0.10762191
7	0x3d590e5f	0.05299222
8	0xbd9da46d	-0.07697377
9	0x3dd5ff3a	0.10449071
10	0xbce9ab05	-0.028523931
11	0xbcca2b64	-0.024678893
12	0x3b29b4a5	0.0025895026
13	0xbea475cd	-0.32121125
14	0xbd21a731	-0.039466087
15	0x3cc54239	0.024079429
16	0xbdbd2ed0	-0.092374444
17	0xbcd3949f	-0.025827704
18	0x3cc8a03d	0.02449047
19	0xbe644ad6	-0.22294173
20	0x3db7a6e7	0.08967381
21	0x3d8face5	0.07015399
22	0xba1069b9	-0.0005508918
23	0xbe0b35c8	-0.13594735
24	0x3cd071f8	0.02544497
25	0x3d571ac4	0.05251576
26	0x3dcd87d2	0.10035671
27	0xbc983ee3	-0.018584674
28	0x3da84d14	0.082178265
29	0x3d58fc22	0.052974828
30	0xbd4f0cdc	-0.050549373
31	0x3d4ff4c6	0.050770544
32	0xbd6cd9be	-0.057824843
33	0xbd732fb7	-0.059371676
34	0x3e068cb1	0.13139607
35	0x3d8a8a63	0.067646764
36	0xbd5bc39a	-0.053653337
37	0x3daadd18	0.083429515
38	0xbd1d1b64	-0.0383562
39	0xbdd618a0	-0.104539156
40	0x3ccc0bd8	0.024907991
41	0xbdc0cf9a	-0.09414597
42	0x3d0232e5	0.031786818
43	0xbde9e64c	-0.11420879
44	0x3c072dee	0.008250697
45	0xbd317a95	-0.043329794
46	0x3d1f20c6	0.038849615
47	0x3d846def	0.06466281
48	0x3d44b5d0	0.048024952
49	0xbc0253c7	-0.007954544
50	0xbdb023a9	-0.08600552
51	0xbd3ce965	-0.04612102
52	0x3d490589	0.049077544
53	0xbd68c7c2	-0.05683113
54	0xb9e42b68	-0.0004351989
55	0x3e016098	0.12634504
56	0xbd62b9e5	-0.055353064
57	0x3d5d84c9	0.054081712
58	0x3cc3c83f	0.023899196
59	0x3df15747	0.11784225
60	0x3d833f32	0.06408538
61	0x3cad794d	0.021176005
62	0xbd6175b4	-0.05504389
63	0x3d59687e	0.053078167
