model1/epoch=799modello-N_iter6-N_features64-N_BS10000-epochs1000-lr0.001.pth (torch, 918276 bytes, 108 tensors)

_transform._transforms.1.autoregressive_net.initial_layer.weight f4 [64, 4]
00000000: d245 d33d 46de ee3e 4a42 ac3e e49a 46be
00000010: 3085 903e 9a09 e23e d4f9 bb3e 286b 90be
00000020: 18f1 653d b0ce 95be d21d cebe 70dd fcbd
00000030: 6ecb bf3c da66 8bbe deea a0be 4ebc c4be
00000040: f138 e3be 9f77 a3bd 2091 fa3c fe77 ce3e
00000050: 86a5 19be f23f cfbe 77cb 663b de32 c43e
00000060: e8cc b63e c8f7 a9bd 4032 c0bc 3c86 ffbe
00000070: 0953 053f 3e7e edbe b0c2 9e3e 1286 ee3e
00000080: 4596 713e 9d83 e53b e124 c23e 70ed fd3d
00000090: c12a 4ebe 26bc d93e 12eb b53e c08d 2dbc
000000a0: 4fe0 dd3e d6c4 ecbe 80e0 3e3d bc69 bb3e
000000b0: d848 c2be bc7a 0b3d 94dc f4b9 a8f8 89bd
000000c0: bf77 003e 4af4 cbbe 185c 7e3e 00ca b23a
000000d0: 38c1 9dbd 0ff9 f8be 060e dc3e d0af 383d
000000e0: e6d5 db3e 53b3 d83d 92ec e23e 30b5 a33e
000000f0: e414 9d3e 0046 d23b cc22 a3be 60a3 49bd
00000100: 3063 32be 233c a43d ce94 cebe bc63 70be
00000110: 2653 c6be 4403 553d 1fbd 6f3e 0868 1ebe
00000120: 8394 98be c054 333c 5637 d0be d69d c0be
00000130: a290 0dbe 4fd2 dcbd 58f9 2c3e 1e70 8cbe
00000140: 4ca5 fe3d ee52 053e 7631 153d 1cb5 3d3e
00000150: 9f6e 39be de71 e73e a0a8 39bd 66e3 d93e
00000160: 7379 80be 52fb a73e 20f8 b63d 7c0c ce3e
00000170: fe3c 903e f11a 9fbb effb 1ebe 66bc c63e
00000180: e4e7 313d be70 873e 6c3e 0c3e 16b1 cf3e
00000190: 10bd 0c3e c498 b1be aac2 b33e 3c09 493e
000001a0: 777d 45bd 1db6 713e 59d8 43be cef3 f0be
000001b0: 948d 63be 8874 df3d 6493 b23e 80a4 6c3c
000001c0: 7ad4 87be 9f83 f03d 326e cabe 6003 60bd
000001d0: bd5c 3f3e 6237 ca3c 1cba 8cbd d029 0c3e
000001e0: 955d bdbe 8048 7c3d f81d 08be 5c6a b33e
000001f0: f9cf 8e3e 203f 9dbe 5283 a3be e830 febe
00000200: 66dc 9fbe b5c9 9c3d 7ec3 06bf b2e7 b23e
00000210: cbf5 9cbe f4d0 493e cc34 9bbe 00e4 433e
00000220: 46d6 0b3e c82d 18bd 6e5d bb3e 4040 a63e
00000230: 9e7b 9bbd 590d e63e 7282 e53e a0f6 84bd
00000240: 368a 0e3f a095 dfbe 7edf b93e 788c d83d
00000250: ec4f 1dbe a193 cf3d 5087 a03d e4df bf3e
00000260: c5c0 c93e ac66 b2be 56f8 e93e baca 9ebe
00000270: 1b85 69be c22f e33e 88a3 403e 4060 ab3c
00000280: db4e 58be 7b40 ad3e 1839 fcbe 00ca f33d
00000290: da43 b93c 8215 e23e bb7f 893e 2470 47be
000002a0: 3639 0bbe 3843 9a3d 0050 1dba c854 bc3d
000002b0: 1ccf a4be fc4c 7cbe 54c9 6a3e f0d3 b63d
000002c0: c8ff 91be 3c60 533e f73f 223e 16e4 db3e
000002d0: 4bc8 7c3e 2857 22be 3834 dfbe 684f bc3d
000002e0: c8ba ee3e 601d a33e 6072 753d f843 7cbe
000002f0: d3d1 873d d74d d33e 2dd8 e63e 2413 48be
00000300: f58f be3e 2c1f a8be d09d 68bd bc69 64be
00000310: a5ab cbbe ba93 593e 50fa 6bbe 00c2 d53c
00000320: 8328 eebe 3711 813e 183b e93e 241c 993e
00000330: a84e 11be c2e2 c33e 94aa 9fbe 0082 ff3a
00000340: 9e58 9c3e 2e9f ca3e 3686 a43e 98b7 0bbe
00000350: 075a 6c3e 5b9f 333e 3edb b0be 1c40 7bbe
00000360: 9418 4bbe a2cb bf3e 8a1b 9f3e f8b3 d33e
00000370: 4af2 82bc 7014 03bf b06c e7be ee2b a53e
00000380: bcd4 a63e a93f 9a3e 3b80 763e 2037 083d
00000390: 4eb0 fc3e 7277 8cbe 38d4 f23d b021 2c3d
000003a0: 2ac9 3bbe 6b02 1dbc 1cd4 a83e 0ccf 563e
000003b0: 8daf 77be 010d c63e cd58 cbbe 64fd 01be
000003c0: 6047 063e ae75 ee3e 2027 e23d c83b ce3e
000003d0: 6189 f73e b160 e6be d8b5 ccbd 846f b53e
000003e0: 518a d1be 7863 a53d d676 c93d c072 e9be
000003f0: 908e de3e 2efb b9be 9658 e5be 2a15 c1be
0.103160515 0.46653956 0.33644325 -0.19395024 0.28226614 0.4414795 0.3671404 -0.28206754
0.056138128 -0.29259253 -0.40257126 -0.12346923 0.023412433 -0.27226907 -0.3142919 -0.38424915
-0.4437938 -0.079818 0.03058678 0.40325922 -0.15004548 -0.40478474 0.003521649 0.3832006
0.35703206 -0.08299214 -0.023461461 -0.499071 0.52079827 -0.46385378 0.3100791 0.46586663
0.2359248 0.007004215 0.3791876 0.12398803 -0.20133497 0.42526358 0.35530907 -0.010592878
0.43335196 -0.46243924 0.04660082 0.36604106 -0.379462 0.034052595 -0.0004670365 -0.067368805
0.1254568 -0.39834815 0.24839818 0.0013640523 -0.07702869 -0.48627517 0.4297945 0.045089543
0.4293663 0.105810784 0.44321114 0.31974173 0.3068 0.006417036 -0.31862485 -0.049228072
-0.1742065 0.08019283 -0.40347904 -0.23475546 -0.38735312 0.052005067 0.23411988 -0.15469372
-0.29800805 0.010945499 -0.40667218 -0.3762042 -0.13824704 -0.10782301 0.16891992 -0.2742929
0.124338716 0.13019916 0.036424123 0.18526119 -0.18108605 0.4520406 -0.04532683 0.42556304
-0.25092658 0.3280893 0.08934045 0.402439 0.28171533 -0.0048555066 -0.15525793 0.38815612
0.04343404 0.26453203 0.13695687 0.40564793 0.13743997 -0.34686863 0.35109454 0.19632429
-0.048215356 0.23604627 -0.19125499 -0.47061008 -0.22221977 0.109108984 0.34878075 0.014443517
-0.26529294 0.11743855 -0.39537197 -0.05469072 0.1868772 0.024684612 -0.06871435 0.13687825
-0.3698546 0.06159258 -0.13292682 0.35042083 0.27893046 -0.30712223 -0.31936127 -0.49646688
-0.31222838 0.0765566 -0.5264205 0.34942394 -0.30656275 0.19708616 -0.30313718 0.19129944
0.13655958 -0.037153035 0.3659472 0.32470894 -0.075919375 0.44932058 0.44826084 -0.064923525
0.55679643 -0.43668842 0.36303324 0.10573667 -0.15362519 0.1013558 0.07838309 0.37475502
0.39404884 -0.34843957 0.45697278 -0.31014043 -0.22804682 0.44372374 0.18812382 0.020919919
-0.21123831 0.33838257 -0.4926231 0.11903763 0.022615362 0.44157034 0.26855263 -0.19476372
-0.13596043 0.07532352 -0.00060009956 0.09195858 -0.32189262 -0.24638742 0.22928363 0.089271426
-0.28515458 0.20642179 0.15844713 0.42947453 0.2468578 -0.1585356 -0.43594527 0.09194833
0.46626878 0.3185835 0.05992353 -0.24635303 0.06631818 0.41270325 0.45086804 -0.19538552
0.37219205 -0.32836282 -0.056791127 -0.2230596 -0.39779392 0.2124776 -0.23044705 0.026093483
-0.46515283 0.25208446 0.45552897 0.29904282 -0.14190161 0.3825894 -0.31184828 0.0019493699
0.3053636 0.3957457 0.32133645 -0.13644254 0.23081218 0.17541258 -0.3454227 -0.24536175
-0.19833595 0.37460047 0.31075698 0.41348243 -0.015984673 -0.5120306 -0.4520011 0.32260078
0.32584178 0.30126694 0.24072354 0.033255696 0.4935326 -0.2743488 0.11856884 0.042024314
-0.18338457 -0.009583096 0.32974327 0.2097742 -0.24188061 0.38681796 -0.39716187 -0.12694317
0.13113165 0.46574157 0.11042619 0.40279984 0.48347 -0.44995645 -0.099956214 0.35436642
-0.4092584 0.08075613 0.09837119 -0.4559536 0.43468142 -0.36324447 -0.44794148 -0.3771146

_transform._transforms.1.autoregressive_net.initial_layer.bias f4 [64]
00000000: 0feb a43c 2748 1abe aac7 be3e 7640 b6be
00000010: 3419 613e 3748 823d 28d5 cebe 0b28 d23e
00000020: 090e 6cbc 489a 4f3e 6f70 33be 7a21 72be
00000030: 9514 70be 9eea febe 335c 833e e885 7abe
00000040: 5793 47be ce6e 5cbe 6280 74be f955 37be
00000050: da9c 88be e5d2 a03d 1ce9 d13e f7ae 873e
00000060: d813 f93d 7491 ba3d b019 a93d 84c3 b23d
00000070: 6c68 d03d df8b a5be 43b8 f3bd 6f87 dcbe
00000080: c081 f73d 161e 3c3e 5464 163c a2a9 cf3d
00000090: 384e 37be c8ef a33e 5927 c6bd 4c43 96bd
000000a0: fdeb c93e 71e4 ad3e 95d3 453e 06c7 9d3e
000000b0: 55ab 09be a852 8b3e e4ad a8be e117 b6be
000000c0: 8328 dc3c b40d bbbe 3525 0abd c358 3c3e
000000d0: ef6f 0bbe 1029 e33e 0549 b0bc 8079 86bc
000000e0: 7ba1 b5be b731 a8be 8504 97bd 3aa4 16be
000000f0: ab2f 6f3e ee18 10bd e368 f03e 25ef c8be
0.020131616 -0.15066586 0.37261707 -0.35596055 0.2198227 0.0636143 -0.40397 0.41046175
-0.014407643 0.20273697 -0.17523359 -0.23645583 -0.23445351 -0.49788374 0.2565628 -0.24465144
-0.194898 -0.21526644 -0.23877099 -0.1790389 -0.26682168 0.07852725 0.4099816 0.26500675
0.12161988 0.09109774 0.082568526 0.08728698 0.10176167 -0.32333276 -0.119003795 -0.43072078
0.12085295 0.18370852 0.0091791935 0.10139777 -0.17900932 0.32018876 -0.09675474 -0.073370546
0.39437857 0.3396335 0.19318993 0.30815905 -0.13444264 0.272115 -0.32945168 -0.35565093
0.026874786 -0.36533892 -0.03372689 0.18393235 -0.13616918 0.44367266 -0.021519193 -0.016415358
-0.35474762 -0.3285043 -0.07373909 -0.14711085 0.23358028 -0.035180025 0.46955022 -0.39244953

_transform._transforms.1.autoregressive_net.initial_layer.mask f4 [64, 4]
00000000: 0000 803f 0000 0000 0000 0000 0000 0000
00000010: 0000 803f 0000 803f 0000 0000 0000 0000
00000020: 0000 803f 0000 803f 0000 803f 0000 0000
00000030: 0000 803f 0000 0000 0000 0000 0000 0000
00000040: 0000 803f 0000 803f 0000 0000 0000 0000
00000050: 0000 803f 0000 803f 0000 803f 0000 0000
00000060: 0000 803f 0000 0000 0000 0000 0000 0000
00000070: 0000 803f 0000 803f 0000 0000 0000 0000
00000080: 0000 803f 0000 803f 0000 803f 0000 0000
00000090: 0000 803f 0000 0000 0000 0000 0000 0000
000000a0: 0000 803f 0000 803f 0000 0000 0000 0000
000000b0: 0000 803f 0000 803f 0000 803f 0000 0000
000000c0: 0000 803f 0000 0000 0000 0000 0000 0000
000000d0: 0000 803f 0000 803f 0000 0000 0000 0000
000000e0: 0000 803f 0000 803f 0000 803f 0000 0000
000000f0: 0000 803f 0000 0000 0000 0000 0000 0000
00000100: 0000 803f 0000 803f 0000 0000 0000 0000
00000110: 0000 803f 0000 803f 0000 803f 0000 0000
00000120: 0000 803f 0000 0000 0000 0000 0000 0000
00000130: 0000 803f 0000 803f 0000 0000 0000 0000
00000140: 0000 803f 0000 803f 0000 803f 0000 0000
00000150: 0000 803f 0000 0000 0000 0000 0000 0000
00000160: 0000 803f 0000 803f 0000 0000 0000 0000
00000170: 0000 803f 0000 803f 0000 803f 0000 0000
00000180: 0000 803f 0000 0000 0000 0000 0000 0000
00000190: 0000 803f 0000 803f 0000 0000 0000 0000
000001a0: 0000 803f 0000 803f 0000 803f 0000 0000
000001b0: 0000 803f 0000 0000 0000 0000 0000 0000
000001c0: 0000 803f 0000 803f 0000 0000 0000 0000
000001d0: 0000 803f 0000 803f 0000 803f 0000 0000
000001e0: 0000 803f 0000 0000 0000 0000 0000 0000
000001f0: 0000 803f 0000 803f 0000 0000 0000 0000
00000200: 0000 803f 0000 803f 0000 803f 0000 0000
00000210: 0000 803f 0000 0000 0000 0000 0000 0000
00000220: 0000 803f 0000 803f 0000 0000 0000 0000
00000230: 0000 803f 0000 803f 0000 803f 0000 0000
00000240: 0000 803f 0000 0000 0000 0000 0000 0000
00000250: 0000 803f 0000 803f 0000 0000 0000 0000
00000260: 0000 803f 0000 803f 0000 803f 0000 0000
00000270: 0000 803f 0000 0000 0000 0000 0000 0000
00000280: 0000 803f 0000 803f 0000 0000 0000 0000
00000290: 0000 803f 0000 803f 0000 803f 0000 0000
000002a0: 0000 803f 0000 0000 0000 0000 0000 0000
000002b0: 0000 803f 0000 803f 0000 0000 0000 0000
000002c0: 0000 803f 0000 803f 0000 803f 0000 0000
000002d0: 0000 803f 0000 0000 0000 0000 0000 0000
000002e0: 0000 803f 0000 803f 0000 0000 0000 0000
000002f0: 0000 803f 0000 803f 0000 803f 0000 0000
00000300: 0000 803f 0000 0000 0000 0000 0000 0000
00000310: 0000 803f 0000 803f 0000 0000 0000 0000
00000320: 0000 803f 0000 803f 0000 803f 0000 0000
00000330: 0000 803f 0000 0000 0000 0000 0000 0000
00000340: 0000 803f 0000 803f 0000 0000 0000 0000
00000350: 0000 803f 0000 803f 0000 803f 0000 0000
00000360: 0000 803f 0000 0000 0000 0000 0000 0000
00000370: 0000 803f 0000 803f 0000 0000 0000 0000
00000380: 0000 803f 0000 803f 0000 803f 0000 0000
00000390: 0000 803f 0000 0000 0000 0000 0000 0000
000003a0: 0000 803f 0000 803f 0000 0000 0000 0000
000003b0: 0000 803f 0000 803f 0000 803f 0000 0000
000003c0: 0000 803f 0000 0000 0000 0000 0000 0000
000003d0: 0000 803f 0000 803f 0000 0000 0000 0000
000003e0: 0000 803f 0000 803f 0000 803f 0000 0000
000003f0: 0000 803f 0000 0000 0000 0000 0000 0000
1.0 0.0 0.0 0.0 1.0 1.0 0.0 0.0
1.0 1.0 1.0 0.0 1.0 0.0 0.0 0.0
1.0 1.0 0.0 0.0 1.0 1.0 1.0 0.0
1.0 0.0 0.0 0.0 1.0 1.0 0.0 0.0
1.0 1.0 1.0 0.0 1.0 0.0 0.0 0.0
1.0 1.0 0.0 0.0 1.0 1.0 1.0 0.0
1.0 0.0 0.0 0.0 1.0 1.0 0.0 0.0
1.0 1.0 1.0 0.0 1.0 0.0 0.0 0.0
1.0 1.0 0.0 0.0 1.0 1.0 1.0 0.0
1.0 0.0 0.0 0.0 1.0 1.0 0.0 0.0
1.0 1.0 1.0 0.0 1.0 0.0 0.0 0.0
1.0 1.0 0.0 0.0 1.0 1.0 1.0 0.0
1.0 0.0 0.0 0.0 1.0 1.0 0.0 0.0
1.0 1.0 1.0 0.0 1.0 0.0 0.0 0.0
1.0 1.0 0.0 0.0 1.0 1.0 1.0 0.0
1.0 0.0 0.0 0.0 1.0 1.0 0.0 0.0
1.0 1.0 1.0 0.0 1.0 0.0 0.0 0.0
1.0 1.0 0.0 0.0 1.0 1.0 1.0 0.0
1.0 0.0 0.0 0.0 1.0 1.0 0.0 0.0
1.0 1.0 1.0 0.0 1.0 0.0 0.0 0.0
1.0 1.0 0.0 0.0 1.0 1.0 1.0 0.0
1.0 0.0 0.0 0.0 1.0 1.0 0.0 0.0
1.0 1.0 1.0 0.0 1.0 0.0 0.0 0.0
1.0 1.0 0.0 0.0 1.0 1.0 1.0 0.0
1.0 0.0 0.0 0.0 1.0 1.0 0.0 0.0
1.0 1.0 1.0 0.0 1.0 0.0 0.0 0.0
1.0 1.0 0.0 0.0 1.0 1.0 1.0 0.0
1.0 0.0 0.0 0.0 1.0 1.0 0.0 0.0
1.0 1.0 1.0 0.0 1.0 0.0 0.0 0.0
1.0 1.0 0.0 0.0 1.0 1.0 1.0 0.0
1.0 0.0 0.0 0.0 1.0 1.0 0.0 0.0
1.0 1.0 1.0 0.0 1.0 0.0 0.0 0.0

_transform._transforms.1.autoregressive_net.blocks.0.linear_layers.0.weight f4 [64, 64]
00000000: a097 653d 4481 103d 5c19 6b3d 04f4 ffbd
00000010: c0b0 0c3b 401c d1bb 30a9 233c 1c9f 20bd
00000020: 0eaf c33d 476b f9bc 600d b2bb 48ea 833c
00000030: 80d9 85bd 4860 e6bd 7092 de3c 0ac2 87bd
00000040: 2086 933b 5edb 9c3d 75fe 1a3f 9c3f cfbd
00000050: bcd6 f43d 12e5 aa3c 1826 bd3c e00e f7bb
00000060: cdfe ca3d 7a8e b4bd 3e64 d93d 566f ba3d
00000070: 70de 23bd c8cf ba3d 32ac 38ba a048 73bd
00000080: 5420 a63d 7b36 fa3d f046 913d 902a fe3c
00000090: 1389 ff3c 806b 793c 0e07 bb3d 91ec 28bb
000000a0: 8ebf d5bd 2cce 93bd 1731 253b da67 f2bd
000000b0: fa4e b6bd 58da 09be dcbe 56bd 00c5 e2ba
000000c0: 1103 b9bb ca6e e9bd d263 c43d a631 be3a
000000d0: acc1 fcbd ee82 e1bd 2d27 133e 84a4 9cbd
000000e0: a854 c93c ccd2 fabd 401b 79bd a020 c03c
000000f0: f4a9 b53d c876 933c eaf0 843d e4ea 553b
00000100: 5ef2 17be 011a c83c e473 a43d 9c2f 1dbd
00000110: c659 5f39 a0f4 7fbc 63ec 303d 2a2f 17bc
00000120: 46b4 db3d d2ee fcbc e876 6abd dc2e eebd
00000130: ae87 22be 1826 81bd 0a10 a6bd 230b a33d
00000140: 6a12 a2bd 9a66 833d 756a 21bf 84be 33be
00000150: 564c a2bd eeda a6bd 6f58 c23d ea1e 8dbd
00000160: fc5e 763d 221e 813d 242a 113d e6c4 013e
00000170: 840c 5d3c 9446 193d 824d 2abe ee51 c3be
00000180: bc1c d6bd d3e1 afbd 292a a9bd 346f 3cbd
00000190: 7007 9ebb 45b5 3d3d 8e5e ba3d 797d cfbc
000001a0: 5aef 33bd c839 dfbd 634f df39 23e3 e1bc
000001b0: 00be 063c da49 133e ee2a 64bd d86d 94bc
000001c0: bae3 f03b 884e 61bd 84cb da3d 45ca 8fbd
000001d0: a891 0dbe 5eea d0bd 3986 c6bb 853f 04bd
000001e0: c07e 9e3d 0c9c 39bc 6621 a13d 687d 81bc
000001f0: fa77 8f3d caaf 963e a8f3 6a3d a8d9 cbbd
00000200: f6ae 7ebc f38c 113c 1077 ce3c b0a4 313d
00000210: 0d3a 803d b5c8 183c 33a6 c8bd 6651 fcbd
00000220: bce4 76bd fd4d a2bd 35e6 24bd 5a7f 56bd
00000230: 5cd3 5bbd 9187 f33d 8b9e cdbd 253b 12bc
00000240: 5c3a 283d a7ef 01be 84f4 80bc 2fef e53d
00000250: 0017 dc3d 37a2 c33d 297e a03c eaab 2fbd
00000260: 285b 6cbc 25d3 2a3d 2514 a6bc f73f 113d
00000270: 6ff6 e83d 3ee9 efbc 2872 123d 505e f8bd
00000280: 4ba5 b7bd dc5c 4f3d bed2 68bd 379e ef3d
00000290: 4e98 653d a1e6 85bd 01d2 1ebd 9e2a 08bd
000002a0: df29 743c 6f46 4fbd 0bef 033c acd6 90bd
000002b0: dd8a d9bd 3f27 c8bd 8c20 ccbb 73ce 903d
000002c0: 976c 37bc 0875 2dbd a151 c23c 6766 f4bd
000002d0: f5b0 b63d 20f8 ca3c a07b 2fbc 263c 29bc
000002e0: 4ba6 9e3c 6916 6ebd d1b9 00be afea 9dbd
000002f0: 0e2f 6d3d 206b cb3d 5010 aa3d c374 93bd
00000300: 19ee 603d 50ff 01bd d842 63bd dc99 503d
00000310: a0a9 653c f80b d1bc d8f9 c3bd 886a 31bd
00000320: b8b7 d23c 51c4 d0bb e010 debb fe56 96bd
00000330: 6e4f 04bc f0cb 2dbc 200f 12bc 0bf2 dd3c
00000340: ceda ab3d 72c2 bbbd e2c3 273f 68aa fbbd
00000350: acc7 afbd f067 f33d a45c 5bbd e0c5 efbd
00000360: 3cfa a7bd 8059 09bd c02b 8dbd bf96 ef3c
00000370: 10d4 8d3c 36b0 993d 72d9 b43d f211 c2bd
00000380: 70e2 9ebc ee94 a63c 18e6 113d 28d7 88bc
00000390: 9e12 e33c b48d 8a3d ccc0 593d 2c3d 133e
000003a0: fea7 e8bd 900b 173d a3e2 013e 80c8 e5bd
000003b0: 4ed0 85bd 4f08 ebbd 44ff 5b3d c88b 273d
000003c0: 1617 acbd b4d0 a13d 7cd7 4ebd aeb4 b43d
000003d0: 08ef d8bd 2047 083d 7a1f e13d f021 df3c
000003e0: 86f3 f5bd 4b8a 123d 300a e4bd fcbb 313d
000003f0: 9815 c23b c073 ffbd b8a5 e0bc 8ab5 a43c
0.056052804 0.035279527 0.05739723 -0.12497714 0.0021467656 -0.0063815415 0.009989068 -0.03921424
0.095548734 -0.030446662 -0.0054337233 0.016102925 -0.065356255 -0.11248833 0.027169436 -0.06628807
0.004502073 0.076590285 0.6054452 -0.101195544 0.1195502 0.020861182 0.023089454 -0.007539615
0.09911881 -0.08816238 0.10614823 0.09103267 -0.040007055 0.091216624 -0.0007044702 -0.059395432
0.08111635 0.122174226 0.070936084 0.031026155 0.031193292 0.015223384 0.09132205 -0.002577577
-0.10436927 -0.072170585 0.0025206262 -0.11836214 -0.08901782 -0.13462198 -0.05242811 -0.0017301142
-0.0056461175 -0.113980845 0.09589352 0.0014510646 -0.123416275 -0.11011301 0.14370413 -0.07648566
0.0245765 -0.122472376 -0.060817003 0.023453057 0.088703066 0.018000975 0.06491263 0.0032641226
-0.1483855 0.024426462 0.08029917 -0.038375482 0.0002130038 -0.015622288 0.043194186 -0.009227553
0.10727744 -0.030875597 -0.057242304 -0.116300315 -0.1587207 -0.06306094 -0.08108528 0.079611085
-0.079136685 0.06416054 -0.63053066 -0.17553145 -0.07924716 -0.08147226 0.094895236 -0.06890662
0.060149178 0.063045755 0.03544058 0.12672767 0.0134917535 0.037420824 -0.1663113 -0.38148445
-0.104546994 -0.085879944 -0.082599945 -0.04600449 -0.004822664 0.04631545 0.09100066 -0.025328385
-0.043929435 -0.10899693 0.00042593022 -0.027574128 0.0082240105 0.14383641 -0.055705003 -0.018118784
0.007351366 -0.055006534 0.10683349 -0.07021002 -0.13825095 -0.10200952 -0.006058481 -0.03228714
0.077390194 -0.011328708 0.07867698 -0.015806869 0.070053056 0.2943099 0.057361275 -0.09953624
-0.015544644 0.008883703 0.025203258 0.04336995 0.06261072 0.009325196 -0.09797325 -0.12320213
-0.06027673 -0.07925031 -0.040258605 -0.052367546 -0.053668365 0.118910916 -0.10040005 -0.008925234
0.04107128 -0.12689076 -0.015741594 0.11227261 0.107465744 0.095524244 0.019591408 -0.04288856
-0.01442603 0.04170527 -0.020273278 0.035461392 0.113751285 -0.029286023 0.0357534 -0.12127364
-0.08967074 0.050625667 -0.056841604 0.11700099 0.056053452 -0.065381296 -0.038774494 -0.033243768
0.014902561 -0.05060428 0.008052598 -0.070721954 -0.10622189 -0.097731106 -0.006229466 0.07070627
-0.011195323 -0.042347938 0.023720564 -0.11933594 0.089204706 0.024776518 -0.010710627 -0.010329282
0.019366404 -0.05812684 -0.12570883 -0.07710778 0.057906203 0.09932542 0.083038926 -0.07200005
0.054914568 -0.031737626 -0.05548367 0.05092798 0.0140174925 -0.025518402 -0.09569138 -0.043314487
0.02572237 -0.006371059 -0.006776914 -0.07340811 -0.008075578 -0.0106077045 -0.008914739 0.027092954
0.08391343 -0.09167947 0.6553327 -0.12288362 -0.08583006 0.11885059 -0.053555146 -0.117076635
-0.08202025 -0.03353262 -0.0689311 0.029246686 0.017313033 0.07504313 0.08830537 -0.09476079
-0.019395083 0.020334687 0.035619825 -0.016704157 0.027718838 0.06765309 0.05316238 0.14378804
-0.11360167 0.03687626 0.12684111 -0.11219883 -0.065338716 -0.11476194 0.053710237 0.04090479
-0.08402841 0.07901135 -0.05049847 0.088235244 -0.105924666 0.033270955 0.10992332 0.027237862
-0.12009339 0.035776418 -0.111347556 0.043392166 0.0059229843 -0.124732494 -0.02742277 0.020106096

_transform._transforms.1.autoregressive_net.blocks.0.linear_layers.0.bias f4 [64]
00000000: 81eb 8d3d 1b82 003e 2f48 94bd cd7e 913d
00000010: 23b4 ed3d a35a c0bd 62a4 e6bd 8880 843d
00000020: a760 3dbd 007d b1bc 6177 a03d 91ab b43d
00000030: 3996 c33d 5505 883d 289b e93d 18c1 703d
00000040: 732b ba3d eb8f bdbd a677 ecbd 75eb 043e
00000050: 4606 293d 96bc 8abd 2ef0 d73d c0dd 2ebd
00000060: bbe2 4dbd 9198 f33b 7572 1b3d 9f3d efbd
00000070: 6bbb be3d c335 a83d 56e4 5abd 0d9e dc3b
00000080: 3b80 ca3c 0f2c ff3c e89b 7abd b8ff d83d
00000090: 87bf 983d 35c9 c3bb 8223 123e d813 ea3d
000000a0: 892e 9abc f9f9 ba3d 4d61 ab3d c0e7 94bd
000000b0: b071 593d 154f 4b3d 866b ae3d c3ed 903d
000000c0: 94f8 e93c 77a1 e33d d4ff c63d 4f1e 72bc
000000d0: 9ff3 0d3e 4672 903c f041 81bd 8601 a4bd
000000e0: 65a3 02be cf11 4c3d 0cc2 c33a 731c 183e
000000f0: b8cf 7dbc 6d0f 083e 9e65 5e3d d296 8fbd
0.069296844 0.12549631 -0.072403304 0.071042635 0.11606624 -0.093922876 -0.11261822 0.06469828
-0.046234753 -0.02166605 0.0783527 0.08821786 0.09550137 0.06641642 0.11406547 0.0587779
0.090903185 -0.09255966 -0.11546259 0.12980445 0.04126575 -0.06774251 0.105438575 -0.042691946
-0.050265055 0.007433959 0.03795095 -0.11681675 0.09313091 0.08213379 -0.053440414 0.0067327083
0.024719348 0.031148938 -0.06118384 0.105956495 0.07458406 -0.0059749135 0.14271358 0.11429566
-0.018821018 0.0912971 0.08368168 -0.07270765 0.053086936 0.049635965 0.08516602 0.070765994
0.028560914 0.11114781 0.09716764 -0.014777734 0.13862465 0.017632615 -0.06311405 -0.08008103
-0.12757643 0.04982167 0.001493515 0.14854603 -0.015491419 0.13287134 0.05429613 -0.070111886

_transform._transforms.1.autoregressive_net.blocks.0.linear_layers.0.mask f4 [64, 64]
00000000: 0000 803f 0000 0000 0000 0000 0000 803f
00000010: 0000 0000 0000 0000 0000 803f 0000 0000
00000020: 0000 0000 0000 803f 0000 0000 0000 0000
00000030: 0000 803f 0000 0000 0000 0000 0000 803f
00000040: 0000 0000 0000 0000 0000 803f 0000 0000
00000050: 0000 0000 0000 803f 0000 0000 0000 0000
00000060: 0000 803f 0000 0000 0000 0000 0000 803f
00000070: 0000 0000 0000 0000 0000 803f 0000 0000
00000080: 0000 0000 0000 803f 0000 0000 0000 0000
00000090: 0000 803f 0000 0000 0000 0000 0000 803f
000000a0: 0000 0000 0000 0000 0000 803f 0000 0000
000000b0: 0000 0000 0000 803f 0000 0000 0000 0000
000000c0: 0000 803f 0000 0000 0000 0000 0000 803f
000000d0: 0000 0000 0000 0000 0000 803f 0000 0000
000000e0: 0000 0000 0000 803f 0000 0000 0000 0000
000000f0: 0000 803f 0000 0000 0000 0000 0000 803f
00000100: 0000 803f 0000 803f 0000 0000 0000 803f
00000110: 0000 803f 0000 0000 0000 803f 0000 803f
00000120: 0000 0000 0000 803f 0000 803f 0000 0000
00000130: 0000 803f 0000 803f 0000 0000 0000 803f
00000140: 0000 803f 0000 0000 0000 803f 0000 803f
00000150: 0000 0000 0000 803f 0000 803f 0000 0000
00000160: 0000 803f 0000 803f 0000 0000 0000 803f
00000170: 0000 803f 0000 0000 0000 803f 0000 803f
00000180: 0000 0000 0000 803f 0000 803f 0000 0000
00000190: 0000 803f 0000 803f 0000 0000 0000 803f
000001a0: 0000 803f 0000 0000 0000 803f 0000 803f
000001b0: 0000 0000 0000 803f 0000 803f 0000 0000
000001c0: 0000 803f 0000 803f 0000 0000 0000 803f
000001d0: 0000 803f 0000 0000 0000 803f 0000 803f
000001e0: 0000 0000 0000 803f 0000 803f 0000 0000
000001f0: 0000 803f 0000 803f 0000 0000 0000 803f
00000200: 0000 803f 0000 803f 0000 803f 0000 803f
00000210: 0000 803f 0000 803f 0000 803f 0000 803f
00000220: 0000 803f 0000 803f 0000 803f 0000 803f
00000230: 0000 803f 0000 803f 0000 803f 0000 803f
00000240: 0000 803f 0000 803f 0000 803f 0000 803f
00000250: 0000 803f 0000 803f 0000 803f 0000 803f
00000260: 0000 803f 0000 803f 0000 803f 0000 803f
00000270: 0000 803f 0000 803f 0000 803f 0000 803f
00000280: 0000 803f 0000 803f 0000 803f 0000 803f
00000290: 0000 803f 0000 803f 0000 803f 0000 803f
000002a0: 0000 803f 0000 803f 0000 803f 0000 803f
000002b0: 0000 803f 0000 803f 0000 803f 0000 803f
000002c0: 0000 803f 0000 803f 0000 803f 0000 803f
000002d0: 0000 803f 0000 803f 0000 803f 0000 803f
000002e0: 0000 803f 0000 803f 0000 803f 0000 803f
000002f0: 0000 803f 0000 803f 0000 803f 0000 803f
00000300: 0000 803f 0000 0000 0000 0000 0000 803f
00000310: 0000 0000 0000 0000 0000 803f 0000 0000
00000320: 0000 0000 0000 803f 0000 0000 0000 0000
00000330: 0000 803f 0000 0000 0000 0000 0000 803f
00000340: 0000 0000 0000 0000 0000 803f 0000 0000
00000350: 0000 0000 0000 803f 0000 0000 0000 0000
00000360: 0000 803f 0000 0000 0000 0000 0000 803f
00000370: 0000 0000 0000 0000 0000 803f 0000 0000
00000380: 0000 0000 0000 803f 0000 0000 0000 0000
00000390: 0000 803f 0000 0000 0000 0000 0000 803f
000003a0: 0000 0000 0000 0000 0000 803f 0000 0000
000003b0: 0000 0000 0000 803f 0000 0000 0000 0000
000003c0: 0000 803f 0000 0000 0000 0000 0000 803f
000003d0: 0000 0000 0000 0000 0000 803f 0000 0000
000003e0: 0000 0000 0000 803f 0000 0000 0000 0000
000003f0: 0000 803f 0000 0000 0000 0000 0000 803f
1.0 0.0 0.0 1.0 0.0 0.0 1.0 0.0
0.0 1.0 0.0 0.0 1.0 0.0 0.0 1.0
0.0 0.0 1.0 0.0 0.0 1.0 0.0 0.0
1.0 0.0 0.0 1.0 0.0 0.0 1.0 0.0
0.0 1.0 0.0 0.0 1.0 0.0 0.0 1.0
0.0 0.0 1.0 0.0 0.0 1.0 0.0 0.0
1.0 0.0 0.0 1.0 0.0 0.0 1.0 0.0
0.0 1.0 0.0 0.0 1.0 0.0 0.0 1.0
1.0 1.0 0.0 1.0 1.0 0.0 1.0 1.0
0.0 1.0 1.0 0.0 1.0 1.0 0.0 1.0
1.0 0.0 1.0 1.0 0.0 1.0 1.0 0.0
1.0 1.0 0.0 1.0 1.0 0.0 1.0 1.0
0.0 1.0 1.0 0.0 1.0 1.0 0.0 1.0
1.0 0.0 1.0 1.0 0.0 1.0 1.0 0.0
1.0 1.0 0.0 1.0 1.0 0.0 1.0 1.0
0.0 1.0 1.0 0.0 1.0 1.0 0.0 1.0
1.0 1.0 1.0 1.0 1.0 1.0 1.0 1.0
1.0 1.0 1.0 1.0 1.0 1.0 1.0 1.0
1.0 1.0 1.0 1.0 1.0 1.0 1.0 1.0
1.0 1.0 1.0 1.0 1.0 1.0 1.0 1.0
1.0 1.0 1.0 1.0 1.0 1.0 1.0 1.0
1.0 1.0 1.0 1.0 1.0 1.0 1.0 1.0
1.0 1.0 1.0 1.0 1.0 1.0 1.0 1.0
1.0 1.0 1.0 1.0 1.0 1.0 1.0 1.0
1.0 0.0 0.0 1.0 0.0 0.0 1.0 0.0
0.0 1.0 0.0 0.0 1.0 0.0 0.0 1.0
0.0 0.0 1.0 0.0 0.0 1.0 0.0 0.0
1.0 0.0 0.0 1.0 0.0 0.0 1.0 0.0
0.0 1.0 0.0 0.0 1.0 0.0 0.0 1.0
0.0 0.0 1.0 0.0 0.0 1.0 0.0 0.0
1.0 0.0 0.0 1.0 0.0 0.0 1.0 0.0
0.0 1.0 0.0 0.0 1.0 0.0 0.0 1.0

_transform._transforms.1.autoregressive_net.blocks.0.linear_layers.1.weight f4 [64, 64]
00000000: 6024 3c3d 4a16 da39 8698 1a3a 9416 353d
00000010: 01c0 4238 2717 b139 799b b7b9 1b24 593a
00000020: bd94 c737 303d b0b8 8068 fcb9 bba1 f0b9
00000030: fecd 003d 63f9 25ba a462 20ba 5b62 75ba
00000040: fd5d ccb9 6f28 5c3a d2b2 6738 804e 48b9
00000050: 1934 02b9 3d64 82ba a83e 2bba 4e28 0cba
00000060: 3a0c cabd 5248 393a 01b0 da38 7130 a93b
00000070: bd8b 353a 82df b039 2977 9d3c 81c7 11ba
00000080: b568 c937 f73a 563d b39d 0a37 7f95 00ba
00000090: 856b 743d 1925 45ba 2895 4839 701f 6f3d
000000a0: 1b2f 8438 79c7 52ba d4dc 353d 2813 563a
000000b0: 9876 ebb8 a152 4f3d 1f5e 2f3a bb55 57ba
000000c0: 6eb1 683d 5bd7 433a dcb5 d5b9 e4e3 a23d
000000d0: a0b8 f0b9 17cb 34ba 57d9 68bb 925c 35ba
000000e0: 9e35 b1b9 a1b4 cc3c bd93 45ba 636b 493a
000000f0: 0865 af3c 54b2 14ba 4e5a 8bb8 f650 e5b9
00000100: b571 2a3d 855c 8b3d 0b77 dcb9 fe7c a43c
00000110: 2e34 463d a611 3eba 53ee e7b9 d3c3 263d
00000120: 9882 c4b9 13e0 52ba 1a7c 69bc 6d02 4eba
00000130: 2879 053d e81b c13c e48e 60ba d14c 3f3a
00000140: 775c fe3c 6bc8 48b9 b554 8039 e5f3 b23d
00000150: 7865 76ba 0359 a039 fc83 3b3d 38f3 10ba
00000160: 579c 02bb 5ccc 2d3d 465e 3f39 fa39 a23b
00000170: 1f30 f03c a205 4339 7ab5 893b a4b2 063d
00000180: f08e 04ba 90b7 183d 09e0 5c3a 1949 15ba
00000190: 5b5a df3c 5f80 a93d 5f2a e1b9 286f 083d
000001a0: e0cb 8b3c 754f 6c39 9cdd 2f3d 96bf f0b9
000001b0: 5111 54ba 1189 fa3c a54d 9a3d e087 b8b9
000001c0: 2f89 8f3c ccf2 553d dcbb 533a 6eed 68ba
000001d0: f499 873c 57fa 4839 f670 08bc 63b3 6fba
000001e0: 55e7 3239 775c 623c 0f31 0c3d c9ba 87b9
000001f0: b28d 7d3a 2ff6 163d daa7 2aba 7c14 e6b5
00000200: a6a8 89bc c07d d7b8 3d6f 76bb bff7 a7bc
00000210: ab51 49bd 8dd1 e9ba 5983 42ba fdf6 32bd
00000220: be70 beb9 1930 5e3a 8f40 16bd 4d11 17bd
00000230: a46a 92bc ad1d adbc c9ad abbc 01a0 423a
00000240: 63ba 69bd 3a55 403d d2f4 683a 1d68 06bd
00000250: ccc1 23bd a54a f139 05c7 eabc 4db7 713a
00000260: ae3d 5c3b bef0 33bd be1e 2a3c d37c 163b
00000270: c11f bebc 0e86 5cbd b288 91bc dc1c a0bc
00000280: d83e bb3b e1f9 5bbc 2aa0 33ba 2971 3e3b
00000290: 0775 f6bc 763c b7bc 608c b2bd 4b85 bcbc
000002a0: 8144 50bc 8b05 d4bc 0e0b 96bc 5959 9d37
000002b0: 45e3 3ebd 2b0a bdbc 957a 74bc 6fde 3d3d
000002c0: a030 c1bc 2366 d0bc 23c3 363e f809 ecbc
000002d0: 8852 c5bc 28e7 8bbd 102b 25ba 3218 5638
000002e0: 7e5a ef3b 22e1 70bc 497b 51bd 5c50 5a3e
000002f0: 7863 94bc 9741 8fbc 2681 69bc ee92 8939
00000300: c521 5fbd 5f00 a2b9 63f8 0639 f1c5 81bd
00000310: 5979 fd39 bbfb beb9 2e19 62ba 194a e6b9
00000320: fccf 16ba c53a 8c39 f01b a139 ec1d 33b9
00000330: dba0 23bd b5a9 123a 2881 7eb8 ab31 4e38
00000340: 7f4c 01ba 2672 673a 6951 8c38 4efc a1b9
00000350: 501f a839 0b1f ef39 faca 2bba 65d9 ce39
00000360: 592f e43d 21a8 18ba 6b01 08ba e461 013c
00000370: 57d8 ceb9 2a82 3f3a 84b2 54bd 6d9f a7b9
00000380: 426d 133a b1d0 89bd 969d 8339 0110 c1b8
00000390: aff5 9abd 8358 06ba cd6b 34ba 383f 8ebd
000003a0: dc27 58ba 2e0a ecb8 43be 51bd 0968 3039
000003b0: e8dc 383a ffdb 8dbd 63e2 77ba 4c97 5539
000003c0: 4495 95bd 132b beb8 05dc b8b9 d51c cbbd
000003d0: 5bd4 2139 f60c 34ba 5f4a a8bb 94e4 3cba
000003e0: 67e4 17ba d47a 42bd e633 323a 869f 463a
000003f0: e182 75bd b52c 2439 8804 8b39 e232 aab8
0.045933127 0.00041596807 0.00058973616 0.044210985 4.6432022e-05 0.0003377732 -0.00035020316 0.0008283273
2.379191e-05 -8.403731e-05 -0.00048143044 -0.00045896866 0.03144645 -0.0006331412 -0.0006118214 -0.00093606644
-0.0003897994 0.0008398359 5.524123e-05 -0.0001910273 -0.00012417174 -0.0009948086 -0.0006532469 -0.0005346582
-0.09865613 0.00070679665 0.00010427833 0.0051632454 0.00069254247 0.00033735862 0.019221859 -0.00055610394
2.4009825e-05 0.052302327 8.262158e-06 -0.0004905089 0.05967285 -0.00075204816 0.00019129051 0.05837959
6.3030246e-05 -0.0008040588 0.04440005 0.00081663067 -0.00011227763 0.05061591 0.00066897454 -0.0008214374
0.056809835 0.000747075 -0.00040762022 0.07953623 -0.00045913924 -0.0006896718 -0.0035529935 -0.0006918396
-0.0003380002 0.024988474 -0.00075369683 0.00076835434 0.02141048 -0.0005672325 -6.644857e-05 -0.00043738604
0.041612346 0.06804756 -0.00042050364 0.020079132 0.048389606 -0.00072505546 -0.0004423732 0.040714096
-0.00037481333 -0.0008044254 -0.0142507795 -0.0007858638 0.032586247 0.023572877 -0.0008566214 0.00072975183
0.03104995 -0.00019148148 0.00024477174 0.087379254 -0.00093992753 0.00030583897 0.045780167 -0.00055294065
-0.0019929612 0.04243122 0.00018250299 0.004950759 0.02931982 0.00018598748 0.004202542 0.03288521
-0.00050567 0.037284434 0.0008425718 -0.00056947913 0.027264765 0.08276438 -0.00042946913 0.03330913
0.017064989 0.00022536314 0.042935953 -0.0004591911 -0.00080897385 0.030582936 0.07534341 -0.0003519645
0.017521469 0.052233502 0.00080770045 -0.00088854774 0.016552903 0.00019166745 -0.008327713 -0.0009143857
0.00017061581 0.013815991 0.034226473 -0.00025888372 0.00096722983 0.036855873 -0.0006509997 -1.7142297e-06
-0.01680405 -0.00010275422 -0.0037602924 -0.020503877 -0.04915015 -0.001783894 -0.0007420085 -0.043692578
-0.00036323623 0.0008475795 -0.03668266 -0.036881734 -0.017873116 -0.021132315 -0.02095689 0.0007424355
-0.057062518 0.04695628 0.0008886579 -0.032814134 -0.03997974 0.00046022717 -0.028659353 0.00092207344
0.00336061 -0.04393076 0.010383306 0.0022962585 -0.0232085 -0.053838782 -0.017765377 -0.019545011
0.0057142787 -0.013426275 -0.00068521744 0.0029059148 -0.0300851 -0.022367697 -0.08718181 -0.023012778
-0.012711645 -0.02588155 -0.018315818 1.8757464e-05 -0.04660346 -0.023076138 -0.014921804 0.046354707
-0.023582757 -0.025439328 0.17847876 -0.028813347 -0.024087206 -0.06831199 -0.00063006673 5.104411e-05
0.0073044887 -0.014702113 -0.051142965 0.21319717 -0.018113837 -0.01748733 -0.014251983 0.00026240147
-0.054475565 -0.00030899324 0.00012871767 -0.063365825 0.00048346331 -0.00036427178 -0.0008624968 -0.00043924226
-0.0005753038 0.00026746668 0.00030729128 -0.00017081917 -0.039948326 0.00055947463 -6.0678605e-05 4.9160484e-05
-0.0004932358 0.000882896 6.690884e-05 -0.00030896295 0.00032066787 0.0004560876 -0.0006553378 0.00039453353
0.11141843 -0.0005823393 -0.00051881996 0.007896874 -0.00039452568 0.0007305468 -0.05192806 -0.00031971504
0.00056238857 -0.06729258 0.00025103678 -9.205938e-05 -0.07566392 -0.00051248836 -0.00068825186 -0.06945652
-0.00082456856 -0.00011255253 -0.05120684 0.00016823424 0.00070519606 -0.069267265 -0.00094560365 0.00020369625
-0.07303861 -9.067929e-05 -0.00035259142 -0.09917609 0.00015433265 -0.00068683864 -0.005135819 -0.00072056917
-0.00057942275 -0.04748042 0.00067978946 0.00075768714 -0.05993927 0.00015656913 0.00026515522 -8.115709e-05

_transform._transforms.1.autoregressive_net.blocks.0.linear_layers.1.bias f4 [64]
00000000: 1774 df3c 1472 193d ffcf a7bc 932f b2bc
00000010: 3765 a0bc 6abc 3e3c c694 093d 6574 003d
00000020: c0b2 f4bb b4ea f9bc 20bd d7bc 4264 363c
00000030: 202f 96bc d6e9 ddbc 7e30 f4bb 5a77 ab3c
00000040: 558d 07bd 6c45 2e3d 2efc 20bd e88c 023d
00000050: abf9 af3c 59fc 8ebc 0e8d 4d3c 4b12 353c
00000060: b973 853c bd33 253c 34a6 b339 39f9 6e3c
00000070: f573 57bc d730 83bc 5113 89bd 419d 2f3d
00000080: 23e2 803c a3c4 c83c 05d0 29bd 9a31 ecbb
00000090: 6061 93bc 61c8 1dbd 43bc 0e3c 2dd6 d43b
000000a0: 56aa afbc 3f19 8cbc feaa f2bc 7b1b 00bd
000000b0: 0112 0e3d b858 023d 1c36 ffbc 0202 06bd
000000c0: 66f7 d13c 5a89 ad3c 4411 913c 3dc3 26bc
000000d0: fd50 2dbc 02ab 063c 9bdc 9b3c 5a6e 96bc
000000e0: f7b9 98bc fb75 313c 879b c43c 31fa b83c
000000f0: e14f b3bc 8c8d f5bc ee18 623c 5d73 5dbc
0.027277036 0.03746231 -0.020484922 -0.0217512 -0.019579513 0.011641601 0.033589147 0.031361002
-0.0074675977 -0.030507423 -0.026335299 0.011132302 -0.018333018 -0.02708904 -0.00745207 0.020930935
-0.03309377 0.042546675 -0.039302997 0.03187266 0.021481356 -0.017454313 0.012545837 0.011051725
0.016290532 0.010083136 0.00034265372 0.0145857865 -0.013150205 -0.0160145 -0.066931374 0.04287458
0.01573283 0.024507826 -0.04145815 -0.0072080614 -0.017990768 -0.038521174 0.008711877 0.0064952583
-0.021443527 -0.017101882 -0.029622551 -0.031276207 0.03468514 0.03182289 -0.031153731 -0.03271676
0.025630664 0.021183658 0.017708428 -0.010178384 -0.010578391 0.008219482 0.019026091 -0.018363167
-0.018643362 0.010831351 0.023999942 0.022580238 -0.021888675 -0.029974721 0.013799889 -0.013516274

_transform._transforms.1.autoregressive_net.blocks.0.linear_layers.1.mask f4 [64, 64]
00000000: 0000 803f 0000 0000 0000 0000 0000 803f
00000010: 0000 0000 0000 0000 0000 803f 0000 0000
00000020: 0000 0000 0000 803f 0000 0000 0000 0000
00000030: 0000 803f 0000 0000 0000 0000 0000 803f
00000040: 0000 0000 0000 0000 0000 803f 0000 0000
00000050: 0000 0000 0000 803f 0000 0000 0000 0000
00000060: 0000 803f 0000 0000 0000 0000 0000 803f
00000070: 0000 0000 0000 0000 0000 803f 0000 0000
00000080: 0000 0000 0000 803f 0000 0000 0000 0000
00000090: 0000 803f 0000 0000 0000 0000 0000 803f
000000a0: 0000 0000 0000 0000 0000 803f 0000 0000
000000b0: 0000 0000 0000 803f 0000 0000 0000 0000
000000c0: 0000 803f 0000 0000 0000 0000 0000 803f
000000d0: 0000 0000 0000 0000 0000 803f 0000 0000
000000e0: 0000 0000 0000 803f 0000 0000 0000 0000
000000f0: 0000 803f 0000 0000 0000 0000 0000 803f
00000100: 0000 803f 0000 803f 0000 0000 0000 803f
00000110: 0000 803f 0000 0000 0000 803f 0000 803f
00000120: 0000 0000 0000 803f 0000 803f 0000 0000
00000130: 0000 803f 0000 803f 0000 0000 0000 803f
00000140: 0000 803f 0000 0000 0000 803f 0000 803f
00000150: 0000 0000 0000 803f 0000 803f 0000 0000
00000160: 0000 803f 0000 803f 0000 0000 0000 803f
00000170: 0000 803f 0000 0000 0000 803f 0000 803f
00000180: 0000 0000 0000 803f 0000 803f 0000 0000
00000190: 0000 803f 0000 803f 0000 0000 0000 803f
000001a0: 0000 803f 0000 0000 0000 803f 0000 803f
000001b0: 0000 0000 0000 803f 0000 803f 0000 0000
000001c0: 0000 803f 0000 803f 0000 0000 0000 803f
000001d0: 0000 803f 0000 0000 0000 803f 0000 803f
000001e0: 0000 0000 0000 803f 0000 803f 0000 0000
000001f0: 0000 803f 0000 803f 0000 0000 0000 803f
00000200: 0000 803f 0000 803f 0000 803f 0000 803f
00000210: 0000 803f 0000 803f 0000 803f 0000 803f
00000220: 0000 803f 0000 803f 0000 803f 0000 803f
00000230: 0000 803f 0000 803f 0000 803f 0000 803f
00000240: 0000 803f 0000 803f 0000 803f 0000 803f
00000250: 0000 803f 0000 803f 0000 803f 0000 803f
00000260: 0000 803f 0000 803f 0000 803f 0000 803f
00000270: 0000 803f 0000 803f 0000 803f 0000 803f
00000280: 0000 803f 0000 803f 0000 803f 0000 803f
00000290: 0000 803f 0000 803f 0000 803f 0000 803f
000002a0: 0000 803f 0000 803f 0000 803f 0000 803f
000002b0: 0000 803f 0000 803f 0000 803f 0000 803f
000002c0: 0000 803f 0000 803f 0000 803f 0000 803f
000002d0: 0000 803f 0000 803f 0000 803f 0000 803f
000002e0: 0000 803f 0000 803f 0000 803f 0000 803f
000002f0: 0000 803f 0000 803f 0000 803f 0000 803f
00000300: 0000 803f 0000 0000 0000 0000 0000 803f
00000310: 0000 0000 0000 0000 0000 803f 0000 0000
00000320: 0000 0000 0000 803f 0000 0000 0000 0000
00000330: 0000 803f 0000 0000 0000 0000 0000 803f
00000340: 0000 0000 0000 0000 0000 803f 0000 0000
00000350: 0000 0000 0000 803f 0000 0000 0000 0000
00000360: 0000 803f 0000 0000 0000 0000 0000 803f
00000370: 0000 0000 0000 0000 0000 803f 0000 0000
00000380: 0000 0000 0000 803f 0000 0000 0000 0000
00000390: 0000 803f 0000 0000 0000 0000 0000 803f
000003a0: 0000 0000 0000 0000 0000 803f 0000 0000
000003b0: 0000 0000 0000 803f 0000 0000 0000 0000
000003c0: 0000 803f 0000 0000 0000 0000 0000 803f
000003d0: 0000 0000 0000 0000 0000 803f 0000 0000
000003e0: 0000 0000 0000 803f 0000 0000 0000 0000
000003f0: 0000 803f 0000 0000 0000 0000 0000 803f
1.0 0.0 0.0 1.0 0.0 0.0 1.0 0.0
0.0 1.0 0.0 0.0 1.0 0.0 0.0 1.0
0.0 0.0 1.0 0.0 0.0 1.0 0.0 0.0
1.0 0.0 0.0 1.0 0.0 0.0 1.0 0.0
0.0 1.0 0.0 0.0 1.0 0.0 0.0 1.0
0.0 0.0 1.0 0.0 0.0 1.0 0.0 0.0
1.0 0.0 0.0 1.0 0.0 0.0 1.0 0.0
0.0 1.0 0.0 0.0 1.0 0.0 0.0 1.0
1.0 1.0 0.0 1.0 1.0 0.0 1.0 1.0
0.0 1.0 1.0 0.0 1.0 1.0 0.0 1.0
1.0 0.0 1.0 1.0 0.0 1.0 1.0 0.0
1.0 1.0 0.0 1.0 1.0 0.0 1.0 1.0
0.0 1.0 1.0 0.0 1.0 1.0 0.0 1.0
1.0 0.0 1.0 1.0 0.0 1.0 1.0 0.0
1.0 1.0 0.0 1.0 1.0 0.0 1.0 1.0
0.0 1.0 1.0 0.0 1.0 1.0 0.0 1.0
1.0 1.0 1.0 1.0 1.0 1.0 1.0 1.0
1.0 1.0 1.0 1.0 1.0 1.0 1.0 1.0
1.0 1.0 1.0 1.0 1.0 1.0 1.0 1.0
1.0 1.0 1.0 1.0 1.0 1.0 1.0 1.0
1.0 1.0 1.0 1.0 1.0 1.0 1.0 1.0
1.0 1.0 1.0 1.0 1.0 1.0 1.0 1.0
1.0 1.0 1.0 1.0 1.0 1.0 1.0 1.0
1.0 1.0 1.0 1.0 1.0 1.0 1.0 1.0
1.0 0.0 0.0 1.0 0.0 0.0 1.0 0.0
0.0 1.0 0.0 0.0 1.0 0.0 0.0 1.0
0.0 0.0 1.0 0.0 0.0 1.0 0.0 0.0
1.0 0.0 0.0 1.0 0.0 0.0 1.0 0.0
0.0 1.0 0.0 0.0 1.0 0.0 0.0 1.0
0.0 0.0 1.0 0.0 0.0 1.0 0.0 0.0
1.0 0.0 0.0 1.0 0.0 0.0 1.0 0.0
0.0 1.0 0.0 0.0 1.0 0.0 0.0 1.0

_transform._transforms.1.autoregressive_net.blocks.1.linear_layers.0.weight f4 [64, 64]
00000000: 52c5 c93d 16a2 b63d 1265 83bd d4e5 9ebd
00000010: 86f1 e23d 1236 ffbd c00c 0b3e 866f e93d
00000020: c665 8ebd 68ed 19bd 787d ee3c 8097 bbbd
00000030: ffd8 36bd 00a9 e5bc f6fd f23d 4430 a1bd
00000040: e0b7 cf3d 6e2c fabd 0cfa 863e 4ce8 7a3d
00000050: 40e4 a23d 3b0d 18bd e042 efbc 781f e5bd
00000060: 50c6 1f3d 1a8f 943d 008c d639 5054 083e
00000070: b089 c6bc 7aa3 cf3d e8fd 823d 6c48 c1bd
00000080: 90e0 c2bc e0b3 adbb a454 5e3d 2e25 e0bd
00000090: 99ee 383d 9674 e0bd 4ae2 e6bd 85a2 e43d
000000a0: 6012 ec3b 1010 7b3c 75b2 873c 0002 423a
000000b0: 588b 9d3c f922 993d 20d4 cbbc 088f 933c
000000c0: c3a4 ef3d c61c ae3d 8882 d43d 445b ad3d
000000d0: 5e64 ebbd 28f7 fe3c ba4a 60bd 502d 20bd
000000e0: f0fe 823d f45d bc3b a0b6 4e3c 4296 e5bd
000000f0: b53d 53bd e83a 19bd acab 403d 4fcc 0f3e
00000100: 6ec4 f63d 980b 083c b22d e13d c0cd 3f3d
00000110: 1962 4dbd 2817 a23d 3b5c 1c3d c3a2 fa3d
00000120: 0e3b 8b3d 7b61 0f3d 1cd3 4bbe 8c7a 163d
00000130: 71d2 e4bd 3469 d2be b418 4fbd d6d1 d53b
00000140: d4c8 6d3d 0cea 753d 33c7 9cbc 5022 5cbd
00000150: 2ebf 813d 3ccf c43c ce3c 89bd e856 fe3d
00000160: 81b1 92bd 3cd3 983c c8aa cc3c 8e91 fcbd
00000170: 8a82 91bd 50db cdbd f08e 1ebe 737a cebe
00000180: 0e7a d83d a728 7dbd e5b8 76bd 00c8 86ba
00000190: f2b7 15be 4d6e eb3c 70e7 ba3d 4c9e 97bd
000001a0: 2b88 e0bd aecb de3d 251d e43d a8bf eb3d
000001b0: 5cc5 f73d 632c 033e 20b3 a23d 1484 b6bd
000001c0: 0550 b0bd a4fa dcbb 5c75 bfbd 896a d7bd
000001d0: b7fe 883d 347a 9dbd 9648 5f3d e6fa 473c
000001e0: 6cbc ca3d 3c27 a1bc a889 6ebd e43f 88bd
000001f0: b3b7 db3d 30ea ca3e 60e9 f63d fa41 8b3d
00000200: 772d 0c3e 3ad3 61bb 6ca3 26be a6db e6bd
00000210: 0fa1 383d d4d1 a2bd 6668 0a3e c581 bf3d
00000220: b832 c03d 1d40 8abc ac2b 45be 63f4 72be
00000230: 76dd b03c 3d11 b1be 6b88 423d f609 9fbc
00000240: 9c2c a4bd 2dbf f1bc d933 ecbe c753 40be
00000250: 30bb 653d 51f2 a5bd 5c43 ccbd f2f3 c9bd
00000260: 99c1 cdbd 94f5 cbbc 5a79 d6bc 6f99 1bbe
00000270: 2be4 10be c58a 073e ec57 93bd 4ef2 c7be
00000280: cd46 53be 7389 11be 45dc b83d 840e 403e
00000290: 180c c03d 93ea a63d d7a0 6ebd e39d 44be
000002a0: 5ea0 db3d 8614 ea3d 92bc dabd 6e9e 64bd
000002b0: 4714 06bc c631 d838 3cee 733c 7f4b e23d
000002c0: 4d36 0d3e 761e 53bd 2d07 2c3e 8e7e acbd
000002d0: 95e5 fc3c 53a2 cfbc 9718 58bd 2885 a8bd
000002e0: c3eb 99bd 512b f7bb 45e8 283d c1c5 0b3e
000002f0: 78be ae3d ed7a 1ebe a3dc ecbc 9318 ba3d
00000300: f944 d8bd 888d 1abd a299 afbd 2637 83bd
00000310: c096 11bb 1416 12bd 7afd 0dbe 8074 013d
00000320: d8c3 cfbd 28a6 693a 7ceb 37bd 6215 c63d
00000330: 5fc2 973c f23d c4bd dcf5 343d 56df 98bd
00000340: 88f4 efbc d42f 053d 1c20 a43e b009 753d
00000350: 1c6f 7d3d 37a8 14bd 20f9 823d 9619 bcbd
00000360: 775d 1f3d 748a 913d e0f1 a73d 6c1b 223e
00000370: 6649 a6bd 5823 88bd 9999 b73c d0a6 e43d
00000380: 0056 9739 3f94 c6bc 88f9 85bd 2026 a83c
00000390: 1e6e 69bd e0fe cb3d c021 4ebc c0c1 5a3e
000003a0: 207e 783c 6a01 b53d 1962 ed3d 641f c6bd
000003b0: b2c0 fa3d 8c48 5e3d acef 5e3d 8806 71bd
000003c0: 8463 b93d 0491 833d 1c26 cdbd ba17 f93d
000003d0: 12bb fabd 4034 393b e24b 163e b415 f23d
000003e0: 088d a63d c407 8ebb 8069 85ba 00b1 62bd
000003f0: c277 283c 5600 c5bd 70e9 453c e612 413d
0.09852089 0.08917634 -0.06415762 -0.0775868 0.11081223 -0.12461485 0.13579082 0.113982245
-0.069530055 -0.037579924 0.029112563 -0.09159756 -0.044640537 -0.028034687 0.118648455 -0.07870534
0.10142493 -0.122155055 0.26362646 0.06125669 0.079536915 -0.037121993 -0.029206693 -0.11187643
0.039007485 0.07253857 0.0004092157 0.13313413 -0.024235576 0.101386026 0.06396085 -0.094376415
-0.02378872 -0.005300984 0.05427994 -0.109445915 0.04514942 -0.10959737 -0.1127363 0.11163811
0.007204339 0.015323654 0.016564587 0.0007400811 0.019231483 0.07477374 -0.024881423 0.018012539
0.11701348 0.08501582 0.10376459 0.08464673 -0.11493753 0.031123713 -0.054758765 -0.039105713
0.06396282 0.005748505 0.012616783 -0.112103 -0.05157252 -0.037409693 0.04703872 0.14042781
0.12049185 0.008303545 0.10995044 0.046827078 -0.05014238 0.07914573 0.038173895 0.122380756
0.06798373 0.035005074 -0.1990475 0.036737964 -0.11172951 -0.4109589 -0.050560668 0.0065252585
0.058052853 0.060037658 -0.019137954 -0.05374366 0.06335293 0.024024598 -0.06701051 0.1241892
-0.071627624 0.018655412 0.024983779 -0.1233245 -0.071049765 -0.10051596 -0.15484214 -0.40327796
0.10570155 -0.061806347 -0.060234923 -0.0010282993 -0.14620951 0.028739119 0.091261744 -0.074032396
-0.10963472 0.108786926 0.111383714 0.11511165 0.1209819 0.12809901 0.07944322 -0.08911911
-0.086090125 -0.006743746 -0.093485564 -0.10518367 0.06689208 -0.07689324 0.054512583 0.012205815
0.0989922 -0.019672029 -0.058236748 -0.06652811 0.10728397 0.39631796 0.120562315 0.067996934
0.13689218 -0.0034458176 -0.16273278 -0.11272363 0.045075472 -0.07950178 0.13516387 0.093509234
0.09384674 -0.016876275 -0.19254941 -0.23726039 0.021589976 -0.34583464 0.04749338 -0.01941393
-0.08016321 -0.029510105 -0.46133307 -0.18781959 0.05608672 -0.08102859 -0.09973785 -0.09860982
-0.100466914 -0.024897374 -0.026180912 -0.15195249 -0.14149539 0.1323653 -0.07194504 -0.3905205
-0.20632477 -0.14212589 0.09026388 0.18755537 0.09377307 0.0815021 -0.058258858 -0.19200854
0.10723947 0.11429696 -0.10680498 -0.055815153 -0.008183545 0.00010308954 0.0148883425 0.11049556
0.13790245 -0.05154272 0.16799612 -0.08422576 0.030871192 -0.025345957 -0.052757826 -0.082285225
-0.07515671 -0.0075430055 0.041237134 0.13649656 0.08532423 -0.1547658 -0.028913802 0.090867184
-0.105600305 -0.03773263 -0.08574225 -0.06407003 -0.0022215098 -0.035665587 -0.13866225 0.031605244
-0.10144776 0.0008913004 -0.04490231 0.09672047 0.0185253 -0.09582128 0.044179782 -0.07464473
-0.029291406 0.032516316 0.32055748 0.05982369 0.06187354 -0.036293235 0.06395173 -0.09184568
0.038907494 0.07106486 0.08200431 0.15830773 -0.081194684 -0.06647366 0.022412108 0.111646295
0.0002886504 -0.024240611 -0.06541735 0.020525992 -0.05698978 0.09960723 -0.012581289 0.21362972
0.015166789 0.0883816 0.11590976 -0.09673956 0.12243785 0.054268405 0.054427788 -0.05884412
0.09052184 0.06424144 -0.100170344 0.121627286 -0.12242712 0.0028259903 0.14677384 0.11820546
0.08132368 -0.004334422 -0.0010178536 -0.05534458 0.010282459 -0.09619205 0.012079582 0.047137164

_transform._transforms.1.autoregressive_net.blocks.1.linear_layers.0.bias f4 [64]
00000000: 4f60 c33c 6fb9 df3d fcc5 053c 6023 9dbc
00000010: ce78 a0bc 4f89 75bc 6d56 dc3d 070d 593d
00000020: faa6 9dbd 66f6 d53d 40ce e9bc 3d41 cabc
00000030: 8d6d 2c3b 6f83 a4be 31a7 21bd 99e9 c43c
00000040: d02e bdbd e881 d3bc 4580 c83c 0859 64be
00000050: 0ab4 b73d 8ea1 8f3d 9753 0eba bb3e 0bbe
00000060: f871 d03c 131a 573d 1794 cd3d 5acd 97bc
00000070: 8d4a a83d d8f1 583d dc0c 4fbd e9f3 4f3d
00000080: 8ace 6cbd 7843 73bd 3e8c 063e 828f 8a3d
00000090: 7bdb 5bbd 47e0 aa3d 32d0 1cbd a018 d6bd
000000a0: d1da cb3c 1ee1 c0bd 331c 023d 4ce6 e9bd
000000b0: 6103 073c b1a2 31bd d51b 1f3d 466a 843d
000000c0: 40a5 443d 5967 02bc e830 b0bd 09ff 3cbd
000000d0: 0a10 493d 3dc6 68bd ad30 f0b9 a460 013e
000000e0: 111b 63bd 265b 5d3d 84c2 c33c 9a6a f13d
000000f0: 3d35 833d dd72 ad3c d793 61bd 4353 593d
0.023849634 0.109240405 0.008164879 -0.019181907 -0.019588854 -0.01498635 0.10758672 0.05299094
-0.07697864 0.104473874 -0.02854073 -0.024689311 0.0026310415 -0.32131526 -0.039466087 0.02403717
-0.092374444 -0.02581878 0.024475226 -0.22299588 0.089698866 0.07013236 -0.0005429326 -0.13598149
0.02544497 0.0525151 0.100380115 -0.018530536 0.082173444 0.052965015 -0.050549373 0.05076972
-0.05781416 -0.059390515 0.13139436 0.06765653 -0.05367611 0.08343559 -0.038284488 -0.104539156
0.024884613 -0.09417938 0.031765174 -0.11420879 0.008240552 -0.043368045 0.038844902 0.064655825
0.048009157 -0.00795921 -0.08603078 -0.046141658 0.04908756 -0.05682968 -0.00045812633 0.12634522
-0.055445734 0.054042004 0.023896463 0.11787911 0.06406639 0.021172935 -0.05507263 0.05305792

_transform._transforms.1.autoregressive_net.blocks.1.linear_layers.0.mask f4 [64, 64]
00000000: 0000 803f 0000 0000 0000 0000 0000 803f
00000010: 0000 0000 0000 0000 0000 803f 0000 0000
00000020: 0000 0000 0000 803f 0000 0000 0000 0000
00000030: 0000 803f 0000 0000 0000 0000 0000 803f
00000040: 0000 0000 0000 0000 0000 803f 0000 0000
00000050: 0000 0000 0000 803f 0000 0000 0000 0000
00000060: 0000 803f 0000 0000 0000 0000 0000 803f
00000070: 0000 0000 0000 0000 0000 803f 0000 0000
00000080: 0000 0000 0000 803f 0000 0000 0000 0000
00000090: 0000 803f 0000 0000 0000 0000 0000 803f
000000a0: 0000 0000 0000 0000 0000 803f 0000 0000
000000b0: 0000 0000 0000 803f 0000 0000 0000 0000
000000c0: 0000 803f 0000 0000 0000 0000 0000 803f
000000d0: 0000 0000 0000 0000 0000 803f 0000 0000
000000e0: 0000 0000 0000 803f 0000 0000 0000 0000
000000f0: 0000 803f 0000 0000 0000 0000 0000 803f
00000100: 0000 803f 0000 803f 0000 0000 0000 803f
00000110: 0000 803f 0000 0000 0000 803f 0000 803f
00000120: 0000 0000 0000 803f 0000 803f 0000 0000
00000130: 0000 803f 0000 803f 0000 0000 0000 803f
00000140: 0000 803f 0000 0000 0000 803f 0000 803f
00000150: 0000 0000 0000 803f 0000 803f 0000 0000
00000160: 0000 803f 0000 803f 0000 0000 0000 803f
00000170: 0000 803f 0000 0000 0000 803f 0000 803f
00000180: 0000 0000 0000 803f 0000 803f 0000 0000
00000190: 0000 803f 0000 803f 0000 0000 0000 803f
000001a0: 0000 803f 0000 0000 0000 803f 0000 803f
000001b0: 0000 0000 0000 803f 0000 803f 0000 0000
000001c0: 0000 803f 0000 803f 0000 0000 0000 803f
000001d0: 0000 803f 0000 0000 0000 803f 0000 803f
000001e0: 0000 0000 0000 803f 0000 803f 0000 0000
000001f0: 0000 803f 0000 803f 0000 0000 0000 803f
00000200: 0000 803f 0000 803f 0000 803f 0000 803f
00000210: 0000 803f 0000 803f 0000 803f 0000 803f
00000220: 0000 803f 0000 803f 0000 803f 0000 803f
00000230: 0000 803f 0000 803f 0000 803f 0000 803f
00000240: 0000 803f 0000 803f 0000 803f 0000 803f
00000250: 0000 803f 0000 803f 0000 803f 0000 803f
00000260: 0000 803f 0000 803f 0000 803f 0000 803f
00000270: 0000 803f 0000 803f 0000 803f 0000 803f
00000280: 0000 803f 0000 803f 0000 803f 0000 803f
00000290: 0000 803f 0000 803f 0000 803f 0000 803f
000002a0: 0000 803f 0000 803f 0000 803f 0000 803f
000002b0: 0000 803f 0000 803f 0000 803f 0000 803f
000002c0: 0000 803f 0000 803f 0000 803f 0000 803f
000002d0: 0000 803f 0000 803f 0000 803f 0000 803f
000002e0: 0000 803f 0000 803f 0000 803f 0000 803f
000002f0: 0000 803f 0000 803f 0000 803f 0000 803f
00000300: 0000 803f 0000 0000 0000 0000 0000 803f
00000310: 0000 0000 0000 0000 0000 803f 0000 0000
00000320: 0000 0000 0000 803f 0000 0000 0000 0000
00000330: 0000 803f 0000 0000 0000 0000 0000 803f
00000340: 0000 0000 0000 0000 0000 803f 0000 0000
00000350: 0000 0000 0000 803f 0000 0000 0000 0000
00000360: 0000 803f 0000 0000 0000 0000 0000 803f
00000370: 0000 0000 0000 0000 0000 803f 0000 0000
00000380: 0000 0000 0000 803f 0000 0000 0000 0000
00000390: 0000 803f 0000 0000 0000 0000 0000 803f
000003a0: 0000 0000 0000 0000 0000 803f 0000 0000
000003b0: 0000 0000 0000 803f 0000 0000 0000 0000
000003c0: 0000 803f 0000 0000 0000 0000 0000 803f
000003d0: 0000 0000 0000 0000 0000 803f 0000 0000
000003e0: 0000 0000 0000 803f 0000 0000 0000 0000
000003f0: 0000 803f 0000 0000 0000 0000 0000 803f
1.0 0.0 0.0 1.0 0.0 0.0 1.0 0.0
0.0 1.0 0.0 0.0 1.0 0.0 0.0 1.0
0.0 0.0 1.0 0.0 0.0 1.0 0.0 0.0
1.0 0.0 0.0 1.0 0.0 0.0 1.0 0.0
0.0 1.0 0.0 0.0 1.0 0.0 0.0 1.0
0.0 0.0 1.0 0.0 0.0 1.0 0.0 0.0
1.0 0.0 0.0 1.0 0.0 0.0 1.0 0.0
0.0 1.0 0.0 0.0 1.0 0.0 0.0 1.0
1.0 1.0 0.0 1.0 1.0 0.0 1.0 1.0
0.0 1.0 1.0 0.0 1.0 1.0 0.0 1.0
1.0 0.0 1.0 1.0 0.0 1.0 1.0 0.0
1.0 1.0 0.0 1.0 1.0 0.0 1.0 1.0
0.0 1.0 1.0 0.0 1.0 1.0 0.0 1.0
1.0 0.0 1.0 1.0 0.0 1.0 1.0 0.0
1.0 1.0 0.0 1.0 1.0 0.0 1.0 1.0
0.0 1.0 1.0 0.0 1.0 1.0 0.0 1.0
1.0 1.0 1.0 1.0 1.0 1.0 1.0 1.0
1.0 1.0 1.0 1.0 1.0 1.0 1.0 1.0
1.0 1.0 1.0 1.0 1.0 1.0 1.0 1.0
1.0 1.0 1.0 1.0 1.0 1.0 1.0 1.0
1.0 1.0 1.0 1.0 1.0 1.0 1.0 1.0
1.0 1.0 1.0 1.0 1.0 1.0 1.0 1.0
1.0 1.0 1.0 1.0 1.0 1.0 1.0 1.0
1.0 1.0 1.0 1.0 1.0 1.0 1.0 1.0
1.0 0.0 0.0 1.0 0.0 0.0 1.0 0.0
0.0 1.0 0.0 0.0 1.0 0.0 0.0 1.0
0.0 0.0 1.0 0.0 0.0 1.0 0.0 0.0
1.0 0.0 0.0 1.0 0.0 0.0 1.0 0.0
0.0 1.0 0.0 0.0 1.0 0.0 0.0 1.0
0.0 0.0 1.0 0.0 0.0 1.0 0.0 0.0
1.0 0.0 0.0 1.0 0.0 0.0 1.0 0.0
0.0 1.0 0.0 0.0 1.0 0.0 0.0 1.0
