model1/epoch=299modello-N_iter6-N_features64-N_BS10000-epochs1000-lr0.001.pth (torch, 918276 bytes, 108 tensors)

_transform._transforms.1.autoregressive_net.initial_layer.weight f4 [64, 4]
00000000: 94a6 d33d 46de ee3e 4a42 ac3e e49a 46be
00000010: adb6 903e 18e4 e13e d4f9 bb3e 286b 90be
00000020: 6bfe 633d 03f1 95be 5983 cdbe 70dd fcbd
00000030: 2264 b93c da66 8bbe deea a0be 4ebc c4be
00000040: d634 e3be 37d8 a3bd 2091 fa3c fe77 ce3e
00000050: f310 19be a3a0 cebe 083e 5c3b de32 c43e
00000060: 16ce b63e c8f7 a9bd 4032 c0bc 3c86 ffbe
00000070: 2c57 053f e96c edbe b0c2 9e3e 1286 ee3e
00000080: abf6 703e d52e bb3b bc0e c13e 70ed fd3d
00000090: f069 4dbe 26bc d93e 12eb b53e c08d 2dbc
000000a0: e0e1 dc3e 260d edbe 80e0 3e3d bc69 bb3e
000000b0: eb72 c2be b1c5 043d 504c 66bb a8f8 89bd
000000c0: d944 003e 4af4 cbbe 185c 7e3e 00ca b23a
000000d0: da89 a5bd 6d7b fabe 060e dc3e d0af 383d
000000e0: f802 dd3e e8aa d93d 4c0c e23e 30b5 a33e
000000f0: 8781 9c3e 0046 d23b cc22 a3be 60a3 49bd
00000100: 4770 32be 7022 a43d ce94 cebe bc63 70be
00000110: 2b60 c6be 6bda 563d 6953 6e3e 0868 1ebe
00000120: 866a 98be c054 333c 5637 d0be d69d c0be
00000130: e126 0ebe d503 e0bd 58f9 2c3e 1e70 8cbe
00000140: 845e fb3d c299 023e bab5 123d 1cb5 3d3e
00000150: a202 39be de71 e73e a0a8 39bd 66e3 d93e
00000160: c776 80be 0bd5 a73e 20f8 b63d 7c0c ce3e
00000170: b14c 903e c228 60bb 8a99 1dbe 66bc c63e
00000180: 88ef 2d3d be70 873e 6c3e 0c3e 16b1 cf3e
00000190: e1f9 0b3e e0fa b1be aac2 b33e 3c09 493e
000001a0: 838a 46bd 8313 723e 3f9e 44be cef3 f0be
000001b0: 7e2d 63be 8874 df3d 6493 b23e 80a4 6c3c
000001c0: 5f0b 88be 7903 ee3d 326e cabe 6003 60bd
000001d0: ad86 3f3e 4811 d33c 4496 8abd d029 0c3e
000001e0: f81f bdbe 8048 7c3d f81d 08be 5c6a b33e
000001f0: 0385 8e3e 6f86 9dbe 5283 a3be e830 febe
00000200: 850e a0be b2b1 9b3d 5e55 06bf b2e7 b23e
00000210: 42bb 9cbe f4d0 493e cc34 9bbe 00e4 433e
00000220: 141d 0b3e cc09 19bd 6e5d bb3e 4040 a63e
00000230: f050 9dbd e77c e43e 0f60 e43e a0f6 84bd
00000240: 1944 0e3f a095 dfbe 7edf b93e 788c d83d
00000250: b22d 1ebe 83fd cd3d 5087 a03d e4df bf3e
00000260: 94c8 c83e ae93 b3be d98d e93e baca 9ebe
00000270: 7fd7 68be c22f e33e 88a3 403e 4060 ab3c
00000280: 0972 58be 8263 ad3e 1839 fcbe 00ca f33d
00000290: 7a97 ba3c 12d9 e13e 8947 893e 2470 47be
000002a0: c684 0cbe 3843 9a3d 0050 1dba c854 bc3d
000002b0: d439 a5be 4348 7cbe 54c9 6a3e f0d3 b63d
000002c0: 1d34 92be 3ce8 503e 67c6 213e 16e4 db3e
000002d0: e7f8 7b3e 2857 22be 3834 dfbe 684f bc3d
000002e0: fabe ee3e 42d4 a23e 6072 753d f843 7cbe
000002f0: 26f5 873d 8670 d33e b314 e73e 2413 48be
00000300: 418c be3e 2c1f a8be d09d 68bd bc69 64be
00000310: a2b8 cbbe 59e1 593e 50fa 6bbe 00c2 d53c
00000320: 7ec8 edbe de67 813e af35 e93e 241c 993e
00000330: 0695 12be c2e2 c33e 94aa 9fbe 0082 ff3a
00000340: 0523 9c3e d38a ca3e 3686 a43e 98b7 0bbe
00000350: 70a9 6d3e 667b 353e 8b61 b0be 1c40 7bbe
00000360: 8ca9 4abe a2cb bf3e 8a1b 9f3e f8b3 d33e
00000370: d709 83bc aa40 03bf b06c e7be ee2b a53e
00000380: fb1a a73e 0e6f 9a3e a1ea 753e 2037 083d
00000390: 9269 fd3e 7277 8cbe 38d4 f23d b021 2c3d
000003a0: 7bd4 3abe 4f20 29bc 1cd4 a83e 0ccf 563e
000003b0: 30ea 78be e46e c53e a3e3 cbbe 64fd 01be
000003c0: 909f 043e ae75 ee3e 2027 e23d c83b ce3e
000003d0: f5a4 f63e 0ff2 e4be d8b5 ccbd 846f b53e
000003e0: 56fa d0be c86b a63d 5644 ca3d c072 e9be
000003f0: b722 de3e 2efb b9be 9658 e5be 2a15 c1be
0.10334507 0.46653956 0.33644325 -0.19395024 0.2826437 0.44119334 0.3671404 -0.28206754
0.055662554 -0.2928544 -0.40139273 -0.12346923 0.022630755 -0.27226907 -0.3142919 -0.38424915
-0.44376248 -0.08000224 0.03058678 0.40325922 -0.14947872 -0.4035693 0.003360631 0.3832006
0.35704106 -0.08299214 -0.023461461 -0.499071 0.5208614 -0.46372154 0.3100791 0.46586663
0.23531596 0.00571237 0.37706554 0.12398803 -0.20059943 0.42526358 0.35530907 -0.010592878
0.4314108 -0.46299094 0.04660082 0.36604106 -0.379783 0.032415096 -0.00351407 -0.067368805
0.12526263 -0.39834815 0.24839818 0.0013640523 -0.08082934 -0.4892229 0.4297945 0.045089543
0.43166327 0.10628301 0.44150007 0.31974173 0.30567572 0.006417036 -0.31862485 -0.049228072
-0.17425643 0.08014381 -0.40347904 -0.23475546 -0.38745245 0.052454393 0.23274006 -0.15469372
-0.2976877 0.010945499 -0.40667218 -0.3762042 -0.13882019 -0.10938231 0.16891992 -0.2742929
0.12273887 0.12753966 0.03581784 0.18526119 -0.1806741 0.4520406 -0.04532683 0.42556304
-0.2509062 0.32779726 0.08934045 0.402439 0.2818351 -0.003420398 -0.15390602 0.38815612
0.042464763 0.26453203 0.13695687 0.40564793 0.1366954 -0.34761715 0.35109454 0.19632429
-0.04847194 0.23640256 -0.19200991 -0.47061008 -0.22185323 0.109108984 0.34878075 0.014443517
-0.26571175 0.11621756 -0.39537197 -0.05469072 0.18703718 0.025765076 -0.06766942 0.13687825
-0.36938453 0.06159258 -0.13292682 0.35042083 0.27835855 -0.30766627 -0.31936127 -0.49646688
-0.31261078 0.07602252 -0.5247401 0.34942394 -0.30611616 0.19708616 -0.30313718 0.19129944
0.13585311 -0.03736286 0.3659472 0.32470894 -0.07681453 0.44626543 0.44604537 -0.064923525
0.5557266 -0.43668842 0.36303324 0.10573667 -0.15447119 0.10058119 0.07838309 0.37475502
0.3921553 -0.35073608 0.45616034 -0.31014043 -0.22738455 0.44372374 0.18812382 0.020919919
-0.21137251 0.3386498 -0.4926231 0.11903763 0.022777308 0.44110924 0.2681239 -0.19476372
-0.13722524 0.07532352 -0.00060009956 0.09195858 -0.32270682 -0.2463694 0.22928363 0.089271426
-0.28555384 0.2040109 0.1579834 0.42947453 0.24606667 -0.1585356 -0.43594527 0.09194833
0.4663008 0.31802565 0.05992353 -0.24635303 0.06638555 0.41296786 0.4513298 -0.19538552
0.3721638 -0.32836282 -0.056791127 -0.2230596 -0.397893 0.2127737 -0.23044705 0.026093483
-0.46442026 0.25274557 0.4554877 0.29904282 -0.1431466 0.3825894 -0.31184828 0.0019493699
0.30495468 0.3955904 0.32133645 -0.13644254 0.23209167 0.17722854 -0.3444942 -0.24536175
-0.1979124 0.37460047 0.31075698 0.41348243 -0.015995903 -0.51270545 -0.4520011 0.32260078
0.32637772 0.30162853 0.24015285 0.033255696 0.49494606 -0.2743488 0.11856884 0.042024314
-0.18245117 -0.010322644 0.32974327 0.2097742 -0.24308085 0.38561165 -0.3982211 -0.12694317
0.12951493 0.46574157 0.11042619 0.40279984 0.48172727 -0.44715926 -0.099956214 0.35436642
-0.4081599 0.081260264 0.09876315 -0.4559536 0.4338586 -0.36324447 -0.44794148 -0.3771146

_transform._transforms.1.autoregressive_net.initial_layer.bias f4 [64]
00000000: 59a3 a33c 09f5 19be e9e0 be3e d08b b6be
00000010: 4e56 613e cc46 853d d275 cebe dd1a d23e
00000020: 511e 6bbc 99c2 4f3e 7f82 34be e518 71be
00000030: 14df 6ebe 5c23 fdbe 7e77 833e e1be 7abe
00000040: 538b 47be c2a7 5cbe a15a 73be 482a 36be
00000050: 452b 89be 71c2 a03d bcc1 d13e 6dc4 873e
00000060: d763 fa3d 9628 ba3d b8ae a93d 9c49 b43d
00000070: bf24 ce3d 2b6e a5be f6b4 f2bd 2037 dcbe
00000080: c655 f73d bc79 3c3e 2273 1c3c e288 ca3d
00000090: 9823 38be 9ae0 a33e 653d c9bd 49a8 95bd
000000a0: 9717 ca3e e730 ae3e a6b3 453e 9a9b 9d3e
000000b0: 601a 0bbe cc30 8b3e cb9a a8be f36a b5be
000000c0: 7448 de3c fd11 bbbe 7cf7 08bd dbb6 3c3e
000000d0: 9223 0cbe 1fc8 e33e e2a3 a9bc f5a2 82bc
000000e0: 5261 b5be 24c8 a8be 7546 97bd 7b19 16be
000000f0: 7b82 6e3e a027 16bd 7620 f03e 1155 c9be
0.019975351 -0.1503488 0.37280968 -0.35653543 0.22005579 0.06507644 -0.40324265 0.4103612
-0.01435049 0.20289077 -0.17627905 -0.23544653 -0.23327285 -0.4944104 0.25677103 -0.24486877
-0.19486742 -0.2154837 -0.23765041 -0.17789567 -0.26790825 0.07849587 0.4096812 0.26517048
0.12226074 0.090897724 0.08285278 0.088031024 0.100656025 -0.32310614 -0.11850922 -0.43010807
0.12076907 0.18405813 0.009548934 0.098893896 -0.17982328 0.32007295 -0.09826163 -0.073074885
0.39471123 0.34021685 0.19306812 0.30782777 -0.1358428 0.27185667 -0.32930598 -0.35433158
0.027134158 -0.3653716 -0.033439144 0.18429129 -0.13685444 0.44488618 -0.020708028 -0.015946845
-0.35425812 -0.32965195 -0.073864855 -0.14658158 0.23291962 -0.036658883 0.46899766 -0.39322713

_transform._transforms.1.autoregressive_net.initial_layer.mask f4 [64, 4]
00000000: 0000 803f 0000 0000 0000 0000 0000 0000
00000010: 0000 803f 0000 803f 0000 0000 0000 0000
00000020: 0000 803f 0000 803f 0000 803f 0000 0000
00000030: 0000 803f 0000 0000 0000 0000 0000 0000
00000040: 0000 803f 0000 803f 0000 0000 0000 0000
00000050: 0000 803f 0000 803f 0000 803f 0000 0000
00000060: 0000 803f 0000 0000 0000 0000 0000 0000
00000070: 0000 803f 0000 803f 0000 0000 0000 0000
00000080: 0000 803f 0000 803f 0000 803f 0000 0000
00000090: 0000 803f 0000 0000 0000 0000 0000 0000
000000a0: 0000 803f 0000 803f 0000 0000 0000 0000
000000b0: 0000 803f 0000 803f 0000 803f 0000 0000
000000c0: 0000 803f 0000 0000 0000 0000 0000 0000
000000d0: 0000 803f 0000 803f 0000 0000 0000 0000
000000e0: 0000 803f 0000 803f 0000 803f 0000 0000
000000f0: 0000 803f 0000 0000 0000 0000 0000 0000
00000100: 0000 803f 0000 803f 0000 0000 0000 0000
00000110: 0000 803f 0000 803f 0000 803f 0000 0000
00000120: 0000 803f 0000 0000 0000 0000 0000 0000
00000130: 0000 803f 0000 803f 0000 0000 0000 0000
00000140: 0000 803f 0000 803f 0000 803f 0000 0000
00000150: 0000 803f 0000 0000 0000 0000 0000 0000
00000160: 0000 803f 0000 803f 0000 0000 0000 0000
00000170: 0000 803f 0000 803f 0000 803f 0000 0000
00000180: 0000 803f 0000 0000 0000 0000 0000 0000
00000190: 0000 803f 0000 803f 0000 0000 0000 0000
000001a0: 0000 803f 0000 803f 0000 803f 0000 0000
000001b0: 0000 803f 0000 0000 0000 0000 0000 0000
000001c0: 0000 803f 0000 803f 0000 0000 0000 0000
000001d0: 0000 803f 0000 803f 0000 803f 0000 0000
000001e0: 0000 803f 0000 0000 0000 0000 0000 0000
000001f0: 0000 803f 0000 803f 0000 0000 0000 0000
00000200: 0000 803f 0000 803f 0000 803f 0000 0000
00000210: 0000 803f 0000 0000 0000 0000 0000 0000
00000220: 0000 803f 0000 803f 0000 0000 0000 0000
00000230: 0000 803f 0000 803f 0000 803f 0000 0000
00000240: 0000 803f 0000 0000 0000 0000 0000 0000
00000250: 0000 803f 0000 803f 0000 0000 0000 0000
00000260: 0000 803f 0000 803f 0000 803f 0000 0000
00000270: 0000 803f 0000 0000 0000 0000 0000 0000
00000280: 0000 803f 0000 803f 0000 0000 0000 0000
00000290: 0000 803f 0000 803f 0000 803f 0000 0000
000002a0: 0000 803f 0000 0000 0000 0000 0000 0000
000002b0: 0000 803f 0000 803f 0000 0000 0000 0000
000002c0: 0000 803f 0000 803f 0000 803f 0000 0000
000002d0: 0000 803f 0000 0000 0000 0000 0000 0000
000002e0: 0000 803f 0000 803f 0000 0000 0000 0000
000002f0: 0000 803f 0000 803f 0000 803f 0000 0000
00000300: 0000 803f 0000 0000 0000 0000 0000 0000
00000310: 0000 803f 0000 803f 0000 0000 0000 0000
00000320: 0000 803f 0000 803f 0000 803f 0000 0000
00000330: 0000 803f 0000 0000 0000 0000 0000 0000
00000340: 0000 803f 0000 803f 0000 0000 0000 0000
00000350: 0000 803f 0000 803f 0000 803f 0000 0000
00000360: 0000 803f 0000 0000 0000 0000 0000 0000
00000370: 0000 803f 0000 803f 0000 0000 0000 0000
00000380: 0000 803f 0000 803f 0000 803f 0000 0000
00000390: 0000 803f 0000 0000 0000 0000 0000 0000
000003a0: 0000 803f 0000 803f 0000 0000 0000 0000
000003b0: 0000 803f 0000 803f 0000 803f 0000 0000
000003c0: 0000 803f 0000 0000 0000 0000 0000 0000
000003d0: 0000 803f 0000 803f 0000 0000 0000 0000
000003e0: 0000 803f 0000 803f 0000 803f 0000 0000
000003f0: 0000 803f 0000 0000 0000 0000 0000 0000
1.0 0.0 0.0 0.0 1.0 1.0 0.0 0.0
1.0 1.0 1.0 0.0 1.0 0.0 0.0 0.0
1.0 1.0 0.0 0.0 1.0 1.0 1.0 0.0
1.0 0.0 0.0 0.0 1.0 1.0 0.0 0.0
1.0 1.0 1.0 0.0 1.0 0.0 0.0 0.0
1.0 1.0 0.0 0.0 1.0 1.0 1.0 0.0
1.0 0.0 0.0 0.0 1.0 1.0 0.0 0.0
1.0 1.0 1.0 0.0 1.0 0.0 0.0 0.0
1.0 1.0 0.0 0.0 1.0 1.0 1.0 0.0
1.0 0.0 0.0 0.0 1.0 1.0 0.0 0.0
1.0 1.0 1.0 0.0 1.0 0.0 0.0 0.0
1.0 1.0 0.0 0.0 1.0 1.0 1.0 0.0
1.0 0.0 0.0 0.0 1.0 1.0 0.0 0.0
1.0 1.0 1.0 0.0 1.0 0.0 0.0 0.0
1.0 1.0 0.0 0.0 1.0 1.0 1.0 0.0
1.0 0.0 0.0 0.0 1.0 1.0 0.0 0.0
1.0 1.0 1.0 0.0 1.0 0.0 0.0 0.0
1.0 1.0 0.0 0.0 1.0 1.0 1.0 0.0
1.0 0.0 0.0 0.0 1.0 1.0 0.0 0.0
1.0 1.0 1.0 0.0 1.0 0.0 0.0 0.0
1.0 1.0 0.0 0.0 1.0 1.0 1.0 0.0
1.0 0.0 0.0 0.0 1.0 1.0 0.0 0.0
1.0 1.0 1.0 0.0 1.0 0.0 0.0 0.0
1.0 1.0 0.0 0.0 1.0 1.0 1.0 0.0
1.0 0.0 0.0 0.0 1.0 1.0 0.0 0.0
1.0 1.0 1.0 0.0 1.0 0.0 0.0 0.0
1.0 1.0 0.0 0.0 1.0 1.0 1.0 0.0
1.0 0.0 0.0 0.0 1.0 1.0 0.0 0.0
1.0 1.0 1.0 0.0 1.0 0.0 0.0 0.0
1.0 1.0 0.0 0.0 1.0 1.0 1.0 0.0
1.0 0.0 0.0 0.0 1.0 1.0 0.0 0.0
1.0 1.0 1.0 0.0 1.0 0.0 0.0 0.0

_transform._transforms.1.autoregressive_net.blocks.0.linear_layers.0.weight f4 [64, 64]
00000000: aa55 603d 4481 103d 5c19 6b3d 04f4 ffbd
00000010: c0b0 0c3b 401c d1bb 970a 293c 1c9f 20bd
00000020: 0eaf c33d 3aaf f8bc 600d b2bb 48ea 833c
00000030: 80d9 85bd 4860 e6bd 7092 de3c f256 85bd
00000040: 2086 933b 5edb 9c3d dee3 183f 9c3f cfbd
00000050: bcd6 f43d c02c aa3c 1826 bd3c e00e f7bb
00000060: 1511 cc3d 7a8e b4bd 3e64 d93d b538 ba3d
00000070: 70de 23bd c8cf ba3d 230c d9ba a048 73bd
00000080: 5420 a63d ca2e fa3d f046 913d 902a fe3c
00000090: 8c1e f33c 806b 793c 0e07 bb3d f25c 67bb
000000a0: 8ebf d5bd 2cce 93bd 8f01 2e3b da67 f2bd
000000b0: fa4e b6bd bf90 08be dcbe 56bd 00c5 e2ba
000000c0: effb c5bb ca6e e9bd d263 c43d a706 ce3a
000000d0: acc1 fcbd ee82 e1bd 12a8 123e 84a4 9cbd
000000e0: a854 c93c 4a9d fcbd 401b 79bd a020 c03c
000000f0: 821c b73d c876 933c eaf0 843d 9bd1 c13b
00000100: 9778 17be 4707 cc3c e473 a43d 9c2f 1dbd
00000110: 908b f939 a0f4 7fbc 5d42 273d 9516 0dbc
00000120: 46b4 db3d 064f fdbc b962 64bd dc2e eebd
00000130: c820 10be 55f1 63bd 0a10 a6bd c6bf a23d
00000140: 6a12 a2bd 9a66 833d 2350 22bf 513d 32be
00000150: 564c a2bd 8c7c a6bd 9d94 c13d ea1e 8dbd
00000160: d191 763d 2e77 823d 242a 113d f1f8 013e
00000170: cb41 5c3c 9446 193d 5adb 2abe afb9 bfbe
00000180: bc1c d6bd 15d1 afbd 7c75 a8bd 346f 3cbd
00000190: 085f 72bb ce64 3d3d 8e5e ba3d 5ae1 d3bc
000001a0: beb7 35bd c839 dfbd 4828 233a 77a6 dfbc
000001b0: 00be 063c 2a51 133e 1880 62bd d86d 94bc
000001c0: de21 f23b 884e 61bd 84cb da3d 658c 8fbd
000001d0: 6b00 0dbe 5eea d0bd 15ad c3bb 2312 fcbc
000001e0: c07e 9e3d 37bf 45bc 61b0 9f3d 687d 81bc
000001f0: b18b 8f3d 165d 933e a8f3 6a3d 8247 cfbd
00000200: 9b25 7ebc 6687 123c 1077 ce3c b0a4 313d
00000210: 0d3a 803d b5c8 183c 628b c8bd 6651 fcbd
00000220: a1b5 76bd fd4d a2bd 35e6 24bd 5a7f 56bd
00000230: 21a9 5bbd 9187 f33d 837f cdbd fa88 11bc
00000240: 5c3a 283d a7ef 01be 84f4 80bc 2fef e53d
00000250: 8a39 dc3d 37a2 c33d 1918 a13c 047a 2fbd
00000260: 169d 6bbc 25d3 2a3d ff80 a5bc f73f 113d
00000270: 6ff6 e83d 648f efbc 2872 123d 505e f8bd
00000280: 4ba5 b7bd dc5c 4f3d acb0 68bd 89c4 ef3d
00000290: ebd5 653d 6ebd 85bd 01d2 1ebd 9e2a 08bd
000002a0: 17a5 753c 4e02 4fbd 0bef 033c acd6 90bd
000002b0: c416 d9bd 4b0a c8bd 262f cabb 37f4 903d
000002c0: f7b0 36bc 0875 2dbd a151 c23c 6766 f4bd
000002d0: f2d1 b63d 5771 cb3c a07b 2fbc 263c 29bc
000002e0: ed24 9f3c 76df 6dbd d1b9 00be 5ab1 9dbd
000002f0: 378e 6d3d 206b cb3d 5010 aa3d d554 93bd
00000300: 0ca2 563d 50ff 01bd d842 63bd dc99 503d
00000310: a0a9 653c f80b d1bc d8f9 c3bd 886a 31bd
00000320: b8b7 d23c f8a7 cbbb e010 debb fe56 96bd
00000330: 6e4f 04bc f0cb 2dbc 200f 12bc 95e4 f93c
00000340: ceda ab3d 72c2 bbbd 8890 253f 68aa fbbd
00000350: acc7 afbd a662 f33d a45c 5bbd e0c5 efbd
00000360: 4acd a6bd 8059 09bd c02b 8dbd af5e ef3c
00000370: 10d4 8d3c 36b0 993d 46dc b23d f211 c2bd
00000380: 70e2 9ebc e531 a73c 18e6 113d 28d7 88bc
00000390: 02ce cd3c b48d 8a3d ccc0 593d 513d 123e
000003a0: fea7 e8bd 900b 173d d013 023e 80c8 e5bd
000003b0: 4ed0 85bd 354b e8bd 44ff 5b3d c88b 273d
000003c0: 8b30 b0bd b4d0 a13d 7cd7 4ebd fa11 b53d
000003d0: 08ef d8bd 2047 083d 9121 e03d f021 df3c
000003e0: 86f3 f5bd aa83 183d 300a e4bd fcbb 313d
000003f0: 22ca da3b c073 ffbd b8a5 e0bc 46a1 da3c
0.054769196 0.035279527 0.05739723 -0.12497714 0.0021467656 -0.0063815415 0.010317466 -0.03921424
0.095548734 -0.030356992 -0.0054337233 0.016102925 -0.065356255 -0.11248833 0.027169436 -0.06510724
0.004502073 0.076590285 0.597227 -0.101195544 0.1195502 0.020773292 0.023089454 -0.007539615
0.09964196 -0.08816238 0.10614823 0.09092847 -0.040007055 0.091216624 -0.0016559403 -0.059395432
0.08111635 0.122159556 0.070936084 0.031026155 0.029677652 0.015223384 0.09132205 -0.0035303202
-0.10436927 -0.072170585 0.0026551222 -0.11836214 -0.08901782 -0.13336466 -0.05242811 -0.0017301142
-0.0060419957 -0.113980845 0.09589352 0.0015718535 -0.123416275 -0.11011301 0.14321926 -0.07648566
0.0245765 -0.12334688 -0.060817003 0.023453057 0.08940984 0.018000975 0.06491263 0.0059148795
-0.14792095 0.024905814 0.08029917 -0.038375482 0.00047596963 -0.015622288 0.040834773 -0.008611341
0.10727744 -0.03092147 -0.05575821 -0.116300315 -0.14075005 -0.055650074 -0.08108528 0.07946734
-0.079136685 0.06416054 -0.6340353 -0.17406203 -0.07924716 -0.08129224 0.09452174 -0.06890662
0.060197655 0.06370388 0.03544058 0.1269262 0.013443421 0.037420824 -0.16685238 -0.37446353
-0.104546994 -0.08584801 -0.08225533 -0.04600449 -0.0036982913 0.046238713 0.09100066 -0.025864292
-0.044364683 -0.10899693 0.0006223959 -0.027301056 0.0082240105 0.1438643 -0.05529794 -0.018118784
0.007389291 -0.055006534 0.10683349 -0.070092 -0.1376969 -0.10200952 -0.0059715607 -0.030770367
0.077390194 -0.012069515 0.077973135 -0.015806869 0.07009066 0.28781956 0.057361275 -0.10121061
-0.0155118955 0.008943414 0.025203258 0.04336995 0.06261072 0.009325196 -0.0979221 -0.12320213
-0.06023181 -0.07925031 -0.040258605 -0.052367546 -0.05362809 0.118910916 -0.100340866 -0.008882755
0.04107128 -0.12689076 -0.015741594 0.11227261 0.10753162 0.095524244 0.019664811 -0.042840973
-0.014380714 0.04170527 -0.020203112 0.035461392 0.113751285 -0.029243179 0.0357534 -0.12127364
-0.08967074 0.050625667 -0.056809112 0.11707408 0.05611221 -0.065302715 -0.038774494 -0.033243768
0.014992974 -0.050539307 0.008052598 -0.070721954 -0.10600045 -0.09767588 -0.0061701713 0.0707783
-0.01115059 -0.042347938 0.023720564 -0.11933594 0.08926763 0.024834318 -0.010710627 -0.010329282
0.019426787 -0.058074437 -0.12570883 -0.07699843 0.057996955 0.09932542 0.083038926 -0.07193915
0.052400634 -0.031737626 -0.05548367 0.05092798 0.0140174925 -0.025518402 -0.09569138 -0.043314487
0.02572237 -0.006215092 -0.006776914 -0.07340811 -0.008075578 -0.0106077045 -0.008914739 0.030504504
0.08391343 -0.09167947 0.6467366 -0.12288362 -0.08583006 0.1188405 -0.053555146 -0.117076635
-0.081446245 -0.03353262 -0.0689311 0.029219953 0.017313033 0.07504313 0.0873342 -0.09476079
-0.019395083 0.020409534 0.035619825 -0.016704157 0.025122646 0.06765309 0.05316238 0.14281203
-0.11360167 0.03687626 0.1270287 -0.11219883 -0.065338716 -0.113424696 0.053710237 0.04090479
-0.08603009 0.07901135 -0.05049847 0.088413194 -0.105924666 0.033270955 0.10943902 0.027237862
-0.12009339 0.03723494 -0.111347556 0.043392166 0.006676928 -0.124732494 -0.02742277 0.02668823

_transform._transforms.1.autoregressive_net.blocks.0.linear_layers.0.bias f4 [64]
00000000: f199 8e3d 5090 003e 1332 94bd d048 923d
00000010: 661b ee3d a35a c0bd 62a4 e6bd 3e81 833d
00000020: a760 3dbd 007d b1bc e98a 9f3d ae7f b53d
00000030: a62e c53d 5e84 883d 2d42 e93d 18c1 703d
00000040: 127e ba3d 5bd5 bdbd a677 ecbd 9712 053e
00000050: 1ee8 273d 96bc 8abd f10e d83d c0dd 2ebd
00000060: 3524 4fbd 2fc1 f73b 7572 1b3d 9f3d efbd
00000070: bc80 bf3d 7cbe a63d 8c78 55bd 3bfb dd3b
00000080: 3b80 ca3c 22d8 003d e89b 7abd 1fb4 d73d
00000090: 396a 993d 68fc a7bb e3e6 113e acb7 ea3d
000000a0: 3a6a 97bc abb4 bc3d 9215 ac3d c0e7 94bd
000000b0: d315 543d efb0 4c3d cbd4 ae3d b33a 903d
000000c0: b496 ec3c b68e e33d 0b5e c53d e900 72bc
000000d0: ca26 0e3e 18ab 9b3c f041 81bd 8601 a4bd
000000e0: 65a3 02be 3ce5 4e3d 9e04 823a d307 183e
000000f0: c07f 60bc 0b54 083e 946a 5e3d d296 8fbd
0.06962956 0.12555051 -0.072361134 0.07142794 0.116263196 -0.093922876 -0.11261822 0.06421135
-0.046234753 -0.02166605 0.07790167 0.088622436 0.09628038 0.06665872 0.11389575 0.0587779
0.09106077 -0.0926921 -0.11546259 0.12995373 0.04099285 -0.06774251 0.10549725 -0.042691946
-0.05057164 0.007560871 0.03795095 -0.11681675 0.09350726 0.08141801 -0.052116916 0.006774334
0.024719348 0.03145612 -0.06118384 0.10532402 0.074909635 -0.0051265247 0.14248233 0.11460814
-0.01848327 0.09214147 0.08402552 -0.07270765 0.051778626 0.049973425 0.08536681 0.07042446
0.028880455 0.11111204 0.09637078 -0.014770725 0.13881984 0.019002482 -0.06311405 -0.08008103
-0.12757643 0.050511584 0.0009919589 0.14846735 -0.013702333 0.1331331 0.05430086 -0.070111886

_transform._transforms.1.autoregressive_net.blocks.0.linear_layers.0.mask f4 [64, 64]
00000000: 0000 803f 0000 0000 0000 0000 0000 803f
00000010: 0000 0000 0000 0000 0000 803f 0000 0000
00000020: 0000 0000 0000 803f 0000 0000 0000 0000
00000030: 0000 803f 0000 0000 0000 0000 0000 803f
00000040: 0000 0000 0000 0000 0000 803f 0000 0000
00000050: 0000 0000 0000 803f 0000 0000 0000 0000
00000060: 0000 803f 0000 0000 0000 0000 0000 803f
00000070: 0000 0000 0000 0000 0000 803f 0000 0000
00000080: 0000 0000 0000 803f 0000 0000 0000 0000
00000090: 0000 803f 0000 0000 0000 0000 0000 803f
000000a0: 0000 0000 0000 0000 0000 803f 0000 0000
000000b0: 0000 0000 0000 803f 0000 0000 0000 0000
000000c0: 0000 803f 0000 0000 0000 0000 0000 803f
000000d0: 0000 0000 0000 0000 0000 803f 0000 0000
000000e0: 0000 0000 0000 803f 0000 0000 0000 0000
000000f0: 0000 803f 0000 0000 0000 0000 0000 803f
00000100: 0000 803f 0000 803f 0000 0000 0000 803f
00000110: 0000 803f 0000 0000 0000 803f 0000 803f
00000120: 0000 0000 0000 803f 0000 803f 0000 0000
00000130: 0000 803f 0000 803f 0000 0000 0000 803f
00000140: 0000 803f 0000 0000 0000 803f 0000 803f
00000150: 0000 0000 0000 803f 0000 803f 0000 0000
00000160: 0000 803f 0000 803f 0000 0000 0000 803f
00000170: 0000 803f 0000 0000 0000 803f 0000 803f
00000180: 0000 0000 0000 803f 0000 803f 0000 0000
00000190: 0000 803f 0000 803f 0000 0000 0000 803f
000001a0: 0000 803f 0000 0000 0000 803f 0000 803f
000001b0: 0000 0000 0000 803f 0000 803f 0000 0000
000001c0: 0000 803f 0000 803f 0000 0000 0000 803f
000001d0: 0000 803f 0000 0000 0000 803f 0000 803f
000001e0: 0000 0000 0000 803f 0000 803f 0000 0000
000001f0: 0000 803f 0000 803f 0000 0000 0000 803f
00000200: 0000 803f 0000 803f 0000 803f 0000 803f
00000210: 0000 803f 0000 803f 0000 803f 0000 803f
00000220: 0000 803f 0000 803f 0000 803f 0000 803f
00000230: 0000 803f 0000 803f 0000 803f 0000 803f
00000240: 0000 803f 0000 803f 0000 803f 0000 803f
00000250: 0000 803f 0000 803f 0000 803f 0000 803f
00000260: 0000 803f 0000 803f 0000 803f 0000 803f
00000270: 0000 803f 0000 803f 0000 803f 0000 803f
00000280: 0000 803f 0000 803f 0000 803f 0000 803f
00000290: 0000 803f 0000 803f 0000 803f 0000 803f
000002a0: 0000 803f 0000 803f 0000 803f 0000 803f
000002b0: 0000 803f 0000 803f 0000 803f 0000 803f
000002c0: 0000 803f 0000 803f 0000 803f 0000 803f
000002d0: 0000 803f 0000 803f 0000 803f 0000 803f
000002e0: 0000 803f 0000 803f 0000 803f 0000 803f
000002f0: 0000 803f 0000 803f 0000 803f 0000 803f
00000300: 0000 803f 0000 0000 0000 0000 0000 803f
00000310: 0000 0000 0000 0000 0000 803f 0000 0000
00000320: 0000 0000 0000 803f 0000 0000 0000 0000
00000330: 0000 803f 0000 0000 0000 0000 0000 803f
00000340: 0000 0000 0000 0000 0000 803f 0000 0000
00000350: 0000 0000 0000 803f 0000 0000 0000 0000
00000360: 0000 803f 0000 0000 0000 0000 0000 803f
00000370: 0000 0000 0000 0000 0000 803f 0000 0000
00000380: 0000 0000 0000 803f 0000 0000 0000 0000
00000390: 0000 803f 0000 0000 0000 0000 0000 803f
000003a0: 0000 0000 0000 0000 0000 803f 0000 0000
000003b0: 0000 0000 0000 803f 0000 0000 0000 0000
000003c0: 0000 803f 0000 0000 0000 0000 0000 803f
000003d0: 0000 0000 0000 0000 0000 803f 0000 0000
000003e0: 0000 0000 0000 803f 0000 0000 0000 0000
000003f0: 0000 803f 0000 0000 0000 0000 0000 803f
1.0 0.0 0.0 1.0 0.0 0.0 1.0 0.0
0.0 1.0 0.0 0.0 1.0 0.0 0.0 1.0
0.0 0.0 1.0 0.0 0.0 1.0 0.0 0.0
1.0 0.0 0.0 1.0 0.0 0.0 1.0 0.0
0.0 1.0 0.0 0.0 1.0 0.0 0.0 1.0
0.0 0.0 1.0 0.0 0.0 1.0 0.0 0.0
1.0 0.0 0.0 1.0 0.0 0.0 1.0 0.0
0.0 1.0 0.0 0.0 1.0 0.0 0.0 1.0
1.0 1.0 0.0 1.0 1.0 0.0 1.0 1.0
0.0 1.0 1.0 0.0 1.0 1.0 0.0 1.0
1.0 0.0 1.0 1.0 0.0 1.0 1.0 0.0
1.0 1.0 0.0 1.0 1.0 0.0 1.0 1.0
0.0 1.0 1.0 0.0 1.0 1.0 0.0 1.0
1.0 0.0 1.0 1.0 0.0 1.0 1.0 0.0
1.0 1.0 0.0 1.0 1.0 0.0 1.0 1.0
0.0 1.0 1.0 0.0 1.0 1.0 0.0 1.0
1.0 1.0 1.0 1.0 1.0 1.0 1.0 1.0
1.0 1.0 1.0 1.0 1.0 1.0 1.0 1.0
1.0 1.0 1.0 1.0 1.0 1.0 1.0 1.0
1.0 1.0 1.0 1.0 1.0 1.0 1.0 1.0
1.0 1.0 1.0 1.0 1.0 1.0 1.0 1.0
1.0 1.0 1.0 1.0 1.0 1.0 1.0 1.0
1.0 1.0 1.0 1.0 1.0 1.0 1.0 1.0
1.0 1.0 1.0 1.0 1.0 1.0 1.0 1.0
1.0 0.0 0.0 1.0 0.0 0.0 1.0 0.0
0.0 1.0 0.0 0.0 1.0 0.0 0.0 1.0
0.0 0.0 1.0 0.0 0.0 1.0 0.0 0.0
1.0 0.0 0.0 1.0 0.0 0.0 1.0 0.0
0.0 1.0 0.0 0.0 1.0 0.0 0.0 1.0
0.0 0.0 1.0 0.0 0.0 1.0 0.0 0.0
1.0 0.0 0.0 1.0 0.0 0.0 1.0 0.0
0.0 1.0 0.0 0.0 1.0 0.0 0.0 1.0

_transform._transforms.1.autoregressive_net.blocks.0.linear_layers.1.weight f4 [64, 64]
00000000: af4d 3a3d 4a16 da39 8698 1a3a 12c8 323d
00000010: 01c0 4238 2717 b139 799b b7b9 1b24 593a
00000020: bd94 c737 303d b0b8 8068 fcb9 bba1 f0b9
00000030: cc6b ff3c 63f9 25ba a462 20ba 5b62 75ba
00000040: fd5d ccb9 6f28 5c3a d2b2 6738 804e 48b9
00000050: 1934 02b9 3d64 82ba a83e 2bba 4e28 0cba
00000060: b732 c8bd 5248 393a 01b0 da38 7130 a93b
00000070: bd8b 353a 82df b039 f25a 913c 81c7 11ba
00000080: b568 c937 10b7 543d b39d 0a37 7f95 00ba
00000090: baa6 723d 1925 45ba 2895 4839 0d47 6d3d
000000a0: 1b2f 8438 79c7 52ba cb69 343d 2813 563a
000000b0: 9876 ebb8 7011 4e3d 1f5e 2f3a bb55 57ba
000000c0: 2059 663d 5bd7 433a dcb5 d5b9 6138 a13d
000000d0: a0b8 f0b9 17cb 34ba 57d9 68bb 925c 35ba
000000e0: 9e35 b1b9 31dd c03c bd93 45ba 636b 493a
000000f0: d48f a03c 54b2 14ba 4e5a 8bb8 f650 e5b9
00000100: 2bfa 293d a10f 8a3d 0b77 dcb9 ceea 9f3c
00000110: 3906 443d a611 3eba 53ee e7b9 55d3 2f3d
00000120: 9882 c4b9 13e0 52ba 7a2b 5dbc 6d02 4eba
00000130: 60fb 033d f062 c03c e48e 60ba d14c 3f3a
00000140: 0282 f73c 6bc8 48b9 b554 8039 0ef2 b13d
00000150: 7865 76ba 0359 a039 6927 3b3d 38f3 10ba
00000160: 0480 0bbb 0170 293d 465e 3f39 fa39 a23b
00000170: 6183 ea3c a205 4339 d0be 4d3b 6a5c 053d
00000180: f08e 04ba 8aea 173d 09e0 5c3a 1949 15ba
00000190: 4591 dd3c 1b1c 983d 5f2a e1b9 f6d5 073d
000001a0: 652b 873c 754f 6c39 68e4 2f3d 96bf f0b9
000001b0: 5111 54ba 7505 f83c 08d5 973d e087 b8b9
000001c0: 5548 8c3c a961 563d dcbb 533a 48b4 b7ba
000001d0: 217c 8a3c 57fa 4839 f670 08bc 63b3 6fba
000001e0: 55e7 3239 0002 513c d549 0b3d c9ba 87b9
000001f0: 777f 6e39 1892 133d daa7 2aba 7c14 e6b5
00000200: 48aa 89bc 6dd3 ffb8 3d6f 76bb 622e aabc
00000210: f719 49bd 8dd1 e9ba 5983 42ba 3a84 25bd
00000220: be70 beb9 1930 5e3a be4c 16bd ccce 13bd
00000230: b666 93bc 4982 aebc ad55 aabc 01a0 423a
00000240: 80e1 68bd 7b3b 3d3d d2f4 683a 8923 07bd
00000250: ddda 22bd a54a f139 7f38 ecbc 4db7 713a
00000260: 75c2 873b 0405 36bd be1e 2a3c d37c 163b
00000270: e87e bebc b3c7 55bd 0859 91bc 7aae a4bc
00000280: d83e bb3b d3db 5dbc 2aa0 33ba 38c1 6e3b
00000290: 37c9 f8bc f550 acbc a5a1 adbd 70da bdbc
000002a0: 9757 56bc 877e c8bc b99d 96bc 5959 9d37
000002b0: 8fd5 2ebd 924e bfbc d9d3 73bc dbfa 313d
000002c0: 6563 c3bc c4fb cfbc 84b4 353e a54c edbc
000002d0: 5def bfbc 38d5 8abd 102b 25ba 3218 5638
000002e0: 7e5a ef3b 5984 79bc b9c9 4cbd e044 573e
000002f0: d599 96bc 7ee6 91bc a423 66bc ee92 8939
00000300: 7482 5dbd 5f00 a2b9 63f8 0639 25d7 80bd
00000310: 5979 fd39 bbfb beb9 2e19 62ba 194a e6b9
00000320: fccf 16ba c53a 8c39 f01b a139 ec1d 33b9
00000330: dd8a 23bd b5a9 123a 2881 7eb8 ab31 4e38
00000340: 7f4c 01ba 2672 673a 6951 8c38 4efc a1b9
00000350: 501f a839 0b1f ef39 faca 2bba 65d9 ce39
00000360: 3f80 df3d 21a8 18ba 6b01 08ba e461 013c
00000370: 57d8 ceb9 2a82 3f3a 0b72 4ebd 6d9f a7b9
00000380: 426d 133a c639 89bd 969d 8339 0110 c1b8
00000390: 4835 9abd 8358 06ba cd6b 34ba 1e6f 8dbd
000003a0: dc27 58ba 2e0a ecb8 2285 50bd 0968 3039
000003b0: e8dc 383a 6979 8dbd 63e2 77ba 4c97 5539
000003c0: dd96 94bd 132b beb8 05dc b8b9 a879 c9bd
000003d0: 5bd4 2139 f60c 34ba 5f4a a8bb 94e4 3cba
000003e0: 67e4 17ba 338e 3bbd e633 323a 869f 463a
000003f0: 9642 6bbd b52c 2439 8804 8b39 e232 aab8
0.04548424 0.00041596807 0.00058973616 0.043647833 4.6432022e-05 0.0003377732 -0.00035020316 0.0008283273
2.379191e-05 -8.403731e-05 -0.00048143044 -0.00045896866 0.031179331 -0.0006331412 -0.0006118214 -0.00093606644
-0.0003897994 0.0008398359 5.524123e-05 -0.0001910273 -0.00012417174 -0.0009948086 -0.0006532469 -0.0005346582
-0.09775298 0.00070679665 0.00010427833 0.0051632454 0.00069254247 0.00033735862 0.017743561 -0.00055610394
2.4009825e-05 0.051932395 8.262158e-06 -0.0004905089 0.059241034 -0.00075204816 0.00019129051 0.057929087
6.3030246e-05 -0.0008040588 0.044046205 0.00081663067 -0.00011227763 0.0503096 0.00066897454 -0.0008214374
0.05623734 0.000747075 -0.00040762022 0.078720815 -0.00045913924 -0.0006896718 -0.0035529935 -0.0006918396
-0.0003380002 0.023542972 -0.00075369683 0.00076835434 0.019599833 -0.0005672325 -6.644857e-05 -0.00043738604
0.041498344 0.06741262 -0.00042050364 0.019521143 0.047857497 -0.00072505546 -0.0004423732 0.04292615
-0.00037481333 -0.0008044254 -0.013499135 -0.0007858638 0.03222215 0.023484677 -0.0008566214 0.00072975183
0.03021336 -0.00019148148 0.00024477174 0.086887464 -0.00093992753 0.00030583897 0.04569188 -0.00055294065
-0.002128602 0.04136658 0.00018250299 0.004950759 0.0286271 0.00018598748 0.003139425 0.032558836
-0.00050567 0.03708891 0.0008425718 -0.00056947913 0.027046809 0.07427236 -0.00042946913 0.033163033
0.016500184 0.00022536314 0.042942435 -0.0004591911 -0.00080897385 0.03027604 0.07413679 -0.0003519645
0.017124334 0.05233923 0.00080770045 -0.001401552 0.016904892 0.00019166745 -0.008327713 -0.0009143857
0.00017061581 0.0127568245 0.03400596 -0.00025888372 0.00022744933 0.036027998 -0.0006509997 -1.7142297e-06
-0.01680483 -0.00012198729 -0.0037602924 -0.02077407 -0.049097028 -0.001783894 -0.0007420085 -0.040409304
-0.00036323623 0.0008475795 -0.03669428 -0.03608589 -0.017993312 -0.02130236 -0.020792807 0.0007424355
-0.05685568 0.046199303 0.0008886579 -0.032992873 -0.039759506 0.00046022717 -0.028835533 0.00092207344
0.004143054 -0.044438377 0.010383306 0.0022962585 -0.023253873 -0.0521924 -0.017742649 -0.020102728
0.0057142787 -0.01354118 -0.00068521744 0.0036431085 -0.030369384 -0.021034697 -0.08478097 -0.023175448
-0.0130824065 -0.024474395 -0.018385755 1.8757464e-05 -0.042684134 -0.023352895 -0.014882051 0.043452125
-0.023851106 -0.025388606 0.17744642 -0.028967211 -0.023429567 -0.067789495 -0.00063006673 5.104411e-05
0.0073044887 -0.015229308 -0.049997065 0.21022367 -0.0183839 -0.017810103 -0.014046583 0.00026240147
-0.054079488 -0.00030899324 0.00012871767 -0.062910356 0.00048346331 -0.00036427178 -0.0008624968 -0.00043924226
-0.0005753038 0.00026746668 0.00030729128 -0.00017081917 -0.039927352 0.00055947463 -6.0678605e-05 4.9160484e-05
-0.0004932358 0.000882896 6.690884e-05 -0.00030896295 0.00032066787 0.0004560876 -0.0006553378 0.00039453353
0.10913133 -0.0005823393 -0.00051881996 0.007896874 -0.00039452568 0.0007305468 -0.05040173 -0.00031971504
0.00056238857 -0.067004725 0.00025103678 -9.205938e-05 -0.07529694 -0.00051248836 -0.00068825186 -0.069059595
-0.00082456856 -0.00011255253 -0.050908215 0.00016823424 0.00070519606 -0.06907923 -0.00094560365 0.00020369625
-0.072553374 -9.067929e-05 -0.00035259142 -0.09837657 0.00015433265 -0.00068683864 -0.005135819 -0.00072056917
-0.00057942275 -0.04578991 0.00067978946 0.00075768714 -0.05743655 0.00015656913 0.00026515522 -8.115709e-05

_transform._transforms.1.autoregressive_net.blocks.0.linear_layers.1.bias f4 [64]
00000000: 82a9 e03c 9da9 193d 0708 a8bc 6cec b6bc
00000010: 40ed 9dbc 9853 4a3c 7c7a 0a3d 103d 003d
00000020: 307c 09bc d1c6 f8bc fcdf d8bc c976 433c
00000030: be3d 92bc 42de e3bc 3386 e6bb 640b ae3c
00000040: 806a 07bd c2de 2d3d 4dd2 1dbd 5b8a 033d
00000050: 0e49 ac3c 9925 90bc 1959 493c 1008 3b3c
00000060: 17af 8a3c 019b 2f3c 9bc0 6b3a 6fba 7e3c
00000070: 49d3 53bc bee9 84bc 35cc 87bd f4ad 323d
00000080: 1a86 843c 77e5 cb3c aa69 29bd 715b edbb
00000090: c701 97bc a50d 1ebd c5a3 fb3b f857 df3b
000000a0: 7ec4 adbc 038e 8fbc 7968 f0bc fb70 00bd
000000b0: c461 0c3d a7b0 013d a895 fdbc 49ea 05bd
000000c0: 087d d33c 5f4a ad3c bbf0 8c3c aa49 15bc
000000d0: a68a 31bc f4f5 083c 62f5 a03c 88cb 93bc
000000e0: c4c0 9abc 232e 263c 85c6 c43c 4c41 c03c
000000f0: 228f b8bc de4b f2bc 2529 623c 0eda 68bc
0.027424578 0.03751527 -0.02051164 -0.022329532 -0.019278169 0.012349032 0.033808216 0.031308234
-0.008391425 -0.03036824 -0.026473992 0.011930176 -0.017851707 -0.027815942 -0.0070350408 0.021245666
-0.03306055 0.042448767 -0.038530637 0.032114368 0.021030929 -0.017596053 0.012289309 0.0114154965
0.016929192 0.010718108 0.0008993239 0.015547379 -0.012928792 -0.016224738 -0.06630746 0.043622926
0.016177226 0.02488969 -0.041360535 -0.0072435667 -0.018433465 -0.03858723 0.007679435 0.0068159066
-0.021211859 -0.017523771 -0.029346691 -0.031357747 0.034272924 0.03166261 -0.03095515 -0.032694135
0.025816455 0.021153627 0.017204633 -0.009111801 -0.010836279 0.008359421 0.019648258 -0.018041387
-0.018890746 0.010142836 0.024020443 0.023468636 -0.022529189 -0.029577192 0.013803755 -0.014212145

_transform._transforms.1.autoregressive_net.blocks.0.linear_layers.1.mask f4 [64, 64]
00000000: 0000 803f 0000 0000 0000 0000 0000 803f
00000010: 0000 0000 0000 0000 0000 803f 0000 0000
00000020: 0000 0000 0000 803f 0000 0000 0000 0000
00000030: 0000 803f 0000 0000 0000 0000 0000 803f
00000040: 0000 0000 0000 0000 0000 803f 0000 0000
00000050: 0000 0000 0000 803f 0000 0000 0000 0000
00000060: 0000 803f 0000 0000 0000 0000 0000 803f
00000070: 0000 0000 0000 0000 0000 803f 0000 0000
00000080: 0000 0000 0000 803f 0000 0000 0000 0000
00000090: 0000 803f 0000 0000 0000 0000 0000 803f
000000a0: 0000 0000 0000 0000 0000 803f 0000 0000
000000b0: 0000 0000 0000 803f 0000 0000 0000 0000
000000c0: 0000 803f 0000 0000 0000 0000 0000 803f
000000d0: 0000 0000 0000 0000 0000 803f 0000 0000
000000e0: 0000 0000 0000 803f 0000 0000 0000 0000
000000f0: 0000 803f 0000 0000 0000 0000 0000 803f
00000100: 0000 803f 0000 803f 0000 0000 0000 803f
00000110: 0000 803f 0000 0000 0000 803f 0000 803f
00000120: 0000 0000 0000 803f 0000 803f 0000 0000
00000130: 0000 803f 0000 803f 0000 0000 0000 803f
00000140: 0000 803f 0000 0000 0000 803f 0000 803f
00000150: 0000 0000 0000 803f 0000 803f 0000 0000
00000160: 0000 803f 0000 803f 0000 0000 0000 803f
00000170: 0000 803f 0000 0000 0000 803f 0000 803f
00000180: 0000 0000 0000 803f 0000 803f 0000 0000
00000190: 0000 803f 0000 803f 0000 0000 0000 803f
000001a0: 0000 803f 0000 0000 0000 803f 0000 803f
000001b0: 0000 0000 0000 803f 0000 803f 0000 0000
000001c0: 0000 803f 0000 803f 0000 0000 0000 803f
000001d0: 0000 803f 0000 0000 0000 803f 0000 803f
000001e0: 0000 0000 0000 803f 0000 803f 0000 0000
000001f0: 0000 803f 0000 803f 0000 0000 0000 803f
00000200: 0000 803f 0000 803f 0000 803f 0000 803f
00000210: 0000 803f 0000 803f 0000 803f 0000 803f
00000220: 0000 803f 0000 803f 0000 803f 0000 803f
00000230: 0000 803f 0000 803f 0000 803f 0000 803f
00000240: 0000 803f 0000 803f 0000 803f 0000 803f
00000250: 0000 803f 0000 803f 0000 803f 0000 803f
00000260: 0000 803f 0000 803f 0000 803f 0000 803f
00000270: 0000 803f 0000 803f 0000 803f 0000 803f
00000280: 0000 803f 0000 803f 0000 803f 0000 803f
00000290: 0000 803f 0000 803f 0000 803f 0000 803f
000002a0: 0000 803f 0000 803f 0000 803f 0000 803f
000002b0: 0000 803f 0000 803f 0000 803f 0000 803f
000002c0: 0000 803f 0000 803f 0000 803f 0000 803f
000002d0: 0000 803f 0000 803f 0000 803f 0000 803f
000002e0: 0000 803f 0000 803f 0000 803f 0000 803f
000002f0: 0000 803f 0000 803f 0000 803f 0000 803f
00000300: 0000 803f 0000 0000 0000 0000 0000 803f
00000310: 0000 0000 0000 0000 0000 803f 0000 0000
00000320: 0000 0000 0000 803f 0000 0000 0000 0000
00000330: 0000 803f 0000 0000 0000 0000 0000 803f
00000340: 0000 0000 0000 0000 0000 803f 0000 0000
00000350: 0000 0000 0000 803f 0000 0000 0000 0000
00000360: 0000 803f 0000 0000 0000 0000 0000 803f
00000370: 0000 0000 0000 0000 0000 803f 0000 0000
00000380: 0000 0000 0000 803f 0000 0000 0000 0000
00000390: 0000 803f 0000 0000 0000 0000 0000 803f
000003a0: 0000 0000 0000 0000 0000 803f 0000 0000
000003b0: 0000 0000 0000 803f 0000 0000 0000 0000
000003c0: 0000 803f 0000 0000 0000 0000 0000 803f
000003d0: 0000 0000 0000 0000 0000 803f 0000 0000
000003e0: 0000 0000 0000 803f 0000 0000 0000 0000
000003f0: 0000 803f 0000 0000 0000 0000 0000 803f
1.0 0.0 0.0 1.0 0.0 0.0 1.0 0.0
0.0 1.0 0.0 0.0 1.0 0.0 0.0 1.0
0.0 0.0 1.0 0.0 0.0 1.0 0.0 0.0
1.0 0.0 0.0 1.0 0.0 0.0 1.0 0.0
0.0 1.0 0.0 0.0 1.0 0.0 0.0 1.0
0.0 0.0 1.0 0.0 0.0 1.0 0.0 0.0
1.0 0.0 0.0 1.0 0.0 0.0 1.0 0.0
0.0 1.0 0.0 0.0 1.0 0.0 0.0 1.0
1.0 1.0 0.0 1.0 1.0 0.0 1.0 1.0
0.0 1.0 1.0 0.0 1.0 1.0 0.0 1.0
1.0 0.0 1.0 1.0 0.0 1.0 1.0 0.0
1.0 1.0 0.0 1.0 1.0 0.0 1.0 1.0
0.0 1.0 1.0 0.0 1.0 1.0 0.0 1.0
1.0 0.0 1.0 1.0 0.0 1.0 1.0 0.0
1.0 1.0 0.0 1.0 1.0 0.0 1.0 1.0
0.0 1.0 1.0 0.0 1.0 1.0 0.0 1.0
1.0 1.0 1.0 1.0 1.0 1.0 1.0 1.0
1.0 1.0 1.0 1.0 1.0 1.0 1.0 1.0
1.0 1.0 1.0 1.0 1.0 1.0 1.0 1.0
1.0 1.0 1.0 1.0 1.0 1.0 1.0 1.0
1.0 1.0 1.0 1.0 1.0 1.0 1.0 1.0
1.0 1.0 1.0 1.0 1.0 1.0 1.0 1.0
1.0 1.0 1.0 1.0 1.0 1.0 1.0 1.0
1.0 1.0 1.0 1.0 1.0 1.0 1.0 1.0
1.0 0.0 0.0 1.0 0.0 0.0 1.0 0.0
0.0 1.0 0.0 0.0 1.0 0.0 0.0 1.0
0.0 0.0 1.0 0.0 0.0 1.0 0.0 0.0
1.0 0.0 0.0 1.0 0.0 0.0 1.0 0.0
0.0 1.0 0.0 0.0 1.0 0.0 0.0 1.0
0.0 0.0 1.0 0.0 0.0 1.0 0.0 0.0
1.0 0.0 0.0 1.0 0.0 0.0 1.0 0.0
0.0 1.0 0.0 0.0 1.0 0.0 0.0 1.0

_transform._transforms.1.autoregressive_net.blocks.1.linear_layers.0.weight f4 [64, 64]
00000000: 188a ca3d 16a2 b63d 1265 83bd d4e5 9ebd
00000010: 86f1 e23d 1236 ffbd 6e60 0a3e 866f e93d
00000020: c665 8ebd 7313 12bd 787d ee3c 8097 bbbd
00000030: e123 35bd 00a9 e5bc f6fd f23d c282 a1bd
00000040: e0b7 cf3d 6e2c fabd 3d5c 823e 4ce8 7a3d
00000050: 40e4 a23d b909 13bd e042 efbc 781f e5bd
00000060: c44f 223d 1a8f 943d 008c d639 f438 093e
00000070: b089 c6bc 7aa3 cf3d 707c 7f3d 6c48 c1bd
00000080: 90e0 c2bc 9cd8 83bb a454 5e3d 2e25 e0bd
00000090: 7dbe 393d 9674 e0bd 4ae2 e6bd c183 e33d
000000a0: 6012 ec3b 1010 7b3c 5b83 9b3c 0002 423a
000000b0: 588b 9d3c 5ad6 9a3d 20d4 cbbc 088f 933c
000000c0: 8684 ef3d c61c ae3d 8882 d43d 4810 b13d
000000d0: 5e64 ebbd 28f7 fe3c 8dc3 5fbd 502d 20bd
000000e0: f0fe 823d 4817 bd3b a0b6 4e3c 4296 e5bd
000000f0: 1787 52bd e83a 19bd acab 403d d63f 0f3e
00000100: 8c0a f73d 1297 0f3c b22d e13d c0cd 3f3d
00000110: 90bd 4bbd 2817 a23d efc0 1b3d 6627 fa3d
00000120: 0e3b 8b3d 0aaa 113d d2b1 33be 8c7a 163d
00000130: aa7b debd 4764 c5be b418 4fbd 0a52 0e3c
00000140: d4c8 6d3d 0cea 753d 9e26 02bd 2e41 5ebd
00000150: 2ebf 813d 2f89 c93c 2f48 88bd e856 fe3d
00000160: 8849 92bd 912d 923c c8aa cc3c 2aca fbbd
00000170: 5924 7cbd 50db cdbd 2088 1ebe b162 cfbe
00000180: 0e7a d83d 4a6b 7bbd 5856 6cbd 00c8 86ba
00000190: 07d9 13be deaf f23c 70e7 ba3d e4e0 95bd
000001a0: a848 debd aecb de3d 99fa e43d 9302 ec3d
000001b0: 5cc5 f73d 4d7f 033e 106a a73d 1484 b6bd
000001c0: bddc afbd a4fa dcbb 5c75 bfbd cdc7 d6bd
000001d0: edfd 8a3d 347a 9dbd 93ba 603d eee6 383c
000001e0: 6cbc ca3d dc3b 8dbc efe1 6cbd e43f 88bd
000001f0: ceff da3d ac91 ca3e 60e9 f63d d37d 8b3d
00000200: a907 0b3e bbfa 8dbb 369c 1cbe a6db e6bd
00000210: 94e9 3b3d 5c0d a1bd 435d 0a3e 320a bc3d
00000220: f537 c03d 635a 86bc f703 61be bab6 6ebe
00000230: 7761 a23c 3d11 b1be 1bde 393d 1b1d a4bc
00000240: 9c2c a4bd 14b6 e7bc 8b39 eabe 2830 3ebe
00000250: 41b1 523d 073d a4bd bad7 cebd 5710 ccbd
00000260: a0f7 cebd 85d9 c0bc 0537 d6bc bfab 1abe
00000270: 8f11 07be 4b87 063e c5cb 8fbd 43af cdbe
00000280: 31b1 49be a3b9 10be 2956 b83d 0b6f 3f3e
00000290: 5120 be3d 7392 a43d 7316 6cbd 0fc3 42be
000002a0: 5ef1 d83d 17be e73d 6aa4 dbbd cbb9 5fbd
000002b0: e9dd e1bb a27b bcba 0d12 6f3c 1437 e23d
000002c0: 74d5 0b3e 761e 53bd 8ea7 2c3e 2bb1 acbd
000002d0: c971 f93c bfb2 ddbc 0585 51bd b5b1 a5bd
000002e0: 4d15 99bd 9567 00bc 743f 303d ec2f 0c3e
000002f0: 588a ab3d cf45 21be 120b ecbc 91b9 b93d
00000300: a593 d8bd 888d 1abd a299 afbd 2637 83bd
00000310: c096 11bb 1416 12bd 44c3 0cbe 8074 013d
00000320: d8c3 cfbd b5e8 ac3a 7ceb 37bd 6215 c63d
00000330: 5fc2 973c f23d c4bd dcf5 343d 5be3 98bd
00000340: 88f4 efbc d42f 053d fd9c a13e b009 753d
00000350: 1c6f 7d3d 28d4 14bd 20f9 823d 9619 bcbd
00000360: b054 1f3d 748a 913d e0f1 a73d a40c 223e
00000370: 6649 a6bd 5823 88bd bff8 ad3c d0a6 e43d
00000380: 0056 9739 1a7b c5bc 88f9 85bd 2026 a83c
00000390: a344 6dbd e0fe cb3d c021 4ebc 10e6 593e
000003a0: 207e 783c 6a01 b53d b8ba ee3d 641f c6bd
000003b0: b2c0 fa3d 9aad 613d acef 5e3d 8806 71bd
000003c0: 0d38 b83d 0491 833d 1c26 cdbd 95db f93d
000003d0: 12bb fabd 4034 393b dadf 153e b415 f23d
000003e0: 088d a63d 82a2 88bb 8069 85ba 00b1 62bd
000003f0: d836 143c 5600 c5bd 70e9 453c 02f3 443d
0.098896205 0.08917634 -0.06415762 -0.0775868 0.11081223 -0.12461485 0.13513348 0.113982245
-0.069530055 -0.03566308 0.029112563 -0.09159756 -0.04422367 -0.028034687 0.118648455 -0.07886268
0.10142493 -0.122155055 0.25460997 0.06125669 0.079536915 -0.035897944 -0.029206693 -0.11187643
0.03962685 0.07253857 0.0004092157 0.13400632 -0.024235576 0.101386026 0.062374532 -0.094376415
-0.02378872 -0.0040236246 0.05427994 -0.109445915 0.04534768 -0.10959737 -0.1127363 0.111091144
0.007204339 0.015323654 0.018983534 0.0007400811 0.019231483 0.075604156 -0.024881423 0.018012539
0.11695199 0.08501582 0.10376459 0.086456835 -0.11493753 0.031123713 -0.05462985 -0.039105713
0.06396282 0.0057705976 0.012616783 -0.112103 -0.051398363 -0.037409693 0.04703872 0.13989195
0.120625585 0.008764045 0.10995044 0.046827078 -0.049741328 0.07914573 0.038025793 0.12214546
0.06798373 0.035562553 -0.17548302 0.036737964 -0.10863431 -0.38553068 -0.050560668 0.008686552
0.058052853 0.060037658 -0.03177511 -0.05426138 0.06335293 0.024601547 -0.06654393 0.1241892
-0.07142931 0.017843993 0.024983779 -0.12294419 -0.0615581 -0.10051596 -0.15481615 -0.40504983
0.10570155 -0.061381616 -0.05769953 -0.0010282993 -0.14438258 0.029624876 0.091261744 -0.07318285
-0.10853702 0.108786926 0.1118061 0.115239285 0.1209819 0.1284153 0.08174527 -0.08911911
-0.08587024 -0.006743746 -0.093485564 -0.10487328 0.06786714 -0.07689324 0.05486543 0.011285527
0.0989922 -0.017240457 -0.057832655 -0.06652811 0.10693322 0.39564264 0.120562315 0.068111084
0.13577141 -0.004332868 -0.15293965 -0.11272363 0.045877054 -0.07863876 0.13512139 0.09181632
0.09385673 -0.016400522 -0.21974169 -0.23311892 0.019821865 -0.34583464 0.045377832 -0.02003341
-0.08016321 -0.028285064 -0.45747027 -0.18573058 0.051438574 -0.080194525 -0.1009974 -0.09964054
-0.101058245 -0.023541221 -0.026149282 -0.15104578 -0.13190292 0.13137548 -0.07021288 -0.40172777
-0.196965 -0.14133315 0.09000809 0.18694703 0.092835076 0.080357455 -0.057638597 -0.19019721
0.10592912 0.11315554 -0.10724719 -0.054620545 -0.006892909 -0.0014380107 0.014591706 0.110456616
0.13655645 -0.05154272 0.16860792 -0.084322296 0.030449765 -0.027062772 -0.051152248 -0.080905356
-0.07474766 -0.007837196 0.043029264 0.13690156 0.08375996 -0.15749286 -0.028813872 0.09068597
-0.10575036 -0.03773263 -0.08574225 -0.06407003 -0.0022215098 -0.035665587 -0.13746363 0.031605244
-0.10144776 0.0013191911 -0.04490231 0.09672047 0.0185253 -0.09582128 0.044179782 -0.074652396
-0.029291406 0.032516316 0.31565085 0.05982369 0.06187354 -0.03633514 0.06395173 -0.09184568
0.038899124 0.07106486 0.08200431 0.15825135 -0.081194684 -0.06647366 0.021236775 0.111646295
0.0002886504 -0.024106551 -0.06541735 0.020525992 -0.057926785 0.09960723 -0.012581289 0.21279168
0.015166789 0.0883816 0.116567075 -0.09673956 0.12243785 0.0550972 0.054427788 -0.05884412
0.08995066 0.06424144 -0.100170344 0.12200085 -0.12242712 0.0028259903 0.14636174 0.11820546
0.08132368 -0.004169763 -0.0010178536 -0.05534458 0.009046279 -0.09619205 0.012079582 0.048083313

_transform._transforms.1.autoregressive_net.blocks.1.linear_layers.0.bias f4 [64]
00000000: ef04 d03c c941 e03d 786e e83b 4bd1 97bc
00000010: 246e 9cbc e4c3 7dbc 8087 de3d 9b85 593d
00000020: 582e 9ebd 159c d63d a523 e6bc a228 c6bc
00000030: fc1c 873a 9aa7 a2be 31a7 21bd 0cd8 d03c
00000040: d02e bdbd e003 d7bc 2aac cd3c d4da 61be
00000050: 0a5a b63d d6d5 903d cb5c ebb9 5af4 09be
00000060: f871 d03c 6b62 573d a8bc cc3d 5eb0 9fbc
00000070: 12c8 a83d 1307 5a3d dc0c 4fbd 9611 503d
00000080: 1585 6dbd 1f43 71bd fab9 063e 868c 8a3d
00000090: d919 59bd 3ccf aa3d 8ec1 23bd a018 d6bd
000000a0: 70d9 d13c 09c6 c6bd 5db4 043d 4ce6 e9bd
000000b0: ca21 0b3c bb4b 2dbd 2665 1f3d 9407 863d
000000c0: 40a3 463d 48a2 fdbb 586e adbd 678d 3abd
000000d0: 4b4e 483d de24 69bd 3149 5839 b38c 013e
000000e0: 7171 51bd 20b3 603d b5ae c43c 7c80 f03d
000000f0: 9a4a 843d 348e ae3c d24a 60bd 55d4 5b3d
0.025392978 0.109500475 0.007093247 -0.018532416 -0.019095488 -0.0154885985 0.10865688 0.05310593
-0.07723683 0.10478989 -0.028093169 -0.024189297 0.0010308321 -0.31768495 -0.039466087 0.025493644
-0.092374444 -0.026246965 0.025106508 -0.22056133 0.08903892 0.07072036 -0.0004489183 -0.13472119
0.02544497 0.052584093 0.09996921 -0.019493278 0.082412854 0.053229403 -0.050549373 0.05079802
-0.057988245 -0.058901902 0.13156882 0.06765084 -0.053003166 0.08340308 -0.03997951 -0.104539156
0.025616378 -0.09705741 0.03239857 -0.11420879 0.008491943 -0.04230855 0.038914822 0.06544414
0.04849553 -0.0077402927 -0.08468312 -0.045545008 0.04890279 -0.056919925 0.00020626631 0.12651329
-0.051133577 0.054858327 0.024009088 0.117432564 0.064595416 0.021308042 -0.054758854 0.053669292

_transform._transforms.1.autoregressive_net.blocks.1.linear_layers.0.mask f4 [64, 64]
00000000: 0000 803f 0000 0000 0000 0000 0000 803f
00000010: 0000 0000 0000 0000 0000 803f 0000 0000
00000020: 0000 0000 0000 803f 0000 0000 0000 0000
00000030: 0000 803f 0000 0000 0000 0000 0000 803f
00000040: 0000 0000 0000 0000 0000 803f 0000 0000
00000050: 0000 0000 0000 803f 0000 0000 0000 0000
00000060: 0000 803f 0000 0000 0000 0000 0000 803f
00000070: 0000 0000 0000 0000 0000 803f 0000 0000
00000080: 0000 0000 0000 803f 0000 0000 0000 0000
00000090: 0000 803f 0000 0000 0000 0000 0000 803f
000000a0: 0000 0000 0000 0000 0000 803f 0000 0000
000000b0: 0000 0000 0000 803f 0000 0000 0000 0000
000000c0: 0000 803f 0000 0000 0000 0000 0000 803f
000000d0: 0000 0000 0000 0000 0000 803f 0000 0000
000000e0: 0000 0000 0000 803f 0000 0000 0000 0000
000000f0: 0000 803f 0000 0000 0000 0000 0000 803f
00000100: 0000 803f 0000 803f 0000 0000 0000 803f
00000110: 0000 803f 0000 0000 0000 803f 0000 803f
00000120: 0000 0000 0000 803f 0000 803f 0000 0000
00000130: 0000 803f 0000 803f 0000 0000 0000 803f
00000140: 0000 803f 0000 0000 0000 803f 0000 803f
00000150: 0000 0000 0000 803f 0000 803f 0000 0000
00000160: 0000 803f 0000 803f 0000 0000 0000 803f
00000170: 0000 803f 0000 0000 0000 803f 0000 803f
00000180: 0000 0000 0000 803f 0000 803f 0000 0000
00000190: 0000 803f 0000 803f 0000 0000 0000 803f
000001a0: 0000 803f 0000 0000 0000 803f 0000 803f
000001b0: 0000 0000 0000 803f 0000 803f 0000 0000
000001c0: 0000 803f 0000 803f 0000 0000 0000 803f
000001d0: 0000 803f 0000 0000 0000 803f 0000 803f
000001e0: 0000 0000 0000 803f 0000 803f 0000 0000
000001f0: 0000 803f 0000 803f 0000 0000 0000 803f
00000200: 0000 803f 0000 803f 0000 803f 0000 803f
00000210: 0000 803f 0000 803f 0000 803f 0000 803f
00000220: 0000 803f 0000 803f 0000 803f 0000 803f
00000230: 0000 803f 0000 803f 0000 803f 0000 803f
00000240: 0000 803f 0000 803f 0000 803f 0000 803f
00000250: 0000 803f 0000 803f 0000 803f 0000 803f
00000260: 0000 803f 0000 803f 0000 803f 0000 803f
00000270: 0000 803f 0000 803f 0000 803f 0000 803f
00000280: 0000 803f 0000 803f 0000 803f 0000 803f
00000290: 0000 803f 0000 803f 0000 803f 0000 803f
000002a0: 0000 803f 0000 803f 0000 803f 0000 803f
000002b0: 0000 803f 0000 803f 0000 803f 0000 803f
000002c0: 0000 803f 0000 803f 0000 803f 0000 803f
000002d0: 0000 803f 0000 803f 0000 803f 0000 803f
000002e0: 0000 803f 0000 803f 0000 803f 0000 803f
000002f0: 0000 803f 0000 803f 0000 803f 0000 803f
00000300: 0000 803f 0000 0000 0000 0000 0000 803f
00000310: 0000 0000 0000 0000 0000 803f 0000 0000
00000320: 0000 0000 0000 803f 0000 0000 0000 0000
00000330: 0000 803f 0000 0000 0000 0000 0000 803f
00000340: 0000 0000 0000 0000 0000 803f 0000 0000
00000350: 0000 0000 0000 803f 0000 0000 0000 0000
00000360: 0000 803f 0000 0000 0000 0000 0000 803f
00000370: 0000 0000 0000 0000 0000 803f 0000 0000
00000380: 0000 0000 0000 803f 0000 0000 0000 0000
00000390: 0000 803f 0000 0000 0000 0000 0000 803f
000003a0: 0000 0000 0000 0000 0000 803f 0000 0000
000003b0: 0000 0000 0000 803f 0000 0000 0000 0000
000003c0: 0000 803f 0000 0000 0000 0000 0000 803f
000003d0: 0000 0000 0000 0000 0000 803f 0000 0000
000003e0: 0000 0000 0000 803f 0000 0000 0000 0000
000003f0: 0000 803f 0000 0000 0000 0000 0000 803f
1.0 0.0 0.0 1.0 0.0 0.0 1.0 0.0
0.0 1.0 0.0 0.0 1.0 0.0 0.0 1.0
0.0 0.0 1.0 0.0 0.0 1.0 0.0 0.0
1.0 0.0 0.0 1.0 0.0 0.0 1.0 0.0
0.0 1.0 0.0 0.0 1.0 0.0 0.0 1.0
0.0 0.0 1.0 0.0 0.0 1.0 0.0 0.0
1.0 0.0 0.0 1.0 0.0 0.0 1.0 0.0
0.0 1.0 0.0 0.0 1.0 0.0 0.0 1.0
1.0 1.0 0.0 1.0 1.0 0.0 1.0 1.0
0.0 1.0 1.0 0.0 1.0 1.0 0.0 1.0
1.0 0.0 1.0 1.0 0.0 1.0 1.0 0.0
1.0 1.0 0.0 1.0 1.0 0.0 1.0 1.0
0.0 1.0 1.0 0.0 1.0 1.0 0.0 1.0
1.0 0.0 1.0 1.0 0.0 1.0 1.0 0.0
1.0 1.0 0.0 1.0 1.0 0.0 1.0 1.0
0.0 1.0 1.0 0.0 1.0 1.0 0.0 1.0
1.0 1.0 1.0 1.0 1.0 1.0 1.0 1.0
1.0 1.0 1.0 1.0 1.0 1.0 1.0 1.0
1.0 1.0 1.0 1.0 1.0 1.0 1.0 1.0
1.0 1.0 1.0 1.0 1.0 1.0 1.0 1.0
1.0 1.0 1.0 1.0 1.0 1.0 1.0 1.0
1.0 1.0 1.0 1.0 1.0 1.0 1.0 1.0
1.0 1.0 1.0 1.0 1.0 1.0 1.0 1.0
1.0 1.0 1.0 1.0 1.0 1.0 1.0 1.0
1.0 0.0 0.0 1.0 0.0 0.0 1.0 0.0
0.0 1.0 0.0 0.0 1.0 0.0 0.0 1.0
0.0 0.0 1.0 0.0 0.0 1.0 0.0 0.0
1.0 0.0 0.0 1.0 0.0 0.0 1.0 0.0
0.0 1.0 0.0 0.0 1.0 0.0 0.0 1.0
0.0 0.0 1.0 0.0 0.0 1.0 0.0 0.0
1.0 0.0 0.0 1.0 0.0 0.0 1.0 0.0
0.0 1.0 0.0 0.0 1.0 0.0 0.0 1.0
